Assets/results/petfollower7/PetFollower/PetFollower-10137.pt (torch, 444891 bytes, 36 tensors)

network_body._body_endoder.seq_layers.0.weight f4 [128, 7]
000000 c4 56 1f bf ab be 8f 3e b3 c1 23 3e 30 5d 61 be
       -0.6224177 0.28075156 0.15991859 -0.22008204
000010 a3 70 84 be 9b 17 0b be 25 15 42 be e4 0a 7a 3f
       -0.25867185 -0.13583224 -0.18953378 0.9767287
000020 1b cf 49 bb 34 fd 74 be 2a 03 67 3d 77 ce c8 be
       -0.003079361 -0.23924714 0.0563995 -0.3922002
000030 dc bd 8f 3c 01 15 55 3e 58 bd 28 be d0 07 55 3f
       0.017546587 0.20808794 -0.16478479 0.83215046
000040 ed 58 16 3f e1 ab 48 be 09 58 1f bd 39 b5 32 be
       0.5872944 -0.19596817 -0.038902316 -0.17451943
000050 11 c7 4c be 92 79 0d be 20 1e cb 3e f1 3d df 3e
       -0.19997813 -0.13815907 0.3967142 0.43601945
000060 d9 f8 e5 be c0 76 d5 3e 74 0b e2 3d 60 35 8c 3e
       -0.44916418 0.41692162 0.11037341 0.27384472
000070 55 02 8a 3c 1a 5b 3c be 67 0d 2f bf d0 51 53 bc
       0.016846815 -0.18394127 -0.68379825 -0.012897924
000080 c1 97 d9 bd f1 29 86 be a0 62 49 3e 97 0b b1 be
       -0.10624648 -0.26203874 0.19666529 -0.34579155
000090 e3 a7 14 3f 04 3a a8 3e ff ab d2 bd 12 b4 31 be
       0.58068675 0.32856762 -0.10286712 -0.17353848
0000a0 5b 7f 0b bd e3 0f b5 be 37 1b 36 bf b0 b4 73 3e
       -0.034057003 -0.35363683 -0.71135277 0.23799396
0000b0 64 5e f6 be 99 bf 5c be 8d 50 9f bd 90 a9 6a bd
       -0.4811889 -0.21557464 -0.07779036 -0.057290614
0000c0 c4 36 28 3f b3 4b a3 be 29 7c d6 bd c1 fa 9f be
       0.65708566 -0.3189369 -0.104729004 -0.31245998
0000d0 01 20 17 3f 20 80 19 bf 39 ab dc bd 7a f8 db be
       0.5903321 -0.5996113 -0.10774846 -0.4296301
0000e0 56 ee c0 3e 68 c9 94 be d2 2d 8a be 65 ea 2b 3e
       0.37681836 -0.2905991 -0.26988083 0.16788633
0000f0 d8 11 81 be 05 cb 94 3d 1a 27 88 bd 8a b5 c7 3d
       -0.25208926 0.072652854 -0.06648083 0.09751423
000100 06 c6 21 3f 5b 06 7d be 78 57 84 bd 08 ef 81 bc
       0.63192785 -0.24709456 -0.06461996 -0.01586105
000110 7c 0d a9 3d 78 b4 ab 3e 96 87 9a 3e 92 5d 0b bf
       0.08254525 0.33536124 0.3018157 -0.5443965
000120 f5 37 fb 3d 75 e9 96 bd fb 8f 77 bd cc e4 1b 3f
       0.12266532 -0.07368747 -0.060440045 0.6089599
000130 48 c5 19 3f 44 c4 0d 3f 77 a9 df 3d 9c fe d6 3e
       0.6006665 0.553776 0.10920995 0.41991127
000140 7b cc 03 be fe d9 11 bd 6e bb 46 be a6 0b 04 3d
       -0.12870972 -0.035608284 -0.19407436 0.03223767
000150 9f c8 06 3f b5 e6 1c be 6c 0d d1 be f9 eb c7 3c
       0.52649873 -0.15322383 -0.40830553 0.024404513
000160 70 ae ad 3d cb ed 52 be 6d 6c 08 3e 00 2d 05 bf
       0.08480537 -0.20598523 0.13322611 -0.5202179
000170 fe 79 cd bd 9d 78 5b 3d b1 b3 63 3d d5 73 04 3f
       -0.10033034 0.053581823 0.05559129 0.51739246
000180 7f 33 df 3d be 02 00 be a3 75 c8 3e fe 31 9e be
       0.10898494 -0.12501046 0.3915225 -0.30897516
000190 b4 ed ee 3d 7b 7f 53 be de fa 3c 3e 22 af e3 3e
       0.11666432 -0.20654099 0.18455073 0.44469553
0001a0 38 45 cf be 5a 46 a3 be cb f8 1a bf 74 e8 6c 3e
       -0.40482497 -0.3188961 -0.6053588 0.23135549
0001b0 f5 ac 7b 3d 01 3f da 3e c9 67 57 3e 4e a7 29 3d
       0.06144424 0.42626193 0.21035685 0.04141932
0001c0 18 a7 fd be 33 54 64 be c6 4d a7 3e df 85 68 be
       -0.49541545 -0.22297744 0.32676524 -0.22707318
0001d0 0e 5d 07 bc 13 79 0c be cc aa 63 bd 79 71 04 3f
       -0.008261932 -0.13718061 -0.055582806 0.51735646
0001e0 5e 6d 58 be a2 38 e2 bd f1 9c 2f 3d 4d 0a 5c bb
       -0.2113547 -0.11045958 0.04287428 -0.0033575476
0001f0 bb 6d df be bb d0 e0 bd 98 ce 14 3e 1c aa b3 be
       -0.43638405 -0.10977312 0.14531934 -0.3509072
000200 95 8c 21 bf 54 96 2b 3f 12 c8 f1 bd dc d1 0c 3e
       -0.63105136 0.6702626 -0.118057385 0.1375193
000210 f2 aa 10 bf f9 5c 9b 3e 53 2d 9e be 25 db 47 be
       -0.5651084 0.3034437 -0.30893955 -0.19517191
000220 ff 12 b0 be 64 77 d3 bd b1 4b 4e be ed a8 4d 3d
       -0.34389493 -0.10325506 -0.20146061 0.05020993
000230 44 df 18 bc e8 23 62 3d ac 6f fc ba 9c a2 40 3f
       -0.009330574 0.055210024 -0.0019259355 0.7524812
000240 41 10 84 3e 9b f3 d6 3e ef 7d 8b be d6 15 aa be
       0.2579365 0.4198273 -0.27244517 -0.33219784
000250 7c 7a bf bd ac fc f2 be 6b 45 d3 3e 89 53 da be
       -0.09349534 -0.47458398 0.412639 -0.42641857
000260 64 46 01 be e0 b2 e7 3e da de 1b 3f 7c 46 46 3f
       -0.12624508 0.45253658 0.6088692 0.774513
000270 93 3b b9 3e c5 2c f6 3e f0 74 17 be 98 16 a4 3e
       0.36178264 0.4808103 -0.14790702 0.32048488
000280 a4 eb 01 3f d9 a0 04 bf f8 75 46 be a7 8f 28 be
       0.50750184 -0.51807934 -0.19380939 -0.16461049
000290 ea 00 08 3f 6d ae 69 be 2c ce 01 3f 7c 40 80 3e
       0.53126395 -0.22820444 0.5070522 0.25049198
0002a0 39 c4 86 be 6e 8f 2a 3e 41 8b c4 be 4c fb 24 bf
       -0.2632158 0.16656277 -0.38387492 -0.6444595
0002b0 a6 53 47 be dd 4d a7 3d bf 6d 0b be b8 cc 87 3e
       -0.19465503 0.08169148 -0.13616084 0.26523376
0002c0 05 b3 17 3f 52 00 98 be ee a3 6e be 7a a9 55 bd
       0.5925754 -0.29687744 -0.23304722 -0.05216358
0002d0 94 04 5b 3e 51 2d 37 3e 99 68 af bd 9d e2 0c bf
       0.21388465 0.1788838 -0.08564872 -0.55033284
0002e0 c4 7a f9 be 72 56 35 3f 85 00 3d bf c0 5d c0 bd
       -0.48726475 0.7083503 -0.7382892 -0.093928814
0002f0 a1 fd 99 3e 58 60 33 3e 3c 52 97 be ea f5 85 3e
       0.30076316 0.17517221 -0.29554927 0.2616418
000300 72 e3 1c 3d 3f b2 8a bd 74 25 9d bd a0 1c 3d be
       0.038302846 -0.06772279 -0.07673159 -0.18467951
000310 25 10 03 be 5a 65 27 3f 69 1c 24 3f b8 d9 6f be
       -0.12799127 0.65389025 0.6410585 -0.23422897
000320 7c 6a 7f be 38 fd 27 be 63 68 25 3f c7 86 29 3d
       -0.24942964 -0.16405189 0.64612406 0.0413883
000330 09 1a a9 be 2c 11 61 be ef 10 da bd d5 f4 29 be
       -0.33027676 -0.21979207 -0.10647761 -0.16597302
000340 c9 8a 04 3d e2 88 11 3e b9 a1 a0 3e f0 4d 31 3f
       0.03235892 0.14212373 0.31373385 0.6925955
000350 cb ef 80 3e d5 c5 51 3f ea 6b 80 bd 7d 69 bc 3e
       0.25182948 0.8194249 -0.06270583 0.3679923
000360 84 8c 31 bf 88 56 aa 3e 9e 26 a4 3e 59 1b c6 be
       -0.69355035 0.33269143 0.32060713 -0.3869274
000370 a2 3f 95 bd 15 a3 a7 be 82 45 91 be 19 5a 34 be
       -0.072875276 -0.3274161 -0.28373343 -0.17612495
000380 81 5b c0 3e 8b 3c ad 3d fd fd 2a bf 21 80 19 bf
       0.37569812 0.08458813 -0.66793805 -0.59961134
000390 9d 9b 4a 3e 94 1b 8e be 9d 51 99 be 9f d1 7c 3d
       0.19785924 -0.27755415 -0.29945078 0.061723348
0003a0 db 84 4c 3d 43 2b d7 bd 41 cd 3f be 45 75 71 3e
       0.04993139 -0.105062984 -0.18730642 0.23579891
0003b0 cf 0a 60 bd 24 ae 27 3f 96 f4 e5 3d fd aa a4 3e
       -0.054697808 0.6550009 0.11228292 0.32161704
0003c0 f0 ea 0a bd f9 32 d8 3e ab b4 9d 3e e5 8e 61 3e
       -0.03391546 0.4222639 0.308019 0.22027166
0003d0 2b 3d f8 3d 06 1a e3 3d 51 c9 da 3e 3c c8 b0 be
       0.12121042 0.11088948 0.42731717 -0.34527767
0003e0 94 39 cb 3e f6 ba 54 3e dd 3c c2 3f 6a 1d 14 3e
       0.39692366 0.20774445 1.5174824 0.14464346
0003f0 fd 0e c8 bd d7 f4 28 bf 42 16 1f 3d 82 ce f3 be
       -0.09768484 -0.65998596 0.038839586 -0.4761849

network_body._body_endoder.seq_layers.0.bias f4 [128]
000000 32 07 14 3c 70 96 9f bc b2 19 d8 bb 63 a7 14 bd
       0.009034919 -0.019480914 -0.00659486 -0.036292445
000010 fd 7e cd bb 43 92 d7 bc 81 a9 a7 bb 4c 03 bc 3c
       -0.0062712417 -0.02631486 -0.005116642 0.02295079
000020 10 0d ca bb 2b 17 34 3b 4c 57 1c bc 82 34 0e bb
       -0.006166108 0.002747963 -0.009542298 -0.0021698778
000030 3b c9 0b bb db ac e4 bc 48 9c 0b bd b9 06 8a bc
       -0.002132966 -0.027914455 -0.03408459 -0.016848909
000040 3d 1e ed bc 0c 78 6c bc 34 db 76 3b 58 f2 dc bb
       -0.028945083 -0.014432918 0.0037667276 -0.006742757
000050 ef d5 a4 bb 98 68 09 3b 10 e8 18 3b a3 69 46 3c
       -0.0050303857 0.0020966884 0.002333168 0.012110147
000060 f6 88 3a 3c c9 44 92 bc 9c a5 cf 3a 42 09 6b bc
       0.011385193 -0.017855065 0.0015842202 -0.014345469
000070 52 0e 5b 3b 23 c2 b5 3b 76 f1 f4 ba 77 8a 12 bc
       0.0033425284 0.0055468245 -0.0018687684 -0.008944145
000080 8e d7 e4 bc 49 64 24 bc 17 4a cb ba 58 ba c3 3c
       -0.027934816 -0.0100336755 -0.0015509751 0.023892567
000090 e3 96 ef bb 1b 16 4c bb a2 8d 1b bb 30 33 2a bc
       -0.0073116883 -0.0031141106 -0.0023735543 -0.010388181
0000a0 ff cc a0 bc ad 71 c8 ba 71 d4 24 3c cb 38 63 bc
       -0.019629 -0.0015292667 0.010060416 -0.013868521
0000b0 58 da 4f bc 08 39 db bc b0 b7 46 bd b4 77 d3 bc
       -0.012686335 -0.026760593 -0.04851502 -0.025813915
0000c0 de ac f5 bc 3a d3 4e bc 22 d2 d5 bc ec 9b 45 bc
       -0.029989656 -0.0126236025 -0.026101176 -0.0120611
0000d0 a6 39 44 3b f3 2c b4 bb bc 32 7c bb a3 5f 34 b9
       0.0029941588 -0.0054985224 -0.0038482388 -0.00017201765
0000e0 0a 4e c2 b9 26 52 fb bb 0e 23 f3 bc 0f de b8 bc
       -0.00037060707 -0.007669705 -0.029679801 -0.022566823
0000f0 3d 74 b1 bb a1 96 b7 3b 64 eb 05 bc 1b 69 04 bc
       -0.005415468 0.005602673 -0.008173797 -0.0080817
000100 0a 3b 72 bb f4 13 65 bc 84 bc 4f 3a b2 7e e2 bb
       -0.003696146 -0.013981808 0.00079245144 -0.006912076
000110 b8 cb 4b 3b d9 ec d1 bb b6 26 96 bc ca b4 97 bc
       0.0031096768 -0.0064064083 -0.018329006 -0.018518824
000120 61 35 63 bb 7b 27 66 bb 90 ac d9 bc ea 5f 4e bc
       -0.0034669267 -0.0035118747 -0.026571542 -0.01259611
000130 f5 44 7c 3c f9 68 5d bc 72 c9 49 bc ae 76 2a 3a
       0.0153973 -0.013513797 -0.012316095 0.000650267
000140 59 6c 59 bc 03 24 21 bc 26 dd 2b bd 55 dc e5 bb
       -0.013270461 -0.009835246 -0.04195895 -0.007014791
000150 30 3f ee bb 85 dc 12 bc 09 3e b9 bc 66 64 de bc
       -0.007270716 -0.008963709 -0.022612588 -0.027147483
000160 fa 31 8b bb 42 68 60 ba b7 11 22 bc 83 cf 75 3b
       -0.004247901 -0.00085604575 -0.009891919 0.003750772
000170 f6 71 4c bc 17 7c a5 bb a5 0e 84 bc 2f 81 fd ba
       -0.012478342 -0.005050193 -0.016120264 -0.0019340868
000180 a1 0d 30 3c db 97 31 3b 36 8c c6 bb cb f1 30 bc
       0.010745437 0.002709857 -0.006059195 -0.010799835
000190 00 d3 b7 3b a5 8a b7 bc ad 80 20 bd a4 ea 2b 3b
       0.00560987 -0.022404978 -0.039185215 0.0026232386
0001a0 ce 68 3c 3b 7c 12 0a bc a4 7f 32 3b 29 7b b5 3b
       0.0028748992 -0.008427259 0.0027236724 0.0055383635
0001b0 b8 61 46 3b 47 c5 1d bc 19 b0 8b bc 05 21 c7 39
       0.0030270647 -0.009629554 -0.017051743 0.0003798084
0001c0 92 17 ba bb 87 5f ae bb f2 6e 8f bc 6d 7f 09 bc
       -0.0056790793 -0.0053214463 -0.017508958 -0.008392197
0001d0 e3 d4 50 bc 52 63 6c bc 90 00 63 3a 13 28 b2 ba
       -0.012746069 -0.014427977 0.00086594466 -0.0013592265
0001e0 ab eb 9e bc 9d 7f 55 bc b9 0f 06 bc 64 eb 04 bc
       -0.019399485 -0.013030914 -0.0081824595 -0.008112762
0001f0 c4 d1 b4 bb 1d 9b 99 3b c5 0b 80 bc b6 e7 97 bc
       -0.00551817 0.0046876804 -0.015630612 -0.018543106

network_body._body_endoder.seq_layers.2.weight f4 [128, 128]
000000 26 ab bd 3c 02 0a af bd fd 2e ad bd e0 8d 69 3d
       0.023152899 -0.08546831 -0.08456228 0.05702007
000010 a7 25 aa 3d a8 78 29 bc a1 dd b4 bc e0 09 05 be
       0.08307963 -0.010343708 -0.022078337 -0.12992048
000020 3e 85 39 bc 00 b5 ab bc 16 aa 0c bd 12 8e 6e 3e
       -0.011323271 -0.020960331 -0.034341894 0.23296383
000030 11 1d 19 bd 57 37 f8 bd 64 2c 5b 3e 32 2b e8 3d
       -0.037381236 -0.1211993 0.21403652 0.11336364
000040 66 ed 05 3e 3f 82 32 bd 5b 7f bd 3d 44 a1 03 3e
       0.13078842 -0.043581244 0.09252807 0.12854487
000050 ef 24 97 3d cd a9 32 3d 82 60 c1 bd 92 29 18 3d
       0.073800914 0.043618966 -0.094422355 0.03714902
000060 05 86 2a bc 19 47 23 bd ff 88 ef 3c 14 6c 0b bd
       -0.010407929 -0.039862726 0.02924013 -0.03403862
000070 56 fc 41 bd 6e 56 55 3c c3 93 2b 3d e3 83 46 3e
       -0.047359787 0.013021095 0.041888963 0.19386248
000080 57 e0 19 be ad e6 40 3d 60 8c c6 3d e9 e3 29 bc
       -0.15026985 0.04709499 0.09694743 -0.010369279
000090 d1 09 17 be d7 85 0e 3d 06 f6 05 bb 7d 0b 37 3d
       -0.14749838 0.03479561 -0.002044083 0.04468869
0000a0 ce a2 69 3c 32 15 52 bd ba ed 70 bd 29 dc 38 be
       0.014260007 -0.051289745 -0.058820464 -0.18052734
0000b0 94 e9 30 bd 64 bc 1d be 2d eb 98 3c 69 b0 bd 3c
       -0.043191507 -0.15403897 0.018666828 0.023155408
0000c0 53 61 04 be ee ef e2 bd 55 a4 2b bc 31 72 ae bd
       -0.12927751 -0.11080919 -0.0104761915 -0.08517874
0000d0 4f b9 16 be 30 fa f3 bc d5 60 50 bd 1d 48 dc bd
       -0.14719127 -0.029782385 -0.050873596 -0.10755942
0000e0 14 a7 cb 3d 59 2d 49 3e 38 4a 5b 3c 4a cf 8c bc
       0.09943977 0.19646205 0.013384394 -0.017188687
0000f0 9d 68 c7 3c a8 7b 8e bc 48 bb 31 3d a0 30 de 3d
       0.024341876 -0.017392948 0.043391496 0.10849118
000100 9c bb 23 bb fc 18 fb bd 50 d2 97 bc 0f 47 09 bd
       -0.002498365 -0.12260625 -0.018532902 -0.033515032
000110 45 e9 91 bd 44 38 55 3d d7 9b 55 3d 3f 23 cb 3d
       -0.07124571 0.052055612 0.052150574 0.09918832
000120 2c 16 4b 3e d3 a7 10 3d 87 39 56 3d 2a a5 99 bc
       0.19832677 0.0353163 0.052300956 -0.018755514
000130 ac 08 2b 3c 99 47 0a bd 4f 32 ce bd 35 bf 4b be
       0.010439079 -0.033759687 -0.10068189 -0.19897158
000140 3c e3 95 3d 7e e2 41 bd 09 90 47 be 62 55 6c bc
       0.07318732 -0.04733514 -0.19488539 -0.014424654
000150 32 5b 60 3c c4 32 f2 3c 09 b5 ea 3d 26 20 69 3d
       0.013693618 0.029565223 0.11460311 0.056915425
000160 fa 68 56 3d 25 c3 b9 3d fc 0e d7 bc cd 5c 35 bd
       0.052346207 0.09070424 -0.026252262 -0.044277955
000170 d2 77 de bd 7e 79 49 bd 1e bd 74 bc d2 b4 02 be
       -0.10862698 -0.04918813 -0.014937667 -0.1276429
000180 8b eb 5e 3a 09 17 3e 3d 34 26 c7 3d 1d 63 d5 bd
       0.00085037266 0.046408687 0.097240835 -0.10419295
000190 18 b6 4d be a5 78 4d be fa 4e 65 3d 15 7a 56 bd
       -0.20088995 -0.20065553 0.05598352 -0.05236252
0001a0 fb 87 cd 3c 99 e0 18 be d5 18 62 3c a1 85 3d 3e
       0.025089255 -0.14929427 0.013799866 0.18508007
0001b0 aa 34 68 bd e0 e8 1c 3d ff bf d6 bd 3f 37 0d ba
       -0.05669085 0.038308024 -0.10485839 -0.00053869555
0001c0 67 20 c9 bd 54 67 df bd cf 82 0e bc 33 ad 29 bc
       -0.098206334 -0.1090838 -0.008698179 -0.010356235
0001d0 30 41 70 3c a0 c9 82 3d 1b d3 6a 3d e9 4b ec bd
       0.014663979 0.06386113 0.057330232 -0.11537916
0001e0 cf ae 8c bd 17 a0 d1 bd 9f 59 ca 3c 4b b3 e0 3c
       -0.068692796 -0.10235613 0.024700938 0.027429244
0001f0 b2 f8 33 be 2f 66 ca bd 5e 22 8a bd 6b d7 01 bd
       -0.17575338 -0.09882771 -0.06744836 -0.03169958
000200 13 aa 19 bc 02 9a ec 3b ff fc cf bd 1c 20 cd 3c
       -0.009378928 0.0072205076 -0.10155677 0.025039725
000210 46 b1 91 3d f7 e4 ae 3b b4 f9 92 bd 3f 51 e9 3d
       0.0711389 0.0053373533 -0.07176533 0.113924496
000220 d7 bc 55 bc e8 04 26 be 1c e8 a7 3d 57 49 3a be
       -0.013045511 -0.16212809 0.08198568 -0.1819204
000230 70 63 49 bd 9a 3b 01 bd 13 f7 82 bd 59 b4 c3 bd
       -0.049167097 -0.03155098 -0.06394782 -0.09555883
000240 3e f8 dc 3c 91 45 e7 3c 42 14 92 3d 8d 5d 69 bd
       0.02697384 0.028231414 0.0713277 -0.056973983
000250 f6 01 64 3d f5 a7 af 3d 2a e2 46 3e 65 19 0a bd
       0.055665933 0.08576957 0.19422212 -0.033715624
000260 c8 e6 e7 bd c6 29 02 3e 8c 00 cc bd fd 45 51 bd
       -0.11323315 0.12711248 -0.09961042 -0.051092137
000270 81 8d 37 bd 93 ac d8 3c fb 4e 81 bd 98 e2 17 3e
       -0.044812683 0.026449477 -0.063138925 0.14832532
000280 b2 dc 3c 3e 73 0e db bd 75 ec d6 ba 12 86 c0 bc
       0.18443564 -0.10696115 -0.0016397374 -0.02350143
000290 c8 35 98 ba 09 cc 2e be 70 c6 bf bd f2 76 97 3d
       -0.0011612708 -0.1707002 -0.09364021 0.07395734
0002a0 10 a3 02 bd c9 cc 3a 3e 49 5e f7 3d 66 91 a4 bc
       -0.03189379 0.18242182 0.1207853 -0.020088863
0002b0 3d ba 94 bd 2b 0b 86 3c 20 e5 2c 3d 1f 8a 24 3d
       -0.07262085 0.016362747 0.042210698 0.040170785
0002c0 fd ef eb bc 7b 30 0e 3e cb 9a 0c bd a1 a0 92 3d
       -0.028800959 0.13885681 -0.03432731 0.07159544
0002d0 15 07 ff 3d a5 cc a7 3b 80 b9 c5 3c 49 52 3d bc
       0.12452523 0.005120831 0.024136305 -0.011555263
0002e0 4d 50 29 3d 64 1e c4 3c 85 e8 d1 3d 9c ac a7 3d
       0.041336346 0.023940273 0.10249428 0.081872195
0002f0 4a 98 65 3d 8e eb 73 3e f8 ac 0d be c6 db c1 bc
       0.056053437 0.23820326 -0.13835514 -0.023664366
000300 a8 64 9d bc bd 1a 6b bd 65 29 9d 3d 41 a3 02 be
       -0.019213036 -0.057398546 0.07673911 -0.12757589
000310 22 46 fe bd d3 f8 d2 bc de 40 26 3e 9c c8 46 3d
       -0.124157205 -0.025753414 0.16235682 0.04853116
000320 f5 2c 2a bd 25 e0 51 3c 6a 31 5d bc 79 0d 6f 3e
       -0.04154678 0.012809788 -0.013500551 0.23344983
000330 8f e8 23 bd 7e 49 bb bd e3 e1 8d 3e f0 b0 2e 3e
       -0.040016707 -0.09144877 0.277114 0.17059684
000340 d5 41 60 3c ef 46 a7 bd b8 4c 95 bd 1e b3 99 3d
       0.013687571 -0.081678264 -0.072900236 0.07504867
000350 72 4f 21 be 11 ca aa bd 7c b9 1d bd 41 7a 00 3e
       -0.15752962 -0.08339322 -0.03850697 0.12546636
000360 31 5a 1b be 7c 6e 4d 3e 73 34 de bc c6 5d 01 3e
       -0.15171124 0.20061678 -0.02712462 0.12633428
000370 e7 32 0a 3e b8 c3 88 3d ce 5d 22 3e 6a 9f 39 3d
       0.1349598 0.066779554 0.15856096 0.045318045
000380 36 a9 33 bc 89 01 2d be 89 96 0a 3e 5f d4 f5 3d
       -0.010965636 -0.16895117 0.13533987 0.12003397
000390 bf 20 74 3d c6 7b 25 3d c1 6e 3a 3c 12 f2 51 3d
       0.05960154 0.040401243 0.011378945 0.051256247
0003a0 5f 15 59 3c b8 79 62 be 64 57 04 3d 77 92 6d 3e
       0.013249724 -0.22116745 0.032309905 0.23200403
0003b0 8b 59 a7 3d 08 d0 0d be 83 5c c2 3d 92 37 c0 3d
       0.08171376 -0.13848889 0.094903015 0.09385599
0003c0 dd 24 09 be e3 59 36 bd 03 cb 6d 3d 29 99 0f bd
       -0.13392968 -0.044519316 0.058054935 -0.035058174
0003d0 93 ee 1c 3a 4a 86 fe bd 21 48 43 be e3 74 f2 3d
       0.0005986478 -0.12427957 -0.19070484 0.118387006
0003e0 07 78 2f 3d e1 87 06 bd d9 d4 9b 3d b1 97 d2 bc
       0.042839076 -0.032844428 0.07608957 -0.025707098
0003f0 70 57 8f 3d f6 55 0d 3d 24 6d 6b bd 5e f1 a2 bd
       0.06999099 0.034505807 -0.05747713 -0.079561934

network_body._body_endoder.seq_layers.2.bias f4 [128]
000000 a3 ab 00 bc 93 1a 54 3b 17 2e e1 bb dc 9b dd ba
       -0.007853421 0.0032364472 -0.0068719494 -0.0016907412
000010 7d 40 c8 bb 3e 3e 6a bc a5 e7 dd 3a da 9f c8 bc
       -0.006111203 -0.014297066 0.0016929997 -0.024490286
000020 7c e7 8c bc c7 62 59 bb b0 17 b5 bb fe 37 14 bc
       -0.017200224 -0.0033170448 -0.0055265054 -0.009046553
000030 a4 4c 88 bc 80 a3 8e 3b 91 62 74 bc 50 4a 9f bb
       -0.016638108 0.004352987 -0.014916078 -0.0048611537
000040 f3 72 81 bc 27 c2 f5 bb 4a f0 21 bc 31 cb 04 bc
       -0.015801882 -0.0074999514 -0.0098839495 -0.008105085
000050 0e 09 e7 bb 72 c4 ce bb 17 b2 ec bb 01 c7 f4 bb
       -0.00705064 -0.006310039 -0.0072233784 -0.007470012
000060 72 e3 7f ba a3 ab 23 bc 7a 48 41 bc 00 42 18 bc
       -0.000976137 -0.009989652 -0.011797065 -0.009293079
000070 aa 5a 84 bc 70 5e 6d bc f6 c3 90 bb 58 6c 0f bc
       -0.016156513 -0.014487848 -0.0044178916 -0.0087538585
000080 60 0f 11 3b 02 c2 cb bc a1 e8 1b bc 2b fd 59 bc
       0.0022134408 -0.024872784 -0.009515912 -0.013304989
000090 d2 4a 29 bc 70 02 7e bc 2e e1 d1 bb e6 83 67 bc
       -0.01033278 -0.015503511 -0.0064050173 -0.014130568
0000a0 95 84 0e bc 91 15 b9 bc 9e f8 9f 39 f0 39 4b bc
       -0.008698602 -0.022593291 0.00030512078 -0.01240395
0000b0 f4 67 ed bb 13 2c 8c b9 f3 7c 39 b9 3f 30 07 bc
       -0.007245058 -0.0002673572 -0.00017689522 -0.008251249
0000c0 f9 23 75 bb 4f 12 e5 bb ce c5 a5 bc b1 70 80 bc
       -0.0037405475 -0.006990708 -0.020235922 -0.015678735
0000d0 9e cd 86 bb 61 c9 bc bb f6 63 0a bc 18 ae 7c bc
       -0.004113867 -0.005761311 -0.008446684 -0.015422367
0000e0 1f eb f6 bb 2e 41 3c bc a6 38 f5 3a 02 b3 b9 bb
       -0.007535353 -0.011490149 0.0018708899 -0.0056670913
0000f0 b8 1e 85 bc 96 37 47 bc 18 70 51 bc 3e 5c 25 bc
       -0.01625 -0.012159249 -0.012783073 -0.010092793
000100 1e ec eb bb 4d db 46 bc d6 b9 6c bc a4 74 3a bc
       -0.007199778 -0.012137246 -0.014448604 -0.011380348
000110 cb c2 ca bc 2a dc b9 bc 60 49 f6 ba 11 72 d7 39
       -0.024751088 -0.02268799 -0.0018790178 0.00041092982
000120 92 08 8a bc 6a de cc 3b db 83 c2 bb a7 71 8a 3b
       -0.01684979 0.0062520998 -0.0059361286 0.004224974
000130 c1 96 65 bc 7a de 54 bc 57 4d ac bb 7b e7 23 bc
       -0.014012993 -0.012992496 -0.005258243 -0.01000392
000140 e4 b2 c4 ba 62 ad bf bb 7c fd 27 bb 0b 66 13 bc
       -0.0015006927 -0.0058495263 -0.0025633266 -0.008996497
000150 ac 47 ea bb 29 ef d3 bb 38 74 5c bc f8 a1 97 bb
       -0.0071496572 -0.006467719 -0.013455443 -0.0046274625
000160 de 49 5f bc c8 2c 8f bb 9c 91 df 39 e9 8e 09 bb
       -0.013628451 -0.004369352 0.00042642362 -0.0020989722
000170 a0 cf 57 bc 4c 77 61 bb 00 90 91 bb 06 f9 ba bb
       -0.01317206 -0.0034403382 -0.004442215 -0.0057059554
000180 06 db 3f bc cb f6 1b bc 48 48 aa bb c7 69 23 bc
       -0.011709934 -0.009519289 -0.005196605 -0.00997395
000190 1d eb a3 bb 00 bf db bb e9 7f 57 3b 09 19 9e bb
       -0.005002393 -0.0067061186 0.0032882637 -0.0048247618
0001a0 76 1b 97 bc a2 fe 3f 3b 5b 6a c5 bb aa 02 8a bc
       -0.018445712 0.002929606 -0.0060246415 -0.016846973
0001b0 f4 98 36 bc 47 f4 45 bc 08 05 da bb e4 49 e6 bb
       -0.011144865 -0.012082166 -0.006653432 -0.0070278514
0001c0 f2 f2 33 bb c5 93 ea 3a 4a 8b ad bb e9 0b 71 bc
       -0.002745804 0.0017896822 -0.0052961456 -0.014712312
0001d0 56 6b 1f bc 01 66 bf bb 19 77 ce bb 79 cd 38 bc
       -0.009730181 -0.0058410172 -0.0063008186 -0.011279457
0001e0 89 02 1a bc 89 6d 68 bc 2b ff ef bb 04 7f 0b bc
       -0.0094000185 -0.0141862715 -0.0073241196 -0.00851417
0001f0 bd 5b fd bb 74 17 71 ba 7e e4 37 bc 35 3a 17 bc
       -0.0077318833 -0.0009196915 -0.01122391 -0.009230186

action_model._continuous_distribution.log_sigma f4 [1, 2]
000000 6e 91 f9 bb e1 12 6f bc
       -0.0076162135 -0.014591903

action_model._continuous_distribution.mu.weight f4 [2, 128]
000000 80 11 76 bc 61 51 c8 bc 70 a5 80 3b 5e c0 d4 3c
       -0.015018821 -0.024452867 0.0039259717 0.025970634
000010 6f b6 ae 3b 07 7b 28 bd 4a 69 15 bc c4 aa b3 ba
       0.0053318064 -0.041132953 -0.009119341 -0.0013707508
000020 6e 06 bf ba bb a6 9f bc 6b 76 c7 bb 1f 4f 8e 3a
       -0.001457406 -0.019488683 -0.0060871146 0.001085732
000030 bb e4 f8 3b a7 db 3f 3c ad f4 92 3a 12 82 38 3c
       0.007595626 0.011710084 0.0011211835 0.01126148
000040 a3 61 85 bc 4b bf 37 bd 98 a2 4f bc 52 4e 1a bd
       -0.016281908 -0.044860166 -0.012673043 -0.03767235
000050 85 a0 36 bc 2e 2b 0b 3d 9f 9d 0a bb e2 e4 bc bc
       -0.011146669 0.033976726 -0.0021151078 -0.023058359
000060 57 71 87 3a 66 0d 52 3b d3 32 b3 bb 21 5a c8 ba
       0.001033346 0.0032051443 -0.005468705 -0.001528565
000070 0f 5c af 3a 2b f5 11 bb 68 59 8b bc 2e 37 d7 3a
       0.0013378876 -0.0022271376 -0.017010406 0.0016419643
000080 62 e9 d4 3c ea 37 c0 3a dc ac 1c bb 4a 36 1d bc
       0.025990192 0.0014665101 -0.0023906743 -0.009595463
000090 1d 05 51 bc 92 ea 24 bd 10 0f 9e 3c fa f3 40 bc
       -0.012757567 -0.040262766 0.019294292 -0.011776919
0000a0 48 29 a9 3a 51 17 ec bb 75 d1 1f 3d e0 27 c0 bb
       0.001290598 -0.007204928 0.039018113 -0.0058641285
0000b0 19 81 4b 3c ad 2d b7 bc 94 ed 09 bd 9b 3e c5 bb
       0.012420916 -0.022360647 -0.033673838 -0.006019426
0000c0 28 ae b6 3a 47 f7 ca bc 35 66 64 bb eb f3 be bb
       0.0013937401 -0.024776114 -0.003485096 -0.005827417
0000d0 0f 4d 80 3c 05 8d 60 bb 94 d3 10 ba 6b 98 03 bd
       0.015661744 -0.0034263742 -0.00055246917 -0.03212778
0000e0 9c cd fc 3a 29 4b a3 bb af 70 8c 3c 94 b3 08 3c
       0.0019287351 -0.004983325 0.017143575 0.008343596
0000f0 e2 30 08 3c 1a 58 d5 bb 77 dc 7c ba 17 2d 49 bb
       0.008312436 -0.0065107467 -0.0009645889 -0.0030697042
000100 dd 5d ae 3a 41 f3 5c 3a 3b a0 5a 3c 64 ae 13 3c
       0.001330312 0.00084285816 0.013343866 0.009013746
000110 43 d1 2f 3b 6d 99 a5 ba 52 d1 04 bc 65 a7 c2 3c
       0.002682761 -0.0012634225 -0.0081065465 0.02376146
000120 73 70 92 3a e7 e3 3b bc 29 f0 a9 bc f8 71 3a bc
       0.0011172428 -0.01146791 -0.0207444 -0.011379711
000130 56 62 2e bb 09 b3 8b bb a1 d0 32 bd 9d 3f 11 3b
       -0.0026608906 -0.004263286 -0.043655995 0.002216316
000140 fb fb 53 bc 97 2d 84 ba 50 d7 61 3b af 31 5a 3c
       -0.012938495 -0.0010084388 0.0034460612 0.01331751
000150 d5 bb b9 bb bd 69 eb bb 5d 3e 5d bc 90 b9 e9 3a
       -0.0056681433 -0.007184236 -0.013503638 0.0017831791
000160 05 f3 12 bd 60 a2 81 bc fa 0a 0b bd 28 3d cb ba
       -0.035876293 -0.015824497 -0.033946015 -0.0015505897
000170 8e e7 68 bc 3c b3 54 3c a2 f1 80 3a 49 5d 25 bc
       -0.014215363 0.012982186 0.0009837637 -0.010093042
000180 67 48 99 3c 03 1a be 3a ac 2f 2e bc e6 47 2a 3d
       0.018711282 0.0014503602 -0.010631483 0.041572474
000190 7b 0d 71 ba 6c 02 f6 39 0e 98 78 bc 2d 0a 57 bb
       -0.0009195429 0.0004692258 -0.015172971 -0.0032812462
0001a0 7c 62 45 ba be 4f ec bb fb d2 83 bb 08 59 98 bb
       -0.0007529629 -0.0072116544 -0.0040229536 -0.004649285
0001b0 d7 71 02 3c 57 f4 c9 bb b5 81 45 3c 0e ff d6 b9
       0.007961712 -0.006163161 0.01205485 -0.0004100729
0001c0 91 4d 81 3c 4a 78 18 3c d8 12 d6 bc 5d d1 01 3b
       0.015784057 0.009306023 -0.026132032 0.0019808628
0001d0 82 cc 3e 3c 09 3d b6 3a 77 01 5d 3c d9 5e 39 ba
       0.011645438 0.0013903688 0.013489119 -0.00070713233
0001e0 af 32 8b bc 41 2f b6 bc f6 af db 3b c4 ca 6f 3b
       -0.016991941 -0.02223933 0.006704326 0.0036589364
0001f0 2b 1e e7 ba 81 21 29 bc f7 f5 d1 3c 2c e6 14 3c
       -0.0017632892 -0.010322929 0.02562998 0.00908808
000200 97 e2 9a bc 19 3a 35 3d 2c 84 01 bc bd b1 15 bc
       -0.018906875 0.04424486 -0.007905047 -0.009136614
000210 71 60 df bc 79 19 e7 3a 75 41 1a 3b 38 91 85 bb
       -0.027267667 0.0017631493 0.002353755 -0.0040761493
000220 ca ef 87 ba 75 52 1a 3d 5f 55 f9 bb 77 bc 9e bc
       -0.0010371145 0.037676293 -0.007609054 -0.019376976
000230 04 f7 c0 3b b5 c0 18 3d 53 ca a2 ba ef 8c 12 bc
       0.0058888216 0.037293155 -0.0012419916 -0.008944734
000240 17 27 53 3c 48 ef 7b 3a ea 39 45 3b 96 e4 71 39
       0.012887738 0.0009610546 0.0030094334 0.00023068706
000250 14 38 05 3c 2a 77 c3 3b ba d2 8b 3b fc 81 26 bc
       0.008131046 0.005965133 0.004267064 -0.010162827
000260 71 3d d6 3b 7f 2c 5b bb 4c 34 21 bc 55 ef 92 3b
       0.006538086 -0.003344327 -0.009839129 0.004484097
000270 18 81 2d 3b e2 a1 94 bb 08 f2 90 bc 9a 6f 16 b9
       0.002647465 -0.0045358995 -0.017693534 -0.0001434669
000280 93 01 01 bc 28 1b 86 bb b2 6e 85 3c cc 12 08 bb
       -0.0078739105 -0.0040925927 0.016288135 -0.0020763157
000290 37 9d 88 3a ec 4a 16 bd 6e 27 8d bb 14 64 0c 3a
       0.001042283 -0.036692545 -0.004307679 0.0005355489
0002a0 ad c5 7e bc 8c be 85 3c 8e 5e 77 3c bc bd 73 3c
       -0.015550059 0.016326211 0.015098227 0.014876779
0002b0 73 3a 7b bc 5c b7 cb bc 6e 9d 8a 3b 0e e4 24 bc
       -0.01533376 -0.024867706 0.004230193 -0.010064138
0002c0 35 dc 8e bc 73 67 58 bd d2 36 32 3a 0d b1 b6 bb
       -0.017438987 -0.052833032 0.000679833 -0.0055753053
0002d0 33 8d 2b bb f1 6d 74 3c 53 6a b7 bb 1c b1 57 3c
       -0.002617669 0.01491879 -0.0055973916 0.013164785
0002e0 f1 ab 1f 3b 56 e3 7e 3b 1c cf c7 3c 3f 7a 90 3c
       0.002436396 0.0038892827 0.02439075 0.017636416
0002f0 67 f8 a2 bb dc 45 2d bc 9c 9c dd bb 25 cd 1c 3d
       -0.0049734595 -0.010575738 -0.006763054 0.03828158
000300 18 dc 51 bb 73 9a 00 bb a3 c7 e8 ba d2 ef 23 bc
       -0.0032022055 -0.001962331 -0.0017759692 -0.010005908
000310 5c 05 0a bb 96 cb 37 ba 04 48 76 bc 73 66 26 bd
       -0.0021060323 -0.00070112327 -0.015031818 -0.040625047
000320 25 a1 bd 3b cf 76 d6 3c d5 43 da 3b 9d 94 9b 3c
       0.005787032 0.0261797 0.0066609182 0.018991763
000330 f2 a1 7d bb 87 02 32 3b 56 d2 df 3a d4 e6 2e 3c
       -0.0038701263 0.002716215 0.0017076235 0.010675151
000340 96 f4 5d 3a 39 eb 25 bc 30 01 86 3c 63 15 6b 3b
       0.0008466927 -0.010126882 0.016357988 0.0035870902
000350 a3 23 48 3c a9 fd e4 bc 1d 7a 1b 3b d5 47 b2 3b
       0.012215528 -0.027952986 0.0023723908 0.005440692
000360 b2 d8 45 3c 47 f4 09 3c 00 11 48 bc 2e 59 52 3c
       0.01207559 0.008420057 -0.012211084 0.012838645
000370 e7 77 92 39 dc b9 ce bb 30 7b bd 3b 4b 5e 16 3c
       0.00027936624 -0.0063087773 0.0057825074 0.009177755
000380 9d 6f 75 bc 01 af a4 3b 69 8a a6 bb 0a d5 6a bb
       -0.014980224 0.005025745 -0.0050824177 -0.0035832548
000390 11 1f 9e 3c 00 fd 2b 3b 8a 35 16 3d c1 07 6a 3c
       0.019301923 0.002624333 0.036672153 0.014284075
0003a0 72 65 d1 ba 93 ec ef 39 b6 78 20 3c 67 8b 64 bb
       -0.0015975668 0.00045761894 0.009794405 -0.003487313
0003b0 27 86 8b bc 3e bb 2c bc cb f0 d4 39 8f 40 7a 38
       -0.017031742 -0.010542689 0.00040615196 5.966477e-05
0003c0 64 e4 b2 bb ae 6e 46 ba c6 24 da 3b 5c 66 ab ba
       -0.005459355 -0.0007569593 0.0066572158 -0.001307677
0003d0 fd 7c 45 bb 18 4f e7 3c 07 5a 01 3c f1 7e 8f 38
       -0.0030134313 0.028235957 0.007894999 6.842416e-05
0003e0 aa 88 66 bb d0 07 05 3c ae 0c 48 3c 53 38 11 bd
       -0.0035176673 0.008119538 0.012210054 -0.035454106
0003f0 19 fd ac 3b f3 76 5f 3c 59 ba 07 bc 9a be 54 bb
       0.005279195 0.0136392 -0.008284175 -0.003246224

action_model._continuous_distribution.mu.bias f4 [2]
000000 85 54 fa 39 1b 5c df 3b
       0.00047746688 0.0068163997

exp_avg f4 [128, 7]
000000 49 11 ba bb 94 ed 8c 39 69 c5 d7 3b c9 b5 f1 ba
       -0.00567833 0.0002687989 0.0065848124 -0.0018441017
000010 06 4b 87 39 81 bf b9 bb a9 fe 22 b8 57 cc fb 2a
       0.00025805103 -0.005668581 -3.886098e-05 4.4728346e-13
000020 43 29 be a8 dc 93 11 ab 42 d3 26 2a 7a 8f b6 a8
       -2.1112132e-14 -5.1719544e-13 1.4817057e-13 -2.0268282e-14
000030 01 e3 f1 2a 4f 39 86 26 e3 ce 7b bb 2b 17 48 39
       4.2967715e-13 9.313651e-16 -0.0038422875 0.00019082117
000040 9f 4d 99 3b b7 2a 86 ba 37 19 40 39 ba 3f 49 bb
       0.0046784426 -0.0010236119 0.0001831994 -0.003070815
000050 67 78 8b 37 df 9f bc b9 72 9d a4 37 56 a9 fc 39
       1.6626158e-05 -0.00035977268 1.962364e-05 0.0004819135
000060 7e a8 f2 38 fa 0b 9e 37 4f 1d 33 b8 1d db 28 37
       0.00011570843 1.8840645e-05 -4.270422e-05 1.0064597e-05
000070 1f 68 cf b4 d4 bf a3 32 32 01 fb 34 93 3e f4 b3
       -3.8632513e-07 1.906293e-08 4.6753263e-07 -1.13735176e-07
000080 ba 35 9d 32 ca eb b6 b4 20 f5 f7 30 2f ab 6e 39
       1.8301638e-08 -3.40717e-07 1.8041284e-09 0.0002276122
000090 1a 18 b0 35 09 27 13 38 83 31 2a 39 87 29 aa 35
       1.3120036e-06 3.5083885e-05 0.00016230908 1.2678073e-06
0000a0 5f 04 9c 3a 30 72 a1 37 64 77 ce ba cf ed 9d 38
       0.0011903158 1.9245868e-05 -0.0015752134 7.530639e-05
0000b0 a9 c9 f1 3a 69 92 18 ba 17 9e 97 38 2e 88 c4 ba
       0.001844694 -0.00058201567 7.2296876e-05 -0.0014994198
0000c0 42 fc de 36 1e a1 a2 ba a0 88 7d 38 a6 29 c2 3a
       6.6454822e-06 -0.0012407636 6.0447142e-05 0.0014813438
0000d0 c7 ce da b9 1c 67 73 38 fe bf 96 ba 37 1f 8f b6
       -0.0004173426 5.8031743e-05 -0.001150131 -4.265366e-06
0000e0 7f bb c2 30 d5 e2 9a ae a1 30 ed b0 3d bf dd 2f
       1.4168647e-09 -7.043403e-11 -1.7257841e-09 4.033555e-10
0000f0 6a b2 94 ae 53 bd a8 30 57 b2 b2 ab 43 97 79 37
       -6.7619535e-11 1.2277418e-09 -1.269716e-12 1.4876775e-05
000100 47 d1 40 b5 66 a7 93 b7 9c 29 8e 36 56 1c 39 b5
       -7.183011e-07 -1.7601717e-05 4.2367737e-06 -6.8959105e-07
000110 a9 66 5f 37 c0 92 36 33 8c 9b 64 b3 db 1e 2d 31
       1.3315738e-05 4.2508645e-08 -5.3226856e-08 2.5192353e-09
000120 76 9b 84 33 12 e1 20 b2 31 33 26 31 71 14 5b b3
       6.175007e-08 -9.364401e-09 2.4185278e-09 -5.1008502e-08
000130 9f 42 07 af 77 06 87 bb 37 88 5b 39 f2 39 a8 3b
       -1.2301847e-10 -0.0041206437 0.00020936212 0.0051338607
000140 95 b9 a8 ba 50 c4 52 39 73 d9 45 bb 05 19 b5 37
       -0.001287269 0.00020100293 -0.0030189424 2.1588532e-05
000150 5a 04 64 30 ef aa 0c ae 50 d3 56 b0 17 c6 4a 2f
       8.29521e-10 -3.1984134e-11 -7.815304e-10 1.8442169e-10
000160 27 06 07 ae 22 5b c1 30 1d 75 4a 2e 31 b9 1d bc
       -3.070091e-11 1.40685e-09 4.60335e-11 -0.009626673
000170 b3 c9 f2 39 db ea 39 3c 6b a7 3e bb 7c 15 e9 39
       0.00046308115 0.011347498 -0.0029091488 0.0004445723
000180 fb df 13 bc 3f 74 a3 b7 17 4c e3 34 ad ab ae b2
       -0.009025569 -1.9485246e-05 4.2337408e-07 -2.0334335e-08
000190 e2 bd 05 b5 90 f1 fd 33 08 b0 a7 b2 be 57 c8 34
       -4.9822677e-07 1.18251705e-07 -1.9521408e-08 3.7316744e-07
0001a0 c3 b2 41 31 30 a5 fb bb 9b 12 c6 39 96 b5 17 3c
       2.818681e-09 -0.007679604 0.00037779365 0.009259602
0001b0 12 c5 0f bb a2 28 be 39 70 fa d1 bb 57 75 3a 36
       -0.0021937531 0.00036269898 -0.0064080283 2.778446e-06
0001c0 d8 78 64 3a ad ad 4c b8 46 17 9d ba d2 ba f5 39
       0.0008715517 -4.879914e-05 -0.0011985085 0.00046869233
0001d0 89 85 44 b8 07 5d 9f 39 04 fb 7f b7 d4 74 24 b9
       -4.6854406e-05 0.00030396154 -1.5257629e-05 -0.0001568378
0001e0 d7 7b f8 36 b7 52 3e 39 2c f6 2b b8 9e 8c ee 36
       7.405393e-06 0.00018150626 -4.0998842e-05 7.1093227e-06
0001f0 9a 92 2c b9 5e f0 26 b6 49 23 ad 30 2a fa 89 ae
       -0.00016457812 -2.487584e-06 1.2597435e-09 -6.274477e-11
000200 bf 47 d3 b0 64 ba bc b0 f6 74 84 ae bd fe de 2e
       -1.5372662e-09 -1.3731776e-09 -6.0234415e-11 1.0140642e-10
000210 c1 4e 5b 2e ee a1 17 b9 41 df eb 36 55 af 34 39
       4.9864782e-11 -0.00014460806 7.029536e-06 0.00017231454
000220 d0 59 26 b8 86 72 e2 36 1a d7 0b b9 a4 0f 7f b3
       -3.966113e-05 6.748657e-06 -0.00013336205 -5.938604e-08
000230 62 03 05 b5 85 6f d1 32 fe a2 20 35 57 53 b9 33
       -4.9551284e-07 2.4381515e-08 5.984183e-07 8.629893e-08
000240 8b 16 c9 32 2f 69 4b b4 4b 72 3b b3 ee 45 fc b7
       2.3409731e-08 -1.8944114e-07 -4.364328e-08 -3.0073305e-05
000250 2e d4 00 36 aa 69 46 38 42 7a e8 b7 4b 6d f7 35
       1.9196991e-06 4.7305286e-05 -2.7713486e-05 1.8434743e-06
000260 20 20 27 36 24 a9 bf 35 7e 54 04 b6 81 ab ca 33
       2.4903638e-06 1.4279835e-06 -1.9718714e-06 9.4375544e-08
000270 8f 35 1b 36 e7 1c 56 32 29 91 c2 33 76 33 99 b5
       2.3127975e-06 1.2463011e-08 9.0602335e-08 -1.1414365e-06
000280 65 bc 88 31 5f 1c 82 b8 98 b3 4b 36 9d fd 9b 38
       3.979539e-09 -6.2041676e-05 3.0353895e-06 7.438215e-05
000290 4a 5b 93 b7 83 8e 43 36 4a 40 66 b8 7c af dd b4
       -1.7566275e-05 2.9140217e-06 -5.4896147e-05 -4.129214e-07
0002a0 7c 14 bf 3a 0a ca 97 b8 ac 8e e8 ba 05 b3 c1 39
       0.0014578248 -7.237874e-05 -0.0017742715 0.0003694521
0002b0 99 b9 91 b8 8a ed 98 3a 77 b5 d1 36 74 8e fc b2
       -6.948709e-05 0.0011667472 6.2498107e-06 -2.9401441e-08
0002c0 3d 39 c3 30 73 89 15 33 6e d4 0e b2 b2 6b bb 30
       1.4204385e-09 3.4816775e-08 -8.313789e-09 1.363665e-09
0002d0 58 a2 e0 b2 3b 03 3d af 63 e2 43 b4 2b 8d 0b 32
       -2.6150857e-08 -1.7190598e-10 -1.8243149e-07 8.122963e-09
0002e0 15 c5 55 34 64 ee 29 b3 ba f8 05 32 f9 5f 4a b4
       1.9908869e-07 -3.9565194e-08 7.798173e-09 -1.884763e-07
0002f0 db b9 46 31 09 77 80 bb c6 8d 3b 39 61 8f 8f 3b
       2.8918439e-09 -0.00392044 0.00017886524 0.004381106
000300 9f 8a a3 ba ed 0c 34 39 86 bd 94 bb 33 f3 0d b8
       -0.0012477225 0.00017170953 -0.0045391945 -3.3843517e-05
000310 8f 3c 02 3c a9 c3 cc b9 19 d9 1c bc 96 9d 1a 3b
       0.007949009 -0.0003905569 -0.0095732445 0.0023592464
000320 6c 95 c4 b9 80 50 da 3b ad 01 ed b7 d0 03 84 37
       -0.0003749536 0.0066624284 -2.8253382e-05 1.5737402e-05
000330 2a f9 49 b5 a2 b3 9a b7 cb 60 81 36 f1 e6 41 b5
       -7.5240916e-07 -1.8441879e-05 3.8557678e-06 -7.2234167e-07
000340 1e 2e 74 37 7c 9f 97 b3 53 86 0f b7 bf da dc 34
       1.4554271e-05 -7.0604955e-08 -8.554739e-06 4.1137352e-07
000350 f9 27 29 37 e5 d0 91 35 69 05 d4 34 6d 05 92 b6
       1.0082492e-05 1.0864138e-06 3.9492014e-07 -4.3517707e-06
000360 93 d5 ff b2 1b f2 a0 b6 dd bc 78 34 b5 83 be 36
       -2.978303e-08 -4.7965564e-06 2.3165508e-07 5.677774e-06
000370 61 a6 ba b5 12 cc 6e 34 22 31 9c b6 63 3e e3 b2
       -1.3906503e-06 2.2239718e-07 -4.654882e-06 -2.6454648e-08
000380 1b 10 37 33 9e f4 0a b1 2e c1 54 b3 4e f8 50 32
       4.2622656e-08 -2.0220692e-09 -4.9535792e-08 1.2163651e-08
000390 d0 65 05 b1 7d 5b 41 33 c3 b4 ab 30 b5 b1 20 39
       -1.941192e-09 4.5019522e-08 1.2493263e-09 0.0001532499
0003a0 9a b1 0b b7 6f 00 56 b9 f0 5f 85 38 25 1f 06 b7
       -8.326397e-06 -0.00020408792 6.359804e-05 -7.994274e-06
0003b0 79 00 3d 38 5b 92 58 b6 e2 c1 85 b7 6c 15 49 35
       4.506155e-05 -3.2271698e-06 -1.594512e-05 7.490951e-07
0003c0 39 ee 99 37 06 d3 86 b5 36 0b 41 35 8f 31 2d b7
       1.8349952e-05 -1.0045194e-06 7.1914417e-07 -1.0323142e-05
0003d0 fa 21 68 34 f2 a0 17 32 41 de f0 af 7f 68 38 b2
       2.1619044e-07 8.8259515e-09 -4.3813667e-10 -1.0733969e-08
0003e0 04 cc 2e b2 64 3b e7 af e8 3c 05 30 de 90 c2 2f
       -1.0174521e-08 -4.2060855e-10 4.847167e-10 3.539133e-10
0003f0 43 d7 9a 3a e6 11 70 b8 07 ec b7 ba 0f fb d0 39
       0.001181342 -5.723713e-05 -0.0014032134 0.00039859905

exp_avg_sq f4 [128, 7]
000000 23 4f 58 3a 44 87 ca 36 0b 64 46 3b e4 43 89 3a
       0.00082515384 6.035816e-06 0.0030272033 0.0010472503
000010 25 a7 ba 36 c1 7a 0b 3a a8 26 24 36 ff be b1 38
       5.56269e-06 0.0005320721 2.4460405e-06 8.4755935e-05
000020 57 0b 24 35 27 7d 9f 39 cd f5 ac 38 5d 30 17 35
       6.111126e-07 0.0003042009 8.247383e-05 5.632226e-07
000030 5b cf 9d 38 86 0d d4 34 35 24 3a 39 3e 48 4d 36
       7.524966e-05 3.9497917e-07 0.0001775183 3.058943e-06
000040 80 d8 8a 3a 68 60 c7 39 77 30 3d 36 1c 78 cc 39
       0.0010593086 0.00038028066 2.8191405e-06 0.000389994
000050 ab 50 dd 35 cb 79 28 39 a3 58 ee 35 1d a8 5f 3a
       1.6489261e-06 0.000160671 1.7758179e-06 0.0008531826
000060 63 3d 81 39 26 aa db 35 71 e7 3a 39 f1 86 73 35
       0.00024650534 1.6366291e-06 0.00017824561 9.072092e-07
000070 10 07 95 36 48 cf f9 34 56 1a cb 35 95 37 e0 37
       4.441368e-06 4.653068e-07 1.5132343e-06 2.6728763e-05
000080 e2 40 e6 34 f7 7e 76 38 1e eb 9f 34 dd 98 c5 39
       4.2888047e-07 5.8769216e-05 2.9787128e-07 0.0003768866
000090 b7 11 39 36 e5 01 a6 3a 6d 08 b4 39 69 90 2a 36
       2.757746e-06 0.001266536 0.00034338553 2.5416032e-06
0000a0 0e d7 76 39 9d 5d 9a 35 9f a1 23 39 2b 7d 0d 35
       0.00023540502 1.1501139e-06 0.000156051 5.2708737e-07
0000b0 d4 4d 77 39 30 83 6a 37 e3 73 02 35 ee 5b 14 38
       0.00023584749 1.3978031e-05 4.859741e-07 3.5371566e-05
0000c0 60 f0 db 33 d0 b2 fa 37 f3 a6 c6 34 e5 f8 e7 38
       1.0241706e-07 2.9885588e-05 3.7001845e-07 0.000110612986
0000d0 f5 50 a2 38 99 16 b7 34 69 b7 22 38 09 8c 38 34
       7.7398414e-05 3.4102848e-07 3.8794624e-05 1.718728e-07
0000e0 bf 6a d0 35 cb 27 18 33 bf f0 62 36 60 ba 96 36
       1.5528275e-06 3.542645e-08 3.3816757e-06 4.4920453e-06
0000f0 67 30 0c 33 a5 e7 3b 36 7c 6c 05 33 14 4a 2e 35
       3.2640312e-08 2.8000006e-06 3.106514e-08 6.492785e-07
000100 f1 9f cc 33 04 11 2a 36 10 5f a0 36 9d bb bc 33
       9.5285834e-08 2.5341878e-06 4.7794383e-06 8.788559e-08
000110 8f 2b 68 36 78 26 88 33 a3 af 87 39 8b 78 be 36
       3.4596048e-06 6.339991e-08 0.00025880066 5.6764743e-06
000120 60 1c 1a 3b d9 44 0c 3a 43 8b af 36 94 94 f5 39
       0.0023515448 0.0005350835 5.2316186e-06 0.0004684074
000130 59 b2 75 36 bd 2b 9e 39 f1 fe b9 36 ae 17 0e 3b
       3.6611657e-06 0.00030168696 5.5431087e-06 0.0021681595
000140 5c 34 4b 3a f8 6a ab 36 18 44 33 3a cc cc 49 36
       0.00077516376 5.10865e-06 0.0006838455 3.0070541e-06
000150 10 b2 f8 36 91 55 e6 34 e3 b0 8c 37 c7 7f 39 38
       7.411705e-06 4.2903096e-07 1.677167e-05 4.422644e-05
000160 3c 4a d4 34 2f c7 9e 38 f3 63 61 34 3a ef 94 39
       3.954209e-07 7.571128e-05 2.0991119e-07 0.00028406997
000170 9c 2c b8 35 e9 df 1d 3a fb 57 1c 39 29 c1 a9 35
       1.3722051e-06 0.000602244 0.00014910095 1.2647698e-06
000180 d3 84 2e 39 7e 52 e8 34 46 2d d8 37 74 05 31 35
       0.00016643414 4.3273388e-07 2.5770289e-05 6.5945574e-07
000190 dc a0 7a 39 0e 64 b9 38 53 21 23 35 0b 97 ab 38
       0.00023901783 8.840124e-05 6.0770725e-07 8.182049e-05
0001a0 52 e0 d0 34 76 69 01 39 0a 34 38 35 37 03 b3 39
       3.8906234e-07 0.00012341686 6.862107e-07 0.00034143936
0001b0 6f 65 b6 38 88 c8 29 35 52 3f 88 38 9e 8d 91 34
       8.69733e-05 6.324922e-07 6.49678e-05 2.7111395e-07
0001c0 1c 9c 94 39 22 04 3b 36 85 55 aa 3a 02 11 0b 3a
       0.0002834507 2.7867577e-06 0.0012995458 0.00053049636
0001d0 ca 5b 2c 36 3e 39 63 39 99 87 b5 35 95 28 9f 38
       2.5683426e-06 0.00021669731 1.3525015e-06 7.58927e-05
0001e0 cc ec e9 35 0b 38 a7 39 e1 e1 2a 39 df 9a d7 35
       1.742877e-06 0.00031894477 0.0001629661 1.6063822e-06
0001f0 03 01 a4 39 84 bd 6e 35 3a 4c 2e 35 e3 c6 1f 34
       0.0003128127 8.893769e-07 6.4930975e-07 1.4880384e-07
000200 9f d9 fe 35 e1 e8 a4 37 18 54 13 34 83 b2 68 37
       1.8987811e-06 1.9658766e-05 1.3721035e-07 1.3869841e-05
000210 5c b3 bf 33 09 d3 07 38 f4 51 3b 35 d7 ed c8 38
       8.926756e-08 3.238305e-05 6.9782186e-07 9.581044e-05
000220 f5 02 93 38 d9 a3 2c 35 1a 16 fd 38 6f a4 06 35
       7.010057e-05 6.4313423e-07 0.00012068097 5.015817e-07
000230 d3 83 24 38 bb 18 bf 34 12 df 1e 39 cf 39 34 38
       3.9223418e-05 3.5594516e-07 0.00015151154 4.2969183e-05
000240 7f 31 b0 34 a9 15 dc 37 5b d7 35 34 da d9 16 37
       3.2818568e-07 2.623613e-05 1.6935284e-07 8.991419e-06
000250 20 de 63 34 5a 56 83 37 85 da e6 37 df 22 52 34
       2.1221831e-07 1.5656628e-05 2.7519893e-05 1.957046e-07
000260 5d a7 b4 37 47 d4 ce 33 4b 28 92 39 79 6c 84 36
       2.1535607e-05 9.6312355e-08 0.0002787731 3.9465344e-06
000270 14 c3 c6 3a 4d c9 6f 3a d6 13 74 36 d2 e3 a9 39
       0.0015164339 0.00091471226 3.637038e-06 0.0003240393
000280 72 30 1b 36 10 b8 91 38 68 de 22 35 e0 77 89 39
       2.3124999e-06 6.948423e-05 6.0673347e-07 0.0002621999
000290 16 b8 e1 38 ab 1c 16 35 e1 6a df 37 54 6f a3 34
       0.00010763125 5.592107e-07 2.6633441e-05 3.0442118e-07
0002a0 6f 3b 70 38 2e 37 de 35 0d 60 1a 3a bb df bf 39
       5.727581e-05 1.6556348e-06 0.00058889465 0.0003659705
0002b0 b0 cc cc 35 53 48 a1 39 11 a2 91 35 2a 17 55 37
       1.5258756e-06 0.000307622 1.0850509e-06 1.2701183e-05
0002c0 a5 51 a8 34 ab 39 f7 38 a1 6f 5b 38 d2 43 9b 34
       3.1351843e-07 0.00011788619 5.231763e-05 2.8920346e-07
0002d0 1e cd a4 38 0d 51 2f 34 86 16 6b 37 ae fd af 34
       7.8583354e-05 1.6327631e-07 1.4012336e-05 3.2780866e-07
0002e0 10 04 1e 38 c7 db 5f 38 2d 31 a2 34 96 8c f8 37
       3.767392e-05 5.3372027e-05 3.0210632e-07 2.962937e-05
0002f0 dd 97 22 34 82 97 e2 39 0e ba 6c 36 9b 2a da 3a
       1.5142673e-07 0.0004321896 3.5275038e-06 0.0016644777
000300 93 ab ee 39 f9 2b 5a 36 85 f5 f0 39 07 56 c8 35
       0.0004552273 3.2510127e-06 0.00045959293 1.4926198e-06
000310 6a 42 93 39 cf 90 03 36 9c 44 62 3a fb 59 98 39
       0.00028087507 1.960481e-06 0.00086314394 0.0002905874
000320 2b 8d f2 35 c5 d6 83 39 be b0 73 35 67 f5 81 35
       1.807149e-06 0.00025146283 9.078175e-07 9.68267e-07
000330 fa f2 bc 33 34 99 26 36 ea 79 ac 37 ea 26 ae 33
       8.7986294e-08 2.4825104e-06 2.0560768e-05 8.109585e-08
000340 5a af e1 37 3e 02 a2 33 3e ca 29 3a 14 ed 22 37
       2.6903745e-05 7.544121e-08 0.0006476975 9.7111515e-06
000350 42 66 86 3b ee ae 98 3a 59 28 16 37 04 51 57 3a
       0.0041015455 0.0011648813 8.950091e-06 0.00082136714
000360 98 91 97 36 6e 1a 9d 37 b1 ad d1 35 7d 74 7f 37
       4.5171e-06 1.8728166e-05 1.5622264e-06 1.52263065e-05
000370 7d 9d fa 38 9f 3d c1 35 49 d3 8c 39 ae 2a 5b 35
       0.000119502634 1.4397555e-06 0.000268603 8.1645965e-07
000380 7b 28 f6 37 5b a7 c0 34 72 ae e8 38 c7 59 ae 38
       2.9344335e-05 3.5884554e-07 0.00011095115 8.313689e-05
000390 9b 91 b1 34 67 49 42 38 ed 43 89 34 31 ed 3a 38
       3.307476e-07 4.6321566e-05 2.556766e-07 4.4566757e-05
0003a0 0d f8 93 35 f1 23 af 39 6f 78 59 39 30 5e 88 35
       1.1024546e-06 0.0003340538 0.00020739598 1.0160202e-06
0003b0 c6 45 13 39 99 f9 4a 35 aa 79 13 3a 3e 62 07 37
       0.00014045005 7.5614076e-07 0.00056257343 8.069501e-06
0003c0 7c 98 55 3b 99 6b 9a 3a f5 8c f9 36 4b 52 09 3a
       0.0032592108 0.0011781334 7.437188e-06 0.0005238398
0003d0 c3 e9 ac 36 7b a7 e8 38 95 4e 87 36 a7 05 c6 3a
       5.153213e-06 0.00011093818 4.0324617e-06 0.0015107886
0003e0 a8 b7 24 3a f5 68 79 36 8d 70 0e 3a df c0 2d 36
       0.00062834704 3.7164984e-06 0.00054336415 2.5891275e-06
0003f0 db cb 38 38 e8 be e7 34 7d dd 2b 39 55 c0 21 38
       4.4058874e-05 4.3166006e-07 0.00016390342 3.8564514e-05

exp_avg f4 [128]
000000 25 ee 8c 39 ca 2a be a8 44 1a 48 39 d7 a1 a4 37
       0.00026880312 -2.1112794e-14 0.00019083271 1.9625686e-05
000010 a1 c2 a3 32 ad 3c b1 35 5a ef 9d 38 6a 8b 7d 38
       1.9064204e-08 1.3205187e-06 7.530926e-05 6.044974e-05
000020 84 e4 9a ae db d2 40 b5 fb 1f 2d 31 83 8c 5b 39
       -7.043702e-11 -7.183241e-07 2.5192992e-09 0.00020937812
000030 67 a6 0c ae b7 cb f2 39 b2 ac ae b2 00 15 c6 39
       -3.198011e-11 0.00046309616 -2.0334799e-08 0.0003778115
000040 d0 b5 4c b8 24 7d f8 36 cf f9 89 ae f7 e1 eb 36
       -4.8806716e-05 7.4055442e-06 -6.2744136e-11 7.0298515e-06
000050 6f 77 d1 32 3b de 00 36 8f ac ca 33 73 b4 4b 36
       2.4385114e-08 1.9202841e-06 9.437746e-08 3.0354392e-06
000060 00 cc 97 b8 db 3a c3 30 c0 8d 0b 32 74 8d 3b 39
       -7.238239e-05 1.4204845e-09 8.123095e-09 0.00017886405
000070 4f c6 cc b9 3a fb 49 b5 f5 da dc 34 3e bf 78 34
       -0.00039057664 -7.524392e-07 4.1137505e-07 2.3166373e-07
000080 b9 f4 0a b1 c8 b5 0b b7 58 16 49 35 d9 dd f0 af
       -2.0220752e-09 -8.32737e-06 7.491085e-07 -4.3813378e-10
000090 9b 13 70 b8 e7 5e 9e b5 c2 9c a1 39 ac 4f dd 27
       -5.7238718e-05 -1.1799538e-06 0.00030825107 6.1426203e-15
0000a0 24 1f 1f b9 17 72 8d b9 b8 e7 16 ba 9c de 8a b7
       -0.00015175022 -0.0002697862 -0.00057565747 -1.6554543e-05
0000b0 94 ff 00 3a 0c 16 28 b0 a9 c0 b7 b9 35 2c 1e 3a
       0.00049208966 -6.1149374e-10 -0.00035048023 0.0006033809
0000c0 49 30 0c b6 1f 5c 62 ba 38 4e f6 39 4e ce 10 b9
       -2.0889731e-06 -0.0008634943 0.00046979054 -0.00013809765
0000d0 8c 78 67 ba cd 21 3a b1 4c 0a 66 2f ba 23 c3 b8
       -0.00088299136 -2.7085776e-09 2.0922036e-10 -9.304979e-05
0000e0 d8 a3 c2 b3 96 16 0f 30 5f 93 bf 38 bc 58 f2 b9
       -9.063632e-08 5.2055193e-10 9.13504e-05 -0.0004622395
0000f0 28 5e 9f 39 ed c7 0c 39 7c fd 3c b9 54 e7 93 39
       0.00030396995 0.00013425919 -0.00018023507 0.00028210378
000100 17 34 91 38 08 3e b8 39 40 88 e2 b6 d4 59 75 b3
       6.923841e-05 0.00035141432 -6.7511864e-06 -5.7125206e-08
000110 80 16 b9 b6 0b b5 4a b2 14 7c 3d b9 8f a1 4d b8
       -5.516049e-06 -1.1799112e-08 -0.00018070667 -4.9026272e-05
000120 93 74 e5 b7 45 c3 1e 37 d7 2c 35 b9 e3 e1 9a 2d
       -2.7353211e-05 9.462999e-06 -0.00017278209 1.7608087e-11
000130 28 9e de 2b bc 9e 56 b6 f2 5b 72 38 db 21 33 b4
       1.5817946e-12 -3.198088e-06 5.7782927e-05 -1.668299e-07
000140 e8 56 de b9 da 79 10 b9 6f 2e 73 38 37 92 61 ba
       -0.0004240789 -0.00013778303 5.797896e-05 -0.00086048566
000150 dc bf 98 39 b4 70 55 39 4f 60 2c 3a 0a f6 f0 b9
       0.00029134646 0.00020355248 0.00065756304 -0.0004595968
000160 3e 23 8d 32 72 18 71 38 12 02 a6 b7 31 7c 01 28
       1.6430587e-08 5.7481644e-05 -1.9789706e-05 7.187868e-15
000170 3f ff 4a b9 36 14 c6 35 a9 4b 33 37 14 51 73 39
       -0.00019359308 1.4758032e-06 1.0686847e-05 0.0002320449
000180 55 10 40 37 dc 1a 39 b8 83 12 04 b6 71 57 49 38
       1.1447894e-05 -4.4132452e-05 -1.9680308e-06 4.800357e-05
000190 b8 ae ed ae 83 75 1f ba ee 88 88 b9 fe 10 51 af
       -1.08085485e-10 -0.0006082879 -0.00026041962 -1.9014476e-10
0001a0 fe 33 a4 37 d6 aa 48 39 80 28 dd 34 f5 93 95 b9
       1.9574534e-05 0.00019137128 4.1193925e-07 -0.0002852973
0001b0 48 a9 7f 36 a7 26 54 39 9b 5e d0 39 72 0b 05 b7
       3.8096496e-06 0.00020232295 0.00039743338 -7.930083e-06
0001c0 db 18 28 ae 5a ee b2 37 86 07 1a b5 66 9a 91 39
       -3.8220854e-11 2.1330245e-05 -5.738042e-07 0.0002777159
0001d0 db 99 4b b0 72 ac 2f b3 cf 6e 48 af c4 de da 32
       -7.406961e-10 -4.09022e-08 -1.8229261e-10 2.5479842e-08
0001e0 3a 0a 99 38 c6 b7 46 b9 28 ad 07 2e 7d 1a ba b8
       7.2975134e-05 -0.00018951212 3.084924e-11 -8.874105e-05
0001f0 09 35 d1 b8 f1 3b 23 ba ae f5 e4 b2 70 86 f1 39
       -9.975775e-05 -0.00062268885 -2.6654416e-08 0.00046067266
