Assets/results/petfollower7/PetFollower/PetFollower-10137.onnx (onnx, 75610 bytes, 7 tensors)

network_body._body_endoder.seq_layers.0.weight f4 [128, 7]
00000000: c456 1fbf abbe 8f3e b3c1 233e 305d 61be
00000010: a370 84be 9b17 0bbe 2515 42be e40a 7a3f
00000020: 1bcf 49bb 34fd 74be 2a03 673d 77ce c8be
00000030: dcbd 8f3c 0115 553e 58bd 28be d007 553f
00000040: ed58 163f e1ab 48be 0958 1fbd 39b5 32be
00000050: 11c7 4cbe 9279 0dbe 201e cb3e f13d df3e
00000060: d9f8 e5be c076 d53e 740b e23d 6035 8c3e
00000070: 5502 8a3c 1a5b 3cbe 670d 2fbf d051 53bc
00000080: c197 d9bd f129 86be a062 493e 970b b1be
00000090: e3a7 143f 043a a83e ffab d2bd 12b4 31be
000000a0: 5b7f 0bbd e30f b5be 371b 36bf b0b4 733e
000000b0: 645e f6be 99bf 5cbe 8d50 9fbd 90a9 6abd
000000c0: c436 283f b34b a3be 297c d6bd c1fa 9fbe
000000d0: 0120 173f 2080 19bf 39ab dcbd 7af8 dbbe
000000e0: 56ee c03e 68c9 94be d22d 8abe 65ea 2b3e
000000f0: d811 81be 05cb 943d 1a27 88bd 8ab5 c73d
00000100: 06c6 213f 5b06 7dbe 7857 84bd 08ef 81bc
00000110: 7c0d a93d 78b4 ab3e 9687 9a3e 925d 0bbf
00000120: f537 fb3d 75e9 96bd fb8f 77bd cce4 1b3f
00000130: 48c5 193f 44c4 0d3f 77a9 df3d 9cfe d63e
00000140: 7bcc 03be fed9 11bd 6ebb 46be a60b 043d
00000150: 9fc8 063f b5e6 1cbe 6c0d d1be f9eb c73c
00000160: 70ae ad3d cbed 52be 6d6c 083e 002d 05bf
00000170: fe79 cdbd 9d78 5b3d b1b3 633d d573 043f
00000180: 7f33 df3d be02 00be a375 c83e fe31 9ebe
00000190: b4ed ee3d 7b7f 53be defa 3c3e 22af e33e
000001a0: 3845 cfbe 5a46 a3be cbf8 1abf 74e8 6c3e
000001b0: f5ac 7b3d 013f da3e c967 573e 4ea7 293d
000001c0: 18a7 fdbe 3354 64be c64d a73e df85 68be
000001d0: 0e5d 07bc 1379 0cbe ccaa 63bd 7971 043f
000001e0: 5e6d 58be a238 e2bd f19c 2f3d 4d0a 5cbb
000001f0: bb6d dfbe bbd0 e0bd 98ce 143e 1caa b3be
00000200: 958c 21bf 5496 2b3f 12c8 f1bd dcd1 0c3e
00000210: f2aa 10bf f95c 9b3e 532d 9ebe 25db 47be
00000220: ff12 b0be 6477 d3bd b14b 4ebe eda8 4d3d
00000230: 44df 18bc e823 623d ac6f fcba 9ca2 403f
00000240: 4110 843e 9bf3 d63e ef7d 8bbe d615 aabe
00000250: 7c7a bfbd acfc f2be 6b45 d33e 8953 dabe
00000260: 6446 01be e0b2 e73e dade 1b3f 7c46 463f
00000270: 933b b93e c52c f63e f074 17be 9816 a43e
00000280: a4eb 013f d9a0 04bf f875 46be a78f 28be
00000290: ea00 083f 6dae 69be 2cce 013f 7c40 803e
000002a0: 39c4 86be 6e8f 2a3e 418b c4be 4cfb 24bf
000002b0: a653 47be dd4d a73d bf6d 0bbe b8cc 873e
000002c0: 05b3 173f 5200 98be eea3 6ebe 7aa9 55bd
000002d0: 9404 5b3e 512d 373e 9968 afbd 9de2 0cbf
000002e0: c47a f9be 7256 353f 8500 3dbf c05d c0bd
000002f0: a1fd 993e 5860 333e 3c52 97be eaf5 853e
00000300: 72e3 1c3d 3fb2 8abd 7425 9dbd a01c 3dbe
00000310: 2510 03be 5a65 273f 691c 243f b8d9 6fbe
00000320: 7c6a 7fbe 38fd 27be 6368 253f c786 293d
00000330: 091a a9be 2c11 61be ef10 dabd d5f4 29be
00000340: c98a 043d e288 113e b9a1 a03e f04d 313f
00000350: cbef 803e d5c5 513f ea6b 80bd 7d69 bc3e
00000360: 848c 31bf 8856 aa3e 9e26 a43e 591b c6be
00000370: a23f 95bd 15a3 a7be 8245 91be 195a 34be
00000380: 815b c03e 8b3c ad3d fdfd 2abf 2180 19bf
00000390: 9d9b 4a3e 941b 8ebe 9d51 99be 9fd1 7c3d
000003a0: db84 4c3d 432b d7bd 41cd 3fbe 4575 713e
000003b0: cf0a 60bd 24ae 273f 96f4 e53d fdaa a43e
000003c0: f0ea 0abd f932 d83e abb4 9d3e e58e 613e
000003d0: 2b3d f83d 061a e33d 51c9 da3e 3cc8 b0be
000003e0: 9439 cb3e f6ba 543e dd3c c23f 6a1d 143e
000003f0: fd0e c8bd d7f4 28bf 4216 1f3d 82ce f3be
-0.6224177 0.28075156 0.15991859 -0.22008204 -0.25867185 -0.13583224 -0.18953378 0.9767287
-0.003079361 -0.23924714 0.0563995 -0.3922002 0.017546587 0.20808794 -0.16478479 0.83215046
0.5872944 -0.19596817 -0.038902316 -0.17451943 -0.19997813 -0.13815907 0.3967142 0.43601945
-0.44916418 0.41692162 0.11037341 0.27384472 0.016846815 -0.18394127 -0.68379825 -0.012897924
-0.10624648 -0.26203874 0.19666529 -0.34579155 0.58068675 0.32856762 -0.10286712 -0.17353848
-0.034057003 -0.35363683 -0.71135277 0.23799396 -0.4811889 -0.21557464 -0.07779036 -0.057290614
0.65708566 -0.3189369 -0.104729004 -0.31245998 0.5903321 -0.5996113 -0.10774846 -0.4296301
0.37681836 -0.2905991 -0.26988083 0.16788633 -0.25208926 0.072652854 -0.06648083 0.09751423
0.63192785 -0.24709456 -0.06461996 -0.01586105 0.08254525 0.33536124 0.3018157 -0.5443965
0.12266532 -0.07368747 -0.060440045 0.6089599 0.6006665 0.553776 0.10920995 0.41991127
-0.12870972 -0.035608284 -0.19407436 0.03223767 0.52649873 -0.15322383 -0.40830553 0.024404513
0.08480537 -0.20598523 0.13322611 -0.5202179 -0.10033034 0.053581823 0.05559129 0.51739246
0.10898494 -0.12501046 0.3915225 -0.30897516 0.11666432 -0.20654099 0.18455073 0.44469553
-0.40482497 -0.3188961 -0.6053588 0.23135549 0.06144424 0.42626193 0.21035685 0.04141932
-0.49541545 -0.22297744 0.32676524 -0.22707318 -0.008261932 -0.13718061 -0.055582806 0.51735646
-0.2113547 -0.11045958 0.04287428 -0.0033575476 -0.43638405 -0.10977312 0.14531934 -0.3509072
-0.63105136 0.6702626 -0.118057385 0.1375193 -0.5651084 0.3034437 -0.30893955 -0.19517191
-0.34389493 -0.10325506 -0.20146061 0.05020993 -0.009330574 0.055210024 -0.0019259355 0.7524812
0.2579365 0.4198273 -0.27244517 -0.33219784 -0.09349534 -0.47458398 0.412639 -0.42641857
-0.12624508 0.45253658 0.6088692 0.774513 0.36178264 0.4808103 -0.14790702 0.32048488
0.50750184 -0.51807934 -0.19380939 -0.16461049 0.53126395 -0.22820444 0.5070522 0.25049198
-0.2632158 0.16656277 -0.38387492 -0.6444595 -0.19465503 0.08169148 -0.13616084 0.26523376
0.5925754 -0.29687744 -0.23304722 -0.05216358 0.21388465 0.1788838 -0.08564872 -0.55033284
-0.48726475 0.7083503 -0.7382892 -0.093928814 0.30076316 0.17517221 -0.29554927 0.2616418
0.038302846 -0.06772279 -0.07673159 -0.18467951 -0.12799127 0.65389025 0.6410585 -0.23422897
-0.24942964 -0.16405189 0.64612406 0.0413883 -0.33027676 -0.21979207 -0.10647761 -0.16597302
0.03235892 0.14212373 0.31373385 0.6925955 0.25182948 0.8194249 -0.06270583 0.3679923
-0.69355035 0.33269143 0.32060713 -0.3869274 -0.072875276 -0.3274161 -0.28373343 -0.17612495
0.37569812 0.08458813 -0.66793805 -0.59961134 0.19785924 -0.27755415 -0.29945078 0.061723348
0.04993139 -0.105062984 -0.18730642 0.23579891 -0.054697808 0.6550009 0.11228292 0.32161704
-0.03391546 0.4222639 0.308019 0.22027166 0.12121042 0.11088948 0.42731717 -0.34527767
0.39692366 0.20774445 1.5174824 0.14464346 -0.09768484 -0.65998596 0.038839586 -0.4761849

network_body._body_endoder.seq_layers.0.bias f4 [128]
00000000: 3207 143c 7096 9fbc b219 d8bb 63a7 14bd
00000010: fd7e cdbb 4392 d7bc 81a9 a7bb 4c03 bc3c
00000020: 100d cabb 2b17 343b 4c57 1cbc 8234 0ebb
00000030: 3bc9 0bbb dbac e4bc 489c 0bbd b906 8abc
00000040: 3d1e edbc 0c78 6cbc 34db 763b 58f2 dcbb
00000050: efd5 a4bb 9868 093b 10e8 183b a369 463c
00000060: f688 3a3c c944 92bc 9ca5 cf3a 4209 6bbc
00000070: 520e 5b3b 23c2 b53b 76f1 f4ba 778a 12bc
00000080: 8ed7 e4bc 4964 24bc 174a cbba 58ba c33c
00000090: e396 efbb 1b16 4cbb a28d 1bbb 3033 2abc
000000a0: ffcc a0bc ad71 c8ba 71d4 243c cb38 63bc
000000b0: 58da 4fbc 0839 dbbc b0b7 46bd b477 d3bc
000000c0: deac f5bc 3ad3 4ebc 22d2 d5bc ec9b 45bc
000000d0: a639 443b f32c b4bb bc32 7cbb a35f 34b9
000000e0: 0a4e c2b9 2652 fbbb 0e23 f3bc 0fde b8bc
000000f0: 3d74 b1bb a196 b73b 64eb 05bc 1b69 04bc
00000100: 0a3b 72bb f413 65bc 84bc 4f3a b27e e2bb
00000110: b8cb 4b3b d9ec d1bb b626 96bc cab4 97bc
00000120: 6135 63bb 7b27 66bb 90ac d9bc ea5f 4ebc
00000130: f544 7c3c f968 5dbc 72c9 49bc ae76 2a3a
00000140: 596c 59bc 0324 21bc 26dd 2bbd 55dc e5bb
00000150: 303f eebb 85dc 12bc 093e b9bc 6664 debc
00000160: fa31 8bbb 4268 60ba b711 22bc 83cf 753b
00000170: f671 4cbc 177c a5bb a50e 84bc 2f81 fdba
00000180: a10d 303c db97 313b 368c c6bb cbf1 30bc
00000190: 00d3 b73b a58a b7bc ad80 20bd a4ea 2b3b
000001a0: ce68 3c3b 7c12 0abc a47f 323b 297b b53b
000001b0: b861 463b 47c5 1dbc 19b0 8bbc 0521 c739
000001c0: 9217 babb 875f aebb f26e 8fbc 6d7f 09bc
000001d0: e3d4 50bc 5263 6cbc 9000 633a 1328 b2ba
000001e0: abeb 9ebc 9d7f 55bc b90f 06bc 64eb 04bc
000001f0: c4d1 b4bb 1d9b 993b c50b 80bc b6e7 97bc
0.009034919 -0.019480914 -0.00659486 -0.036292445 -0.0062712417 -0.02631486 -0.005116642 0.02295079
-0.006166108 0.002747963 -0.009542298 -0.0021698778 -0.002132966 -0.027914455 -0.03408459 -0.016848909
-0.028945083 -0.014432918 0.0037667276 -0.006742757 -0.0050303857 0.0020966884 0.002333168 0.012110147
0.011385193 -0.017855065 0.0015842202 -0.014345469 0.0033425284 0.0055468245 -0.0018687684 -0.008944145
-0.027934816 -0.0100336755 -0.0015509751 0.023892567 -0.0073116883 -0.0031141106 -0.0023735543 -0.010388181
-0.019629 -0.0015292667 0.010060416 -0.013868521 -0.012686335 -0.026760593 -0.04851502 -0.025813915
-0.029989656 -0.0126236025 -0.026101176 -0.0120611 0.0029941588 -0.0054985224 -0.0038482388 -0.00017201765
-0.00037060707 -0.007669705 -0.029679801 -0.022566823 -0.005415468 0.005602673 -0.008173797 -0.0080817
-0.003696146 -0.013981808 0.00079245144 -0.006912076 0.0031096768 -0.0064064083 -0.018329006 -0.018518824
-0.0034669267 -0.0035118747 -0.026571542 -0.01259611 0.0153973 -0.013513797 -0.012316095 0.000650267
-0.013270461 -0.009835246 -0.04195895 -0.007014791 -0.007270716 -0.008963709 -0.022612588 -0.027147483
-0.004247901 -0.00085604575 -0.009891919 0.003750772 -0.012478342 -0.005050193 -0.016120264 -0.0019340868
0.010745437 0.002709857 -0.006059195 -0.010799835 0.00560987 -0.022404978 -0.039185215 0.0026232386
0.0028748992 -0.008427259 0.0027236724 0.0055383635 0.0030270647 -0.009629554 -0.017051743 0.0003798084
-0.0056790793 -0.0053214463 -0.017508958 -0.008392197 -0.012746069 -0.014427977 0.00086594466 -0.0013592265
-0.019399485 -0.013030914 -0.0081824595 -0.008112762 -0.00551817 0.0046876804 -0.015630612 -0.018543106

network_body._body_endoder.seq_layers.2.weight f4 [128, 128]
00000000: 26ab bd3c 020a afbd fd2e adbd e08d 693d
00000010: a725 aa3d a878 29bc a1dd b4bc e009 05be
00000020: 3e85 39bc 00b5 abbc 16aa 0cbd 128e 6e3e
00000030: 111d 19bd 5737 f8bd 642c 5b3e 322b e83d
00000040: 66ed 053e 3f82 32bd 5b7f bd3d 44a1 033e
00000050: ef24 973d cda9 323d 8260 c1bd 9229 183d
00000060: 0586 2abc 1947 23bd ff88 ef3c 146c 0bbd
00000070: 56fc 41bd 6e56 553c c393 2b3d e383 463e
00000080: 57e0 19be ade6 403d 608c c63d e9e3 29bc
00000090: d109 17be d785 0e3d 06f6 05bb 7d0b 373d
000000a0: cea2 693c 3215 52bd baed 70bd 29dc 38be
000000b0: 94e9 30bd 64bc 1dbe 2deb 983c 69b0 bd3c
000000c0: 5361 04be eeef e2bd 55a4 2bbc 3172 aebd
000000d0: 4fb9 16be 30fa f3bc d560 50bd 1d48 dcbd
000000e0: 14a7 cb3d 592d 493e 384a 5b3c 4acf 8cbc
000000f0: 9d68 c73c a87b 8ebc 48bb 313d a030 de3d
00000100: 9cbb 23bb fc18 fbbd 50d2 97bc 0f47 09bd
00000110: 45e9 91bd 4438 553d d79b 553d 3f23 cb3d
00000120: 2c16 4b3e d3a7 103d 8739 563d 2aa5 99bc
00000130: ac08 2b3c 9947 0abd 4f32 cebd 35bf 4bbe
00000140: 3ce3 953d 7ee2 41bd 0990 47be 6255 6cbc
00000150: 325b 603c c432 f23c 09b5 ea3d 2620 693d
00000160: fa68 563d 25c3 b93d fc0e d7bc cd5c 35bd
00000170: d277 debd 7e79 49bd 1ebd 74bc d2b4 02be
00000180: 8beb 5e3a 0917 3e3d 3426 c73d 1d63 d5bd
00000190: 18b6 4dbe a578 4dbe fa4e 653d 157a 56bd
000001a0: fb87 cd3c 99e0 18be d518 623c a185 3d3e
000001b0: aa34 68bd e0e8 1c3d ffbf d6bd 3f37 0dba
000001c0: 6720 c9bd 5467 dfbd cf82 0ebc 33ad 29bc
000001d0: 3041 703c a0c9 823d 1bd3 6a3d e94b ecbd
000001e0: cfae 8cbd 17a0 d1bd 9f59 ca3c 4bb3 e03c
000001f0: b2f8 33be 2f66 cabd 5e22 8abd 6bd7 01bd
00000200: 13aa 19bc 029a ec3b fffc cfbd 1c20 cd3c
00000210: 46b1 913d f7e4 ae3b b4f9 92bd 3f51 e93d
00000220: d7bc 55bc e804 26be 1ce8 a73d 5749 3abe
00000230: 7063 49bd 9a3b 01bd 13f7 82bd 59b4 c3bd
00000240: 3ef8 dc3c 9145 e73c 4214 923d 8d5d 69bd
00000250: f601 643d f5a7 af3d 2ae2 463e 6519 0abd
00000260: c8e6 e7bd c629 023e 8c00 ccbd fd45 51bd
00000270: 818d 37bd 93ac d83c fb4e 81bd 98e2 173e
00000280: b2dc 3c3e 730e dbbd 75ec d6ba 1286 c0bc
00000290: c835 98ba 09cc 2ebe 70c6 bfbd f276 973d
000002a0: 10a3 02bd c9cc 3a3e 495e f73d 6691 a4bc
000002b0: 3dba 94bd 2b0b 863c 20e5 2c3d 1f8a 243d
000002c0: fdef ebbc 7b30 0e3e cb9a 0cbd a1a0 923d
000002d0: 1507 ff3d a5cc a73b 80b9 c53c 4952 3dbc
000002e0: 4d50 293d 641e c43c 85e8 d13d 9cac a73d
000002f0: 4a98 653d 8eeb 733e f8ac 0dbe c6db c1bc
00000300: a864 9dbc bd1a 6bbd 6529 9d3d 41a3 02be
00000310: 2246 febd d3f8 d2bc de40 263e 9cc8 463d
00000320: f52c 2abd 25e0 513c 6a31 5dbc 790d 6f3e
00000330: 8fe8 23bd 7e49 bbbd e3e1 8d3e f0b0 2e3e
00000340: d541 603c ef46 a7bd b84c 95bd 1eb3 993d
00000350: 724f 21be 11ca aabd 7cb9 1dbd 417a 003e
00000360: 315a 1bbe 7c6e 4d3e 7334 debc c65d 013e
00000370: e732 0a3e b8c3 883d ce5d 223e 6a9f 393d
00000380: 36a9 33bc 8901 2dbe 8996 0a3e 5fd4 f53d
00000390: bf20 743d c67b 253d c16e 3a3c 12f2 513d
000003a0: 5f15 593c b879 62be 6457 043d 7792 6d3e
000003b0: 8b59 a73d 08d0 0dbe 835c c23d 9237 c03d
000003c0: dd24 09be e359 36bd 03cb 6d3d 2999 0fbd
000003d0: 93ee 1c3a 4a86 febd 2148 43be e374 f23d
000003e0: 0778 2f3d e187 06bd d9d4 9b3d b197 d2bc
000003f0: 7057 8f3d f655 0d3d 246d 6bbd 5ef1 a2bd
0.023152899 -0.08546831 -0.08456228 0.05702007 0.08307963 -0.010343708 -0.022078337 -0.12992048
-0.011323271 -0.020960331 -0.034341894 0.23296383 -0.037381236 -0.1211993 0.21403652 0.11336364
0.13078842 -0.043581244 0.09252807 0.12854487 0.073800914 0.043618966 -0.094422355 0.03714902
-0.010407929 -0.039862726 0.02924013 -0.03403862 -0.047359787 0.013021095 0.041888963 0.19386248
-0.15026985 0.04709499 0.09694743 -0.010369279 -0.14749838 0.03479561 -0.002044083 0.04468869
0.014260007 -0.051289745 -0.058820464 -0.18052734 -0.043191507 -0.15403897 0.018666828 0.023155408
-0.12927751 -0.11080919 -0.0104761915 -0.08517874 -0.14719127 -0.029782385 -0.050873596 -0.10755942
0.09943977 0.19646205 0.013384394 -0.017188687 0.024341876 -0.017392948 0.043391496 0.10849118
-0.002498365 -0.12260625 -0.018532902 -0.033515032 -0.07124571 0.052055612 0.052150574 0.09918832
0.19832677 0.0353163 0.052300956 -0.018755514 0.010439079 -0.033759687 -0.10068189 -0.19897158
0.07318732 -0.04733514 -0.19488539 -0.014424654 0.013693618 0.029565223 0.11460311 0.056915425
0.052346207 0.09070424 -0.026252262 -0.044277955 -0.10862698 -0.04918813 -0.014937667 -0.1276429
0.00085037266 0.046408687 0.097240835 -0.10419295 -0.20088995 -0.20065553 0.05598352 -0.05236252
0.025089255 -0.14929427 0.013799866 0.18508007 -0.05669085 0.038308024 -0.10485839 -0.00053869555
-0.098206334 -0.1090838 -0.008698179 -0.010356235 0.014663979 0.06386113 0.057330232 -0.11537916
-0.068692796 -0.10235613 0.024700938 0.027429244 -0.17575338 -0.09882771 -0.06744836 -0.03169958
-0.009378928 0.0072205076 -0.10155677 0.025039725 0.0711389 0.0053373533 -0.07176533 0.113924496
-0.013045511 -0.16212809 0.08198568 -0.1819204 -0.049167097 -0.03155098 -0.06394782 -0.09555883
0.02697384 0.028231414 0.0713277 -0.056973983 0.055665933 0.08576957 0.19422212 -0.033715624
-0.11323315 0.12711248 -0.09961042 -0.051092137 -0.044812683 0.026449477 -0.063138925 0.14832532
0.18443564 -0.10696115 -0.0016397374 -0.02350143 -0.0011612708 -0.1707002 -0.09364021 0.07395734
-0.03189379 0.18242182 0.1207853 -0.020088863 -0.07262085 0.016362747 0.042210698 0.040170785
-0.028800959 0.13885681 -0.03432731 0.07159544 0.12452523 0.005120831 0.024136305 -0.011555263
0.041336346 0.023940273 0.10249428 0.081872195 0.056053437 0.23820326 -0.13835514 -0.023664366
-0.019213036 -0.057398546 0.07673911 -0.12757589 -0.124157205 -0.025753414 0.16235682 0.04853116
-0.04154678 0.012809788 -0.013500551 0.23344983 -0.040016707 -0.09144877 0.277114 0.17059684
0.013687571 -0.081678264 -0.072900236 0.07504867 -0.15752962 -0.08339322 -0.03850697 0.12546636
-0.15171124 0.20061678 -0.02712462 0.12633428 0.1349598 0.066779554 0.15856096 0.045318045
-0.010965636 -0.16895117 0.13533987 0.12003397 0.05960154 0.040401243 0.011378945 0.051256247
0.013249724 -0.22116745 0.032309905 0.23200403 0.08171376 -0.13848889 0.094903015 0.09385599
-0.13392968 -0.044519316 0.058054935 -0.035058174 0.0005986478 -0.12427957 -0.19070484 0.118387006
0.042839076 -0.032844428 0.07608957 -0.025707098 0.06999099 0.034505807 -0.05747713 -0.079561934

network_body._body_endoder.seq_layers.2.bias f4 [128]
00000000: a3ab 00bc 931a 543b 172e e1bb dc9b ddba
00000010: 7d40 c8bb 3e3e 6abc a5e7 dd3a da9f c8bc
00000020: 7ce7 8cbc c762 59bb b017 b5bb fe37 14bc
00000030: a44c 88bc 80a3 8e3b 9162 74bc 504a 9fbb
00000040: f372 81bc 27c2 f5bb 4af0 21bc 31cb 04bc
00000050: 0e09 e7bb 72c4 cebb 17b2 ecbb 01c7 f4bb
00000060: 72e3 7fba a3ab 23bc 7a48 41bc 0042 18bc
00000070: aa5a 84bc 705e 6dbc f6c3 90bb 586c 0fbc
00000080: 600f 113b 02c2 cbbc a1e8 1bbc 2bfd 59bc
00000090: d24a 29bc 7002 7ebc 2ee1 d1bb e683 67bc
000000a0: 9584 0ebc 9115 b9bc 9ef8 9f39 f039 4bbc
000000b0: f467 edbb 132c 8cb9 f37c 39b9 3f30 07bc
000000c0: f923 75bb 4f12 e5bb cec5 a5bc b170 80bc
000000d0: 9ecd 86bb 61c9 bcbb f663 0abc 18ae 7cbc
000000e0: 1feb f6bb 2e41 3cbc a638 f53a 02b3 b9bb
000000f0: b81e 85bc 9637 47bc 1870 51bc 3e5c 25bc
00000100: 1eec ebbb 4ddb 46bc d6b9 6cbc a474 3abc
00000110: cbc2 cabc 2adc b9bc 6049 f6ba 1172 d739
00000120: 9208 8abc 6ade cc3b db83 c2bb a771 8a3b
00000130: c196 65bc 7ade 54bc 574d acbb 7be7 23bc
00000140: e4b2 c4ba 62ad bfbb 7cfd 27bb 0b66 13bc
00000150: ac47 eabb 29ef d3bb 3874 5cbc f8a1 97bb
00000160: de49 5fbc c82c 8fbb 9c91 df39 e98e 09bb
00000170: a0cf 57bc 4c77 61bb 0090 91bb 06f9 babb
00000180: 06db 3fbc cbf6 1bbc 4848 aabb c769 23bc
00000190: 1deb a3bb 00bf dbbb e97f 573b 0919 9ebb
000001a0: 761b 97bc a2fe 3f3b 5b6a c5bb aa02 8abc
000001b0: f498 36bc 47f4 45bc 0805 dabb e449 e6bb
000001c0: f2f2 33bb c593 ea3a 4a8b adbb e90b 71bc
000001d0: 566b 1fbc 0166 bfbb 1977 cebb 79cd 38bc
000001e0: 8902 1abc 896d 68bc 2bff efbb 047f 0bbc
000001f0: bd5b fdbb 7417 71ba 7ee4 37bc 353a 17bc
-0.007853421 0.0032364472 -0.0068719494 -0.0016907412 -0.006111203 -0.014297066 0.0016929997 -0.024490286
-0.017200224 -0.0033170448 -0.0055265054 -0.009046553 -0.016638108 0.004352987 -0.014916078 -0.0048611537
-0.015801882 -0.0074999514 -0.0098839495 -0.008105085 -0.00705064 -0.006310039 -0.0072233784 -0.007470012
-0.000976137 -0.009989652 -0.011797065 -0.009293079 -0.016156513 -0.014487848 -0.0044178916 -0.0087538585
0.0022134408 -0.024872784 -0.009515912 -0.013304989 -0.01033278 -0.015503511 -0.0064050173 -0.014130568
-0.008698602 -0.022593291 0.00030512078 -0.01240395 -0.007245058 -0.0002673572 -0.00017689522 -0.008251249
-0.0037405475 -0.006990708 -0.020235922 -0.015678735 -0.004113867 -0.005761311 -0.008446684 -0.015422367
-0.007535353 -0.011490149 0.0018708899 -0.0056670913 -0.01625 -0.012159249 -0.012783073 -0.010092793
-0.007199778 -0.012137246 -0.014448604 -0.011380348 -0.024751088 -0.02268799 -0.0018790178 0.00041092982
-0.01684979 0.0062520998 -0.0059361286 0.004224974 -0.014012993 -0.012992496 -0.005258243 -0.01000392
-0.0015006927 -0.0058495263 -0.0025633266 -0.008996497 -0.0071496572 -0.006467719 -0.013455443 -0.0046274625
-0.013628451 -0.004369352 0.00042642362 -0.0020989722 -0.01317206 -0.0034403382 -0.004442215 -0.0057059554
-0.011709934 -0.009519289 -0.005196605 -0.00997395 -0.005002393 -0.0067061186 0.0032882637 -0.0048247618
-0.018445712 0.002929606 -0.0060246415 -0.016846973 -0.011144865 -0.012082166 -0.006653432 -0.0070278514
-0.002745804 0.0017896822 -0.0052961456 -0.014712312 -0.009730181 -0.0058410172 -0.0063008186 -0.011279457
-0.0094000185 -0.0141862715 -0.0073241196 -0.00851417 -0.0077318833 -0.0009196915 -0.01122391 -0.009230186

action_model._continuous_distribution.log_sigma f4 [1, 2]
00000000: 6e91 f9bb e112 6fbc
-0.0076162135 -0.014591903

action_model._continuous_distribution.mu.weight f4 [2, 128]
00000000: 8011 76bc 6151 c8bc 70a5 803b 5ec0 d43c
00000010: 6fb6 ae3b 077b 28bd 4a69 15bc c4aa b3ba
00000020: 6e06 bfba bba6 9fbc 6b76 c7bb 1f4f 8e3a
00000030: bbe4 f83b a7db 3f3c adf4 923a 1282 383c
00000040: a361 85bc 4bbf 37bd 98a2 4fbc 524e 1abd
00000050: 85a0 36bc 2e2b 0b3d 9f9d 0abb e2e4 bcbc
00000060: 5771 873a 660d 523b d332 b3bb 215a c8ba
00000070: 0f5c af3a 2bf5 11bb 6859 8bbc 2e37 d73a
00000080: 62e9 d43c ea37 c03a dcac 1cbb 4a36 1dbc
00000090: 1d05 51bc 92ea 24bd 100f 9e3c faf3 40bc
000000a0: 4829 a93a 5117 ecbb 75d1 1f3d e027 c0bb
000000b0: 1981 4b3c ad2d b7bc 94ed 09bd 9b3e c5bb
000000c0: 28ae b63a 47f7 cabc 3566 64bb ebf3 bebb
000000d0: 0f4d 803c 058d 60bb 94d3 10ba 6b98 03bd
000000e0: 9ccd fc3a 294b a3bb af70 8c3c 94b3 083c
000000f0: e230 083c 1a58 d5bb 77dc 7cba 172d 49bb
00000100: dd5d ae3a 41f3 5c3a 3ba0 5a3c 64ae 133c
00000110: 43d1 2f3b 6d99 a5ba 52d1 04bc 65a7 c23c
00000120: 7370 923a e7e3 3bbc 29f0 a9bc f871 3abc
00000130: 5662 2ebb 09b3 8bbb a1d0 32bd 9d3f 113b
00000140: fbfb 53bc 972d 84ba 50d7 613b af31 5a3c
00000150: d5bb b9bb bd69 ebbb 5d3e 5dbc 90b9 e93a
00000160: 05f3 12bd 60a2 81bc fa0a 0bbd 283d cbba
00000170: 8ee7 68bc 3cb3 543c a2f1 803a 495d 25bc
00000180: 6748 993c 031a be3a ac2f 2ebc e647 2a3d
00000190: 7b0d 71ba 6c02 f639 0e98 78bc 2d0a 57bb
000001a0: 7c62 45ba be4f ecbb fbd2 83bb 0859 98bb
000001b0: d771 023c 57f4 c9bb b581 453c 0eff d6b9
000001c0: 914d 813c 4a78 183c d812 d6bc 5dd1 013b
000001d0: 82cc 3e3c 093d b63a 7701 5d3c d95e 39ba
000001e0: af32 8bbc 412f b6bc f6af db3b c4ca 6f3b
000001f0: 2b1e e7ba 8121 29bc f7f5 d13c 2ce6 143c
00000200: 97e2 9abc 193a 353d 2c84 01bc bdb1 15bc
00000210: 7160 dfbc 7919 e73a 7541 1a3b 3891 85bb
00000220: caef 87ba 7552 1a3d 5f55 f9bb 77bc 9ebc
00000230: 04f7 c03b b5c0 183d 53ca a2ba ef8c 12bc
00000240: 1727 533c 48ef 7b3a ea39 453b 96e4 7139
00000250: 1438 053c 2a77 c33b bad2 8b3b fc81 26bc
00000260: 713d d63b 7f2c 5bbb 4c34 21bc 55ef 923b
00000270: 1881 2d3b e2a1 94bb 08f2 90bc 9a6f 16b9
00000280: 9301 01bc 281b 86bb b26e 853c cc12 08bb
00000290: 379d 883a ec4a 16bd 6e27 8dbb 1464 0c3a
000002a0: adc5 7ebc 8cbe 853c 8e5e 773c bcbd 733c
000002b0: 733a 7bbc 5cb7 cbbc 6e9d 8a3b 0ee4 24bc
000002c0: 35dc 8ebc 7367 58bd d236 323a 0db1 b6bb
000002d0: 338d 2bbb f16d 743c 536a b7bb 1cb1 573c
000002e0: f1ab 1f3b 56e3 7e3b 1ccf c73c 3f7a 903c
000002f0: 67f8 a2bb dc45 2dbc 9c9c ddbb 25cd 1c3d
00000300: 18dc 51bb 739a 00bb a3c7 e8ba d2ef 23bc
00000310: 5c05 0abb 96cb 37ba 0448 76bc 7366 26bd
00000320: 25a1 bd3b cf76 d63c d543 da3b 9d94 9b3c
00000330: f2a1 7dbb 8702 323b 56d2 df3a d4e6 2e3c
00000340: 96f4 5d3a 39eb 25bc 3001 863c 6315 6b3b
00000350: a323 483c a9fd e4bc 1d7a 1b3b d547 b23b
00000360: b2d8 453c 47f4 093c 0011 48bc 2e59 523c
00000370: e777 9239 dcb9 cebb 307b bd3b 4b5e 163c
00000380: 9d6f 75bc 01af a43b 698a a6bb 0ad5 6abb
00000390: 111f 9e3c 00fd 2b3b 8a35 163d c107 6a3c
000003a0: 7265 d1ba 93ec ef39 b678 203c 678b 64bb
000003b0: 2786 8bbc 3ebb 2cbc cbf0 d439 8f40 7a38
000003c0: 64e4 b2bb ae6e 46ba c624 da3b 5c66 abba
000003d0: fd7c 45bb 184f e73c 075a 013c f17e 8f38
000003e0: aa88 66bb d007 053c ae0c 483c 5338 11bd
000003f0: 19fd ac3b f376 5f3c 59ba 07bc 9abe 54bb
-0.015018821 -0.024452867 0.0039259717 0.025970634 0.0053318064 -0.041132953 -0.009119341 -0.0013707508
-0.001457406 -0.019488683 -0.0060871146 0.001085732 0.007595626 0.011710084 0.0011211835 0.01126148
-0.016281908 -0.044860166 -0.012673043 -0.03767235 -0.011146669 0.033976726 -0.0021151078 -0.023058359
0.001033346 0.0032051443 -0.005468705 -0.001528565 0.0013378876 -0.0022271376 -0.017010406 0.0016419643
0.025990192 0.0014665101 -0.0023906743 -0.009595463 -0.012757567 -0.040262766 0.019294292 -0.011776919
0.001290598 -0.007204928 0.039018113 -0.0058641285 0.012420916 -0.022360647 -0.033673838 -0.006019426
0.0013937401 -0.024776114 -0.003485096 -0.005827417 0.015661744 -0.0034263742 -0.00055246917 -0.03212778
0.0019287351 -0.004983325 0.017143575 0.008343596 0.008312436 -0.0065107467 -0.0009645889 -0.0030697042
0.001330312 0.00084285816 0.013343866 0.009013746 0.002682761 -0.0012634225 -0.0081065465 0.02376146
0.0011172428 -0.01146791 -0.0207444 -0.011379711 -0.0026608906 -0.004263286 -0.043655995 0.002216316
-0.012938495 -0.0010084388 0.0034460612 0.01331751 -0.0056681433 -0.007184236 -0.013503638 0.0017831791
-0.035876293 -0.015824497 -0.033946015 -0.0015505897 -0.014215363 0.012982186 0.0009837637 -0.010093042
0.018711282 0.0014503602 -0.010631483 0.041572474 -0.0009195429 0.0004692258 -0.015172971 -0.0032812462
-0.0007529629 -0.0072116544 -0.0040229536 -0.004649285 0.007961712 -0.006163161 0.01205485 -0.0004100729
0.015784057 0.009306023 -0.026132032 0.0019808628 0.011645438 0.0013903688 0.013489119 -0.00070713233
-0.016991941 -0.02223933 0.006704326 0.0036589364 -0.0017632892 -0.010322929 0.02562998 0.00908808
-0.018906875 0.04424486 -0.007905047 -0.009136614 -0.027267667 0.0017631493 0.002353755 -0.0040761493
-0.0010371145 0.037676293 -0.007609054 -0.019376976 0.0058888216 0.037293155 -0.0012419916 -0.008944734
0.012887738 0.0009610546 0.0030094334 0.00023068706 0.008131046 0.005965133 0.004267064 -0.010162827
0.006538086 -0.003344327 -0.009839129 0.004484097 0.002647465 -0.0045358995 -0.017693534 -0.0001434669
-0.0078739105 -0.0040925927 0.016288135 -0.0020763157 0.001042283 -0.036692545 -0.004307679 0.0005355489
-0.015550059 0.016326211 0.015098227 0.014876779 -0.01533376 -0.024867706 0.004230193 -0.010064138
-0.017438987 -0.052833032 0.000679833 -0.0055753053 -0.002617669 0.01491879 -0.0055973916 0.013164785
0.002436396 0.0038892827 0.02439075 0.017636416 -0.0049734595 -0.010575738 -0.006763054 0.03828158
-0.0032022055 -0.001962331 -0.0017759692 -0.010005908 -0.0021060323 -0.00070112327 -0.015031818 -0.040625047
0.005787032 0.0261797 0.0066609182 0.018991763 -0.0038701263 0.002716215 0.0017076235 0.010675151
0.0008466927 -0.010126882 0.016357988 0.0035870902 0.012215528 -0.027952986 0.0023723908 0.005440692
0.01207559 0.008420057 -0.012211084 0.012838645 0.00027936624 -0.0063087773 0.0057825074 0.009177755
-0.014980224 0.005025745 -0.0050824177 -0.0035832548 0.019301923 0.002624333 0.036672153 0.014284075
-0.0015975668 0.00045761894 0.009794405 -0.003487313 -0.017031742 -0.010542689 0.00040615196 5.966477e-05
-0.005459355 -0.0007569593 0.0066572158 -0.001307677 -0.0030134313 0.028235957 0.007894999 6.842416e-05
-0.0035176673 0.008119538 0.012210054 -0.035454106 0.005279195 0.0136392 -0.008284175 -0.003246224

action_model._continuous_distribution.mu.bias f4 [2]
00000000: 8554 fa39 1b5c df3b
0.00047746688 0.0068163997
