Assets/results/petfollower14/PetFollower/checkpoint.pt (torch, 447522 bytes, 36 tensors)

network_body._body_endoder.seq_layers.0.weight f4 [128, 8]
000000 8a 7b 71 be 51 72 e9 3d b7 83 e3 3d 9c 71 f5 be
       -0.23582283 0.11398757 0.11109107 -0.4793824
000010 3d 74 fd be b5 c5 10 be 43 8b b5 3d 0b 77 c0 3d
       -0.49502745 -0.14137919 0.08864453 0.09397706
000020 a5 46 01 be ff 9a 8e 3e f5 76 8e bd 63 b5 05 3e
       -0.12624605 0.27852628 -0.06956283 0.13057475
000030 6a f8 6e 3e 7c 93 49 3d cc 54 e7 bd 78 6b 68 be
       0.2333695 0.049212918 -0.112954706 -0.22697246
000040 ea 02 e5 bd 19 45 d7 3e ed e2 88 3e a4 e1 85 3e
       -0.111821964 0.42044905 0.2673563 0.26148713
000050 77 5d 15 3e 55 5b ab 3d 89 12 55 bd b2 87 59 3f
       0.14586435 0.083670296 -0.05201963 0.8497268
000060 f0 30 83 bb f3 00 3c 3e d4 64 b5 3e 35 61 b0 3e
       -0.0040036365 0.18359737 0.35428488 0.34449163
000070 92 42 3c be 01 a2 93 be 7c f8 73 be 4d e0 fd bd
       -0.1838477 -0.28834537 -0.23825258 -0.123962976
000080 c9 4f 94 be f0 c2 61 3e 5f 19 1a 3f d5 d2 e0 3d
       -0.2896712 0.22047019 0.60194963 0.10977713
000090 25 51 98 3e 51 fa f4 be fc 97 c5 3e a3 eb 88 3e
       0.29749408 -0.47847226 0.38592517 0.26742277
0000a0 c8 f1 9b be ae 7c be 3e c8 e6 b0 be ef 5e dc bd
       -0.30457902 0.37204498 -0.34551072 -0.10760295
0000b0 6c a5 0d 3e 52 aa 85 bd 27 c8 c6 bd da b1 08 be
       0.13832635 -0.06526627 -0.09706145 -0.13349095
0000c0 e2 de 2b be a7 07 9e be 0b b9 71 3e 15 70 2e bd
       -0.16784242 -0.30865213 0.23605745 -0.04258736
0000d0 bb 26 76 be 75 21 eb bd 64 e2 77 3d 53 8d 01 3d
       -0.24038212 -0.11480991 0.060518637 0.031628918
0000e0 00 49 c1 3d 0f 65 32 be 3b c6 b2 bd fa 97 1c 3f
       0.09437752 -0.17421363 -0.08729216 0.611694
0000f0 15 7c ff be 7e ef 37 be e6 c5 98 bd 9b 2b 12 bd
       -0.49899355 -0.17962453 -0.07459621 -0.035686117
000100 ce 64 96 3e 7d a7 3c 3f 0c cc 66 3f 3b 10 33 3c
       0.29373783 0.73693067 0.901551 0.010929163
000110 8d a6 4f 3f 92 f9 37 3e 84 20 04 3f 0b 30 5f 3e
       0.8111351 0.17966297 0.51612115 0.2179567
000120 2a a9 55 be a0 59 3b 3f 49 31 15 3e 05 67 9d be
       -0.20865312 0.7318363 0.14569582 -0.3074266
000130 c0 27 a4 bd eb 82 50 3d d1 2f 71 be a8 4c 42 be
       -0.08015394 0.050906103 -0.23553397 -0.18974555
000140 ef 0a 4b 3f 72 47 12 3e da c9 d5 3e 38 78 b6 be
       0.7931356 0.14285067 0.41755563 -0.35638595
000150 7b d1 94 3e fc 1d ca 3e 9c 18 9b 3e 10 99 68 be
       0.2906607 0.39476 0.30292213 -0.22714639
000160 58 d8 03 be 21 47 7d be 9c c1 19 bf 68 11 29 3f
       -0.12875497 -0.24734165 -0.6006105 0.66042185
000170 a8 5a 2d 3f 35 f7 65 3e 5f 67 e3 be 5a 82 33 be
       0.67716455 0.22457583 -0.44414803 -0.17530194
000180 37 2d 8f 3e ed 02 9d 3e be 68 c4 bd 36 c4 5e 3e
       0.27964184 0.30666295 -0.095902905 0.21754536
000190 89 d5 12 3e 7a bf 22 bf ad 33 b9 be 71 70 75 3e
       0.1433927 -0.6357342 -0.36172238 0.23968674
0001a0 86 6c a2 be 3c 2c a1 3e f9 f6 ca bd 82 5c 91 3e
       -0.31723422 0.3147906 -0.099103875 0.2839089
0001b0 7e 72 1b be 33 66 ce 3e bb cf 12 bf a8 ae 31 3e
       -0.15180394 0.40312347 -0.5734822 0.17351782
0001c0 09 ea 00 3f 24 eb 66 be 87 27 c8 3c ce e8 e3 bd
       0.5035711 -0.22550637 0.02443291 -0.11128388
0001d0 ba fe 15 3f 25 21 9e 3d 32 84 2f 3e 20 d0 1f be
       0.58591807 0.077211656 0.17140272 -0.15606737
0001e0 83 4e 7c 3d 7e c7 a3 be da 3e 5d be 69 f6 96 bd
       0.061598312 -0.31988138 -0.21606007 -0.07371218
0001f0 80 13 00 bf c4 86 62 3e 2b 9c 8d be da e6 8c be
       -0.50029755 0.22121722 -0.2765821 -0.27519876
000200 29 63 bf be e7 ff 15 be e9 78 85 3d b2 b3 04 3f
       -0.3738034 -0.146484 0.065172024 0.51836693
000210 3c 36 b9 3d 09 d9 1e be 99 f1 bc bc 57 a8 9c 3e
       0.090435475 -0.1551248 -0.023064421 0.30597183
000220 fd e5 02 bf e9 de c4 be a6 ec cd 3e 95 00 af be
       -0.51132184 -0.38451317 0.4021961 -0.34180132
000230 15 c7 0b 3f 38 cf 0d be 92 6c 2d 3f 5b 73 34 bd
       0.5460065 -0.13848579 0.6774379 -0.044055324
000240 30 4f 36 3e 87 9b 21 bf 43 cb d6 3d 30 0d c1 be
       0.17803645 -0.6312794 0.10487988 -0.37705374
000250 54 bc dc be cc 05 a3 be 8f b4 24 be de 14 bc 3e
       -0.43112433 -0.3184036 -0.16084503 0.3673467
000260 9c d7 a3 3a dc 1d 77 3e 71 8f a5 be de 82 74 be
       0.001250017 0.24132484 -0.32336 -0.23878047
000270 24 77 32 3f d6 2e 8c be b2 f7 a7 3b 8b be d4 be
       0.69713044 -0.27379483 0.005125963 -0.41551623
000280 95 58 d6 3e a1 0d 21 3e 94 06 40 bf d9 32 2a 3e
       0.41864458 0.15727855 -0.7501004 0.1662096
000290 de d0 00 bd d2 d4 ef 3e b0 77 fe 3e a3 1e 24 be
       -0.03144919 0.46842057 0.4970069 -0.16027312
0002a0 ce 40 d9 3e 36 56 0a 3f b5 28 e3 ba cc 08 15 3f
       0.42432255 0.540378 -0.0017330857 0.5821655
0002b0 e3 db 14 3d a0 3e 20 bf 82 40 3d be 55 a8 34 be
       0.036342513 -0.6259556 -0.18481639 -0.17642339
0002c0 be 88 84 3e ca c3 e3 3c c9 4f 84 3f a0 ce 04 bf
       0.25885576 0.02780332 1.0336848 -0.51877785
0002d0 7e cc 4a be 86 88 95 3e 29 bb 06 3f b9 88 9e 3e
       -0.1980457 0.29205722 0.52629334 0.30963686
0002e0 0d dc d7 be f4 1a 98 be 56 64 a5 3e 6b 6b 09 bf
       -0.42160073 -0.29708064 0.32303113 -0.5367953
0002f0 1b f6 a5 bc 6b 61 42 be 6f db 74 3e ea 6e d9 3e
       -0.020258954 -0.18982475 0.23911832 0.42467433
000300 dd 6f 0a bf f5 cf 0e 3e 36 7b 88 3d 91 3b 39 3e
       -0.5407694 0.13946517 0.066641256 0.18089129
000310 e2 f9 25 3d 61 cb d9 3d 3f 1d 25 bf 33 c6 b8 be
       0.04052151 0.106344946 -0.6449775 -0.36088714
000320 e7 d2 2f be 96 25 7f be f9 ea cc be 0d e6 28 3e
       -0.17170297 -0.24916682 -0.4002302 0.16494007
000330 94 16 82 be 25 3c 90 be 74 5b 44 bf e9 e7 a7 be
       -0.2540785 -0.28170887 -0.76702046 -0.3279412
000340 7f 8b 0d be 4f 40 06 3e 82 67 92 3e cd 93 9d bd
       -0.13822745 0.1311047 0.28594595 -0.076942064
000350 f8 72 6a be e9 db fa 3a cb 60 97 bd f8 28 8b bd
       -0.2289542 0.0019139025 -0.07391509 -0.067949235
000360 ac d8 08 be 46 8a 82 bd ec b1 4b 3e 1c d3 17 3f
       -0.13363904 -0.0637403 0.1989209 0.593065
000370 9e 2c 8a bd 8a 31 49 3e 77 0c 58 bd 10 10 ee bb
       -0.06746791 0.19647804 -0.052746262 -0.0072650984
000380 18 4d 88 3e b6 96 e0 3b 16 2d ba 3e d5 c2 1e 3f
       0.26621318 0.0068539036 0.36362523 0.6201604
000390 55 ad a7 be 8b 41 2a 3f 95 c8 81 3e 2d ff 15 bf
       -0.3274943 0.6650626 0.25348344 -0.5859249
0003a0 96 55 76 be 44 20 72 3e 61 71 f6 be ca 3b 36 3e
       -0.24056086 0.23645121 -0.48133376 0.17796245
0003b0 10 e4 e1 be a7 b3 e5 bb 54 6c 2c 3c de 55 6b 3e
       -0.4411931 -0.0070099416 0.010523874 0.22981974
0003c0 68 44 06 bf f9 d6 3e 3e 93 d2 05 3e 68 b0 22 be
       -0.5244813 0.18636693 0.13068609 -0.15887606
0003d0 8a f6 8e be 87 d5 34 bd 64 f4 89 3e 66 e1 61 3d
       -0.2792247 -0.044148948 0.26944268 0.055146597
0003e0 fc 1d 45 3e e1 e6 23 3e a0 9a ab 3d 86 21 7b 3e
       0.1924972 0.16006042 0.08379102 0.24524507
0003f0 fc cb 89 3e b9 cb 68 3e f9 31 92 be 9a 62 2f 3e
       0.2691344 0.22733964 -0.2855375 0.17127457

network_body._body_endoder.seq_layers.0.bias f4 [128]
000000 c7 53 c9 bb fc e4 71 3a e0 ae 03 bc 17 3d 83 bc
       -0.0061440202 0.0009227542 -0.008037299 -0.01602034
000010 57 b0 c2 bc 4c b3 a9 bb d3 91 bf ba e0 a2 5c 3c
       -0.023765726 -0.0051788446 -0.0014615603 0.013466567
000020 08 11 8f bb 7e 92 aa bc b9 83 bd bc be 8b bb bc
       -0.004366044 -0.020821806 -0.0231341 -0.022893783
000030 87 d9 df bc 23 7e 3c bc 73 27 9c bb 96 f9 2c 3c
       -0.027325405 -0.011504683 -0.004765445 0.010557553
000040 91 ff 8e bc 43 6c 22 bc 4f 0c b7 3b d9 83 b1 bb
       -0.017455848 -0.009913507 0.005586184 -0.005417329
000050 2a a0 2a ba 9b d8 97 bc 5d 69 a5 bb cf 03 49 3b
       -0.00065088517 -0.018535903 -0.0050479607 0.0030672436
000060 7c 1b 1c bc dd 0e a8 bb 4b 76 5e 3b a8 07 0b 39
       -0.009528037 -0.005128725 0.003394502 0.00013258925
000070 3a 63 48 3b 5b 60 52 b9 25 2d 50 bb 23 0b f6 ba
       0.0030576722 -0.00020063056 -0.003176519 -0.001877163
000080 c6 db 65 bc 92 a5 a6 39 48 3e 4e bb ed 85 d7 3b
       -0.014029449 0.00031785347 -0.0031470228 0.0065772445
000090 e5 4c 14 bc 17 f9 1e bc e2 28 7a bc 38 ee 62 b9
       -0.009051536 -0.009702942 -0.015268536 -0.00021641783
0000a0 7e ea 6d bc ac b0 12 bb ff b9 8d bc 24 07 da bb
       -0.014521239 -0.0022383137 -0.017300604 -0.0066536833
0000b0 bf f1 8b 3b 1d 32 05 bc f9 21 f4 bc e4 10 a3 bb
       0.0042707617 -0.008129624 -0.029801356 -0.0049763788
0000c0 46 95 d3 bb e5 70 ad 3b df bb 52 bb b7 26 b1 b9
       -0.0064570038 0.005292999 -0.0032155437 -0.00033788916
0000d0 82 b8 ad 3a c3 27 89 3b 0f 7c 03 bc 6d b7 9e bc
       0.001325384 0.004185648 -0.008025183 -0.019374574
0000e0 b5 81 b6 bc 92 fc 6a bc 02 db 8f bc 2c 36 44 3a
       -0.022278646 -0.014342444 -0.017560486 0.0007484879
0000f0 e3 b9 41 bc e0 6b 29 3a 7a 88 16 bc 11 60 d9 bb
       -0.011824104 0.0006462913 -0.009187812 -0.0066337665
000100 58 13 84 bb 16 d9 87 bc 68 9b 26 bc c4 24 fb 3a
       -0.0040306263 -0.016583007 -0.010168888 0.0019160737
000110 4e b6 13 3c ed 19 5d bc 87 1c b3 3b e3 45 3d bc
       0.009015633 -0.013494951 0.005466047 -0.011552307
000120 3b 4e 5b bc f6 19 92 bc bc f9 42 bc a8 29 a4 bc
       -0.013385351 -0.017834645 -0.011900362 -0.020039394
000130 3c f1 e1 3b a4 c4 1f 3c db 12 51 bc e6 e4 3f ba
       0.0068952125 0.009751473 -0.012760843 -0.00073201803
000140 3c e2 2b bc 15 01 56 3c e5 ae 48 bb 15 68 11 3c
       -0.01049095 0.013061781 -0.0030621823 0.008874913
000150 7f 5f f1 3a d1 b8 d1 3a fb 8e d2 bc 53 ea 36 bb
       0.0018415301 0.0016000514 -0.025702944 -0.0027910664
000160 c6 d7 a3 bb 70 ca af bb 65 b6 55 bb e1 79 6e ba
       -0.0050000874 -0.0053647086 -0.0032609936 -0.0009097141
000170 4a 27 06 bd f8 27 14 bc 00 62 64 39 4c 3b 8d 3b
       -0.032752313 -0.009042732 0.00021780282 0.0043100473
000180 cb 53 af 3b f0 ee 87 3b 63 90 37 bc b7 cc d2 3a
       0.005350565 0.0041483566 -0.011203858 0.0016082738
000190 54 63 4d bc 8e fa 0d bc 01 5d 8c 3c 91 4d b5 bb
       -0.012535889 -0.008665694 0.017134191 -0.0055329283
0001a0 df c1 6c 3b 3f ba 1e bb 8d 53 3b bc 0a 6e 87 3b
       0.0036126298 -0.0024219898 -0.011433494 0.0041329907
0001b0 07 de f7 bb 69 2f ed 3b 93 60 0d bc 53 a9 96 bc
       -0.0075643095 0.0072383177 -0.008628982 -0.018391287
0001c0 78 a6 ce 3a 9a dd bc bb 60 57 5d bb 17 89 8f ba
       0.0015766164 -0.0057637217 -0.0033774003 -0.001095089
0001d0 b5 f9 dc bb 8f 95 e4 b8 b1 4e 88 3b e0 a5 18 bc
       -0.0067436346 -0.00010899745 0.0041597714 -0.009316891
0001e0 48 8a 9c bc 69 33 77 bc 59 c1 38 bb 1c 09 89 3b
       -0.019108906 -0.015087941 -0.0028191416 0.004181994
0001f0 1b 61 4a bc c6 e4 da ba 08 36 6b bc 1b 7b 1c 3b
       -0.012352253 -0.001670026 -0.014356144 0.0023877088

network_body._body_endoder.seq_layers.2.weight f4 [128, 128]
000000 c0 f4 54 3e ab 3a 62 bd 00 ad d1 3a 54 7a af bd
       0.2079649 -0.05523173 0.0015996993 -0.08568254
000010 0f 9c 68 bd 27 85 13 3e 5f 19 49 3e b7 6c dd bd
       -0.056789454 0.14406262 0.19638585 -0.10811751
000020 77 2a 51 3e 1f a0 b6 bd af 44 fb 3c b3 15 37 be
       0.20426355 -0.089172594 0.0306724 -0.17879371
000030 9a e8 8a bd 9a 2c a7 3c 10 26 47 3c 66 aa b5 bd
       -0.067826465 0.02040701 0.012155071 -0.088703915
000040 ae 5b fb 3d 54 fc d6 bd e4 50 4f bd 70 76 ee 3d
       0.12273346 -0.104973465 -0.050614253 0.11643684
000050 ba 23 2e 3b f6 5c fe 3d 3a 88 1c be d8 31 cf bd
       0.0026571588 0.12420075 -0.15286341 -0.10116929
000060 ac 81 39 3c e8 b7 78 bd c9 9a 4a 3d ed 4d a6 3b
       0.01132242 -0.06072226 0.04946402 0.0050752074
000070 10 f6 b4 bd b5 65 11 be a8 44 3a 3c a0 08 0b 3d
       -0.08835995 -0.14198954 0.011368908 0.033943772
000080 5b 64 b3 bc 39 95 67 3d bc f2 3b 3d 57 d1 45 3e
       -0.02189844 0.056538794 0.045885786 0.19318138
000090 85 da 3a bd 96 fe be 3d d1 9e 38 3d af 8e 10 be
       -0.045618553 0.09325902 0.045073334 -0.1411693
0000a0 24 cf a5 bd 82 50 f8 bc d1 70 08 bb c0 6c 97 bd
       -0.080961496 -0.030311827 -0.0020819197 -0.07393789
0000b0 8b 06 91 bd 29 48 7b 3e ec 88 4a 3d 14 e5 df bc
       -0.07081326 0.24539246 0.049446985 -0.027330913
0000c0 6b 30 5a bd 6d 26 09 3e b9 d1 e7 bd 63 82 4a be
       -0.05326883 0.13393565 -0.11319298 -0.19776301
0000d0 e6 d0 0d 3d 82 86 0f bd f6 dc 73 3d ea e4 01 3e
       0.03462305 -0.035040386 0.059536897 0.1268498
0000e0 f1 82 aa 3c 8f fb b5 bd 8e e9 5b 3c c4 fa ca 3d
       0.02081439 -0.088858716 0.013422383 0.09911111
0000f0 07 e4 8d 3e bc 87 45 bd 76 1a f0 3d 1a 28 a8 bd
       0.27713034 -0.04822515 0.11723797 -0.08210774
000100 15 1e 78 bd 42 f8 0b bd 1b 36 fc bc 9d e1 d9 bd
       -0.060575563 -0.034172304 -0.030787518 -0.106387354
000110 44 60 fd 3d 5e cb f5 bd 90 a0 ac bd 97 2d 41 3d
       0.12371877 -0.1200168 -0.08429062 0.04716262
000120 68 53 0b 3e 75 1f 3c bd 82 63 13 3e 47 ae 24 bc
       0.13606036 -0.045928437 0.14393428 -0.010051317
000130 55 25 8c 3d ab 3b 78 bd d3 a7 d7 bc 6c ca 27 3d
       0.06843058 -0.06060378 -0.026325142 0.04096453
000140 b7 0c 68 3e f7 8b 29 3e 36 16 fa bd 3e f7 7b bd
       0.226611 0.16557299 -0.12211268 -0.061515085
000150 0e e4 9f 3d e4 77 23 bd 62 e2 d5 3c 4f 99 3c bd
       0.0780717 -0.03990926 0.026108924 -0.046044644
000160 80 8a 19 be e5 84 0a 3e 16 79 b9 bd a2 97 26 bd
       -0.1499424 0.13527258 -0.090562984 -0.040671952
000170 a2 1e 13 3e 81 ac 9c 3d 07 3b c8 3d 7e 0b 72 bc
       0.14367154 0.0765009 0.097768836 -0.014773248
000180 f8 3c 4c bd 29 ac a1 3d af 2a dc bd 3a b5 3d be
       -0.04986283 0.07894165 -0.10750329 -0.18526164
000190 ac 7c e6 bc 77 1d ab bd 3c 5b 2f be 70 2d f0 bd
       -0.02813562 -0.08355229 -0.17124647 -0.117274165
0001a0 a2 21 82 3c 4e 2d 0f bd d6 6c 6a bd b8 89 f2 3d
       0.015885178 -0.034955315 -0.0572327 0.11842674
0001b0 e0 98 03 bd 38 a9 84 bb 89 40 0b ba 0b 77 45 3d
       -0.032128215 -0.0040484928 -0.00053120457 0.04820923
0001c0 86 2b dd bd a0 b2 ef 3d 40 2b 90 bd 8c 46 84 3e
       -0.10799317 0.11703992 -0.07039499 0.25835073
0001d0 4a d6 15 3d e0 b8 46 3c 6a e3 dd bb d9 65 2a 3d
       0.036581315 0.012129039 -0.0067714946 0.041601036
0001e0 df 8b 0d 3c 0b c9 7c bd ee 5b 3f bd 23 8b 94 bd
       0.008639305 -0.061715167 -0.04671853 -0.07253101
0001f0 42 08 a7 3d 4e 70 4e bd c8 82 c1 3c eb 50 0c bb
       0.08155872 -0.05040007 0.023621932 -0.0021410536
000200 07 f3 9a 3d 3a 42 85 bd 5d d6 51 3e 2c a1 4b 3c
       0.07565885 -0.06506772 0.2049193 0.012428563
000210 1f c0 21 bd 0f 38 ad 3d 39 17 3f 3e 59 09 9d bc
       -0.03948986 0.08457958 0.18661202 -0.019169496
000220 a8 eb 78 3c 1c b9 80 3d 79 9a 25 bd ee 5a 30 bd
       0.015192904 0.06285307 -0.04043052 -0.043055467
000230 ec 5e 1b bd e6 7f 5d 3d b2 0c 27 be 6b e7 b4 bd
       -0.03793232 0.05407705 -0.16313437 -0.08833202
000240 3e 5e 43 bd de e2 24 3e c7 25 f9 3d 76 63 07 bd
       -0.0476973 0.16102168 0.121654086 -0.033053838
000250 3e b1 00 3e 16 8d 0f be 9e cd c7 3d 8c 8c 4d 3d
       0.12567613 -0.14018664 0.09756015 0.050182864
000260 19 57 95 3d 98 22 27 be 3a 88 cf bd d5 35 2a 3e
       0.07292003 -0.1632179 -0.10133405 0.16622098
000270 24 95 28 be ef 9b 66 bd f0 47 98 bd f2 18 e3 3b
       -0.16463143 -0.056301054 -0.07435596 0.006930464
000280 9a 16 d8 bd 8c d5 5d 3d d2 b1 49 be 62 1b bf 3b
       -0.10551186 0.054158732 -0.1969674 0.0058321217
000290 a8 65 69 3d d5 13 4a 3d de bf bf bb f0 f6 5d 3d
       0.056981713 0.04933532 -0.00585173 0.054190576
0002a0 1e fc 5d bd a4 c1 3b bb a0 f8 06 3d 96 09 84 3d
       -0.054195516 -0.0028649354 0.03295195 0.06447141
0002b0 0a 07 70 bc 63 6f 8a bc c0 09 8f bc 74 7a 49 3d
       -0.014650116 -0.016898816 -0.017460704 0.049189046
0002c0 47 cf 64 bd 64 3a 1a 3d 8d 24 0c bb 8f 12 94 bd
       -0.055861738 0.037653342 -0.002138409 -0.07230102
0002d0 db c2 0d 3e 31 90 51 bd 97 e5 14 be 91 86 65 3e
       0.13843863 -0.051162902 -0.14540707 0.22414614
0002e0 f5 02 1b be b6 9e 27 3c 0c 6c e4 bc d1 ff 04 bc
       -0.15137847 0.010230711 -0.027883552 -0.008117632
0002f0 4b 35 03 bd a6 e3 0c be 43 56 82 3d 3c c4 51 bd
       -0.032033246 -0.13758716 0.06364109 -0.051212534
000300 d5 f9 1f 3e e6 d6 b7 3d 4e b9 58 bd 65 8b 0a 3d
       0.15622647 0.089765355 -0.052911095 0.033824343
000310 e4 88 22 be 80 60 05 be b7 97 3e bd ff a6 41 bc
       -0.15872532 -0.13025093 -0.046531405 -0.0118196
000320 1f 33 87 3d 0e d2 f7 3c d8 21 6a bd 91 8c ae 3d
       0.066015474 0.030251529 -0.057161182 0.08522905
000330 19 56 01 be ce 93 6e 3d d8 e2 27 3e a1 c9 f3 3d
       -0.126305 0.058246426 0.16395128 0.11903692
000340 ee b1 aa 3d 39 d1 a7 3c ce 3e da bc 7e 63 5b bd
       0.08334719 0.020485507 -0.026641276 -0.05356168
000350 ef 5e e2 bd 35 bc 64 3b 0f 50 cb bc 57 cd 53 bd
       -0.110532634 0.003490222 -0.024818448 -0.0517095
000360 96 0b 15 3d 5a 87 2f 3e c4 90 72 3d 44 7e 06 3e
       0.036388002 0.17141476 0.05922009 0.13134104
000370 fa 51 0c be 0a 7b 85 3c c7 04 ca bd 6f 3f 30 3d
       -0.13703147 0.016294021 -0.098641925 0.043029245
000380 13 f1 e1 3d 6a 98 7c bd a7 a5 07 ba b0 60 a7 bd
       0.110323094 -0.06166879 -0.00051745254 -0.081727386
000390 34 63 12 ba c0 78 40 3e 5e 13 9d 3c b3 84 11 bb
       -0.00055842404 0.18796062 0.019174274 -0.002220434
0003a0 df 9b 0a bd 90 f9 b4 3b 20 94 03 3c f8 53 04 3e
       -0.033840057 0.005522914 0.008030921 0.12922657
0003b0 c7 6b b1 3c ea ba 34 3e dc 9d ef 3c f6 ff c3 bd
       0.021657838 0.17649427 0.029250078 -0.09570305
0003c0 0e 27 72 3d 4b 00 1a 3d f4 8c 71 be 11 30 35 bc
       0.059119277 0.037597936 -0.23588926 -0.011058823
0003d0 14 9a 0c 3d 8e 72 f8 bd 8e 9c f5 3c d0 ca 09 be
       0.034326628 -0.121312246 0.029981878 -0.13456273
0003e0 a4 f1 07 3e 07 19 87 bd 8d 82 fb bd cb cf 53 bd
       0.13275772 -0.065965705 -0.1228076 -0.05171184
0003f0 32 c9 42 3e ad 40 6e 3d 94 60 e1 bc 7e e6 0a bb
       0.19022062 0.05816715 -0.027511872 -0.0021194513

network_body._body_endoder.seq_layers.2.bias f4 [128]
000000 85 20 11 bb a5 1c 06 bb 24 e7 dc bc fa 7c 3f ba
       -0.0022144627 -0.002046385 -0.026965685 -0.0007304695
000010 97 c1 4f bb 27 f1 09 bc f0 52 e2 3b 3b 4c 05 bc
       -0.0031701082 -0.008419312 0.0069068596 -0.008135851
000020 df 1c ad bc 69 82 96 3a 7e 81 a7 bb 57 58 26 bc
       -0.02113193 0.0011482957 -0.005111872 -0.010152898
000030 8f 88 7f bb e4 c3 9f bb d2 9a 27 3c 23 34 86 bc
       -0.0038991307 -0.004875647 0.010229783 -0.016382283
000040 57 be 35 bd 47 a3 9a bb 1a bf 69 bb c0 30 96 bc
       -0.044370975 -0.004719171 -0.0035666884 -0.018333793
000050 4f 2c 8a bc 23 e8 aa bb f9 62 cb bb 0b 9e 6a bc
       -0.016866831 -0.005215661 -0.006206867 -0.014319907
000060 dd d6 7d bc ae 84 16 bc dd 0a e9 3c 02 b2 9f bc
       -0.015493122 -0.009186907 0.028447563 -0.01949406
000070 01 48 3b bc 77 8f 0d 3a f7 9d bb bb dc 0d 6c b9
       -0.011430741 0.0005400101 -0.005725618 -0.00022511877
000080 ee 95 d7 bc 57 0c ec 3b 5a 5a 91 ba 09 40 1c bb
       -0.02631661 0.0072036195 -0.0011089549 -0.002384188
000090 be f9 04 bb 4a e8 ac bb 00 c2 c8 bb 30 71 08 bc
       -0.002029046 -0.0052767145 -0.006126642 -0.008327767
0000a0 21 bd ad bb a8 e8 50 ba 27 d0 30 bb 03 e5 37 3c
       -0.005302087 -0.0007969239 -0.0026979537 0.011224034
0000b0 80 af 90 bc 29 cb bd bb d0 aa 07 bc d9 8d e3 ba
       -0.01766181 -0.005792041 -0.008280471 -0.0017361
0000c0 2f 47 8b bb 2c ba b2 ba 59 b9 d3 bc 8b 9f b5 bb
       -0.004250429 -0.0013635806 -0.025845217 -0.0055427006
0000d0 ad a8 24 bc b0 e9 a4 3c e4 c5 ec bb 5e f1 c3 bb
       -0.010049981 0.020130962 -0.007225739 -0.005979701
0000e0 5a 9c 37 3b c8 a6 89 bb 6a bf e6 3b 20 c6 16 bb
       0.0028016777 -0.00420079 0.0070418613 -0.0023006275
0000f0 b4 d4 02 bc 16 01 e8 bc e2 33 37 bc da f9 e7 bb
       -0.007985283 -0.02832083 -0.011181803 -0.007079345
000100 b9 19 39 39 3c e2 78 3b 27 34 92 bc 60 5e 1e bd
       0.00017652557 0.0037976643 -0.017847134 -0.03866422
000110 1a f3 84 bb 6d 8b 09 ba af 90 e6 bb 31 d8 b0 ba
       -0.0040573003 -0.00052469113 -0.0070362906 -0.0013492164
000120 ed 92 b6 bb ec 9b a0 bb 3e 3c e9 ba 9d 0f e8 bb
       -0.005571714 -0.0049014 -0.0017794443 -0.0070819394
000130 53 c4 3d 3c 5e 8f f3 bc 62 ba c1 bb 27 7b 70 bb
       0.011582452 -0.029731449 -0.005912111 -0.0036694498
000140 77 6f 92 bb bb 0f 52 bb 98 cf d2 bb 98 1a 9e ba
       -0.004468854 -0.0032052833 -0.0064334385 -0.0012062369
000150 a4 25 04 3b 6b d3 a4 bb a0 0b c3 bb 54 fb 85 bb
       0.0020164037 -0.005030086 -0.0059523135 -0.0040887985
000160 94 0e 2a bb bd 11 4d bb de aa 1a bc da 2b 44 bc
       -0.002594863 -0.003129109 -0.009440152 -0.011973346
000170 8c 3a 7c bb b8 4d 90 3a 88 a3 bd bb dd 3e 6a bc
       -0.0038487045 0.001100949 -0.0057873167 -0.014297214
000180 62 87 cc bb 4c 35 21 bc dc a3 9f bb f5 7a c3 ba
       -0.006241725 -0.009839367 -0.0048718285 -0.0014913963
000190 08 48 3a bb 02 b7 df bb e6 c6 cb bb 80 77 94 bb
       -0.0028424282 -0.006827236 -0.006218779 -0.004530847
0001a0 53 e1 9a bb ee 7d 8a b9 2f fb b8 bb c6 ce ad bc
       -0.004726568 -0.00026415236 -0.005645178 -0.021216761
0001b0 ad a4 a2 bc c6 3b 71 bb bc 18 d2 ba fe aa 62 bb
       -0.019853914 -0.003680931 -0.00160291 -0.0034586783
0001c0 ca 4c dc bb 88 61 25 bc c4 8d 95 bb a2 7c a6 bb
       -0.006723021 -0.010094054 -0.004564019 -0.0050807754
0001d0 5e 4e 17 bb 07 e5 01 bc 5e 0c d9 bb a8 42 6a bb
       -0.0023087482 -0.0079281395 -0.0066237887 -0.0035745297
0001e0 d8 56 6d 3b cb 6f 07 bc d1 78 9d bc 4f 8a ac ba
       0.0036215093 -0.0082664 -0.019222649 -0.0013163778
0001f0 1b da 90 bc 90 38 e9 bb ce 95 e0 bb 0c 4a c6 bb
       -0.017682126 -0.0071173385 -0.0068537956 -0.0060513075

action_model._continuous_distribution.log_sigma f4 [1, 2]
000000 ab a7 c7 bb 6b 71 6d 3c
       -0.0060929856 0.014492373

action_model._continuous_distribution.mu.weight f4 [2, 128]
000000 0a 67 cb 37 8e 17 91 bc 5d 9c 69 bb 24 c7 a5 3b
       2.4247467e-05 -0.017711427 -0.0035646178 0.00505914
000010 56 81 cb ba 0d a9 b3 bb cb 1e c7 3c 39 ae ca bb
       -0.0015526216 -0.005482799 0.024306675 -0.0061853197
000020 c8 b5 0e 3b 16 63 a6 3c 7c ed c9 3c 24 07 8d bc
       0.002177583 0.02031092 0.024649374 -0.017215319
000030 b9 c8 82 bc 79 53 23 bc 48 76 86 3c 5d e2 7f bc
       -0.015964853 -0.009968632 0.016413823 -0.015617934
000040 37 df 30 bc be 04 f8 3c 34 07 b7 bb 63 c6 40 3c
       -0.010795406 0.030275699 -0.0055855755 0.011766049
000050 d8 9d 65 b9 d2 9c 5f 3c 80 74 24 bc af ee 0f bd
       -0.00021897943 0.013648229 -0.010037541 -0.035139736
000060 55 03 43 3a ce 1d 82 3a 20 6f 8f 3c be 5e 89 bc
       0.0007439156 0.0009927095 0.017509043 -0.01676881
000070 4a dd b1 3b 3c b6 a1 ba 11 9a dc bc ec 3b 22 bd
       0.005427991 -0.0012337635 -0.026928933 -0.039607927
000080 41 e8 fe bb 4c ae 03 3d cb d7 12 bd 8b 6f 87 bc
       -0.0077791517 0.032148644 -0.035850327 -0.01653268
000090 f0 ad a9 3c 63 96 8d 3b 0a 76 dc bc 29 67 13 3a
       0.020712823 0.004320906 -0.026911754 0.0005622977
0000a0 f9 6c 80 bc fd 41 ab bb 90 c2 de 3c 69 60 bd 3c
       -0.015676962 -0.0052263723 0.027192384 0.023117261
0000b0 55 fb a3 bb c2 fe ce bb bc 0a ac 3b 6b 38 48 ba
       -0.0050043263 -0.0063169906 0.005250303 -0.00076378015
0000c0 d1 c1 15 bc 36 5a 4e 3a d8 44 7b 3b c0 21 e8 bb
       -0.009140448 0.0007871719 0.0038340595 -0.0070841014
0000d0 a2 fc 21 bc b0 87 88 3b 51 f5 c9 ba f4 a4 d5 3b
       -0.0098868925 0.004166566 -0.0015408193 0.006519908
0000e0 7f 6c 05 3c b3 3e a5 3c 0f e2 34 3c 22 73 20 bd
       0.008143543 0.020171499 0.011040225 -0.0391723
0000f0 4b 21 09 3c 2c 37 aa bc bb d5 44 b9 fa 87 ea 3b
       0.008369754 -0.020778261 -0.00018771637 0.007157323
000100 f6 2e 8a bb a0 32 27 3b db e1 29 bc 1d a8 0e bc
       -0.004217024 0.0025512353 -0.01036879 -0.0087070735
000110 12 50 ca ba 85 83 08 3c 6b 7f d9 bc 68 22 14 3d
       -0.001543524 0.008332138 -0.026550015 0.036165625
000120 bf 99 a3 3b c0 40 77 3c 42 4f 85 bc 32 7c 44 3c
       0.004992693 0.015091121 -0.016273145 0.011992501
000130 79 97 26 bb b6 01 42 bc 81 7b 19 3c 48 9a 5f bc
       -0.0025419875 -0.011841228 0.0093678245 -0.013647623
000140 7f 6d 9c ba 6d 6c 2f bc 04 5f 45 bc 99 ef d7 bb
       -0.0011934488 -0.010707003 -0.012046579 -0.0065898416
000150 6d 10 be 3c 8c e8 25 bc 32 4f 84 bb d6 e0 8b ba
       0.023201192 -0.010126244 -0.004037761 -0.0010671865
000160 41 51 db 3b cc 61 79 3c bb c8 93 ba 16 81 39 bc
       0.006693036 0.0152210705 -0.0011275032 -0.01132228
000170 51 6a ea 3a b1 7c 82 3c 33 e7 17 3c d9 7d 45 3d
       0.0017884468 0.015928598 0.009271431 0.04821572
000180 d4 2e 24 bb 37 66 1d bd 78 0f 31 bc 14 81 c7 bc
       -0.0025052326 -0.038427558 -0.010806911 -0.024353541
000190 93 a6 a4 bc fe 84 63 3a 6d 18 1c bc 5d f7 9e bc
       -0.02009896 0.000867918 -0.009527308 -0.019405061
0001a0 f0 2c 65 ba d5 37 09 bd a7 a5 b9 3b 43 73 45 bc
       -0.0008742353 -0.03350051 0.0056654993 -0.012051406
0001b0 8e f3 4b bb ba cf ed 3a ae ca e7 b7 78 23 5f bc
       -0.0031120512 0.0018143572 -2.7631726e-05 -0.013619296
0001c0 b8 b5 5a bc 63 9d 81 3c f9 9d c9 bc 55 31 35 3c
       -0.013348989 0.015822118 -0.02461146 0.011059125
0001d0 06 86 52 bc ab f5 b6 bb 85 d6 ee 3b 61 7d 5e bc
       -0.0128493365 -0.005583485 0.0072887563 -0.013579697
0001e0 de 95 8f b9 30 9c eb 3b 7b 76 22 bc 94 ef c9 bc
       -0.00027386745 0.00719025 -0.009915943 -0.024650373
0001f0 c4 bb d6 bc 11 19 95 3b e3 5f a8 bb 18 ef 7c bb
       -0.02621258 0.0045501073 -0.0051383837 -0.003859466
000200 fd 62 bb bb 9c 82 b9 3b 85 4e 2e 3c 2d 2c d9 ba
       -0.0057185874 0.005661322 0.010638838 -0.0016568952
000210 02 ff ea bb 51 91 d4 3b be 86 d0 bb 06 76 a5 bb
       -0.0071715126 0.0064870496 -0.006363719 -0.00504947
000220 68 b2 a0 39 87 d8 8d bc 21 e6 80 ba 8c 8f 28 bc
       0.000306505 -0.017315162 -0.0009834209 -0.0102881305
000230 36 11 79 bb 4e 13 07 bc a4 8e 9f bb 16 16 54 3c
       -0.0038004643 -0.008244349 -0.004869299 0.012944719
000240 ec a5 2b 3b 02 94 51 bd 63 57 a3 bc 5b 12 85 bb
       0.0026191426 -0.051166542 -0.01993913 -0.004061026
000250 7f f2 85 39 51 21 a9 3a f4 5c 2d bc 44 b8 73 3c
       0.0002554841 0.0012903606 -0.010581244 0.014875475
000260 63 47 2d bb 1d 6d c8 3c cd 50 4f bb b0 57 93 3c
       -0.0026440255 0.024466092 -0.0031633854 0.017986149
000270 bd 3f 0b bb f8 e7 06 bc 4a 43 22 3c 37 32 c8 3c
       -0.0021247708 -0.008234017 0.009903738 0.024438007
000280 35 00 c3 3c 3a ec a9 bc 0c 8f d3 3b b6 61 d1 bc
       0.02380381 -0.020742524 0.0064562615 -0.025559288
000290 71 d9 90 3b 2f f8 55 bc 93 92 7a bc 32 cf b3 bc
       0.0044204523 -0.01305966 -0.015293735 -0.021949384
0002a0 48 5f 81 bc 95 96 ca 3b 7c af bb bb 05 9d 2a 3c
       -0.015792504 0.0061825016 -0.0057277065 0.010413413
0002b0 96 37 ba ba 35 ac fa b8 87 56 46 bc 6b bc 8c bb
       -0.001420724 -0.00011953005 -0.012105591 -0.004294922
0002c0 ad 07 8f 3a 3f d0 62 bc f5 95 14 3c ba 23 58 bc
       0.0010912322 -0.013843595 0.009068956 -0.013192112
0002d0 0c 35 2f 3c 2a af a2 bc cc d4 39 bc ec 6f d8 3b
       0.0106938 -0.019858915 -0.011342239 0.006605139
0002e0 af 92 40 bb 2c 32 dc ba 99 f1 a1 bc f6 1c 64 b9
       -0.0029384305 -0.001679962 -0.019768523 -0.00021754563
0002f0 50 27 9d bc f6 34 4d 3c 0d 65 17 ba 9e d6 95 3c
       -0.019183785 0.012524834 -0.00057752506 0.018290814
000300 45 a1 37 bc 19 4b 2d ba 0f f7 f5 ba 17 7f b2 3a
       -0.011207883 -0.00066106167 -0.0018765646 0.0013618198
000310 83 65 9f 3b cd 46 8e 3b 17 3f 54 bc d2 36 48 3c
       0.004864396 0.004341936 -0.012954495 0.012220101
000320 63 ef 07 3a 29 74 5b bd 4c 4f 7d 3c 36 58 68 3c
       0.0005185513 -0.053577576 0.0154608 0.014181187
000330 70 3a 08 bd 04 d3 5f 3c 7d ac 7e 3c 9f 66 b4 39
       -0.033258855 0.01366115 0.015544054 0.00034408734
000340 91 54 af 39 24 ac 0f 3c 57 84 1f bb 53 72 b1 3c
       0.00033441608 0.008769069 -0.0024340355 0.02166096
000350 b4 9d a5 3c 45 15 f5 bb f9 47 80 bb d9 a2 1e 3b
       0.0202168 -0.007479342 -0.00391483 0.0024205951
000360 a5 35 93 3b 12 a2 1b 3c b9 74 cf bb 64 73 21 bc
       0.004492479 0.00949909 -0.006331053 -0.009854171
000370 05 59 8a 3c c6 b7 b8 bc 2c 76 d4 bc 89 9d 69 3c
       0.016888151 -0.022548568 -0.025935255 0.014258751
000380 62 a7 c4 bc 9f 2b 99 3c db 70 9a bc bf 51 42 3c
       -0.024005596 0.018697558 -0.018852642 0.01186031
000390 9c 4e 27 3d 64 7a 9d 3b a5 7e e4 bc 1a 77 8b ba
       0.040846452 0.00480585 -0.02789242 -0.0010640353
0003a0 03 dc 13 3b f7 6b b2 3b 60 c1 da 3b 45 3e 36 3c
       0.0022561557 0.0054449993 0.006675884 0.011123245
0003b0 12 d8 92 bb 85 cc a7 bb dc d5 81 3b 33 22 35 3c
       -0.004481324 -0.005120816 0.0039622616 0.011055517
0003c0 a3 95 99 bc 14 0a b8 3b de 75 a9 bc 64 f9 b8 bc
       -0.01874811 0.005616436 -0.020686086 -0.022579856
0003d0 f5 b6 9d 3c 93 15 70 bb 78 32 d8 3c 60 9f 37 3c
       0.01925228 -0.0036633953 0.026391253 0.011207432
0003e0 3e 47 42 3c 60 58 18 bc ab 02 85 bb 18 e9 8a 3c
       0.011857806 -0.009298414 -0.004059156 0.01695685
0003f0 17 df 36 3c 35 2d 65 3b 07 88 cf bc f4 9f ed bc
       0.011161587 0.0034969572 -0.025333418 -0.029006936

action_model._continuous_distribution.mu.bias f4 [2]
000000 9d 08 77 3a 3b 13 4b 3b
       0.0009423586 0.0030986804

exp_avg f4 [128, 8]
000000 44 00 a0 37 b5 15 83 35 88 69 d8 39 47 e1 80 39
       1.907361e-05 9.766578e-07 0.00041277357 0.00024581907
000010 b2 5e a7 b6 d7 5a 04 ba a1 56 91 bb 9f 8a 68 b9
       -4.988012e-06 -0.00050489366 -0.004435376 -0.00022176885
000020 8b 0a 06 37 ec 87 97 33 78 e7 28 38 c3 90 c9 b6
       7.989477e-06 7.0562095e-08 4.0269893e-05 -6.0071193e-06
000030 31 8b 91 b4 6f a0 c7 b8 ff f5 fd b9 30 2b cb b7
       -2.710963e-07 -9.5189425e-05 -0.00048439202 -2.4219597e-05
000040 73 9d 51 b7 20 ec 96 b3 2c 56 18 b8 50 a8 5d b8
       -1.249403e-05 -7.02787e-08 -3.6319878e-05 -5.284726e-05
000050 27 80 fc 34 b4 5d 5d 38 c7 e0 3a 39 9b 80 15 37
       4.70319e-07 5.2777774e-05 0.00017822078 8.911035e-06
000060 04 16 ae b2 70 49 05 b3 fa 22 4f b7 db 8a 02 b7
       -2.0266278e-08 -3.1033267e-08 -1.2346305e-05 -7.780934e-06
000070 88 04 f2 33 f6 ab 0c 37 7b 39 04 39 28 8f d3 36
       1.12698274e-07 8.384688e-06 0.00012609914 6.3049556e-06
000080 fc 2c 6c b7 b2 37 26 b5 14 25 9a b9 8b d3 66 b8
       -1.407717e-05 -6.1920866e-07 -0.00029400794 -5.5033288e-05
000090 a5 d7 07 36 8c d0 13 3a 84 65 73 3b 9f b7 42 39
       2.024209e-06 0.0005638681 0.0037139365 0.00018569686
0000a0 53 47 1f b6 4f e4 89 b2 61 73 1c b7 d7 3d 8c 36
       -2.3734362e-06 -1.6052722e-08 -9.325188e-06 4.1795242e-06
0000b0 58 ee fe 33 f0 05 1d 38 88 64 da 38 d4 b6 ae 36
       1.1871151e-07 3.7437247e-05 0.000104137755 5.206888e-06
0000c0 6f f3 d3 b8 7f 2f d9 b4 66 3c 9a b9 85 d7 23 38
       -0.00010106607 -4.0453958e-07 -0.0002941817 3.9062947e-05
0000d0 ee 32 9f 35 10 9b 5f 3a f7 ad 5a 3b 94 f1 2e 39
       1.1861246e-06 0.0008529881 0.0033367851 0.00016683928
0000e0 0a 04 61 b7 09 ec 3f 33 b8 e3 d5 36 d2 1b 84 b7
       -1.34119855e-05 4.4685326e-08 6.3744046e-06 -1.5748581e-05
0000f0 c0 ff bd b3 cc 1a ed 37 ff 2b 62 b9 fd ef 34 b7
       -8.847519e-08 2.826508e-05 -0.0002156943 -1.0784713e-05
000100 9b d0 e4 38 b7 02 86 34 bf 73 7d 39 53 29 a0 b8
       0.00010910743 2.496142e-07 0.00024171079 -7.637092e-05
000110 c8 15 14 b5 d3 52 5e ba 80 eb 35 bb 35 89 11 b9
       -5.516599e-07 -0.00084809697 -0.0027758777 -0.00013879391
000120 9e 30 aa b6 54 11 d7 31 68 a5 35 b6 09 fa 45 36
       -5.0720546e-06 6.2592935e-09 -2.706738e-06 2.9500827e-06
000130 a0 ee 13 32 59 83 c1 37 eb d0 43 37 f6 a6 1c 35
       8.610783e-09 2.3068556e-05 1.1671548e-05 5.835749e-07
000140 f0 f5 ed 38 0d 79 16 b4 99 59 a3 38 9a 6c 14 b9
       0.0001134685 -1.4013877e-07 7.7891345e-05 -0.00014154837
000150 4e f2 78 35 20 35 15 ba d9 5e 56 ba 18 7f 2b b8
       9.27398e-07 -0.0005691815 -0.00081775856 -4.0887942e-05
000160 f8 dc 7f b4 81 8b 0f 31 29 51 d4 b4 ab 57 4a 33
       -2.3829114e-07 2.0888538e-09 -3.954713e-07 4.7111524e-08
000170 01 46 07 b3 1b 2c ff 36 76 16 82 37 f5 23 50 35
       -3.1495805e-08 7.6047268e-06 1.5507667e-05 7.753836e-07
000180 57 80 ac 34 ab c9 2f b2 75 48 82 b6 99 ae 91 b5
       3.2130876e-07 -1.0232195e-08 -3.882737e-06 -1.0854156e-06
000190 57 93 03 33 db 95 28 b4 a7 7a 3d 38 4e 95 17 36
       3.063482e-08 -1.5700736e-07 4.517534e-05 2.258766e-06
0001a0 0b 2e 8b b3 a2 75 73 30 15 3f 9c 34 12 4b f7 33
       -6.481067e-08 8.857005e-10 2.9103163e-07 1.1515489e-07
0001b0 8d f1 55 31 e0 37 ba b4 85 a5 89 b6 09 3c 5c b4
       3.1132885e-09 -3.4685854e-07 -4.102187e-06 -2.0510937e-07
0001c0 92 a0 4f 37 70 e6 b4 34 3f 9f 37 39 fc 08 e4 b7
       1.2375547e-05 3.3695278e-07 0.00017511564 -2.7183902e-05
0001d0 1c 68 6c b5 c7 33 d0 b9 94 52 1d bb 55 b7 fb b8
       -8.806835e-07 -0.0003971143 -0.002400552 -0.00012002761
0001e0 f1 f6 40 b6 f7 28 66 33 33 86 a9 37 a5 c0 18 37
       -2.8753968e-06 5.3588305e-08 2.0208861e-05 9.10476e-06
0001f0 78 54 28 b4 8a 0c c6 b7 00 58 89 b9 02 c0 5b b7
       -1.5676949e-07 -2.3609278e-05 -0.0002619624 -1.30981225e-05
000200 9b 20 20 b8 c5 76 e7 b3 fb 1f a2 b8 25 20 c4 b8
       -3.817734e-05 -1.077838e-07 -7.730719e-05 -9.351996e-05
000210 5c ba d3 34 d1 f3 0a 39 16 89 cf 39 42 07 a6 37
       3.9437407e-07 0.00013251534 0.00039584254 1.9792122e-05
000220 be 0d 89 38 6d 20 55 35 6c 73 ed 39 e4 ff f9 b7
       6.535229e-05 7.939587e-07 0.0004529016 -2.9802271e-05
000230 9b 5a fe b5 49 3c 93 ba 7d 01 be bb 34 01 98 b9
       -1.8950844e-06 -0.0011233176 -0.0057985173 -0.00028992596
000240 af d9 01 b4 b3 5f a2 33 de 2c 0b 38 ce 42 b2 37
       -1.2093254e-07 7.5611204e-08 3.318197e-05 2.1250362e-05
000250 c0 96 81 b4 dc 79 6a b8 49 7f d1 b9 08 99 a7 b7
       -2.4137807e-07 -5.5903438e-05 -0.0003995842 -1.9979212e-05
000260 a9 3f 06 b9 a9 80 07 b5 91 bf a4 b9 79 79 a9 b8
       -0.00012802951 -5.0478644e-07 -0.00031423246 -8.081174e-05
000270 d5 67 6a 36 0e ac 0a 3a 52 57 37 3b 41 ac 12 39
       3.4929155e-06 0.00052899204 0.002797563 0.00013987815
000280 87 40 14 b8 59 17 8a 33 81 2b 07 b8 c4 51 17 39
       -3.5346045e-05 6.430373e-08 -3.2227024e-05 0.00014430942
000290 1f 8d 99 b5 3d 63 81 39 4d 72 34 3a 76 5b 10 38
       -1.144046e-06 0.00024678736 0.0006883487 3.4417455e-05
0002a0 60 4a 59 37 8e 02 57 32 1e 57 ac 37 26 cb 9c b7
       1.2951525e-05 1.2515228e-08 2.0544565e-05 -1.8691248e-05
0002b0 c0 ea ac 32 c0 fe 9b b8 cb 0c 52 b9 3f 0a 28 b7
       2.0130187e-08 -7.438427e-05 -0.00020031926 -1.0015966e-05
0002c0 ee 28 0e b8 b5 c0 21 b5 68 22 8a b9 36 df 66 b9
       -3.3893557e-05 -6.02576e-07 -0.00026347046 -0.00022017662
0002d0 62 88 4f 36 cc 82 a4 39 1c eb 1c 3b bf 11 fb 38
       3.092479e-06 0.0003137797 0.0023943847 0.00011971918
0002e0 2b a6 26 38 97 5e b2 35 63 9f 17 3a a5 b3 d3 39
       3.973224e-05 1.3289563e-06 0.00057839433 0.00040378902
0002f0 ce 14 cb b6 fb 9b 4a ba 00 9a c2 bb 66 ae 9b b9
       -6.0522934e-06 -0.00077289314 -0.0059387684 -0.0002969384
000300 41 97 8c b1 41 c2 17 af c4 86 23 b3 c0 4b 86 b2
       -4.091732e-09 -1.3802383e-10 -3.8073964e-08 -1.56341e-08
000310 31 cc 80 30 57 3c 83 32 ab 11 b2 34 87 74 8e 32
       9.37126e-10 1.5277847e-08 3.316794e-07 1.6583966e-08
000320 df d1 88 32 15 36 b3 af 27 08 b6 b3 d1 05 1b b2
       1.5927922e-08 -3.2598338e-10 -8.476518e-08 -9.02351e-09
000330 9c 66 46 af c2 92 1c 32 07 d5 89 35 0f 88 5c 33
       -1.8044449e-10 9.113764e-09 1.0269295e-06 5.1346486e-08
000340 58 f9 ef 35 88 68 2c b1 1f 86 1b b5 7c d7 17 37
       1.7879456e-06 -2.5088713e-09 -5.793717e-07 9.050473e-06
000350 d3 70 c8 b3 24 1d 20 36 db dc 59 38 4d 4a 2e 36
       -9.333748e-08 2.385882e-06 5.194252e-05 2.597127e-06
000360 b3 f9 9f b7 c1 4e ec 33 eb 75 35 38 1c 63 41 b7
       -1.9070552e-05 1.10039316e-07 4.3263582e-05 -1.1526772e-05
000370 1d 4d 8e 34 eb 8b b8 b8 9c 34 54 ba b0 c3 29 b8
       2.6505668e-07 -8.7998655e-05 -0.00080949976 -4.0474988e-05
000380 45 e6 b8 38 40 69 d2 b2 7b b6 cc 38 37 3c d4 b8
       8.816695e-05 -2.449508e-08 9.761468e-05 -0.00010120164
000390 e9 0b 25 35 50 b3 fd b9 7b a2 8c ba 06 04 61 b8
       6.148462e-07 -0.0004838952 -0.0010729575 -5.3647927e-05
0003a0 75 3c c2 34 85 16 4a 35 3c 9b ad 39 d6 ed e5 38
       3.6179304e-07 7.5283634e-07 0.0003311279 0.00010963871
0003b0 1a 2e 1a b6 42 10 f4 b9 84 40 84 bb 6e 9a 53 b9
       -2.2974623e-06 -0.0004655142 -0.004036011 -0.00020180058
0003c0 d1 89 0b 38 b4 56 e1 33 03 4a c0 38 c6 11 dd b7
       3.3268534e-05 1.049315e-07 9.169059e-05 -2.635353e-05
0003d0 01 bf 5a 33 b1 4f 95 b9 1a ad 91 ba f8 14 69 b8
       5.0930797e-08 -0.0002847887 -0.001111421 -5.5571058e-05
0003e0 b6 c3 2c b6 ed 4f 4c 33 dc 7b 8d 37 4d 55 49 37
       -2.5743916e-06 4.7570143e-08 1.6866186e-05 1.2000394e-05
0003f0 60 31 24 b4 8c ec 5a b7 ad c4 4e b9 23 6a 25 b7
       -1.5291653e-07 -1.3048888e-05 -0.00019718958 -9.859478e-06

exp_avg_sq f4 [128, 8]
000000 13 0a 2a 36 7c ae a2 2e fe ad 46 36 c1 3c 31 36
       2.5337838e-06 7.397902e-11 2.9605576e-06 2.6410419e-06
000010 ea 9c d8 30 f5 a5 2d 36 86 8b 02 3b 0f 92 65 36
       1.5760666e-09 2.5875609e-06 0.0019919588 3.4208676e-06
000020 f7 e3 43 33 ac da 80 2d 23 c0 5c 33 41 24 3c 33
       4.560931e-08 1.4649025e-11 5.139749e-08 4.3805134e-08
000030 fd 60 b1 2d 5c 7d 83 33 28 22 4d 37 f2 ed d4 32
       2.0165642e-11 6.1229656e-08 1.2226905e-05 2.4788253e-08
000040 a0 9a a5 33 e3 34 06 2d 9a 11 d3 33 e8 54 cb 33
       7.7115374e-08 7.628761e-12 9.828655e-08 9.4683685e-08
000050 c4 77 eb 2d 2c ac cc 33 2c 2f 0c 38 48 70 9f 33
       2.6769593e-11 9.530808e-08 3.3422533e-05 7.424438e-08
000060 82 b5 5f 31 a3 2c ba 2a ee 25 bc 31 72 e9 99 31
       3.2553946e-09 3.307121e-13 5.4758322e-09 4.4794257e-09
000070 07 20 a1 2c 48 3c 8c 31 e8 67 aa 35 b2 55 56 31
       4.579451e-12 4.0813894e-09 1.2696228e-06 3.118981e-09
000080 50 20 9e 34 63 19 61 2d e5 ab fa 34 23 63 b7 34
       2.9453304e-07 1.2795406e-11 4.6691198e-07 3.4158538e-07
000090 de e4 40 2f 7f 9e e2 34 06 88 69 39 d9 9a d4 34
       1.7543608e-10 4.2211101e-07 0.00022271284 3.9600744e-07
0000a0 52 01 96 33 cb 67 8a 2d 45 bd 8e 33 d0 17 74 33
       6.9851595e-08 1.5734877e-11 6.646818e-08 5.6832334e-08
0000b0 06 59 28 2e d8 a2 aa 33 67 be 4c 37 6e d2 db 32
       3.8277846e-11 7.945863e-08 1.2203679e-05 2.5590648e-08
0000c0 b6 d9 c5 35 e2 fb 45 2e 58 b4 ed 35 d4 1b c4 35
       1.4741006e-06 4.501633e-11 1.7710363e-06 1.4611237e-06
0000d0 1a 02 3b 30 ea 20 d9 35 92 72 92 3a 86 c1 fa 35
       6.803319e-10 1.6177339e-06 0.0011173061 1.8682774e-06
0000e0 e5 19 75 32 81 b8 1d 2d ee 2d 9f 32 01 95 81 32
       1.4266765e-08 8.965385e-12 1.8530923e-08 1.5085336e-08
0000f0 6c 87 49 2d 00 5d ad 32 59 96 b0 35 6a 98 44 31
       1.1455597e-11 2.0182142e-08 1.3156779e-06 2.8608391e-09
000100 e7 e5 e6 35 45 8e 5d 2e 92 6c 18 36 eb db f2 35
       1.7203246e-06 5.0375943e-11 2.2712961e-06 1.809441e-06
000110 94 b9 58 30 90 4e 06 36 aa 64 bb 3a a4 9a 23 36
       7.8844065e-10 2.0013285e-06 0.0014296968 2.4378905e-06
000120 f2 42 a0 31 9e ad c2 2b eb 09 e4 31 97 88 8e 31
       4.6642237e-09 1.3832718e-12 6.636801e-09 4.1482724e-09
000130 89 48 e2 2b 45 f9 ea 31 f2 a4 a8 35 47 aa 52 31
       1.6078398e-12 6.838635e-09 1.2564981e-06 3.0655813e-09
000140 44 61 24 35 3b 93 cd 2d 7d 20 78 35 b7 e8 35 35
       6.12363e-07 2.3371185e-11 9.2434476e-07 6.77664e-07
000150 91 4c fa 2f 7b e4 4e 35 b3 02 f5 39 06 cf 5e 35
       4.552914e-10 7.7073463e-07 0.00046732053 8.3002703e-07
000160 4d d1 2d 31 57 7c 04 2c 45 64 63 31 4c 4a 00 31
       2.5293787e-09 1.882735e-12 3.3089844e-09 1.8668684e-09
000170 fc 41 f7 2b 2a e8 a4 31 86 1f 6c 34 07 1e 17 30
       1.756872e-12 4.799422e-09 2.1990681e-07 5.497615e-10
000180 0b 34 8b 30 76 3c 41 2a 1a 83 c7 30 00 df 8b 30
       1.0128373e-09 1.716282e-13 1.4516417e-09 1.0176961e-09
000190 af b8 d5 2b f7 fb af 30 f2 de 45 34 c9 08 fd 2f
       1.518582e-12 1.2804539e-09 1.8428162e-07 4.6026674e-10
0001a0 a9 06 9b 30 ba 4a da 2a 9c 90 db 30 50 b7 84 30
       1.1279627e-09 3.877643e-13 1.5975448e-09 9.656365e-10
0001b0 1f e4 3e 2b ba 9b ca 30 e4 b2 a2 33 32 41 50 2f
       6.781814e-13 1.4741695e-09 7.576253e-08 1.8940652e-10
0001c0 55 86 eb 34 8b 3a ee 2d 37 99 33 35 34 9a 09 35
       4.38699e-07 2.7083466e-11 6.6905653e-07 5.126087e-07
0001d0 c7 80 7a 2f 94 a3 22 35 58 a1 73 39 9e fc 00 35
       2.2783118e-10 6.058774e-07 0.00023234391 4.805132e-07
0001e0 19 a8 17 32 93 6f 1b 2c f7 79 5f 32 e7 96 33 32
       8.827578e-09 2.208876e-12 1.300804e-08 1.04534825e-08
0001f0 20 54 c4 2c e1 d4 4b 32 dd 35 ec 35 3f f3 96 31
       5.579995e-12 1.1864558e-08 1.7599046e-06 4.3932284e-09
000200 96 7c 27 34 62 0d 2b 2d ff 13 4f 34 81 9e 40 34
       1.5598411e-07 9.723196e-12 1.9285652e-07 1.7939057e-07
000210 78 fe e1 2e 2a 0c 2a 34 82 66 a1 38 8f 66 1e 34
       1.0277018e-10 1.5836909e-07 7.696172e-05 1.4752207e-07
000220 2c 63 c7 35 8f 2c a1 2e 59 db 2f 36 78 a5 fc 35
       1.4855518e-06 7.3293475e-11 2.620471e-06 1.8823621e-06
000230 02 66 82 30 9b 35 14 36 a1 e5 88 3a cc c3 03 36
       9.487737e-10 2.208492e-06 0.0010444411 1.963449e-06
000240 55 2c 44 32 6c d3 5c 2c 66 8d bf 32 3d 2f 70 32
       1.14187815e-08 3.1381243e-12 2.2299627e-08 1.3980579e-08
000250 14 a5 29 2d fe e1 a9 32 6c de a1 36 04 37 35 32
       9.6431925e-12 1.9776959e-08 4.824067e-06 1.0548096e-08
000260 f5 10 b8 35 4a f6 e2 2e 7d 49 05 36 8a 00 ce 35
       1.3714003e-06 1.032104e-10 1.986132e-06 1.5348353e-06
000270 bc 1d 74 30 4b 88 f7 35 65 f1 59 3a 1b c8 c9 35
       8.880894e-10 1.84426e-06 0.00083138637 1.5033905e-06
000280 ca de a5 35 99 d0 9e 2e 8e 8d c4 35 7d 56 b2 35
       1.2358298e-06 7.2220625e-11 1.4644336e-06 1.3287205e-06
000290 dc ff 5a 30 f3 64 ad 35 03 bf 3b 3a 1a 0c b7 35
       7.9671536e-10 1.2918885e-06 0.0007161947 1.3638085e-06
0002a0 78 4e e7 32 29 55 ca 2c 88 75 51 33 06 2e 12 33
       2.6927623e-08 5.75064e-12 4.87685e-08 3.4035132e-08
0002b0 75 ea 80 2d 25 04 3a 33 0d da e9 36 f3 6a 90 32
       1.4656035e-11 4.331027e-08 6.9693256e-06 1.6812441e-08
0002c0 c2 2e 09 36 dc 1f 8d 2e aa be 31 36 b1 9e 29 36
       2.0441807e-06 6.417597e-11 2.6486036e-06 2.5275333e-06
0002d0 dd 28 21 31 47 98 0b 36 45 53 a7 3a 15 e2 24 36
       2.3451812e-09 2.0801251e-06 0.0012765905 2.4569501e-06
0002e0 5d b6 7c 36 a3 7e ff 2e 10 07 ad 36 a8 67 9b 36
       3.7657076e-06 1.16185526e-10 5.156624e-06 4.631427e-06
0002f0 61 84 56 31 50 20 8b 36 d7 bb 33 3b 1d 05 a7 36
       3.1216347e-09 4.1462845e-06 0.0027425194 4.977583e-06
000300 4e 69 ae 30 6b f8 02 2b c9 c4 cf 30 44 53 a0 30
       1.2690096e-09 4.6530027e-13 1.5117162e-09 1.1665198e-09
000310 bb 9b f5 2a 8a 11 cf 30 b5 d8 84 33 30 0b 2a 2f
       4.3628802e-13 1.5066217e-09 6.186148e-08 1.5465385e-10
000320 aa 5c a1 30 35 fd 0d 2b d9 ef ce 30 78 7c 7c 30
       1.1740628e-09 5.044466e-13 1.5056641e-09 9.1853947e-10
000330 0a 72 ec 2a e6 13 c6 30 6a cd 43 33 85 a0 fa 2e
       4.2001152e-13 1.4412052e-09 4.55888e-08 1.1397198e-10
000340 de d2 81 32 c1 10 0c 2c c8 24 72 32 1c 24 7a 32
       1.5113468e-08 1.9904497e-12 1.4094617e-08 1.45601255e-08
000350 d5 20 bc 2c ec 99 9b 32 30 92 24 36 22 e3 b4 31
       5.3469265e-12 1.811437e-08 2.4522997e-06 5.2645115e-09
000360 6d d0 b7 33 38 eb 4a 2d 8d 25 d4 33 01 67 d9 33
       8.559514e-08 1.15346e-11 9.87885e-08 1.0123586e-07
000370 37 a3 3c 2e 49 6b b2 33 20 a6 87 37 56 d4 23 33
       4.2891215e-11 8.308286e-08 1.6170612e-05 3.8144513e-08
000380 41 18 88 35 0c cc f7 2d 8e b0 a1 35 1b fe 84 35
       1.0139848e-06 2.8171264e-11 1.2046819e-06 9.908721e-07
000390 b6 66 18 30 8d cd 92 35 b6 30 4f 3a b0 59 ae 35
       5.544324e-10 1.0937671e-06 0.0007903682 1.2990113e-06
0003a0 d8 f5 8f 35 a3 71 51 2e 37 44 99 35 85 52 92 35
       1.072588e-06 4.7622028e-11 1.1419241e-06 1.0901864e-06
0003b0 03 9f 57 30 94 4c 91 35 1b be 38 3a 9f a8 a5 35
       7.8442514e-10 1.0825629e-06 0.0007047371 1.2342533e-06
0003c0 ec c6 e9 33 5f a7 2e 2d 0e bb 4b 34 e3 d7 11 34
       1.0886092e-07 9.927919e-12 1.8973898e-07 1.3582716e-07
0003d0 29 6b 0d 2f 37 a7 32 34 65 d2 87 38 64 a1 0d 34
       1.2861946e-10 1.6638374e-07 6.476491e-05 1.3190362e-07
0003e0 cd 89 98 31 2d c6 ab 2b a0 fc 05 32 bd 75 db 31
       4.4394484e-09 1.2205286e-12 7.799059e-09 6.387124e-09
0003f0 7a 0e 30 2c 26 86 d1 31 e9 f2 96 35 bd ce 40 31
       2.501914e-12 6.0979515e-09 1.1246567e-06 2.8057194e-09

exp_avg f4 [128]
000000 f2 b6 ad b9 f2 b0 f5 b7 5d fa a2 37 21 ea 27 37
       -0.00033133436 -2.9288673e-05 1.942849e-05 1.0008488e-05
000010 eb aa 7b 39 0a 0d d3 36 11 f3 43 39 8e 2b 81 b7
       0.00024000897 6.289808e-06 0.00018687198 -1.539828e-05
000020 0f 21 12 b9 d1 22 4d b5 de 06 77 b5 b5 79 3c 34
       -0.0001393596 -7.6419116e-07 -9.2024663e-07 1.7553141e-07
000030 eb d6 65 36 d3 00 9e b4 42 0b 16 b9 94 84 9d b7
       3.4248758e-06 -2.9430393e-07 -0.00014309309 -1.8777595e-05
000040 ce a4 0e 38 a3 65 b3 b9 ff d7 e6 b7 e1 6b 45 39
       3.4008925e-05 -0.00034217266 -2.7518718e-05 0.00018827572
000050 3c b0 2e 37 7f a7 17 b7 cc c7 4a 39 30 0c eb b9
       1.0412241e-05 -9.0393e-06 0.00019338651 -0.00044831773
000060 51 3e 0d 33 a0 ab bc 33 08 69 0b 36 a6 7f 47 b8
       3.2885797e-08 8.7856506e-08 2.077375e-06 -4.756418e-05
000070 cf 11 02 b8 38 a8 90 b9 bf c2 6d b8 8b e2 81 b7
       -3.1011e-05 -0.00027591153 -5.6686575e-05 -1.548349e-05
000080 94 f2 37 b5 0c fe 99 b9 5f a5 97 34 34 d9 1f 39
       -6.852581e-07 -0.00029371714 2.8246265e-07 0.00015244336
000090 f9 e4 88 39 8e 85 27 37 6e 6f a1 39 15 cc c5 b7
       0.0002611054 9.985071e-06 0.00030791335 -2.3579263e-05
0000a0 ed 54 54 39 a3 3a 13 ba 8c da e6 37 50 88 6d b7
       0.00020249533 -0.00056163425 2.7519905e-05 -1.41580385e-05
0000b0 6f 06 c1 b8 bd 13 a8 39 2a 34 86 b8 73 6a 82 33
       -9.2041555e-05 0.00032058163 -6.399334e-05 6.07296e-08
0000c0 98 fd 0b 37 b9 83 f5 b7 85 a6 18 b9 12 d5 c0 b9
       8.34409e-06 -2.9267614e-05 -0.00014557883 -0.00036779844
0000d0 b1 d8 18 ba 74 1a e9 b7 78 d4 d9 b8 7e 41 42 36
       -0.00058306294 -2.7788083e-05 -0.00010386942 2.8946374e-06
0000e0 61 60 1c 36 fa 41 6a 38 35 85 b0 39 7b b0 a3 39
       2.3301911e-06 5.5851393e-05 0.00033668583 0.0003122127
0000f0 b0 5d 01 35 e2 4d 96 b8 17 f2 e5 36 5c 1e e7 36
       4.819258e-07 -7.167064e-05 6.852915e-06 6.8878708e-06
000100 bf 25 69 b4 85 b8 90 b5 3d 4e e6 34 30 72 6c b9
       -2.1713548e-07 -1.0782538e-06 4.2897764e-07 -0.00022549252
000110 bd 0c 4d b4 0c c4 03 b8 98 40 b3 b5 c0 c1 85 39
       -1.9096747e-07 -3.1415417e-05 -1.3355339e-06 0.00025512092
000120 69 8b 9f 38 cb af 6a 39 9a 41 be 39 f4 14 44 38
       7.607678e-05 0.00022381467 0.000362885 4.6749556e-05
000130 3a 0c a6 b7 e4 05 6f 37 76 5c 5c b8 4a bd 70 b9
       -1.9794436e-05 1.4246882e-05 -5.25382e-05 -0.00022958699
000140 f6 ba 10 39 6c 3c 4d b7 ae 84 df b9 d8 4b 33 33
       0.00013802559 -1.223302e-05 -0.0004263273 4.1745665e-08
000150 94 7a bc b6 67 10 62 37 5e a3 85 37 41 01 89 39
       -5.6171066e-06 1.3474469e-05 1.593091e-05 0.0002613161
000160 56 be 0e 3a c1 eb 42 b6 e2 4f a2 39 70 af 58 36
       0.00054452324 -2.904548e-06 0.00030958565 3.2288626e-06
000170 f3 e3 21 38 74 dd b5 35 00 5b 05 b6 95 54 b5 b7
       3.8597685e-05 1.3550002e-06 -1.9871513e-06 -2.1616268e-05
000180 96 6d 12 b9 24 ce 61 38 53 59 2a b4 66 9d 9e 36
       -0.00013964469 5.3836164e-05 -1.586498e-07 4.7270905e-06
000190 63 8f c7 b7 d3 f4 4b 35 0f e6 80 35 f0 b9 85 39
       -2.3789418e-05 7.597966e-07 9.603699e-07 0.0002550627
0001a0 71 46 37 b4 cc 2b ca b9 7f 01 a2 b5 18 ee b3 b9
       -1.706883e-07 -0.00038561074 -1.2070376e-06 -0.00034318934
0001b0 47 12 51 39 b9 ed 16 b6 e2 50 1e 39 ab 0d 64 37
       0.00019938602 -2.2490115e-06 0.00015098185 1.3593041e-05
0001c0 91 86 df b9 30 53 df b7 e7 64 8a 39 38 8a 85 b6
       -0.00042634134 -2.6622409e-05 0.0002639659 -3.9797997e-06
0001d0 ed 8f 7e b8 7f b2 f1 b8 65 ec 1a b9 11 2a cb 39
       -6.069236e-05 -0.00011525023 -0.00014774648 0.0003875052
0001e0 cd ea 1b 37 4a 39 df b5 50 51 2e b9 d2 21 53 b9
       9.293389e-06 -1.6631468e-06 -0.00016624224 -0.00020135127
0001f0 95 18 c7 38 2c d0 cd b7 6d cf 5d 38 ea cc 54 b7
       9.493638e-05 -2.4534842e-05 5.2883686e-05 -1.2683895e-05
