Assets/results/petfollower10/PetFollower/PetFollower-6465.pt (torch, 444828 bytes, 36 tensors)

network_body._body_endoder.seq_layers.0.weight f4 [128, 7]
0.5256283 -0.35301644 -0.04843724 -0.11842606 0.030915253 -0.14454152 0.27377516 0.19547658
0.014544251 -0.38705906 0.09827435 0.031640653 0.6572195 -0.323619 -0.19615278 0.014111884
0.3353639 -0.015365657 0.1417782 0.04142075 -0.2878843 -0.36935294 0.24852516 0.23099281
0.48458508 0.5493607 -0.011234746 -0.5731255 -0.50542194 -0.113467336 -0.20422111 0.029162755
0.28348738 -0.3542814 -0.2118274 0.24641705 -0.30302715 0.39366186 -0.5136708 0.1761815
0.06960542 -0.14964399 -0.8377286 0.1753473 0.12127426 0.090976596 -0.106358826 -0.40102848
-0.350212 -0.24724331 0.40104267 0.19238812 0.43124884 -0.10909564 -0.31420788 0.5678242
0.41001794 0.5467173 0.19592737 0.04499479 0.07137184 0.09493493 -0.30596894 -0.59800833
0.33721077 0.13477233 -0.036832333 -0.09829313 0.12864736 -0.2243151 -1.0866566 -0.31709677
0.776686 0.11346276 0.4270621 0.021815367 -0.14374226 0.08800221 -0.029439745 -0.075072005
-0.07170229 -0.010975755 0.030233633 0.03747303 0.081088096 0.057156824 -0.17801738 0.19106145
-0.70893425 0.21990919 0.12957458 -0.033049874 0.26995328 -0.035270497 -0.8379427 0.330046
0.61795306 0.7572435 0.23674417 -0.040206287 0.62273854 0.008214701 0.19669591 -0.15951608
0.24946718 -0.41707212 -0.60573864 -0.69274884 -0.011776723 -0.110132284 -0.12067409 0.581815
-0.72758937 -0.038024347 0.4138008 -0.021526616 -0.2971103 0.10525403 0.3074331 -0.1399159
0.115132205 0.16591358 0.29201776 -0.38772598 0.28023222 0.5459057 -0.3696083 -0.7856074
-0.30883238 0.18259458 0.051775813 0.6075103 0.2752534 0.24613973 -0.6250031 -0.14029525
0.2547744 -0.46381742 0.1255642 -0.4776337 0.23487163 0.08456549 -0.25037506 -0.2424704
-0.4781314 -0.06682041 0.0560849 0.33509168 -0.2181797 -0.5612842 0.2818084 -0.034238495
-0.6116518 0.23069794 0.2617288 0.3569761 0.07894521 0.14871716 -0.35891718 -0.37188768
0.4077092 -0.2964194 -0.1883908 0.31551024 -0.74030244 -0.55134785 -0.24014005 -0.06405248
-0.27407223 -0.61871266 -0.27691543 0.65557724 0.1900562 0.18889432 0.28816977 0.17490765
0.02509345 -0.1233997 0.28481063 0.044236865 0.37269142 0.96572775 -0.44240433 -0.31704706
-0.033778876 0.07878103 0.07470079 0.5115734 -0.11093903 -0.4617713 0.14121543 0.05314166
-0.08930921 0.59507626 0.3377915 0.34564152 0.7755858 -0.3326757 0.05670485 -0.28233808
0.9674631 0.37856066 0.04308305 -0.138353 -0.43182215 -0.4766268 0.4332937 -0.20597449
-0.15872674 -0.5302413 0.38521007 0.0865911 0.3467232 0.413092 -0.3618278 0.9007798
0.53632337 -0.21285714 0.4743332 0.5818304 0.31738135 -0.22632734 -0.14616968 -0.02230576
0.33517754 -1.2126515 0.29103675 0.047578223 0.6980089 -0.12479492 -0.3780609 -0.33792713
-0.17656086 0.15859626 0.5542327 0.009432357 -0.03562729 0.0076953107 0.5303223 0.3565292
0.043070048 0.25256342 -0.7539773 0.33470204 -0.16625303 -0.2677905 -0.19150603 0.27191803
0.36546504 -0.6721985 0.24412952 -0.6663041 -0.09914301 -0.017991936 -0.45084321 0.55380654
00000000: 948f 063f 92be b4be 2166 46bd 5d89 f2bd
00000010: fc41 fd3c b102 14be 422c 8c3e 032b 483e
00000020: 034b 6e3c 9b2c c6be 1044 c93d a199 013d
00000030: 8a3f 283f 64b1 a5be 46dc 48be 8835 673c
00000040: d1b4 ab3e 3dc0 7bbc 4e2e 113e cea8 293d
00000050: 9265 93be d41b bdbe 617d 7e3e 6189 6c3e
00000060: 891b f83e e7a2 0c3f f111 38bc 5ab8 12bf
00000070: 5563 01bf 9061 e8bd 571f 51be bbe6 ee3c
00000080: 4225 913e 5f64 b5be 48e9 58be c054 7c3e
00000090: 6026 9bbe 0c8e c93e ee7f 03bf ec68 343e
000000a0: 498d 8e3d 463c 19be 6275 56bf 3e8e 333e
000000b0: a45e f83d f051 ba3d a8d2 d9bd 9b53 cdbe
000000c0: fd4e b3be 5a2d 7dbe 7755 cd3e 6401 453e
000000d0: a6cc dc3e 896d dfbd dbdf a0be ed5c 113f
000000e0: dfed d13e aaf5 0b3f 2fa1 483e 754c 383d
000000f0: 662b 923d 3f6d c23d f6a7 9cbe 1317 19bf
00000100: e4a6 ac3e c201 0a3e 80dd 16bd e94d c9bd
00000110: 22bc 033e dcb2 65be 9017 8bbf 825a a2be
00000120: e5d4 463f 2a5f e83d e2a7 da3e 24b6 b23c
00000130: 2c31 13be 813a b43d 9f2b f1bc 5abf 99bd
00000140: a6d8 92bd a7d3 33bc 86ac f73c 527d 193d
00000150: 8411 a63d 461d 6a3d 304a 36be 9da5 433e
00000160: b77c 35bf e02f 613e 33af 043e 4e5f 07bd
00000170: 5137 8a3e cc77 10bd 6a83 56bf cafb a83e
00000180: 2c32 1e3f b6da 413f 106d 723e 59af 24bd
00000190: cb6b 1f3f f496 063c a76a 493e 2f58 23be
000001a0: 5374 7f3e 7a8a d5be b011 1bbf fd57 31bf
000001b0: 28f3 40bc 098d e1bd fa23 f7bd d4f1 143f
000001c0: 4c43 3abf 6bbf 1bbd b3dd d33e 9658 b0bc
000001d0: d71e 98be 6d8f d73d df67 9d3e 1d46 0fbe
000001e0: 6fca eb3d 40e5 293e 5a83 953e 0584 c6be
000001f0: 997a 8f3e 7ac0 0b3f 4d3d bdbe 911d 49bf
00000200: 471f 9ebe 13fa 3a3e e012 543d cc85 1b3f
00000210: 03ee 8c3e 0e0c 7c3e 3400 20bf 8fa9 0fbe
00000220: ca71 823e 7a79 edbe e793 003e 688c f4be
00000230: 3082 703e ac30 ad3d 2931 80be 294a 78be
00000240: a4cd f4be 24d9 88bd 48b9 653d 2391 ab3e
00000250: 806a 5fbe 52b0 0fbf 3149 903e aa3d 0cbd
00000260: 3695 1cbf 153c 6c3e 5101 863e 92c5 b63e
00000270: 07ae a13d 5049 183e fec3 b7be 1068 bebe
00000280: 43bf d03e 49c4 97be 85e9 40be 8f8a a13e
00000290: 7684 3dbf 2225 0dbf 46e7 75be f22d 83bd
000002a0: 3253 8cbe f463 1ebf dcc7 8dbe e9d3 273f
000002b0: 189e 423e 836d 413e fd8a 933e fe1a 333e
000002c0: c790 cd3c fbb8 fcbd b3d2 913e b731 353d
000002d0: 69d1 be3e ef39 773f d282 e2be fe53 a2be
000002e0: b85b 0abd f357 a13d bafc 983d 79f6 023f
000002f0: 0134 e3bd 4a6d ecbe c79a 103e 12ab 593d
00000300: bfe7 b6bd eb56 183f 02f3 ac3e edf7 b03e
00000310: ca8c 463f 7854 aabe 5843 683d 9e8e 90be
00000320: a9ab 773f b4d2 c13e da77 303d 69ac 0dbe
00000330: cb17 ddbe 6e08 f4be acd8 dd3e faea 52be
00000340: 4389 22be e5bd 07bf 413a c53e ad56 b13d
00000350: b485 b13e cb80 d33e 7e41 b9be 8199 663f
00000360: 7d4c 093f 39f7 59be cddb f23e d6f2 143f
00000370: cf7f a23e 5bc2 67be 81ad 15be 92ba b6bc
00000380: 649c ab3e 2a38 9bbf c502 953e 62e1 423d
00000390: b6b0 323f 7b94 ffbd 3391 c1be c904 adbe
000003a0: 5fcc 34be 0f67 223e 32e2 0d3f 2c8a 1a3c
000003b0: eced 11bd f228 fc3b 34c3 073f ff8a b63e
000003c0: 386a 303d fe4f 813e a804 41bf 115e ab3e
000003d0: 3c3e 2abe d61b 89be 281a 44be d738 8b3e
000003e0: 3c1e bb3e 3315 2cbf 17fd 793e e892 2abf
000003f0: 7e0b cbbd d363 93bc ecd4 e6be 44c6 0d3f

network_body._body_endoder.seq_layers.0.bias f4 [128]
0.0073772348 0.013233474 -0.046916835 -0.0107355565 0.028278396 0.0052034315 0.04108938 -0.012309941
0.02045897 -0.008725752 0.056018464 -0.006290669 -0.026107024 -0.016279152 0.0015398042 0.006580997
0.0023607397 -0.0007415058 -0.0029325776 0.0056526586 0.004005449 0.0018047867 -0.0019115466 0.03534124
-0.0031280122 -0.0056552007 0.00032637987 0.0026472944 -0.019742467 0.052651495 0.0029156208 0.046638448
-0.02742456 0.018118216 0.022951843 -0.015704177 0.055589326 -0.0032811852 0.0005827388 0.022082545
0.04106795 -0.0050410614 -0.0123357 -0.0007552416 0.013186983 -0.020927962 -0.0016469328 0.012161491
-0.005524994 0.023419168 -0.017159075 0.016172085 -0.025642438 0.0054437453 -0.008710046 0.0020917235
0.02148589 -0.005339813 -0.012863578 0.0046788054 0.011757532 -0.02461883 -0.01993059 -0.01372296
0.026024027 -0.021638917 0.057217862 0.0052292347 -0.014554088 0.02089357 0.021590676 0.011838872
0.0012064883 0.002201487 0.01247225 -0.009656196 0.017746065 -0.0169906 -0.007598041 0.0033806914
0.047684364 -0.010793429 -0.012610451 -0.0123118535 0.033068705 0.014756799 0.016391579 0.011595246
-0.008874797 0.001100946 0.002368867 0.008539129 -0.0065620644 -0.0080596665 0.042173445 -0.020972626
-0.004264863 -0.0103105055 0.0077922675 -0.024992695 -0.011280223 -0.028344618 -0.029906526 -0.007462452
0.010904044 -0.026290268 0.010040051 -0.008151558 0.02348723 0.018739184 -0.010277387 0.013941
0.014769804 -0.006877215 -0.009389462 0.029370217 -0.0024057548 0.0045953086 -0.0050301314 -0.012375613
-0.017678952 0.023552384 -0.010368127 -0.018201677 -0.021087896 0.009137778 0.0016734141 0.00016149993
00000000: bbbc f13b 37d1 583c de2b 40bd 30e4 2fbc
00000010: 18a8 e73c 8c81 aa3b 564d 283d a3af 49bc
00000020: 9299 a73c 75f6 0ebc 9e73 653d f521 cebb
00000030: 66de d5bc db5b 85bc 41d3 c93a 67a5 d73b
00000040: a4b6 1a3b 9d61 42ba 7d30 40bb f039 b93b
00000050: 2440 833b 988e ec3a dc8c faba fac1 103d
00000060: 56ff 4cbb 434f b9bb f71d ab39 3b7e 2d3b
00000070: f4ba a1bc 18a9 573d 0014 3f3b f507 3f3d
00000080: 79a9 e0bc a76c 943c 8105 bc3c 0ca6 80bc
00000090: a2b1 633d 2709 57bb f0c2 183a 74e6 b43c
000000a0: de36 283d 7d2f a5bb ad1b 4abc 68fb 45ba
000000b0: 370e 583c 1e71 abbc e5dd d7ba fe40 473c
000000c0: 020b b5bb 8ed9 bf3c 3091 8cbc 527b 843c
000000d0: 1710 d2bc 7261 b23b 95b4 0ebc 4c15 093b
000000e0: 2d03 b03c 99f9 aebb c2c1 52bc aa50 993b
000000f0: aaa2 403c 6ead c9bc 7a45 a3bc 44d6 60bc
00000100: 5730 d53c 1944 b1bc 475d 6a3d 005a ab3b
00000110: 4574 6ebc fe28 ab3c eede b03c d4f7 413c
00000120: 0823 9e3a d346 103b 6858 4c3c 0635 1ebc
00000130: 3260 913c df2f 8bbc fdf8 f8bb 978e 5d3b
00000140: ae50 433d ecd6 30bc 119c 4ebc a8b7 49bc
00000150: 0d73 073d 80c6 713c a247 863c fdf9 3d3c
00000160: 9967 11bc 9e4d 903a fe3e 1b3b b4e7 0b3c
00000170: 9606 d7bb b10c 04bc 10be 2c3d c9ce abbc
00000180: 44c0 8bbb 65ed 28bc 4756 ff3b 7bbd ccbc
00000190: afd0 38bc f932 e8bc 88fe f4bc 9687 f4bb
000001a0: e0a6 323c b05e d7bc 077f 243c 1d8e 05bc
000001b0: 4b68 c03c eb82 993c 7c62 28bc cb68 643c
000001c0: 0cfd 713c 435a e1bb 42d6 19bc cf99 f03c
000001d0: dea9 1dbb 3e94 963b cdd3 a4bb 15c3 4abc
000001e0: 73d3 90bc eef0 c03c 14df 29bc af1b 95bc
000001f0: 86c0 acbc 9eb6 153c 7656 db3a 4f58 2939

network_body._body_endoder.seq_layers.2.weight f4 [128, 128]
0.13886037 -0.0032306009 -0.053512834 0.12326953 0.044678863 -0.08461852 -0.09521247 -0.037053775
0.083377704 -0.03795667 0.14160839 0.12727883 -0.018526115 0.0012222407 0.10995435 0.15638164
0.0033441582 0.01582064 -0.09308775 -0.22232638 0.21271935 0.048028037 0.026369305 -0.14476548
0.03232245 -0.014796965 -0.013034795 -0.008565222 0.04637275 -0.20116463 0.020871501 0.28346092
-0.025547143 -0.018573903 0.018717034 -0.06740133 -0.32193023 -0.1456045 0.037994392 -0.031032903
-0.053420946 0.009062049 -0.16209096 0.08536289 0.042207073 0.02591347 -0.015454045 -0.23409513
-0.039802175 -0.095583126 -0.03844731 0.05779852 0.085614674 0.10856108 0.1749064 -0.17954586
-0.054974854 0.24469559 0.11155833 -0.021252185 -0.06104215 0.07909415 -0.029871874 -0.0045824125
0.2078611 -0.01856732 0.030261545 0.06526756 0.16796963 0.18244115 0.009662685 -0.067858234
-0.07047546 -0.08192293 0.015791845 0.043337166 -0.038705572 0.02969236 -0.079360016 0.11427552
0.09088131 -0.04766237 0.04009984 -0.15957013 -0.0061391448 0.1158513 -0.033340596 0.039182317
-0.114589594 0.14992325 -0.16112322 -0.16704421 0.036856502 -0.15575312 0.010444704 0.06139071
-0.13261403 -0.03941377 0.23418143 0.23215301 0.090613365 0.0270852 -0.04999075 0.08546097
-0.09841284 -0.012384949 0.21028353 0.002348185 0.008948703 -0.14604726 0.14168434 -0.0002888044
0.06425827 -0.018455846 -0.10075319 0.070941195 -0.1306639 0.050799113 -0.17680995 -0.009129802
-0.23673502 0.09787015 -0.10511977 0.073345125 -0.06555162 0.16679867 -0.0073706154 0.028728953
0.059257586 0.08934645 0.060984045 -0.16722505 0.023786623 0.00931499 -0.09808779 -0.16065195
0.090179056 0.070323676 0.04451608 -0.049451467 -0.040014893 0.019384941 0.0050553977 0.013034405
-0.07700212 0.019348988 -0.08445517 -0.04764947 0.045037515 -0.12070505 0.09038935 0.07069921
-0.099667676 -0.06327608 -0.012758284 0.025390768 -0.16587973 0.19015835 -0.13424516 0.01978168
0.11327015 0.00456968 -0.16964948 0.055122737 0.03971713 0.035348944 -0.120040566 0.007042319
-0.123222895 -0.03917759 -0.15979674 -0.062475976 -0.052998133 0.043610096 -0.08983522 0.04612205
0.039103974 -0.007948817 -0.09426468 -0.03860177 -0.12731966 -0.05112201 0.11241144 0.052768327
-0.058900867 0.049088083 -0.019177973 -0.12935063 -0.13098487 0.028162295 -0.018581344 -0.0006206137
0.23718108 0.11984343 -0.07763498 0.10082021 0.016944068 0.023200246 0.009521022 -0.063449316
0.13453269 0.09339294 -0.15020557 -0.035159256 -0.0684316 -0.13249888 -0.12219583 0.08485153
0.044305954 0.05986945 0.15335263 -0.010691882 -0.16900185 0.0906217 0.11992697 -0.00926619
-0.13203962 -0.00105678 0.029222367 -0.0413924 0.060087554 0.13407148 0.07854597 0.079036325
0.07959231 0.04232299 -0.054354735 0.06302433 -0.042360436 0.054736514 0.17748259 -0.04042972
-0.047708843 0.008686346 0.104322046 -0.006616115 -0.06927909 0.13600999 0.058537133 -0.06495244
0.04557925 -0.0029545056 0.069683984 -0.07273462 0.091614865 0.15012845 -0.034754522 -0.020875784
-0.0020366297 -0.020081924 -0.047600813 0.055419896 -0.0002496834 -0.013933963 0.05211999 0.027012203
00000000: 6a31 0e3e 7db8 53bb 4630 5bbd bc74 fc3d
00000010: 2f01 373d 7a4c adbd c1fe c2bd b3c5 17bd
00000020: eec1 aa3d 7478 1bbd ca01 113e 6255 023e
00000030: 14c4 97bc 9833 a03a bf2f e13d 8222 203e
00000040: aa29 5b3b 499a 813c caa4 bebd 87a9 63be
00000050: 1ad3 593e 0cb9 443d 7104 d83c 673d 14be
00000060: 8c64 043d f86e 72bc e58f 55bc 2555 0cbc
00000070: 5af1 3d3d 1afe 4dbe b6fa aa3c ca21 913e
00000080: 3e48 d1bc 4c28 98bc 7754 993c b509 8abd
00000090: 0ad4 a4be 5919 15be 02a0 1b3d b738 febc
000000a0: eccf 5abd fd78 143c 2cfb 25be bdd2 ae3d
000000b0: 53e1 2c3d 7c48 d43c f632 7dbc a2b6 6fbe
000000c0: 9b07 23bd 16c1 c3bd ed7a 1dbd 24be 6c3d
000000d0: bf56 af3d 4655 de3d aa1a 333e dfda 37be
000000e0: 502d 61bd 7b91 7a3e b278 e43d 1019 aebc
000000f0: 5507 7abd 1dfc a13d dcb5 f4bc 1028 96bb
00000100: 8ad9 543e 7e1a 98bc 0fe7 f73c 00ab 853d
00000110: 3b00 2c3e dad1 3a3e 3d50 1e3c 42f9 8abd
00000120: 7055 90bd 36c7 a7bd e65d 813c 5082 313d
00000130: bc89 1ebd 643d f33c 8187 a2bd 4909 ea3d
00000140: fb1f ba3d 9e39 43bd bb3f 243d 5a66 23be
00000150: e12a c9bb 7243 ed3d 2690 08bd a37d 203d
00000160: f3ad eabd 7b85 193e 7cfd 24be a30d 2bbe
00000170: d8f6 163d bf7d 1fbe 4420 2b3c d374 7b3d
00000180: f9cb 07be 5570 21bd 42cd 6f3e 85b9 6d3e
00000190: 8093 b93d c8e1 dd3c 1ac3 4cbd 2906 af3d
000001a0: ac8c c9bd 3eea 4abc 9154 573e 02e4 193b
000001b0: 959d 123c 6a8d 15be b315 113e ac6a 97b9
000001c0: d799 833d b730 97bc b057 cebd 9e49 913d
000001d0: c2cc 05be bb12 503d ab0d 35be 2a95 15bc
000001e0: aa6a 72be 2570 c83d 0949 d7bd f835 963d
000001f0: ee3f 86bd 45cd 2a3e 3485 f1bb fb58 eb3c
00000200: 15b8 723d 46fb b63d 68ca 793d 0b3d 2bbe
00000210: 2adc c23c e69d 183c 40e2 c8bd f281 24be
00000220: ccaf b83d dc05 903d 7e56 363d 9f8d 4abd
00000230: a8e6 23bd 2bcd 9e3c c0a7 a53b 428e 553c
00000240: 4ab3 9dbd c581 9e3c d5f6 acbd 172c 43bd
00000250: 4279 383d 3634 f7bd 0d1e b93d bfca 903d
00000260: 911e ccbd e496 81bd 1f08 51bc 4d00 d03c
00000270: 60dc 29be dfb8 423e 9077 09be 310d a23c
00000280: 2efa e73d 41bd 953b 98b8 2dbe 61c8 613d
00000290: 6eae 223d 0eca 103d d4d7 f5bd 41c3 e63b
000002a0: 495c fcbd ae78 20bd c2a1 23be cfe6 7fbd
000002b0: 9214 59bd 80a0 323d 87fb b7bd 7aea 3c3d
000002c0: 7d2b 203d c13b 02bc d70d c1bd e41c 1ebd
000002d0: 1660 02be 5065 51bd f837 e63d 9a23 583d
000002e0: 0942 71bd 9610 493d 201b 9dbc 7e74 04be
000002f0: e620 06be 9db4 e63c e737 98bc aeb0 22ba
00000300: 99df 723e 7970 f53d 17ff 9ebd d47a ce3d
00000310: 49ce 8a3c 710e be3c 10fe 1b3c b7f1 81bd
00000320: f0c2 093e cc44 bf3d 7dcf 19be 2703 10bd
00000330: de25 8cbd c9ad 07be cf41 fabd a4c6 ad3d
00000340: 297a 353d ab39 753d 7908 1d3e 012d 2fbc
00000350: d20e 2dbe df97 b93d 459c f53d 38d1 17bc
00000360: 6535 07be a783 8aba bf63 ef3c 148b 29bd
00000370: 5e1e 763d 094a 093e b6dc a03d ccdd a13d
00000380: 4b01 a33d df5a 2d3d 12a3 5ebd e612 813d
00000390: 2382 2dbd 6533 603d ffbd 353e a299 25bd
000003a0: 596a 43bd 2d51 0e3c cca6 d53d ffcb d8bb
000003b0: 32e2 8dbd 3446 0b3e a2c4 6f3d c905 85bd
000003c0: 4fb1 3a3d 61a0 41bb 7ab6 8e3d e3f5 94bd
000003d0: 93a0 bb3d 46bb 193e c25a 0ebd b103 abbc
000003e0: fa78 05bb d982 a4bc 12f9 42bd f9ff 623d
000003f0: f0e7 82b9 474b 64bc c57b 553d b248 dd3c

network_body._body_endoder.seq_layers.2.bias f4 [128]
0.0384178 0.004654532 0.010315853 -0.009749816 0.007636354 0.005180202 0.0047735246 0.006317219
-0.005453671 0.016739868 0.004999749 -0.015038681 -0.0010857253 0.00857347 -0.00437166 0.037478726
0.0019983682 0.007166603 0.0015895936 -0.006106422 0.0029660063 -0.0038573742 -0.012967296 0.00041241996
0.039606612 0.014784111 0.00947981 -0.005355017 -0.009744696 0.004859769 -0.0076900604 -0.008901916
-0.0002454265 0.02343295 0.0143797705 -0.0075359186 0.041871976 -0.004938969 -0.007883099 -0.004340901
-0.0012074659 0.0030459953 0.00465928 0.00416998 -0.0020165083 0.027676681 0.00056579907 0.0010540695
-0.012804457 0.0061651156 -0.00021321452 -0.012781295 0.045092024 0.009549357 0.0017005656 -0.0070819966
-0.011545604 0.011223111 -0.01194705 0.01457336 0.004382923 0.0008276233 0.0006855895 0.04791435
0.008793001 0.007524804 0.0004555713 0.01548303 -0.002604922 -0.0018296944 0.035961214 -0.006765197
0.0036500911 -0.0018645979 -0.005883014 0.009792972 0.0027746963 0.022563534 -0.0023333323 -0.0034881292
-0.013506636 0.010472855 0.052496813 0.04569741 -0.0049546324 0.005205824 -0.009121727 0.008388822
-0.0065056584 -0.0012086106 0.0009778846 -0.009494018 0.008917685 -0.0021877827 -0.01249126 -0.0025015152
-0.0048766993 0.010569619 0.0007575087 0.0041606394 0.009727814 -0.009706046 -0.0150419185 -0.007834449
0.0023688665 0.011665363 -0.0009189126 0.039671402 0.009691022 -0.015771003 0.0017319625 -0.002696211
-0.008219634 0.012246059 -0.013728814 -0.0165295 -0.006391159 0.008216766 -0.0033887685 -0.012383601
0.033838842 7.970288e-06 0.042484157 0.048155963 0.0028714926 0.005734304 0.007132527 -0.008448084
00000000: fc5b 1d3d 0b85 983b d303 293c b1bd 1fbc
00000010: 613a fa3b afbe a93b 3a6b 9c3b ad00 cf3b
00000020: b5b4 b2bb 0c22 893c efd4 a33b cd64 76bc
00000030: e54e 8eba bd77 0c3c 2440 8fbb 4b83 193d
00000040: 0ef7 023b d3d5 ea3b e959 d03a 6118 c8bb
00000050: 5461 423b 00cc 7cbb c874 54bc 123a d839
00000060: 8b3a 223d 0e39 723c 3451 1b3c 2379 afbb
00000070: 38a8 1fbc b23e 9f3b e7fc fbbb 58d9 11bc
00000080: 96ac 80b9 75f6 bf3c 2199 6b3c deef f6bb
00000090: f381 2b3d 13d7 a1bb 1d28 01bc 1e3e 8ebb
000000a0: d543 9eba 529f 473b e0ac 983b 54a4 883b
000000b0: 6527 04bb 35ba e23c 2252 143a b428 8a3a
000000c0: c9c9 51bc bd04 ca3b 5692 5fb9 a368 51bc
000000d0: 6ab2 383d e874 1c3c 83e5 de3a 1810 e8bb
000000e0: c629 3dbc 24e1 373c 8fbd 43bc 1ac5 6e3c
000000f0: 9f9e 8f3b dcf4 583a 22b9 333a d641 443d
00000100: 8510 103c a292 f63b bfd9 ee39 89ac 7d3c
00000110: 57b7 2abb 5bd2 efba 114c 133d 96ae ddbb
00000120: 5e36 6f3b 8665 f4ba 4cc6 c0bb b472 203c
00000130: aed7 353b 29d7 b83c d2ea 18bb 1999 64bb
00000140: f04a 5dbc 5696 2b3c e606 573d 352d 3b3d
00000150: 785a a2bb 9e95 aa3b 4c73 15bc 4571 093c
00000160: 6b2d d5bb 3e6a 9eba 5d2c 803a cc8c 1bbc
00000170: 7b1b 123c e760 0fbb 24a8 4cbc 76f0 23bb
00000180: b8cc 9fbb 322c 2d3c 8c93 463a f955 883b
00000190: 6961 1f3c 1c06 1fbc 6172 76bc 105c 00bc
000001a0: fc3e 1b3b 1420 3f3c 2ee3 70ba 7b7e 223d
000001b0: 18c7 1e3c 3132 81bc 0503 e33a eab2 30bb
000001c0: a5ab 06bc b2a3 483c d2ee 60bc e068 87bc
000001d0: ed6c d1bb 9d9f 063c 1a16 5ebb 96e4 4abc
000001e0: 999a 0a3d 20b8 0537 de03 2e3d 303f 453d
000001f0: a72f 3c3b d4e6 bb3b f9b7 e93b d569 0abc

action_model._continuous_distribution.log_sigma f4 [1, 2]
-0.042568702 0.011053971
00000000: 855c 2ebd b71b 353c

action_model._continuous_distribution.mu.weight f4 [2, 128]
0.0096115805 -0.023499487 -0.009472402 -0.011792362 -0.023088202 0.040188737 0.026884556 0.032135043
0.0027784777 -0.022364818 0.021379638 -0.007546073 -0.0027194384 -0.017730424 0.006517908 0.0028972807
-0.029803282 0.02475537 0.009018529 -0.02305053 -0.015276215 0.014397237 -0.0072636637 -0.03477138
0.009780736 0.00078225427 0.020864299 -0.008054042 -0.024634387 -0.03536047 -0.0043821223 -0.0067030513
-6.9145262e-06 0.031189363 0.0049877204 -0.007204 -0.009249345 -0.03542254 0.008263324 -0.019380314
0.01243444 -0.0057591656 0.029648973 -0.020039806 0.0033702056 -0.002401108 -0.01986397 0.019361407
0.013103154 -0.037729222 0.011361294 -0.005714853 -0.007672795 0.01809072 0.005391278 -0.031809267
-0.015953716 -0.030876432 -0.006584732 -0.009637993 0.021959692 -0.0035820594 0.0056976317 0.008211327
0.024106616 0.0066536064 0.022361021 -0.03203116 -0.0319413 0.013632412 -0.001274783 0.014579038
-0.0003883081 0.022438701 -0.01737701 0.06269444 0.024576742 -0.028307367 -0.012561574 0.01156876
-0.023728542 0.015038301 0.008359577 0.0011553547 -0.0022089805 0.034087047 -0.009058227 0.05254531
-0.021680666 -0.009340825 0.029898629 -0.024677549 0.007816252 0.014512892 -0.006757091 0.003155965
-0.050284833 0.042028192 0.020869723 -0.027942251 0.005441643 0.00095489103 -0.017167993 0.014020267
-0.002378865 -0.026838632 0.015250829 -0.030059163 0.04403612 -0.01970785 0.034677383 0.010341195
0.0024778487 0.009867653 -0.011546742 -0.007633668 0.012062586 0.04236191 -0.06464588 0.00089416315
0.010534637 0.0062837433 0.008092749 0.012527127 0.018989412 0.04050452 0.040347327 -0.0065210573
0.028355863 0.009672603 0.019037453 -0.062352207 -0.0014576619 -0.015863337 -0.0063381596 0.03011496
-0.00022596883 -0.003874294 -0.0308908 -0.0064495034 -0.020640008 -0.0149676325 0.0015279293 0.05570995
-0.0037486844 0.018909896 0.023353718 -0.03599685 -0.049666043 -0.014157779 -0.039817866 -0.0008419401
0.06774242 -0.04801725 0.010867063 -0.002162755 -0.00268567 -0.06827218 0.01076295 -0.028039962
-0.008035284 0.019292925 -0.031897824 -0.025896138 0.03993824 -0.020713909 -0.010388721 -0.0027759704
-0.016927132 -0.037667386 -0.0034534778 0.018218398 0.006331952 0.059547592 0.009233622 -0.030182792
-0.018508779 -0.002839939 -0.03991371 -0.016999226 0.03447373 -0.005137343 -0.055343017 0.001673057
-0.01177408 -0.019760892 -0.014395289 0.023361992 -0.0034655964 0.022257809 -0.027227916 0.06913167
0.019719746 -0.026074063 -0.0021794052 -0.019279422 0.0012878783 -0.012168998 0.031056134 -0.04305771
0.019116499 -0.024126032 -0.027624574 -0.0053833653 -0.021146288 0.012090447 0.02092955 -0.008455817
-0.014312446 0.024952551 0.02983437 0.028320787 -0.015018128 -0.0053815567 0.0042973273 -0.004285562
0.00015664681 -0.027976703 -0.019522753 -0.0061229574 -0.020732233 -0.00036516073 -0.024924783 0.0062103034
-0.016699638 0.014599808 -0.012148396 -0.007866552 0.020840265 0.006360791 -0.047135033 -0.019243017
-0.04042606 0.010332571 -0.0062787044 0.006069115 0.0074432255 -0.017085006 -0.02289868 -0.005834544
-0.006237926 0.022188203 -0.01408409 -0.0051169447 -0.016681477 -0.034692 -0.030694155 -0.004085176
0.034788202 -0.023771126 0.024360878 0.04724263 0.00976642 -0.00021876348 -0.005400749 0.007459618
00000000: e479 1d3c ff81 c0bc 2232 1bbc c034 41bc
00000010: 7823 bdbc f29c 243d 003d dc3c 09a0 033d
00000020: 1f17 363b 6c36 b7bc 5a24 af3c 0c45 f7bb
00000030: 9b38 32bb 653f 91bc 2d94 d53b 4ee0 3d3b
00000040: 0326 f4bc c6cb ca3c 74c2 133c 77d4 bcbc
00000050: 1749 7abc 64e2 6b3c 0704 eebb 6f6c 0ebd
00000060: 613f 203c 3210 4d3a 9beb aa3c 1af5 03bc
00000070: 0ece c9bc 24d6 10bd e897 8fbb 45a5 dbbb
00000080: 5403 e8b6 d680 ff3c 0870 a33b 880f ecbb
00000090: 918a 17bc 3a17 11bd e562 073c 77c3 9ebc
000000a0: d2b9 4b3c 62b7 bcbb 67e2 f23c 852a a4bc
000000b0: abde 5c3b e85b 1dbb c4b9 a2bc d09b 9e3c
000000c0: 9cae 563c f589 1abd b924 3a3c a943 bbbb
000000d0: 126c fbbb fd32 943c 51a9 b03b 6f4a 02bd
000000e0: 5eb1 82bc 92f0 fcbc bcc4 d7bb ace8 1dbc
000000f0: d0e4 b33c fcc0 6abb 33b3 ba3b cd88 063c
00000100: 3d7b c53c 7f06 da3b 762e b73c 1b33 03bd
00000110: e1d4 02bd 7b5a 5f3c 9f16 a7ba ebdc 6e3c
00000120: d595 cbb9 5ed1 b73c 3b5a 8ebc f165 803d
00000130: 2a55 c93c dae4 e7bc 0fcf 4dbc e58a 3d3c
00000140: 5c62 c2bc 3563 763c 9bf6 083c 456f 973a
00000150: 8bc4 10bb dc9e 0b3d f568 14bc c039 573d
00000160: a79b b1bc 420a 19bc f8ed f43c 9228 cabc
00000170: bd0f 003c 7bc7 6d3c 966a ddbb 4ed4 4e3b
00000180: 78f7 4dbd c125 2c3d fbf6 aa3c 26e7 e4bc
00000190: cf4f b23b a751 7a3a e4a3 8cbc 43b5 653c
000001a0: bbe6 1bbb b1dc dbbc 9dde 793c a23e f6bc
000001b0: 385f 343d 5b72 a1bc df09 0e3d 1e6e 293c
000001c0: 6763 223b f0ab 213c 8c2e 3dbc d923 fabb
000001d0: 27a2 453c af83 2d3d 0f65 84bd 4666 6a3a
000001e0: 7899 2c3c dce7 cd3b 7397 043c 943e 4d3c
000001f0: af8f 9b3c 11e8 253d 3d43 253d 98ae d5bb
00000200: 8e4a e83c d679 1e3c 6ff4 9b3c 0765 7fbd
00000210: 040f bfba d4f3 81bc 56b0 cfbb a6b3 f63c
00000220: 0cf2 6cb9 dee7 7dbb b40e fdbc 5b56 d3bb
00000230: 3c15 a9bc cd3a 75bc cd44 c83a 1e30 643d
00000240: 7dac 75bb ede8 9a3c 4c50 bf3c 6f71 13bd
00000250: 9f6e 4bbd 07f6 67bc 0f18 23bd a5b5 5cba
00000260: 8abc 8a3d bcad 44bd c40b 323c 02bd 0dbb
00000270: 1102 30bb 49d2 8bbd 1657 303c 10b4 e5bc
00000280: 6ca6 03bc 320c 9e3c 4ba7 02bd 2324 d4bc
00000290: 4896 233d 37b0 a9bc 7435 2abc 0eed 35bb
000002a0: c5aa 8abc 1e49 1abd be53 62bb c03e 953c
000002b0: 437c cf3b 2de8 733d 9e48 173c e741 f7bc
000002c0: b99f 97bc 451e 3abb 8f7c 23bd f641 8bbc
000002d0: 5334 0d3d 2857 a8bb 5caf 62bd 7a4a db3a
000002e0: 12e8 40bc 98e1 a1bc 38da 6bbc a661 bf3c
000002f0: 0f1f 63bb 0256 b63c 140d dfbc e894 8d3d
00000300: 4e8b a13c 4699 d5bc 5ad4 0ebb e1ef 9dbc
00000310: 06ce a83a 7a60 47bc 6f69 fe3c 485d 30bd
00000320: 349a 9c3c f5a3 c5bc ee4c e2bc f166 b0bb
00000330: fb3a adbc 0317 463c 7374 ab3c 448a 0abc
00000340: c07e 6abc 4b69 cc3c 3567 f43c ff00 e83c
00000350: 980e 76bc c557 b0bb 98d0 8c3b e66d 8cbb
00000360: 8f41 2439 662f e5bc 2eee 9fbc 17a3 c8bb
00000370: a5d6 a9bc 0b73 bfb9 0f2f ccbc cd7f cb3b
00000380: aecd 88bc 0834 6f3c 110a 47bc b6e2 00bc
00000390: 34b9 aa3c 2f6e d03b aa10 41bd 88a3 9dbc
000003a0: cc95 25bd f249 293c 97bd cdbb 6ddf c63b
000003b0: 4de6 f33b dbf5 8bbc 0396 bbbc b42f bfbb
000003c0: 8467 ccbb 09c4 b53c f4c0 66bc 0bac a7bb
000003d0: 98a7 88bc 3319 0ebd 4f72 fbbc f1dc 85bb
000003e0: 137e 0e3d aabb c2bc 7790 c73c 7d81 413d
000003f0: 5603 203c e063 65b9 c4f8 b0bb d06f f43b

action_model._continuous_distribution.mu.bias f4 [2]
0.009688072 0.0090696085
00000000: b8ba 1e3c b298 143c

exp_avg f4 [128, 7]
-0.0022971453 2.2805543e-06 -0.0012800506 -0.0005947398 -5.424922e-06 -0.001376319 -0.010518731 -0.0002480323
9.791512e-06 -5.184912e-05 -0.00025990998 3.4978168e-06 -0.00013839481 0.00015183624 -4.0832747e-05 5.276326e-06
-5.5836495e-05 -0.00010503615 1.9810316e-06 -3.045328e-05 0.0011109494 -0.00020342715 6.788486e-06 -0.00018164185
-9.900737e-05 8.4518515e-06 -7.865519e-05 -0.0006514282 0.00013790073 1.5345024e-06 -9.949104e-05 -0.00012698314
3.683657e-06 0.00012418121 -0.0024740207 0.00031286315 1.774109e-06 0.00014287808 -0.00032663654 -1.8681163e-05
-0.00024724661 0.0031029072 3.084355e-05 1.4479386e-06 -4.8105056e-05 -0.00013490274 1.6510356e-06 5.372511e-05
-0.0004455916 0.0014264131 -1.5129996e-05 0.00086588255 0.0008732705 4.6865025e-06 0.0013622851 0.020710567
-0.00020574155 9.806642e-06 -8.529886e-05 -0.0002593339 -8.127191e-08 -0.0002008475 0.00014865142 6.9616153e-06
2.537056e-06 -3.59129e-05 -1.8828017e-05 2.312224e-06 4.6050212e-05 0.00036494367 0.00065326324 -3.4649634e-06
-5.3117023e-05 -0.00041641362 4.799649e-06 -0.00013317769 -0.006574371 0.00077882654 -9.463662e-06 0.00038772792
0.00047186494 8.129067e-06 0.0009256842 0.010428862 -0.0018141193 1.3767464e-05 -0.0009051839 -0.0008076194
-8.903537e-06 -0.0015405521 -0.021415193 -0.0027136554 2.2059983e-05 -0.0010452643 -0.0012883149 -3.561329e-05
-0.002833077 -0.033402286 -0.00034816616 -3.5969113e-06 -0.00027529144 -0.00019138686 -7.967012e-06 -0.00034728076
-0.0015258696 0.0020390158 -1.9878236e-05 0.00086561474 0.001225278 3.162769e-05 0.002408675 0.03159561
0.00034806685 -9.2928385e-06 0.00041188204 0.00030261642 4.582665e-06 0.00070813904 0.013863479 -0.0006257843
-8.985877e-06 -4.7466532e-05 -1.1634664e-05 -1.2179097e-05 -0.0001390043 0.0069238124 -0.0017748615 5.7404704e-06
-0.0008308883 -0.0005858759 -1.0983442e-05 -0.0014201814 -0.018904274 -0.00029658794 9.304156e-06 -0.000103817634
-0.00030593877 6.947637e-06 -0.00010751405 -0.0005141493 -0.0008944712 4.0123473e-06 -0.00065853336 -0.00046823747
-4.659315e-06 -0.0008361446 -0.005982824 0.0022864963 -2.396875e-05 0.0009334769 0.0015489102 3.8950813e-05
0.0028518767 0.042119227 -0.00010312761 -1.627621e-05 -0.00010024723 0.0005552399 1.18927555e-05 0.0005179918
0.007339684 0.0004085002 -1.5740309e-06 0.00021980997 -0.00019697039 -1.3269165e-05 -9.397708e-06 -0.00060259365
-0.0005817614 2.2360707e-06 -0.0003563003 -0.00023156148 -2.76432e-06 -0.0003659885 -0.0047604097 -0.0013457027
-2.1729206e-06 -0.0005438685 -0.0005165927 -2.7680455e-05 -0.0012642692 -0.0126283 0.00034286032 -7.867142e-06
-4.6447574e-05 5.8454123e-05 -8.886516e-07 2.4752311e-05 -0.0017615892 0.00029866598 -1.2731408e-05 9.7439624e-05
0.00019618931 5.5802034e-06 0.00068899326 0.009596018 -0.0027543197 3.436198e-05 -0.0014277068 -0.0018128931
-3.325116e-05 -0.003643821 -0.046027258 -0.0002846339 8.6097225e-06 -9.0929125e-06 -0.00021791662 7.104765e-06
-9.9918776e-05 -0.0012004552 -0.00230735 6.0246025e-06 -0.0011286883 -0.00090545585 -1.29928585e-05 -0.0013685245
-0.010510057 0.0020029966 -2.9961957e-05 0.0010714744 0.0013709898 2.3321518e-05 0.002164179 0.028306784
-7.199183e-05 5.0325716e-06 -1.9803927e-05 -0.00022498619 1.0826074e-06 -8.270069e-05 8.636545e-05 0.0011009419
-1.3693268e-05 0.00048088576 0.0005186982 1.1722294e-06 0.00084548065 0.015687007 -0.0005213462 1.7021934e-05
-0.00019643815 -0.0006623205 -4.8488887e-06 -0.00039308306 0.0009986681 -5.2016352e-05 2.0608456e-06 -0.00010040421
-3.3928976e-05 4.353529e-06 -1.5850834e-05 -0.0001916599 -0.00020683797 7.596223e-06 -6.242822e-05 -8.863902e-05
00000000: b48b 16bb a00b 1936 5fc7 a7ba 50e8 1bba
00000010: ba07 b6b6 9a65 b4ba c156 2cbc 550a 82b9
00000020: 3946 2437 9278 59b8 8744 88b9 09bc 6a36
00000030: 131e 11b9 3b36 1f39 d443 2bb8 4c0b b136
00000040: fb31 6ab8 db46 dcb8 ddf1 0436 ec75 ffb7
00000050: 479d 913a 0f4f 55b9 a7c8 e336 1d77 3eb9
00000060: 2da2 cfb8 6dcc 0d37 aff3 a4b8 9bc4 2aba
00000070: 7299 1039 1af5 cd35 d8a5 d0b8 c726 05b9
00000080: bf34 7736 a436 0239 2e23 22bb c807 a439
00000090: ec1d ee35 8bd1 1539 6a40 abb9 7eb5 9cb7
000000a0: e1a0 81b9 255a 4b3b 025e 0138 cb56 c235
000000b0: 69c4 49b8 ae74 0db9 2799 dd35 e656 6138
000000c0: 4b9e e9b9 7bf6 ba3a d7d6 7db7 65fc 623a
000000d0: 31ec 643a c040 9d36 b48e b23a 35a9 a93c
000000e0: 54bc 57b9 3587 2437 7ae2 b2b8 35f7 87b9
000000f0: b487 aeb3 979a 52b9 50df 1b39 d297 e936
00000100: 4a42 2a36 2fa1 16b8 dcf0 9db7 b52b 1b36
00000110: 0a26 4138 e955 bf39 c13f 2b3a 9e87 68b6
00000120: f8c9 5eb8 1752 dab9 ac0c a136 9da5 0bb9
00000130: d26d d7bb 2a2a 4c3a 1ec6 1eb7 f647 cb39
00000140: a464 f739 1462 0837 9da9 723a d1dd 2a3c
00000150: bec7 edba cffa 6637 dd49 6dba 6cb6 53ba
00000160: 6660 15b7 5aec c9ba ea6e afbc 95d7 31bb
00000170: 740d b937 4001 89ba addc a8ba 7b5f 15b8
00000180: 25ab 39bb d6d0 08bd 128a b6b9 7762 71b6
00000190: fe54 90b9 05af 48b9 0eaa 05b7 3c13 b6b9
000001a0: b0ff c7ba 02a1 053b 30c0 a6b7 6cea 623a
000001b0: 8299 a03a f9a7 0438 dcda 1d3b 666a 013d
000001c0: be7c b639 70e8 1bb7 dff1 d739 7da8 9e39
000001d0: cbc4 9936 68a2 393a a523 633c ac0b 24ba
000001e0: 0cc2 16b7 cd16 47b8 8032 43b7 d354 4cb7
000001f0: afc1 11b9 26e1 e23b 78a2 e8ba 449e c036
00000200: f8cf 59ba 7795 19ba 8645 38b7 6125 baba
00000210: 23dd 9abc 5c7f 9bb9 0c19 1c37 abb8 d9b8
00000220: 6866 a0b9 bf1f e936 2b79 e1b8 fac7 06ba
00000230: f27a 6aba cda1 8636 6da1 2cba c57d f5b9
00000240: 3657 9cb6 b730 5bba 910b c4bb 0bd9 153b
00000250: 8010 c9b7 93b4 743a cd04 cb3a 1e5f 2338
00000260: 8de6 3a3b 3685 2c3d 3746 d8b8 e588 88b7
00000270: d23b d2b8 858d 113a ff86 4737 d7c9 073a
00000280: bb81 f03b f82b d639 4a43 d3b5 ca7c 6639
00000290: d689 4eb9 a19e 5eb7 d9aa 1db7 60f7 1dba
000002a0: 5981 18ba 670f 1636 d1cd bab9 50cf 72b9
000002b0: a882 39b6 25e2 bfb9 36fd 9bbb 4a62 b0ba
000002c0: 7ed2 11b6 6692 0eba f36b 07ba 5333 e8b7
000002d0: d6b5 a5ba eee6 4ebc efc1 b339 1efd 03b7
000002e0: b4d0 42b8 a32c 7538 ac8b 6eb5 2fa3 cf37
000002f0: 20e5 e6ba 4596 9c39 fb98 55b7 8058 cc38
00000300: 2bb8 4d39 953d bb36 8e9d 343a 9e38 1d3c
00000310: d181 34bb e51f 1038 e421 bbba 999e edba
00000320: 2977 0bb8 2ccd 6ebb 1487 3cbd ea3a 95b9
00000330: 7a72 1037 c38d 18b7 8c80 64b9 7765 ee36
00000340: 7c8b d1b8 9858 9dba e936 17bb f126 ca36
00000350: 7ff0 93ba 1d5c 6dba e7fb 59b7 1060 b3ba
00000360: 6032 2cbc b544 033b d056 fbb7 b770 8c3a
00000370: c9b2 b33a 94a2 c337 e6d4 0d3b a1e3 e73c
00000380: 52fa 96b8 76dd a836 9c20 a6b7 45ea 6bb9
00000390: 1b4e 9135 986f adb8 191f b538 7b4d 903a
000003a0: 23bc 65b7 651f fc39 3ff9 073a 7f55 9d35
000003b0: 3fa3 5d3a 0a82 803c f4aa 08ba 53ca 8e37
000003c0: f7fa 4db9 949f 2dba a3b3 a2b6 b716 ceb9
000003d0: bee5 823a 222c 5ab8 0f4d 0a36 1a90 d2b8
000003e0: f64e 0eb8 8814 9236 68f7 84b7 50f8 48b9
000003f0: a5e2 58b9 0fe3 fe36 e5eb 82b8 b6e3 b9b8

exp_avg_sq f4 [128, 7]
2.2041957e-05 3.729456e-09 2.236812e-05 2.2277449e-05 1.6564494e-08 2.1962218e-05 0.002495922 4.3307164e-08
3.5647044e-11 3.20984e-08 4.4789118e-08 2.9378548e-11 3.9165084e-08 1.393332e-06 5.1550355e-08 2.9563223e-11
5.6373555e-08 6.645936e-08 5.7129308e-11 4.934615e-08 4.437669e-06 8.775518e-08 8.778251e-11 6.901492e-08
9.0008164e-08 5.059289e-11 6.271625e-08 1.8555978e-06 6.1284004e-07 3.772468e-10 5.532227e-07 5.6518445e-07
3.5033007e-10 5.779883e-07 2.1504993e-05 2.903415e-07 1.3644108e-10 2.3100174e-07 3.2400857e-07 3.448856e-10
2.128222e-07 1.1846238e-05 1.4370526e-07 1.1349485e-10 1.0737274e-07 1.4696684e-07 3.6098336e-11 1.2494995e-07
2.69684e-06 1.1856845e-06 2.4048893e-10 1.2577477e-06 1.1649047e-06 1.2117551e-09 1.2595015e-06 0.00018950904
4.0647997e-08 3.504759e-11 3.389229e-08 4.408006e-08 3.2405842e-11 3.3889556e-08 1.6731404e-06 6.960739e-08
4.7956007e-11 4.8852865e-08 7.843689e-08 2.337076e-11 5.0466067e-08 1.6918654e-06 6.552903e-07 3.6770098e-10
3.8576528e-07 5.2272674e-07 2.5436114e-10 4.7554425e-07 2.4568402e-05 1.4368109e-06 2.9772182e-10 1.3946697e-06
1.4667426e-06 1.2751232e-09 1.3913526e-06 0.00016616854 1.6141214e-06 2.5612318e-10 1.3810395e-06 1.3752039e-06
2.108581e-09 1.7892215e-06 0.0002623366 7.376239e-06 1.2734152e-09 6.0729003e-06 6.2867734e-06 8.10292e-09
7.850346e-06 0.0010051808 1.7506562e-06 3.4378075e-10 1.6640868e-06 1.7253479e-06 1.4167051e-09 1.6600889e-06
0.00016651438 4.727704e-06 1.0230284e-09 3.9635092e-06 4.185136e-06 5.762756e-09 4.6813716e-06 0.0005852367
3.208379e-06 3.6693157e-10 3.4040522e-06 3.1615532e-06 2.843398e-09 3.1259856e-06 0.00041786535 6.644695e-06
1.0230079e-09 6.9518387e-06 6.8538175e-06 5.1828195e-09 6.2727268e-06 0.00076166296 4.25299e-06 6.7105443e-10
4.0255063e-06 4.2237534e-06 4.7899595e-09 3.980448e-06 0.00047993867 6.4018195e-08 3.1523183e-11 5.8132933e-08
6.984123e-08 4.9558517e-11 5.5718736e-08 3.3058377e-06 4.1210783e-06 8.4276097e-10 4.2205183e-06 4.115301e-06
3.7360524e-09 4.064456e-06 0.000450549 9.74939e-06 1.2850218e-09 8.317509e-06 8.1781745e-06 1.2512809e-08
9.870173e-06 0.0014144833 4.705726e-06 8.6774044e-10 4.8643738e-06 4.570478e-06 4.7253965e-09 4.3758328e-06
0.00047695922 3.8395092e-07 1.8112542e-10 2.692267e-07 4.1234446e-07 1.7795068e-10 3.098219e-07 1.7962604e-05
2.5596314e-06 3.3939768e-10 2.5419765e-06 2.6637822e-06 1.8901962e-09 2.3277844e-06 0.00030404088 6.5949785e-06
1.3805772e-09 6.674639e-06 6.8980617e-06 6.3558168e-09 6.555002e-06 0.0006692813 2.1439499e-07 9.0718e-11
1.5399378e-07 1.74385e-07 1.2795615e-10 2.0379947e-07 8.341679e-06 4.859987e-06 7.0270423e-10 4.902485e-06
4.6154955e-06 3.966522e-09 4.4044946e-06 0.0005982045 5.434531e-06 7.476852e-10 4.075273e-06 3.9726833e-06
3.6106327e-09 5.439797e-06 0.0010233403 1.0600804e-07 1.0432079e-10 8.9397496e-08 1.12717714e-07 8.1926174e-11
9.718447e-08 3.2656424e-06 1.3910489e-05 2.6366467e-09 1.3693188e-05 1.4152347e-05 1.0408494e-08 1.346248e-05
0.0014236136 3.394265e-06 9.314259e-10 3.17884e-06 3.6241145e-06 5.821169e-09 3.4485652e-06 0.00046852545
4.8391342e-08 4.1039217e-11 4.9790266e-08 5.1190796e-08 2.5556635e-11 4.6060457e-08 1.2017827e-06 1.0045408e-06
2.2604711e-10 9.377397e-07 1.0366293e-06 1.420001e-09 9.557183e-07 0.00013706752 3.1570923e-07 2.1821217e-10
2.0410374e-07 3.1696968e-07 2.4805275e-10 2.4436065e-07 6.6662083e-06 1.2101234e-08 6.0202047e-12 1.0216464e-08
1.258725e-08 8.862024e-12 1.0441447e-08 3.779695e-07 5.327754e-08 7.4048184e-11 5.2811345e-08 5.312403e-08
00000000: bee6 b837 a424 8031 2ca3 bb37 75e0 ba37
00000010: b549 8e32 813b b837 9f92 233b bb00 3a33
00000020: 01c7 1c2e 90dc 0933 285e 4033 4e35 012e
00000030: 7736 2833 8602 bb35 3768 5d33 3b05 022e
00000040: 611f 7233 6bb8 8e33 e241 7b2e aaf0 5333
00000050: 49e7 9436 ec73 bc33 2909 c12e 5a35 9433
00000060: 834a c133 8882 5e2e a0ae 8633 db0d f935
00000070: 0c82 2435 c464 cf2f 2d81 1435 2eb7 1735
00000080: 9398 c02f 0e27 1b35 9f65 b437 3be0 9b34
00000090: c004 162f 4609 7834 66f3 ad34 559a bd2f
000000a0: 1f84 6434 34bf 4637 674d 1a34 ec93 f92e
000000b0: ca94 e633 f0cd 1d34 1dc3 1e2e fb29 0634
000000c0: 5cfb 3436 cf23 9f35 cf35 842f e2cf a835
000000d0: d259 9c35 d88a a630 240c a935 f2b6 4639
000000e0: f294 2e33 1424 1a2e f890 1133 8a52 3d33
000000f0: bc85 0e2e f68d 1133 ab90 e035 117b 9533
00000100: aae9 522e 4bd2 5133 2371 a833 4692 cd2d
00000110: 07c0 5833 0d14 e335 35e7 2f35 5025 ca2f
00000120: 2d1b cf34 8251 0c35 26d6 8b2f 4e4e ff34
00000130: 3e18 ce37 72d8 c035 9fac a32f 7c30 bb35
00000140: e4dc c435 6940 af30 83be ba35 873d 2e39
00000150: caa4 d835 22ce 8c2f 285c b935 a593 b835
00000160: 8de6 1031 2f25 f035 398a 8939 6981 f736
00000170: 5004 af30 d1c5 cb36 f9f2 d236 0535 0b32
00000180: fbb4 0337 45c0 833a 17f8 ea35 d7fe bc2f
00000190: 9659 df35 8192 e735 e1b5 c230 38d0 de35
000001a0: 5d9a 2e39 aba2 9e36 9d9a 8c30 49fe 8436
000001b0: 0b6e 8c36 bd01 c631 ad14 9d36 926a 193a
000001c0: 884f 5736 07b9 c92f 2c71 6436 122b 5436
000001d0: 9665 4331 06c8 5136 f014 db39 7ff5 de36
000001e0: e499 8c30 d743 e936 d8f9 e536 9014 b231
000001f0: 507a d236 56aa 473a e8b4 8e36 4275 3830
00000200: d612 8736 c4b9 8d36 ee94 a431 ca8f 8536
00000210: 47a0 fb39 607a 8933 f3a3 0a2e d6ad 7933
00000220: 9ffb 9533 eef5 592e 664f 6f33 dcd9 5d36
00000230: cb47 8a36 08a8 6730 fa9d 8d36 2b16 8a36
00000240: aa5e 8031 6961 8836 aa37 ec39 5091 2337
00000250: af9c b030 6e8b 0b37 fe34 0937 eaf7 5632
00000260: 1298 2537 2f66 b93a e1e5 9d36 ce85 6e30
00000270: a738 a336 1b5c 9936 075d a231 1ed4 9236
00000280: 6210 fa39 d021 ce34 4626 472f 3c8a 9034
00000290: 3160 dd34 aaa8 432f 9955 a634 66ae 9637
000002a0: 22c6 2b36 fa95 ba2f d396 2a36 6ec3 3236
000002b0: afe4 0131 0837 1c36 ad67 9f39 6f4a dd36
000002c0: bebe bd30 b6f6 df36 e675 e736 5b62 da31
000002d0: 0af3 db36 b572 2f3a 7234 6634 b27d c72e
000002e0: 7d59 2534 953e 3b34 74b0 0c2f f9d3 5a34
000002f0: 3df3 0b37 f812 a336 6a28 4130 0780 a436
00000300: cede 9a36 e649 8831 52ca 9336 d3d0 1c3a
00000310: 445a b636 ab85 4d30 54be 8836 174d 8536
00000320: ec1e 7831 8087 b636 9a21 863a 89a6 e333
00000330: 6267 e52e cbfa bf33 380f f233 5628 b42e
00000340: bab3 d033 4f27 5b36 1861 6937 6130 3531
00000350: cbbb 6537 de6f 6d37 0ad1 3232 e9dc 6137
00000360: 8c98 ba3a 07c9 6336 a303 8030 0e54 5536
00000370: d035 7336 8b03 c831 e66d 6736 6ca4 f539
00000380: d8d6 4f33 0d7e 342e fad8 5533 e0dc 5b33
00000390: 6dcc e02d 02d4 4533 f04c a135 c2d3 8635
000003a0: 9b8a 782f fbb8 7b35 5022 8b35 d829 c330
000003b0: 3b46 8035 c8b9 0f39 bf7e a934 44ed 6f2f
000003c0: 9c27 5b34 fb2b aa34 525e 882f ac30 8334
000003d0: 4bae df36 cae5 4f32 2fd1 d32c 7c84 2f32
000003e0: 503f 5832 02e7 1b2d f861 3332 bceb ca34
000003f0: 46d3 6433 6cd5 a22e b0d2 6233 7d2a 6433

exp_avg f4 [128]
-0.0003773685 -0.00034391804 -9.474078e-05 -0.00030868375 -0.00031254932 0.0002502794 -0.00011490251 0.0015553181
-0.00033954892 -7.990982e-05 -0.00052774634 0.00082884403 -0.0015795582 -0.0021842406 0.00010672914 0.0022421007
0.0011354325 0.0009029743 -0.0010375036 -0.00037471286 -0.00029546043 0.0030771147 0.0010114817 -6.973904e-05
-0.00033449286 -0.00035854857 0.00012615013 0.0010151367 -0.0035091317 -0.00046999563 -0.0004688736 0.002304584
-0.00013554194 0.0012781617 -0.0005639759 -9.1987065e-05 -0.0003476138 -0.00011264404 0.00035978865 -0.0006688651
-0.0006072176 -1.6247513e-05 -0.00034215234 0.0015023979 0.0022465205 0.00011786852 0.0009645325 -0.00090530806
-0.0025800979 -0.0003753891 -0.00036606667 0.0011471834 -0.00016854647 0.0011208908 5.4517808e-05 -0.0012652819
2.9770423e-05 0.0023520342 -0.0001133734 -0.0003185994 0.0016777916 -0.0019593756 -0.0010048469 -0.0019593507
0.0014516767 3.5211135e-05 -0.00028242046 -0.0008255901 -8.1944845e-06 0.0034397875 2.2929724e-05 0.00041291563
-0.00013538815 -0.00214853 -9.9784964e-05 -0.0013005318 -0.00035555995 -0.00035679148 -0.0014692578 0.0022503138
0.0003612603 -0.0017780146 -0.0006482939 -0.00010199384 -0.00024290556 -0.00022053283 -4.0833136e-05 0.0008661421
-8.43517e-05 0.003571952 0.0015244801 0.0018716023 -0.0003105143 0.00035913405 -0.00029176637 -0.00018190223
-0.0012195422 -0.00029190962 -0.0033524663 -0.0001471555 -6.584302e-05 0.00014778847 -0.001962414 0.0012966136
-0.0013327633 -0.0016952981 0.0011940254 0.00013199305 3.890497e-05 -0.0002254839 -0.00024683034 -0.003347168
0.0025253221 7.041444e-05 -0.001531719 -0.0002377469 -0.00022258681 0.0009846152 -0.0023740332 -0.0013171381
-8.204151e-05 0.003197994 -0.0010787579 -8.948186e-05 -0.00011308661 0.002414794 -0.00014815283 0.0004802403
00000000: 8bd9 c5b9 e64f b4b9 92af c6b8 d5d6 a1b9
00000010: a9dd a3b9 ef37 8339 d1f7 f0b8 d1db cb3a
00000020: 7c05 b2b9 4295 a7b8 7558 0aba c846 593a
00000030: 2e09 cfba 7a25 0fbb c5d3 df38 35f0 123b
00000040: cbd2 943a 94b5 6c3a d8fc 87ba 1c75 c4b9
00000050: 07e8 9ab9 6ba9 493b b293 843a dd40 92b8
00000060: df5e afb9 93fb bbb9 2b47 0439 560e 853a
00000070: 76f9 65bb bf69 f6b9 26d3 f5b9 8108 173b
00000080: 4320 0eb9 fd87 a73a c8d7 13ba 2ee9 c0b8
00000090: ef3f b6b9 4f3b ecb8 04a2 bc39 c756 2fba
000000a0: af2d 1fba 454b 88b7 e962 b3b9 1cec c43a
000000b0: 5c3a 133b 2e30 f738 aed8 7c3a 3252 6dba
000000c0: dc16 29bb dfcf c4b9 a3ec bfb9 165d 963a
000000d0: d9bb 30b9 dbea 923a 0daa 6438 d1d7 a5ba
000000e0: 7fbb f937 9624 1a3b e1c2 edb8 b009 a7b9
000000f0: 58e9 db3a de68 00bb 11b5 83ba 7368 00bb
00000100: 3046 be3a abaf 1338 d511 94b9 6a6c 58ba
00000110: 0b7b 09b7 0f6e 613b 3559 c037 997c d839
00000120: fbf6 0db9 5ace 0cbb a543 d1b8 9b76 aaba
00000130: 736a bab9 be0f bbb9 1c94 c0ba 007a 133b
00000140: 8967 bd39 450c e9ba 44f2 29ba 87e5 d5b8
00000150: 77b4 7eb9 d53e 67b9 3f44 2bb8 d00d 633a
00000160: f9e5 b0b8 6917 6a3b 10d1 c73a 8d50 f53a
00000170: 86cc a2b9 284a bc39 38f8 98b9 02bd 3eb9
00000180: 0cd9 9fba 720b 99b9 0db5 5bbb c14d 1ab9
00000190: 3415 8ab8 aaf7 1a39 d89b 00bb 22f3 a93a
000001a0: 1eb0 aeba c434 deba d880 9c3a 9d67 0a39
000001b0: e52d 2338 e06f 6cb9 0269 81b9 295c 5bbb
000001c0: e07f 253b 77ab 9338 f6c3 c8ba b34b 79b9
000001d0: 3166 69b9 340e 813a ab95 1bbb d2a3 acba
000001e0: b30d acb8 7095 513b 1c65 8dba 35a8 bbb8
000001f0: e928 edb8 8541 1e3b 7959 1bb9 c3c8 fb39

exp_avg_sq f4 [128]
4.4320313e-05 7.380337e-08 1.0516872e-07 1.6202077e-07 1.1903904e-06 4.99179e-07 2.5353992e-07 2.4277724e-06
7.369452e-08 1.1174945e-07 1.0639394e-06 2.8385625e-06 3.0210208e-06 1.3798393e-05 3.3660613e-06 8.6954315e-06
6.5726686e-06 1.3472169e-05 8.303424e-06 1.2554104e-07 8.266828e-06 1.813801e-05 9.348542e-06 6.497179e-07
5.05689e-06 1.3245917e-05 3.5934798e-07 9.671441e-06 9.688669e-06 2.0978781e-07 2.7563305e-05 6.4889264e-06
9.323514e-08 1.9306483e-06 4.986859e-07 2.3007724e-08 1.12627454e-07 2.0592829e-07 5.2430796e-06 1.957477e-07
2.0096796e-07 9.4536245e-09 3.7593546e-07 1.0493869e-05 9.500373e-06 7.658607e-07 3.7696964e-06 5.052306e-07
3.8239476e-05 9.6481166e-08 1.3120389e-07 2.5362137e-06 3.0580807e-06 1.8718742e-05 2.039657e-06 1.676575e-05
1.237593e-07 4.322369e-06 6.344632e-08 1.6110207e-05 4.72214e-06 1.6445549e-05 2.7367296e-06 7.3682218e-06
5.684259e-06 8.78203e-08 6.885751e-08 6.1431234e-07 3.0544493e-06 1.6541724e-05 1.2932529e-07 1.2219607e-06
1.4622236e-07 1.9742896e-05 1.241352e-07 7.0196083e-06 3.2633018e-08 9.339991e-07 6.016583e-06 6.5736735e-06
1.1730722e-06 5.8196947e-06 4.5451834e-06 1.1245932e-06 1.8905523e-07 8.6317453e-07 4.4443073e-08 1.2859906e-06
9.147608e-08 1.2807609e-05 1.8878285e-05 5.4900356e-06 5.8945535e-08 1.7548736e-06 1.8436154e-07 1.9980155e-07
8.2916773e-07 2.3536154e-07 7.778242e-06 1.0756121e-07 1.4476697e-05 2.0384167e-07 1.369094e-05 3.6613715e-06
2.72919e-06 6.7077117e-06 6.7504184e-06 1.8932954e-07 1.2435012e-07 5.3982023e-07 1.2812329e-07 1.6987118e-05
8.960817e-06 6.228454e-07 5.534147e-06 6.457049e-08 2.3280747e-06 1.0558166e-05 7.4554505e-06 5.9843965e-06
1.4177438e-06 1.4959718e-05 2.8283077e-06 1.481871e-07 9.593513e-08 4.350483e-06 8.377451e-06 1.19519e-05
00000000: 93e4 3938 d57d 9e33 1ed9 e133 eef7 2d34
00000010: 81c5 9f35 52ff 0535 431e 8834 d0ec 2236
00000020: fe41 9e33 e9fa ef33 aecc 8e35 227e 3e36
00000030: bebc 4a36 a67f 6737 7ee4 6136 98e2 1137
00000040: cb8a dc36 8606 6237 ef4e 0b37 75cc 0634
00000050: c2b1 0a37 1427 9837 afd7 1c37 4668 2e35
00000060: 5bae a936 c83a 5e37 69ec c034 8642 2237
00000070: 848c 2237 0942 6134 bf37 e737 74bb d936
00000080: 8f38 c833 4990 0136 6fdd 0535 85a2 c532
00000090: 99dd f133 231d 5d34 b6ed af36 b82e 5234
000000a0: a7c9 5734 7b69 2232 2dd4 c934 d30e 3037
000000b0: cb63 1f37 8c95 4d35 e4fa 7c36 2f9f 0735
000000c0: 5363 2038 1531 cf33 0de1 0c34 d233 2a36
000000d0: 6d39 4d36 3106 9d37 0ae1 0836 2da4 8c37
000000e0: b3e2 0434 de08 9136 fc3f 8833 6824 8737
000000f0: e072 9e36 8cf4 8937 a8a8 3736 8b3c f736
00000100: 6abb be36 b897 bc33 d1de 9333 39e7 2435
00000110: 0afb 4c36 15c3 8a37 aadc 0a34 4002 a435
00000120: 4c01 1d34 8c9d a537 064a 0534 fa89 eb36
00000130: 6228 0c33 eeb7 7a35 0ee2 c936 6d93 dc36
00000140: 7472 9d35 cc46 c336 d482 9836 baf0 9635
00000150: 1bff 4a34 e7b4 6735 ade1 3e33 4d9a ac35
00000160: 8271 c433 43e0 5637 cf5c 9e37 0c37 b836
00000170: 4d2b 7d33 ff88 eb35 eaf4 4534 0889 5634
00000180: f993 5e35 b0b7 7c34 4c7f 0237 67fc e633
00000190: f1e0 7237 92df 5a34 24b2 6537 e2b5 7536
000001a0: 2127 3736 ce12 e136 a781 e236 824a 4b34
000001b0: 1a85 0534 2ae8 1035 4392 0934 8f7f 8e37
000001c0: 6a56 1637 9c31 2735 f6b1 b936 01aa 8a33
000001d0: 053c 1c36 fa22 3137 d529 fa36 93cd c836
000001e0: 4e49 be35 80fb 7a37 f5cd 3d36 5c1d 1f34
000001f0: e504 ce33 5dfa 9136 e18c 0c37 0585 4837
