Assets/results/petfollower/PetFollower/PetFollower-3335.pt (torch, 444828 bytes, 36 tensors)

network_body._body_endoder.seq_layers.0.weight f4 [128, 7]
000000 4e 9d 96 ba 09 40 0f bf d6 32 36 bf 66 3b 26 be
       -0.0011490972 -0.55957085 -0.7117132 -0.16233596
000010 fd 89 a3 be 4a 38 70 3e e4 d9 1e 3e 20 76 39 3e
       -0.31941214 0.23458973 0.15512806 0.18111467
000020 95 90 00 bf 56 59 04 be 15 b6 83 be ff 58 9c 3e
       -0.50220615 -0.12924704 -0.25724855 0.3053665
000030 f6 5f b0 3e 6e 82 fc 3e 24 2a a3 3e 9d 05 bc 3e
       0.34448212 0.4931826 0.31868088 0.36723033
000040 ad bb 84 be 94 ef a1 be 2e 57 1f bf f8 c4 96 be
       -0.25924435 -0.31628096 -0.622424 -0.2944715
000050 c6 5f bb 3e 6f 26 98 3c c2 2a 01 be 14 ba 3c bf
       0.36596507 0.018573014 -0.12613967 -0.7372143
000060 13 14 b1 be 60 d5 0f bf aa a9 bb bc e1 5f 8f 3e
       -0.34585628 -0.5618496 -0.02290805 0.28002837
000070 48 b3 88 be 0f 5d 82 3d 37 61 76 bd f8 0b b9 3e
       -0.2669928 0.06365406 -0.060151305 0.36141944
000080 4f ed 83 3d 68 02 02 3f 78 9c c5 be 4b 1b f7 3b
       0.064417474 0.5078492 -0.3859594 0.0075410954
000090 a8 ba 42 be 42 12 22 3e c4 fe 8c 3e 61 26 aa 38
       -0.19016516 0.15827277 0.2753812 8.11338e-05
0000a0 97 b1 b3 be 61 4f 09 bd bb c8 91 3e e5 f7 88 be
       -0.35096428 -0.033522967 0.28473458 -0.2675163
0000b0 83 49 6d be 99 61 ae 3d 6a b3 ce bd bc df 4b 3e
       -0.23172574 0.08514709 -0.10092814 0.19909567
0000c0 72 7a db 3e 02 64 38 be fa ca bc 3e 40 7a bb 3e
       0.42866856 -0.180069 0.3687361 0.36616707
0000d0 d8 7a 9f be 88 c9 97 be 8e f8 07 3d 43 25 9b 3e
       -0.3114841 -0.29645944 0.033196025 0.30301866
0000e0 2a cf 66 be 21 dd f7 be 5e 91 27 bf 30 5c 26 3d
       -0.22539964 -0.48410895 -0.6545619 0.04061526
0000f0 37 ca f7 3d 63 4f 3c bd 8d c7 bf be 5f 12 4a 3e
       0.12099116 -0.045974147 -0.37456933 0.1973357
000100 55 a3 83 bd 7e 0e d1 3e 25 3e 34 be 5c 1d cf bb
       -0.064276375 0.4083137 -0.17601831 -0.0063206386
000110 9b 04 5e bd 19 45 0a 3f c2 59 d7 bd 14 39 43 3f
       -0.05420361 0.54011685 -0.10515167 0.7625897
000120 0a fa b0 3d f1 f6 b5 be 81 cb 60 be 99 29 6c 3e
       0.08641441 -0.35539964 -0.2195263 0.23062743
000130 dd ad e8 3d ae 01 6c 3e 7a 1a 7d 3d fb 9e fa 3e
       0.11361287 0.23047516 0.06179283 0.48949417
000140 b6 22 cb 3e 21 2a f6 3e bd d5 2c be a6 a2 c8 be
       0.3967492 0.48079017 -0.1687841 -0.3918659
000150 8e ab b0 3e f2 09 de be 27 92 a6 be 01 ea 86 be
       0.34505886 -0.43366963 -0.3253338 -0.26350406
000160 86 d4 9e 3e 02 d1 c2 be df 09 dc 3e 68 f2 0c 3e
       0.31021518 -0.38050085 0.4297628 0.13764346
000170 7d 31 9f 3e bd 01 21 3f 4e a8 4e 3e 98 0b 99 be
       0.31092444 0.6289328 0.2018139 -0.29891658
000180 d6 d5 09 bf b4 04 a0 3e 82 c1 7a be 1a b3 c5 3e
       -0.5384191 0.31253588 -0.2448788 0.38613206
000190 4c 2c 37 3f 4e 24 97 3e fc 13 61 bd d4 9c 07 3d
       0.71551967 0.29519886 -0.0549507 0.033108547
0001a0 fc 0a 4c 3d 72 43 ff be e4 fa 64 3e 1d 34 1f 3e
       0.049815163 -0.49856144 0.22361332 0.15547223
0001b0 32 4d 0a 3d bb ce 02 3f 0f 2e a3 3e c6 0f 9b 3e
       0.033765025 0.51096696 0.31871077 0.30285472
0001c0 5a 85 87 be a9 05 9e be 21 09 aa 3e 25 4d 12 3f
       -0.26468927 -0.30863693 0.3321009 0.57148963
0001d0 39 99 e0 3d 6b 6f 4c be b4 8a 80 3d 41 db 49 3f
       0.10966725 -0.19964378 0.062764555 0.7885018
0001e0 a6 4f f8 bd ee e5 39 bd 5b da 3c 3c 92 a0 4a bf
       -0.12124567 -0.045385294 0.011526669 -0.7915126
0001f0 e0 92 2d bd d7 cd 28 be 8e 2b d8 bd 09 6e d2 3e
       -0.0423764 -0.16484772 -0.105551824 0.41099575
000200 7c fe 69 be 84 e3 c9 bd c8 fe 23 3e 49 d6 15 be
       -0.22850984 -0.09857848 0.1601516 -0.14632525
000210 6d f7 d0 3d 3d b8 6a 3e f7 8f db 3e f2 c2 93 be
       0.10203443 0.22921844 0.42883274 -0.2885967
000220 d4 73 91 be fc 01 61 3e 72 4a 0b be 30 d2 a8 3e
       -0.28408682 0.21973413 -0.13602617 0.3297286
000230 43 5f f0 be 3f e3 c0 bd e4 27 76 3d 36 33 0a 3f
       -0.4694768 -0.09418344 0.060096636 0.5398439
000240 67 37 ea be a1 58 e9 be 61 44 a4 3e e2 2a 10 be
       -0.45745394 -0.4557543 0.3208342 -0.14078858
000250 cf f2 d3 be 81 09 82 be af 14 0d be db d3 01 bf
       -0.41396186 -0.25397876 -0.13777421 -0.5071389
000260 bf 6d 03 3e 9d f6 c3 3e 11 7a d3 3e d9 0d 54 be
       0.12834834 0.38274089 0.41304067 -0.20708407
000270 c2 3a f6 bb df 35 46 be a2 5c 03 bd dd 91 be be
       -0.0075143287 -0.19356488 -0.032070763 -0.3722066
000280 55 95 e3 3e 40 bd 8c 3e 87 7e 2a 3e dd ee 98 bc
       0.4444987 0.27488136 0.16649829 -0.018668586
000290 ea c8 c6 3e 95 5c 7f be 87 d8 02 bd 5b 61 3f be
       0.3882516 -0.24937661 -0.031944778 -0.18689482
0002a0 71 94 be 3d b3 46 6e 3e 67 3e fd 3b c3 4d b5 3e
       0.09305657 0.23269157 0.007728386 0.3541089
0002b0 a0 43 58 3e f2 b1 c4 bd a2 f7 63 3d fc 01 48 bf
       0.21119547 -0.09604253 0.055656083 -0.7812803
0002c0 62 6d 36 3f 17 3a 9f bd dc 0d e0 be af 5b 64 3e
       0.71260655 -0.07774752 -0.43760574 0.223006
0002d0 18 f6 ef 3e e0 f8 2f be d2 c7 b6 be 18 93 34 be
       0.46867442 -0.17184782 -0.35699326 -0.17634237
0002e0 0c 84 2a bf 37 0e 1d bf 49 95 e2 3c 9a c5 1f 3e
       -0.6660774 -0.61349815 0.027659075 0.15602723
0002f0 da 49 89 bd 1b f6 84 bb 57 69 cc bc a6 52 26 3e
       -0.06703539 -0.0040576584 -0.024952574 0.16242465
000300 57 ab 90 3e 10 ca ec bd 9e 3b c7 3e 60 c3 85 bd
       0.28255722 -0.11561978 0.38912672 -0.065314054
000310 ad 22 87 3e 48 ea 31 be f1 50 8c be eb 83 61 3e
       0.26393643 -0.17374527 -0.27405503 0.22022979
000320 33 47 03 bf 2b 7d 6a bd ef c1 af be 30 aa 93 be
       -0.51280516 -0.057248276 -0.34327647 -0.2884078
000330 8e ed a6 3e 15 dc a6 be bf 51 80 bd cd 31 1f be
       0.32603115 -0.32589784 -0.06265592 -0.15546341
000340 07 84 10 be 97 5d f4 3d 53 26 32 3f ec 36 87 3d
       -0.14112864 0.11931913 0.6958973 0.066022724
000350 0e 63 f0 bb bd 32 54 be 28 41 04 bf 7c 21 90 ba
       -0.007336027 -0.2072248 -0.5166192 -0.0010996307
000360 70 1c 18 3f 1d 5c 18 bb a8 0b 76 3d cc 62 3d be
       0.5941839 -0.0023248263 0.06006971 -0.1849472
000370 05 18 80 3d 15 e0 a1 be de 13 36 3e bb 11 e2 bd
       0.06254581 -0.31616274 0.17781016 -0.11038538
000380 ac 6c 31 bf 6f f5 fb bd 2d 6b 72 be d2 8e 6c bf
       -0.69306445 -0.12302672 -0.23673697 -0.92405427
000390 54 34 ff bc 38 c5 a6 3d 93 46 9b 3e a4 72 4c be
       -0.031152882 0.08143085 0.3032728 -0.19965607
0003a0 d9 97 58 3e 31 de b0 be 7e bc 09 3d 7c 94 85 bd
       0.21151675 -0.3454452 0.033627026 -0.06522462
0003b0 10 45 3d 3e 3e 5f 27 be 22 65 a2 3e a1 c0 65 3b
       0.18483377 -0.16344926 0.31717783 0.0035057443
0003c0 16 35 1c bd 14 31 f7 be a4 45 62 bf 31 3d 47 3e
       -0.038136564 -0.4827963 -0.88387513 0.19456936
0003d0 45 8a dc 3e bd f3 38 3d c9 33 d3 be 26 59 23 3f
       0.4307424 0.045154322 -0.41250446 0.63807905
0003e0 8e 33 5a 3f c0 d0 09 3f d3 f3 f5 be 54 3e 3e 3f
       0.85234916 0.5383415 -0.48037586 0.74313855
0003f0 2c 61 4e be 75 98 bc bc 01 5d 45 be 68 58 80 3e
       -0.20154256 -0.023021916 -0.1927376 0.2506745

network_body._body_endoder.seq_layers.0.bias f4 [128]
000000 e4 8b c0 39 53 32 b7 3a 0a ca d7 3b b0 bf 30 bc
       0.0003672532 0.001397679 0.006585364 -0.010787889
000010 94 8b 34 3b 3b fb d8 3b 29 3f 41 bc ca a1 20 bc
       0.0027549015 0.006621746 -0.011794844 -0.0098041985
000020 6d f8 86 3a b8 bc 08 3b f9 d2 0a bc e1 07 15 3b
       0.0010297425 0.0020864438 -0.008473151 0.0022740292
000030 22 44 13 bc 52 f3 bb 3b e5 df e2 b9 5b 70 a1 ba
       -0.008988412 0.005735793 -0.00043272894 -0.001231681
000040 74 11 88 3a 70 ab 0f 3a 74 13 8c bb 6c 06 10 bb
       0.0010381178 0.0005480563 -0.00427478 -0.0021976484
000050 90 25 50 bc 8f bd b7 3a 62 e1 b7 bb 0b 46 0c 3b
       -0.012704268 0.0014018285 -0.0056115845 0.0021404054
000060 72 2a 1f 3b 85 69 8a bc ad 4d aa 37 bc 7f 0b bb
       0.0024286774 -0.016896019 2.030175e-05 -0.0021285852
000070 90 38 b5 3a 76 1b 8b 3b 6a eb a7 3b 07 ff 42 bb
       0.0013826061 0.004245217 0.005124499 -0.002975406
000080 fb 71 a3 3b a7 62 60 3a 34 0a fa bb 8c ba ff 3a
       0.0049879528 0.0008559622 -0.007630611 0.0019510551
000090 2f 4a 13 3b f8 15 1d bb a9 7e 0e 3a 59 de 4c 3b
       0.0022474637 -0.0023969393 0.0005435744 0.003126046
0000a0 7d 0c 12 3c c1 94 30 3b 8a 72 bc 3b ee 09 41 bb
       0.00891411 0.0026944133 0.005750959 -0.0029455381
0000b0 52 2f b6 3a e6 6e c4 b9 dd bc ae ba e3 dd 9e 3b
       0.0013899601 -0.0003746666 -0.0013331432 0.0048482283
0000c0 bd 16 5e bb 75 4b 18 bb 4c 31 d0 3a ea cc c9 ba
       -0.0033888065 -0.0023238335 0.0015883832 -0.0015396152
0000d0 cd 7c b0 bb 1d b2 05 3b bc 68 81 bb 29 65 d4 3b
       -0.005385971 0.0020400353 -0.003949253 0.006481786
0000e0 ae d0 94 3a 7f aa 0a 3c 45 2c 53 bb bc 0f 31 bb
       0.0011353695 0.008463501 -0.0032222432 -0.0027017435
0000f0 ba 32 e9 39 73 fe de bb 98 31 21 3a a3 2a 2c bb
       0.00044479017 -0.006805235 0.00061490526 -0.002627053
000100 61 47 2a bb 5b 39 a1 bb 98 a8 60 bb 48 f6 13 b9
       -0.0025982487 -0.0049201674 -0.0034280177 -0.0001411076
000110 a6 e3 b8 3a c4 6a 37 bc a3 3b 83 3b 40 da c6 3a
       0.001410593 -0.0111948885 0.004004912 0.0015171245
000120 41 b4 be bb e0 bc 3e bc ec d3 df 39 09 d3 50 bc
       -0.005819828 -0.011641711 0.0004269177 -0.012745627
000130 5a 31 3c 3a 56 90 52 3b b3 f6 33 bc 04 83 91 3b
       0.0007178985 0.0032129488 -0.010984111 0.004440667
000140 1c 48 1b bb 15 94 c1 3a 8f f7 f5 3a dc 00 58 bb
       -0.0023694104 0.0014768863 0.0018765795 -0.0032959497
000150 aa 1d 4a bb 4e b1 41 ba ba e9 b4 3b b9 c2 64 bc
       -0.0030840435 -0.0007388786 0.0055210264 -0.013962441
000160 3b 58 62 3b c3 34 7a 39 77 fa bb 3b 9c b9 80 ba
       0.0034537453 0.00023861513 0.005736645 -0.0009820941
000170 4c aa 94 ba cb 2e 1b bb ba 4e 2e bb 7d ec 6a b9
       -0.0011342256 -0.0023679014 -0.0026597218 -0.00022404078
000180 b8 63 fc 3b 30 97 5e ba d4 7a cd 3b 8e e7 d9 ba
       0.007702317 -0.00084911566 0.006270746 -0.0016624795
000190 11 74 1c 3c 4b 1d 53 bc 06 ce 22 3b 4e 88 a3 3a
       0.009549157 -0.012885402 0.0024842038 0.0012476535
0001a0 a6 f3 87 3b 02 4c a5 3b 46 e2 4b bc 18 77 0c bb
       0.004148918 0.005044461 -0.0124440845 -0.002143329
0001b0 c8 3b 4a ba b2 72 92 3b 09 1d b0 ba f3 72 ac bb
       -0.00077145966 0.004469239 -0.0013436388 -0.0052627265
0001c0 8f 75 1f 3c 82 09 c1 bb fa 58 88 3b 91 56 f3 3a
       0.009732618 -0.005891026 0.0041609975 0.0018565228
0001d0 e2 c3 28 3b 59 91 95 3b 44 e5 3f bb ba 59 be 3b
       0.002575152 0.004564446 -0.002928094 0.005809036
0001e0 3b f1 6b 3b 93 77 76 3a f1 69 04 3c ff 9a 54 39
       0.003600194 0.0009401973 0.008081899 0.00020275636
0001f0 c6 61 d7 3b 88 84 32 3b 09 e8 2d 3c 6e 13 b3 3b
       0.006572935 0.002723964 0.0106144035 0.0054649627

network_body._body_endoder.seq_layers.2.weight f4 [128, 128]
000000 df bd ea 3c 0e 5d a9 3d 5a 00 ed 3d dc 57 25 3e
       0.02865499 0.08269702 0.11572333 0.16146797
000010 be f4 d1 3d c1 ac 29 be a7 d5 63 bb f2 f4 31 3d
       0.10251759 -0.16569807 -0.0034764798 0.04344649
000020 7d 57 dd bd 47 23 5f bd 5a 87 f8 3d 32 26 38 3e
       -0.10807703 -0.054477002 0.12135191 0.1798332
000030 3f e1 45 3d 46 41 a1 3d f6 51 a4 3d 23 b3 cc bd
       0.048310515 0.07873778 0.08023445 -0.09995105
000040 b1 48 cc bd 5f 7b b1 3b b0 f1 5f 3e 91 ef 18 be
       -0.09974802 0.0054163183 0.2186954 -0.14935137
000050 88 26 37 bd 6f 19 c6 3a 9c ec 16 bd 99 18 32 bd
       -0.04471448 0.0015113781 -0.036846742 -0.04348049
000060 de ce 0c bd 71 fc ab 3d 30 47 29 be 8e a3 a9 b9
       -0.03437697 0.08397759 -0.16531062 -0.0003235605
000070 f0 80 dd 3c 50 c9 6d 3d e2 47 83 3d 41 e9 d7 bd
       0.027039021 0.058053315 0.06410195 -0.105425365
000080 29 77 54 3d 10 6a 3d bd dc 92 ef bc 5f 50 82 3d
       0.051871452 -0.046243727 -0.029244833 0.06362986
000090 1e 57 21 be d0 7a 30 3d a6 d9 fd bd 70 8a 41 3d
       -0.15755889 0.043085873 -0.12395029 0.047251165
0000a0 e6 f1 b9 3d f0 03 7b 3d 87 72 3c 3d fd 76 a9 bc
       0.090793416 0.061283052 0.04600766 -0.02068662
0000b0 4b 8c d3 3d 4b 26 59 3a 7a ca 8e 3d 4d 67 2d 3e
       0.10329493 0.0008283599 0.06972213 0.16933937
0000c0 99 4a a7 bc 84 8c 12 bd a1 61 bb bd ac 8c d4 3c
       -0.020421313 -0.035778537 -0.091494806 0.025945984
0000d0 6a 68 ab bd a2 5e 27 3d fe e1 0c bc 16 59 a0 bd
       -0.08369525 0.040861733 -0.008598803 -0.07829492
0000e0 21 9f 7f 3c 28 4f 3d bc 03 5e a9 bd a1 9d c0 3c
       0.015601904 -0.011554517 -0.082698844 0.023512663
0000f0 af 0c 22 bd 23 3f e4 3d ae 7f 94 bc 95 3d 57 3d
       -0.039562877 0.11144855 -0.018127289 0.052548964
000100 92 c5 aa bc d2 06 15 be 9e 77 c9 bd ad 28 12 be
       -0.020846162 -0.14553383 -0.09837268 -0.14273329
000110 c9 8b 8a bd 9a f4 65 bc 3e 35 f9 3d c2 c2 90 bb
       -0.06764943 -0.014035368 0.12168358 -0.004417748
000120 6e 4d 4d bd 3e 3c c2 3c 90 20 3e 3d b6 a3 87 bc
       -0.05012267 0.023710366 0.046417773 -0.016557556
000130 c0 25 aa 3d 7a c7 89 3c 92 a9 07 bd e1 d5 15 be
       0.083079815 0.01681875 -0.0331207 -0.1463237
000140 b4 32 3c be 95 96 a3 3c 97 0e f4 3d 0b 7e d5 3d
       -0.18378717 0.019969264 0.11916845 0.104244314
000150 9a a8 6b be 77 d8 42 3b 13 c0 6a be 0a 75 ff 3d
       -0.23013535 0.0029731074 -0.22924833 0.12473495
000160 66 e5 80 bb 2c dd cc 3d 0b 69 72 bd b4 c6 0e bc
       -0.0039335964 0.10003123 -0.059182208 -0.008714367
000170 c0 51 65 3d 8e 72 74 3d b9 a2 9a 3d 40 a0 ce bd
       0.055986166 0.05967956 0.07550568 -0.10089159
000180 8a fb b8 3d 22 7a c7 3c 6a f0 53 3d ae 82 d7 bc
       0.09032352 0.02435023 0.05174295 -0.02630743
000190 f0 aa 3d 3e 96 1e d4 bd d5 8a c6 3d 14 64 33 bd
       0.18522239 -0.10357396 0.09694449 -0.043796614
0001a0 7b e5 88 bd d2 2b e6 3d 7b 6e 20 3e 4a 14 61 bd
       -0.06684395 0.11238827 0.15667145 -0.05495099
0001b0 c8 f3 0c 3e 1e 23 48 3d 4d 49 e7 bd b4 da e5 bd
       0.1376487 0.048861615 -0.11293278 -0.11223355
0001c0 b5 63 11 3c d3 bf 85 3d 4a d2 8c 3d 97 b9 25 3c
       0.00887387 0.06530728 0.06876047 0.010115049
0001d0 bc 20 d1 3d 4d 73 23 be 9c 97 15 3e 5b aa 31 bd
       0.10211322 -0.15961953 0.14608616 -0.043375354
0001e0 a2 a1 83 3c 43 9c 13 b9 25 47 39 3d 21 9b 2a 3c
       0.016068283 -0.00014077224 0.045233864 0.010412962
0001f0 91 4d 0a bd d0 5a fe 3d f4 a7 b5 bd d4 3e 39 3e
       -0.03376538 0.12419665 -0.08869925 0.18090373
000200 a1 fc cb bc 07 d2 4d bd c7 39 41 3e ef 22 2d bd
       -0.024900736 -0.050249126 0.18869697 -0.042269643
000210 8d be 9f bc f1 c6 20 3d 4f fa 69 3e a4 14 0a bd
       -0.019500041 0.039252225 0.22849391 -0.03371109
000220 45 7e a5 3c de 61 f4 3d 22 0a 35 3d 49 5d 16 3e
       0.020201812 0.11932729 0.044199117 0.14684023
000230 cd 2a 30 3e 7c c0 ef bd eb e8 84 bd 12 bd 2b 3d
       0.17203827 -0.11706635 -0.06489738 0.04192836
000240 d0 62 1b bd d6 35 eb 3c ad 2f b9 3d ac 83 1e bc
       -0.03793603 0.028712194 0.090422966 -0.009674948
000250 15 c3 c4 bd 40 ee 89 bd d0 df 51 bc 39 c4 02 be
       -0.096075214 -0.06734896 -0.012809709 -0.12770166
000260 04 59 48 bd 0f 81 a7 bd b8 89 1c 3e fe c2 09 bd
       -0.048913017 -0.08178913 0.1528691 -0.033633225
000270 ab 2f 6f bd a5 31 8d ba 2c 5f 72 3d a7 51 53 3d
       -0.05839507 -0.0010772242 0.059172794 0.05159154
000280 a8 7c e4 3c 6b 42 42 3d 21 c1 ab 3d 34 6a 6a bd
       0.027891472 0.047426622 0.08386446 -0.05723019
000290 4c 3b dd 3c fc c4 61 3d 58 a3 0d be 0f 96 3b 3c
       0.027005814 0.0551195 -0.13831842 0.011449351
0002a0 25 bb 46 3d 7a 7c 51 be 53 1f 84 3d ea c1 03 be
       0.04851832 -0.2045764 0.06451287 -0.12866941
0002b0 fc 55 b8 bd 60 2a c3 bd b8 19 8a 3d 32 08 3e 3b
       -0.09000775 -0.09529567 0.06743187 0.0028996584
0002c0 f5 8f cc bd 5c 7c 1d 3e 33 58 0b be 00 91 13 3d
       -0.09988395 0.1537947 -0.13607864 0.036026955
0002d0 c0 cb 2d 3b fd 63 ab bd 58 8a 47 3d 65 c7 30 be
       0.002651915 -0.083686806 0.04871592 -0.17263563
0002e0 6a 70 bf bd 35 d8 94 bd dd ee fc 3c 42 e0 46 bd
       -0.09347613 -0.07267801 0.030875618 -0.048553713
0002f0 37 01 09 3d 42 99 4c be 69 99 54 3d 80 62 0e 3c
       0.033448424 -0.19980338 0.051904116 0.008690476
000300 8e 01 44 bc 3d 2f cf bd 63 c9 14 be 69 19 80 3d
       -0.011963261 -0.10116432 -0.14529948 0.062548466
000310 7d 23 2e bb e6 4f ea bb 00 d1 81 3d 90 d4 c3 bd
       -0.0026571446 -0.007150638 0.06338692 -0.095620275
000320 21 15 c3 3d 45 74 80 3d 99 f7 8e bd 16 9c 26 be
       0.095255144 0.06272177 -0.06980819 -0.1627048
000330 b2 2f 18 be ad 38 f1 3d 26 0f 0f bd 48 e7 26 bd
       -0.14861944 0.11778388 -0.034926556 -0.04074791
000340 52 f1 22 3d 86 52 e7 3d 14 42 06 be 9e 10 3a be
       0.039780922 0.11295037 -0.13111144 -0.18170401
000350 11 f7 2f bd d1 b4 f1 bc 3b b3 b8 bd 2a d3 6a 3d
       -0.04296023 -0.029505165 -0.090185605 0.057330288
000360 83 12 09 bc 25 b8 90 bd 5a cc de 3d 09 fe 5a 3d
       -0.00836623 -0.07066373 0.10878821 0.053464923
000370 17 82 be ba 32 54 64 ba 15 b0 a2 bd 3d d7 bd 3c
       -0.0014534619 -0.0008710056 -0.07943741 0.023173923
000380 5c d6 6e bd 00 42 0c be e3 e8 c6 bd e9 57 68 38
       -0.058309898 -0.13697052 -0.09712388 5.5394983e-05
000390 cf 58 1f bd 7d 00 c3 bd f2 67 1c be 94 82 18 3e
       -0.038903054 -0.095215775 -0.15274027 0.14893562
0003a0 24 10 4e bd 78 fa 32 3d 92 aa 9c 3e a0 7f 62 3c
       -0.05030836 0.043695897 0.30598885 0.0138243735
0003b0 fa 1e ee bc 04 ad dc 3d f9 14 0c bd ef 82 34 bd
       -0.029067505 0.107751876 -0.03419969 -0.04407018
0003c0 ea ce 14 3e 66 9d e3 bd f4 78 88 bd ec 43 cd 3c
       0.14532056 -0.11114006 -0.06663695 0.025056802
0003d0 c3 69 5c bd d0 c5 49 bc cb 65 2e 3d 32 27 86 3e
       -0.0538118 -0.012315229 0.042577546 0.2620178
0003e0 4c 7b ef bb 2a db 2c bd b0 46 94 3d 57 b8 bd 3d
       -0.0073083993 -0.0422012 0.07240045 0.09263676
0003f0 93 b6 de 3c ca 4c 2f 3d 5c 5d eb 3b 47 02 a5 bd
       0.027186668 0.04279784 0.00718276 -0.08057075

network_body._body_endoder.seq_layers.2.bias f4 [128]
000000 0f f2 91 3b c1 d4 d2 bb ed e7 83 bb c7 5a 69 3a
       0.0044539045 -0.0064340536 -0.0040254504 0.00089017715
000010 43 a3 48 3c be e3 09 3b 6f 27 4e bb 15 8a e2 bb
       0.012245956 0.0021040286 -0.003145661 -0.0069134333
000020 86 dd 36 bc ab 53 1c bb ec 3f 38 bb c2 71 c0 ba
       -0.011161214 -0.002385358 -0.0028114272 -0.001468234
000030 ba a3 76 ba cc f0 f0 ba 82 69 d4 bb 97 e0 17 3b
       -0.00094085524 -0.001838231 -0.006482304 0.0023174637
000040 20 6e ac bb ec e7 60 3c 01 60 56 3b 69 2f bc ba
       -0.0052621514 0.0137271695 0.0032711031 -0.0014357391
000050 21 65 4d 3b e7 8a 17 3b ff 08 8c 3a e8 b5 99 3a
       0.0031340795 0.0023123564 0.0010683833 0.0011727186
000060 bf 83 08 bc e4 98 76 ba 52 fc 06 3c 27 41 c3 3b
       -0.008332192 -0.0009406938 0.008238869 0.0059586945
000070 e8 e9 41 3a 88 d2 21 3b ef 72 75 39 f2 ff 04 3c
       0.00073972205 0.0024692137 0.00023407837 0.008117663
000080 f0 8b 88 3a bc 2e 68 3c b9 7c bd 3b 44 38 08 3c
       0.0010417681 0.014171299 0.0057826904 0.008314196
000090 59 57 d2 3b c9 08 05 3b 65 bf 3d bb cb 70 9a b9
       0.006419104 0.0020299426 -0.0028953191 -0.00029457206
0000a0 6c 65 5f bb 6a 7d 1d 3a bf 71 0f 3a 04 c4 28 3c
       -0.0034087552 0.0006007763 0.00054719666 0.01030064
0000b0 0d 9d 68 3c df a5 4f bb 63 12 3d 3b 1c 9f 44 bb
       0.0141976 -0.003168456 0.002885007 -0.0030002063
0000c0 e9 5d 0f bb 21 d3 33 3c 28 e2 36 3b dc 0e 68 3b
       -0.0021876043 0.01097563 0.0027905796 0.0035409248
0000d0 e4 96 15 bb 06 2e 14 3c d6 d8 2e bb dd a2 a6 ba
       -0.0022825534 0.009044176 -0.0026679537 -0.0012713332
0000e0 15 e0 9c 3a fb 1b b0 ba a5 47 8f 3b b1 72 00 bb
       0.0011968637 -0.0013436073 0.0043725544 -0.0019599611
0000f0 f7 13 94 3b 9d cd 0a bb b5 2f 01 bb 7f 22 f5 39
       0.0045189816 -0.0021179684 -0.0019712273 0.00046755743
000100 f6 1d 27 bc f1 ac 08 ba a9 9a b1 bb 8e 71 08 bb
       -0.010200014 -0.00052137586 -0.0054200483 -0.0020819637
000110 89 fa 20 3b 11 77 28 3b 55 60 e8 3b 49 ef 14 3b
       0.0024563393 0.0025705735 0.007091562 0.0022725633
000120 e8 1b c0 bb c5 e5 00 3c 4b 34 b6 3a f1 b5 ac bb
       -0.0058627017 0.007867281 0.0013901083 -0.0052707125
000130 dc 27 12 bc e5 cd 35 bc 12 d9 99 3b f3 e6 f9 bb
       -0.008920636 -0.011096452 0.0046950663 -0.0076264082
000140 94 43 58 3b a9 1a 8f 3a 5d 36 dd b8 47 9a 62 3c
       0.0032999264 0.001091798 -0.00010548227 0.013830728
000150 6b b3 0b bb 28 62 99 3a ba d3 d2 ba 41 3d 02 bc
       -0.0021316658 0.0011702226 -0.0016084828 -0.007949174
000160 21 96 c2 3b e9 2f f3 bb d7 9d 22 3c ba bb a5 bb
       0.005938307 -0.007421483 0.009925327 -0.005057779
000170 ee 6c b6 b7 86 41 13 3b a0 0d f5 bb 4a bc 3c bc
       -2.1746815e-05 0.0022469475 -0.007478431 -0.011519501
000180 31 a3 8f b9 d0 f5 b8 3b df 92 a0 3b 3e d1 46 bb
       -0.00027396673 0.0056445375 0.004900321 -0.003033712
000190 5b e1 2d 3b 36 68 29 3b a1 a5 a3 39 68 d2 20 3c
       0.0026532027 0.0025849468 0.00031213186 0.00981579
0001a0 3f 50 fc bb d6 f5 9d b9 6f 4c cc 3a 12 1c 82 bb
       -0.007699996 -0.00030128536 0.0015586744 -0.0039706314
0001b0 65 c1 27 bb 5e 2c f0 ba 27 1f c4 bb 72 fe 7c 3b
       -0.002559745 -0.0018323769 -0.005985159 0.003860381
0001c0 63 be 34 bc cc 3a 57 3b cc 60 6a ba 03 50 e4 b9
       -0.01103172 0.0032841442 -0.00089408155 -0.00043547162
0001d0 2c 90 9d 3b df 5e a2 ba 93 5d 1f bc de 68 1c 3c
       0.0048084464 -0.0012387893 -0.0097269 0.009546487
0001e0 ee 90 16 bb bb 55 b5 bb 1b e5 b5 bb 39 a4 db bb
       -0.0022974568 -0.0055339015 -0.005550993 -0.0067029265
0001f0 8e 6a 9e 3b 94 35 ad bb 2d 2c 12 bb f7 7e 84 bb
       0.0048344797 -0.005285928 -0.0022304163 -0.0040434557

action_model._continuous_distribution.log_sigma f4 [1, 2]
000000 61 83 42 3b 06 ae 1d 3c
       0.0029680359 0.00962401

action_model._continuous_distribution.mu.weight f4 [2, 128]
000000 95 96 35 bd 82 fe 53 bc 26 26 b5 3c 1d c4 7a bb
       -0.04433306 -0.012939097 0.022112917 -0.0038263865
000010 e6 10 2c bd 2b e3 ae 3b 5e ee 71 bb b8 57 e0 3b
       -0.042008303 0.005337139 -0.003691576 0.0068463944
000020 31 9f ce 3b ae 75 6c bb d2 81 88 3c 1d 4b 36 3c
       0.006305598 -0.0036080885 0.016663466 0.011126307
000030 91 8f 00 bc b9 a0 0f 3c 54 2a da ba 97 f9 9a bc
       -0.007846729 0.008766347 -0.0016644695 -0.018917842
000040 e4 25 2c bc 3d a8 31 bd cf c4 86 bc 25 59 11 3d
       -0.010507081 -0.043373335 -0.016451268 0.035485405
000050 8c d6 65 bc 19 12 f9 bc 5c 48 e8 bc de bd 28 bc
       -0.014028203 -0.030404137 -0.028354816 -0.010299174
000060 8e 4d 82 3c cc bb 94 bc 7c de 4c bd a0 b6 9a bc
       0.015906122 -0.018155955 -0.050016865 -0.01888591
000070 b5 e0 24 bc c0 a7 23 bc ab 5c 0e 3b 3d 85 aa bc
       -0.01006334 -0.009988725 0.0021722715 -0.020815486
000080 3b 3c 78 bc 19 06 06 bd 14 c7 ec bc 16 4f a1 bc
       -0.015151079 -0.03272066 -0.028903522 -0.019691031
000090 39 16 2d bd 30 5f 26 bd 4b 12 1a 3d 5f 21 89 3b
       -0.04225752 -0.04061812 0.0376151 0.0041848863
0000a0 4b 0a db 3c 8d d3 81 bc fd 4e 99 bc b5 78 4a bd
       0.026738307 -0.015847946 -0.018714422 -0.04943152
0000b0 a7 1c e0 bc e0 fc 7b 3c 85 ab 59 bc 99 93 99 3b
       -0.027357413 0.015380114 -0.013285522 0.0046867845
0000c0 b9 61 41 3b d8 43 98 bc 17 49 24 bd b8 76 95 bc
       0.002950771 -0.018587038 -0.040108766 -0.018245086
0000d0 96 27 1a 3c 12 db d8 bc 1b 9f cb 3a b4 ed cc 3c
       0.009408852 -0.026471648 0.0015535088 0.02501569
0000e0 35 b9 88 bc f5 a7 05 bc f3 dc 8a bc 6d ea 9d 3c
       -0.016689876 -0.00815772 -0.01695106 0.019276822
0000f0 a4 31 5a bc 58 4b 9c 3c e2 8d 33 3c 23 20 60 3c
       -0.013317499 0.019078895 0.0109591205 0.013679537
000100 18 f8 04 bc c5 dc ca ba 15 c0 04 bc ef 1a 7b 3c
       -0.008115791 -0.0015477171 -0.008102437 0.015326246
000110 f1 33 94 bc 9f e0 6d bc a2 f1 26 bd 43 fd 0b bd
       -0.018091174 -0.014518886 -0.040757783 -0.034177076
000120 08 37 a4 3b a0 cb 33 bd d2 51 84 bc 61 e1 e7 3c
       0.005011443 -0.043895364 -0.016152296 0.028305711
000130 4f e4 0a 3c 3f a8 2a 3c dc 1f 40 3b ca f8 83 3c
       0.008477285 0.01041609 0.0029315865 0.016109843
000140 92 6c 70 bc 76 47 23 bc 12 18 ad bc 4f 3b f2 bc
       -0.014674323 -0.009965768 -0.021129642 -0.029569296
000150 b0 b9 c2 3c cd d2 9c bb 54 bc 57 3c c3 a4 84 3c
       0.023770183 -0.0047858716 0.0131674595 0.016191846
000160 c8 be b0 bb 88 25 8c bb e5 46 ba bc 43 27 fb 3c
       -0.0053938366 -0.004276935 -0.022738883 0.03065837
000170 40 90 9f 3c dd d0 f2 bb 98 d2 8f 3b 08 12 a1 bb
       0.019477963 -0.0074101523 0.0043891184 -0.0049154796
000180 ff 90 13 3b f7 79 54 bc 39 c8 33 bd c1 0c ff 3c
       0.0022516844 -0.012968532 -0.04389212 0.031134011
000190 9d 34 04 bc ec 9f 32 bd 20 f7 cc bc 5e d1 19 bd
       -0.008069185 -0.043609545 -0.025020182 -0.037553184
0001a0 32 ec a6 3b bf ee 4e 39 a5 b6 68 bc c8 59 b9 3c
       0.0050940746 0.00019734631 -0.014203702 0.022625819
0001b0 cf d7 5d bb 69 56 cb 3c cc 37 2a 3c d6 51 2b bd
       -0.0033850556 0.024821477 0.01038928 -0.04182609
0001c0 f9 02 31 3c 2c 04 a2 bc a1 a2 24 bc 76 89 78 3b
       0.010803931 -0.01977738 -0.010048539 0.003792373
0001d0 61 6c f8 bc d2 b9 e9 3b 96 35 10 bc eb e6 21 bd
       -0.030325117 0.007132747 -0.008801838 -0.03952686
0001e0 b0 de 64 3d 23 20 78 3c be 50 42 bc fc 59 b9 bc
       0.055876434 0.015144381 -0.011860071 -0.022625916
0001f0 64 a8 b1 bc 08 2d 81 3b 90 f8 93 3b ba f9 31 3a
       -0.02168674 0.0039421357 0.004515715 0.00067892263
000200 c7 8e 6c 3c c6 b2 9a bc d3 4f 9a 3c 60 ae 8a bc
       0.014438338 -0.018884074 0.018836891 -0.016928852
000210 49 a1 8f bc 5d af 47 bc 4d 73 7b bc 7b 9b 1c 3b
       -0.017532961 -0.012187806 -0.015347314 0.0023896385
000220 ea bd d1 3b 35 99 30 bc eb 38 23 bb 43 80 8b bb
       0.0064008133 -0.010778715 -0.0024905752 -0.0042572333
000230 b5 b3 d1 3b bf 00 15 3a 20 7f dc 3c 7a de 74 3c
       0.0063995966 0.000568401 0.026916087 0.014945621
000240 24 35 64 3b f2 8e b8 bc 88 41 cf 3c 5b 0f fc 3c
       0.0034821713 -0.0225291 0.025299802 0.03076904
000250 09 45 66 3a 4f 92 76 bb bd a9 c3 3c 84 b6 68 bc
       0.0008784091 -0.0037623828 0.023884648 -0.014203671
000260 10 18 02 3d 35 ff ec 3b 09 4f e0 3a f3 e0 89 bb
       0.03176123 0.0072325715 0.0017113398 -0.0042077242
000270 14 4f 8c bc 8d cc ee 3a 8f 6b c0 3c 77 42 07 bc
       -0.017127551 0.001821892 0.023488788 -0.008255593
000280 5b 32 95 3c 68 5c ff bc 50 f4 4c 39 29 01 86 bc
       0.018212488 -0.031171992 0.0001954597 -0.016357975
000290 3a f2 d8 3b 9d ea df 3a db 06 80 3b ca 15 db bc
       0.0066206725 0.001708347 0.0039070672 -0.026743788
0002a0 fa b2 bb bc 46 eb 75 3b 69 c1 b7 bc 51 99 85 bc
       -0.022912491 0.0037524267 -0.022431092 -0.016308459
0002b0 2f 37 bb bc 26 32 79 bc 89 bb 0e bb 96 93 20 3b
       -0.022853462 -0.01520971 -0.002177926 0.002450203
0002c0 66 40 73 3c 53 e8 8e bc e0 13 85 3b 95 1c ae bb
       0.014846897 -0.017444765 0.004061207 -0.005313466
0002d0 51 0d 89 bb 0e 82 04 bc ca c2 44 3c e6 90 cb 3c
       -0.0041824956 -0.008087648 0.012009332 0.024849366
0002e0 14 6c 12 bc e2 18 81 3c 3a d0 e9 bc 57 a5 7c 3c
       -0.008936901 0.015758935 -0.028541673 0.015420279
0002f0 98 b6 be bc cb 47 f8 bb 2a 2b 2a 3c ca 50 8e bc
       -0.023280427 -0.0075769178 0.010386268 -0.017372508
000300 3a 43 85 3b 78 8c 62 3c c1 d5 ee 3c e7 5f 60 bc
       0.004066852 0.013827436 0.02915466 -0.01369474
000310 49 ec 22 3c 5e 1f df bb 57 69 0b ba fc b9 e8 bc
       0.00994403 -0.006809159 -0.0005318126 -0.028408997
000320 ea 21 63 3c b6 65 09 bb 7e 45 d9 ba 9b 42 33 3c
       0.013863066 -0.0020965165 -0.0016576496 0.010941173
000330 f7 84 9e 3c 16 3d b7 ba b6 d3 6e 3c 38 b6 2a 3c
       0.019350512 -0.0013979997 0.014576843 0.010419421
000340 4f 5d e0 bc 37 e4 4a 3c 34 21 4f 3c bc 0e e9 bc
       -0.027388243 0.012383512 0.012642194 -0.028449409
000350 cc b8 d7 3b 55 b3 45 3c f6 88 e4 bb 8c e3 8b 3b
       0.006583309 0.012066682 -0.006974335 0.004269069
000360 72 41 fe bc 3d 25 00 3c 74 ab 14 bc 03 c3 34 3c
       -0.031037066 0.007821378 -0.009074081 0.011032823
000370 90 23 a3 bc 8d 2e 19 bd 9f 2a 8b 3a ae a2 34 3c
       -0.019914418 -0.03739791 0.001061756 0.011025114
000380 fc c9 bb 3b 27 59 82 bc 88 23 59 3c 74 87 9c ba
       0.0057308655 -0.015911652 0.0132531 -0.0011942224
000390 33 6b d4 bb af c7 4e bc 42 f3 4b 3c 7d ae 4e bc
       -0.0064825057 -0.0126208505 0.012448134 -0.012614843
0003a0 fb 3d f5 bb 35 2f 8c bc 6d 4c 19 3c 61 4f 16 bc
       -0.0074841953 -0.017112354 0.0093566 -0.009174199
0003b0 7a 72 5a bc 8b 52 86 bc 9c 0c a1 bc 1e 39 89 3c
       -0.013332957 -0.016396781 -0.019659333 0.016750868
0003c0 5c 5e f5 3c 23 3f a7 3b 1b 4b 09 3c 8e f1 a5 3c
       0.02995222 0.005103962 0.008379723 0.020256784
0003d0 1a bd e3 3b 8e 64 07 3c 2c d9 d7 3c 6b dd 0a bc
       0.006950033 0.00826372 0.026348673 -0.008475642
0003e0 ab 3d 17 3c bf 66 25 bc f2 a8 0b bb 23 71 e5 bb
       0.009231011 -0.010095297 -0.0021310416 -0.0070020123
0003f0 32 c4 79 3c b3 0e 1d 3c 67 91 fb bb 4f 30 6b bc
       0.0152445305 0.009586024 -0.0076772454 -0.014354779

action_model._continuous_distribution.mu.bias f4 [2]
000000 ae 01 36 bc 02 52 bb bb
       -0.011108799 -0.005716563

exp_avg f4 [128, 7]
000000 28 00 00 80 26 00 00 00 04 00 00 00 28 00 00 00
       -5.6e-44 5.3e-44 6e-45 5.6e-44
000010 1e 00 00 80 07 00 00 80 39 00 00 80 eb 84 f4 31
       -4.2e-44 -1e-44 -8e-44 7.1164457e-09
000020 dc cb 28 35 bf 97 ab 32 be 16 04 b0 02 0c 9d b1
       6.288153e-07 1.9976026e-08 -4.805364e-10 -4.5706665e-09
000030 bc 6f 5a ae 84 e4 28 35 79 51 05 3e e8 8c 7b 40
       -4.96667e-11 6.291741e-07 0.1301936 3.9304752
000040 54 97 d2 3d e1 bd 91 b9 b5 92 b9 bc 06 2f f2 b9
       0.1028277 -0.00027798026 -0.022652963 -0.00046192872
000050 26 c6 7b 40 e9 1a 4a 3e d3 62 bb 40 ba 56 1c 3e
       3.933969 0.19736828 5.8558135 0.15267459
000060 49 4d 3b bb 88 6f 12 bd 53 c4 be b9 5e 8e bb 40
       -0.002858 -0.035750896 -0.00036385897 5.861129
000070 04 00 00 80 04 00 00 80 04 00 00 80 04 00 00 80
       -6e-45 -6e-45 -6e-45 -6e-45
000080 04 00 00 80 04 00 00 80 04 00 00 80 04 00 00 80
       -6e-45 -6e-45 -6e-45 -6e-45
000090 04 00 00 00 04 00 00 80 04 00 00 00 0c 00 00 80
       6e-45 -6e-45 6e-45 -1.7e-44
0000a0 04 00 00 80 06 00 00 80 0b c9 61 3e 5a 32 d1 40
       -6e-45 -8e-45 0.22049348 6.5373964
0000b0 25 84 2e 3e 81 bf 59 bb 04 ef 23 bd 8c bf cb b9
       0.17042597 -0.0033225717 -0.040022865 -0.0003886189
0000c0 08 63 d1 40 7f b3 77 3e 8f 4b e6 40 fb 3e 40 3e
       6.543339 0.24189566 7.1967235 0.18774025
0000d0 ee 80 47 bb d0 66 32 bd eb 83 05 ba e3 80 e6 40
       -0.0030441838 -0.04355508 -0.00050932047 7.2032332
0000e0 05 00 00 80 0d 00 00 00 04 00 00 80 09 00 00 00
       -7e-45 1.8e-44 -6e-45 1.3e-44
0000f0 12 00 00 80 04 00 00 80 0f 00 00 80 f1 14 cb 3e
       -2.5e-44 -6e-45 -2.1e-44 0.39664415
000100 ca 6c 3c 41 8c 3a 9d 3e f8 0c b6 bb aa ed 92 bd
       11.77656 0.3070873 -0.005555745 -0.07174237
000110 26 7d 46 ba 8a 98 3c 41 5e 43 8d 3e 11 54 03 41
       -0.0007571749 11.787241 0.2759046 8.208024
000120 68 42 5b 3e 99 d0 64 bb 42 8a 4b bd 1a 97 17 ba
       0.2141205 -0.0034914373 -0.0496924 -0.0005782709
000130 7d 72 03 41 0a 00 00 80 1a 00 00 00 04 00 00 80
       8.215451 -1.4e-44 3.6e-44 -6e-45
000140 0c 00 00 00 37 00 00 80 04 00 00 80 1e 00 00 80
       1.7e-44 -7.7e-44 -6e-45 -4.2e-44
000150 8a 47 42 32 98 62 8a 35 af 0b 0d 33 c1 e8 55 b0
       1.1308552e-08 1.0310496e-06 3.2839747e-08 -7.781971e-10
000160 cb db 01 b2 81 ca a5 ae ba 76 8a 35 50 04 14 3f
       -7.558763e-09 -7.539303e-11 1.0316355e-06 0.5781908
000170 45 83 89 41 0f 8d e5 3e 64 1b f8 bb 45 8e d5 bd
       17.189096 0.44834182 -0.0075716246 -0.104275264
000180 0b 36 9a ba 26 a3 89 41 dc 9d 73 3e 76 2c e2 40
       -0.0011765374 17.204662 0.23790687 7.0679274
000190 19 c0 3c 3e 36 7c 53 bb ef 00 30 bd 13 b6 f5 b9
       0.18432654 -0.003227008 -0.04296964 -0.00046865697
0001a0 ec 60 e2 40 6b 15 08 3f a6 a2 7c 41 8a d3 d2 3e
       7.0743313 0.5315768 15.789709 0.41177016
0001b0 42 86 ee bb cc b5 c4 bd f7 09 88 ba 44 dd 7c 41
       -0.0072791884 -0.096049875 -0.0010378946 15.80402
0001c0 08 00 00 00 11 00 00 80 04 00 00 00 0c 00 00 80
       1.1e-44 -2.4e-44 6e-45 -1.7e-44
0001d0 17 00 00 00 04 00 00 00 13 00 00 00 15 00 00 00
       3.2e-44 6e-45 2.7e-44 3e-44
0001e0 09 00 00 80 04 00 00 80 17 00 00 80 0f 00 00 80
       -1.3e-44 -6e-45 -3.2e-44 -2.1e-44
0001f0 05 00 00 00 14 00 00 00 25 e3 a6 3e d4 cd 1a 41
       7e-45 2.8e-44 0.32595173 9.675251
000200 a2 2b 81 3e cc 5d 98 bb cd b8 71 bd b6 16 20 ba
       0.25228602 -0.0046498533 -0.05901413 -0.00061069
000210 cb f1 1a 41 22 89 02 3f b2 75 72 41 0a 5c ca 3e
       9.6840315 0.509905 15.153734 0.39523345
000220 ef 19 e0 bb de 8d bc bd 81 11 85 ba ed ad 72 41
       -0.006839029 -0.092067465 -0.0010152311 15.167462
000230 29 6a 4d 3e 9a 08 bf 40 15 7a 1f 3e 5b d5 21 bb
       0.20060028 5.9698 0.15573914 -0.002469382
000240 e4 ca 13 bd 53 69 e1 b9 d9 34 bf 40 4c 01 00 00
       -0.036082163 -0.00042993817 5.975201 4.65e-43
000250 2b 05 00 80 70 00 00 80 24 00 00 00 65 00 00 00
       -1.854e-42 -1.57e-43 5e-44 1.42e-43
000260 44 00 00 00 15 05 00 80 bf c9 68 3e fb a1 d8 40
       9.5e-44 -1.823e-42 0.2273321 6.769773
000270 a3 de 34 3e 47 18 30 bb 68 36 27 bd 58 c5 03 ba
       0.17663054 -0.002686994 -0.04082337 -0.000502666
000280 1d d4 d8 40 e8 24 f4 35 ee 55 03 36 13 34 e3 b4
       6.7758927 1.8190158e-06 1.9570539e-06 -4.2319934e-07
000290 a2 6d 10 b4 5d 5f a2 34 10 7d e1 b2 4e 7b 05 36
       -1.3450929e-07 3.0244237e-07 -2.625032e-08 1.9890317e-06
0002a0 5f e9 79 3e 51 b3 e8 40 9f 4e 42 3e 4d c0 36 bb
       0.2440543 7.271889 0.18975304 -0.0027885616
0002b0 df 49 33 bd fe ef 10 ba 1d e9 e8 40 d4 8e 2e bc
       -0.04377162 -0.00055289257 7.278456 -0.01065417
0002c0 61 68 a1 be 1d 94 06 bc 2a d2 32 39 e6 ec fd 3a
       -0.31524947 -0.008214024 0.00017053695 0.0019372969
0002d0 c3 79 92 37 00 8e a1 be 0b 00 00 80 3f 00 00 00
       1.7461256e-05 -0.3155365 -1.5e-44 8.8e-44
0002e0 0a 00 00 80 04 00 00 80 4c 00 00 80 04 00 00 00
       -1.4e-44 -6e-45 -1.06e-43 6e-45
0002f0 16 00 00 00 28 00 00 80 06 00 00 80 0a 00 00 00
       3.1e-44 -5.6e-44 -8e-45 1.4e-44
000300 04 00 00 00 22 00 00 00 0d 00 00 80 28 00 00 80
       6e-45 4.8e-44 -1.8e-44 -5.6e-44
000310 10 00 00 00 0f 00 00 00 06 00 00 80 16 00 00 00
       2.2e-44 2.1e-44 -8e-45 3.1e-44
000320 12 00 00 80 05 00 00 00 0c 00 00 00 50 96 86 3e
       -2.5e-44 7e-45 1.7e-44 0.26286554
000330 bd 8a fb 40 56 31 52 3e 85 c1 19 bb 2f 93 3f bd
       7.860686 0.20526633 -0.0023461294 -0.046771225
000340 0a e0 33 ba ac c4 fb 40 66 44 0b 3f 63 b5 81 41
       -0.00068616925 7.867758 0.5440124 16.213568
000350 40 a2 d8 3e 21 d2 ca bb 32 d9 c7 bd 79 fd a1 ba
       0.42311287 -0.0061896 -0.097582236 -0.0012358866
000360 61 d3 81 41 4b 00 00 00 20 00 00 00 17 00 00 80
       16.228212 1.05e-43 4.5e-44 -3.2e-44
000370 12 00 00 00 44 00 00 80 1a 00 00 00 4c 00 00 00
       2.5e-44 -9.5e-44 3.6e-44 1.06e-43
000380 34 35 b1 3d 52 ee 24 40 7e b5 89 3d a2 e0 85 ba
       0.08652726 2.577046 0.0672407 -0.001021404
000390 77 99 7e bc 18 dc 48 b9 77 14 25 40 d5 6a c9 3d
       -0.015539519 -0.00019155478 2.579374 0.0983483
0003a0 89 15 3b 40 ef 23 9c 3d 35 a4 a9 ba 34 4e 91 bc
       2.9231894 0.07624041 -0.0012942614 -0.017737485
0003b0 ea ea 50 b9 e9 40 3b 40 db 63 9e 3e 38 6f 13 41
       -0.00019923938 2.9258368 0.3093556 9.214653
0003c0 c6 34 76 3e 49 4f 6d bb a3 7e 63 bd f0 8c 34 ba
       0.24043569 -0.0036210588 -0.055540692 -0.00068874564
0003d0 4f 91 13 41 42 d8 8a 3d 86 ae 01 40 aa b6 58 3d
       9.222976 0.06779529 2.026277 0.052908577
0003e0 f0 90 27 ba ed 03 46 bc 88 9c 34 b9 67 cc 01 40
       -0.0006392142 -0.012085897 -0.0001722445 2.0281007
0003f0 e1 11 b3 3e 19 68 26 41 45 e6 8a 3e ea 03 94 bb
       0.34974578 10.400414 0.27128807 -0.004517068

exp_avg_sq f4 [128, 7]
000000 9b 0d 90 3a 5e ee b8 39 ca 0f 5f 39 86 ac c5 38
       0.0010990383 0.00035272812 0.00021272819 9.425827e-05
000010 65 82 99 3a 76 b2 4f 39 62 1d 26 3b ef a3 d2 3d
       0.0011711834 0.0001980754 0.0025347103 0.10285174
000020 0a d7 46 44 1f db 4d 3f b9 6d 0d 3a 0b c9 30 3d
       795.36 0.8041248 0.0005395073 0.04316048
000030 f1 50 3b 39 50 11 47 44 ee 44 f3 40 f2 0e eb 46
       0.00017863863 796.2705 7.6021643 30087.473
000040 b6 90 1d 42 54 1f 85 3c 55 a8 05 40 c3 4e cc 3a
       39.39132 0.01625029 2.0883992 0.0015587438
000050 f7 6c eb 46 ef 7b c3 40 05 8e b8 45 1a f2 8d 40
       30134.482 6.1088786 5905.7524 4.4358034
000060 4b 36 f0 3a 8e 36 7b 3e 59 bf b3 38 6a e2 b8 45
       0.0018326727 0.2453253 8.5710264e-05 5916.302
000070 d3 16 ee 30 47 88 aa 30 08 b3 8a 31 8a 8e b9 30
       1.7323266e-09 1.240786e-09 4.036682e-09 1.3501034e-09
000080 c0 5c 83 34 01 4f 4f 33 6d 65 ea 31 97 08 a1 32
       2.4468136e-07 4.8267797e-08 6.821827e-09 1.8746773e-08
000090 82 46 01 34 0b b7 93 32 9a e9 05 33 89 1b 10 35
       1.2039712e-07 1.719629e-08 3.1178935e-08 5.368425e-07
0000a0 18 1e 43 31 ab 45 30 34 ca f0 f7 40 b1 7c fa 45
       2.839334e-09 1.6416622e-07 7.748143 8015.5864
0000b0 aa 1c cd 40 90 c4 1e 3b 73 ba b2 3e 3d 25 ff 38
       6.409749 0.0024226047 0.34907874 0.00012166284
0000c0 09 ee fa 45 c9 11 17 41 bd c7 69 46 3e f7 85 41
       8029.7544 9.441842 14961.935 16.745724
0000d0 e0 8d a8 3b fb b0 61 3f 85 fd 03 3a 7d 30 6a 46
       0.005143866 0.88160676 0.0005035031 14988.122
0000e0 11 56 92 35 e4 78 ce 36 87 58 01 31 6b ce 69 36
       1.0902896e-06 6.153352e-06 1.8822293e-09 3.4839857e-06
0000f0 22 11 3e 37 ae 17 3b 32 5f 21 f3 36 c7 24 c7 41
       1.1328872e-05 1.0890217e-08 7.2458492e-06 24.892958
000100 d9 86 d1 46 2e b7 ab 41 a4 15 f7 3b a6 6a 93 3f
       26819.424 21.464443 0.0075404216 1.1516922
000110 1b 1f a4 39 9a e3 d1 46 18 de 42 41 d3 62 6d 46
       0.00031303693 26865.8 12.179222 15192.706
000120 31 2b 60 41 31 74 98 3b 9b 84 3d 3f f0 bc 83 39
       14.010545 0.004652523 0.74030465 0.00025127036
000130 9c cb 6d 46 ab 1a 45 35 19 7f bc 36 5f 55 d0 32
       15218.902 7.3427026e-07 5.6176327e-06 2.425321e-08
000140 81 e1 25 36 9d ed a5 37 57 d5 44 33 ac 04 d7 36
       2.4718177e-06 1.978018e-05 4.5828838e-08 6.408043e-06
000150 ed 21 84 3e e2 b1 06 45 98 58 0e 40 8f a6 a7 3a
       0.25807133 2155.1177 2.2241573 0.0012790727
000160 06 48 f1 3d 75 12 ca 37 b9 d9 06 45 ff ce 54 42
       0.117813155 2.4088871e-05 2157.6077 53.202145
000170 47 48 6e 47 a0 f5 4b 42 cd af 9b 3c f8 22 2e 40
       61000.277 50.98987 0.019004727 2.7208843
000180 4a 96 44 3a 7e b0 6e 47 5c 4b 11 41 31 c2 2b 46
       0.00074992015 61104.492 9.080898 10992.548
000190 fe 43 13 41 2c 7a 6c 3b 3d e2 f7 3e 5a 9f 09 39
       9.2041 0.0036083562 0.48414794 0.00013124701
0001a0 5d 0b 2c 46 05 46 33 42 65 99 3d 47 3e de 16 42
       11010.841 44.81838 48537.395 37.717033
0001b0 f7 23 68 3c f9 2a 01 40 0b c9 bd 39 fa eb 3d 47
       0.014168731 2.0182478 0.00036198678 48619.977
0001c0 b6 17 e7 34 9b 13 5c 36 a8 c8 38 32 0f f3 b3 35
       4.3044355e-07 3.2793967e-06 1.0755834e-08 1.3407279e-06
0001d0 68 76 18 37 94 83 a0 32 81 41 79 36 e7 de c3 36
       9.087475e-06 1.8686286e-08 3.714202e-06 5.837402e-06
0001e0 d1 ed 62 37 58 0f db 35 5a 5d 61 37 b5 13 5f 36
       1.3526021e-05 1.6321237e-06 1.343278e-05 3.324106e-06
0001f0 38 90 11 35 85 d1 d3 36 3f de 87 41 a8 62 8a 46
       5.4226575e-07 6.3126813e-06 16.983519 17713.328
000200 f3 7b 54 41 14 7b b8 3b 73 41 38 3f 27 76 32 39
       13.280261 0.0056299064 0.7197487 0.00017019418
000210 34 9f 8a 46 65 ba 25 42 2b d7 3c 47 dd a5 23 42
       17743.602 41.432026 48343.168 40.911976
000220 10 9c 76 3c e9 74 0b 40 37 13 1c 3a 8a 29 3d 47
       0.015051857 2.1790106 0.0005953791 48425.54
000230 c2 53 d2 40 71 92 f3 45 6e c4 ec 40 91 0d 26 3b
       6.5727243 7794.305 7.398978 0.0025337676
000240 48 5f ca 3e f2 3a 2d 39 43 02 f4 45 75 55 35 3a
       0.3952582 0.00016520525 7808.2827 0.0006917336
000250 31 11 17 3c 1c f9 5f 3a 23 04 62 39 3e 4d 70 3a
       0.009220407 0.0008543895 0.0002155458 0.00091667834
000260 64 8e d8 37 a7 31 61 3c 1f 3b 09 41 9b f4 47 46
       2.5815512e-05 0.013744748 8.576934 12797.151
000270 6b 78 52 41 04 78 a3 3b 3c 37 32 3f c2 a4 9f 39
       13.154399 0.004988672 0.6961553 0.00030449597
000280 94 4b 48 46 0c 7d fc 3a b5 ab 16 3b 8a 3c 11 39
       12818.895 0.0019263341 0.002299053 0.0001385083
000290 59 92 09 38 db 4d 37 39 82 1b a8 37 24 5b 22 3b
       3.2799642e-05 0.00017481243 2.003997e-05 0.0024773562
0002a0 98 08 23 41 14 7f 87 46 32 66 87 41 61 54 d0 3b
       10.189598 17343.54 16.9249 0.006357715
0002b0 74 5d 60 3f 8b 60 94 39 53 b5 87 46 6e 1f b1 3e
       0.876426 0.0002830069 17370.662 0.3459429
0002c0 f3 cf 82 45 24 a8 cc 40 f9 9a f0 3a 2d 27 a8 3e
       4185.9937 6.395525 0.0018356732 0.3284239
0002d0 2e da 5a 39 e3 05 83 45 53 95 5b 3b 5a 4e de 3b
       0.00020871378 4192.736 0.0033505752 0.0067842426
0002e0 f0 4f d9 39 e8 3f 1e 3a 38 e0 7c 39 30 7f f3 38
       0.00041449023 0.00060367445 0.00024116121 0.000116108335
0002f0 40 fa 0a 3c b0 a7 d2 37 a8 e9 a3 38 5b d8 b2 37
       0.008482516 2.5112036e-05 7.8159675e-05 2.1320002e-05
000300 ea 8c 48 37 f3 25 52 38 0d 06 fc 36 40 7d 13 39
       1.1953738e-05 5.0103245e-05 7.5108896e-06 0.00014065672
000310 84 a2 27 3a d6 74 e5 39 cf 4c 49 39 e7 6a 99 37
       0.0006394761 0.00043765333 0.00019197467 1.8288802e-05
000320 d1 84 5b 3a 7c 09 1a 39 f0 b6 eb 3a 96 c2 6e 41
       0.0008373978 0.00014690118 0.0017983597 14.922506
000330 36 e3 0a 47 2b 3e 30 42 38 3e 8d 3c 69 00 15 40
       35555.21 44.06071 0.017241582 2.32815
000340 67 6e e4 3a 3b 1e 0b 47 95 00 4a 42 30 d6 99 47
       0.0017427922 35614.23 50.50057 78764.375
000350 2a 09 9f 42 45 cd f3 3c b1 29 86 40 a3 a3 02 3b
       79.5179 0.029760966 4.1925893 0.001993396
000360 35 17 9a 47 e7 93 59 3a 56 9e 45 39 95 ce 36 37
       78894.414 0.0008299932 0.00018846369 1.0896144e-05
000370 a1 96 bf 39 53 14 85 39 42 3a 1a 38 3a 59 ee 39
       0.00036542586 0.0002538288 3.6770718e-05 0.00045461376
000380 8c 15 b4 3f 45 75 0b 45 b1 8f 1d 40 bd db 5f 3a
       1.4069076 2231.3293 2.4618952 0.00085395185
000390 7f fb 07 3e 7d 66 be 38 2d b3 0b 45 1e 74 c8 3f
       0.13279532 9.078996e-05 2235.1985 1.5660436
0003a0 fd 57 15 45 c1 c6 0d 40 49 8a 0f 3a 02 48 e6 3d
       2389.4993 2.215256 0.0005475623 0.11244203
0003b0 8c 37 50 38 7b 94 15 45 15 d4 81 41 dd 75 dc 46
       4.9642797e-05 2393.28 16.228556 28218.932
0003c0 53 22 03 42 85 71 2e 3c c8 a2 db 3f 53 bd 75 3a
       32.78352 0.010647182 1.7159052 0.000937422
0003d0 e8 d7 dc 46 49 ea 66 3f b1 64 0a 45 fe ae 27 40
       28267.953 0.9020124 2214.2932 2.6200557
0003e0 53 e1 57 3a 15 6a 0c 3e 50 4f 92 38 0d 9d 0a 45
       0.0008235175 0.13712342 6.9765956e-05 2217.8157
0003f0 9b 21 9f 41 f3 8d d2 46 63 dc c1 41 5e 34 0f 3c
       19.891409 26950.975 24.23261 0.008740513

exp_avg f4 [128]
000000 04 00 00 80 9e f4 de 2b ec 42 f2 36 1c 2e 33 37
       -6e-45 1.5841944e-12 7.2199527e-06 1.0679967e-05
000010 04 00 00 80 04 00 00 80 f6 fb 47 37 50 77 5c 37
       -6e-45 -6e-45 1.19199885e-05 1.31408015e-05
000020 04 00 00 80 68 3a b4 37 17 71 7b 37 04 00 00 80
       -6e-45 2.148487e-05 1.4987097e-05 -6e-45
000030 89 8d 37 2c 21 9a 03 38 cc 63 58 37 5f b0 f1 37
       2.6084432e-12 3.1376378e-05 1.2897839e-05 2.8811568e-05
000040 04 00 00 00 04 00 00 00 e0 0e 94 37 79 02 e8 37
       6e-45 6e-45 1.7649902e-05 2.7657707e-05
000050 a3 e5 36 37 04 00 00 00 f2 75 4f 37 7c 56 73 ae
       1.0901512e-05 6e-45 1.2365623e-05 -5.5328617e-11
000060 bf e6 5e 37 41 25 1a b5 04 00 00 80 04 00 00 80
       1.3285956e-05 -5.742368e-07 -6e-45 -6e-45
000070 04 00 00 00 29 50 71 37 69 87 f8 37 04 00 00 00
       6e-45 1.4383383e-05 2.9626959e-05 6e-45
000080 a2 f5 9d 36 b0 05 b3 36 a1 35 8d 37 eb c5 78 36
       4.70756e-06 5.335278e-06 1.6833483e-05 3.7070083e-06
000090 a1 45 9f 37 04 00 00 00 04 00 00 80 04 00 00 80
       1.89867e-05 6e-45 -6e-45 -6e-45
0000a0 2c 61 cb 37 de 49 c3 37 5d 16 c8 37 f7 72 c5 36
       2.4244735e-05 2.3280209e-05 2.3852272e-05 5.884441e-06
0000b0 4c 20 44 37 5f 75 88 b6 04 00 00 00 17 da bf 36
       1.169003e-05 -4.0667796e-06 6e-45 5.7176326e-06
0000c0 04 00 00 00 04 00 00 00 04 00 00 80 04 00 00 80
       6e-45 6e-45 -6e-45 -6e-45
0000d0 ff 50 70 37 04 00 00 80 04 00 00 00 6f 6f a6 36
       1.4323973e-05 -6e-45 6e-45 4.960158e-06
0000e0 c7 22 45 37 99 ad 21 37 04 00 00 00 56 12 ae b3
       1.1750212e-05 9.636767e-06 6e-45 -8.105842e-08
0000f0 04 00 00 00 7c e8 2d 37 04 00 00 00 04 00 00 00
       6e-45 1.0365733e-05 6e-45 6e-45
000100 fe 64 14 37 7c 18 eb 36 04 00 00 00 04 00 00 00
       8.8450015e-06 7.006396e-06 6e-45 6e-45
000110 24 22 1f 37 0d 5b 8b 37 3c 2a 93 37 04 00 00 00
       9.4850875e-06 1.661249e-05 1.7543432e-05 6e-45
000120 a7 65 00 00 f9 7a 52 37 04 00 00 00 80 74 52 b6
       3.6466e-41 1.2545607e-05 6e-45 -3.136025e-06
000130 04 00 00 80 04 00 00 80 11 93 a1 36 ed ed 04 38
       -6e-45 -6e-45 4.8152947e-06 3.1692838e-05
000140 0e 00 00 00 04 00 00 80 1b 02 80 b5 bb e1 07 36
       2e-44 -6e-45 -9.537356e-07 2.024796e-06
000150 04 00 00 00 70 d4 df 37 c5 8e b6 37 3c 7f cb b5
       6e-45 2.6682595e-05 2.1762573e-05 -1.5161709e-06
000160 04 00 00 80 04 00 00 80 81 10 b6 37 03 e8 88 b6
       -6e-45 -6e-45 2.1703776e-05 -4.0801256e-06
000170 04 00 00 80 04 00 00 00 04 00 00 00 04 00 00 00
       -6e-45 6e-45 6e-45 6e-45
000180 04 00 00 80 96 b4 a9 37 97 83 de 36 05 11 9d 37
       -6e-45 2.0230462e-05 6.6314346e-06 1.8723784e-05
000190 10 44 8e 37 be 24 1b b6 cd 15 59 37 04 00 00 00
       1.6959413e-05 -2.3118187e-06 1.2939284e-05 6e-45
0001a0 f4 ba 53 37 c9 1e ff 37 c3 ea 8e b6 04 00 00 80
       1.26201085e-05 3.0412704e-05 -4.2592596e-06 -6e-45
0001b0 04 00 00 00 95 c4 18 38 04 00 00 00 dd c4 56 37
       6e-45 3.6422705e-05 6e-45 1.280123e-05
0001c0 8e 88 bb 37 c9 df bf 36 de 5c 5f 36 04 00 00 80
       2.2355725e-05 5.7182956e-06 3.3283645e-06 -6e-45
0001d0 04 00 00 80 04 00 00 80 04 00 00 00 77 fb fb 37
       -6e-45 -6e-45 6e-45 3.003863e-05
0001e0 04 00 00 80 74 d5 b6 37 af 24 28 37 6e 54 9f 37
       -6e-45 2.1795488e-05 1.0022121e-05 1.8993593e-05
0001f0 7a 8b 23 38 3f 07 68 36 89 43 ea 37 1f d1 26 37
       3.8992126e-05 3.4574912e-06 2.7926422e-05 9.943061e-06

exp_avg_sq f4 [128]
000000 cb 7e 61 33 95 68 a4 33 71 5b 3e 35 1d 2b 9c 33
       5.2502212e-08 7.6558685e-08 7.091358e-07 7.272158e-08
000010 55 56 9d 30 d9 95 6b 31 a4 9f a6 33 92 7e 6b 34
       1.144779e-09 3.428218e-09 7.759016e-08 2.1932127e-07
000020 b7 1d f1 31 c5 45 2a 34 d0 c7 0b 34 05 46 b4 32
       7.0174013e-09 1.5857866e-07 1.3018075e-07 2.09866e-08
000030 2f a5 c8 32 5c a9 d8 34 86 72 93 33 db 16 82 34
       2.3358181e-08 4.035636e-07 6.8660526e-08 2.4231016e-07
000040 84 e6 13 32 d6 e6 11 30 3e 72 c2 33 c0 e7 ad 34
       8.608939e-09 5.307873e-10 9.0546095e-08 3.239238e-07
000050 6e 16 af 33 24 a2 17 33 ec 49 1f 34 ae 41 56 31
       8.1531525e-08 3.5304893e-08 1.4834922e-07 3.1178433e-09
000060 19 84 18 34 60 ef c6 33 bb c0 7c 33 85 af bc 30
       1.420416e-07 9.2636355e-08 5.884861e-08 1.3728686e-09
000070 79 50 c3 32 f6 e7 3c 35 7c 56 81 35 9b 2a a4 32
       2.2737582e-08 7.0373005e-07 9.636419e-07 1.9111488e-08
000080 2d 09 53 33 0e 2e 8e 32 3c 59 e9 34 8b a5 19 33
       4.913561e-08 1.6551919e-08 4.3464559e-07 3.577365e-08
000090 42 18 51 34 50 cc eb 30 c6 b3 6b 30 ec e0 59 2f
       1.9473467e-07 1.715657e-09 8.5747975e-10 1.9815943e-10
0000a0 6e 26 f8 34 ba a6 a0 34 36 ab 39 35 94 15 64 33
       4.622156e-07 2.9923632e-07 6.9167015e-07 5.3105012e-08
0000b0 62 b7 9c 34 f2 21 41 35 95 8e fb 2d 22 ec cb 33
       2.9190693e-07 7.19475e-07 2.8598715e-11 9.4958764e-08
0000c0 c3 6d e6 31 63 1e 6e 31 31 5f d1 31 1a fe 12 31
       6.7063595e-09 3.465083e-09 6.0935226e-09 2.1390236e-09
0000d0 d7 b5 d7 33 6b d8 ee 31 aa 66 cd 30 0d 6c 88 33
       1.0044794e-07 6.9513155e-09 1.4944892e-09 6.352648e-08
0000e0 77 50 5b 34 13 94 87 34 e7 42 65 32 f7 16 97 32
       2.0425237e-07 2.5253448e-07 1.3344766e-08 1.7589157e-08
0000f0 38 81 69 32 c9 e2 dd 33 cb 95 53 30 c9 09 92 32
       1.3591766e-08 1.03323664e-07 7.697422e-10 1.7001087e-08
000100 a0 c4 2b 34 98 d2 7f 34 fe cf f7 2e 4c e4 d0 31
       1.5997148e-07 2.3825339e-07 1.12692064e-10 6.079551e-09
000110 98 e2 d2 33 eb 65 31 34 ce 5c 90 35 b2 2e 0e 32
       9.820104e-08 1.6521487e-07 1.0755846e-06 8.276105e-09
000120 17 0c b7 32 84 74 63 34 5e f0 b0 31 cf c7 24 34
       2.1309502e-08 2.118341e-07 5.1496007e-09 1.534638e-07
000130 80 80 9c 31 ec c4 c7 32 ad 08 f8 33 1b 00 9a 34
       4.5548063e-09 2.3256199e-08 1.1549978e-07 2.8684812e-07
000140 d8 ed b6 32 18 43 b4 30 14 2f 83 34 31 f3 68 34
       2.1295747e-08 1.3115793e-09 2.4434905e-07 2.1695156e-07
000150 08 e1 7a 32 61 79 5b 34 96 88 8a 34 1d 9d 76 33
       1.4603081e-08 2.0440122e-07 2.5803882e-07 5.7419232e-08
000160 e1 62 ef 30 c1 b5 cf 32 b8 bf 70 35 10 5a a4 33
       1.7417642e-09 2.4180624e-08 8.9685955e-07 7.6532274e-08
000170 05 23 f9 31 85 2d fb 31 66 25 61 32 11 25 ab 32
       7.250835e-09 7.3102364e-09 1.3105227e-08 1.9923876e-08
000180 28 19 bf 2c 9a c7 4c 34 55 05 23 35 58 4e 38 34
       5.4313394e-12 1.9071595e-07 6.072999e-07 1.7164837e-07
000190 0d fc 31 34 52 47 07 34 f7 f9 be 33 87 6e b7 30
       1.6576105e-07 1.2598801e-07 8.893033e-08 1.3346416e-09
0001a0 38 71 a7 33 e0 dc 52 35 65 28 06 33 5e 6e 26 30
       7.797138e-08 7.855251e-07 3.1236045e-08 6.054729e-10
0001b0 87 34 8b 32 7c 4f 85 35 bb fc 15 2e 8d 46 86 33
       1.6205616e-08 9.932405e-07 3.4103147e-11 6.2526944e-08
0001c0 15 b3 ac 34 39 d6 4a 34 27 6e 00 34 66 e8 00 32
       3.2167796e-07 1.889065e-07 1.1961002e-07 7.503422e-09
0001d0 a9 59 e2 2d e5 d1 ec 30 20 6b b6 30 b7 28 54 35
       2.5733042e-11 1.7230916e-09 1.327269e-09 7.90354e-07
0001e0 64 0b 83 2c 91 fa ec 34 d0 db bb 34 dd 03 88 34
       3.7245085e-12 4.4140737e-07 3.49914e-07 2.5334785e-07
0001f0 33 64 8c 35 ef bd 86 33 54 36 28 35 e2 bf 2a 35
       1.0459975e-06 6.27441e-08 6.2663935e-07 6.360916e-07
