Assets/results/petfollower13/PetFollower/PetFollower-17223.pt (torch, 444891 bytes, 36 tensors)

network_body._body_endoder.seq_layers.0.weight f4 [128, 7]
00000000: 020f ee3e c2e9 fe3e bd8f b4be 83e8 0c3d
00000010: dded cd3e 6f88 aabe 3a6d 323d 1992 003e
00000020: e334 23be 52ef 6ebf dc94 c2be 46c7 073f
00000030: 178e d6be 28a0 0abf 907f a1be d327 d7be
00000040: 287a 063e e4a7 28bd 034b a83d 6828 3ebd
00000050: 7519 3ebf a6af c3be b525 ccbe f624 143e
00000060: a099 7abe 7c6b 373c 2bd4 8a3e 9e51 723e
00000070: b821 44bd 89a2 2a3e 7b8c e5be db2c f23e
00000080: f3bb 523f 5e6e 34be b281 03bf d242 343d
00000090: 626b 99be 76f3 893f 0af3 62be ef98 ab3e
000000a0: 5270 73bd b30e d6bc e508 9b3e f4c4 69be
000000b0: 0e6e 423e b97d 7f3f df27 09bf 7c9b e23e
000000c0: c070 2bbe c2cd cfbc fed3 b4be 5e1a d23e
000000d0: 5eaf 6abe 125a 76be b85e d0b9 6e88 cfbe
000000e0: a509 97be 28a9 11bd 4d92 053e eaa9 533f
000000f0: 7bcb 97be 1a1e 503e c873 89be fa17 113f
00000100: 4264 c7be b481 2a3f 6098 243f b4bf 4abe
00000110: 1ba5 c6be 0645 0fbd d820 22bf 09ea e83e
00000120: 090e bfbe ddba febc c3f3 e63e f675 ddbd
00000130: ba63 abbe 8adb 88bd b1c6 84be 9b32 5b3e
00000140: bef8 88be 5759 67be 5080 3a3f 64cd d93d
00000150: c1e8 e43e f485 e03d 976a a13e 2cd4 8ebe
00000160: 0a02 6f3e 711b 49bf 3968 833e 36ff f73d
00000170: ea35 333e 60cf 103f 5b38 7abe 9cc5 ed3e
00000180: 3107 5bbe 9f03 613e 5769 a73e 919b 87bc
00000190: a359 d73e ea28 e1be 9410 6cbc 0259 a9bd
000001a0: 81ec 38bd ae5f d0be 8d8c 9c3e 8917 46bd
000001b0: 4a53 17be b783 313f 8e54 223d 55f3 f3be
000001c0: 4849 2cbe aa2c dc3e 52f5 5ebb 076a 18be
000001d0: 63c6 28bf 60be 8fbd f87f 5bbe 9445 e63e
000001e0: 31dc ab3e 7bdc 533f 7ad0 c5be 9ea0 9f3e
000001f0: 66d3 b0bd a7ef bc3d 4993 7a3d 3270 8bbe
00000200: 30f5 fcbd 1d76 2ebf e6e6 ffbe fe48 263e
00000210: f700 2ebf 0b31 2bbf d973 08be e909 debe
00000220: b8c5 edbd 3237 b63e efd6 e23e 48b1 6e3e
00000230: 56bd 5a3f 7da3 083f 9e6f ee3d 2d6b 3abe
00000240: 1f95 adbe 0cba 23be 9da6 823e d477 06bd
00000250: 2d8e 443f e6a9 15bd 8212 653f c2a7 9f3e
00000260: 8f89 eb3e 5dac ae3d 5190 353e ef59 05be
00000270: a5d7 bd3e a90d e03e 3c10 0ebe 7080 66be
00000280: 3a72 493e 1699 e03e 1d41 923e 9cce e13c
00000290: c403 c4be 4b9e 7b3d 6511 4c3e f8be 463e
000002a0: b334 6d3e 34d3 81be bf2e 5dbe 8ad2 eb3d
000002b0: 77e8 e9be 5a47 cdbb e205 04bf 337e 24bd
000002c0: 01f4 a43e d2a3 233f d7e6 25be 8a8d 0abf
000002d0: cdf0 d0be b318 65bf d63b 2fbe 5a37 8bbe
000002e0: 506a 323e af76 afbd ef0e 43be 0e07 b73c
000002f0: 52eb d03e 48d5 ce3e 2045 003e 8d26 563e
00000300: ab95 94be 1a77 efbd cdac b9be ef4f c4be
00000310: ec8a f93d 9be4 d6be d353 673f c18c 9e3d
00000320: 7c24 f73e 27b4 bd3e a4d9 0d3e cf84 e33d
00000330: 5fc5 dc3e b212 093f 4853 19be c264 aabe
00000340: 7430 b1be fab8 82b9 c7d8 be3e 9a63 1abf
00000350: a560 11bf 3922 96be 559b 033f 4b4b 803d
00000360: a9a0 09bf 0e01 9dbe a40c 983e 510f 4e3e
00000370: 7bb8 a1be a894 583e e0e3 bc3a f57b 673f
00000380: 4b14 2cbf 9705 903d 6125 34bf 0986 b03e
00000390: eeff bbbe 2e51 e1bd 0740 2abc 378d d3be
000003a0: 4d6e 0abf 3ef1 57bd 0fd6 e63e dd9d 21bc
000003b0: 53e9 73be 4d08 543e 8ff9 0e3e 8e2a 84be
000003c0: 2245 acbe d701 afbe 5a57 9e3e 286b cfbd
000003d0: 07a6 27bf 84bd 073f c96d 973e 2f5f 103e
000003e0: da4e 00bf f38d d53e 44f4 fc3d 4b7a 203f
000003f0: d398 c1be 8c54 01bc e583 033f 19cd 2b3e
0.46495825 0.49787718 -0.35265914 0.034401428 0.40220538 -0.33307216 0.043561198 0.12555732
-0.15938143 -0.93333924 -0.38004196 0.5303844 -0.4190528 -0.5415063 -0.31542635 -0.4202257
0.13132536 -0.041175738 0.08217432 -0.046425253 -0.74257594 -0.38219947 -0.39872518 0.14467224
-0.24472666 0.01119506 0.27114996 0.23663947 -0.04788372 0.16663565 -0.4483374 0.47299847
0.8231804 -0.17620227 -0.51369774 0.044009037 -0.2996474 1.0777423 -0.22163025 0.33515117
-0.05943329 -0.026130056 0.30280223 -0.22829038 0.18987295 0.9980121 -0.53576463 0.4425925
-0.1674223 -0.025366668 -0.35317987 0.41035742 -0.2291846 -0.24057797 -0.00039743423 -0.40533775
-0.29499546 -0.03556171 0.1304409 0.82681143 -0.2964743 0.20323983 -0.26846147 0.5667721
-0.38943678 0.6660416 0.64295006 -0.19799691 -0.3879784 -0.034977935 -0.63331366 0.45491055
-0.37315395 -0.031094963 0.4510785 -0.10813515 -0.33474523 -0.06682499 -0.2593284 0.21406023
-0.26752275 -0.22592674 0.7285204 0.10634878 0.44708827 0.109630495 0.31526634 -0.2789625
0.23340622 -0.785575 0.25665453 0.121092245 0.17501035 0.5656643 -0.2443556 0.46439826
-0.21389462 0.21974038 0.32697555 -0.016553672 0.42060575 -0.43976527 -0.014408249 -0.0826893
-0.045147423 -0.40697998 0.30575982 -0.04836229 -0.14777866 0.69341606 0.03963142 -0.47646585
-0.1682483 0.43002826 -0.0034020734 -0.14884196 -0.65927714 -0.07018733 -0.21435535 0.4497496
0.3356643 0.827583 -0.38635617 0.3117723 -0.08634071 0.092253976 0.06117562 -0.27234036
-0.12351453 -0.68148977 -0.4998085 0.16238782 -0.6797022 -0.6687171 -0.13325442 -0.43366936
-0.116099775 0.35588986 0.44304606 0.23309815 0.85445154 0.53374463 0.11642383 -0.18204947
-0.33902833 -0.1598894 0.2551774 -0.03282912 0.76779443 -0.03653898 0.89481366 0.31182677
0.46003386 0.085289694 0.17730834 -0.13022588 0.37078586 0.43760422 -0.1387338 -0.22509933
0.1967248 0.43866795 0.28565302 0.02756434 -0.38284123 0.061430257 0.1992851 0.19408786
0.23164634 -0.25356448 -0.21599863 0.115147665 -0.4568517 -0.0062646093 -0.51571476 -0.040159415
0.3221741 0.63921845 -0.1620134 -0.5412222 -0.40808716 -0.89490813 -0.1711267 -0.27190667
0.17423368 -0.08567559 -0.19048665 0.022342231 0.40804535 0.40397096 0.12526369 0.20913143
-0.29020438 -0.11692639 -0.3626465 -0.38342234 0.121847 -0.41971287 0.9036228 0.077416904
0.48270023 0.37051508 0.13852555 0.111093156 0.43119332 0.5354415 -0.14973176 -0.33279997
-0.3460728 -0.0002493335 0.37274763 -0.6030823 -0.5678809 -0.29322985 0.5140889 0.06264361
-0.5376077 -0.30664867 0.29697144 0.2012303 -0.3158606 0.21150458 0.0014411174 0.9042352
-0.67218465 0.07032316 -0.70369536 0.3447726 -0.36718696 -0.11001812 -0.010391242 -0.41318676
-0.54074556 -0.0527203 0.4508519 -0.009864298 -0.23819475 0.20706291 0.13962387 -0.25813717
-0.33646494 -0.3418109 0.3092602 -0.1012786 -0.6548771 0.5302355 0.29575947 0.1409881
-0.5012032 0.4170986 0.123512775 0.62686604 -0.37811908 -0.007893693 0.5137313 0.16777457

network_body._body_endoder.seq_layers.0.bias f4 [128]
00000000: 8331 d3bb 80d0 5d3c 423a b1bc 3766 05bd
00000010: d03e b23a 6ea6 273b 6285 1f3d 8ff5 e3bc
00000020: 8ba9 30bd 69a2 a73c 02b1 cbbc 8bcd 7f3c
00000030: 3e0a 41bc 9735 02bd 9f2b 29bc 9ccc b63b
00000040: 3c5f a4bc 8e17 11bc 60ef 18bd a9ea f03a
00000050: ee45 adbc ef73 c4ba cd98 a03b 1289 04bc
00000060: 1a5c eab8 1422 113c 62a5 8cbc 8970 24bd
00000070: 94ad 633c e6b3 84bc f88f f03b 862a 09bc
00000080: 6a3c a2bb 3ebb 413b 007a 1b3c 3147 15bd
00000090: a15f d8bb 9981 403c a557 483c ad2e a7bc
000000a0: c9c3 0a3d a695 80bc 7c3c 6cbb 565d a5bc
000000b0: 7c9f c6ba 579c aaba b19d 88bc 65b6 0d3b
000000c0: db50 b03c a84a feba 9ba2 cd3c a814 a0bc
000000d0: e92d 54bd d532 1f3c fcde e53c 919d 43bc
000000e0: 9e2b 1cbc 2d1f 7abc 452b 68bc 0366 a53c
000000f0: 6900 87bb e5bc e1bc f095 843a 45fc 20bc
00000100: 3229 7c3c 1c09 e43c 2b13 44bc cd19 8abc
00000110: d44e 243b 1487 e1bb c0c8 a2bb e66f 1ebb
00000120: cdfc 2f3c 7a56 8dbc 833e 303b ae6b f7bc
00000130: 0f64 0d3c 9397 b3bb 3021 183b 38c7 e03c
00000140: b4ab 7dbb 115a 553c f293 0f3d 80ff 583d
00000150: bbd3 ab3a be86 a0bc f171 05bd 3f63 2fbc
00000160: dd6e 2cbc 6a72 3b3c 339a c9bb f625 9cbb
00000170: 185b 4cbc 7c54 5dba cc4c 9dbb 4ab9 0abc
00000180: 6d0a 9b3a 5989 c63b 6ccc caba 93da 863c
00000190: 68b0 a33c c556 bc3b f9be cf3a c589 82ba
000001a0: f98c 23bc e441 443c e481 82bc accc a53b
000001b0: 7943 e0bc 1c55 dbbc a778 74bc d52a 43bb
000001c0: e0ac a8bb 931d b63b 0076 3dbc c68d c23c
000001d0: e2e7 173c 0398 98bc dfa8 8cbc 5ea2 5a3c
000001e0: 7f68 683b 7dd8 863c b604 67bc 854a a8bc
000001f0: 4944 4c3c 11e5 ddbc f943 fcb9 bc91 883c
-0.0064451112 0.01353848 -0.021634225 -0.032568183 0.0013599042 0.0025581378 0.038945563 -0.027827052
-0.04313044 0.020463185 -0.024864677 0.01561297 -0.011782227 -0.03178939 -0.0103253415 0.0055785906
-0.020064943 -0.0088557135 -0.03733766 0.0018380481 -0.02115151 -0.0014988164 0.004901028 -0.008089321
-0.00011175145 0.0088582225 -0.017168704 -0.040146384 0.013896365 -0.016199064 0.007341381 -0.008371955
-0.0049510496 0.0029561068 0.009489536 -0.036444847 -0.0066031967 0.0117496485 0.012227927 -0.020407999
0.03387812 -0.015696358 -0.0036046794 -0.020186108 -0.0015153731 -0.0013016564 -0.016676756 0.0021623608
0.02152293 -0.0019400911 0.02510195 -0.0195411 -0.051801596 0.009716709 0.028060429 -0.011939422
-0.0095318835 -0.015266222 -0.0141704725 0.020190245 -0.004119922 -0.027555892 0.0010115486 -0.009825771
0.015390681 0.027836375 -0.011967461 -0.016858006 0.00250714 -0.0068825576 -0.004967779 -0.0024175583
0.010741425 -0.01725315 0.0026892729 -0.030202713 0.008629813 -0.0054807155 0.002321314 0.027438745
-0.003870708 0.013021962 0.0350532 0.05297804 0.0013109365 -0.0195955 -0.032579366 -0.010704814
-0.010524479 0.011440853 -0.006152415 -0.0047652675 -0.01247289 -0.000844307 -0.0048004147 -0.008467028
0.0011828669 0.0060588536 -0.00154723 0.016461646 0.019981578 0.0057476484 0.0015849761 -0.0009959271
-0.009982341 0.0119786 -0.015931077 0.005059799 -0.027375923 -0.026773982 -0.014921344 -0.0029780169
-0.0051475614 0.0055577247 -0.011563778 0.023749243 0.009271594 -0.018627172 -0.017170368 0.013344375
0.0035462675 0.016460652 -0.014100244 -0.020543346 0.012467452 -0.027086766 -0.0004811583 0.016671054

network_body._body_endoder.seq_layers.2.weight f4 [128, 128]
00000000: 18c8 353d c759 a73d e217 83bd 5732 3f3e
00000010: d5f3 e3bc d548 5f3d da9a 41bd 01a2 f03c
00000020: d3bf cebd d140 10bb 8208 62bc e043 fbbc
00000030: b700 653d a69b babc bd5e 47bd 6b4d 07be
00000040: a068 33bd f138 c83d 9383 bd3d f3d3 0ebd
00000050: f64a 133e cb79 f5bd 4ce5 1a3c 5151 023e
00000060: da2b c0bc 8c3f fcbd 6425 12bd 27ad 773d
00000070: c40f 1cbd d0b0 143c 7cd3 1c3e a1b9 c43c
00000080: 8732 413d 0546 ad3d aa4d 753e cdb2 8e3d
00000090: b50b 91bd ad2e 833d 7c8c b83d e0df b3bd
000000a0: b8be 4f3c 4056 063e b16b 92bc ba12 10be
000000b0: cfbb f83d da6c 84bd 40e4 f4bc 7490 f83d
000000c0: 2685 1f3d 809c eb3d 4220 3fbd 3db3 4c3e
000000d0: 104c 6ebe f203 153d 6db6 323b d78b fabd
000000e0: 8f3f 9bbd 2ac7 09bd 9b2f 02be 78ba 063d
000000f0: 3375 953d 969b 433d 6ebe d3bd f3f6 81bc
00000100: 661d 28bc 7fe9 19bc 045d 6b3d a33b 823d
00000110: 4982 c1bd 380e f93d 7a68 e2bc f2ed 1dbd
00000120: b6ed 483e b474 adbc a39c 51bd 200a 243c
00000130: eb2a d53b 25e9 2e3d ddbe 27be 8cc1 f0bd
00000140: 8eff 143e 7fbd 20be db51 3bbd 29be 38bb
00000150: 21b7 70bd b898 04be 3878 84bc 4bd0 04bd
00000160: 53e0 8dbd 1c18 743a a795 07be afc4 0dbb
00000170: ab48 bd3c b016 40bc abde 1cbc b8f2 fa3c
00000180: 1247 2abc e85e 64bd 8468 03bd 8a5e adbd
00000190: 56b9 093d 373b a93b 1845 32be 5ded 15bc
000001a0: 4ea8 3a3c 1854 5bbe 4125 3b3d fabe 52bb
000001b0: 4bd2 7fbd 943b 98bd 734c 1d3e 227c 8dbd
000001c0: ae6a 9b3c 3384 b1bd bac1 b23c 895d a63d
000001d0: 6acc c63c 9cc9 f6bd e8cd ecbc 6acb 55bd
000001e0: 7937 a53d 9745 763d 7c7d f2ba 169c 163d
000001f0: 441c 40bd fa11 ae3d 2249 1dbe 03f3 4cb9
00000200: af27 b73d 492f 93bc e912 95bd 34ec 7e3c
00000210: 3ba3 963d acfb a23b 3b0f 1dbc 2a31 333e
00000220: e4d0 393c cd8c cc3d 280a b33c b665 a5bd
00000230: f87b c0bd f328 b03c 0c94 e33c 3dc6 0abe
00000240: c092 033d 1f4b ddbc c154 8ebc 68d4 a7bd
00000250: 2caa 683d dae1 003c 3700 5f3d 86ff e3bd
00000260: 2303 a33d 08c4 d53c fd24 62bd 08f8 e93d
00000270: 46ef b4bc 6959 cd3d 6051 f338 7010 bd3c
00000280: 01bc c73d 37b5 efbc 9208 a63d 6ecc 703d
00000290: 4a4f e5bc 9327 7d3b 72cc 79bc 5ab9 acbc
000002a0: 7fef 4f3d e3c2 aabc 8a9a ad3c 1357 d93c
000002b0: 0aee 7c3d 4738 c6bb 0031 b73c 2a4a 1dbe
000002c0: 9983 4c3e 7b4a b5bd 9e0a 983d 6fea 8c3d
000002d0: 1652 16be 9a40 c83d e6d5 dc3c d9b3 e3bc
000002e0: 54d0 33be 4e2b 58bc 6d97 363d abac ce3b
000002f0: 3c22 8bbd 537b 4bbe 2150 c73c ff21 9bbd
00000300: 4a0b bc3d 7865 70bc b5d1 57bd f1f6 e3bc
00000310: b991 00be d51b 35bd aee4 93bd 50f8 34be
00000320: fb49 673d d266 c13c 76d7 053e 51d3 a5bd
00000330: 245a 04bd 3f5b c93d 2409 883b 48a1 c7bd
00000340: e224 e33c 148d 8c3c 7e12 c03d 5044 a4bd
00000350: 9434 70be dfbf df3d cdb3 d8bc 663f aebc
00000360: 7363 3dbe 9342 9d3d 531c 543d 5540 1bbd
00000370: 2c39 5cbd fd74 613c 9a3b 243d be1c 983d
00000380: c619 a7bd d491 b43d 40ff f73d ef72 cfbc
00000390: 48cf 693c 7b50 393b 8bbb 90bd 28f7 01bb
000003a0: 0e11 9bbc 52b7 0ebd 08e4 e33d bd2a 48be
000003b0: ab82 3a3e d689 8eba ba32 303d af28 733d
000003c0: db14 2b3d d535 ba3d 9a9a 40bd abdb 383d
000003d0: f549 c43c 4523 353e be6e 213b f962 24bd
000003e0: 5fb5 9d3d 34ce 0bbc 2e7a 5dbe f26d 0fbc
000003f0: 3ece 42bc 18a8 0d3d 4dd7 2dbe e3b8 6a3c
0.044380277 0.081714205 -0.0640104 0.18671547 -0.02782623 0.054512817 -0.04726682 0.029374124
-0.10095181 -0.002201129 -0.013795974 -0.030672014 0.055908885 -0.022779297 -0.048674334 -0.13213126
-0.04380095 0.09776486 0.092536114 -0.0348701 0.14384064 -0.11986121 0.009454083 0.12726332
-0.02345841 -0.12316808 -0.03568019 0.060467865 -0.038100973 0.0090753585 0.1531505 0.024014296
0.047167327 0.08460621 0.23955408 0.06967697 -0.07082311 0.06405387 0.0901117 -0.08782935
0.012679748 0.1311884 -0.017873617 -0.14069644 0.12145197 -0.06466074 -0.029893994 0.12136927
0.03894534 0.115044594 -0.046661623 0.19990249 -0.23271203 0.036380716 0.0027269379 -0.122337036
-0.07580482 -0.033637203 -0.12713473 0.032892674 0.072977446 0.0477558 -0.10339056 -0.015864825
-0.010260915 -0.009394049 0.057461753 0.06359031 -0.09448678 0.12160915 -0.027637709 -0.038557
0.1962193 -0.021173812 -0.05117477 0.01001218 0.0065053604 0.042702813 -0.16381402 -0.11755666
0.14550611 -0.15697287 -0.04573236 -0.0028189516 -0.058768395 -0.12948883 -0.016170606 -0.032425206
-0.06927552 0.0009311454 -0.13240682 -0.0021632125 0.02310594 -0.011724159 -0.009574573 0.030633315
-0.010392921 -0.055754572 -0.032082096 -0.084652975 0.033624016 0.0051645297 -0.1740917 -0.00915083
0.011392666 -0.21418798 0.045689825 -0.0032157288 -0.06245641 -0.074332386 0.15361194 -0.06908442
0.018971767 -0.08667793 0.021820892 0.08123309 0.024267394 -0.12050173 -0.028906778 -0.052195944
0.08067221 0.06012496 -0.0018500532 0.03676995 -0.046901956 0.084995225 -0.15359929 -0.00019545485
0.08943116 -0.017966883 -0.072789975 0.015559245 0.073553525 0.0049738493 -0.009586151 0.17499223
0.011341307 0.09987793 0.021855429 -0.080760404 -0.09398645 0.021503901 0.027780555 -0.13552184
0.032122374 -0.02701336 -0.017374398 -0.0819481 0.056802914 0.007866347 0.054443564 -0.111327216
0.07959583 0.026094452 -0.055211056 0.11424261 -0.02208675 0.10026819 0.000116023 0.023079127
0.09752656 -0.029261215 0.081071034 0.05878871 -0.02799191 0.0038628324 -0.0152464975 -0.021084476
0.05076551 -0.020844882 0.021191854 0.026530778 0.06175045 -0.0060491893 0.022362232 -0.15360323
0.19972076 -0.08852097 0.074239 0.06880652 -0.14679751 0.09777947 0.026957463 -0.027795719
-0.1755994 -0.013193918 0.044578005 0.0063072047 -0.06793639 -0.19871263 0.0243302 -0.075748436
0.09181841 -0.01467263 -0.052690227 -0.027827712 -0.12555589 -0.044215996 -0.072213516 -0.17672849
0.056467038 0.023608599 0.13070473 -0.08096946 -0.032312527 0.09831857 0.0041514803 -0.09747559
0.027727548 0.017157115 0.09378527 -0.08020842 -0.23457557 0.109252684 -0.026452923 -0.021270465
-0.18494968 0.07678714 0.051784825 -0.03790315 -0.05376546 0.013760802 0.040095903 0.07427357
-0.08159213 0.08816877 0.12109232 -0.02532336 0.014270611 0.002827673 -0.07067021 -0.0019831154
-0.01892903 -0.034842797 0.11127478 -0.19547553 0.18213908 -0.0010874819 0.043017127 0.05936497
0.041767936 0.09092299 -0.04702244 0.045131367 0.023961047 0.17689236 0.0024632658 -0.04013345
0.077006094 -0.008533049 -0.21628639 -0.00875424 -0.011889992 0.034584135 -0.16976662 0.014326307

network_body._body_endoder.seq_layers.2.bias f4 [128]
00000000: be14 2c3a 8271 19bc b0ee 4f3c b836 6c3c
00000010: f005 04bc 8a10 bab9 30c2 333d 3d9a 46bc
00000020: 38fd 0ebb 0e3e ffbb 5a30 89bc 1753 823c
00000030: e0a8 af3c 0a99 83bc b84f c8bb ef51 153c
00000040: 979e 34bc a96f aebc 54b4 51ba c4ea 87ba
00000050: fb0a 9d3c 72dd 0ebc dcc8 95bc aa31 933a
00000060: ba04 b6bb 7963 063c ce8e 02bb 3e5d bfbb
00000070: 0c8c 223c bb77 293b 8fad e53c 6b40 b73c
00000080: 1862 5639 5f12 a2bb e35a ba3c f0cb 9b3b
00000090: 28b3 0d3c 988c cfbb 4511 083b 1d05 99bc
000000a0: 8abe bd3c 43dc 393b 2b83 b2bc faa6 1fbc
000000b0: 09d1 f4bc b156 163a 5f55 4cbb 26e3 75bb
000000c0: 5072 a5bc 65a2 bc3c f4c7 c1bb 3921 2a3c
000000d0: 428f 44bc a2bf 9fbb eb9b 113d 7c97 b7b9
000000e0: c6c7 7bbc 80f2 a73b be7d 943c 9e27 5abc
000000f0: ba14 1cbc bff9 cc3c 4ba2 793c 904f 253b
00000100: c90d df3c 6e92 97bc 9ec5 6ebc 0a5a dc3c
00000110: d172 f5bb 2044 313c 1567 17bc 6d8d 09ba
00000120: 1094 a63c 5f93 253c cfcb 36bc 7499 673b
00000130: f80f abbb 4ec2 dcbb a262 cc3a 7cbe 303b
00000140: f06c ebbc c29c 763b 87f9 a5bb c4fc fc3a
00000150: b728 1e3c 4c48 3b3b ca50 273b 0deb 0d3c
00000160: 7d48 be3a 82e8 c7bb e722 a43b 00b4 82bc
00000170: ae4c 60ba 3dda 85b8 fea3 613b 1d00 80ba
00000180: e131 3ebc 64ba 7cbc 10d5 1abc 04bd 233c
00000190: f540 71bc c406 3f3c 69a3 c7bb 042e 523c
000001a0: 8044 9c3c a33c 13bc 949d b7bc 1fb4 febb
000001b0: c168 e73a 74fb e6bb 99bd 65bc 5086 48bc
000001c0: d883 ccbb 6aaf cc3a 0b6a bfbb 9502 4fbc
000001d0: 3c79 95bc 1464 533c add1 03bc 611f 67bc
000001e0: 6bb8 84bc a997 e83c 8234 813a cb52 74ba
000001f0: dbce 8e3b c3fe 3339 65e7 243c 5cd4 a23b
0.000656437 -0.009365441 0.012691185 0.014417343 -0.008058056 -0.00035489007 0.043886364 -0.012121734
-0.002181841 -0.00778938 -0.016746689 0.015908761 0.02144283 -0.016064186 -0.006113019 0.009113773
-0.011024139 -0.021293478 -0.0007999588 -0.0010369648 0.019170275 -0.008719789 -0.018284254 0.0011230011
-0.0055547627 0.008202427 -0.0019921544 -0.0058399728 0.009921085 0.0025858718 0.02803686 0.022369584
0.00020445173 -0.0049460377 0.022748416 0.004754536 0.008648671 -0.0063338988 0.0020762247 -0.018679196
0.023162145 0.0028360046 -0.021791061 -0.0097444 -0.029884832 0.0005734964 -0.0031178815 -0.0037519424
-0.02019611 0.023026654 -0.005913729 0.010383897 -0.011997046 -0.0048751393 0.035549086 -0.00035017345
-0.015367454 0.005125344 0.018126365 -0.01331511 -0.009526426 0.025021432 0.015236448 0.0025224425
0.027228253 -0.01850244 -0.014573483 0.026898403 -0.007490494 0.010819465 -0.009240885 -0.00052472093
0.020334274 0.010105937 -0.01115699 0.0035339268 -0.0052204095 -0.00673703 0.001559336 0.0026969006
-0.028738469 0.0037630056 -0.0050651464 0.0019301404 0.009653262 0.0028577028 0.0025530332 0.0086619975
0.0014517453 -0.006100715 0.0050090435 -0.015954971 -0.0008556348 -6.382584e-05 0.0034430022 -0.0009765659
-0.011608572 -0.015425298 -0.009450212 0.009993795 -0.01472496 0.011659328 -0.006092478 0.012828354
0.019075632 -0.008986625 -0.022414006 -0.007772937 0.001765512 -0.0070490185 -0.014022254 -0.012239054
-0.006241303 0.0015616242 -0.0058414987 -0.012634893 -0.018246286 0.012902278 -0.008045596 -0.014106602
-0.016201219 0.02839263 0.0009857567 -0.00093201984 0.004358155 0.00017165676 0.010064934 0.004969163

action_model._continuous_distribution.log_sigma f4 [1, 2]
00000000: d2f9 31bd f852 06bd
-0.043451138 -0.03279397

action_model._continuous_distribution.mu.weight f4 [2, 128]
00000000: e4c7 bf3c 8747 b3ba 4fcb c2bc b431 3cbc
00000010: c64f d3ba 91ec fc3c aa05 253b 8375 0a3d
00000020: 1704 083d 27cb 903a 6d4e 133c 04ee 263c
00000030: dcc6 5b3c cfd7 343c f932 343c d0d4 083c
00000040: 4d9e 5b3c e768 f8bb a043 c23c f797 8c3c
00000050: ac37 d1bc 76a4 a63c 82b9 ae3c b97d 413d
00000060: c9ac 7fb9 2980 96bb 5a15 a43c 66c9 cd3b
00000070: ebf7 ee3b 8e9e 283d b98d 063d c20f 6fbb
00000080: e5a4 abbb 90d3 793c bacd b3bc a628 90bb
00000090: 6dea 78bc 694a b33c 1c7b 433a 436a 863c
000000a0: 260c b83c b31d dd3c 51ab 8eb9 b8df 1a3d
000000b0: 5a80 233b 9a86 bf3a 68b0 cdbb 5593 58bb
000000c0: e84a 253c 492b 213a d5c4 ff3b 9308 c93c
000000d0: ce82 bd3c dd4e d63c 266a dcbc ae5a b23c
000000e0: d056 f23a d4f6 933c 35ef 1f3c 03ae d53c
000000f0: 89af 483c b1d6 9f3d 62b2 b0bc 194c e1bb
00000100: fa89 2b3d d5ff bc3c b8e5 a13c ac32 0ebd
00000110: 4b29 8f3c c6f2 6d3c 29e6 b6ba 50db dfba
00000120: 9756 2dbc 73bc aa3b 6eea 6fbb dbd4 f5bb
00000130: 93d8 c43c d6be 843c d849 a53c 019e 8cbc
00000140: e219 123c aa71 ca3b 7b69 f33c 106a a4bc
00000150: bc03 87bc e07d ed3c aa9f 6d3c d80f c3bc
00000160: b770 a43c f9c9 ff3c 8af4 dfbb 10cd 063c
00000170: 711f a63c 0740 07bc 7a8f 743a 970e 173c
00000180: eec2 c63c f36d 753c 9255 7c3b c717 aa3c
00000190: 7052 943c da6b 1b3d 2b36 f23b 4975 163d
000001a0: 91b9 e83c c399 e53b 9141 613c a39d b13c
000001b0: 0540 343d 49ab 543c da28 ad3c 6ba6 cdba
000001c0: d6b1 153d a02c 09bc cef8 613c a6bc 103a
000001d0: 43c9 843a 64bf 793c cd40 3c3c ae48 823c
000001e0: 4885 b93c 3665 293a 5f2a 8f3c 44bc ab3c
000001f0: b3f4 a03c 9887 2c3c 0330 c13c c27c dbbc
00000200: 84d0 e73a 4b12 e3b9 66d1 bbbc c953 7bbc
00000210: 35e1 3d3b 7f86 803b a3bd cebc 75de f13c
00000220: 4e77 0c3c a724 2f3b 9fe9 233a 536a bebc
00000230: 7cd5 8ebc 99b0 1bbc 58ce faba 812d a239
00000240: a8f1 67bc 13de adbc 3eb0 cdbc 5287 3cbc
00000250: bb0d 91b8 fb88 5d3c 8ff7 f33c d926 c43c
00000260: 6f35 d7bc 9a2f d8bc 5416 42bc e9b8 aa3c
00000270: eb41 6c3d 9e7e 613c 4fbd 6dbd 830b 3dbc
00000280: dce1 b43c 24ba b0bc c5db b4bc 05f2 dc3c
00000290: 4ab0 083d 432f 78bb 7f20 7bbc c469 f63b
000002a0: 48f7 1dbc 62f3 373d f666 133d 153a e9bb
000002b0: 504d 413c e7a5 1dbc 7d3f a13c ceba 8d3c
000002c0: 2345 f8ba 1a5e 123d fc8c a63c b6fb 20bd
000002d0: 4903 7e3c 4f89 febc 076b 5cbc fa91 0fba
000002e0: 06ae 1dbc 65d8 a5bc 2df1 2bbd f575 37ba
000002f0: 2f02 6139 ed4a 17bc 6321 983c c98d aa3c
00000300: 7de1 ca3a 8342 813c 8cd0 ca3b edda 023c
00000310: f803 953b 6fbc eabc 0cec 44bc f0b6 20bc
00000320: 7a74 85bc 86a9 aebc 228e 01bd de97 cf3c
00000330: 6dd9 19bc 8bfb f6b9 11db 5dbc 982a ae3c
00000340: 6213 1b3b 9c2c 5abc 692f 393c 0f3a 6fbc
00000350: 586a 1d3d 16da 8bbc 9b28 3b3d 6e1b 7f3b
00000360: a5ff 73bc 083a a23c a6f7 053d ca11 12bc
00000370: 10b4 f23b 9fed a03c b255 f93c 59e0 6ebc
00000380: 4961 1fbb 72a4 97bc b012 f23b b232 36bc
00000390: d1e1 b63c e756 13bd e307 52bc db65 f4bb
000003a0: 00fd 80bc 635d 9a3b 995b 8e3c 34b3 0b3c
000003b0: 4ba5 4f3c f857 2cbc 9944 2abc 7b65 cf3b
000003c0: 8306 2eba c073 9bbb 1009 e63b 5c01 d43a
000003d0: 45ca c03b cb88 49bc 5070 2d39 f055 a0bc
000003e0: 065c 013c 3f4a 05bd 83e6 acbb c134 22bc
000003f0: c322 57bc 56cb da3c 2add 8b3b 1a88 9abc
0.023410745 -0.0013677933 -0.023778586 -0.0114864595 -0.0016121797 0.030874522 0.0025180378 0.033803474
0.033207025 0.0011046872 0.008990866 0.010188583 0.013414111 0.011037781 0.010998481 0.00835152
0.013404441 -0.0075808647 0.023713887 0.017162306 -0.025539242 0.020342093 0.021328691 0.04723904
-0.00024383063 -0.0045929146 0.020029712 0.006280112 0.0072927377 0.041166835 0.03285 -0.0036477898
-0.005238163 0.015248194 -0.021948684 -0.004399377 -0.01519261 0.021886067 0.00074570044 0.016408091
0.02246673 0.0269917 -0.0002721199 0.03781101 0.002494833 0.0014612258 -0.006277133 -0.00330468
0.01008866 0.00061481126 0.0078054466 0.024540221 0.023133662 0.026160652 -0.026906084 0.021771755
0.0018489007 0.018062033 0.009761621 0.026083952 0.012248882 0.07804621 -0.021569435 -0.0068755266
0.04187963 0.023071209 0.019762859 -0.034716293 0.017475745 0.014523214 -0.0013954091 -0.001707891
-0.010579727 0.005210453 -0.0036608237 -0.007502181 0.024029052 0.016204279 0.020176813 -0.017165186
0.008917304 0.0061781006 0.029713383 -0.020070106 -0.016481273 0.028990686 0.014503399 -0.023811266
0.020073278 0.031224238 -0.0068345712 0.008227602 0.020278664 -0.008255011 0.0009329241 0.009219787
0.024262872 0.014979827 0.0038503152 0.020763291 0.018105716 0.037944652 0.007391711 0.036732946
0.028408797 0.007006855 0.013748542 0.021681612 0.044006366 0.012980291 0.021137644 -0.0015689855
0.03654655 -0.008372456 0.01379223 0.0005521275 0.0010130781 0.015243385 0.011490059 0.015903797
0.022646561 0.000646192 0.017476259 0.020963795 0.019647932 0.010530375 0.023582464 -0.026792888
0.0017686044 -0.00043310443 -0.022926997 -0.0153398 0.0028973345 0.003922283 -0.02523691 0.029525021
0.008573366 0.0026724727 0.0006252769 -0.023244059 -0.017435782 -0.009502553 -0.0019134982 0.0003093295
-0.014156736 -0.021224057 -0.025108453 -0.011506872 -6.916696e-05 0.013521428 0.029781131 0.023944305
-0.026270596 -0.026389886 -0.011846144 0.020840125 0.05768005 0.013763098 -0.058041867 -0.011538389
0.022080354 -0.021573134 -0.02207745 0.026970873 0.033371247 -0.0037869967 -0.015327572 0.0075199325
-0.009641476 0.044909842 0.035986863 -0.0071175196 0.011798218 -0.009622074 0.019683594 0.01730099
-0.0018941503 0.035734273 0.020330898 -0.03930255 0.015503713 -0.031071333 -0.013453252 -0.00054767693
-0.00962401 -0.020244787 -0.04197805 -0.0006998473 0.00021458486 -0.009234172 0.018570608 0.020819562
0.0015478578 0.015778786 0.0061894115 0.007986766 0.0045475923 -0.028654305 -0.012019169 -0.009809241
-0.016290892 -0.02132107 -0.03162969 0.02534097 -0.009390217 -0.0004710819 -0.013540999 0.021260545
0.0023662676 -0.0133163 0.011302807 -0.014601245 0.038431495 -0.017071765 0.04569302 0.0038926261
-0.014892493 0.019803062 0.03270688 -0.008915374 0.007406719 0.019644557 0.03043637 -0.014579856
-0.002431946 -0.01851103 0.0073874816 -0.011120485 0.022324475 -0.03597155 -0.012819263 -0.007458431
-0.01574564 0.0047108396 0.017377662 0.008526612 0.012673686 -0.01051902 -0.0103923315 0.006329236
-0.00066385436 -0.004744023 0.0070201233 0.0016174722 0.0058834874 -0.01230068 0.00016540405 -0.019572228
0.007895475 -0.03254151 -0.0052765026 -0.009900273 -0.013130846 0.026708286 0.004268308 -0.018863726

action_model._continuous_distribution.mu.bias f4 [2]
00000000: c6ce 0abc 051c 7c3c
-0.00847215 0.01538754

exp_avg f4 [128, 7]
00000000: 79e3 d639 396c bd35 ad00 24b7 6267 01b9
00000010: 0c38 cdb0 0850 c039 f62f 34bc 3409 2336
00000020: 115f 7832 35e4 ceb5 17ad 9534 d5f9 762f
00000030: ee39 1cb6 9bfd 8037 d786 c8b5 2372 3a33
00000040: 0931 7736 6308 a636 5b75 29af fb2e c035
00000050: bf41 3f36 8bea 8938 491b 2335 08e3 0037
00000060: 7925 d1b8 87e2 5eb0 d297 2738 2d61 4cbb
00000070: c36f 3fb7 a4ec b633 295c 36b5 8ea9 0eb7
00000080: 58c1 87af 3569 1db6 fd64 84b8 19d4 c838
00000090: 834d a3b5 d4a9 3c38 519b 1c39 6736 4d30
000000a0: 227d 5ab8 15e6 c63a 2cec 09b9 3b76 5c35
000000b0: 3c6b 8bb7 12e3 feb8 860f faae 7ac2 d4b7
000000c0: fab5 b9b9 e468 74b7 1dd4 a733 71e9 f7b6
000000d0: 0f23 ceb7 16b8 aeae 35ba 77b5 ee71 f1b8
000000e0: 5150 0b38 ce1d 60b4 a981 b636 7cff f537
000000f0: 5bc0 1faf 8c95 0937 df54 2a39 0ee6 d3b8
00000100: 013e 9ab5 f577 26b8 24c2 d338 45b1 1331
00000110: 888a 14b9 76c3 5e3b 849a 81b6 8f6d b932
00000120: 1100 18b7 7eb2 9db7 6c20 9b2f b438 3136
00000130: 4b75 96b8 904e a23a cf3a 9036 4028 46b8
00000140: 3cdc 8fb9 f4d5 feb1 9d7a 923a a006 0bbd
00000150: cf0a 4a39 74b8 c335 ff61 e2b7 c2db 4bb9
00000160: 6113 d7b0 c4fc 6639 ddfb 06bc e292 0b38
00000170: 28af ab35 9f69 96b7 8ce8 0eb9 0e2b e3b0
00000180: c51c f838 23bc 84bb 0fd2 eb37 9a5d b2b4
00000190: cbf5 3cb6 86a3 5f37 7194 4e30 14a7 4937
000001a0: e707 4739 9d16 39b7 0bce d633 83ee b935
000001b0: 67a4 beb6 ae4f fbaf c98c e1b5 20e7 81b8
000001c0: c3ba e7b7 d24c 4c34 1d8a 4835 ccaa 36b6
000001d0: 7de4 d6ae 4317 06b6 94d1 5539 192f 26ba
000001e0: 6fd4 a8b6 ef82 b938 f6a8 023a 14ad d831
000001f0: d97e 56ba 3f4e d03c d32c 0736 a440 03b3
00000200: efc4 1cb6 81f8 50b6 02e2 22ae aacd 63b5
00000210: f0ba b936 ebc6 9639 70ab 0f36 d448 a637
00000220: 3908 1ab9 2ae8 9ab1 0cbf a939 b7e1 3bbc
00000230: 863a 2fb9 3c7f 9db6 af0e 3038 5e48 cb39
00000240: f899 e631 f792 d8b9 ca02 723c 1f9e 8c3a
00000250: af85 a734 89b8 a7b7 fe99 5936 d6d5 cfb0
00000260: 27bb 5c3a 6c89 a4bc ae6b 8039 d364 9435
00000270: ff43 8e37 8071 4db8 0591 4db1 1c7c 9b39
00000280: 1125 03bc 1f77 eeb9 b15b a8b5 53c5 d637
00000290: b48a be38 7907 a030 e8f5 e2b9 ee35 463c
000002a0: 3349 99b7 0d39 1134 c20c 08b7 344b ffb7
000002b0: 81e2 d52e 48dd 4835 26db e9b8 99ff 86b6
000002c0: 1b65 3c33 095f adb5 5354 67b6 b31e adae
000002d0: 6256 d5b6 512c bcb7 19df d239 4382 1735
000002e0: 815c 79b7 d6cb 25b9 280f af2f c099 9039
000002f0: b481 1bbc c033 f4b6 44f4 8d33 4702 0cb6
00000300: f7ce 41b7 2e82 45ad b122 9036 9911 61b8
00000310: afd4 ff38 e887 1936 c690 62b7 9e9b 42b9
00000320: d740 2db1 e6f0 6539 9963 0cbc 7346 c8b8
00000330: 1509 a735 f0e2 4bb8 1f1b 5ab9 0bfc 54b0
00000340: b99c a137 b805 1abb 7bab 2eb4 0fff b5b4
00000350: f69c 9eb7 00ab 4ab8 7d8c d3af 45bd d837
00000360: dfbd b5b8 878c e7b9 69ce a336 7f7a 83b8
00000370: 72e5 e9b9 c05c 95b1 0fdb cdb7 0f3c 91bb
00000380: 1724 07ba a588 24b6 222f a338 c65e 9939
00000390: fd8e bd30 3df6 0fba 3130 843c 7403 f939
000003a0: 1fdd 27b4 42e1 8038 f841 1239 241c 6eb0
000003b0: f0dc aa39 435b 02bc 02f8 81b6 5019 0232
000003c0: 19c7 4eb6 fcf4 16b7 7a33 c7af a1cc 01b6
000003d0: 7e28 f7b7 e941 9a39 0775 b034 83ec f536
000003e0: 9e3b 0fb8 0109 c3af fea9 7339 75f6 cabb
000003f0: 80dc c1b9 dc5e 6eb5 018f 1838 9c74 0d39
0.0004098674 1.4113094e-06 -9.775319e-06 -0.00012340912 -1.4931643e-09 0.00036680722 -0.010997763 2.429425e-06
1.44571155e-08 -1.5414613e-06 2.7879352e-07 2.2462328e-10 -2.327953e-06 1.5376883e-05 -1.4940405e-06 4.3410306e-08
3.683441e-06 4.948162e-06 -1.5412153e-10 1.4318788e-06 2.8499487e-06 6.576356e-05 6.0761937e-07 7.682254e-06
-9.9728764e-05 -8.1085044e-10 3.9957296e-05 -0.003118585 -1.1410509e-05 8.51808e-08 -6.7934394e-07 -8.503337e-06
-2.4693736e-10 -2.3456062e-06 -6.313061e-05 9.5762494e-05 -1.2167005e-06 4.4980858e-05 0.00014935179 7.4655876e-10
-5.209179e-05 0.0015174771 -0.00013153319 8.2128435e-07 -1.6620026e-05 -0.00012153959 -1.1371441e-10 -2.536293e-05
-0.00035421533 -1.4567955e-05 7.815127e-08 -7.38835e-06 -2.4573439e-05 -7.945304e-11 -9.228564e-07 -0.000115129966
3.3214983e-05 -2.0872469e-07 5.439117e-06 2.9325245e-05 -1.4529304e-10 8.200655e-06 0.0001624408 -0.00010104115
-1.149194e-06 -3.9689203e-05 0.000100974255 2.1492081e-09 -0.00014165987 0.0033991016 -3.8624876e-06 2.1586656e-08
-9.0599215e-06 -1.8798975e-05 2.8217373e-10 2.640806e-06 -7.174405e-05 0.0012383033 4.2983806e-06 -4.7244364e-05
-0.00027439173 -7.4166966e-09 0.0011175458 -0.033941865 0.00019268248 1.4582315e-06 -2.6986932e-05 -0.00019441455
-1.5648817e-09 0.00022028672 -0.00823876 3.3276978e-05 1.279147e-06 -1.7930577e-05 -0.00013628806 -1.6528661e-09
0.0001183092 -0.004050748 2.8112e-05 -3.3223188e-07 -2.8157253e-06 1.3329909e-05 7.515331e-10 1.20194345e-05
0.00018981063 -1.1032124e-05 1.00026305e-07 1.385299e-06 -5.68158e-06 -4.571325e-10 -1.680478e-06 -6.19425e-05
-2.7624314e-05 1.9026928e-07 7.470679e-07 -2.721953e-06 -9.772181e-11 -1.9981096e-06 0.00020391337 -0.00063394156
-5.0315207e-06 8.845876e-05 0.00049842836 6.306104e-09 -0.0008182354 0.025427936 2.0142659e-06 -3.0559605e-08
-2.3360442e-06 -3.1139064e-06 -3.703527e-11 -8.486337e-07 5.535192e-06 0.00028758435 2.140845e-06 1.9822655e-05
-0.00014689648 -4.508384e-09 0.00032376533 -0.011467389 -0.00016711102 -4.6937766e-06 4.1975345e-05 0.00038773095
6.7113852e-09 -0.00041308228 0.014771173 0.0010728276 3.1203442e-07 -1.9993882e-05 3.2425155e-06 -1.5122008e-09
0.0008420222 -0.02008506 0.0002449429 1.1056203e-06 1.6959382e-05 -4.8981514e-05 -2.991386e-09 0.00029656372
-0.008004443 -0.0004548365 -1.2543661e-06 2.5602674e-05 9.0857415e-05 1.1643656e-09 -0.00043289294 0.012097819
-1.8273107e-05 1.3524932e-07 -8.109202e-06 -3.0433388e-05 9.726354e-11 7.482781e-07 -0.00011151125 -4.0232667e-06
4.3864116e-08 -1.2917163e-06 -3.4470766e-06 -7.8725824e-11 -6.357951e-06 -2.2431983e-05 0.00040220542 5.644144e-07
-1.4863094e-05 -0.00015811561 3.1843084e-10 0.00027580373 -0.009491373 -7.277791e-06 6.610256e-08 -2.0862951e-06
-1.1551884e-05 -1.1227059e-11 4.295573e-06 -5.366057e-05 0.00012198963 2.2877884e-06 -1.3504357e-05 -0.00018559254
-2.521167e-09 0.00021928884 -0.008568668 -9.549865e-05 1.2445113e-06 -4.8610324e-05 -0.00020800203 -7.7483325e-10
1.9265675e-05 -0.0023501944 -1.6267397e-07 -3.3899457e-07 -1.8908158e-05 -4.831981e-05 -3.84805e-10 2.5837342e-05
-8.666119e-05 -0.00044164454 4.881808e-06 -6.2693834e-05 -0.00044612173 -4.347015e-09 -2.4539911e-05 -0.0044322084
-0.0005155219 -2.4517442e-06 7.781225e-05 0.00029253046 1.37922e-09 -0.00054917095 0.01613626 0.00047495554
-1.563353e-07 6.145473e-05 0.0001394822 -8.6623886e-10 0.00032589538 -0.007956329 -3.8733715e-06 7.572751e-09
-3.0812282e-06 -8.997737e-06 -3.6234465e-10 -1.9341608e-06 -2.946355e-05 0.00029422276 3.2867703e-07 7.3291026e-06
-3.414938e-05 -3.547669e-10 0.00023237613 -0.0061939307 -0.00036976114 -8.879995e-07 3.6372807e-05 0.00013490248

exp_avg_sq f4 [128, 7]
00000000: c8d5 1d35 8668 7b2e 8838 0735 8c91 fb34
00000010: 90a3 fc2f 661d 1a35 9ad0 d739 893a d031
00000020: b00c ea2b fab1 e531 fe64 d031 9d3e 192d
00000030: 8e0f dd31 824c de34 a90c 7331 1329 212b
00000040: 4f7c 3031 a020 4c31 60ee 9f2a 78af 3931
00000050: f417 2534 8740 f135 e8e2 4d2f 1b89 c135
00000060: 8368 d035 d32a fb30 cea5 d435 983d 803a
00000070: 9855 fd30 9750 542b 0889 0e31 1f21 1231
00000080: fe27 302a b94e fb30 c21e e833 5e86 dc34
00000090: ee35 5d2e 88be d834 5fcd b734 664c 3430
000000a0: fc52 ea34 b2bc 7239 152c c933 5d05 e62d
000000b0: faf5 7d33 df17 dc33 bfb9 1c2d 80ee 5233
000000c0: 8383 bd36 5501 cc31 e3fd e92b dffe c731
000000d0: 76b8 bf31 f31e d72b 09f9 d731 723a cc34
000000e0: a4d6 ab32 58b5 9a2c d4fa 6132 0c32 c532
000000f0: 57fc d12c 6a97 1e32 9f97 e435 fda9 ac35
00000100: 9d02 052f 4d67 6735 ff9f 8d35 1739 6a2f
00000110: 73de 9135 df21 8a39 5498 d132 7f97 a22c
00000120: fe0b ab32 c06f a432 a04c 6e2c c28c be32
00000130: ca63 3236 7550 3837 e568 d030 7f7c 0b37
00000140: 36db 1437 a2dd e932 eaee 1e37 8582 1b3c
00000150: eecb fe35 dedf 622f ba2e d435 89bc ca35
00000160: 56e4 6231 94db de35 0a2e cb3a 83e7 0c35
00000170: 7545 742e 8c8b f234 acb0 0135 f5ec 2a30
00000180: 7969 0435 a897 dd39 f83d 5a33 43c5 ee2c
00000190: 885c 7833 f649 8333 373b 152e e577 4b33
000001a0: 031b 8637 297c 4132 b479 f42b 8ef1 2d32
000001b0: 5692 2332 4e4f a62b 729d 6532 9302 5135
000001c0: 9059 de32 8fa0 2d2c f78c 9732 6ce7 ab32
000001d0: cabf 5e2c 4526 ae32 d5c8 c036 4f74 8936
000001e0: f68c 3730 427d 6136 a7cd 6636 ae31 2132
000001f0: 12dc 8036 ae94 843b 1606 7e30 4d90 ac2a
00000200: e5df 6130 a228 6030 0f85 0c2c 9d2f 5730
00000210: 58a4 2933 0bfd d036 3669 8930 aaf0 c836
00000220: 509c c136 4c0c 9732 be1f c836 33b0 c23b
00000230: bbc3 1936 f6fc a32f 6c0f 1936 b8ef 0d36
00000240: 1aeb 5d31 2783 1536 a320 c93a c6e7 8336
00000250: 358d 3f30 dea3 6d36 d60d 6e36 dce9 4632
00000260: 3ec2 7f36 ffdb 7f3b 47de 8936 518e 4f30
00000270: 1ebf 8e36 64ca 8a36 2e5a 5b32 39df 8836
00000280: 3780 963b a59d ac35 4234 562f 01c4 b935
00000290: a07a ab35 a082 5c31 0d55 a835 c0f1 a93a
000002a0: 1991 6132 1f52 362c e5ef 4232 b7a8 3d32
000002b0: 75f4 ac2c 90c7 5a32 dcc0 5035 9ef2 a830
000002c0: ddd1 032b 3f09 a330 a5fb 7630 daa9 4f2b
000002d0: a28b bd30 021b 2c33 1f74 ac36 e0bf 5930
000002e0: d03b 9636 4d4b 8c36 12b8 4932 0642 9d36
000002f0: 316f ab3b 2e2f 9f31 b761 002c 78f4 7031
00000300: 0a52 6b31 a04a 442c 8ab3 a931 bdae 8434
00000310: c6d5 7635 ad53 c72e 6206 5f35 e0da 6435
00000320: 7436 4930 6880 6235 98c6 193a 2654 6334
00000330: 17db f72d 9b80 2a34 9f12 1e34 8563 f32e
00000340: 0129 6434 954d 7738 76db 4f32 11fd 212d
00000350: ef95 8f32 ddfb 9032 b56e 452c 487f 7c32
00000360: 3281 0435 24c8 7d36 f77d 1f30 5d22 6f36
00000370: 2d48 6e36 312a fb31 5835 6c36 9e2d 483b
00000380: 3dc1 e135 f7a6 072f 2385 d035 7533 c835
00000390: 2bab 1330 2b41 c335 9e03 393a 3113 8536
000003a0: 792b 4430 3ac6 7f36 fc44 7d36 bfaf 2132
000003b0: 7e30 7336 a912 863b ae85 cc30 f5a7 582b
000003c0: 1ba2 0831 44aa ec30 9cc0 402c 4350 d530
000003d0: 922c 9633 9a51 cb35 53c2 852f b177 a835
000003e0: f2d4 a535 db12 6931 0d04 bc35 060f b33a
000003f0: 2f62 5134 eaed 062d eb2a 6933 e262 e933
5.879815e-07 5.7163628e-11 5.037368e-07 4.6858293e-07 4.595475e-10 5.741225e-07 0.00041163416 6.0602514e-09
1.6630222e-12 6.6850108e-09 6.065078e-09 8.710946e-12 6.433715e-09 4.140639e-07 3.536835e-09 5.725569e-13
2.5682032e-09 2.9704452e-09 2.840948e-13 2.7020786e-09 1.5375537e-07 1.7974679e-06 1.8725255e-10 1.4419523e-06
1.5527625e-06 1.8274825e-09 1.5843486e-06 0.0009783981 1.84325e-09 7.542937e-13 2.0741613e-09 2.1264623e-09
1.5645815e-13 1.8285028e-09 1.0808937e-07 4.1075958e-07 5.029748e-11 4.0371765e-07 3.4235833e-07 6.559219e-10
4.3646276e-07 0.00023149213 9.36781e-08 2.6150354e-11 5.9129867e-08 1.02488904e-07 8.908817e-12 4.911135e-08
5.647949e-06 5.937333e-09 1.6626113e-12 5.8206377e-09 5.5798024e-09 1.5285259e-12 6.2856356e-09 3.8040486e-07
2.0004627e-08 4.3970765e-12 1.3153755e-08 2.2956577e-08 5.9681526e-12 9.231238e-09 1.7031451e-06 1.2864472e-06
1.2097208e-10 8.620453e-07 1.0551884e-06 2.1302458e-10 1.0868083e-06 0.00026346647 2.4400073e-08 4.6211364e-12
1.9912473e-08 1.914293e-08 3.386437e-12 2.218292e-08 2.6582152e-06 1.09859875e-05 1.5163805e-09 8.314032e-06
8.872526e-06 2.7225557e-08 9.47316e-06 0.0094915675 1.8983826e-06 2.0634114e-10 1.580883e-06 1.5105044e-06
3.3017122e-09 1.6604195e-06 0.0015501392 5.249096e-07 5.5540867e-11 4.5177546e-07 4.8313336e-07 6.2182376e-10
4.9327315e-07 0.00042265397 5.081344e-08 6.7862673e-12 5.7826156e-08 6.113616e-08 3.393127e-11 4.7373664e-08
1.5986623e-05 1.1262309e-08 1.7371022e-12 1.01248485e-08 9.521122e-09 1.1817021e-12 1.3365353e-08 7.7862313e-07
2.588493e-08 2.4673907e-12 1.7642817e-08 2.0012259e-08 3.1654562e-12 2.0273669e-08 5.745426e-06 4.0964583e-06
6.677533e-10 3.3600522e-06 3.4392376e-06 9.382729e-09 3.840317e-06 0.0040460443 9.241331e-10 3.0653466e-13
8.2172696e-10 8.154847e-10 1.996906e-12 7.8284207e-10 3.949785e-08 6.228341e-06 9.997965e-10 5.9884815e-06
5.7700454e-06 1.7584306e-08 5.9641598e-06 0.0059414147 2.2912707e-06 2.9829267e-10 2.2807753e-06 2.1150172e-06
3.2293372e-09 2.227907e-06 0.001534481 3.931086e-06 6.968606e-10 3.5411135e-06 3.5472817e-06 1.157829e-08
3.8111025e-06 0.003904104 4.1087947e-06 7.5508405e-10 4.2541787e-06 4.136282e-06 1.2767982e-08 4.0791024e-06
0.004592921 1.2860879e-06 1.9481752e-10 1.3840619e-06 1.2776181e-06 3.2088465e-09 1.2541728e-06 0.0012965724
1.3129715e-08 2.5909342e-12 1.1346832e-08 1.1039609e-08 4.915674e-12 1.2734645e-08 7.7766686e-07 1.2292565e-09
4.6831793e-13 1.1862439e-09 8.9851887e-10 7.377689e-13 1.3791246e-09 4.0071434e-08 5.1395177e-06 7.921681e-10
4.4773114e-06 4.1810913e-06 1.1741593e-08 4.6866508e-06 0.005231761 4.6328728e-09 1.8244137e-12 3.506356e-09
3.4243635e-09 2.78947e-12 4.9389586e-09 2.4714055e-07 9.195322e-07 9.064336e-11 8.308326e-07 8.5255124e-07
7.3200757e-10 8.4378416e-07 0.00058660796 2.1171635e-07 2.8177944e-11 1.587927e-07 1.4721671e-07 1.1068039e-10
2.1249072e-07 5.8961643e-05 1.20988854e-08 9.2079825e-12 1.6715573e-08 1.687834e-08 2.8056839e-12 1.4697271e-08
4.9361836e-07 3.7816435e-06 5.802287e-10 3.5633777e-06 3.5506775e-06 7.309858e-09 3.519779e-06 0.0030544768
1.6820046e-06 1.2337496e-10 1.5535956e-06 1.4916137e-06 5.3721533e-10 1.4547599e-06 0.0007057729 3.965943e-06
7.1366163e-10 3.8113344e-06 3.7740092e-06 9.411393e-09 3.6238048e-06 0.00409158 1.4880948e-09 7.69717e-13
1.988275e-09 1.7219652e-09 2.739176e-12 1.5520601e-09 6.9930266e-08 1.5148428e-06 2.4330635e-10 1.255181e-06
1.2355433e-06 3.391668e-09 1.400827e-06 0.0013661094 1.9500361e-07 7.669846e-12 5.4288574e-08 1.0867895e-07

exp_avg f4 [128]
00000000: d5b5 01ba b591 1536 bdcb 02b6 11ab 0bb9
00000010: 7d4c 45b7 d414 4d39 eafa d7b8 3b7f 85b7
00000020: 1c5f fb37 94d9 3739 da0d 04b7 0aad cbba
00000030: 3fd0 d7b9 4e06 8db9 abcd 0b38 9ddd 49b7
00000040: 9a61 3fb7 5d5a b43a 9e69 1936 dcb9 11ba
00000050: 7077 7a3a d62b 38ba 87cd c3b9 0632 103a
00000060: 15ec 9ab7 9d5e 8eb6 f023 b5b9 1ceb 0eb7
00000070: b535 06ba 1fd0 66b9 fe24 5436 66c8 28ba
00000080: f8cc 553a 39e7 5ab9 caa9 7ab6 f1df 6fb9
00000090: 79f0 d239 cf96 ed36 e01c 8a37 92f7 3138
000000a0: e3cb 6cb7 e391 38ba 3098 c5b7 6c13 b9b9
000000b0: b988 3f38 6d28 033a d0f9 39b8 4199 f4b9
000000c0: 0ed3 7fb7 c5dd f135 042c beb7 50f5 58ba
000000d0: fdce 53b9 114b b1ba db69 e237 0a27 143a
000000e0: 09bd f637 e703 d5b6 7269 18ba 3e8a dab6
000000f0: 5b59 1fba 40ad 183a bdd9 30b7 0be5 3fb8
00000100: b57a b9b6 e159 953a aa61 5d36 2529 7cb7
00000110: c092 4aba 25c6 0d3a dc7e a8b9 04b9 b2b9
00000120: 7da9 7a37 b7dc 89ba aa9e 83b4 f00d 9836
00000130: 7229 a737 af23 0cb9 e5bd e8b9 4f97 3439
00000140: fd66 d237 35fe 1bb6 3379 1fb7 2d78 d036
00000150: 4d55 a5ba 399c a2b9 06e9 5dba 9bc0 35ba
00000160: 9054 c2b9 040e 7839 1d2a 8bb9 07d1 80b8
00000170: 142a c8b9 d711 2db9 4214 d1b9 fdfd 1e37
00000180: f9d6 b3ba 77d2 f6ba b8e8 bc38 6b92 3e39
00000190: 8b6e 71b6 16ca a0b9 2bc4 8f37 8f87 8936
000001a0: 14de c7ba d4dc 07ba 1e6e be36 7ed8 69ba
000001b0: 7aaa 2ab7 27ac 7e3a 3cf2 7f39 c0d3 e6b9
000001c0: 3f97 9bba 3476 8a38 90fd 3db7 1a36 a038
000001d0: 124b 7fb7 c3f8 59ba 6f68 0638 6207 a5b6
000001e0: f94f 74ba 553d 0338 f1ed 2f38 a3ba 5eb6
000001f0: 2eba 89b8 3131 ccb9 b8f5 f338 2624 07b8
-0.00049480546 2.2287543e-06 -1.94901e-06 -0.000133198 -1.1759924e-05 0.00019558083 -0.00010298735 -1.5914082e-05
2.996582e-05 0.00017533294 -7.871038e-06 -0.001553924 -0.0004116315 -0.00026898313 3.3331726e-05 -1.2032132e-05
-1.1407212e-05 0.001375984 2.2860254e-06 -0.0005559006 0.0009554541 -0.0007025575 -0.00037346428 0.0005500618
-1.8468165e-05 -4.242944e-06 -0.00034549786 -8.5186e-06 -0.00051196973 -0.0002201204 3.1611994e-06 -0.0006438553
0.0008155848 -0.00020876237 -3.7351733e-06 -0.00022876241 0.00040233487 7.080707e-06 1.6464328e-05 4.2430656e-05
-1.4114167e-05 -0.0007040782 -2.3555098e-05 -0.0003530042 4.566528e-05 0.00050032773 -4.4340093e-05 -0.0004665349
-1.5248324e-05 1.8020443e-06 -2.2670261e-05 -0.00082763005 -0.00020199637 -0.00135264 2.6990592e-05 0.0005651569
2.9413512e-05 -6.348349e-06 -0.00058140524 -6.513e-06 -0.00060786837 0.0005824156 -1.0541114e-05 -4.575126e-05
-5.5277146e-06 0.0011394584 3.2988414e-06 -1.502995e-05 -0.0007727556 0.0005408249 -0.00032137975 -0.00034088653
1.4940623e-05 -0.0010518049 -2.4516095e-07 4.5315755e-06 1.992725e-05 -0.00013364734 -0.0004439197 0.00017222505
2.5081908e-05 -2.3244768e-06 -9.505357e-06 6.2128734e-06 -0.0012613923 -0.00031015443 -0.0008465204 -0.00069333025
-0.00037065567 0.00023656344 -0.00026543523 -6.14245e-05 -0.00038178323 -0.00016505212 -0.0003987868 9.47667e-06
-0.0013720683 -0.0018831034 9.007886e-05 0.00018174357 -3.5976143e-06 -0.00030668144 1.7138276e-05 4.0986993e-06
-0.001524868 -0.0005182747 5.6752606e-06 -0.00089205045 -1.0172482e-05 0.0009714984 0.00024408934 -0.00044026785
-0.0011870636 6.60237e-05 -1.1324315e-05 7.639472e-05 -1.5216663e-05 -0.00083149615 3.204535e-05 -4.9182427e-06
-0.0009319778 3.1289954e-05 4.194485e-05 -3.3189215e-06 -6.567348e-05 -0.00038946563 0.000116329116 -3.2220174e-05

exp_avg_sq f4 [128]
00000000: c7f7 8e35 997e 6e32 8d40 d731 927d 5a36
00000010: e010 8731 5062 5b35 5608 2534 e6c9 4832
00000020: 5d64 1533 d999 1136 44cc 4233 56ef a237
00000030: 4a1f 6a36 5d3b 8335 2265 ec33 4a2d b632
00000040: fa8b 3533 a729 ff36 5ece e530 6df9 4c37
00000050: e660 9636 2598 fb36 bd49 0e37 dbce 3436
00000060: 311d cf32 7741 2531 790b 2137 e98b 0f32
00000070: 7ca2 e735 a48f bc34 5f35 f632 bf28 ec36
00000080: a113 5236 4955 0337 5e7e 6631 d789 3836
00000090: 4ef5 8334 f2f5 1533 02d9 af34 a250 8536
000000a0: 0502 0833 4c86 fc36 410f cb31 fe10 d935
000000b0: 9a17 4234 60b2 9335 3e4a 8136 5540 0237
000000c0: 2351 8f31 e4ae a931 bb78 4d34 c859 4637
000000d0: f245 af35 21e7 0137 70fb 3033 d92f 2036
000000e0: 8698 7333 3a05 6b30 2755 3f36 bee7 c332
000000f0: cf5b 5637 30e8 2336 8789 6432 d226 3435
00000100: 7176 ba32 380f f636 70f1 2832 9bba 1932
00000110: a8a9 8e37 3a43 7036 1b6e b435 0863 c335
00000120: f765 9d32 b4d6 2c37 fa5a 4532 9a33 5832
00000130: 43da 3033 5f20 a435 8c85 b435 a3e6 8634
00000140: 5231 ed35 3dc0 1333 d3c3 2c32 c163 ed32
00000150: 2f1a 6f38 5723 4135 f64d bc36 63ef 4737
00000160: 2a0f 6836 f082 5236 91c5 be35 83a7 b336
00000170: 3f61 8d36 827f 4635 8785 1437 e0df d331
00000180: 2e35 a937 be29 c037 54df 3234 6ae0 5636
00000190: 7048 bd32 38e8 bb35 9735 4e31 428f 7f31
000001a0: fcfc cc37 ab14 2137 3ef2 6732 8aaf 7437
000001b0: 11c8 9631 7c24 fd36 8b3d 5137 ba4e 2036
000001c0: 7c66 bd37 5f0b 1333 fb85 0032 9676 7335
000001d0: 71c5 9e31 6a52 2337 5cec 4a34 d9fc 8032
000001e0: f8c6 1237 75c7 5f34 0cb0 b534 aced 4131
000001f0: c5a1 5a35 caa6 d036 7654 d435 1d6e 9835
1.0651937e-06 1.3882208e-08 6.264662e-09 3.2557623e-06 3.9309356e-09 8.172692e-07 1.5369855e-07 1.1687439e-08
3.4783046e-08 2.1696235e-06 4.5354923e-08 1.9423354e-05 3.488693e-06 9.777538e-07 1.1008002e-07 2.1208184e-08
4.2269654e-08 7.604441e-06 1.6720596e-09 1.22174215e-05 4.481629e-06 7.498095e-06 8.481028e-06 2.6942496e-06
2.4111246e-08 2.4047873e-09 9.599019e-06 8.355507e-09 1.725813e-06 3.512224e-07 2.866244e-08 7.0380916e-06
3.1303864e-06 7.8280655e-06 3.3541236e-09 2.749837e-06 2.4579134e-07 3.4915452e-08 3.2754184e-07 3.9730958e-06
3.1666804e-08 7.5258195e-06 5.9098118e-09 1.6172705e-06 1.8076244e-07 1.1004267e-06 3.8531425e-06 7.763582e-06
4.171072e-09 4.93843e-09 1.9136034e-07 1.18226235e-05 1.3058873e-06 7.742813e-06 4.1206874e-08 2.386971e-06
5.6716566e-08 8.549993e-10 2.8510783e-06 2.2806372e-08 1.277677e-05 2.4424044e-06 1.3302617e-08 6.7111716e-07
2.170711e-08 7.333143e-06 9.833784e-09 8.948201e-09 1.7006721e-05 3.5801918e-06 1.344309e-06 1.4557454e-06
1.8323574e-08 1.0301988e-05 1.1487595e-08 1.2584588e-08 4.11767e-08 1.2228373e-06 1.3449912e-06 2.5127255e-07
1.767223e-06 3.4400944e-08 1.0056243e-08 2.7635794e-08 5.7006426e-05 7.194953e-07 5.6119125e-06 1.1917061e-05
3.457952e-06 3.1368654e-06 1.4213603e-06 5.3541166e-06 4.2134484e-06 7.3946296e-07 8.852577e-06 6.16636e-09
2.0171134e-05 2.2907621e-05 1.6658788e-07 3.201911e-06 2.2035437e-08 1.400017e-06 3.0007408e-09 3.7188816e-09
2.44365e-05 9.60116e-06 1.3501049e-08 1.4584404e-05 4.3883195e-09 7.544235e-06 1.24717e-05 2.3887683e-06
2.2578279e-05 3.4236447e-08 7.481044e-09 9.069712e-07 4.6208517e-09 9.734746e-06 1.8898703e-07 1.5016143e-08
8.748604e-06 2.0841055e-07 3.3841968e-07 2.8220297e-09 8.1446734e-07 6.2183e-06 1.5819812e-06 1.135693e-06
