results/petfollower21/PetFollower/PetFollower-69973.onnx (onnx, 543913 bytes, 11 tensors)

network_body.observation_encoder.processors.0.normalizer.running_mean f4 [8]
0.039611787 -0.026070746 0.03778834 0.002494133 -0.0015892102 -0.0028469209 14.575629 0.87668693
00000000: f83f 223d 5192 d5bc f2c7 1a3d 9c74 233b
00000010: 0c4d d0ba 6893 3abb c735 6941 8e6e 603f

network_body._body_endoder.seq_layers.0.weight f4 [256, 8]
-0.18456015 -0.16383263 0.021690635 -0.17068718 0.0016673268 -0.36129928 0.19618534 -0.26878121
-0.10251754 0.36555612 0.014078048 -0.6458449 0.015405026 -0.16502829 0.31519905 -0.36527044
-0.26869914 0.5200936 0.28904295 0.7683277 0.0042603854 -0.102778986 -0.02454002 0.06785851
-0.45459458 0.28077883 0.53223795 0.2127763 0.39035407 0.5555234 -0.16723388 0.80915606
-0.88779646 -0.26085243 0.41225168 0.15119779 -0.43151602 -0.3584094 -0.3795636 0.228017
-0.056046557 -0.016738467 0.25527072 -0.637627 0.14628161 -0.014547708 0.32120755 -0.58442974
0.0033472055 -0.22119117 -0.1626173 0.26920873 -0.65255755 -0.036541738 -0.114550106 0.004556438
-0.31606585 0.4124971 0.0641802 0.08191689 -0.023845356 -0.3774541 0.36393675 0.1765762
-0.27262756 -0.36392623 -0.003256577 -0.20315604 -0.08218722 0.56133246 -0.28394815 -0.016583318
0.57591265 -0.037057303 -0.21586834 -0.72050565 0.44988385 0.51513374 0.5462324 0.09849001
-0.16232449 -0.5017859 -0.61944234 -0.21647058 0.2835684 -0.13113542 0.022767354 0.60316974
-0.02327551 0.12535156 -0.25689274 -0.19222637 -0.24164867 0.01463264 0.3584357 -0.28498557
-0.013244192 -0.31284723 -0.08440769 0.2080676 0.27078187 -0.96824306 -0.15385306 0.3180485
-0.17653328 0.038844246 -0.2280974 -0.33361787 0.17252675 0.013790876 0.56110716 -0.072029434
0.59432954 0.00978842 -0.4091919 -0.23587728 -0.4069501 0.055858802 -0.36325538 -0.4339262
0.111498 -0.22009417 -0.21099213 -0.29361725 0.13140307 0.16254926 0.29675326 0.528375
-0.20419195 -0.45684084 -0.092459135 0.36678436 -0.16462159 0.025320403 -0.440912 -0.2684358
0.4726255 0.27019534 0.0819416 0.3954921 -0.5561087 -0.16208477 -0.25541627 -0.2150689
0.09436513 -0.39638445 -0.31498826 0.049737293 0.7409805 -0.15804085 0.1080565 -0.03426822
0.04744922 0.1336573 -0.19461991 0.0011186212 0.17414087 0.3558951 -0.016366499 0.14865555
-0.00041952732 0.3773886 0.4174292 0.6026829 0.6242048 -0.4566016 -0.04856401 -0.30656692
0.039488748 -0.6628674 -0.015776694 -0.39170378 -0.11690594 -0.058810305 -0.11917152 -0.38918474
-0.41430745 -0.014078646 0.28446522 0.45554882 -0.34376183 -0.8139783 0.28705075 0.25044784
0.44648018 0.6982842 -0.06521912 -0.15917343 -0.3765262 0.39973485 0.3120217 0.065659754
-0.876998 0.29314765 0.2879283 -0.38250387 0.16252872 0.1937875 -0.2578131 0.18829653
0.38837364 -0.70754516 -0.20612513 -0.37948304 0.5626085 0.2868184 0.84334815 -0.23745264
0.20530812 0.20754707 0.48473546 -0.22715807 0.15909255 0.13296628 0.013539945 0.4959054
-0.20078234 -0.12268288 0.08766275 -0.26050454 0.43584424 0.06962309 -0.23998806 0.8910123
-0.63586396 0.10489258 -0.34465456 0.71656567 -0.4016604 0.7286218 -0.036579 -0.09093009
0.52479714 0.3933781 0.5357355 0.057678252 -0.286885 0.32214344 0.47238597 0.12334154
-0.7449205 -0.19934216 0.56712997 0.002103599 -0.24458659 -0.30999017 -0.08054772 -0.1516291
0.23764716 0.1080912 0.076991655 -0.0664052 0.6687517 0.3886397 -0.15463454 -0.02646666
00000000: 56fd 3cbe bec3 27be 8fb0 b13c 9fc8 2ebe
00000010: 348a da3a 38fc b8be cfe4 483e b19d 89be
00000020: b7f4 d1bd 2c2a bb3e 9da7 663c 1756 25bf
00000030: 5d65 7c3c 2dfd 28be c561 a13e ba04 bbbe
00000040: ef92 89be db24 053f 70fd 933e 20b1 443f
00000050: b49a 8b3b ca7d d2bd 2708 c9bc 67f9 8a3d
00000060: 9fc0 e8be 3ec2 8f3e bf40 083f 08e2 593e
00000070: 7ddc c73e c836 0e3f 5c3f 2bbe da24 4f3f
00000080: a146 63bf 738e 85be a712 d33e 98d3 1a3e
00000090: abef dcbe 7081 b7be 2956 c2be 4a7d 693e
000000a0: 1391 65bd 1c1f 89bc d8b2 823e 863b 23bf
000000b0: d9ca 153e 8359 6ebc 5175 a43e 309d 15bf
000000c0: ca5c 5b3b f07f 62be 2685 26be bad5 893e
000000d0: 030e 27bf caac 15bd 3f99 eabd 2c4e 953b
000000e0: 62d3 a1be d232 d33e e970 833d 0bc4 a73d
000000f0: 5657 c3bc aa41 c1be eb55 ba3e 64d0 343e
00000100: d795 8bbe 8a54 babe 4c6c 55bb 2308 50be
00000110: c651 a8bd 7cb3 0f3f a761 91be bdd9 87bc
00000120: 036f 133f 66c9 17bd 970c 5dbe 0f73 38bf
00000130: 2d57 e63e cedf 033f e3d5 0b3f 21b5 c93d
00000140: 6438 26be 0a75 00bf c693 1ebf 77aa 5dbe
00000150: e12f 913e 5d48 06be 9a82 ba3c 5569 1a3f
00000160: 48ac bebc 295c 003e 7287 83be fdd6 44be
00000170: c072 77be bebd 6f3c e284 b73e a1e9 91be
00000180: 2bfe 58bc 832d a0be f0dd acbd ac0f 553e
00000190: eca3 8a3e c7de 77bf a88b 1dbe 41d7 a23e
000001a0: 24c5 34be 251b 1f3d 5d92 69be f6cf aabe
000001b0: daaa 303e 20f3 613c b8a4 0f3f 2b84 93bd
000001c0: fb25 183f 9c5f 203c 9a81 d1be d089 71be
000001d0: c35b d0be 33cc 643d 9cfc b9be 932b debe
000001e0: 1059 e43d 5e60 61be 520e 58be 0055 96be
000001f0: 878e 063e 5073 263e 0bf0 973e 9643 073f
00000200: b217 51be 0be7 e9be 375b bdbd 29cb bb3e
00000210: 9092 28be bc6c cf3c 38bf e1be 6b70 89be
00000220: f8fb f13e 0b57 8a3e ffd0 a73d f17d ca3e
00000230: 245d 0ebf 8df9 25be ecc5 82be 063b 5cbe
00000240: 8142 c13d e7f2 cabe 2446 a1be 55b9 4b3d
00000250: e6b0 3d3f 76d5 21be ba4c dd3d d55c 0cbd
00000260: 1d5a 423d 76dd 083e 714a 47be b39e 923a
00000270: fc51 323e e237 b63e 0913 86bc 2939 183e
00000280: 01f4 dbb9 1439 c13e 48b9 d53e 6d49 1a3f
00000290: e3cb 1f3f afc7 e9be 0eeb 46bd 57f6 9cbe
000002a0: f4be 213d aeb1 29bf 203e 81bc 668d c8be
000002b0: 626c efbd 13e3 70bd 3310 f4bd 3943 c7be
000002c0: 1b20 d4be 1faa 66bc 6da5 913e b23d e93e
000002d0: 8d01 b0be e260 50bf 51f8 923e b33a 803e
000002e0: 0d99 e43e c1c2 323f 9a91 85bd 5cfe 22be
000002f0: 0bc8 c0be 0caa cc3e 4fc1 9f3e 9f78 863d
00000300: f182 60bf 7317 963e 576b 933e 8cd7 c3be
00000310: ee6d 263e 3b70 463e 1400 84be ced0 403e
00000320: e9d8 c63e ae21 35bf 7712 53be 9a4b c2be
00000330: 1c07 103f dcd9 923e aae5 573f c926 73be
00000340: 4b3c 523e 3887 543e 3f2f f83e 209c 68be
00000350: 28e9 223e 5028 083e a5d6 5d3c 50e7 fd3e
00000360: e399 4dbe 2941 fbbd 8788 b33d da60 85be
00000370: fa26 df3e 8d96 8e3d 6ebf 75be 6219 643f
00000380: fbc7 22bf ecd1 d63d 9076 b0be d970 373f
00000390: 6fa6 cdbe f586 3a3f ddd3 15bd 8e39 babd
000003a0: 1b59 063f db68 c93e f625 093f 0840 6c3d
000003b0: 97e2 92be fcef a43e 93dc f13e 7d9a fc3d
000003c0: 1cb3 3ebf 5a20 4cbe 6e2f 113f 89dc 093b
000003d0: e874 7abe 08b7 9ebe 34f6 a4bd a944 1bbe
000003e0: c759 733e eb5e dd3d cdad 9d3d 73ff 87bd
000003f0: 5033 2b3f c8fb c63e 8458 1ebe 9cd0 d8bc

network_body._body_endoder.seq_layers.0.bias f4 [256]
0.00019910917 -0.013373452 -0.008609041 -0.00616474 0.002302731 -0.014118884 0.002226607 -0.0071340944
0.003997437 -0.011665975 -0.0008541854 -0.018734101 0.005615498 -0.0247103 -0.011971498 -0.015070157
0.0017223328 0.007658992 -0.0068473727 0.0115546165 0.0024422426 0.005529611 -0.008495268 -0.012103825
-0.0033174206 -0.016549867 0.0051884996 0.006701438 0.005298621 -0.011629738 0.0035150545 0.007844643
-0.0040001348 0.009334864 -0.016842714 -0.007276434 -0.001996162 -0.0039254357 -0.008892004 -0.004957539
-0.003289824 -0.008785638 -0.0225323 -0.006589904 -0.0017506474 -0.009342496 -0.0054439437 -0.011196906
-0.009892308 -0.001570758 0.0025799798 0.0068206047 -0.010703985 -0.015869407 -0.0083602015 -0.0020477949
-0.0034660876 0.010638659 0.008440655 0.0032938858 0.015450111 -0.024166321 -0.004970972 -0.004561072
-0.008186579 -0.012878469 -0.002661825 -0.009589482 -0.0025643941 0.012024913 0.015625874 -0.006335051
-0.012704717 -0.009941858 -0.0017938894 -0.0011588839 -0.0020017514 0.0007994776 0.0019345476 0.012630974
0.022592567 0.00036573282 -0.0044527804 -0.0025357478 0.004009139 -0.016431805 -0.007247368 -0.0043633613
-0.018378222 0.004308634 -0.013899542 -0.034592528 -0.0031732013 -0.015926195 -0.009778746 -0.0013821733
-0.0078056445 -0.02584368 -0.017850777 -0.00059710955 -0.01832185 -0.008096168 -0.0077252705 -0.013452986
-0.00020762623 -0.0039846874 0.026882792 -0.004721342 -0.0074806153 -0.011174665 0.007653057 0.008945641
-0.0061480477 -0.00730834 0.006660214 -0.00045907273 -0.0056414083 -0.0044443454 0.0083845835 -0.012444902
0.004540545 -0.011731717 0.0065402985 0.0051540146 -0.02168252 -0.0004654943 0.0014345467 -0.004286563
-0.012014156 -0.010372796 -0.013948258 -0.013847363 -0.009312341 -0.012332491 -0.008009585 -0.006641358
-0.01738729 -0.0043768003 -0.0017171422 -0.0053714393 0.005692167 -0.00997776 0.011827503 -0.005228653
0.0073925275 -0.02041121 -0.008302525 0.0013767753 0.016681507 0.005068044 -0.008130967 -0.003185348
0.0056780786 -0.004884648 -0.011470414 0.012830827 0.007349215 -0.0141632445 -0.0068726316 -0.01615898
-0.001211262 -0.013492358 0.0013846115 -0.00047078682 -0.0058906684 -0.012374093 -0.01805321 -0.010319733
-0.008726572 -0.015822092 -0.0005383276 -0.0055174376 -0.010123485 -0.019223806 0.0061908644 -0.008626148
-0.010385091 0.02546526 -0.013444635 -0.0039800415 0.0063133077 0.0057304576 -0.01734736 0.00051724096
-0.007970331 6.9168855e-05 -0.01038091 0.002552439 0.016021432 0.0027442472 0.00042210272 -0.01107505
-0.009107123 0.0110725025 0.015314163 -0.012642565 0.00904452 -0.012448845 0.015127216 -0.0010605757
-0.0014440675 -0.0007963361 -0.009870812 -0.00949146 -0.01083004 0.0059542796 -0.01027165 -0.007010286
-0.011203981 0.009629585 -0.0042132447 0.006442276 0.014076569 -0.005407111 0.00081068923 -0.008519634
-0.011907661 0.0011657797 0.009610303 0.0045315474 -0.016017001 -0.0050313794 -2.8875977e-05 0.011833439
-0.01896889 -0.0014901445 -0.01645788 0.006389142 -0.015921976 0.0059741703 -0.0016292766 -0.0047772834
-0.0007532959 0.0024314206 0.0015357396 0.011036657 -0.012436096 -0.00078022166 -0.0026852316 0.010888792
-0.00042227376 -0.010272895 -0.005708088 0.024899077 -0.006817778 0.00939517 -0.0024057894 0.004070962
-0.005343702 -0.012437195 -0.0020635843 -0.005566296 -0.0045877984 0.002087074 0.00957567 -0.019867694
00000000: f6c7 5039 531c 5bbc ef0c 0dbc 9601 cabb
00000010: 6ae9 163b e452 67bc 44ec 113b 1fc5 e9bb
00000020: effc 823b a522 3fbc 69eb 5fba 4278 99bc
00000030: 3602 b83b 416d cabc 1a24 44bc d2e8 76bc
00000040: e6bf e13a 48f8 fa3b ed5f e0bb 934f 3d3c
00000050: 080e 203b bd31 b53b bd2f 0bbc 1f4f 46bc
00000060: 1569 59bb 9693 87bc 4a04 aa3b bd97 db3b
00000070: 0ea0 ad3b a88a 3ebc d45c 663b d186 003c
00000080: 9013 83bb 42f1 183c bbf9 89bc 276f eebb
00000090: 0bd2 02bb f1a0 80bb c5af 11bc da72 a2bb
000000a0: 169a 57bb a3f1 0fbc a895 b8bc 1ff0 d7bb
000000b0: fb75 e5ba 4511 19bc 1c63 b2bb 3a73 37bc
000000c0: 5913 22bc e4e1 cdba e114 293b 617f df3b
000000d0: c45f 2fbc 8f00 82bc 3af9 08bc 4c34 06bb
000000e0: 4d27 63bb c54d 2e3c ac4a 0a3c 3cde 573b
000000f0: 7622 7d3c 73f8 c5bc 89e3 a2bb 0c75 95bb
00000100: 0021 06bc 3700 53bc 0372 2ebb 341d 1dbc
00000110: 650f 28bb 2404 453c d501 803c 4296 cfbb
00000120: 7227 50bc 2de3 22bc f120 ebba b1e5 97ba
00000130: d12f 03bb 0994 513a a590 fd3a 25f2 4e3c
00000140: 0c14 b93c d4bf bf39 a1e8 91bb ca2e 26bb
00000150: 185f 833b fe9b 86bc 547b edbb 87fa 8ebb
00000160: ed8d 96bc 712f 8d3b e8ba 63bc e5b0 0dbd
00000170: 7cf5 4fbb a777 82bc 0937 20bc 0a2a b5ba
00000180: 7ec6 ffbb 20b6 d3bc cb3b 92bc 5887 1cba
00000190: b417 96bc caa5 04bc 4424 fdbb ea69 5cbc
000001a0: 3eb6 59b9 fb91 82bb 4d39 dc3c 7db5 9abb
000001b0: f31f f5bb f115 37bc 7fc6 fa3b bd90 123c
000001c0: 9075 c9bb cd7a efbb ed3d da3b b3af f0b9
000001d0: 90db b8bb dfa1 91bb 7e5f 093c b4e5 4bbc
000001e0: dac8 943b 6336 40bc 0050 d63b 02e3 a83b
000001f0: 8a9f b1bc 960d f4b9 6607 bc3a 4c76 8cbb
00000200: 06d7 44bc a9f2 29bc 3c87 64bc 0de0 62bc
00000210: ca92 18bc 370e 4abc a23a 03bc c09f d9bb
00000220: ca6f 8ebc 436b 8fbb bb11 e1ba e602 b0bb
00000230: 5c85 ba3b c279 23bc 25c8 413c 1f55 abbb
00000240: 043d f23b 6935 a7bc 5007 08bc ea74 b43a
00000250: a8a7 883c d611 a63b bf37 05bc 45c1 50bb
00000260: 2d0f ba3b 660f a0bb 67ee 3bbc 6438 523c
00000270: afd1 f03b f40c 68bc d033 e1bb d65f 84bc
00000280: 35c3 9eba 0d0f 5dbc da7b b53a f0d3 f6b9
00000290: 8206 c1bb b5bc 4abc 53e4 93bc 1914 29bc
000002a0: e5f9 0ebc 559d 81bc 8e1e 0dba 9fcb b4bb
000002b0: f9dc 25bc 3e7b 9dbc bcdc ca3b b054 0dbc
000002c0: 3b26 2abc 859c d03c e346 5cbc 026b 82bb
000002d0: dddf ce3b 90c6 bb3b 0d1c 8ebc 7497 073a
000002e0: fe95 02bc bf0e 9138 b114 2abc d246 273b
000002f0: 613f 833c d4d8 333b ab4d dd39 2074 35bc
00000300: 0b36 15bc 7169 353c 41e8 7a3c c322 4fbc
00000310: 772f 143c 3ef6 4bbc 24d8 773c 0403 8bba
00000320: dd46 bdba 36c1 50ba 30b9 21bc 1282 1bbc
00000330: 7b70 31bc 1e1c c33b 6c4a 28bc 8bb6 e5bb
00000340: e790 37bc 68c5 1d3c 420f 8abb ba19 d33b
00000350: 69a1 663c 222e b1bb 6f84 543a ef95 0bbc
00000360: 5a18 43bc 13cd 983a 8874 1d3c 607d 943b
00000370: 1636 83bc 45de a4bb b03a f2b7 0ae1 413c
00000380: a564 9bbc f450 c3ba add2 86bc 025c d13b
00000390: ce6e 82bc f9c2 c33b 738d d5ba c28a 9cbb
000003a0: d578 45ba 7858 1f3b df4a c93a 18d3 343c
000003b0: c4c0 4bbc ca87 4cba b6fa 2fbb e766 323c
000003c0: a064 ddb9 a54f 28bc ea0a bbbb 26f9 cb3c
000003d0: ab67 dfbb 33ee 193c 73aa 1dbb b465 853b
000003e0: 391a afbb 60c5 4bbc 333d 07bb 7a65 b6bb
000003f0: 3e55 96bb 4bc7 083b 45e3 1c3c 93c1 a2bc

network_body._body_endoder.seq_layers.2.weight f4 [256, 256]
0.050779074 -0.020483706 0.18325175 0.061036415 -0.052360088 0.07855839 0.12595311 0.07013549
-0.060702834 -0.03817574 -0.05805687 0.010983244 -0.030229153 -0.10253141 -0.038902156 0.039805252
-0.09236454 -0.08474844 -0.073406115 0.0028676107 -0.121183544 -0.07219471 -0.010257343 0.06213226
0.1255792 -0.06801077 0.10950598 -0.03242079 -0.0433938 0.04215229 0.047922377 -0.105147615
0.051620238 -0.038236164 -0.0156788 0.06541673 0.021762487 -0.031868327 -0.083287045 -0.04473499
-0.052590195 0.009859287 0.013139184 -0.026222806 -0.006205602 -0.05971667 -0.066140965 0.039813716
-0.14572793 0.023494007 -0.029749848 0.02666228 0.061085388 -0.036335036 -0.06283235 -0.030454539
0.030811956 -0.05163526 0.022305073 -0.049943123 -0.005073118 -0.05542759 0.01089547 0.045932315
0.15198307 -0.064214684 -0.036054466 0.048131187 0.019932665 0.17463027 -0.038748298 0.041036285
0.064264044 -0.072774135 0.017569575 0.0011552438 0.0038490433 -0.09712133 0.0206919 -0.032577403
-0.09502594 0.0018624715 0.13036634 0.051304113 -0.0012407205 -0.07173218 0.051203124 -0.022248128
0.12625411 0.053158756 -0.054570317 0.0034904184 -0.06671687 -0.09931552 0.030309303 0.15820074
0.012515532 0.11126295 -0.08680348 0.07519239 0.09278058 -0.025460208 0.036486488 -0.030419094
-0.004309547 -0.022948885 0.086940266 -0.10501439 0.08947905 -0.02488283 0.04115322 -0.058054827
0.079602554 0.005584312 -0.0522272 0.04810388 0.007618485 -0.08731533 0.044117223 0.010682428
-0.114765294 -0.16243044 -0.008983983 -0.048112277 -0.04034134 -0.01670668 0.03120746 0.14812203
0.055221565 0.14578119 0.05475906 -0.009310037 -0.0061074216 0.11338817 0.038130704 -0.0014095114
0.0009096877 0.012318888 0.11361684 0.040310528 -0.014074938 0.12010892 0.03935232 0.038617626
-0.05931156 -0.02715555 -0.093884654 -0.024816155 -0.037112575 -0.032990903 -0.032835376 0.04708168
0.05097668 -0.092475146 -0.12049291 0.07386195 0.042373966 0.12291444 -0.006549527 0.03906762
0.07520771 -0.029278802 -0.008947004 -0.023211299 -0.08227403 0.020309327 -0.008939333 0.03474442
-0.058933284 -0.014327216 0.0010722409 -0.057529785 0.026281124 -0.06755263 -0.017189609 -0.05105106
-0.04377535 -0.047831178 -0.04637592 0.031503584 -0.05241034 0.02360559 -0.040177807 0.007806271
0.07795977 -0.084226795 -0.0913787 -0.16673319 -0.026987223 -0.042861182 0.079645835 -0.032681886
-0.026030352 0.088928685 0.023096394 -0.049341083 0.050507512 0.08395069 -0.00050086144 0.027117101
0.097438015 0.037420463 0.00028496582 0.02563455 0.09588932 0.025667196 -0.025035443 0.022906333
-0.009174016 0.027462387 0.054482665 -0.07557669 -0.014383959 0.034506027 0.02282873 0.026775809
-0.018110426 0.01251657 -0.008492419 0.13242419 0.06723057 0.11036952 -0.008185697 0.0927244
0.038737267 -0.018243913 -0.09291986 0.028542412 0.01235791 0.022242362 -0.060699254 0.027710829
-0.02551049 -0.0013293354 -0.06289638 -0.00082358014 0.11493489 -0.031291824 -0.09585628 0.053561363
0.013990326 0.0010982914 0.06499572 0.039725192 0.12825933 -0.064719126 -0.08483032 0.08839957
0.047492675 -0.03278283 -0.024187706 -0.025635552 0.09539363 -0.1378123 -0.040702123 -0.038286954
00000000: b8fd 4f3d 72cd a7bc 59a6 3b3e 5201 7a3d
00000010: 8877 56bd 39e3 a03d daf9 003e 32a3 8f3d
00000020: 89a3 78bd 2a5e 1cbd 0acd 6dbd 10f3 333c
00000030: 21a3 f7bc fdfb d1bd de57 1fbd d50a 233d
00000040: 9f29 bdbd 9790 adbd f255 96bd 86ee 3b3b
00000050: 142f f8bd d2da 93bd 6a0e 28bc 667e 7e3d
00000060: d597 003e 3b49 8bbd ac44 e03d aacb 04bd
00000070: b2bd 31bd e1a7 2c3d 414a 443d a257 d7bd
00000080: be6f 533d 869d 1cbd d470 80bc 35f9 853d
00000090: 3e47 b23c 5d88 02bd 6692 aabd 093c 37bd
000000a0: d168 57bd d988 213c bb45 573c 36d1 d6bc
000000b0: 5d58 cbbb 7899 74bd ea74 87bd b513 233d
000000c0: b439 15be 8176 c03c f4b5 f3bc db6a da3c
000000d0: ac34 7a3d 0cd4 14bd 3fae 80bd cc7b f9bc
000000e0: 5b69 fc3c 7f7f 53bd 21b9 b63c 2991 4cbd
000000f0: 663c a6bb 0a08 63bd ea82 323c 8623 3c3d
00000100: 73a1 1b3e fd82 83bd d9ad 13bd 3525 453d
00000110: d449 a33c 47d2 323e 89b6 1ebd aa15 283d
00000120: de9c 833d 9b0a 95bd 12ee 8f3c 8d6b 973a
00000130: 3b40 7c3b 8ce7 c6bd 0f82 a93c e26f 05bd
00000140: f69c c2bd 2c1e f43a c17e 053e 4324 523d
00000150: ac9f a2ba 52e8 92bd 5eba 513d b541 b6bc
00000160: c248 013e ffbc 593d 2085 5fbd 81bf 643b
00000170: dba2 88bd ef65 cbbd 374b f83c 60ff 213e
00000180: f20d 4d3c d4dd e33d 06c6 b1bd 78fe 993d
00000190: bf03 be3d ed91 d0bc db72 153d 7731 f9bc
000001a0: 1a37 8dbb 4dff bbbc bd0d b23d c911 d7bd
000001b0: cb40 b73d 14d7 cbbc 4790 283d e6ca 6dbd
000001c0: aa06 a33d 9bfc b63b 30ec 55bd 9308 453d
000001d0: 7ca4 f93b 61d2 b2bd 43b4 343d 5a05 2f3c
000001e0: 110a ebbd 2a54 26be 8e31 13bc 6111 45bd
000001f0: f63c 25bd 73dc 88bc caa6 ff3c 4dad 173e
00000200: 0230 623d aa47 153e 094b 603d 2089 18bc
00000210: c420 c8bb 0f38 e83d f12e 1c3d 5bbf b8ba
00000220: 1c78 6e3a 29d5 493c f2af e83d a71c 253d
00000230: 929a 66bc aafb f53d e62f 213d 842d 1e3d
00000240: aef0 72bd 5175 debc 9946 c0bd 404b cbbc
00000250: 5b03 18bd 7821 07bd 637e 06bd b8d8 403d
00000260: eccc 503d 9c63 bdbd fdc4 f6bd ef44 973d
00000270: 5390 2d3d 91ba fb3d 6a9d d6bb 5e05 203d
00000280: 8006 9a3d 19da efbc 7496 12bc 9f25 bebc
00000290: 497f a8bd bf5f a63c 4876 12bc 2a50 0e3d
000002a0: 0764 71bd b3bc 6abc 6f8a 8c3a 5aa4 6bbd
000002b0: 834b d73c 0959 8abd 39d1 8cbc eb1a 51bd
000002c0: c84d 33bd a0ea 43bd adf4 3dbd e709 013d
000002d0: 3aac 56bd 8360 c13c 7c91 24bd bfcb ff3b
000002e0: 5fa9 9f3d 197f acbd c224 bbbd 1bbc 2abe
000002f0: 4f14 ddbc 358f 2fbd 5b1d a33d 71dd 05bd
00000300: 9b3d d5bc 3e20 b63d a634 bd3c e019 4abd
00000310: f7e0 4e3d 57ee ab3d 3e4c 03ba af24 de3c
00000320: 958d c73d 3346 193d 7767 9539 8cff d13c
00000330: 9f61 c43d 0344 d23c 2117 cdbc 10a6 bb3c
00000340: 9d4e 16bc cdf8 e03c 3729 5f3d f4c7 9abd
00000350: b2aa 6bbc 3156 0d3d 5103 bb3c f158 db3c
00000360: 515c 94bc 4d12 4d3c c923 0bbc 359a 073e
00000370: 2eb0 893d 6a09 e23d 4d1d 06bc 4ae6 bd3d
00000380: f8aa 1e3d 4274 95bc c44c bebd c7d1 e93c
00000390: d578 4a3c 9d35 b63c c89f 78bd d201 e33c
000003a0: 60fb d0bc 183d aeba d1cf 80bd 87e5 57ba
000003b0: fc62 eb3d db2b 00bd 4c50 c4bd 2963 5b3d
000003c0: ae37 653c 8bf4 8f3a 7a1c 853d e2b6 223d
000003d0: 6a56 033e 768b 84bd 85bb adbd d50a b53d
000003e0: ae87 423d 4a47 06bd 4c25 c6bc a601 d2bc
000003f0: bc5d c33d ab1e 0dbe 45b7 26bd c8d2 1cbd

network_body._body_endoder.seq_layers.2.bias f4 [256]
-0.006607485 0.0067518596 0.007819977 -0.013373672 -0.0074642426 0.0015522912 -0.0042066155 0.0073978067
0.0044134106 0.009911635 0.0018126237 -0.0011572959 -0.011625732 4.5698704e-05 -0.002296741 -0.013399602
-0.008086195 -0.013344161 -0.013722898 0.0055982694 -0.0101737045 -0.0034795129 -0.0011952954 -0.0012821243
-0.0063435356 -0.005986278 0.0036005455 0.0015059967 0.0047209426 -0.0022538223 -0.0055237035 0.0019711952
-0.008187205 -0.0007445007 -0.0026715393 -0.008753914 0.011094711 0.010679731 -0.0006678299 -0.011340894
-0.0035663408 -0.013258401 -0.0077439193 0.003938962 0.0031080134 0.0068593076 0.018927298 0.005248983
0.0058057588 -0.0050922297 -0.00573773 -0.0024411299 0.003153726 0.010719549 -0.014945724 0.0043730307
-0.020359358 0.003993408 0.011565661 0.005475882 -0.0006321458 -0.008700481 -0.00539274 -0.0029105805
0.011160644 -0.009013301 0.005658541 -0.0015452615 0.017030083 -0.000608654 -0.007203745 -0.016064838
-0.009043422 -0.004523115 -0.0008002182 -0.00095474336 0.0010404033 -0.00429013 -0.013473227 -0.010805495
0.003119788 -0.0026879758 -0.003179396 -0.0030262526 -0.0024086218 -0.009862864 -0.0011356747 0.009087525
-0.009052532 -0.0035908683 -0.0118283145 -0.00037307304 -0.004886042 -0.006394338 0.014964699 -0.0059783775
0.010137003 -0.01575585 -0.021792768 -0.0038962886 -0.009895156 -0.0077359118 0.0027035458 -0.009063925
0.00031442082 0.006440838 -0.008064563 -0.005245258 -0.021230951 0.005625884 -0.014563951 -0.008228504
0.0009723467 -0.0013021367 -0.013104174 -0.004934822 -0.009246283 0.0024484398 -0.0071621095 -0.011319181
0.0003603198 -0.001376933 -0.0036849123 -0.0056568207 0.00402473 0.0012764137 0.002846938 0.012301864
-0.017975448 0.0023044166 -0.0060412553 0.013896598 0.012993101 0.0051723015 0.001052829 -0.009995853
-0.005966978 -0.008900809 0.006856048 0.004869642 -0.000997539 -0.0028929452 -0.008501115 -0.0021526301
0.008756846 0.004235792 0.00067198445 -0.0021514876 -0.012152461 -0.0011952074 0.0043854374 0.008947167
0.0026540074 -0.0066978256 -0.007108773 -0.006784082 0.0021933767 -0.013499619 0.0065819896 -0.012540458
-0.017618792 -0.004658789 -0.0067235013 -0.015801871 -0.006219024 -0.011168227 -0.0005735379 0.0009031113
-0.008718345 0.019708315 -0.0024376418 -0.0011815245 0.0050176247 -0.0048609236 -0.009994656 -0.0069352733
0.001603638 0.0015853692 -0.0052428544 -0.023880504 -0.0067809713 0.002158845 -0.0069842753 -0.004281838
0.009366059 -0.010179798 0.0031212452 -0.0042730244 -0.007959341 0.0060837036 -0.016506134 -0.0038207963
0.0063391696 0.0030801324 -0.0026047244 -0.0097282315 0.00065844686 -0.008177722 0.011948202 0.0009366751
-0.0036571668 0.0020908208 -0.0032696137 -0.012379602 -0.005772866 0.0060945638 -0.005143482 0.0102480035
-0.0022726099 -0.008388616 -0.008079961 0.002422207 -0.0039033743 0.0037194702 0.007356183 0.0047068927
-0.0024340686 -0.0032615203 -0.019853534 -0.008249445 0.004787056 -0.0133441705 -0.011673652 -0.00014697458
-0.010452427 -0.008999623 0.00024727173 0.008295852 -0.0104313735 0.0006999582 -0.0026195575 -0.0052118916
-2.4175482e-05 -0.013447584 -0.0061272588 -0.009707218 0.007729873 -0.012160183 -0.008579128 0.0048423
0.0016646977 -0.012254963 0.0021246446 -0.010569827 -0.009097321 0.009353362 -0.004661902 -0.0068266834
-0.0068938406 -0.0032011545 0.006771395 -0.017585838 -0.008022879 0.001689808 -0.0060802773 -0.008468255
00000000: 9a83 d8bb b43e dd3b 5c1f 003c 3f1d 5bbc
00000010: 9b96 f4bb 4076 cb3a a6d7 89bb 4d69 f23b
00000020: 5f9e 903b 6964 223c 8f95 ed3a 68b0 97ba
00000030: db79 3ebc 9cac 3f38 eb84 16bb 018a 5bbc
00000040: f67b 04bc 78a1 5abc 02d6 60bc b071 b73b
00000050: 9caf 26bc 8a08 64bb 75ab 9cba f40c a8ba
00000060: 6fdd cfbb 8a28 c4bb 21f7 6b3b dd64 c53a
00000070: 23b2 9a3b ddb4 13bb 2f00 b5bb 2b2f 013b
00000080: a023 06bc 992a 43ba fe14 2fbb 946c 0fbc
00000090: 97c6 353c 0afa 2e3c 4e11 2fba 28cf 39bc
000000a0: 45b9 69bb c439 59bc b4c0 fdbb 6812 813b
000000b0: d0af 4b3b 0bc4 e03b 6c0d 9b3c a9ff ab3b
000000c0: 3c3e be3b b8dc a6bb 9103 bcbb 5dfb 1fbb
000000d0: beae 4e3b 0ca1 2f3c e9de 74bc a44b 8f3b
000000e0: abc8 a6bc 22db 823b e67d 3d3c 076f b33b
000000f0: 96b6 25ba 768c 0ebc 95b5 b0bb 70bf 3ebb
00000100: 22db 363c 86ac 13bc 486b b93b 5f8a caba
00000110: ac82 8b3c 148e 1fba 650d ecbb 689a 83bc
00000120: dc2a 14bc a436 94bb bcc5 51ba be47 7aba
00000130: 245e 883a 3894 8cbb cfbe 5cbc 8809 31bc
00000140: 5b75 4c3b c028 30bb 6a5d 50bb 1854 46bb
00000150: f8d9 1dbb da97 21bc ebda 94ba d8e3 143c
00000160: 1251 14bc c654 6bbb 8ccb 41bc 0499 c3b9
00000170: 171b a0bb 9887 d1bb 7f2e 753c 44e6 c3bb
00000180: ac15 263c 6a12 81bc bf86 b2bc e058 7fbb
00000190: 4b1f 22bc 887d fdbb f92d 313b db80 14bc
000001a0: d9d8 a439 aa0d d33b 3b21 04bc 6ae0 abbb
000001b0: 88ec adbc 5659 b83b a39d 6ebc d9d0 06bc
000001c0: 15e5 7e3a 75ac aaba e4b2 56bc 4ab4 a1bb
000001d0: b97d 17bc 0176 203b 21b0 eabb 1674 39bc
000001e0: 4ee9 bc39 347a b4ba 927e 71bb da5c b9bb
000001f0: e2e1 833b 564d a73a b293 3a3b c28d 493c
00000200: 3f41 93bc b205 173b b9f5 c5bb 8eae 633c
00000210: 04e1 543c 697c a93b 14ff 893a a5c5 23bc
00000220: a486 c3bb b3d4 11bc b3a8 e03b 8591 9f3b
00000230: dbbf 82ba 9197 3dbb 4348 0bbc 2413 0dbb
00000240: e078 0f3c 66cc 8a3b 1d28 303a f9ff 0cbb
00000250: 1e1b 47bc 81a8 9cba b7b3 8f3b 2397 123c
00000260: dbee 2d3b 6f79 dbbb b6f0 e8bb 014d debb
00000270: c1be 0f3b 822d 5dbc bbad d73b 7e76 4dbc
00000280: 4955 90bc c1a8 98bb d150 dcbb ed72 81bc
00000290: f4c8 cbbb f0fa 36bc 7a59 16ba c6be 6c3a
000002a0: 64d7 0ebc 5573 a13c d8c0 1fbb 62dd 9aba
000002b0: e36a a43b 6248 9fbb a0c0 23bc 4a41 e3bb
000002c0: 2a31 d23a 2acc cf3a 40cc abbb 0ca1 c3bc
000002d0: e932 debb 697b 0d3b 59dc e4bb a94e 8cbb
000002e0: 1974 193c 2bc9 26bc ce8d 4c3b ba04 8cbb
000002f0: e567 02bc ce59 c73b df37 87bc 5366 7abb
00000300: cfb8 cf3b 0cdc 493b 06b4 2abb 2963 1fbc
00000310: 9f9b 2c3a dafb 05bc 64c2 433c 348b 753a
00000320: 14ad 6fbb 2706 093b 0447 56bb d0d3 4abc
00000330: 4f2a bdbb e8b4 c73b a78a a8bb 3ee7 273c
00000340: 11f0 14bb 6870 09bc d061 04bc e4bd 1e3b
00000350: c1cf 7fbb 5bc2 733b 230c f13b 473c 9a3b
00000360: e584 1fbb 3bbf 55bb e1a3 a2bc ae28 07bc
00000370: bcdc 9c3b 82a1 5abc d842 3fbc 301d 1ab9
00000380: a840 2bbc 2873 13bc 40a4 8139 53eb 073c
00000390: 5ae8 2abc 667d 373a e2ac 2bbb 84c8 aabb
000003a0: 74cc cab7 4153 5cbc 2cc7 c8bb 060b 1fbc
000003b0: e04a fd3b 813b 47bc 798f 0cbc 28ac 9e3b
000003c0: fc31 da3a 0ac9 48bc 9f3d 0b3b 112d 2dbc
000003d0: ee0c 15bc d83e 193c dec2 98bb 5fb2 dfbb
000003e0: bae5 e1bb 76ca 51bb 94e2 dd3b 2d10 90bc
000003f0: 6572 03bc 8c7c dd3a 103d c7bb 70be 0abc

network_body._body_endoder.seq_layers.4.weight f4 [256, 256]
0.09025906 0.023802117 0.032373123 0.08750538 0.10378779 0.008139091 -0.08151487 -0.060089555
0.01579764 0.013575421 0.016416451 -0.15212731 0.04525394 -0.004839021 0.00940603 -0.010531231
0.019687044 0.073598444 0.011099432 0.07569976 -0.02789065 0.03651573 0.029232038 0.024311258
0.036742054 0.057033155 0.018373122 -0.017929165 -0.023954276 0.13157383 0.088121355 0.04629243
0.053603556 -0.03927207 -0.107368246 -0.0522196 -0.10829645 0.06679642 -0.17147905 0.070095636
-0.039584436 -0.089968 0.061528385 0.07910666 0.013929572 0.031918537 -0.13324828 -0.08329553
-0.10305554 0.100881204 -0.11631715 0.066139214 0.041453518 -0.12771198 -0.09416465 -0.05130004
0.03519617 -0.0033003683 -0.17750847 -0.0139135085 -0.113881886 0.043036588 0.07260035 -0.0068725334
-0.072438575 -0.019655399 -0.072233535 -0.11119957 0.033942346 -0.01797451 -0.014063074 0.11366733
-0.018161086 0.08457306 -0.0069261333 0.07887263 0.060149156 -0.07030891 -0.091216244 -0.043950435
0.07708496 0.056783203 -0.0938502 0.0051530167 0.032337733 -0.071215846 0.0021221908 -0.010333415
0.054148946 0.038790666 0.0059270207 -0.062078 0.049890473 -0.051973935 0.020171683 -0.046823043
0.09887868 -0.018554978 -0.089051455 0.038976975 0.061984237 0.037532307 0.014586657 0.034766987
-0.09938564 0.16951971 -0.09597475 -0.006771048 -0.016054502 -0.03334104 0.076263174 0.05194107
0.040355656 -0.05890926 -0.0023819895 -0.031113474 0.09117036 -0.019197283 -0.00245498 0.02326896
-0.0121703865 0.005223626 0.013240689 0.05869958 0.009297987 -0.042099047 0.047520824 -0.03784686
0.058726918 -0.014949545 0.11614215 0.106254786 0.037365682 0.047567938 -0.03071229 0.01786735
0.032992944 0.017933358 0.056877315 0.032772895 -0.05836869 -0.07609146 -0.06796107 0.016692929
0.0957214 0.13266428 -0.13540234 -0.0027550296 0.041469153 0.020832682 0.0008149962 -0.02067389
0.03863255 0.07679815 0.045349263 0.03187619 0.03383565 0.025290594 0.02578851 0.027581101
0.043846358 -0.03059091 0.0336513 0.07123391 0.10965158 -0.031853795 -0.038519934 -0.037619155
-0.03508704 -0.05211 0.0498085 0.10050381 -0.06384638 -0.016157238 0.038931664 -0.045730934
-0.075746335 -0.021373801 0.0014845112 -0.04910299 0.049275946 0.03976463 0.06273281 0.08339801
0.061991643 -0.07481451 0.1331593 0.061046958 0.038608685 -0.0135783795 0.009604872 -0.1403601
-0.15366866 0.058235485 -0.036088903 -0.011883016 -0.0032723448 0.063844234 -0.003827138 0.04238722
0.01337961 0.005202201 -0.097287655 0.069542624 -0.043171957 -0.012846327 -0.057710923 0.06432724
-0.027927669 0.089072086 -0.024727225 -0.019071417 -0.023338465 -0.02471538 -0.027231174 -0.14100443
-0.055629887 -0.036462113 0.03391774 -0.09937156 -0.014875065 0.007324847 0.14958505 -0.000856932
0.032596435 -0.085585095 0.012341231 -0.11323679 0.07363135 0.03411221 0.121649295 0.021434918
-0.0016138155 -0.003977423 0.039934654 0.04651423 -0.0527677 0.009452695 0.0142235365 -0.055209443
-0.050337717 0.08401909 -0.01884937 -0.017408347 -0.05226567 0.009245295 0.032921232 -0.03387897
-0.032323513 -0.015651098 -0.12946494 0.016350185 -0.117088765 -0.09732382 0.0049057435 0.073422156
00000000: bed9 b83d a8fc c23c ae99 043d 0536 b33d
00000010: b18e d43d d259 053c 45f1 a6bd 7720 76bd
00000020: 0d6a 813c 716b 5e3c cb7b 863c 43c7 1bbe
00000030: 325c 393d a690 9ebb c01b 1a3c 2f8b 2cbc
00000040: b946 a13c c8ba 963d 64da 353c 7a08 9b3d
00000050: ef7a e4bc 8591 153d 0778 ef3c 6728 c73c
00000060: d67e 163d 999b 693d 3b83 963c 2fe0 92bc
00000070: c23b c4bc 4abb 063e f878 b43d 229d 3d3d
00000080: 678f 5b3d c0db 20bd e2e3 dbbd 38e4 55bd
00000090: 87ca ddbd 90cc 883d 3498 2fbe 4d8e 8f3d
000000a0: 4a23 22bd 2541 b8bd 3005 7c3d ac02 a23d
000000b0: dc38 643c 03bd 023d 3d72 08be d996 aabd
000000c0: c80e d3bd ce9a ce3d b037 eebd ff73 873d
000000d0: 2acb 293d eec6 02be 65d9 c0bd fe1f 52bd
000000e0: dc29 103d fe4a 58bb c8c4 35be 7cf5 63bc
000000f0: e83a e9bd 2247 303d 7eaf 943d fd32 e1bb
00000100: ad5a 94bd 5c04 a1bc 2def 93bd 9abc e3bd
00000110: 2107 0b3d 483f 93bc cf68 66bc 6bca e83d
00000120: 8fc6 94bc a434 ad3d 9ef4 e2bb f987 a13d
00000130: f65e 763d 1efe 8fbd 95cf babd 5f05 34bd
00000140: b8de 9d3d 8195 683d 8934 c0bd a3da a83b
00000150: 9274 043d 9dd9 91bd 7414 0b3b 7c4d 29bc
00000160: 49cb 5d3d f6e2 1e3d 7437 c23b 8045 7ebd
00000170: f459 4c3d 9fe2 54bd 163f a53c 85c9 3fbd
00000180: e880 ca3d 9c00 98bc 9c60 b6bd 52a6 1f3d
00000190: 2fe3 7d3d 7abb 193d e0fc 6e3c d467 0e3d
000001a0: b38a cbbd 9396 2d3e 698e c4bd abdf ddbb
000001b0: bb84 83bc 9d90 08bd de2f 9c3d 29c0 543d
000001c0: f94b 253d d64a 71bd 271b 1cbb afe1 febc
000001d0: 87b7 ba3d 9f43 9dbc bbe3 20bb 8c9e be3c
000001e0: 4d66 47bc f32a ab3b 7aef 583c f96e 703d
000001f0: 9656 183c 0d70 2cbd 32a5 423d 4f05 1bbd
00000200: a38b 703d f0ee 74bc efdb ed3d 1c9c d93d
00000210: c20c 193d 99d6 423d 5798 fbbc 8c5e 923c
00000220: 9c23 073d fae8 923c 30f8 683d df3c 063d
00000230: 0214 6fbd d7d5 9bbd 2c2f 8bbd 9cbf 883c
00000240: 9509 c43d 25d9 073e e9a6 0abe ba8d 34bb
00000250: 8fdb 293d 4da9 aa3c 78a5 553a 4a5c a9bc
00000260: 2a3d 1e3d 5948 9d3d 26c0 393d 9c90 023d
00000270: 4097 0a3d 382e cf3c 6d42 d33c c3f1 e13c
00000280: 3d98 333d ca99 fabc f2d5 093d 16e3 913d
00000290: 0291 e03d 2079 02bd 14c7 1dbd 8b16 1abd
000002a0: 6eb7 0fbd 4c71 55bd ff03 4c3d f1d4 cd3d
000002b0: e4c1 82bd 2f5c 84bc cf76 1f3d 5c50 3bbd
000002c0: e520 9bbd 1c18 afbc ee93 c23a 3820 49bd
000002d0: 93d5 493d 3de0 223d 0f7a 803d 93cc aa3d
000002e0: f3ea 7d3d 5a38 99bd e95a 083e 600c 7a3d
000002f0: 2424 1e3d da77 5ebc c15d 1d3c 8fba 0fbe
00000300: 515b 1dbe 5588 6e3d f5d1 13bd fbb0 42bc
00000310: d674 56bb c4c0 823d b9d0 7abb 399e 2d3d
00000320: 2736 5b3c 3a77 aa3b c03e c7bd 5d6c 8e3d
00000330: 14d5 30bd 6779 52bc 4a62 6cbd 00be 833d
00000340: 91c8 e4bc 6d6b b63d c090 cabc a93b 9cbc
00000350: 4f30 bfbc e977 cabc e913 dfbc 7763 10be
00000360: 2adc 63bd 4c59 15bd 54ed 0a3d 5183 cbbd
00000370: 8bb6 73bc 4505 f03b d32c 193e bca3 60ba
00000380: d783 053d 3d47 afbd e032 4a3c b1e8 e7bd
00000390: 09cc 963d 3fb9 0b3d 4423 f93d 4898 af3c
000003a0: aa86 d3ba 0b55 82bb 8592 233d b585 3e3d
000003b0: f222 58bd 7adf 1a3c d609 693c 4c23 62bd
000003c0: ec2e 4ebd 3312 ac3d fe69 9abc f39b 8ebc
000003d0: 8714 56bd 9479 173c 6ad8 063d adc4 0abd
000003e0: a965 04bd bb36 80bc 7592 04be d3f0 853c
000003f0: 3ccc efbd b651 c7bd 5cc0 a03b 5b5e 963d

network_body._body_endoder.seq_layers.4.bias f4 [256]
-0.007681623 0.00291311 -0.0054216054 -0.006007479 -0.00455109 -0.0014769662 -0.00082758174 -0.0052128164
-0.0033061204 -0.0065290015 7.755219e-05 -0.0068033175 0.0070983768 -0.001466461 -0.0052241636 -0.0016720383
-0.008022392 0.014000765 -0.0075170407 -0.003973408 0.0022225871 -0.000258302 -0.014539205 -0.0035044318
-0.0029855943 -0.0069671604 -0.0020179236 0.0008329021 -0.013338164 -0.004813607 -0.002618057 -0.0022989446
0.004312339 -0.0040858244 0.0027914657 0.0060670697 -0.010106352 -0.005267435 0.004114128 0.003102855
0.010297523 0.0021803426 -0.0051830565 -0.002126598 0.0013934758 -0.0029942067 0.0027559572 0.0019638995
-0.0020985042 -0.003959508 -0.007559011 0.0016958019 0.0070955222 -0.01069457 0.0015599328 -0.0030783976
-0.005245486 0.0013237714 0.0033333604 0.00036751913 0.0033473566 -0.0027006818 -0.0022774257 0.0038070106
-0.0065014805 -0.0011337075 -0.0035060996 -0.0031198184 -0.0005205566 -0.00251346 -0.0045596403 0.00048828346
-0.011746637 -0.0010162045 -0.0013527918 0.0041474686 0.0036587329 0.00068748853 0.00848623 -0.0035614148
-0.0020520124 -0.0016359175 0.0010807797 -0.0020859241 0.0018477051 -0.006616364 0.005700196 0.004310515
-0.0011558764 0.0017282831 4.285097e-05 -0.0025609399 -0.006753146 -0.005403465 -0.002588482 -0.0062240195
0.0016680013 0.002131884 -0.0020299943 -0.0014626723 -0.010730017 0.002323297 -0.005046613 -0.0009657033
-0.0006950654 -0.003987154 -0.007991777 -0.004082716 0.0062835477 -0.0038320345 0.0044424664 -0.00529741
-0.005983497 0.0013025205 -0.001925199 -0.012229794 -0.0065015703 -0.00021379822 0.00067769544 -0.0020595829
-0.0071657375 -0.00476852 -0.0027996013 0.0059501557 -0.005300093 0.0031020034 0.010313917 0.003957102
-0.01673553 -0.00372479 -0.008236218 -0.0013911924 -0.0008075813 -0.0029810162 -0.001322134 -0.002682408
-0.011536204 -0.0063311416 -0.0058929417 -0.004333572 -0.007682864 0.0071572317 0.00010794119 -0.010081982
0.0027572988 0.000688691 -0.0035352858 -0.0037052424 0.0049226233 0.004898018 -0.0022488735 -0.001516076
-0.007771969 -0.0069950745 -0.0020982332 -0.0017614327 0.00825155 -0.0031035508 -0.005315251 0.0012810687
-0.0028244895 -0.0021869359 -0.0007392013 -0.0006755977 -0.00751389 -0.011947387 -0.006834019 0.003693772
-0.004476191 -0.0046850033 -0.0026196565 -0.0072007054 -0.002810586 -0.0027702367 0.0013455632 0.0034835497
-0.0032927075 0.0073608076 -0.011096754 0.0037767633 -0.00089998625 -0.0033322216 0.003415032 -0.003999602
-0.0069597834 -0.00036940264 -0.0053184754 -0.0014238029 -0.006131895 -0.0035253807 -0.0041301707 -0.0038429387
0.0013562719 -0.0003606978 -0.0027258652 -0.00047879084 -0.0043318216 0.0048170364 -0.009406033 -0.0039609047
-0.0046884315 0.0012844874 -0.0020585281 0.002032249 0.0039138333 -0.006345452 0.0008336207 -0.007785498
0.004530534 -0.0023702239 0.006425807 -0.0021920977 -0.001748505 -0.012635325 0.008355975 -0.0017695552
-0.0005577144 -0.007271919 -0.0037528046 0.0032224997 0.0012538761 -0.0035441602 0.0012494429 -0.006392438
-0.000968646 -0.0011383127 -0.0047412496 0.0006045798 -0.007123301 -0.005213471 -0.010035273 -0.0057535735
-0.0032569466 0.00026696236 0.0026721982 -0.0029519699 -0.0026743256 -0.020674702 0.0027435708 -0.011092747
-0.004699802 -0.006223883 0.010187884 0.008943396 -0.0046792584 -0.004249399 -0.0028589866 -0.0026660278
-0.0029434103 -0.004385461 0.0077935695 -0.00578989 -0.004068766 0.0029000435 -0.016442413 -0.0047522746
00000000: 20b6 fbbb e0e9 3e3b b9a7 b1bb 63da c4bb
00000010: 4f21 95bb c396 c1ba 12f2 58ba 46d0 aabb
00000020: 7fab 58bb 3cf1 d5bb 84a3 a238 5dee debb
00000030: 8099 e83b 4436 c0ba 762f abbb 4c28 dbba
00000040: 5a70 03bc 7763 653c 8251 f6bb 5d33 82bb
00000050: d3a8 113b b56c 87b9 d835 6ebc 9caa 65bb
00000060: f6a9 43bb c74c e4bb 243f 04bb 1d57 5a3a
00000070: 5188 5abc 76bb 9dbb b593 2bbb e4a9 16bb
00000080: 854e 8d3b 61e2 85bb 06f1 363b 45ce c63b
00000090: 1d95 25bc 739a acbb cfcf 863b 4559 4b3b
000000a0: f1b6 283c 14e4 0e3b a1d6 a9bb 655e 0bbb
000000b0: 4aa5 b63a 743a 44bb 4a9d 343b c4b4 003b
000000c0: 0f87 09bb c3be 81bb 95b1 f7bb ab45 de3a
000000d0: 8e81 e83b 4738 2fbc a976 cc3a f1be 49bb
000000e0: 53e2 abbb 6682 ad3a 8274 5a3b 95af c039
000000f0: 535f 5b3b ecfd 30bb dd40 15bb 0a7f 793b
00000100: 5f0a d5bb e998 94ba 97c6 65bb de75 4cbb
00000110: f675 08ba dcb8 24bb 0969 95bb 2600 003a
00000120: f774 40bc 2a32 85ba 2950 b1ba 7de7 873b
00000130: 5ac7 6f3b 9338 343a d409 0b3c a066 69bb
00000140: 0e7b 06bb 486c d6ba f3a8 8d3a 00b4 08bb
00000150: b22e f23a 15ce d8bb b6c8 ba3b 383f 8d3b
00000160: c780 97ba 8f87 e23a e1ba 3338 71d5 27bb
00000170: 7f49 ddbb 8d0f b1bb 86a3 29bb dcf2 cbbb
00000180: d6a0 da3a 14b7 0b3b a709 05bb 23b7 bfba
00000190: f4cc 2fbc 7542 183b 0f5e a5bb 4027 7dba
000001a0: 0d35 36ba aca6 82bb f1ef 02bc 4ec8 85bb
000001b0: 38e6 cd3b df22 7bbb 1c92 913b e595 adbb
000001c0: 3611 c4bb 56b9 aa3a f556 fcba 795f 48bc
000001d0: 200b d5bb 062f 60b9 5fa7 313a 11fa 06bb
000001e0: 90ce eabb 3f41 9cbb 8479 37bb 86f9 c23b
000001f0: 67ac adbb fb4a 4b3b b4fb 283c 94aa 813b
00000200: f318 89bc 9b1b 74bb 34f1 06bc ac58 b6ba
00000210: ddb3 53ba 275d 43bb 754b adba 57cb 2fbb
00000220: 5902 3dbc 7775 cfbb 9419 c1bb a300 8ebb
00000230: 89c0 fbbb 3687 ea3b 7c5e e238 e62e 25bc
00000240: ccb3 343b 4589 343a 41b0 67bb a7d3 72bb
00000250: f54d a13b 8e7f a03b d661 13bb 12b7 c6ba
00000260: 00ac febb f036 e5bb 8382 09bb e0df e6ba
00000270: 8231 073c f164 4bbb 8f2b aebb 88e9 a73a
00000280: 121b 39bb b252 0fbb f6c6 41ba 981a 31ba
00000290: 1437 f6bb f9be 43bc e8ef dfbb 3613 723b
000002a0: 03ad 92bb a884 99bb 8bae 2bbb e5f3 ebbb
000002b0: cf31 38bb dc8c 35bb 9c5d b03a 444c 643b
000002c0: 77ca 57bb ee32 f13b 29cf 35bc 9383 773b
000002d0: 0eed 6bba 6761 5abb bbce 5f3b 180f 83bb
000002e0: e50e e4bb 62ac c1b9 9b46 aebb e69e baba
000002f0: 10ee c8bb 130a 67bb 6256 87bb d0d9 7bbb
00000300: efc4 b13a 0a1c bdb9 6ea4 32bb 3806 fbb9
00000310: f4f1 8dbb 3bd8 9d3b c31b 1abc 7aca 81bb
00000320: 6aa1 99bb 3f5c a83a 5fe8 06bb 7b2f 053b
00000330: 9d3f 803b 82ed cfbb 5787 5a3a 7e1d ffbb
00000340: e074 943b c255 1bbb 938f d23b 4ca9 0fbb
00000350: 182e e5ba 6504 4fbc 80e7 083c 6bf0 e7ba
00000360: 9433 12ba 4749 eebb 9df1 75bb 9330 533b
00000370: 1a59 a43a 2445 68bb 59c4 a33a a877 d1bb
00000380: bcec 7dba 7033 95ba 7c5c 9bbb aa7c 1e3a
00000390: 946a e9bb c4d5 aabb fc6a 24bc 7988 bcbb
000003a0: 7f72 55bb 15f7 8b39 0c20 2f3b d675 41bb
000003b0: bd43 2fbb fe5d a9bc 7bcd 333b 5abe 35bc
000003c0: cc00 9abb b7f1 cbbb 15eb 263c 5287 123c
000003d0: 7754 99bb 8b3e 8bbb d65d 3bbb 86b8 2ebb
000003e0: 3be6 40bb eab3 8fbb 3361 ff3b 1eb9 bdbb
000003f0: 4853 85bb a80e 3e3b 3db2 86bc f8b8 9bbb

action_model._continuous_distribution.log_sigma f4 [1, 2]
-0.05394676 0.004883408
00000000: 47f7 5cbd ff04 a03b

action_model._continuous_distribution.mu.weight f4 [2, 256]
0.012330242 0.016222296 5.487306e-05 0.0065338444 -0.00475237 0.0015837088 0.0018841022 -0.008665126
0.016785791 0.008249035 -0.008235044 -0.004909265 0.03231985 0.0035676458 0.0019071345 -0.011414422
0.008580337 0.0076746456 0.010747579 0.024155391 0.029852591 0.009050392 0.004795816 -0.0005338354
0.014894187 -0.022732107 -0.016224049 -0.011225754 0.00050019514 0.017953562 -0.006086899 0.00016037824
0.01788075 0.007352018 -0.027546529 -0.011182954 0.0021846802 0.0140303755 -0.031168971 -0.015207318
0.016872052 0.027048612 -0.0014421083 0.008399575 0.0006710081 0.017750217 0.0038657044 -0.012711565
-0.011591544 0.024561308 0.00012396883 -0.020856207 0.008284795 0.0014091838 -0.017547937 -0.0013924278
-0.0021281955 0.01010988 -0.02478792 0.007833868 -0.0119689945 -0.0131012155 0.01227762 0.0064851837
0.0046017533 0.012831031 0.008335736 0.00026323867 -0.001489744 -0.00037882492 0.013994417 -0.008854297
-0.0015840238 -0.0007929559 -0.023465954 -0.032419715 -0.030661626 -0.021603266 0.017573746 0.018241042
0.010157295 0.006865243 0.020979322 -0.01980186 -0.017372275 0.019802796 0.008307653 0.0044868737
-0.0076561556 -0.0011209482 0.00067032746 -0.002046783 0.011207862 -0.0030710315 -0.029091597 -0.0013448381
-0.023542237 -0.03427171 0.003400462 0.018198133 -0.0053161727 -0.017300377 0.007851437 0.03583858
-0.00448806 -0.008290346 0.002261546 -5.978977e-05 -0.01835378 0.0031579027 0.009416302 -0.0035224527
0.0024603417 -0.0077745 0.023421632 0.0044904337 -0.0049111606 0.025247805 0.011957075 -0.0106516825
-0.0100636175 -0.0052060857 -0.0029324947 0.03223932 0.014700187 -0.02541832 0.014120597 -0.03931156
-0.00045358762 -0.0011707763 0.017802663 -0.006611871 0.020696118 0.010435682 0.0108969 -0.005320435
-0.00028647992 -0.0031231823 -0.0018273555 -0.011748876 -0.00859381 -0.007171018 0.01236061 0.0027558296
-0.007487745 0.023216242 -0.0043382235 -0.0016652206 -0.009031579 -0.03046667 0.016206928 -0.0005711308
0.0034477937 -0.0020472922 -0.010550983 0.007853733 0.024498375 0.014783544 0.0066090217 -0.012008357
-0.00541554 -0.007222805 -0.007291969 -0.0073343753 -0.0002797396 0.008949332 0.006176492 -0.031719033
0.0123547865 0.00023207905 0.012393332 -0.002887978 -0.009144752 0.011146906 0.0038065286 -0.0122436015
0.017410265 0.027666774 0.012010695 -0.01117489 0.022580381 -0.010519037 -0.013464439 -0.011026788
-0.019215522 -0.0072266837 -0.0021201314 -0.011029946 0.004859061 0.0064292694 0.010033866 0.011714989
-0.033414323 -0.009064823 0.0064222203 0.003917125 0.007702374 0.011669028 -0.0066509927 -0.0015231693
0.002638587 -0.022082446 0.02216033 -0.0064377333 -0.007284459 -0.00053534337 -0.010867303 0.011685689
-0.028367281 0.021689443 0.013025946 -0.00931623 -0.0053175255 0.0074956017 -0.0071515604 0.017744783
-0.01633206 0.0021411972 0.013139843 0.019937707 0.014896705 -0.0033365139 -0.00060920435 -0.00045868423
-0.0036892542 0.009082926 -0.0032338744 -0.009008584 0.010479768 -0.006698214 0.010750558 -0.0013561058
0.0096568735 0.026786413 -0.030286787 -0.001640413 -0.006217349 -0.0018274436 0.004259887 0.010243862
0.0024278415 -0.0025133777 -0.001965722 0.0040707206 0.020207806 -0.010903526 -0.0019882307 -0.018125895
0.0015022403 0.001763406 0.0185443 -0.0013444381 -0.0023937207 0.0050381785 0.005284396 0.009760843
00000000: c904 4a3c 9fe4 843c 8027 6638 dc19 d63b
00000010: c5b9 9bbb 7394 cf3a fbf3 f63a 2cf8 0dbc
00000020: 5b82 893c f626 073c 47ec 06bc e6dd a0bb
00000030: d261 043d 2acf 693b d1f8 f93a 8e03 3bbc
00000040: 8b94 0c3c 987b fb3b 9d16 303c 87e1 c53c
00000050: 6c8d f43c 1848 143c 3826 9d3b 16f1 0bba
00000060: c006 743c af38 babc 4ce8 84bc 3aec 37bc
00000070: 871f 033a 5913 933c 9c74 c7bb 352b 2839
00000080: a77a 923c 32e9 f03b 42a9 e1bc b538 37bc
00000090: da2c 0f3b a9df 653c 1256 ffbc 1d28 79bc
000000a0: 4237 8a3c 0d95 dd3c 2005 bdba 5f9e 093c
000000b0: 97e6 2f3a e768 913c c257 7d3b 2b44 50bc
000000c0: 76ea 3dbc cc34 c93c a1fd 0139 a3da aabc
000000d0: f3bc 073c 5db4 b83a b1c0 8fbc 2082 b6ba
000000e0: 3279 0bbb e9a3 253c 0910 cbbc a059 003c
000000f0: 9a19 44bc 7ba6 56bc 1228 493c aa81 d43b
00000100: 4eca 963b 3f39 523c 9c92 083c 4c03 8a39
00000110: 8443 c3ba 059d c6b9 d748 653c 9d11 11bc
00000120: 059f cfba 5fde 4fba ac3b c0bc 89ca 04bd
00000130: 172e fbbc 55f9 b0bc d1f6 8f3c 3d6e 953c
00000140: c86a 263c d5f5 e03b d4dc ab3c 8337 a2bc
00000150: 4d50 8ebc 7939 a23c d21c 083c a006 933b
00000160: 7de0 fabb c8ec 92ba eab8 2f3a 5223 06bb
00000170: 2ea1 373c 5c43 49bb 8051 eebc 4745 b0ba
00000180: a6db c0bc 7e60 0cbd 49da 5e3b 4014 953c
00000190: 4a33 aebb 85b9 8dbc 50a3 003c 7acb 123d
000001a0: 9310 93bb 3bd4 07bc 7236 143b c7c6 7ab8
000001b0: ab5a 96bc d1f4 4e3b d546 1a3c f3d8 66bb
000001c0: af3d 213b 3cc1 febb b9de bf3c 7d24 933b
000001d0: cded a0bb 7cd4 ce3c 9ce7 433c 6584 2ebc
000001e0: dfe1 24bc d097 aabb 192f 40bb 610d 043d
000001f0: 0ed9 703c 153a d0bc 145a 673c 2905 21bd
00000200: 80cf edb9 bc74 99ba e4d6 913c 65a8 d8bb
00000210: e88a a93c 6cfa 2a3c e988 323c 0b57 aebb
00000220: af32 96b9 4eae 4cbb e083 efba 5c7e 40bc
00000230: 0dcd 0cbc dcfa eabb 2884 4a3c 269b 343b
00000240: c25b f5bb fd2f be3c a827 8ebb 8843 daba
00000250: 30f9 13bc 3d95 f9bc 64c4 843c f0b7 15ba
00000260: 61f4 613b dd2b 06bb 08de 2cbc f2ac 003c
00000270: d1b0 c83c ad36 723c 7e90 d83b b3be 44bc
00000280: d874 b1bb 48ad ecbb 78f1 eebb 3355 f0bb
00000290: 03aa 92b9 38a0 123c 2c64 ca3b d1eb 01bd
000002a0: bb6b 4a3c 3f5a 7339 670d 4b3c 3b44 3dbb
000002b0: dfd3 15bc 83a1 363c f476 793b 6399 48bc
000002c0: f99f 8e3c 6ea5 e23c 82c8 443c e316 37bc
000002d0: 7efa b83c 0a58 2cbc f399 5cbc b3a9 34bc
000002e0: df69 9dbc d1cd ecbb e7f1 0abb f2b6 34bc
000002f0: c238 9f3b 9fac d23b 1665 243c 3af0 3f3c
00000300: 75dd 08bd a084 14bc 7d71 d23b 3a5b 803b
00000310: 3264 fc3b 732f 3f3c 92f0 d9bb 15a5 c7ba
00000320: 25ec 2c3b 3fe6 b4bc 9589 b53c 9ff3 d2bb
00000330: 79b2 eebb 4956 0cba c60c 32bc 5575 3f3c
00000340: 8062 e8bc 0fae b13c c76a 553c 1aa3 18bc
00000350: a33e aebb aa9d f53b a357 eabb 825d 913c
00000360: d0ca 85bc 5453 0c3b 7f48 573c 6754 a33c
00000370: 4f11 743c 6aa9 5abb 03b3 1fba 8e7b f0b9
00000380: 6ac7 71bb 8ed0 143c 69ef 53bb bd98 13bc
00000390: 55b3 2b3c b17c dbbb 1c23 303c 5cbf b1ba
000003a0: dd37 1e3c 2e6f db3c ff1b f8bc 2003 d7ba
000003b0: e7ba cbbb d586 efba 8696 8b3b dfd5 273c
000003c0: 6c1c 1f3b 7bb7 24bb 58d3 00bb ae63 853b
000003d0: d78a a53c b4a4 32bc fa4c 02bb c27c 94bc
000003e0: d2e6 c43a 1622 e73a 37ea 973c db37 b0ba
000003f0: f8df 1cbb 4e17 a53b ba28 ad3b f1eb 1f3c

action_model._continuous_distribution.mu.bias f4 [2]
-0.0013158214 0.003935307
00000000: a477 acba bff3 803b

onnx::Div_56 f4 [8]
0.71775806 0.045045603 0.6922039 0.729177 0.0195405 0.68044156 7.9052687 0.22496809
00000000: febe 373f bd81 383d 4634 313f 58ab 3a3f
00000010: 6613 a03c 6b31 2e3f f6f7 fc40 095e 663e
