Assets/results/petfollower18/PetFollower/PetFollower-3489.pt (torch, 451008 bytes, 44 tensors)

network_body.observation_encoder.processors.0.normalizer.running_mean f4 [8]
0	0xbd88ceba	-0.06680055
1	0xbd5177de	-0.051139705
2	0xbcac7848	-0.021053448
3	0xbbe49fd3	-0.0069770603
4	0xbe2574a3	-0.16157775
5	0x3c40f220	0.011776477
6	0x40e84d85	7.259463
7	0x3ea8ab0d	0.32943

network_body.observation_encoder.processors.0.normalizer.running_variance f4 [8]
0	0x44f0c2be	1926.0857
1	0x41d55e9a	26.671192
2	0x44bd1fdb	1512.9955
3	0x44a1421c	1290.0659
4	0x438aa0c1	277.2559
5	0x44e37d1a	1819.9094
6	0x483eccbd	195378.95
7	0x437a2c44	250.17291

network_body.processors.0.normalizer.running_mean f4 [8]
0	0xbd88ceba	-0.06680055
1	0xbd5177de	-0.051139705
2	0xbcac7848	-0.021053448
3	0xbbe49fd3	-0.0069770603
4	0xbe2574a3	-0.16157775
5	0x3c40f220	0.011776477
6	0x40e84d85	7.259463
7	0x3ea8ab0d	0.32943

network_body.processors.0.normalizer.running_variance f4 [8]
0	0x44f0c2be	1926.0857
1	0x41d55e9a	26.671192
2	0x44bd1fdb	1512.9955
3	0x44a1421c	1290.0659
4	0x438aa0c1	277.2559
5	0x44e37d1a	1819.9094
6	0x483eccbd	195378.95
7	0x437a2c44	250.17291

network_body._body_endoder.seq_layers.0.weight f4 [128, 8]
0	0xbc9bd8ab	-0.019024214
1	0xbecef400	-0.40420532
2	0x3d64209d	0.055695165
3	0x3f18dc82	0.5971147
4	0x3ee01e39	0.43773058
5	0xbe58ad66	-0.21159896
6	0x3ec89dd0	0.391829
7	0x3e72d921	0.2371564
8	0xbe2ff937	-0.17184912
9	0x3c4826f8	0.012216322
10	0x3ee005f5	0.43754545
11	0xbeda593a	-0.426462
12	0xbe5a788a	-0.21335045
13	0x3c96ce02	0.018408779
14	0x3f823188	1.0171366
15	0xbf03a7e3	-0.5142805
16	0xbdc379dd	-0.09544728
17	0x3f30d2c5	0.6907161
18	0x3c897ad0	0.016782194
19	0x3eaf3396	0.34219044
20	0x3ca987b0	0.020694584
21	0xbd84800b	-0.06469735
22	0x3d99db0a	0.075124815
23	0xbd72353f	-0.05913281
24	0x3ddf8347	0.10913711
25	0xbc861738	-0.016368493
26	0xbcd4da32	-0.02598295
27	0x3c237b45	0.00997812
28	0x3ed3a073	0.4133335
29	0x3e4c27f4	0.19937116
30	0x3eb6e65b	0.35722622
31	0x3ea0ed55	0.3143107
32	0x3e081d5c	0.1329245
33	0xbe819efa	-0.25316602
34	0xbecfc837	-0.4058244
35	0xbed7277b	-0.4202231
36	0x3f1ee2c2	0.62064755
37	0xbdfce19e	-0.123477206
38	0x3ec5078a	0.38482314
39	0xbbaa0991	-0.0051891287
40	0x3ebbeca3	0.36703977
41	0xbeb0c1af	-0.3452277
42	0xbe73afd2	-0.23797539
43	0xbf1df789	-0.61705834
44	0xbdf822e8	-0.12116033
45	0x3c3bb765	0.011457299
46	0xbe060aa8	-0.13090003
47	0xbcf7f546	-0.030268323
48	0xbf6ab0cb	-0.91676015
49	0x3e32c3e2	0.17457536
50	0xbe6d822f	-0.23194192
51	0x3f1148ed	0.567519
52	0x3ef52743	0.47881517
53	0xbf239454	-0.63898206
54	0xbf32bdc6	-0.6982082
55	0x3f179ff1	0.59228426
56	0xbe290cbb	-0.16508763
57	0xbe202a3f	-0.15641116
58	0x3d073892	0.033012934
59	0xbaecb259	-0.0018058523
60	0xbd2c6b28	-0.04209438
61	0x3e226437	0.15858541
62	0x3e909e98	0.28245997
63	0x3e147534	0.14497834
64	0xbedea9aa	-0.43488818
65	0xbe9d4b2a	-0.30721408
66	0xbe176f9d	-0.14788671
67	0x3f314241	0.6924172
68	0x3e5e8260	0.21729422
69	0x3ec3c8ac	0.38239038
70	0xbf11963d	-0.5686987
71	0x3eb4cffc	0.3531493
72	0x3eca9ad1	0.3957124
73	0x3eaae0f0	0.3337474
74	0x3eef7be0	0.46774197
75	0xbdde1eac	-0.10845694
76	0x3d8d7dda	0.0690877
77	0xbde283b5	-0.110602774
78	0x3e8080c1	0.2509823
79	0x3efb1d87	0.49045965
80	0x3f12e257	0.5737662
81	0x3e578da2	0.21050122
82	0x3ebe66c9	0.37187794
83	0x3e45077e	0.1924114
84	0xbdea5b67	-0.11443215
85	0xbeb19c1e	-0.3468942
86	0xbeec4858	-0.46148944
87	0xbe9c594e	-0.30536884
88	0x3cdc9551	0.026926668
89	0x3e13b3d0	0.14424062
90	0xbed817cc	-0.42205656
91	0x3f313acb	0.69230336
92	0xbd54c918	-0.05194959
93	0x3f064728	0.52452326
94	0xbe6f6ea8	-0.23382056
95	0x3e878095	0.26465288
96	0xbeeb1ca3	-0.45920286
97	0xbd231662	-0.039816268
98	0xbedd263e	-0.4319324
99	0x3eccc352	0.39992768
100	0x3e0b75ea	0.136192
101	0x3cde521f	0.027138768
102	0xbb030227	-0.0019990297
103	0x3c9c7edb	0.019103458
104	0xbd870199	-0.065921016
105	0x3e8c697c	0.27424228
106	0xbebca67f	-0.36845776
107	0xbe2321dd	-0.15930887
108	0x3c2fa524	0.010720525
109	0x3ed3cba6	0.4136631
110	0x3ed5191d	0.41620722
111	0xbd3f5eac	-0.046721146
112	0x3ed4144a	0.4142173
113	0x3f51c492	0.8194057
114	0xbd6fd325	-0.058550972
115	0x3f14cb23	0.5812246
116	0x3e60c45b	0.21949904
117	0xbdbbbda6	-0.09167032
118	0x3e97015f	0.29493234
119	0xbdbd55be	-0.0924487
120	0xbeb7d9aa	-0.35908252
121	0x3dad23ac	0.084540695
122	0xbdee9ffa	-0.11651607
123	0x3eb005b5	0.34379354
124	0xbda2b954	-0.07945505
125	0xbe1f9ec1	-0.15587904
126	0x3e87e02c	0.26538217
127	0xbdd5e4d1	-0.10444034
128	0xbe2f1499	-0.17097701
129	0xbe91ab2a	-0.284509
130	0x3e57c97b	0.21072952
131	0x3eacd527	0.33756372
132	0x3f45cf96	0.77269876
133	0x3e780da7	0.24223958
134	0xbe31fa66	-0.17380676
135	0x3e3c7c49	0.18406786
136	0x3f08bb6a	0.5341097
137	0xbe010133	-0.12598114
138	0xbd8720ee	-0.06598078
139	0x3e465ca8	0.19371283
140	0x3e81b94c	0.25336683
141	0x3eefd601	0.4684296
142	0x3e8e277a	0.27764493
143	0x3e80d801	0.25164798
144	0xbf028c81	-0.5099564
145	0x3e745ef9	0.23864354
146	0xbe86cb1f	-0.26326844
147	0xbd8025dd	-0.06257222
148	0x3eb0d65e	0.3453855
149	0x3c64ee39	0.013972812
150	0x3df30876	0.11866848
151	0xbed49c75	-0.41525617
152	0xbdbdc768	-0.09266549
153	0x3e654e69	0.22393192
154	0x3f28dc8c	0.6596153
155	0xbe0297e7	-0.12753259
156	0x3f0094c8	0.5022702
157	0xbeda9df5	-0.42698637
158	0x3ea98df1	0.33116105
159	0x3c828404	0.01593209
160	0x3ded2ab5	0.11580411
161	0xbea02c7e	-0.31283945
162	0xbf1a3b61	-0.60246855
163	0xbe6b9d98	-0.23009336
164	0x3e2724b1	0.1632259
165	0xbf1bdb60	-0.60881615
166	0xbe8d14d5	-0.27554956
167	0xbeafc196	-0.34327382
168	0x3e3e03b9	0.18556108
169	0xbdae8309	-0.08521087
170	0x3eae7bfd	0.3407897
171	0xbedede48	-0.43528962
172	0xbd7a3414	-0.06108482
173	0xbe6d24a7	-0.23158513
174	0x3c599e12	0.013282316
175	0x3e3d95e3	0.18514208
176	0xbe42c0f8	-0.19018924
177	0xbd94e3d4	-0.07270017
178	0x3d8a7148	0.06759888
179	0xbec31f12	-0.38109642
180	0xbeb9e851	-0.36310056
181	0x3e71036c	0.23536462
182	0xbda9ed56	-0.08297221
183	0x3e81b4e3	0.25333318
184	0x3db5a6b2	0.08869685
185	0xbecdbc2f	-0.40182635
186	0x3eaf00d5	0.34180322
187	0x3ed0f82e	0.40814346
188	0xbf1287d6	-0.5723852
189	0xbf1485d2	-0.58016694
190	0xbe23a0a6	-0.15979251
191	0xbec8f3dd	-0.39248553
192	0xbe9bfc46	-0.30465907
193	0xbbb2ea5b	-0.0054600663
194	0x3ddd37f6	0.10801689
195	0xbdbbdb72	-0.09172715
196	0xbdf13498	-0.117776096
197	0x3eaa344e	0.3324303
198	0x3ba4161d	0.005007519
199	0x3e962642	0.29326063
200	0xbd5df42f	-0.05418795
201	0xbef70039	-0.48242357
202	0xbf4add59	-0.79244
203	0x3d9bbac0	0.07603979
204	0x3e9c9a93	0.3058668
205	0xbebdc837	-0.37066814
206	0xbdc42fb4	-0.09579411
207	0x3e52cded	0.20586367
208	0xbd937d01	-0.07201577
209	0x3e85d43c	0.26138484
210	0xbf0b23c4	-0.5435145
211	0xbe08c02b	-0.13354556
212	0xbe88e85c	-0.26739776
213	0x3e0f8579	0.1401576
214	0xbe4fea63	-0.20304255
215	0xbd082d33	-0.03324623
216	0xbf1e880b	-0.61926335
217	0xbec4a3ef	-0.3840632
218	0xbe028806	-0.12747201
219	0xbe59b6e4	-0.21261173
220	0x3eb0afe8	0.34509206
221	0x3dda6cf8	0.106653154
222	0xbe8296df	-0.2550573
223	0xbe63cda4	-0.22246414
224	0x3d7fb2cd	0.062426377
225	0x3e54e0cb	0.20788877
226	0x3ee95bfe	0.45577997
227	0x3d6c556e	0.05769866
228	0xbd9fcbe1	-0.07802559
229	0x3ee37854	0.4442774
230	0x3ebfc2fd	0.37453452
231	0xbdb974c1	-0.09055472
232	0xbf114051	-0.56738764
233	0x3f2b4b48	0.66911745
234	0xbab96bcb	-0.0014146505
235	0x3c539b0a	0.012915382
236	0xbf3d020f	-0.73831266
237	0xbe8bb648	-0.27287507
238	0xbeb46911	-0.3523641
239	0xbcb07608	-0.021540657
240	0xbf228cd8	-0.6349616
241	0xbf017cac	-0.5058086
242	0x3e1bafb5	0.15203746
243	0x3f010b87	0.50408214
244	0x3ad4b6e3	0.0016228821
245	0xbe6817fc	-0.226654
246	0xbe382e27	-0.17986356
247	0xbee542dd	-0.44777575
248	0x3e82b36a	0.25527507
249	0xbe63814f	-0.22217296
250	0x3e39e871	0.18155076
251	0xbe6078d4	-0.21921092
252	0x3dd92e0c	0.10604486
253	0xbe94629b	-0.2898148
254	0xbe0f61d0	-0.14002156
255	0xbee48eaf	-0.4464011

network_body._body_endoder.seq_layers.0.bias f4 [128]
0	0x3b7b628e	0.0038358304
1	0xba431b83	-0.0007442759
2	0x3a639fa3	0.00086831505
3	0xba7c58bd	-0.000962626
4	0x3b7a2885	0.0038171124
5	0x3b4c7f6a	0.0031203874
6	0xbb683220	-0.0035430267
7	0xbba0a5e7	-0.0049025896
8	0xbbacdf73	-0.0052756607
9	0x3baefcd1	0.0053401967
10	0x3b70ec41	0.0036761912
11	0xb9dd1d52	-0.0004217425
12	0x3b76fcbf	0.003768727
13	0xba5ac62d	-0.00083455705
14	0x3bc29c88	0.00593907
15	0xba0e1bcf	-0.0005421014
16	0xbb3493ee	-0.0027553993
17	0x3bb0ae9a	0.005391908
18	0xbc02554a	-0.007954905
19	0x3b9d2a23	0.004796283
20	0x3b059387	0.0020382123
21	0x3b116495	0.0022185196
22	0xbafbe8e0	-0.0019219182
23	0x39ad5564	0.00033060752
24	0x3b1962f8	0.0023404937
25	0x3bcba668	0.0062149055
26	0x3ab38229	0.0013695407
27	0xba0ad276	-0.00052956434
28	0xbb8da021	-0.0043220674
29	0xbaed4305	-0.0018101638
30	0x3b30c325	0.0026971784
31	0x3b14d4f9	0.002270995
32	0xbb4712e3	-0.0030376248
33	0x3b20746c	0.0024483455
34	0xba697abd	-0.0008906534
35	0xbba7f722	-0.005125896
36	0x3bd97e81	0.006637395
37	0xbb6075b0	-0.0034249835
38	0x3ad75f72	0.0016431643
39	0xbb9b9d92	-0.0047490085
40	0x388e49d8	6.784842e-05
41	0xbb27c9a5	-0.0025602367
42	0xbb97413d	-0.0046159313
43	0xba470a59	-0.00075927895
44	0xbb225c3d	-0.0024774217
45	0x3ba242b5	0.0049517998
46	0x3bcc6863	0.00623803
47	0x3aaa8b2b	0.0013011446
48	0x39835ca7	0.00025055298
49	0xba8f2eb4	-0.0010923953
50	0xb9bda08c	-0.00036168506
51	0x3901e4d2	0.00012387641
52	0xbb282cde	-0.0025661509
53	0xbade9c43	-0.0016983825
54	0x3c200dc4	0.009768907
55	0xbb613086	-0.0034361198
56	0xb880e3ca	-6.145945e-05
57	0xbb32e351	-0.0027296136
58	0x3b8eb36f	0.0043548862
59	0x3bc09881	0.005877555
60	0x3ad54c0a	0.0016273272
61	0x3acc0266	0.001556468
62	0x3b8ea550	0.004353203
63	0xbab91309	-0.0014120053
64	0xb9a40e11	-0.00031290998
65	0x3baf3c08	0.0053477325
66	0x3bf9df3b	0.007625488
67	0x3b9c1b56	0.004764001
68	0xbb47e17c	-0.003049939
69	0x395456b2	0.00020250192
70	0xba28b7b6	-0.00064360665
71	0x3a92d5ac	0.0011202595
72	0x3b3646be	0.0027813162
73	0x3b567223	0.003272184
74	0xbb6fa812	-0.0036568684
75	0xbaaf4bf4	-0.0013374076
76	0xbb8bdfea	-0.004268636
77	0x3ad0c78f	0.0015928614
78	0x3bc34a5c	0.005959792
79	0xba42208c	-0.00074053626
80	0xbba88777	-0.005143102
81	0x3b22c089	0.0024833998
82	0xbbca432a	-0.0061725574
83	0x3b05c1e6	0.0020409762
84	0x385f0502	5.3172007e-05
85	0xbba91270	-0.0051596686
86	0x38a4ef22	7.864671e-05
87	0x3b94c289	0.004539792
88	0x3b5fc240	0.0034142882
89	0x3ba9a1ca	0.0051767575
90	0xbb9e199a	-0.0048248293
91	0x3a70133c	0.00091581396
92	0x3b442e69	0.002993489
93	0x39932554	0.00028065837
94	0xbaf182b7	-0.0018425797
95	0xb90854fa	-0.00013001627
96	0xbb852037	-0.004062678
97	0x3b1839df	0.0023227853
98	0x3ae922d9	0.0017786875
99	0xbac00271	-0.0014649165
100	0xbba7b3f7	-0.005117889
101	0x3a86d56b	0.0010286992
102	0xbba65e56	-0.0050771637
103	0x3b822d8c	0.0039727148
104	0x3ad232ef	0.0016036908
105	0xb9ff49ac	-0.0004869228
106	0xbb8b7434	-0.004255796
107	0xbb211942	-0.0024581705
108	0xbbe7681f	-0.0070619727
109	0xb8cb6e8f	-9.7003875e-05
110	0x3bdec51f	0.006798401
111	0xb8647a8e	-5.4473574e-05
112	0x3b068e9b	0.0020531777
113	0x3a2ee90c	0.00066723
114	0x3af77f37	0.0018882517
115	0xbb6863dd	-0.0035459914
116	0x3adbdf28	0.001677488
117	0x3b9b6a75	0.0047429153
118	0xba85e36e	-0.0010214874
119	0x3b7555c5	0.0037435156
120	0x3b98e372	0.0046657855
121	0x3acb11e8	0.0015493007
122	0x3b85e5c0	0.004086226
123	0xbba9f29d	-0.0051863925
124	0x3a8fc4ab	0.0010968646
125	0x3aa86be0	0.0012849532
126	0x3bbcc924	0.0057612825
127	0xba4473c3	-0.00074940565

network_body._body_endoder.seq_layers.2.weight f4 [128, 128]
0	0xbe11b7f2	-0.14230326
1	0xbe0a910f	-0.13531898
2	0xbccb17ac	-0.024791561
3	0x3d8e0c37	0.069359235
4	0x3d4055a6	0.04695668
5	0xbe25b6ab	-0.16182964
6	0x3d3744d0	0.04474336
7	0xbc2dcb44	-0.010607544
8	0x3c3f60ba	0.011680776
9	0xbb185967	-0.0023246647
10	0x3df3c718	0.119032085
11	0x3d7bc725	0.061469216
12	0x3dc66a99	0.09688301
13	0xbe2dea0d	-0.16983815
14	0xbbfa14ae	-0.0076318597
15	0x3d4007f7	0.046882596
16	0xbcb15eed	-0.02165171
17	0xbe00ca15	-0.12577088
18	0x3cf35dbd	0.029707784
19	0xbdc3950d	-0.095499136
20	0x3dd2166c	0.10258183
21	0x3cf49dfa	0.029860485
22	0xbd3e6514	-0.046483114
23	0xbd3966d8	-0.045264095
24	0x3d2e0426	0.042484425
25	0x3dc7dc58	0.09758824
26	0x3c6e4ab5	0.014544179
27	0x3dab1c91	0.08355058
28	0x3e52ed13	0.20598249
29	0xbc974d96	-0.018469613
30	0x3e066a9f	0.1312661
31	0xbe04c255	-0.12964757
32	0xbe020109	-0.12695707
33	0x3d125620	0.035726666
34	0xbd4c57d2	-0.04988844
35	0xbc8d1371	-0.017221184
36	0x3c587232	0.01321082
37	0xbd5171de	-0.051133983
38	0x3d7b82e2	0.061404116
39	0xbc5e5019	-0.013568901
40	0xbd4bbfc8	-0.049743444
41	0x3d035716	0.032065473
42	0x3a23fdf9	0.00062558014
43	0x3d5430e7	0.05180445
44	0xbdc16b94	-0.09444347
45	0xba880a50	-0.001037905
46	0xbaccbd1a	-0.0015620322
47	0xbda00724	-0.07813862
48	0x3c9ba15e	0.018997844
49	0xbb7d6768	-0.0038666371
50	0xbda23777	-0.07920735
51	0x3d0ea747	0.034827497
52	0x3ba35147	0.0049840542
53	0xbda506fb	-0.08057972
54	0x3e43ed19	0.19133414
55	0x3d8a1b12	0.067434445
56	0x3db3da3c	0.08781859
57	0x3cf0d542	0.029398564
58	0x3d0ebffb	0.034851056
59	0x3dc8e6c5	0.09809641
60	0x3de3895d	0.11110184
61	0xbd04ef83	-0.03245498
62	0x3cec8ae0	0.028874815
63	0x3da2a65f	0.07941889
64	0x3d813948	0.06309754
65	0x3d50d828	0.050987393
66	0xbdaedca2	-0.08538176
67	0xbdd3d4f3	-0.10343351
68	0xbc86b274	-0.016442515
69	0xbcf77320	-0.030206263
70	0xbc86ac08	-0.016439453
71	0xbd9c5042	-0.076324955
72	0x3e32c163	0.17456584
73	0x3e0bdd67	0.13658677
74	0x3cb9b5ba	0.022669662
75	0x3dc5a838	0.09651226
76	0xbd2eb850	-0.042656243
77	0x3cfb6e9c	0.030692391
78	0x3d9c0536	0.076181814
79	0xbc910137	-0.017700775
80	0x3baa4d7c	0.005197225
81	0xbd5ff715	-0.054678995
82	0xbe386586	-0.18007478
83	0xbd2d16a4	-0.04225792
84	0xbe1d2eb4	-0.15349847
85	0xbd283ddc	-0.04107462
86	0x3c35e13b	0.011101062
87	0x3da10ad1	0.07863391
88	0xbdf9899c	-0.1218445
89	0xbd472ffe	-0.048629753
90	0xbd36c457	-0.044620838
91	0x3e628139	0.22119607
92	0xbe48e501	-0.19618608
93	0xba555aff	-0.00081388647
94	0x3d758100	0.059937477
95	0xbda7f686	-0.082013175
96	0xbc3e28c6	-0.011606401
97	0xbb4e15fa	-0.0031446205
98	0x3bcd5133	0.006265783
99	0xbde4b7eb	-0.11167892
100	0xbdb07ee3	-0.08617952
101	0xbd40e2b4	-0.0470912
102	0xbda2e5ee	-0.07954012
103	0xbe14cd0e	-0.14531347
104	0xbd15f0ad	-0.03660648
105	0x3e146897	0.14493023
106	0x3b27c787	0.0025601105
107	0xbe10a348	-0.14124787
108	0xbc0395ec	-0.00803135
109	0x3d348c44	0.04407908
110	0xbd790fec	-0.0608062
111	0xbd201b4c	-0.039088532
112	0xbda40cc4	-0.08010247
113	0xbd71fdcf	-0.05907994
114	0xbdbd543a	-0.092445806
115	0xbd53896a	-0.05164472
116	0xbdad893b	-0.0847344
117	0x3e2c6ee9	0.16839184
118	0xbc9023a5	-0.017595122
119	0xbd0b5d2b	-0.0340244
120	0xbd66232a	-0.05618588
121	0xbcab8d4a	-0.020941395
122	0x3d02781f	0.031852838
123	0xbda94658	-0.0826537
124	0x3d33dd70	0.04391235
125	0x3d98441f	0.07434868
126	0x3d3708ee	0.04468625
127	0xbd8fcdb7	-0.07021659
128	0xbd3a8d71	-0.045545045
129	0x3d29d427	0.04146209
130	0xbcb14a3e	-0.021641847
131	0x3dbe3453	0.09287324
132	0x3deff5c6	0.117167994
133	0xbda64783	-0.081191085
134	0x3dad05b1	0.08448351
135	0xbd40185a	-0.046898223
136	0xbd218cee	-0.03944104
137	0xbdbd70f7	-0.09250062
138	0xbd877cdc	-0.06615612
139	0x3d4bbe94	0.049742296
140	0x3df87a3e	0.12132691
141	0x3bce939e	0.0063042184
142	0xbdc1821c	-0.094486445
143	0xbd42fb12	-0.04760272
144	0x3d23081a	0.039802648
145	0xbc99b625	-0.018763611
146	0xbbdb50ee	-0.006692997
147	0xbe05c739	-0.13064279
148	0xbc64de0d	-0.013968957
149	0xbd3065b4	-0.04306574
150	0x3afaf93f	0.0019147767
151	0x3cf2cdbd	0.02963912
152	0xbc7b4856	-0.01533707
153	0x3df66c80	0.120324135
154	0xbe166ff1	-0.1469114
155	0x3d41defb	0.04733179
156	0x3d9b1b76	0.07573597
157	0x3da652d7	0.08121269
158	0xbe03a8a3	-0.12857299
159	0xbdcc8e0f	-0.09988033
160	0x3d53119f	0.051530477
161	0x3d241a16	0.04006394
162	0x3c90c7c3	0.017673379
163	0xbd884f62	-0.06655766
164	0xbdf4206f	-0.11920249
165	0xbcd14422	-0.025545184
166	0xbd7a28c5	-0.061074037
167	0xbc9972e2	-0.018731538
168	0x3c1e2bca	0.009653995
169	0xbdb027e0	-0.086013556
170	0xbcfef595	-0.031122962
171	0x3c3c3dfd	0.0114893885
172	0xbddead8f	-0.108729474
173	0x3c004b33	0.007830429
174	0xbd16343c	-0.03667091
175	0xbdaa1532	-0.08304824
176	0xbe3b70e2	-0.1830478
177	0xbe267cd6	-0.16258559
178	0xbde9d2b3	-0.11417141
179	0x3c881e20	0.016615927
180	0x3bc11c02	0.0058932314
181	0x3b8c5651	0.0042827507
182	0xbddbf4d0	-0.10740054
183	0xbcbc8f04	-0.023017414
184	0x3d6dbb88	0.05804017
185	0xbd52189f	-0.05129301
186	0x3bf7ee8e	0.0075662797
187	0x3cfa384a	0.030544419
188	0x3d9fe50c	0.07807359
189	0x3dc63073	0.0967721
190	0x3e0d6216	0.13806948
191	0xbd9b9955	-0.07597605
192	0xbdfa57bd	-0.12223766
193	0xbdf5be84	-0.119992286
194	0x3d80a4cb	0.06281432
195	0xbdade993	-0.08491816
196	0x3d49572f	0.04915541
197	0x3da8705e	0.08224557
198	0x3d7220d2	0.05911333
199	0xbdb54cf5	-0.08852569
200	0xbd756621	-0.05991185
201	0x3d95eabc	0.07320163
202	0xbc02743f	-0.007962286
203	0xbcde8a1a	-0.027165461
204	0x3dda33ac	0.10654387
205	0xbdd279d0	-0.1027714
206	0xbc216cd6	-0.009852609
207	0xbdd00bc8	-0.10158497
208	0xbdbfc836	-0.09364359
209	0xbc8ad9a5	-0.016949484
210	0x3af96e46	0.0019030056
211	0xbce188b7	-0.027531011
212	0xbd89bb2a	-0.06725152
213	0x3cfa6791	0.030566962
214	0xbe2949f7	-0.16532122
215	0x3dc917a7	0.098189645
216	0x3d3cfa08	0.046136886
217	0xbc1e6fef	-0.009670242
218	0x3c3dc1a4	0.011581812
219	0xbd03496e	-0.03205245
220	0xbd5cf3c9	-0.05394343
221	0xbccd4b0d	-0.025060201
222	0x3e114065	0.14184721
223	0x3c1cde53	0.009574491
224	0xbc3e10b3	-0.011600661
225	0xbcdc52b0	-0.026894897
226	0xbc90c9ff	-0.017674444
227	0xbd50378d	-0.050834227
228	0x3dc0766e	0.09397589
229	0xbcbc0dd5	-0.022955814
230	0xbd0c408b	-0.03424124
231	0x3d94d244	0.072666675
232	0x3db5c37e	0.08875178
233	0x3d803632	0.06260337
234	0x3d069869	0.032860193
235	0xbdc38ce6	-0.095483586
236	0xbdf76311	-0.12079442
237	0xbdc7242f	-0.09723698
238	0xbd374349	-0.044741903
239	0xbd79a83a	-0.06095145
240	0x3c277c4c	0.010222506
241	0x3d4149a5	0.047189374
242	0xbdb53a23	-0.08848979
243	0x3cc294a9	0.023752527
244	0xbe0d7253	-0.13813142
245	0x3d7cada7	0.061689045
246	0x3d604c5d	0.054760326
247	0x3d6d01a5	0.057862896
248	0xbe5cab68	-0.21549761
249	0x3d78c0a9	0.06073061
250	0x3d725ffb	0.059173565
251	0x3e00bf87	0.12573062
252	0x3bd36521	0.0064512645
253	0xbe37b93c	-0.17941755
254	0xbc6480fb	-0.013946767
255	0xbe17fad5	-0.14841779

network_body._body_endoder.seq_layers.2.bias f4 [128]
0	0x3bb6fa33	0.0055840253
1	0x3b91758f	0.004439063
2	0x3b865ae8	0.0041001923
3	0x3b9305c4	0.0044867713
4	0xba29c52b	-0.00064762187
5	0xbafc61f5	-0.0019255268
6	0x3966322e	0.00021953203
7	0xba68f6bd	-0.00088868645
8	0xbb7e8339	-0.003883554
9	0x3a916331	0.0011092183
10	0xbb4548b9	-0.003010316
11	0x3911b4c0	0.00013895612
12	0xbb877f1b	-0.004135025
13	0xbb26f6a9	-0.002547661
14	0xba516a66	-0.0007988572
15	0xbb75900e	-0.0037469896
16	0xbb30d0f0	-0.0026980005
17	0x3b78aeb6	0.0037945933
18	0x3baffed6	0.005370955
19	0x3ba9fddc	0.005187733
20	0xbac5bee1	-0.0015086794
21	0xbb5a8d56	-0.0033348403
22	0xbb868b42	-0.0041059563
23	0x3b28d60e	0.0025762352
24	0xbac0621d	-0.0014677678
25	0xbad0bf49	-0.0015926148
26	0x3bc14d0f	0.0058990787
27	0xb9eddd7a	-0.00045369175
28	0xbac73832	-0.0015199243
29	0xbb8ed566	-0.004358935
30	0x3b98b79b	0.0046605594
31	0x39324150	0.00016999734
32	0xbb65f9ca	-0.0035091513
33	0x3bdf2533	0.0068098544
34	0x3b23d7d9	0.0025000481
35	0x3b6b4035	0.0035896425
36	0x3aaab398	0.0013023494
37	0xbb872a0b	-0.004124885
38	0xbba23762	-0.00495045
39	0x3b263444	0.0025360743
40	0x3a2d4cfc	0.0006610898
41	0xb91bf8e8	-0.00014874677
42	0xba8dbee7	-0.001081434
43	0xbb2f5877	-0.002675561
44	0xbb2603b8	-0.0025331806
45	0x3b5faf1d	0.0034131475
46	0xbb5d0400	-0.0033724308
47	0xbb202a3c	-0.0024439236
48	0xbb6eb7a2	-0.0036425372
49	0x3bcd6935	0.006268645
50	0xbb6216cf	-0.0034498458
51	0x3bc98fb6	0.006151165
52	0xbb5199b9	-0.0031982495
53	0xbb6ded3d	-0.0036304735
54	0xbb9812ee	-0.0046409285
55	0x3a6af7fa	0.0008963343
56	0x3b6225ca	0.0034507387
57	0xbbc79e0d	-0.006091839
58	0xbb877112	-0.004133352
59	0xba2436f4	-0.0006264292
60	0x3bad32e4	0.0052856077
61	0xbb401d0b	-0.0029314186
62	0x39a9e288	0.0003240297
63	0x3b9db267	0.004812527
64	0xba7e722b	-0.00097063434
65	0x3abf0d65	0.0014576135
66	0xbba2c1aa	-0.004966934
67	0xb9a0851c	-0.00030616752
68	0x3ba46919	0.0050174114
69	0xbb82632b	-0.003979107
70	0xbbc997a9	-0.0061521125
71	0x3ab2e8fd	0.0013649758
72	0x3b6e0988	0.00363216
73	0x3b417550	0.0029519387
74	0xbbaef572	-0.005339318
75	0x3b42bf15	0.0029715945
76	0x3b9566b7	0.0045593637
77	0x3b948170	0.0045320317
78	0xbb113c34	-0.0022161128
79	0x3b89e87c	0.0042086225
80	0xba01a37e	-0.00049453217
81	0xbae82475	-0.001771106
82	0xbb92bd89	-0.0044781608
83	0x3a17639f	0.00057750376
84	0x3b808041	0.003921539
85	0xbbb5e5eb	-0.00555109
86	0xbbc8b0b6	-0.006124581
87	0xbbc2884d	-0.0059366585
88	0x3a14e01c	0.0005679147
89	0x3b6ec364	0.003643238
90	0xbb433109	-0.0029783866
91	0xbaa2451e	-0.0012380218
92	0x3b0ee57e	0.0021804268
93	0xbb453b5f	-0.0030095202
94	0xbba56896	-0.005047868
95	0x3a89cd8f	0.0010513532
96	0x3b99a43a	0.004688767
97	0xb9e026cc	-0.00042753515
98	0xbbb2d7b5	-0.005457843
99	0x3b213eab	0.0024604003
100	0xbb971c94	-0.004611561
101	0x3b871ab6	0.0041230572
102	0x3bab44fb	0.005226729
103	0xba7a19f6	-0.00095406116
104	0xbad3fb1f	-0.0016172862
105	0xba1f8426	-0.00060850603
106	0xb91a0f00	-0.00014692172
107	0x3b94774e	0.004530824
108	0x3b54accc	0.0032451628
109	0x38b4717f	8.604209e-05
110	0x3b8cffba	0.004302946
111	0x3b1c58ca	0.0023856633
112	0xbb087e99	-0.0020827411
113	0x36a78590	4.9925366e-06
114	0x3b2f599b	0.002675629
115	0xbb6bb91c	-0.0035968488
116	0xbae97417	-0.0017811087
117	0xba0ba895	-0.000532755
118	0x3b61440b	0.0034372832
119	0xbb145344	-0.0022632638
120	0x3b9023e4	0.0043988097
121	0x3badbcc0	0.005302042
122	0xbb5359e5	-0.0032249626
123	0xbb3f9948	-0.002923565
124	0x3ade8013	0.0016975425
125	0xb9996a75	-0.0002926175
126	0x3a65f875	0.000877268
127	0xbb57ddb9	-0.0032938553

action_model._continuous_distribution.log_sigma f4 [1, 2]
0	0xbc27c42d	-0.010239643
1	0x3ba66176	0.005077536

action_model._continuous_distribution.mu.weight f4 [2, 128]
0	0x3cb27e0d	0.021788621
1	0x3c1c5218	0.009541057
2	0x3c6de367	0.014519549
3	0x3ce3af4c	0.027793549
4	0x3be1d2fe	0.0068916073
5	0x3c884dcf	0.016638665
6	0xbc6b8a6a	-0.014376262
7	0x3a8c79c1	0.0010717438
8	0xbd26bf76	-0.040709935
9	0xbcd6db3c	-0.026227586
10	0xbca07378	-0.01958631
11	0x3c1ac623	0.009446654
12	0xbc962b66	-0.01833124
13	0xbc43ad56	-0.011943182
14	0x3b8960d2	0.00419245
15	0xbc6775c4	-0.014127199
16	0xbb29df12	-0.0025920314
17	0x3c518238	0.012787394
18	0x3cd06dc8	0.025442973
19	0x3c2d1546	0.010564154
20	0xbc015a0e	-0.007895006
21	0xbbe4ee39	-0.006986406
22	0xbb8aa3e8	-0.004230965
23	0xbb84ff69	-0.0040587676
24	0xbc5e43d6	-0.013565978
25	0xbb56e191	-0.0032788257
26	0x3cea9f85	0.028640518
27	0x3c55d848	0.013052054
28	0x3b67c68d	0.0035366148
29	0xbc12149b	-0.008916046
30	0x3b1b28ad	0.0023675368
31	0x3c17b665	0.009259795
32	0xbca40eb8	-0.02002655
33	0x3d3048ed	0.043038297
34	0x3b8c2f06	0.0042780666
35	0x3cb4d9e2	0.02207655
36	0x3b67ff6a	0.0035400041
37	0xbcd4f122	-0.025993887
38	0xbc06b9bf	-0.008222996
39	0x3cf28f2e	0.029609289
40	0x3ba5f035	0.0050640353
41	0x3ba406ea	0.005005707
42	0x3ab80873	0.0014040604
43	0xbcf8e6db	-0.030383518
44	0x3b46e59f	0.0030349267
45	0x3b7decee	0.0038745957
46	0xbc575cf3	-0.013144719
47	0xbab14da9	-0.0013527173
48	0xbbde078d	-0.0067758025
49	0x3c78df32	0.015189933
50	0xbc3d8c0b	-0.011569033
51	0x3c79c0ab	0.0152436895
52	0xbd00bb01	-0.03142834
53	0xbc07f379	-0.0082977945
54	0xbce46d7a	-0.027884234
55	0xba815408	-0.0009866962
56	0x3c9aefd7	0.018913193
57	0xbbb63053	-0.00555996
58	0xbd0b51fb	-0.03401373
59	0xbc9032b8	-0.01760231
60	0x3bac62f4	0.0052608196
61	0xbc76652e	-0.015038772
62	0xb9d4cb08	-0.0004058706
63	0x3ac6ec40	0.0015176609
64	0xbca6ea95	-0.02037553
65	0x3c2120c9	0.009834477
66	0xbb25b0cf	-0.0025282388
67	0xbc6a4fef	-0.014301284
68	0x3cfd1e75	0.030898312
69	0xbcab36a1	-0.020900073
70	0xbcfd175b	-0.030894926
71	0x3c1fae52	0.009746151
72	0x3c168667	0.009187317
73	0x3ca6ed8c	0.020376943
74	0xbc12f2ac	-0.00896899
75	0x3be233a6	0.0069031296
76	0x3c8aa777	0.016925557
77	0x3cc65528	0.024210528
78	0xbc6cc133	-0.014450359
79	0x3c2384bf	0.00998038
80	0xbbb8f2a3	-0.005644159
81	0xbc94ccb3	-0.018164014
82	0xbc0bc410	-0.008530632
83	0x3c22c3b4	0.009934355
84	0x3d43e48e	0.04782539
85	0xbc9eb409	-0.019372957
86	0xbc5bdd58	-0.013419472
87	0xbd1c76b7	-0.038199153
88	0xbc7cbd85	-0.015426044
89	0x3d292612	0.041296072
90	0xbb9f4ec6	-0.0048616854
91	0x3c37d98f	0.011221304
92	0xbb60ab74	-0.0034281882
93	0xbcdddbda	-0.027082372
94	0xbb9e043b	-0.0048222817
95	0x3cdc5d7f	0.026900051
96	0x3cb04c9f	0.02152091
97	0xbb9c5250	-0.0047705546
98	0xbb68ee14	-0.0035542296
99	0x3c5c3696	0.013440749
100	0xbc9b4df2	-0.018958066
101	0x3d4c4a88	0.049875766
102	0x3c88eafe	0.016713616
103	0xbaf6f8df	-0.001884248
104	0xbc6a17d1	-0.014287905
105	0x3b48ddbc	0.0030649742
106	0x3aed0df1	0.001808582
107	0x3c355c69	0.011069396
108	0x3cad4bd0	0.021154314
109	0x3bd3b80f	0.0064611505
110	0x3cd6f5c0	0.02624023
111	0x3b739ce4	0.0037172372
112	0xbbfe15e9	-0.0077540767
113	0xbc9f1f58	-0.019424126
114	0x3c8c4eea	0.017127473
115	0xbd0beed0	-0.034163296
116	0x3b6b7314	0.0035926746
117	0xbc730dce	-0.014834834
118	0x3be28e9b	0.0069139726
119	0xbc100082	-0.008789184
120	0x3c1eee54	0.009700377
121	0x3c8103f8	0.015748963
122	0xbcc289a1	-0.023747267
123	0xbd33bc81	-0.043880943
124	0x3c7dce12	0.0154910255
125	0xbc6e5f6c	-0.014549118
126	0xbbd0f137	-0.0063764113
127	0xbc877fd3	-0.016540444
128	0x3c684c40	0.014178336
129	0x3bae9791	0.0053281267
130	0x3c85d60c	0.016337417
131	0xbb1b5ed2	-0.002370764
132	0xbceeb174	-0.02913735
133	0xbcd7f5a5	-0.02636225
134	0x3cb0e035	0.021591285
135	0xba2da4f8	-0.00066240085
136	0x3b96f456	0.004606764
137	0x3d2730dc	0.04081808
138	0x3c6ecb94	0.014574904
139	0xbc300e21	-0.010745556
140	0xbd14774a	-0.036246575
141	0x3c271ca5	0.0101997005
142	0xbc79b875	-0.015241732
143	0x3b19fd05	0.0023496759
144	0xbc95d585	-0.01829029
145	0xb8a7e45e	-8.005717e-05
146	0x3cce6010	0.02519229
147	0x3d0f84c9	0.035038743
148	0x3c69e493	0.014275688
149	0xbc082bba	-0.0083112065
150	0xbbf9f60a	-0.007628207
151	0x3c98d98d	0.018658424
152	0x3c8f04d3	0.017458355
153	0x3b2e4bc9	0.0026595464
154	0x3caf369e	0.021388348
155	0xbc80e33e	-0.015733358
156	0xbcaa2960	-0.020771682
157	0xbbc6c772	-0.006066256
158	0x3cd156cf	0.025554089
159	0x3ca5edb8	0.020254955
160	0x3c81aa4d	0.015828276
161	0x3c6fcb87	0.014635927
162	0x3b3ab37d	0.002848833
163	0xb7fcbfd3	-3.0130066e-05
164	0x3d132147	0.035920408
165	0x3b3a6a7c	0.0028444817
166	0xb8d949c1	-0.00010361104
167	0xbbfa8484	-0.0076451916
168	0x3b335543	0.0027364052
169	0xbc877637	-0.016535861
170	0x3b6116ea	0.0034345933
171	0x3c1eccbc	0.009692367
172	0xbd05801b	-0.032592874
173	0x3c5f6cdf	0.013636797
174	0x3b6f71bc	0.0036536297
175	0xba9ed262	-0.0012117142
176	0xbca0cd25	-0.01962907
177	0x3c229357	0.009922824
178	0xbcb3e672	-0.02196047
179	0x3d039264	0.03212203
180	0xbd06c421	-0.032901887
181	0x3a85bbeb	0.0010203099
182	0xb977b0fa	-0.00023621685
183	0x3c9c8cf8	0.019110188
184	0xbc06c30a	-0.008225212
185	0xb9604133	-0.00021386593
186	0xbd142ab1	-0.036173526
187	0x3cbd5a4f	0.023114352
188	0x3c4626b5	0.012094189
189	0x3c07b8cd	0.008283806
190	0x3b444bbb	0.0029952365
191	0x3bbd5a3f	0.0057785804
192	0x3c40add6	0.011760196
193	0xbb2d7ddf	-0.002647273
194	0xbba660b5	-0.0050774463
195	0x3ca0df0d	0.019637609
196	0xbc1aad0f	-0.009440674
197	0x3babaa8d	0.005238837
198	0xbc87b6b8	-0.01656662
199	0xbd035cf8	-0.032071084
200	0x3cb06461	0.02153224
201	0xbd01bb88	-0.031672984
202	0xbbeba112	-0.007190832
203	0xbb6971f3	-0.0035620898
204	0x3bebd0cd	0.007196522
205	0xbb3b297a	-0.0028558658
206	0x3bcde0a9	0.006282885
207	0x3b626c97	0.0034549588
208	0xbce25aed	-0.027631247
209	0xbb03deac	-0.0020121736
210	0xbc31d83d	-0.010854778
211	0xbc7f5941	-0.015585245
212	0x3b73efe1	0.0037221836
213	0xbca818b6	-0.020519596
214	0xbc060f8b	-0.008182417
215	0xbcfef153	-0.031120932
216	0x3cc4e9ad	0.024037207
217	0x39abbead	0.00032757726
218	0xbc093793	-0.008375066
219	0xbd004ffe	-0.031326286
220	0x3cd87d6a	0.02642699
221	0xbbe8d86d	-0.007105878
222	0xbba94fe9	-0.0051669967
223	0xbc365ca9	-0.01113049
224	0x3c81ca83	0.015843635
225	0xbc994448	-0.018709317
226	0xbc145278	-0.009052865
227	0x3c38678a	0.011255154
228	0x3a82c1c8	0.0009975964
229	0xbb4391aa	-0.0029841461
230	0xbb927b73	-0.0044702827
231	0x3c68d5c9	0.014211127
232	0x3c665401	0.014058114
233	0xba552962	-0.00081314717
234	0xbc879a32	-0.016553018
235	0xbbcc21bf	-0.006229609
236	0x3c972fc3	0.018455392
237	0xbbc62edc	-0.0060480665
238	0x3ccc5a56	0.02494542
239	0xba19f79f	-0.0005873385
240	0x3c74f2e9	0.014950492
241	0x3d2e45f5	0.042547185
242	0xbc3df553	-0.011594134
243	0xbc3f44e9	-0.011674144
244	0xbc3fca30	-0.01170592
245	0x3cfc450e	0.030794647
246	0xba112855	-0.0005537321
247	0x3af31495	0.0018545563
248	0x3c810b40	0.015752435
249	0x3b8ed5ca	0.0043589817
250	0x3c46ab49	0.0121257985
251	0xbb9610b1	-0.0045796265
252	0xbc1ea38b	-0.009682546
253	0x3caa5f8c	0.020797513
254	0x3cd6d0a0	0.026222527
255	0xbcdd8af4	-0.027043797

action_model._continuous_distribution.mu.bias f4 [2]
0	0x3b95f872	0.004576736
1	0x3b0bfe7c	0.0021361401

exp_avg f4 [128, 8]
0	0xb764daa4	-1.3640765e-05
1	0xb95402c1	-0.00020218921
2	0x395b2063	0.00020897533
3	0xb7e7db8a	-2.7639577e-05
4	0xb8d45c38	-0.00010126125
5	0x3810de46	3.4539284e-05
6	0xb92dab90	-0.00016562478
7	0xb92cc73e	-0.00016477422
8	0x38333c05	4.2732823e-05
9	0x393165c8	0.00016917952
10	0xb9bc2396	-0.00035884668
11	0xb7a5b892	-1.975548e-05
12	0x383ec285	4.548069e-05
13	0x38b2b6bc	8.521738e-05
14	0x38c1f0c4	9.247803e-05
15	0x38c0f1d9	9.200321e-05
16	0xb8e0eb9e	-0.000107250395
17	0x383cadee	4.4984678e-05
18	0x390008f4	0.00012210367
19	0x38804bda	6.117644e-05
20	0xb72f9861	-1.0466291e-05
21	0xb892c050	-6.9976435e-05
22	0x389e242f	7.540767e-05
23	0x389d5443	7.502038e-05
24	0x38b0423c	8.404671e-05
25	0xb6c7e496	-5.957273e-06
26	0xb807250f	-3.222102e-05
27	0xb88dcfd7	-6.762117e-05
28	0xb877ab00	-5.9048645e-05
29	0x39209db4	0.00015317538
30	0xb8fce454	-0.00012058826
31	0xb8fb97cf	-0.00011996889
32	0xb937214f	-0.00017464648
33	0xb57a5276	-9.3252254e-07
34	0x38b19dc8	8.469407e-05
35	0x369d0fa3	4.680785e-06
36	0x38edb7ae	0.00011335254
37	0xb8ed8e0f	-0.00011327501
38	0x38ca07f3	9.633591e-05
39	0x38c8fe51	9.584113e-05
40	0xb8a5fdfb	-7.915121e-05
41	0xba0a7bdf	-0.00052827405
42	0x3a355cd0	0.0006918432
43	0xb7bdfa42	-2.2647091e-05
44	0xb8acf1f4	-8.2466664e-05
45	0xb910f680	-0.00013824739
46	0xb9215ebb	-0.00015389446
47	0xb9208a99	-0.0001531042
48	0x371bcb21	9.286015e-06
49	0x38829281	6.2261715e-05
50	0xb8f1e6d1	-0.000115347684
51	0xb873fd14	-5.8171412e-05
52	0x36cdc83d	6.132787e-06
53	0x38978435	7.2248666e-05
54	0xb720fe89	-9.596007e-06
55	0xb7202ad2	-9.546713e-06
56	0xb7ef617b	-2.8536413e-05
57	0x389d3d0e	7.497716e-05
58	0xb8c473e7	-9.367597e-05
59	0xb877b4ac	-5.9057653e-05
60	0x36ea0783	6.974618e-06
61	0x38ab19e7	8.15874e-05
62	0xb7d98337	-2.5929518e-05
63	0xb7d8653c	-2.5796347e-05
64	0x36bd2039	5.63639e-06
65	0x367ee3b0	3.798148e-06
66	0xb885fc18	-6.38889e-05
67	0x384ae6a4	4.8375354e-05
68	0xb8b44c58	-8.597289e-05
69	0x38f9fe39	0.00011920598
70	0xb81ddcea	-3.763746e-05
71	0xb81d0d54	-3.744413e-05
72	0xb905a72c	-0.00012746145
73	0x3796100c	1.7888866e-05
74	0x39416a45	0.00018445503
75	0x387cb99e	6.025435e-05
76	0xb7a9f588	-2.0260704e-05
77	0xb5047829	-4.934869e-07
78	0xb801484f	-3.082334e-05
79	0xb8009e69	-3.066511e-05
80	0xb8aca619	-8.232537e-05
81	0xb989d1c4	-0.00026286964
82	0x39230949	0.0001554835
83	0x38caf1b8	9.677134e-05
84	0xb8faec3c	-0.00011964931
85	0xb939090e	-0.00017646348
86	0x3844f1db	4.6955287e-05
87	0x3843eeea	4.671413e-05
88	0xb7a4a937	-1.962912e-05
89	0xb4caf8de	-3.7806507e-07
90	0x37a633f3	1.9812933e-05
91	0x38360452	4.3396205e-05
92	0x381e0b37	3.768058e-05
93	0xb8efb332	-0.00011429786
94	0x38c17bad	9.2259936e-05
95	0x38c07d4c	9.178612e-05
96	0xb88a55be	-6.5963235e-05
97	0x388ea496	6.801744e-05
98	0xb84f36ac	-4.9403563e-05
99	0x3669c56d	3.4834623e-06
100	0x38b60d7a	8.6809465e-05
101	0xb92fd19b	-0.00016767385
102	0x3894f769	7.103274e-05
103	0x3894338b	7.0667906e-05
104	0x389bc966	7.428489e-05
105	0x366758c4	3.447335e-06
106	0x392479ff	0.00015685706
107	0x381f3098	3.795381e-05
108	0x3715d044	8.929583e-06
109	0x390cda0d	0.0001343267
110	0xb929a79d	-0.00016179537
111	0xb928c894	-0.0001609645
112	0xb9204fa1	-0.00015288453
113	0x3887898c	6.462922e-05
114	0xb6dfd2b3	-6.6704465e-06
115	0x382a579d	4.0612755e-05
116	0x38b3ab5d	8.567304e-05
117	0xb956d32b	-0.00020487297
118	0x393ed401	0.0001819879
119	0x393dd920	0.0001810533
120	0xb8004537	-3.058204e-05
121	0x3839f0df	4.4331766e-05
122	0xb94bf6b9	-0.000194515
123	0xb8b984be	-8.8462126e-05
124	0x37d3ce27	2.5249157e-05
125	0xb7854592	-1.5887232e-05
126	0xb7ec89b7	-2.819752e-05
127	0xb7eb52a3	-2.8052664e-05
128	0x36d24149	6.266088e-06
129	0xb8b1cd6b	-8.47828e-05
130	0x391a5938	0.00014719821
131	0xb68f5157	-4.2712013e-06
132	0x380a8222	3.302296e-05
133	0x38d7ae55	0.00010284471
134	0xb910ed6c	-0.00013821357
135	0xb9102eea	-0.00013750387
136	0x36e36fc5	6.778139e-06
137	0xb8a6febd	-7.9629455e-05
138	0x393a0476	0.00017740004
139	0x3902ffea	0.00012493102
140	0xb80f05f8	-3.4099416e-05
141	0x376d9e9b	1.4163229e-05
142	0xb8952efb	-7.1136245e-05
143	0xb8946ada	-7.0770926e-05
144	0x386b7978	5.6141493e-05
145	0xb7f3414e	-2.8998267e-05
146	0xb899fcb5	-7.342679e-05
147	0x37516665	1.2481211e-05
148	0xb811940b	-3.470857e-05
149	0x38b32da6	8.543888e-05
150	0xb820b0ff	-3.8311813e-05
151	0xb81fddb6	-3.811504e-05
152	0xb8836044	-6.264498e-05
153	0xb8889dcf	-6.5143795e-05
154	0x395e2ed9	0.00021189022
155	0xb7d4b0af	-2.5354644e-05
156	0xb826f631	-3.9806768e-05
157	0x378c8f08	1.6755905e-05
158	0xb820fd9b	-3.838316e-05
159	0xb82029ed	-3.818602e-05
160	0x3976465f	0.00023486603
161	0x394949df	0.00019196373
162	0xb9b9f474	-0.00035468081
163	0x39743ab5	0.00023291523
164	0xb9ba4e5e	-0.00035535073
165	0xb9b8bef8	-0.00035237498
166	0x3863a510	5.4274744e-05
167	0x386279b9	5.3995962e-05
168	0xb879d6f5	-5.956642e-05
169	0xb88740d1	-6.4493746e-05
170	0x395bd35b	0.00020964204
171	0xb730947d	-1.052499e-05
172	0xb8323b21	-4.2493575e-05
173	0xb6bd1585	-5.635144e-06
174	0xb850bf16	-4.9769027e-05
175	0xb84facb6	-4.9513495e-05
176	0x38a52c16	7.876025e-05
177	0x38acb82c	8.235904e-05
178	0xb81a8ca8	-3.6847458e-05
179	0x3847fbee	4.7679925e-05
180	0xb80ee9cf	-3.407319e-05
181	0x3943f3e1	0.00018687501
182	0xb909a161	-0.00013125456
183	0xb908ec6e	-0.00013058048
184	0xb8d63bb5	-0.000102154365
185	0x38297bd5	4.0408067e-05
186	0xb8a1fcb5	-7.7241486e-05
187	0xb8098b18	-3.2792886e-05
188	0x384deddb	4.909733e-05
189	0x37f37808	2.9023751e-05
190	0x380a04a8	3.29061e-05
191	0x38094f34	3.273711e-05
192	0x37453a88	1.1755743e-05
193	0xb7450b15	-1.1744695e-05
194	0x37855a30	1.5896832e-05
195	0xb873b178	-5.8100995e-05
196	0xb7bd099a	-2.2535027e-05
197	0xb754a10f	-1.2673684e-05
198	0xb5f05a62	-1.7907698e-06
199	0xb5ef1dd2	-1.7815566e-06
200	0x38726f64	5.7801037e-05
201	0x37747c0f	1.4572418e-05
202	0x374b64d2	1.2123217e-05
203	0x3899c066	7.3314455e-05
204	0xb84a76a8	-4.827106e-05
205	0xb9028ea6	-0.00012450907
206	0x385a9b36	5.21198e-05
207	0x38597bd2	5.185215e-05
208	0xb84f0b56	-4.9363203e-05
209	0x37f2b1a8	2.8931376e-05
210	0x3912bca5	0.0001399392
211	0x384d1152	4.889194e-05
212	0x379818da	1.8131384e-05
213	0xb8ace87b	-8.244902e-05
214	0x38b72ed5	8.734843e-05
215	0x38b63e00	8.689985e-05
216	0x375e430f	1.3247844e-05
217	0x382daf42	4.1409636e-05
218	0xb8bd6dc0	-9.032665e-05
219	0x39017acb	0.00012348143
220	0xb82f2c0a	-4.1764266e-05
221	0xb90f95e2	-0.00013693378
222	0x38804040	6.115483e-05
223	0x387f2f41	6.0840746e-05
224	0xb7c0fb70	-2.3005268e-05
225	0x3886b80c	6.423899e-05
226	0xb97e4235	-0.00024247992
227	0xb79ab16a	-1.8440845e-05
228	0x39038f09	0.00012546418
229	0xb8707ee1	-5.7338624e-05
230	0x38d27b11	0.00010036503
231	0x38d16660	9.9849654e-05
232	0x3712b37d	8.7440685e-06
233	0x38bb4bad	8.9309506e-05
234	0xba19ea38	-0.0005871388
235	0xb8131381	-3.5065696e-05
236	0x38e05a13	0.0001069793
237	0xb85c2b4f	-5.249242e-05
238	0xb732f426	-1.0666472e-05
239	0xb732088e	-1.0611619e-05
240	0xb6fb29ff	-7.485272e-06
241	0xb81a8e07	-3.6848734e-05
242	0x398508ed	0.00025374387
243	0xb79c3707	-1.8622273e-05
244	0x38b7926c	8.753393e-05
245	0xb8daee3b	-0.00010439424
246	0x387af1f0	5.9829967e-05
247	0x3879a7f6	5.9522652e-05
248	0xb98f419f	-0.00027323977
249	0xb988013a	-0.00025940855
250	0x3a1266f7	0.0005584801
251	0xb92bb5b5	-0.00016375522
252	0x38f08c0b	0.00011470177
253	0x3964635d	0.0002178079
254	0xb8a7aae4	-7.9950114e-05
255	0xb8a6ce8a	-7.953968e-05

exp_avg_sq f4 [128, 8]
0	0x31d59959	6.2165495e-09
1	0x32b2e1cd	2.082461e-08
2	0x3230ab5f	1.0283514e-08
3	0x323ee045	1.1110449e-08
4	0x31b5a638	5.28669e-09
5	0x31b604e2	5.2974523e-09
6	0x322c40a5	1.0026416e-08
7	0x322a7ce5	9.9237e-09
8	0x32aff804	2.0485466e-08
9	0x33888cfe	6.35864e-08
10	0x333f33b5	4.451768e-08
11	0x332169e7	3.758205e-08
12	0x33c4d919	9.166451e-08
13	0x329597d8	1.7414933e-08
14	0x33049baf	3.087524e-08
15	0x33033feb	3.0558947e-08
16	0x3225b324	9.644996e-09
17	0x30f680a1	1.7935414e-09
18	0x31c3f64b	5.703247e-09
19	0x321a7ab2	8.9918775e-09
20	0x321e3099	9.20786e-09
21	0x31bc7801	5.485163e-09
22	0x31e9c354	6.8033987e-09
23	0x31e75e3d	6.7336985e-09
24	0x3284b7e2	1.5450443e-08
25	0x3213e786	8.6091685e-09
26	0x32110ca7	8.442988e-09
27	0x32c9b76f	2.3482896e-08
28	0x31a2393d	4.7213278e-09
29	0x321989cd	8.937104e-09
30	0x329eb9c8	1.8478104e-08
31	0x329d197e	1.8288798e-08
32	0x3249f3ca	1.1755171e-08
33	0x327633e8	1.4330887e-08
34	0x31fc0b58	7.335455e-09
35	0x3243daf4	1.1400278e-08
36	0x318f9851	4.179164e-09
37	0x328908a7	1.5952834e-08
38	0x3254aa5c	1.2378759e-08
39	0x32527ca2	1.2251947e-08
40	0x335f10b2	5.1936418e-08
41	0x348d13b7	2.627764e-07
42	0x33ddec93	1.0334147e-07
43	0x33b4c65a	8.417983e-08
44	0x34753819	2.2837811e-07
45	0x33779cd4	5.7651803e-08
46	0x337db444	5.9070103e-08
47	0x337b1af1	5.8464995e-08
48	0x319d7ed3	4.5837196e-09
49	0x31d891d3	6.3030057e-09
50	0x31e3b3bf	6.6270043e-09
51	0x32108dcd	8.414145e-09
52	0x315a55b8	3.17719e-09
53	0x31ab54b3	4.986384e-09
54	0x3215bbe9	8.715667e-09
55	0x32143332	8.626374e-09
56	0x32049da8	7.719258e-09
57	0x32c646de	2.308246e-08
58	0x3209926d	8.007743e-09
59	0x32498199	1.1729207e-08
60	0x325d5084	1.28822e-08
61	0x321446be	8.630819e-09
62	0x3293fa88	1.722698e-08
63	0x3292766c	1.7050489e-08
64	0x32afa702	2.0448628e-08
65	0x3326d272	3.8841286e-08
66	0x32becac2	2.2211115e-08
67	0x32c6a340	2.3124471e-08
68	0x32e8438c	2.7039071e-08
69	0x329962c3	1.7856456e-08
70	0x3283bfbf	1.5337603e-08
71	0x32826640	1.518049e-08
72	0x32be5d30	2.2161288e-08
73	0x3192e1ea	4.2748427e-09
74	0x328194cf	1.5085247e-08
75	0x32ae1b47	2.026867e-08
76	0x32453e27	1.1481041e-08
77	0x328feea2	1.6755909e-08
78	0x328fe61d	1.6752034e-08
79	0x328e6cb7	1.6580413e-08
80	0x335f4e86	5.199265e-08
81	0x33573d95	5.0114597e-08
82	0x332f9bd2	4.088708e-08
83	0x33024778	3.0332984e-08
84	0x336f20d6	5.5676388e-08
85	0x330dd352	3.3021315e-08
86	0x32cf6bc6	2.4146981e-08
87	0x32cd4bda	2.3899634e-08
88	0x320d4162	8.2221465e-09
89	0x31b36dd2	5.2220708e-09
90	0x31c8aa24	5.840109e-09
91	0x323e4a8a	1.1076404e-08
92	0x3146f246	2.8950509e-09
93	0x31cfbc7a	6.04592e-09
94	0x323bb122	1.0925108e-08
95	0x3239c4e0	1.08131815e-08
96	0x320d21ad	8.214937e-09
97	0x31e07012	6.531999e-09
98	0x31d583ed	6.214114e-09
99	0x32162b79	8.741034e-09
100	0x31c070c5	5.600756e-09
101	0x3201a805	7.5469915e-09
102	0x321b61ae	9.044397e-09
103	0x3219ca2c	8.951741e-09
104	0x32a7fe9f	1.9557147e-08
105	0x32029c72	7.6025675e-09
106	0x32c1aa06	2.2545475e-08
107	0x32a93c6d	1.9701668e-08
108	0x3253d2c6	1.2329741e-08
109	0x32c44697	2.2849504e-08
110	0x332352f1	3.802683e-08
111	0x3321a695	3.763724e-08
112	0x3312b571	3.4158294e-08
113	0x31d96a70	6.3276318e-09
114	0x329aa800	1.8004357e-08
115	0x32e8932b	2.7075279e-08
116	0x32248d1a	9.578139e-09
117	0x32a56b54	1.9257335e-08
118	0x32725975	1.4106594e-08
119	0x326fdde4	1.3962083e-08
120	0x321b0c4b	9.0249825e-09
121	0x3297ec5e	1.7686201e-08
122	0x3263e00e	1.3264083e-08
123	0x320691ba	7.832961e-09
124	0x32c57f37	2.2991669e-08
125	0x323f9d28	1.1153396e-08
126	0x32227518	9.456265e-09
127	0x3220cb0c	9.359393e-09
128	0x328130eb	1.5039822e-08
129	0x321b3cd4	9.036018e-09
130	0x3283e09c	1.5352548e-08
131	0x328ccd41	1.6391484e-08
132	0x3193ddbd	4.303472e-09
133	0x3259453a	1.2646803e-08
134	0x329e1c33	1.8406444e-08
135	0x329c7d83	1.8217866e-08
136	0x3286a414	1.5674267e-08
137	0x32ca04cb	2.3518075e-08
138	0x329c15ca	1.8170699e-08
139	0x3299192c	1.7822991e-08
140	0x322ac3e0	9.939839e-09
141	0x32ae9299	2.0322931e-08
142	0x32b60c81	2.1193275e-08
143	0x32b42f07	2.0976143e-08
144	0x31b04e67	5.1311875e-09
145	0x31255fa9	2.4065037e-09
146	0x318e0fc9	4.1345385e-09
147	0x318e012e	4.132878e-09
148	0x31274a88	2.4344065e-09
149	0x31c10cd2	5.618497e-09
150	0x316d0f9d	3.4496914e-09
151	0x316aa1f3	3.414354e-09
152	0x32ac8e99	2.0088281e-08
153	0x3262acbc	1.3194207e-08
154	0x32f25eaf	2.8215565e-08
155	0x3300de2c	3.0004387e-08
156	0x322c95c9	1.0045775e-08
157	0x32d0dfb5	2.4316117e-08
158	0x32e57dd4	2.6716329e-08
159	0x32e323ec	2.6442613e-08
160	0x33c12af9	8.9950795e-08
161	0x349a0f8b	2.8696044e-07
162	0x340801d6	1.2666655e-07
163	0x33b8e3d8	8.609612e-08
164	0x344199a7	1.8030424e-07
165	0x339a5026	7.185763e-08
166	0x335cf579	5.1445998e-08
167	0x335ab20a	5.0919006e-08
168	0x31f06d83	6.9973694e-09
169	0x3253c399	1.232629e-08
170	0x3266a7b5	1.3425894e-08
171	0x32361e90	1.0600743e-08
172	0x32a087f4	1.8688276e-08
173	0x31c30f8a	5.6770135e-09
174	0x32396343	1.0790987e-08
175	0x32377d13	1.06804405e-08
176	0x32a939c8	1.9700465e-08
177	0x33685667	5.4095292e-08
178	0x330e4f74	3.3134214e-08
179	0x32a208d4	1.8863297e-08
180	0x338957ff	6.395566e-08
181	0x329a8de4	1.7992484e-08
182	0x32bbbfb6	2.1856845e-08
183	0x32b9d359	2.1632944e-08
184	0x31c6ead6	5.789256e-09
185	0x3329e780	3.9558927e-08
186	0x328b3bee	1.6208983e-08
187	0x3204a8f4	7.721827e-09
188	0x33693202	5.4295022e-08
189	0x31aaad8a	4.9673803e-09
190	0x31f6ddea	7.184771e-09
191	0x31f45686	7.111171e-09
192	0x31344786	2.6234104e-09
193	0x31e2022f	6.577714e-09
194	0x314d3437	2.9861107e-09
195	0x3125cd03	2.4127196e-09
196	0x321e4a5d	9.213719e-09
197	0x3135f591	2.6478555e-09
198	0x31c01a88	5.5909517e-09
199	0x31be22b3	5.5336726e-09
200	0x31cc24cd	5.941365e-09
201	0x3260abaa	1.3077548e-08
202	0x31cdc646	5.9888263e-09
203	0x31d5b417	6.2195897e-09
204	0x320ff1e2	8.378693e-09
205	0x31b90175	5.3843743e-09
206	0x3200cf2d	7.497687e-09
207	0x31fefabb	7.4208777e-09
208	0x321170b0	8.465733e-09
209	0x32d9b3c3	2.5343871e-08
210	0x3220b5a6	9.354528e-09
211	0x31e25d09	6.5880426e-09
212	0x333b70bd	4.3641865e-08
213	0x321c9ea7	9.1164685e-09
214	0x31f0cdbd	7.008309e-09
215	0x31ee563d	6.936516e-09
216	0x3286a202	1.5673326e-08
217	0x331a6421	3.5946986e-08
218	0x32ab1f40	1.992123e-08
219	0x3298d754	1.7793049e-08
220	0x32b7b4fa	2.1386303e-08
221	0x328a381e	1.6090834e-08
222	0x325b14dd	1.27522215e-08
223	0x3258d653	1.2621586e-08
224	0x3257573a	1.253448e-08
225	0x32605435	1.30576625e-08
226	0x328b79f9	1.6237196e-08
227	0x324d6d6e	1.1957452e-08
228	0x3314a5ff	3.4609908e-08
229	0x328c4ff1	1.6334498e-08
230	0x322c3f2c	1.0026081e-08
231	0x322a7b78	9.923376e-09
232	0x332196de	3.7622947e-08
233	0x335bcbf5	5.117541e-08
234	0x336a909e	5.46139e-08
235	0x331cb0fb	3.6482543e-08
236	0x33d5e06f	9.95941e-08
237	0x33237795	3.8060154e-08
238	0x33073345	3.1478766e-08
239	0x3305d0b7	3.11563e-08
240	0x32db18e5	2.5506276e-08
241	0x33059eec	3.1111014e-08
242	0x32d5989e	2.4865866e-08
243	0x32e87c86	2.7064981e-08
244	0x3340bacc	4.4873374e-08
245	0x3293abf7	1.7191253e-08
246	0x328f34e7	1.6671448e-08
247	0x328dbd57	1.6500662e-08
248	0x334a500e	4.71046e-08
249	0x33cffb9f	9.684958e-08
250	0x33977593	7.052872e-08
251	0x3372c7a1	5.6526577e-08
252	0x3338840f	4.2960945e-08
253	0x3360df04	5.2356896e-08
254	0x32cd4f48	2.3901194e-08
255	0x32cb34de	2.3656352e-08

exp_avg f4 [128]
0	0x3808b4ad	3.2593194e-05
1	0xb96e58f8	-0.00022730592
2	0x38a31bbf	7.777614e-05
3	0xb8aa3755	-8.116538e-05
4	0x38bf67f3	9.126952e-05
5	0x3917a3f0	0.00014461554
6	0xb75e88e3	-1.3264103e-05
7	0xb80b16e8	-3.3161516e-05
8	0xb7a3ec2e	-1.9541094e-05
9	0x391a85ec	0.00014736474
10	0x3895ace0	7.137074e-05
11	0x379cf326	1.8709874e-05
12	0x37c3f366	2.3359153e-05
13	0x37feb293	3.0362315e-05
14	0x37632b1a	1.354029e-05
15	0xb8bb97f5	-8.945159e-05
16	0x39408d31	0.00018363145
17	0x38dd243f	0.000105448526
18	0xb7d59f00	-2.5465619e-05
19	0x38b334cd	8.54522e-05
20	0x37c61198	2.3611632e-05
21	0x3909d181	0.00013143384
22	0x37f780f8	2.950475e-05
23	0xb7c750f6	-2.3760349e-05
24	0xb8003083	-3.056276e-05
25	0xb7673f53	-1.3783417e-05
26	0xb7488d27	-1.1953794e-05
27	0xb694316b	-4.4164967e-06
28	0xb909b2c2	-0.0001313193
29	0xb91b9430	-0.00014837156
30	0x38cc06d8	9.728753e-05
31	0x39625a46	0.00021586669
32	0xb963d745	-0.00021728601
33	0xb9330659	-0.00017073135
34	0x37bba7d2	2.2370285e-05
35	0xb794e929	-1.7751549e-05
36	0x381350c4	3.512275e-05
37	0xb93e1c37	-0.00018130323
38	0xb9cd98b5	-0.00039214423
39	0xb7396f32	-1.1052749e-05
40	0xb883e1d9	-6.288634e-05
41	0xb61320be	-2.1923765e-06
42	0x37afd0e8	2.0958905e-05
43	0xb7c00f0f	-2.2895196e-05
44	0xb891a606	-6.945063e-05
45	0x38c18ecc	9.229555e-05
46	0x38c4e796	9.3891445e-05
47	0x38a7ae0b	7.9955986e-05
48	0xb876bc16	-5.882614e-05
49	0x37bb2bff	2.2312624e-05
50	0x38aee12b	8.338907e-05
51	0xb84bfb48	-4.8632995e-05
52	0x3709d3b1	8.215125e-06
53	0x380ca439	3.3531545e-05
54	0xb89c5c05	-7.4558e-05
55	0xb9e649d8	-0.00043924036
56	0x36126790	2.1815977e-06
57	0xb825aab7	-3.9498056e-05
58	0xb6aeb4fd	-5.206674e-06
59	0x38813415	6.1609004e-05
60	0x39a473b8	0.00031366735
61	0xb910634c	-0.00013769901
62	0xb6bf63b0	-5.7038487e-06
63	0x38353f36	4.3212633e-05
64	0xb8032e16	-3.1275755e-05
65	0x3887fbee	6.484227e-05
66	0x39ae1da7	0.0003320996
67	0x36cd4176	6.1170967e-06
68	0xb4857bd9	-2.4863292e-07
69	0x393e25e6	0.0001813393
70	0x38baaddb	8.901554e-05
71	0xb8b21d34	-8.493141e-05
72	0x3930034d	0.00016785898
73	0xb8cdb15d	-9.808198e-05
74	0xb837c2db	-4.3812073e-05
75	0x389e1e85	7.539712e-05
76	0x38d804fe	0.000103006125
77	0x388f73e6	6.840359e-05
78	0xb80e20be	-3.388593e-05
79	0xb9920607	-0.0002785178
80	0xb876b860	-5.8822683e-05
81	0xb9741e4a	-0.00023280937
82	0xb70f1474	-8.528226e-06
83	0xb8cb2779	-9.687147e-05
84	0x38ed039f	0.00011301715
85	0xb8851189	-6.3452004e-05
86	0xb7d13b65	-2.49424e-05
87	0x3970069d	0.00022890647
88	0x3758a873	1.2913823e-05
89	0x393ce37b	0.0001801382
90	0xb90c1bc6	-0.00013361787
91	0xb80cb464	-3.3546603e-05
92	0x39c51b73	0.0003759522
93	0x38b094aa	8.420025e-05
94	0xb892ba1a	-6.9964866e-05
95	0x38c24ce7	9.264965e-05
96	0x38ce174c	9.827185e-05
97	0x38f3b012	0.000116199386
98	0x375f3aa3	1.3305488e-05
99	0x38ab2210	8.16026e-05
100	0xb8972a19	-7.2080824e-05
101	0xb5b8ee20	-1.3778372e-06
102	0x39022731	0.00012412366
103	0xb792cbe6	-1.7499504e-05
104	0x3892359b	6.971807e-05
105	0xb7306a2d	-1.05151385e-05
106	0xb8188363	-3.6361987e-05
107	0xb88bb670	-6.662018e-05
108	0xb84f6587	-4.94472e-05
109	0xb8878e6e	-6.463831e-05
110	0xb8259ed8	-3.9487e-05
111	0x376cda43	1.4117514e-05
112	0x38c09e60	9.184773e-05
113	0xb79c5119	-1.8634413e-05
114	0x3978e528	0.0002373649
115	0xb83dd11d	-4.5255863e-05
116	0x39b511f1	0.00034536378
117	0x37ab04ad	2.0386966e-05
118	0xb8fb5539	-0.000119844866
119	0x395c3bbe	0.0002100309
120	0x3985990b	0.00025481763
121	0x386735d8	5.5124838e-05
122	0x38070fc3	3.2201187e-05
123	0xb9040887	-0.00012591678
124	0x38e595f9	0.000109475055
125	0xb7778e03	-1.4755412e-05
126	0xb9044b28	-0.00012616499
127	0xb9210595	-0.00015356236
