Assets/results/petfollower9/PetFollower/checkpoint.pt (torch, 450594 bytes, 36 tensors)

network_body._body_endoder.seq_layers.0.weight f4 [128, 9]
000000 98 0a bb 3e bb ae 0e 3d b1 6a 21 3e e7 8b 39 3d
       0.3653152 0.034834605 0.15763356 0.045299437
000010 61 06 66 be d2 52 c2 bd 6c e6 0f bf 2d 62 85 bc
       -0.22463371 -0.09488453 -0.5621097 -0.016282165
000020 6a 16 9b be e0 90 e8 bd 0b a8 37 bd 99 a7 4f bd
       -0.30290538 -0.11355758 -0.044837993 -0.050696943
000030 df c4 f6 3d 24 40 16 bf 0a c3 f3 be d6 5e 96 3e
       0.12049269 -0.5869162 -0.4760974 0.2936923
000040 16 a4 a4 3d 24 8f 95 3e 01 93 32 3f d2 63 0c be
       0.080391094 0.2921077 0.6975556 -0.13709953
000050 f5 32 67 bf 12 8c 06 be 86 e1 26 3f 3a ad 47 bf
       -0.9031213 -0.1313937 0.6518787 -0.779987
000060 84 77 a3 be 3b de 80 3e 99 d1 b8 3e c6 1f 38 be
       -0.3192712 0.25169548 0.3609741 -0.1798087
000070 29 23 a3 bc 1a 8c 47 be 8e e2 6b bc 83 a6 9d 3d
       -0.019914227 -0.19487038 -0.014397277 0.07697775
000080 01 79 d5 3e e2 d4 f9 3e 2c d9 d8 bc 16 8b 34 bf
       0.4169388 0.4879523 -0.026470743 -0.7052473
000090 16 f5 9b 3d dd b4 92 3c 88 30 bb 3e 48 8d 07 3e
       0.07615106 0.017908508 0.36560464 0.13237488
0000a0 b3 98 a8 be 51 6f 08 bf 1a af cc bd f3 03 7d be
       -0.32929 -0.53294855 -0.099943355 -0.24708538
0000b0 84 88 f8 3e 8c 00 10 3f 7e b0 ac 3d 41 4b 90 be
       0.48541653 0.56250834 0.08432101 -0.28182414
0000c0 3e 60 db 3e 65 f4 cd 3c e2 e8 16 bf 74 74 65 be
       0.42846864 0.02514095 -0.589491 -0.22407705
0000d0 42 50 d6 3e 8c cd 62 3d 9c bb b7 3d 1a 15 a9 3d
       0.41858107 0.055371806 0.089713305 0.08255978
0000e0 dd 0e be be d8 1e 4b be 90 1f 6f 3c a2 13 a9 3e
       -0.37120715 -0.19835985 0.014594927 0.3302279
0000f0 50 d1 b8 3e 9a 4a fe be de 77 38 be 22 87 82 3e
       0.36097193 -0.4966629 -0.18014476 0.25493723
000100 f9 69 40 bd c5 d3 18 be 18 7d f9 bd 7c e4 81 bd
       -0.046976063 -0.14924534 -0.12182063 -0.06342408
000110 3a ab 22 bf 49 af 82 be ce fc 87 be 2c ab 65 3e
       -0.6354252 -0.25524357 -0.26560062 0.22428578
000120 88 78 80 3e f2 97 f0 be c3 c5 43 be aa 1b df be
       0.25091958 -0.46990925 -0.19118409 -0.43575794
000130 c3 24 7c be 13 3c 87 3d ac a7 a8 bd f9 ba dc be
       -0.24623398 0.06603255 -0.08235106 -0.431114
000140 5a 07 3a be f2 5c 2b 3f 14 b9 4e bf 57 ef 52 be
       -0.18166867 0.669387 -0.80751157 -0.20599113
000150 36 89 12 3f 29 63 13 3f 43 89 b8 bb ae 7e 47 be
       0.5724062 0.5757318 -0.0056315972 -0.19481918
000160 17 57 e4 3e 76 69 89 bd 49 6c df 3d 58 26 e6 3e
       0.44597694 -0.06709568 0.10909326 0.4495113
000170 e9 66 d7 3c 53 db f5 3d 32 3b ca 3d 05 65 3d 3e
       0.026294189 0.120047234 0.09874572 0.18495567
000180 35 81 0a 3e 30 56 1c 3e e3 c0 2c be 3d b5 e2 3e
       0.13525851 0.15267253 -0.16870455 0.442789
000190 93 ef 19 3f 02 7a 48 3e 24 80 48 3e 2c a1 e5 3e
       0.60131186 0.19577792 0.19580132 0.44849527
0001a0 79 04 bd 3e db 80 08 bd 90 23 71 3e 94 62 e6 bd
       0.36917475 -0.03332601 0.23548722 -0.11249271
0001b0 4a 01 84 3e c7 b7 53 bd 76 66 2d bf 91 29 6d bf
       0.25782233 -0.051688936 -0.6773447 -0.9264155
0001c0 b5 5a 6c 3d e0 87 fd 3e 63 bd 03 3e c8 a6 f6 3e
       0.057703692 0.49517727 0.12865214 0.4817412
0001d0 2a ed a3 3d bb f9 19 be f7 a2 89 be ad 43 16 3e
       0.0800422 -0.15036671 -0.26882145 0.14674254
0001e0 3f 38 1f 3e 74 70 98 3d 5b 12 04 3f 7e 62 1e 3e
       0.155488 0.07443324 0.5159051 0.1546726
0001f0 13 4d 31 be ba 4e 1f 3e bc e8 8e 3d 77 60 14 3e
       -0.17314558 0.15557376 0.06977984 0.14489923
000200 fb ef de 3e a7 5e 21 3f 62 59 8d be c2 db 11 bf
       0.43542466 0.63035053 -0.27607256 -0.5697595
000210 a4 57 10 be 2c 45 17 be 76 65 4e be bb d7 a9 bd
       -0.14095932 -0.1477248 -0.20155892 -0.082931004
000220 57 5a cb bd 4d 07 0f bd 64 51 b1 bc cb f1 d4 bd
       -0.0992934 -0.034919072 -0.021645255 -0.10397681
000230 a0 00 dc 3d 73 ab 6c 3e 8f e1 44 bf 05 34 13 3d
       0.10742307 0.23112278 -0.76906675 0.03593828
000240 fe 8c 6b be 20 de b1 3e 44 87 98 3e e5 c3 46 3d
       -0.23003003 0.3473978 0.297907 0.048526663
000250 d1 80 27 bf a2 86 9a be 51 a8 35 3e 06 a6 da be
       -0.65430933 -0.30180842 0.17739989 -0.4270479
000260 7b 2e 85 be bf 97 e5 be 8c b1 41 bf 98 ed 07 be
       -0.26012024 -0.44842336 -0.7566154 -0.13274229
000270 e5 7d 16 bd d4 9a 0b be 95 b8 f3 3d 6b aa 61 3e
       -0.036741156 -0.13633281 0.119004406 0.22037666
000280 a4 a7 c1 be a0 40 ae 3d 8f 5c 40 3d 43 f1 8b 3e
       -0.37823212 0.0850842 0.04696327 0.27332506
000290 92 39 15 3c e0 a7 a1 3d 6f f8 40 be cb 26 6e 3a
       0.009107964 0.07893348 -0.1884477 0.000908476
0002a0 76 65 be be 8b 89 c2 3e bc 60 da be a1 41 b9 3d
       -0.37186784 0.37995562 -0.42651927 0.09045721
0002b0 25 57 b5 be 82 74 e4 be e5 96 16 bd 67 12 a7 bd
       -0.35418049 -0.44620138 -0.036764998 -0.08157807
0002c0 2c ed 49 be e3 bb 2d 3e f5 09 1d bd 38 07 0c 3f
       -0.1971938 0.16966204 -0.038339574 0.54698515
0002d0 ce 4e fb 3d bc a9 75 bd 70 12 33 3e ea 40 a7 be
       0.1227089 -0.059976324 0.17487502 -0.32666713
0002e0 ed 55 8e be a7 3b b2 be f2 04 43 bd e7 68 eb be
       -0.2779993 -0.34811136 -0.047612138 -0.45978472
0002f0 5c 39 0a be 9e a8 51 3e 7a a5 a0 3e cd 79 a3 be
       -0.13498443 0.20474479 0.3137625 -0.31928864
000300 8c a0 17 be 05 fb 4f be 04 ea df be 84 2a b4 be
       -0.14807338 -0.203106 -0.43733227 -0.35188687
000310 d3 2c ff 3d bd c1 98 3e 0e ed 9b 3e c8 f2 21 3e
       0.124597214 0.2983531 0.30454296 0.1581527
000320 ed a1 0a 3f f6 53 25 be 67 0b 14 bd 61 df e8 be
       0.5415333 -0.1614531 -0.036143687 -0.45482925
000330 e4 86 e4 be 03 cf 0a 3e 0c b4 70 be 50 4d bc be
       -0.44634163 0.13555531 -0.23506182 -0.36777735
000340 41 1c be 3e e6 5c dd be 34 81 24 3f d2 6b 5b be
       0.3713093 -0.43234938 0.6425965 -0.21427849
000350 17 f7 7a 3f 6e c2 07 be 9b 79 04 bf bf 24 2d 3d
       0.9803328 -0.13257763 -0.51748055 0.042271372
000360 de 90 c1 be dc b0 7b 3e ff 62 23 bf 70 b5 16 3e
       -0.37805837 0.24579185 -0.6382293 0.1471765
000370 41 20 7c 3e fb 79 8d 3e 92 16 47 be 99 c6 6d 3e
       0.24621679 0.27632126 -0.19442204 0.2322029
000380 63 2b 00 be 47 2d cb 3d e9 c3 3f 3e 0c ae 8d 3e
       -0.1251655 0.09920745 0.18727078 0.2767185
000390 fb 60 a5 3d 16 f8 5f 3d e2 52 82 3d 5e c0 f4 3d
       0.08075138 0.054679953 0.06363465 0.11950754
0003a0 c8 be d7 3e 54 1a e5 3c f7 f1 c5 bd f6 a5 85 be
       0.42137742 0.027966656 -0.09665292 -0.2610318
0003b0 52 d2 dc bd 64 4e a9 be 7a c4 40 3e f8 78 18 bf
       -0.10782303 -0.3306762 0.1882495 -0.59559584
0003c0 c7 f2 49 be 30 8f 89 3b c3 bc 3b bf a9 54 36 3f
       -0.19721518 0.0041979775 -0.733349 0.7122293
0003d0 5e 63 3a 3e da 63 b7 3e 64 27 bd be d8 99 aa bc
       0.18201968 0.35818368 -0.36944115 -0.020825312
0003e0 f5 22 a8 3c 73 54 93 3d be d5 26 be 5e c0 00 be
       0.020524481 0.07193842 -0.16292474 -0.12573382
0003f0 59 74 a4 bd 10 fb d3 be 2e c8 dc 3e 19 6c d8 3e
       -0.08030004 -0.41402483 0.43121475 0.42269972

network_body._body_endoder.seq_layers.0.bias f4 [128]
000000 63 60 49 bd 66 aa df bc d3 90 9c bc eb 0d ad bc
       -0.049164187 -0.027302932 -0.019112026 -0.0211248
000010 4a a3 8e bd cd c7 ab bc 46 a7 24 bc e4 56 37 bd
       -0.06964739 -0.020969296 -0.010049647 -0.0447606
000020 09 c7 6c 3b 1d fd bd 3c 51 eb 37 bd 12 39 da bc
       0.0036129376 0.023191983 -0.04490215 -0.026638541
000030 74 fe 1d 3c 9b 89 7e bc 09 86 b2 bd 57 c0 25 bd
       0.009643186 -0.015535737 -0.087169714 -0.040466633
000040 46 31 70 bd c2 dc e6 3b d5 e8 1b bd 15 5e 9a bd
       -0.05864074 0.0070453594 -0.038063843 -0.07537476
000050 ec ea 9b bd 28 8b 54 3b fe fb 54 bd 87 14 13 bd
       -0.07613167 0.0032431576 -0.05199813 -0.03590825
000060 cd 07 30 3d 20 a9 3b bd db 49 e9 bc e4 1d 18 bc
       0.04297619 -0.045815587 -0.0284776 -0.00928447
000070 9a d2 4a bd 00 76 66 bd 9c b0 98 bc d9 1a 0d bd
       -0.04951725 -0.056264877 -0.018638901 -0.034449432
000080 09 2d 02 bd e6 03 94 bc b9 e1 67 bd ce f7 60 bc
       -0.03178123 -0.018068265 -0.05661175 -0.013730956
000090 9b ad a9 bb dc e7 43 bd ee fa 62 bd 99 2a 07 3d
       -0.005178166 -0.04782854 -0.055415086 0.03299961
0000a0 fc 46 9d bc b3 e0 1c bd 04 4d 1a bc 8d 0c 4b bc
       -0.019198887 -0.038300227 -0.009417776 -0.012393129
0000b0 17 89 c2 3c a7 3d 54 bd 52 77 e5 bc 18 7d 2f 3c
       0.02374701 -0.05181661 -0.028010998 0.010710977
0000c0 8d 53 9f bc 16 c1 49 bd f6 00 44 bc 6a 72 3b 3a
       -0.01944902 -0.049256407 -0.01196312 0.0007150533
0000d0 2c e6 3f bd 29 92 8a bc e0 0b 45 bd 8d 54 af 3c
       -0.04685037 -0.016915398 -0.048107028 0.021402622
0000e0 ab 57 2e bd 3a 67 29 bd 83 3a 31 bd d4 15 92 bd
       -0.042564075 -0.04135821 -0.04326869 -0.0713307
0000f0 25 2b e4 39 35 a0 3b 3c bf 18 b6 3b d6 09 eb bc
       0.00043519694 0.011451771 0.005557149 -0.028691214
000100 3b 0d 89 3c c6 34 dc bc af 2d 1e bd 24 42 71 bc
       0.016729942 -0.026880633 -0.038617786 -0.014725242
000110 f8 1d b7 bc 83 9e f7 3b bc 16 b0 bc a9 de ea 3c
       -0.022353157 0.007556738 -0.021495216 0.028670626
000120 06 f4 74 bd be c4 27 bd 4c 76 c5 bd 81 c8 77 bd
       -0.05980303 -0.040959112 -0.09641704 -0.06049395
000130 fc d3 0c 3c 74 23 a1 ba 62 7e 20 bd 02 a9 af ba
       0.008595463 -0.0012293891 -0.039183028 -0.0013401809
000140 48 1c d4 bc ba d1 52 bc d4 d0 cb bc b8 bb 16 bd
       -0.025892392 -0.0128673855 -0.02487985 -0.036800116
000150 48 e9 00 bc e4 0d e2 bc 90 99 db 3c 0f 56 89 bd
       -0.007868119 -0.027594514 0.026806623 -0.067058675
000160 07 42 37 bc 42 15 01 3d 07 06 9e bc 71 63 af 3b
       -0.011185176 0.031514414 -0.019289983 0.0053524305
000170 12 0e 02 bd fa b3 bb bc a2 f4 a4 3c 33 15 90 bd
       -0.0317517 -0.022912968 0.020136181 -0.070352934
000180 bc 01 86 bd 78 a2 37 bd 44 37 9d bd f5 96 6a bc
       -0.065432996 -0.044832677 -0.07676557 -0.0143182175
000190 fb 66 9f bc 0e 4d 69 bb 35 fa b8 bc 50 71 6d 3b
       -0.019458285 -0.0035598907 -0.022580246 0.003623087
0001a0 03 c7 26 bd c1 d4 1d bb 73 1f aa bd eb e3 4b bd
       -0.040717136 -0.002408311 -0.0830678 -0.049777906
0001b0 33 5f 7c bc 94 87 60 bd 1a 57 3e bc d6 af 28 bd
       -0.015403557 -0.054816797 -0.011617446 -0.041183315
0001c0 81 d9 06 bc ac 6b fd bc 6a e3 66 3d c2 fe 54 bd
       -0.008230568 -0.030935131 0.056369223 -0.05200077
0001d0 ec 87 ad 3c 9b b2 79 bc 7f b5 37 bd 9c 96 a7 bc
       0.021182977 -0.015240337 -0.044850823 -0.020457558
0001e0 f0 a6 59 bd 86 2c 00 3d 3c 4a bb 3b a2 f7 3a bd
       -0.05313772 0.03129246 0.0057156365 -0.045646317
0001f0 31 e5 7e bc b0 62 9d 3c 6f ac 67 bc 8b 08 f8 bc
       -0.015557573 0.019212097 -0.0141402325 -0.030277511

network_body._body_endoder.seq_layers.2.weight f4 [128, 128]
000000 1c d9 a5 3d 56 90 bb 3d fe db 47 3c 4e fa 5c be
       0.08098051 0.09158389 0.012198446 -0.21579859
000010 be 70 b3 3d ac 05 1a bc ca 92 1c 3c a6 8a 0c bd
       0.08761738 -0.009400766 0.009556482 -0.034311913
000020 ad 73 d5 bd e4 62 55 be 92 a4 8e bd 1b 8b 15 be
       -0.10422454 -0.20838505 -0.06964983 -0.14603846
000030 74 14 06 3e 71 55 17 3d ba f2 05 be 35 95 a8 bd
       0.1309374 0.036946718 -0.13080874 -0.08231584
000040 d2 18 c0 bd 6a c8 03 be 2e e0 d0 3d cc ba e0 3d
       -0.09379734 -0.1286942 0.10199009 0.10973129
000050 06 33 08 be 28 fe 48 bd 8f 4b 3d 3d d0 67 35 be
       -0.13300714 -0.049070507 0.046214636 -0.17715383
000060 16 03 ee 3d 8f ca 2f be ad 4c d2 3d 05 af f4 bd
       0.11621682 -0.17167114 0.10268531 -0.11947445
000070 ce ce 34 bd dc 3d 8b bd b7 f4 6d bd 13 5e 11 3d
       -0.044142537 -0.06798908 -0.058094706 0.035490107
000080 43 df fd 3b 91 96 dd 3d 30 5b a2 3d b2 7f 8d 3d
       0.007747562 0.10819734 0.07927549 0.069091216
000090 1b 02 8e be 33 7c 81 bb 5c 47 71 3d 87 89 90 be
       -0.2773598 -0.0039515733 0.058905944 -0.28229925
0000a0 7d a9 97 3d b6 a7 2f bd 19 d3 87 be ac 87 2f 3a
       0.07405374 -0.04288455 -0.26528242 0.0006695937
0000b0 d2 25 c1 bd 30 0d 51 bd d8 eb 69 bc d1 9d 8d bd
       -0.09431042 -0.051037967 -0.014277421 -0.06914867
0000c0 c9 20 82 bd f7 60 5d 3c 75 c6 ab 3d 4e bd ce bd
       -0.063539095 0.013511888 0.08387462 -0.10094701
0000d0 f7 1f 96 bd 2a 54 1a 3e d7 bf 89 3c 4b 3b 6d 3d
       -0.073303156 0.15071169 0.01681511 0.057917874
0000e0 91 06 f8 3c c9 d0 6e 3d 4f 03 b1 bc 13 7c 62 3d
       0.030276569 0.05830458 -0.021608023 0.055294108
0000f0 00 21 b1 bd 3c 9e 1b be 2c 94 87 3d 9d 5b ec 3d
       -0.086488724 -0.1519708 0.066200584 0.11540911
000100 3e c4 65 be a6 37 0c 3d da c9 c6 3d 3f 9b 48 3d
       -0.22438142 0.034232758 0.09706469 0.04897618
000110 a5 aa 14 be da 69 5a 3d b8 91 d1 3c 6b 93 a2 3d
       -0.1451822 0.053323604 0.02558218 0.07938274
000120 ab 0b 7f 3d 7f 6e 07 be 80 77 a2 bd 6f 81 ab 3d
       0.062266987 -0.13225745 -0.07932949 0.08374297
000130 bd 79 72 be 6b 51 a1 bd 47 86 3b be 1f 3a 26 3e
       -0.23679252 -0.07876857 -0.18312941 0.16233109
000140 e4 c0 0a bd 54 8a dc 3c 4f 91 a6 be 67 e4 00 be
       -0.03387536 0.026921429 -0.32532737 -0.12587129
000150 ef 18 d4 bd 85 42 22 3e 84 ba 49 bd 45 bc aa bd
       -0.10356318 0.15845688 -0.04925014 -0.08336691
000160 1a 8e 0a 3e 30 5c 68 3d 8c bd ae bc 4f c4 09 be
       0.1353077 0.05672854 -0.021330617 -0.13453792
000170 c0 69 7b 3d 91 b1 85 bc 47 d2 0f be e2 af 1c 3e
       0.061380148 -0.016320022 -0.14045058 0.15301469
000180 0d 29 05 3d 71 e8 3e 3b 16 50 00 be c0 28 65 bd
       0.032509852 0.0029130245 -0.1253055 -0.055947065
000190 e1 11 c4 bd cc d1 0d 3e c7 ae c0 3d ee a3 91 bd
       -0.09573723 0.13849562 0.09408336 -0.07111345
0001a0 71 96 2e be 04 aa 6e bc 80 ed 98 3d 25 7d 19 3c
       -0.17049576 -0.014566902 0.074671745 0.009368216
0001b0 86 46 ba bd f1 76 ce bd ba 3e aa 3d d1 0f 75 3d
       -0.090954825 -0.1008128 0.083127454 0.059829537
0001c0 30 d7 1d bd fe 79 d7 bd 5e 16 0e 3e c1 f9 d7 bd
       -0.038535297 -0.10521315 0.1387572 -0.10545684
0001d0 48 70 ce 3c 35 85 c4 3b 77 b9 98 bd 91 75 19 3e
       0.025200024 0.005997325 -0.074572496 0.14986254
0001e0 13 ab ef bc db 5e ee bc 48 8d fa bc 40 c4 f5 bd
       -0.02925638 -0.029097965 -0.030584946 -0.12000322
0001f0 a5 b3 a2 3c 6a 75 a5 ba 78 7c 82 3d 98 70 da bd
       0.019861052 -0.0012623493 0.06371397 -0.10666007
000200 6e 85 30 be df 03 b4 bb 28 74 f1 bd 95 ac 77 bc
       -0.172384 -0.0054936255 -0.11789733 -0.01511683
000210 7c e4 bb 3c de c9 a3 bd 24 89 d3 bd 27 66 89 3d
       0.022936098 -0.079974875 -0.10328892 0.06708937
000220 71 e7 1f 3d 2b 04 80 3d ef ca 05 bc c8 6d d0 bd
       0.03903908 0.06250795 -0.008166059 -0.10177189
000230 18 92 96 bd bb 3f b2 bd ca 88 73 bd 43 cb 8f 3b
       -0.07352084 -0.08703562 -0.059456624 0.0043882444
000240 3a b4 89 bd 93 d0 2d 3c 3b 3d 6b bc 80 bb 6c bd
       -0.067238286 0.01060881 -0.01435786 -0.057796
000250 18 f1 ed bb 53 35 92 bd eb 27 24 3e 38 71 e2 3d
       -0.0072614066 -0.07139077 0.16030852 0.11056751
000260 e1 b4 5f bd 58 86 62 be 9c 52 43 bd 31 1e 4c bd
       -0.05461586 -0.2212156 -0.047686204 -0.04983348
000270 9d 59 fa bc 46 59 92 bc 46 09 18 bd 92 7b 07 3d
       -0.030560309 -0.017864835 -0.03711822 0.03307683
000280 c9 01 ed 3b b5 ac 30 3e e9 16 1b be c9 82 66 bd
       0.007232879 0.17253383 -0.15145458 -0.05627707
000290 58 03 14 bd 52 ae 1f 3c 41 5e 0d 3d 3f 53 fc 3d
       -0.036136 0.009746151 0.034513716 0.123205654
0002a0 82 bf 8b bd 76 bf d3 3b 48 ae cc bd c6 e1 92 3d
       -0.068236366 0.006462033 -0.09994179 0.07171969
0002b0 66 08 7e bd 90 0e 06 3d 42 67 8e 3c c6 06 1a bd
       -0.062019728 0.03272873 0.017383222 -0.037604116
0002c0 e9 b0 33 bd 99 6b 95 bd 43 85 d8 3d a7 7e 81 bd
       -0.043869887 -0.07295913 0.10572293 -0.06322985
0002d0 18 a9 fd bd 65 cb 1d 3c 34 eb 26 3d 65 a9 46 3d
       -0.12385768 0.009631013 0.04075165 0.04850139
0002e0 51 cf 3c be 24 7e 60 bd a1 41 27 be 57 58 0f bb
       -0.1843846 -0.054807797 -0.16333629 -0.0021872723
0002f0 ff 08 69 bd eb d9 a1 bd 10 24 7a be d9 3a b9 3c
       -0.056893345 -0.07902893 -0.24427819 0.022611069
000300 35 e5 1d be f7 3a a7 3d 35 c2 27 bd d7 7d 95 be
       -0.15419467 0.081655435 -0.040956695 -0.2919757
000310 9f 4d 42 bd 80 cf d9 bd bf b0 8d bd 97 81 93 bd
       -0.047437306 -0.106352806 -0.06918477 -0.07202452
000320 75 53 f6 bd d1 54 56 bd 5e 29 84 3d bb 72 89 bd
       -0.12027637 -0.05232698 0.06453203 -0.06711336
000330 9f 87 be 3c c3 e7 8b 3c 65 ef c8 bb 0d 57 c5 bd
       0.023258029 0.017078286 -0.0061320537 -0.09635744
000340 54 51 c2 3d 19 37 7b bc 0d 45 8e 3b 3c d6 d6 bd
       0.09488168 -0.0153329605 0.0043417276 -0.10490081
000350 c6 ad af bd b3 85 8d 3d ad c8 49 3e e4 88 93 3c
       -0.085780665 0.06910267 0.19705458 0.01800961
000360 00 5f 80 3d 39 ca 04 be b7 62 c0 3d ff 11 98 bb
       0.0626812 -0.12967767 0.09393828 -0.004640817
000370 5d b1 73 bd 06 91 a3 3d ad af cb 3c 7a e6 15 3e
       -0.05949532 0.079866454 0.024864042 0.14638701
000380 53 f5 c2 bc c8 87 22 3d 5f ee e5 3b 92 6e fa 3a
       -0.02379862 0.039680272 0.0070169414 0.0019106439
000390 44 23 82 bc 1b 84 11 bd 0a 87 a1 bd 6f e1 88 bd
       -0.015885957 -0.035526376 -0.07887085 -0.06683623
0003a0 28 be e9 3c 4a cb 8c 3d b7 68 5a bd f8 45 05 be
       0.028533056 0.06874712 -0.05332252 -0.13014972
0003b0 80 16 cb 3c 8c 85 1c bc a0 75 be bd 26 1d 8b bd
       0.024791002 -0.009553324 -0.09299779 -0.06792669
0003c0 90 9a bc bd bd ac f1 bb 26 1e dd bd 1f f0 89 bc
       -0.09209168 -0.0073753283 -0.10796766 -0.016838131
0003d0 39 79 0a be 6a 08 78 3c e5 66 20 bc 49 25 70 3d
       -0.13522805 0.015138725 -0.009790157 0.058629308
0003e0 3a 7a 3b bd a0 44 29 3d 48 87 79 bd 5a 0a c0 3c
       -0.04577086 0.04132521 -0.06092003 0.023442436
0003f0 48 b6 e0 3d 93 81 92 bd d8 28 02 be 2c e1 55 bd
       0.109722674 -0.071536206 -0.12710893 -0.052216694

network_body._body_endoder.seq_layers.2.bias f4 [128]
000000 10 37 65 bb 28 cc 12 bd 14 ed 5f bc dd 86 17 bd
       -0.0034975447 -0.03583923 -0.013667364 -0.03699385
000010 ac 01 69 bd 2b e7 9a bd 86 52 8b 3c 62 04 8b bd
       -0.05688636 -0.07563623 0.017007124 -0.06787945
000020 18 2d 3d bd fb 6f 73 bd 1f ee 29 bb 90 ec c3 bc
       -0.046185583 -0.059432965 -0.0025929285 -0.023916513
000030 ce ba 93 bc 24 b1 fc bc 53 88 40 bd 5f fd 0f bd
       -0.018033411 -0.030846186 -0.04700501 -0.035153743
000040 cb 18 e8 bc 7b 79 4b 3b 8c 4d a3 bc 26 94 48 bb
       -0.028332135 0.003104775 -0.019934438 -0.0030605881
000050 dd 68 8c bd b3 73 ad 3c 90 05 97 bc e7 b2 8a bd
       -0.068559386 0.021173334 -0.01843527 -0.06772404
000060 90 07 de bc 03 64 7a bd eb 31 fc bc 83 69 27 bd
       -0.027103215 -0.061130535 -0.030785521 -0.04087211
000070 8d eb 95 bc 9f b2 6d bc f3 a8 12 bc 02 e9 82 bc
       -0.018300796 -0.014507919 -0.008951413 -0.015980247
000080 17 10 4a bd 45 90 80 3c 9e c5 85 bd e2 3e fb bb
       -0.04933175 0.015693793 -0.06531833 -0.0076674083
000090 fd c8 63 bc 43 7d ae bc 4b 74 da bc bb 34 16 bd
       -0.0139029 -0.021299964 -0.026666781 -0.03667138
0000a0 0b ae 27 bd fb 91 05 3d 67 95 43 bd 0b e9 1a bd
       -0.040937465 0.03260992 -0.047749903 -0.037819903
0000b0 0e b3 61 bc 2f 61 0d bd 36 55 14 bd 80 77 0f bd
       -0.0137756 -0.03451651 -0.036214076 -0.035026073
0000c0 13 f2 7c bd db 33 97 bc b9 f8 ad 39 af 3a f7 bc
       -0.061754297 -0.018457344 0.00033182444 -0.03017935
0000d0 21 8a 4a bd d0 f0 82 3b 93 fc 0e bd 12 35 3d 3c
       -0.049448136 0.0039959922 -0.034908842 0.0115482975
0000e0 6f 89 8e 3c 4a 11 80 bd a7 86 4c 3d 9d 1a 94 bd
       0.017399518 -0.062532976 0.049933102 -0.072316386
0000f0 85 c9 75 bd 78 75 de 3c 3e 35 63 bc 4a e2 2f bc
       -0.060006637 0.027155623 -0.013867674 -0.010735104
000100 2f 5a a3 bd 70 fa e1 bb b8 8a 99 bd 1a 8f 46 bc
       -0.079761855 -0.0068963096 -0.074971616 -0.012119079
000110 ab 30 a4 bd ee 84 10 bd 22 1a 32 bd b6 fb c1 bc
       -0.08017095 -0.03528302 -0.043481953 -0.023679595
000120 6c d8 18 bd bd db d5 bc 12 55 ca bc d2 48 32 bc
       -0.03731577 -0.026105756 -0.024698768 -0.0108816195
000130 15 fd 5e 3c 88 03 bc 3b b5 1e 16 bd 87 44 a2 3b
       0.013610144 0.0057377256 -0.03665038 0.0049520168
000140 5e c6 95 3c ec 85 e5 bc 85 46 5e bc 2a 8d 49 bd
       0.018283065 -0.02801796 -0.013566618 -0.04920689
000150 b5 bf 5f bd 46 74 94 bc dc 3f 2d bd 21 08 dd bb
       -0.054626185 -0.01812185 -0.04229723 -0.006745354
000160 0c 0b 87 bd 1d 2d 87 bd 4d cd 82 bc 3d 69 34 bd
       -0.06593904 -0.066004016 -0.015967036 -0.044045676
000170 5a ae 44 bd 2a 91 84 bd 50 f1 37 bc 7d 37 2b bd
       -0.048017837 -0.06473 -0.011226967 -0.041800965
000180 1c 3d dc bb d6 3f 16 bc c7 09 a4 bd 7e 20 bc bc
       -0.006721152 -0.009170493 -0.080096774 -0.022964712
000190 7c fe de bc 63 96 4a ba d4 ea 3c bd 18 b7 3a bd
       -0.027220957 -0.0007728098 -0.046122387 -0.045584768
0001a0 90 37 c7 bb 30 52 3d bd 05 0a e8 3c f6 9a c4 3c
       -0.0060796216 -0.04622096 0.02832509 0.023999672
0001b0 d3 1f 0d bd 71 33 7f 3c bf 97 65 bc a5 bd 7e bd
       -0.034454178 0.015576229 -0.01401323 -0.062192578
0001c0 19 52 e5 3b 64 91 51 bd 52 fb 08 3d 2f 48 dc bc
       0.006998312 -0.051164046 0.033442803 -0.026889889
0001d0 22 b0 e6 bc d4 69 ca bc ad 8b 7e bd 15 07 83 bd
       -0.028160159 -0.024708666 -0.062144924 -0.06397835
0001e0 90 ea 8d bd 41 b1 23 bd 01 2c 0d bd 78 e6 6a bc
       -0.06929505 -0.039963964 -0.034465794 -0.014337175
0001f0 00 63 81 bc 0a c8 b9 b8 0c da 74 bd 85 ec 9a bc
       -0.015794277 -8.8587476e-05 -0.05977826 -0.01891161

action_model._continuous_distribution.log_sigma f4 [1, 2]
000000 95 ac 20 be 9b b6 1c be
       -0.15690835 -0.15304033

action_model._continuous_distribution.mu.weight f4 [2, 128]
000000 c7 8f 4a bd 76 11 d9 3b b6 bc 0b bd d3 42 eb 3c
       -0.049453523 0.006624396 -0.034115516 0.028718388
000010 55 67 ac bb f7 3b 9f 3c 63 44 6c bc 2b 28 9b 3b
       -0.0052613416 0.019437773 -0.014420602 0.004735013
000020 e7 59 12 3c 30 34 81 3b 70 03 09 3c f4 3d 8e bc
       0.008932567 0.003942989 0.008362636 -0.017363526
000030 23 cd 60 3c 74 2e 67 b8 56 7a 6b 3c 96 cd ed 3c
       0.013720783 -5.5117955e-05 0.014372429 0.029028695
000040 95 d9 c0 3c ec 02 1e 3c 27 a0 f5 3c 7f 2c 2f 3d
       0.023541251 0.009644251 0.029983593 0.042767044
000050 b7 ad ed 3b fb 01 25 bc 51 f5 94 3c 5b 91 57 3b
       0.0072533744 -0.010071273 0.018183382 0.0032893035
000060 f7 23 3f bb e6 95 28 3c 85 ea 42 3d 24 93 08 3c
       -0.0029165724 0.010289645 0.047586937 0.008335862
000070 fd e3 67 3c bd 62 58 3b 29 4a 04 3d 69 49 7b bc
       0.014153478 0.0033017837 0.032297287 -0.015337327
000080 2c 49 72 3c f5 41 d9 3c c8 05 4e 3c d3 8d cc 3c
       0.014787953 0.026520709 0.012574621 0.02496997
000090 cf 2c aa 3b 27 d1 29 3a a9 09 f1 3b b2 b8 cc 3c
       0.00519333 0.00064780045 0.007355888 0.024990413
0000a0 4c 64 90 3b a3 d7 2c bd 73 c8 2b 3c a9 88 a8 3b
       0.0044064876 -0.042197835 0.010484803 0.0051432443
0000b0 71 e2 3f bc e2 e1 fe 3a 32 03 d9 bb b1 a3 39 3c
       -0.011711703 0.001944598 -0.0066226954 0.011330531
0000c0 ac 14 63 3c 51 22 b4 3a c0 62 cc 3b 99 a6 c6 3c
       0.013859909 0.0013743137 0.006237358 0.024249362
0000d0 6b 80 96 3c 1e cb d6 3c 60 b7 43 bb 45 8e 6f bc
       0.018371781 0.0262199 -0.0029863939 -0.014621322
0000e0 54 d7 b5 3c 28 6c 7c 3a b8 09 73 bb a6 76 ab 3b
       0.022197403 0.00096291536 -0.003708465 0.00523265
0000f0 2d 41 a5 3b 3c 46 06 bc da d8 93 bb a3 0f 0e 3c
       0.00504317 -0.008195456 -0.0045119347 0.00867072
000100 39 54 9d bb a9 88 f5 3b 14 46 ad 3c 68 4e e9 bc
       -0.0048013 0.007493098 0.02115158 -0.02847977
000110 bc fe 0e 3b 31 cb 8d bb 0f eb 78 3b 15 e2 23 3c
       0.0021819314 -0.004327201 0.0037981903 0.010002633
000120 8c 6e 10 3d 37 de 2b 3b 45 70 46 3c ee dd ee 3b
       0.035261676 0.002622498 0.012111728 0.0072896397
000130 61 0a 7f 3c dc 2e 4c 3c 4c 53 12 3d 1c 16 27 b9
       0.015566439 0.012462344 0.03572397 -0.00015934597
000140 0e fe a2 3b 06 ba b1 3b 95 9a fa ba 9d 41 a9 3c
       0.0049741333 0.005423787 -0.0019119555 0.02066117
000150 c4 fb 83 3b 4c 28 4b 3c 36 43 82 3c a3 4d 22 3d
       0.0040278155 0.012399744 0.01590119 0.03962482
000160 be 24 a9 3c ee a6 5f 3a 86 14 23 bd 1b a9 e4 3a
       0.020647403 0.00085316494 -0.039814495 0.0017445417
000170 a2 9e 8f 3c 33 89 1d 3d 36 09 37 3d 94 48 5e 3c
       0.017531697 0.03846092 0.04468652 0.013567109
000180 9f 43 d9 bc a5 6f 26 bd 5e 7e c4 39 c8 c0 b1 3c
       -0.026521502 -0.040633816 0.00037478184 0.02169837
000190 bc dd 23 3a bc 53 b7 3c ef 30 5d 3c 67 c6 79 bc
       0.00062509975 0.022378795 0.013500436 -0.015245057
0001a0 ab c9 c5 3b 94 43 10 3c c1 b1 11 3d 13 d7 0d bc
       0.0060360036 0.008805174 0.03556991 -0.008657235
0001b0 d3 fc e4 3b ea d6 4b 3d b1 1d 75 3c 4a 38 a1 bb
       0.006988147 0.049765505 0.014960692 -0.0049200403
0001c0 af 82 14 bd f9 aa 1b 3c be c7 40 bc 87 19 8a 3c
       -0.036257442 0.009501212 -0.011766372 0.016857876
0001d0 a5 b0 bb bb f4 16 7b bc 88 ca 5d bb 1a 9a 34 bb
       -0.005727845 -0.015325297 -0.0033842642 -0.0027557672
0001e0 0f b4 e5 3a 34 1c cb 3c e5 39 c5 3c d0 82 11 bc
       0.0017524975 0.024793722 0.024075458 -0.008881286
0001f0 e4 49 64 3c 58 eb 99 3b b0 0d c3 3b 44 25 18 3d
       0.0139336325 0.0046972446 0.0059525594 0.037144914
000200 22 32 02 3c 7d 2a 14 3c 71 a2 8a 3a c8 0b 87 bc
       0.007946523 0.009043333 0.0010576976 -0.01648511
000210 23 21 22 bc 54 f1 92 bc 39 d6 28 3c fd d0 5d 3a
       -0.009895596 -0.01793734 0.010304981 0.00084616226
000220 97 a2 1d bc 84 46 0d bb 56 c8 c5 3c 05 67 c1 3c
       -0.009621284 -0.0021556923 0.02414338 0.023608694
000230 6a 27 2f 3b 82 8b d5 39 22 f0 24 3c fd 1f f3 ba
       0.0026726373 0.00040730467 0.010067018 -0.0018548962
000240 5c c8 8f bb 33 06 0b 3d 1d 05 a1 bb 95 e8 35 bd
       -0.0043878984 0.03394146 -0.0049139396 -0.04441126
000250 06 8c b9 ba e5 21 27 3d 07 49 d0 bc 73 34 a2 bb
       -0.001415611 0.04080381 -0.025425447 -0.0049501
000260 81 78 cb bc ab 92 1b bc 57 b4 24 bc cc 99 20 bd
       -0.024837734 -0.009495418 -0.010052762 -0.039209172
000270 dd 3a 7b ba 12 fc 23 3c db 95 e4 bc 23 dc c3 39
       -0.00095836614 0.010008829 -0.027903488 0.00037357313
000280 78 7e da 3a a6 8c 1d 3d 5f 5a 41 3c 2b 3d 4c 3c
       0.0016669771 0.03846421 0.011801331 0.012465755
000290 c2 16 28 bd 63 33 9f bb 13 cb 48 bc db ae e1 bc
       -0.04103733 -0.0048584207 -0.012255448 -0.027549198
0002a0 93 61 83 bc 98 b5 56 3d ad fb ea bb f0 34 21 bc
       -0.016037738 0.052419275 -0.0071711154 -0.009839281
0002b0 bf cd 03 3a ff 0e 59 bc 9f 4a 44 bc f2 ea 7f 3c
       0.0005027912 -0.013248204 -0.011980682 0.01561998
0002c0 af d7 fd b9 1e 0d f2 3b f6 0d 05 3d f2 63 08 bd
       -0.00048416617 0.0073868176 0.032484017 -0.03329844
0002d0 3e 47 2a bb 39 fd 8f bb c8 1b bb 3c 8b 75 88 3c
       -0.0025982405 -0.0043942 0.022840396 0.016657611
0002e0 ff b2 31 bd f9 10 64 3b ee a5 62 3d 6b cc 25 bc
       -0.043383595 0.0034800156 0.055334024 -0.010119538
0002f0 0c ea b7 3b 89 05 43 3d 99 08 45 3d 24 36 8b 3c
       0.0056126174 0.0476127 0.048103902 0.01699359
000300 54 1d af 3b 73 67 92 3c d5 23 33 3c a4 f9 33 bb
       0.0053440724 0.017871594 0.010933836 -0.002746203
000310 59 1a 51 bc 43 87 dc bb 21 94 3e bb fa db 4c bb
       -0.012762629 -0.0067299916 -0.002907999 -0.0031259046
000320 32 51 71 3c f4 5e 35 3c 27 21 e5 3b ee c7 9c bc
       0.014728831 0.011070002 0.0069924775 -0.019138303
000330 53 c8 59 3c 02 f3 26 bd ee a6 b9 3c 2d 76 98 3c
       0.01329239 -0.040759094 0.022662606 0.018611038
000340 7a fb f5 3c fc 8c 21 bd 6e 86 6d 3c cc aa 91 bc
       0.03002714 -0.039441094 0.014497383 -0.017781638
000350 1c 54 1e bc 00 4c 86 bb a8 3d 40 bc a8 17 af bc
       -0.009663608 -0.0040984154 -0.01173345 -0.021373585
000360 ec 84 34 bc 1e 35 33 bc db 40 69 3c 75 b1 8a 3a
       -0.011018019 -0.010937957 0.014236654 0.0010581451
000370 5b 9a 37 bc 8a ca b0 3c db ef e5 bc 69 99 06 3b
       -0.011206235 0.021580953 -0.028068474 0.0020538217
000380 6c 0e 00 3c 1b b0 2b 3b 60 97 bc ba ec 37 81 3c
       0.007815938 0.0026197496 -0.0014388375 0.015773736
000390 2d df ed 3b 4a 85 e5 bb 28 2e f9 bc 46 fb 0c bd
       0.0072592706 -0.0070044147 -0.030417517 -0.03441932
0003a0 e6 a3 af 3b a0 ca 55 3c 0a 21 7f 3c cf fb 10 3d
       0.0053601144 0.013048798 0.015571842 0.035396393
0003b0 c3 f2 02 ba 13 ba 3e bc 2e 77 43 bb 10 18 a6 b9
       -0.0004995281 -0.011641043 -0.0029825675 -0.00031679915
0003c0 3c 90 10 bb e6 56 47 bc 30 df 01 3d 26 19 12 bd
       -0.0022058627 -0.012166714 0.03170699 -0.035668515
0003d0 ba 2e fb bc 08 22 a0 3b 1e 2c 93 3c 60 17 3b ba
       -0.03066193 0.0048868693 0.017965373 -0.0007136967
0003e0 37 fd 07 bb ad 56 c9 bc ad 6b 05 3b 3b dd 2b 3d
       -0.0020750293 -0.024577463 0.002035837 0.04195903
0003f0 e4 75 be 3c 7f de 10 3d 00 19 9c bc 78 b1 0e bd
       0.023249574 0.03536844 -0.01905489 -0.034837216

action_model._continuous_distribution.mu.bias f4 [2]
000000 5e e7 eb bb 08 28 7a 3d
       -0.007199212 0.061073333

exp_avg f4 [128, 9]
000000 80 f7 d6 3b 06 4c f1 39 f6 0d eb 3b ea 3c f6 3a
       0.006560266 0.00046023744 0.007173295 0.0018786464
000010 24 a5 e7 39 44 30 3e bb 21 18 12 ba 5b 12 1b af
       0.00044182793 -0.0029020468 -0.00055730535 -1.4103689e-10
000020 ab df e5 b5 8b bf bc 3a 60 63 e8 38 c3 e3 f8 3a
       -1.7126926e-06 0.0014400346 0.00011081132 0.0018988777
000030 fa d6 50 3a c1 17 df 38 44 6b 6a ba a1 8b f3 37
       0.00079666043 0.00010637893 -0.00089423754 2.9032877e-05
000040 5a 6e 25 ac 63 88 c1 38 ab c7 97 3c 26 22 9d 3a
       -2.3509168e-12 9.228361e-05 0.018527826 0.0011988326
000050 f3 21 91 3c 14 60 fb 3b 19 d9 96 3a 72 f7 03 bc
       0.017716384 0.0076713655 0.0011508792 -0.008054601
000060 66 8a ec ba ea 3c 52 af 7a a7 a9 ba 03 2e 1c b6
       -0.0018046617 -1.912103e-10 -0.0012943589 -2.3272594e-06
000070 1c e9 8d b4 8f e0 20 b7 53 1c 07 b6 73 66 88 b4
       -2.6432906e-07 -9.589027e-06 -2.0133054e-06 -2.5406516e-07
000080 3f 4d 84 b6 a9 7a bb b6 02 d8 02 2f 36 27 a1 b4
       -3.942899e-06 -5.587314e-06 1.1900173e-10 -3.0017117e-07
000090 43 86 9e bb 2b fe a9 b9 7e ad 9e bb c6 25 0c bb
       -0.0048377826 -0.00032423562 -0.004842459 -0.002138482
0000a0 74 31 a3 b9 0b 5e 25 3b cc 6f fc 39 14 0c b6 af
       -0.00031126628 0.0025233056 0.0004814848 -3.311419e-10
0000b0 e0 9d 2d 39 cd bd c4 3c 1c 66 de 3a d1 9a db 3c
       0.00016557379 0.024016285 0.0016967687 0.02680722
0000c0 d4 b7 e9 3b bf 80 d5 3a 1d ad 37 bc 42 0c be ba
       0.0071325097 0.001628898 -0.011210707 -0.0014499503
0000d0 d8 4d 3e b0 ed b4 44 37 7d 67 66 b8 00 fa 6f b6
       -6.923222e-10 1.1724635e-05 -5.4932654e-05 -3.5759294e-06
0000e0 58 e0 6d b8 15 f6 b5 b2 9e 77 66 b6 5d 1b 9c 37
       -5.671414e-05 -2.1183078e-08 -3.4342297e-06 1.8609391e-05
0000f0 e1 3e 3e 36 bf 2b 74 2f 84 1b 72 36 31 bf 20 bb
       2.8348807e-06 2.2207212e-10 3.6076826e-06 -0.0024528021
000100 d0 46 36 b9 0c eb 38 bb c0 02 73 ba 4b fc 2e b9
       -0.00017383252 -0.002821627 -0.0009270124 -0.0001668792
000110 4f e0 a5 3a d2 8d 8c 37 d0 cc 5d af d5 6a 81 37
       0.001265535 1.675534e-05 -2.0172597e-10 1.5427746e-05
000120 af 88 6b 3b 95 fc 6b 39 1e 8d 81 3b 6c 33 7b ba
       0.0035939624 0.0002250544 0.00395359 -0.00095825526
000130 ee 8b 62 39 03 48 02 ba 75 1f 79 39 0a 54 a5 b0
       0.00021605167 -0.0004969837 0.00023758209 -1.2029215e-09
000140 94 c4 1c ba 65 ed a7 3c 01 10 ba 3a aa b8 b3 3c
       -0.000598022 0.02049894 0.0014195443 0.02193864
000150 54 6c f7 3b b8 9e b2 3a f8 ab 28 bc 35 24 be ba
       0.0075507555 0.0013627624 -0.010294907 -0.001450664
000160 49 d9 3f b0 69 d9 ba b9 50 c4 8c 3b fa 55 a0 39
       -6.9794176e-10 -0.00035638668 0.004295863 0.00030581636
000170 75 09 a7 3b 91 c5 93 39 28 ec 99 39 c7 76 ae ba
       0.005097563 0.00028185223 0.00029358384 -0.0013310545
000180 58 33 ca b8 9c fc 0f af c1 cb 79 37 f7 7e a6 3c
       -9.641674e-05 -1.3095519e-10 1.4888997e-05 0.020324213
000190 4c 25 ba 3a 1c be b9 3c 6c d1 b5 3b 27 b3 b2 3a
       0.0014201789 0.022673659 0.0055486467 0.0013633714
0001a0 be bc 13 bc 53 3f 4c ba 98 e4 41 b0 19 ee a2 b9
       -0.009017168 -0.00077914185 -7.053784e-10 -0.00031076444
0001b0 33 66 2d 37 37 88 5c 35 ae 0c 85 37 9a 9d 10 b7
       1.0335399e-05 8.2154605e-07 1.586074e-05 -8.619763e-06
0001c0 3c 32 54 35 32 ea 8e 36 57 b3 21 36 9a 6b 20 b0
       7.9049255e-07 4.2591937e-06 2.409526e-06 -5.836057e-10
0001d0 3a ed f9 b5 60 b7 cd ba a6 65 eb b8 bd fa f6 ba
       -1.8620988e-06 -0.0015694909 -0.00011224607 -0.0018843036
0001e0 ad e2 e4 b9 1e fb e1 b8 d7 14 0c 3a 7f 3d c1 b7
       -0.00043656435 -0.0001077561 0.00053436816 -2.303603e-05
0001f0 6a 93 dc ae 47 ab ca b6 9a 89 82 39 52 09 d3 37
       -1.0030628e-10 -6.0400084e-06 0.00024898053 2.51575e-05
000200 d5 43 fb 39 cf c3 4f 39 44 98 ca 37 d5 fe f3 b8
       0.0004792499 0.00019814003 2.415118e-05 -0.00011634609
000210 16 d1 de b8 ca 81 0e 30 4a a3 fa 38 38 29 dc 38
       -0.0001062473 5.184374e-10 0.00011951344 0.00010498095
000220 60 17 cb 36 54 72 a4 38 5e 89 ae b6 a6 f7 c2 36
       6.0525927e-06 7.841425e-05 -5.2015957e-06 5.8104806e-06
000230 2b 20 c5 b7 b6 5e 92 b7 77 d2 8e af 18 cd 64 b7
       -2.349921e-05 -1.744866e-05 -2.5979194e-10 -1.3637611e-05
000240 1a a7 8b 3b 3f 0c a9 39 2c 91 ad 3b f4 d3 96 3a
       0.0042618634 0.00032243316 0.005296847 0.0011507259
000250 1d 49 a2 39 9f f0 0a bb 40 89 1e b9 02 8e 62 2d
       0.00030953521 -0.002120055 -0.00015119184 1.2878145e-11
000260 e1 9c 81 39 9e 4e 4c 35 3f e7 79 b2 3b c1 09 34
       0.0002472168 7.6110325e-07 -1.4546287e-08 1.2829416e-07
000270 70 6c 55 35 64 52 78 b2 41 32 57 b5 d8 70 fd b3
       7.950648e-07 -1.4454233e-08 -8.016687e-07 -1.1801757e-07
000280 a6 94 55 2f e5 86 88 b2 5f 51 33 ba b3 50 22 b8
       1.9425048e-10 -1.5893827e-08 -0.00068404333 -3.8698967e-05
000290 47 f7 fb b9 6d 3e 92 ba 67 d2 1b b8 a5 8d 58 3a
       -0.00048058687 -0.001115752 -3.7150832e-05 0.0008260853
0002a0 fc 93 b3 38 f2 7e df ae fd d3 02 39 0d 1d 27 b9
       8.5629494e-05 -1.0163416e-10 0.00012476738 -0.00015937183
0002b0 b0 9b 37 b7 b3 ae 33 b9 46 59 91 b8 a0 43 30 b7
       -1.0943899e-05 -0.00017135851 -6.930767e-05 -1.0506163e-05
0002c0 83 f6 9f 38 b0 67 fa 36 34 59 8f 2c 85 12 4f 36
       7.627627e-05 7.4626514e-06 4.074208e-12 3.0856183e-06
0002d0 d6 ce d1 3b ff 2b ea 39 f7 cf df 3b 35 8c e9 3a
       0.0064028306 0.00044664738 0.0068302113 0.0017818274
0002e0 11 ce e0 39 f5 ef 3e bb 9b f5 1b ba 85 f5 03 b0
       0.0004287814 -0.0029134725 -0.0005949379 -4.8006427e-10
0002f0 3c b4 03 b8 48 20 0a 3c 17 6d 14 3a 38 09 0b 3c
       -3.140069e-05 0.008430548 0.00056620076 0.008486085
000300 31 c5 53 3b 33 7d 0e 3a 44 7a 6b bb 54 03 73 ba
       0.003231358 0.0005435526 -0.003593103 -0.000927021
000310 e2 1b e0 aa ec 3b 86 b9 88 34 e1 3a 8a fb ee 38
       -3.980974e-13 -0.00025603117 0.0017181793 0.00011395577
000320 fd 0d f0 3a f9 91 40 b8 5f 6c e5 38 ea 9b d7 b9
       0.0018314716 -4.5912315e-05 0.000109397566 -0.0004112416
000330 a6 0b 9e 37 bd c7 18 b0 b1 be f2 b8 15 b0 30 34
       1.8840492e-05 -5.5581123e-10 -0.00011574978 1.6455336e-07
000340 f6 11 d0 b2 22 2b 0e b4 65 eb c1 34 00 e1 bf b2
       -2.4222555e-08 -1.3240472e-07 3.6120323e-07 -2.2337645e-08
000350 b5 da 87 b4 6a 53 f5 32 ca 16 5a af 2c f6 bf b3
       -2.530484e-07 2.8559686e-08 -1.9835081e-10 -8.938909e-08
000360 e7 b1 dd 32 52 30 52 b1 51 5c c4 b2 98 76 ca 31
       2.5808687e-08 -3.058649e-09 -2.2859384e-08 5.8924563e-09
000370 0d 88 85 b1 9a 5c 5d b2 44 3a 28 31 f4 9c bb 2f
       -3.8862766e-09 -1.2884948e-08 2.4480338e-09 3.4126624e-10
000380 2a 5c 67 b1 7f f1 40 bc 7f e6 53 ba 71 b2 48 bc
       -3.3667313e-09 -0.011776327 -0.0008083358 -0.012249575
000390 e9 86 96 bb a1 6c 4b ba 0e ac c4 3b c8 4d 90 3a
       -0.0045937193 -0.00077600224 0.006001956 0.0011009509
0003a0 dc 54 f3 2d ff 85 5a 39 fd 73 2d 3b 68 b0 2f 39
       2.7663587e-11 0.00020840018 0.002646684 0.00016755017
0003b0 c1 d6 25 3b f0 32 42 3a 29 a9 28 39 e3 0b 84 ba
       0.0025305005 0.0007408103 0.00016084746 -0.0010074343
0003c0 36 06 3d b9 40 40 13 ae 3c 4d b6 b9 b1 f6 5b 3b
       -0.00018026758 -3.3480996e-11 -0.0003477129 0.0033563788
0003d0 dc 8b 62 39 67 c4 50 3b 8e 21 24 3b f7 7b 59 39
       0.00021605141 0.0031855346 0.0025044414 0.00020740913
0003e0 13 fe 18 bb 8b e8 22 b9 4e 60 4a af d8 61 9f b9
       -0.00233448 -0.00015536153 -1.8406007e-10 -0.00030399743
0003f0 84 cd a6 38 08 e5 fc 37 db f4 18 3a 24 26 0a 3a
       7.953777e-05 3.0147392e-05 0.0005834826 0.00052699656

exp_avg_sq f4 [128, 9]
000000 2e c4 9c 39 44 42 4f 35 2e b4 84 39 19 1f e9 38
       0.00029900804 7.720994e-07 0.00025311246 0.00011116098
000010 15 16 79 35 78 28 82 38 ee 03 22 36 8e c6 de 31
       9.279186e-07 6.206421e-05 2.4142169e-06 6.4836234e-09
000020 bf 6f 34 36 7c c6 9f 39 ac 9b 56 36 1b 09 ec 39
       2.6887135e-06 0.00030474726 3.1979098e-06 0.00045020212
000030 6e 4d 83 39 d6 33 53 36 01 c7 ab 39 62 2a f1 36
       0.00025043957 3.1471623e-06 0.0003276393 7.1872937e-06
000040 14 97 f8 31 03 87 04 37 cd f6 a6 3c 8e 54 22 38
       7.2349255e-09 7.899248e-06 0.020381356 3.8702558e-05
000050 35 17 55 3c c9 c3 db 3b 8e af 58 38 30 ae 65 3b
       0.013006021 0.006706689 5.166191e-05 0.003504645
000060 26 b6 14 39 b2 93 09 35 f6 38 3b 39 54 e7 e2 3a
       0.00014182235 5.12514e-07 0.0001785493 0.0017311373
000070 7e 4f 7b 36 21 23 1e 3b f3 eb 38 3a f4 11 ae 36
       3.7448185e-06 0.0024129825 0.0007054202 5.187694e-06
000080 3b e8 86 39 03 64 7e 37 55 7e b0 33 53 d4 92 37
       0.00025731497 1.5162866e-05 8.218618e-08 1.7503427e-05
000090 f3 4f 7c 39 01 bc 1c 36 be dd 03 39 54 2a 29 39
       0.00024062376 2.3355244e-06 0.00012575739 0.00016132864
0000a0 33 dc 16 36 54 2c 8a 39 56 f8 90 36 47 ff dd 30
       2.2479915e-06 0.00026354438 4.3204445e-06 1.615242e-09
0000b0 1b 89 86 36 2b 15 0e 3c 79 40 90 37 50 06 e2 3b
       4.0094724e-06 0.008672039 1.719616e-05 0.006897725
0000c0 5b 7f 3e 3b 07 37 be 37 9b 80 a7 3a f3 52 80 38
       0.002906761 2.267539e-05 0.0012779416 6.118966e-05
0000d0 57 e2 82 34 e7 4b aa 38 62 5e 79 3a 37 d0 fd 35
       2.437907e-07 8.1203696e-05 0.00095126603 1.8910567e-06
0000e0 c0 a1 88 3a c3 31 9e 39 49 72 34 36 91 04 09 39
       0.0010424182 0.00030173184 2.6888613e-06 0.00013067039
0000f0 4c cb fa 36 c5 bc 2b 33 45 dd 39 37 3e 09 d5 39
       7.4742475e-06 3.9985725e-08 1.1078378e-05 0.00040633412
000100 f7 4b bc 35 15 d6 9e 39 51 69 0d 39 1f 7b d1 35
       1.40292e-06 0.00030295612 0.00013486041 1.5607546e-06
000110 d8 2c cf 38 b7 e0 8a 36 85 b7 30 32 99 51 8a 36
       9.878882e-05 4.1388807e-06 1.0286276e-08 4.1222197e-06
000120 b1 1e 17 3c 6a 54 8c 37 c0 97 a2 3b 34 f5 38 3b
       0.009223626 1.6728609e-05 0.0049619377 0.0028222324
000130 69 b6 ba 37 26 ca b6 3a 33 22 78 38 fb 2d 4b 34
       2.225787e-05 0.0013945743 5.9159658e-05 1.8922576e-07
000140 8b b3 a9 38 ef 7c 34 3c 8e fa b0 37 b6 d4 ed 3b
       8.0919905e-05 0.011016115 2.1097509e-05 0.007258023
000150 be b3 6d 3b 65 ec ed 37 a2 28 fb 3a 44 c3 8c 38
       0.0036270465 2.8362681e-05 0.001916189 6.712091e-05
000160 10 f1 88 34 4c 08 c5 38 fb 0c 19 3a ea 1e d6 35
       2.550737e-07 9.3952374e-05 0.0005838421 1.595324e-06
000170 2c e9 ce 39 35 a1 62 39 36 42 ff 35 13 7d 19 39
       0.00039465108 0.00021613094 1.901825e-06 0.00014637811
000180 91 86 83 36 ac 69 25 32 ff 31 92 36 7a 57 0b 3c
       3.91977e-06 9.628291e-09 4.3569594e-06 0.008504743
000190 b0 8a 63 37 0d 53 b0 3b 59 82 34 3b 14 78 9e 37
       1.3562545e-05 0.005380994 0.0027543514 1.8890983e-05
0001a0 89 28 72 3a ab ac 4d 38 14 f8 62 34 f2 56 82 38
       0.00092376076 4.903662e-05 2.113814e-07 6.215078e-05
0001b0 dc 03 21 3b ee 78 a1 36 11 8c b6 3a d9 e8 54 3a
       0.002456895 4.812252e-06 0.0013927241 0.0008121855
0001c0 ad 30 d8 36 ee 29 0b 3a 04 85 87 37 65 78 85 33
       6.4429682e-06 0.0005308677 1.6155194e-05 6.215195e-08
0001d0 8e 9c c0 37 bd b2 04 39 40 27 45 35 c4 fa 2a 39
       2.2961085e-05 0.00012655086 7.3445335e-07 0.00016305881
0001e0 89 b0 90 38 e1 25 4e 35 8d 10 9c 38 70 39 9d 35
       6.899337e-05 7.67961e-07 7.4417425e-05 1.1714128e-06
0001f0 7e 55 6d 30 9c d3 93 35 eb 3b f5 38 c9 26 81 35
       8.634159e-10 1.101394e-06 0.00011693671 9.622537e-07
000200 8a 7c 3f 39 da cb 88 38 06 e2 77 35 9a 3f 9d 38
       0.00018261574 6.522956e-05 9.234358e-07 7.49819e-05
000210 56 57 d7 35 84 1b ce 30 85 23 c5 35 fc 5f 39 3a
       1.6044166e-06 1.4996293e-09 1.4687981e-06 0.0007071493
000220 c9 02 13 36 c9 f0 5b 3a 97 78 99 39 c0 4d 38 36
       2.1906328e-06 0.0008390067 0.0002927228 2.7463393e-06
000230 28 cb da 39 b1 e0 09 37 76 20 13 33 f6 93 0d 37
       0.00041731563 8.218151e-06 3.4255628e-08 8.438705e-06
000240 31 46 84 39 df 67 3e 36 ea 4a 03 39 0b ec 5e 39
       0.000252293 2.8372667e-06 0.00012521041 0.00021259503
000250 12 c5 38 36 5f 40 b5 39 31 b3 b1 36 eb c3 d3 31
       2.7532847e-06 0.0003457097 5.2958717e-06 6.1631815e-09
000260 98 4a c5 36 81 39 53 38 0d f2 a8 34 ec b9 a7 38
       5.8797414e-06 5.0359875e-05 3.1468554e-07 7.997811e-05
000270 4f 8b ec 37 a2 d8 a8 34 94 54 fb 37 e4 9f 13 35
       2.8198263e-05 3.145006e-07 2.9960916e-05 5.499444e-07
000280 02 05 be 30 ad ec 2b 35 b7 5f 15 39 ff 4a 6d 35
       1.3825743e-09 6.404687e-07 0.00014245404 8.8398514e-07
000290 68 36 0d 39 bb 8d ee 38 f1 53 70 35 08 86 d6 38
       0.00013467076 0.00011375124 8.952912e-07 0.000102292805
0002a0 78 75 d7 35 86 1f 4c 31 de c1 23 36 58 af 90 3a
       1.6052936e-06 2.9703826e-09 2.4401738e-06 0.0011038585
0002b0 5e a8 f4 35 45 86 29 3a c6 a5 a9 39 ad 22 28 36
       1.8228418e-06 0.0006466846 0.00032357703 2.5054135e-06
0002c0 0f 00 24 39 ee a9 fd 36 ea a0 e8 32 ef 78 17 37
       0.0001564028 7.55977e-06 2.708153e-08 9.028458e-06
0002d0 72 d6 e6 39 41 5b 1f 36 15 ff ad 39 fe c9 1c 39
       0.00044028793 2.3745963e-06 0.00033187182 0.00014952567
0002e0 a0 6b 20 36 c9 cd 6f 39 2c 19 be 36 df a3 ad 31
       2.3904504e-06 0.00022869477 5.6653716e-06 5.0535927e-09
0002f0 ed 41 c5 36 33 88 bd 3b 91 23 37 37 8f 2c 7c 3b
       5.8787323e-06 0.0057840585 1.0915931e-05 0.0038478707
000300 40 24 08 3b c6 d8 71 37 43 b1 5b 3a 79 53 2b 38
       0.002077356 1.4415191e-05 0.0008380601 4.0847317e-05
000310 06 77 25 34 63 a0 69 38 f5 21 c2 3a d0 36 91 36
       1.5410123e-07 5.57009e-05 0.0014811145 4.3277178e-06
000320 b1 d9 bb 39 78 c3 cf 39 92 1b a8 36 f3 e7 0a 3a
       0.00035829612 0.00039627752 5.0099998e-06 0.00052988454
000330 8f f7 3a 37 29 28 9a 32 a7 87 56 37 8e b6 a7 39
       1.1144103e-05 1.7946222e-08 1.2786978e-05 0.00031988736
000340 1b be 19 36 f6 99 1c 3a 7c eb 88 39 ef f7 25 36
       2.2909433e-06 0.00059738697 0.0002611539 2.4731232e-06
000350 05 13 8a 39 c2 96 9b 36 d9 de 49 32 28 f2 b4 36
       0.00026335582 4.6369105e-06 1.17504095e-08 5.3926087e-06
000360 f9 e6 03 39 8d a7 b0 35 0c 67 93 39 88 59 0a 39
       0.00012579178 1.3161786e-06 0.000281148 0.00013194059
000370 bd 56 b3 35 60 00 d1 38 c8 06 2a 36 a8 89 e4 31
       1.3361783e-06 9.9659665e-05 2.5335921e-06 6.651323e-09
000380 cd 49 6c 36 57 54 41 3a 5c 13 3f 36 fb e4 eb 39
       3.5209698e-06 0.00073749333 2.8472487e-06 0.00044993297
000390 61 dc bc 39 4a 20 51 36 06 40 3b 39 98 0b b1 36
       0.0003602235 3.1162222e-06 0.0001785756 5.2763608e-06
0003a0 00 8a 8d 31 ac c1 aa 36 46 ac 3c 3a ec 60 6d 36
       4.119329e-09 5.088941e-06 0.00071973016 3.5372168e-06
0003b0 7e c8 27 3a 38 88 e0 39 32 d7 74 36 bb 2d a5 39
       0.000640042 0.000428261 3.6484093e-06 0.00031505324
0003c0 ca b4 04 37 70 da a3 32 63 39 41 37 b2 f2 06 3b
       7.909906e-06 1.9075031e-08 1.1517058e-05 0.0020591435
0003d0 cf e5 89 36 fa 96 c6 3a f1 48 3f 3a 6b 6b b1 36
       4.1096714e-06 0.0015151196 0.0007296941 5.287516e-06
0003e0 53 cb 9d 39 4c 61 71 37 0f a7 6a 33 43 58 a9 37
       0.00030096862 1.4387373e-05 5.463431e-08 2.018747e-05
0003f0 5f 38 4a 3a 78 19 66 36 a2 b0 f7 39 3a 71 b9 39
       0.00077140884 3.4287496e-06 0.00047243113 0.0003537031

exp_avg f4 [128]
000000 06 4c f1 39 69 63 e8 38 25 22 9d 3a 6a 15 8e b4
       0.00046023744 0.00011081139 0.0011988325 -2.6465142e-07
000010 2c fe a9 b9 1b 66 de 3a f1 11 70 b6 d0 46 36 b9
       -0.00032423565 0.0016967686 -3.577323e-06 -0.00017383252
000020 70 fc 6b 39 ff 0f ba 3a ff 55 a0 39 49 25 ba 3a
       0.00022505387 0.0014195441 0.0003058165 0.0014201786
000030 ab 09 5d 35 96 65 eb b8 56 09 d3 37 48 17 cb 36
       8.2342984e-07 -0.00011224595 2.5157507e-05 6.0525817e-06
000040 2a 0c a9 39 7f 55 81 b2 82 50 22 b8 c8 9b 37 b7
       0.00032243255 -1.5056456e-08 -3.869879e-05 -1.0943921e-05
000050 fc 2b ea 39 16 6d 14 3a 8c fb ee 38 bb df c7 b2
       0.0004466473 0.0005662007 0.000113955786 -2.326839e-08
000060 5f 18 8b b1 7d e6 53 ba 36 b0 2f 39 d0 8b 62 39
       -4.048203e-09 -0.00080833567 0.00016754944 0.00021605124
000070 91 e5 fc 37 cb d4 97 b4 c8 a3 a1 3a 17 05 c0 38
       3.0147641e-05 -2.828077e-07 0.0012332136 9.1562215e-05
000080 89 7e 7f 39 67 23 7f b7 56 be 03 37 e8 9f b9 3a
       0.00024365833 -1.5207427e-05 7.8525245e-06 0.0014162036
000090 65 71 3d b5 0e 27 d3 b8 08 60 fc b9 ad 23 0e 32
       -7.0573e-07 -0.000100685385 -0.00048136734 8.2736e-09
0000a0 98 ab 14 35 2e 60 03 3a f5 28 50 38 de ef 83 35
       5.5384e-07 0.00050115853 4.962921e-05 9.830071e-07
0000b0 ed 2c 2f b8 7a 69 22 37 ee 84 a4 3a 1d 22 d3 39
       -4.176509e-05 9.680511e-06 0.0012551823 0.00040270473
0000c0 68 3a 8f ba 4b c5 ab 37 2d 22 d0 39 5c 51 8c 39
       -0.0010927441 2.047666e-05 0.00039698315 0.00026763498
0000d0 1e fa a5 37 48 0e 47 b8 41 bd fc b8 33 2e c3 39
       1.9786003e-05 -4.7458598e-05 -0.00012051548 0.0003722772
0000e0 af 88 ab b8 59 d8 7d b1 75 26 84 3a 12 df 04 37
       -8.179375e-05 -3.6939325e-09 0.0010082262 7.919751e-06
0000f0 85 35 4b b6 a3 51 4b 39 b0 cb c1 3a f2 3f 9c b7
       -3.028051e-06 0.0001939 0.0014785435 -1.8626426e-05
000100 cf bb 35 38 d5 9c a4 35 88 d9 a4 38 53 f2 2b b8
       4.3328673e-05 1.2264596e-06 7.860648e-05 -4.099526e-05
000110 c7 ac 26 37 68 6a 2e 3a 53 f1 17 37 73 e7 fc 39
       9.934599e-06 0.0006653429 9.056489e-06 0.0004823763
000120 fc c4 b2 3a 48 89 f6 38 cc 5a e7 37 46 e0 da 39
       0.0013639028 0.00011755765 2.7579626e-05 0.00041747297
000130 3c 03 87 39 ed 1d bc 36 f7 79 24 b8 da 2b 9f b7
       0.00025751616 5.6063204e-06 -3.9214236e-05 -1.8974697e-05
000140 ac 5e ea 39 80 0a c1 39 97 43 f1 39 43 fe 3e b8
       0.00044702494 0.00036819652 0.0004601746 -4.553633e-05
000150 f0 74 66 b6 04 a1 24 b9 d0 4f 73 33 80 6c 18 ba
       -3.4340737e-06 -0.00015700242 5.6650435e-08 -0.00058145076
000160 fa eb 3e 35 07 63 39 33 69 1e 69 3a 0c 9c 68 3a
       7.1123907e-07 4.3163734e-08 0.0008892776 0.00088733505
000170 d8 7b 4a 39 f9 aa dd b9 8e 49 16 3a 14 2b 0a 3a
       0.00019310357 -0.0004227979 0.00057330064 0.00052707014
000180 f0 fa 28 b9 8c 3e 23 b8 2d 2a e0 b9 fc b5 23 3a
       -0.0001611521 -3.892048e-05 -0.00042756033 0.00062450743
000190 65 11 38 38 15 2e c3 38 ee d6 72 39 19 c8 aa 39
       4.388522e-05 9.306908e-05 0.00023158986 0.0003257401
0001a0 06 5a 22 39 12 3d eb 33 c9 75 8c b9 d3 a0 b5 b9
       0.0001548306 1.0954149e-07 -0.00026790638 -0.00034642834
0001b0 3e 8c f2 39 c0 6a 5f 38 71 1c e7 b7 36 35 2f ba
       0.00046262325 5.3266762e-05 -2.755059e-05 -0.0006683649
0001c0 7d 4f 86 b6 60 83 0f b9 17 35 f0 b5 f4 15 de b8
       -4.002765e-06 -0.00013686484 -1.7896845e-06 -0.00010589874
0001d0 98 e5 aa b7 31 a5 c1 39 f9 94 10 b9 35 d7 62 b9
       -2.0372492e-05 0.00036934906 -0.00013788407 -0.0002163321
0001e0 f0 d0 64 b9 43 aa 96 3a cf db 63 3a e5 f3 95 39
       -0.0002182161 0.0011494834 0.0008692117 0.0002860121
0001f0 52 54 88 ba 53 15 ee 35 f9 f4 ae b7 bf 9e 0c 39
       -0.0010401106 1.7738588e-06 -2.085649e-05 0.00013410578
