Assets/results/petfollower9/PetFollower/PetFollower-74951.onnx (onnx, 76634 bytes, 7 tensors)

network_body._body_endoder.seq_layers.0.weight f4 [128, 9]
0	0x3ebb0a98	0.3653152
1	0x3d0eaebb	0.034834605
2	0x3e216ab1	0.15763356
3	0x3d398be7	0.045299437
4	0xbe660661	-0.22463371
5	0xbdc252d2	-0.09488453
6	0xbf0fe66c	-0.5621097
7	0xbc85622d	-0.016282165
8	0xbe9b166a	-0.30290538
9	0xbde890e0	-0.11355758
10	0xbd37a80b	-0.044837993
11	0xbd4fa799	-0.050696943
12	0x3df6c4df	0.12049269
13	0xbf164024	-0.5869162
14	0xbef3c30a	-0.4760974
15	0x3e965ed6	0.2936923
16	0x3da4a416	0.080391094
17	0x3e958f24	0.2921077
18	0x3f329301	0.6975556
19	0xbe0c63d2	-0.13709953
20	0xbf6732f5	-0.9031213
21	0xbe068c12	-0.1313937
22	0x3f26e186	0.6518787
23	0xbf47ad3a	-0.779987
24	0xbea37784	-0.3192712
25	0x3e80de3b	0.25169548
26	0x3eb8d199	0.3609741
27	0xbe381fc6	-0.1798087
28	0xbca32329	-0.019914227
29	0xbe478c1a	-0.19487038
30	0xbc6be28e	-0.014397277
31	0x3d9da683	0.07697775
32	0x3ed57901	0.4169388
33	0x3ef9d4e2	0.4879523
34	0xbcd8d92c	-0.026470743
35	0xbf348b16	-0.7052473
36	0x3d9bf516	0.07615106
37	0x3c92b4dd	0.017908508
38	0x3ebb3088	0.36560464
39	0x3e078d48	0.13237488
40	0xbea898b3	-0.32929
41	0xbf086f51	-0.53294855
42	0xbdccaf1a	-0.099943355
43	0xbe7d03f3	-0.24708538
44	0x3ef88884	0.48541653
45	0x3f10008c	0.56250834
46	0x3dacb07e	0.08432101
47	0xbe904b41	-0.28182414
48	0x3edb603e	0.42846864
49	0x3ccdf465	0.02514095
50	0xbf16e8e2	-0.589491
51	0xbe657474	-0.22407705
52	0x3ed65042	0.41858107
53	0x3d62cd8c	0.055371806
54	0x3db7bb9c	0.089713305
55	0x3da9151a	0.08255978
56	0xbebe0edd	-0.37120715
57	0xbe4b1ed8	-0.19835985
58	0x3c6f1f90	0.014594927
59	0x3ea913a2	0.3302279
60	0x3eb8d150	0.36097193
61	0xbefe4a9a	-0.4966629
62	0xbe3877de	-0.18014476
63	0x3e828722	0.25493723
64	0xbd4069f9	-0.046976063
65	0xbe18d3c5	-0.14924534
66	0xbdf97d18	-0.12182063
67	0xbd81e47c	-0.06342408
68	0xbf22ab3a	-0.6354252
69	0xbe82af49	-0.25524357
70	0xbe87fcce	-0.26560062
71	0x3e65ab2c	0.22428578
72	0x3e807888	0.25091958
73	0xbef097f2	-0.46990925
74	0xbe43c5c3	-0.19118409
75	0xbedf1baa	-0.43575794
76	0xbe7c24c3	-0.24623398
77	0x3d873c13	0.06603255
78	0xbda8a7ac	-0.08235106
79	0xbedcbaf9	-0.431114
80	0xbe3a075a	-0.18166867
81	0x3f2b5cf2	0.669387
82	0xbf4eb914	-0.80751157
83	0xbe52ef57	-0.20599113
84	0x3f128936	0.5724062
85	0x3f136329	0.5757318
86	0xbbb88943	-0.0056315972
87	0xbe477eae	-0.19481918
88	0x3ee45717	0.44597694
89	0xbd896976	-0.06709568
90	0x3ddf6c49	0.10909326
91	0x3ee62658	0.4495113
92	0x3cd766e9	0.026294189
93	0x3df5db53	0.120047234
94	0x3dca3b32	0.09874572
95	0x3e3d6505	0.18495567
96	0x3e0a8135	0.13525851
97	0x3e1c5630	0.15267253
98	0xbe2cc0e3	-0.16870455
99	0x3ee2b53d	0.442789
100	0x3f19ef93	0.60131186
101	0x3e487a02	0.19577792
102	0x3e488024	0.19580132
103	0x3ee5a12c	0.44849527
104	0x3ebd0479	0.36917475
105	0xbd0880db	-0.03332601
106	0x3e712390	0.23548722
107	0xbde66294	-0.11249271
108	0x3e84014a	0.25782233
109	0xbd53b7c7	-0.051688936
110	0xbf2d6676	-0.6773447
111	0xbf6d2991	-0.9264155
112	0x3d6c5ab5	0.057703692
113	0x3efd87e0	0.49517727
114	0x3e03bd63	0.12865214
115	0x3ef6a6c8	0.4817412
116	0x3da3ed2a	0.0800422
117	0xbe19f9bb	-0.15036671
118	0xbe89a2f7	-0.26882145
119	0x3e1643ad	0.14674254
120	0x3e1f383f	0.155488
121	0x3d987074	0.07443324
122	0x3f04125b	0.5159051
123	0x3e1e627e	0.1546726
124	0xbe314d13	-0.17314558
125	0x3e1f4eba	0.15557376
126	0x3d8ee8bc	0.06977984
127	0x3e146077	0.14489923
128	0x3edeeffb	0.43542466
129	0x3f215ea7	0.63035053
130	0xbe8d5962	-0.27607256
131	0xbf11dbc2	-0.5697595
132	0xbe1057a4	-0.14095932
133	0xbe17452c	-0.1477248
134	0xbe4e6576	-0.20155892
135	0xbda9d7bb	-0.082931004
136	0xbdcb5a57	-0.0992934
137	0xbd0f074d	-0.034919072
138	0xbcb15164	-0.021645255
139	0xbdd4f1cb	-0.10397681
140	0x3ddc00a0	0.10742307
141	0x3e6cab73	0.23112278
142	0xbf44e18f	-0.76906675
143	0x3d133405	0.03593828
144	0xbe6b8cfe	-0.23003003
145	0x3eb1de20	0.3473978
146	0x3e988744	0.297907
147	0x3d46c3e5	0.048526663
148	0xbf2780d1	-0.65430933
149	0xbe9a86a2	-0.30180842
150	0x3e35a851	0.17739989
151	0xbedaa606	-0.4270479
152	0xbe852e7b	-0.26012024
153	0xbee597bf	-0.44842336
154	0xbf41b18c	-0.7566154
155	0xbe07ed98	-0.13274229
156	0xbd167de5	-0.036741156
157	0xbe0b9ad4	-0.13633281
158	0x3df3b895	0.119004406
159	0x3e61aa6b	0.22037666
160	0xbec1a7a4	-0.37823212
161	0x3dae40a0	0.0850842
162	0x3d405c8f	0.04696327
163	0x3e8bf143	0.27332506
164	0x3c153992	0.009107964
165	0x3da1a7e0	0.07893348
166	0xbe40f86f	-0.1884477
167	0x3a6e26cb	0.000908476
168	0xbebe6576	-0.37186784
169	0x3ec2898b	0.37995562
170	0xbeda60bc	-0.42651927
171	0x3db941a1	0.09045721
172	0xbeb55725	-0.35418049
173	0xbee47482	-0.44620138
174	0xbd1696e5	-0.036764998
175	0xbda71267	-0.08157807
176	0xbe49ed2c	-0.1971938
177	0x3e2dbbe3	0.16966204
178	0xbd1d09f5	-0.038339574
179	0x3f0c0738	0.54698515
180	0x3dfb4ece	0.1227089
181	0xbd75a9bc	-0.059976324
182	0x3e331270	0.17487502
183	0xbea740ea	-0.32666713
184	0xbe8e55ed	-0.2779993
185	0xbeb23ba7	-0.34811136
186	0xbd4304f2	-0.047612138
187	0xbeeb68e7	-0.45978472
188	0xbe0a395c	-0.13498443
189	0x3e51a89e	0.20474479
190	0x3ea0a57a	0.3137625
191	0xbea379cd	-0.31928864
192	0xbe17a08c	-0.14807338
193	0xbe4ffb05	-0.203106
194	0xbedfea04	-0.43733227
195	0xbeb42a84	-0.35188687
196	0x3dff2cd3	0.124597214
197	0x3e98c1bd	0.2983531
198	0x3e9bed0e	0.30454296
199	0x3e21f2c8	0.1581527
200	0x3f0aa1ed	0.5415333
201	0xbe2553f6	-0.1614531
202	0xbd140b67	-0.036143687
203	0xbee8df61	-0.45482925
204	0xbee486e4	-0.44634163
205	0x3e0acf03	0.13555531
206	0xbe70b40c	-0.23506182
207	0xbebc4d50	-0.36777735
208	0x3ebe1c41	0.3713093
209	0xbedd5ce6	-0.43234938
210	0x3f248134	0.6425965
211	0xbe5b6bd2	-0.21427849
212	0x3f7af717	0.9803328
213	0xbe07c26e	-0.13257763
214	0xbf04799b	-0.51748055
215	0x3d2d24bf	0.042271372
216	0xbec190de	-0.37805837
217	0x3e7bb0dc	0.24579185
218	0xbf2362ff	-0.6382293
219	0x3e16b570	0.1471765
220	0x3e7c2041	0.24621679
221	0x3e8d79fb	0.27632126
222	0xbe471692	-0.19442204
223	0x3e6dc699	0.2322029
224	0xbe002b63	-0.1251655
225	0x3dcb2d47	0.09920745
226	0x3e3fc3e9	0.18727078
227	0x3e8dae0c	0.2767185
228	0x3da560fb	0.08075138
229	0x3d5ff816	0.054679953
230	0x3d8252e2	0.06363465
231	0x3df4c05e	0.11950754
232	0x3ed7bec8	0.42137742
233	0x3ce51a54	0.027966656
234	0xbdc5f1f7	-0.09665292
235	0xbe85a5f6	-0.2610318
236	0xbddcd252	-0.10782303
237	0xbea94e64	-0.3306762
238	0x3e40c47a	0.1882495
239	0xbf1878f8	-0.59559584
240	0xbe49f2c7	-0.19721518
241	0x3b898f30	0.0041979775
242	0xbf3bbcc3	-0.733349
243	0x3f3654a9	0.7122293
244	0x3e3a635e	0.18201968
245	0x3eb763da	0.35818368
246	0xbebd2764	-0.36944115
247	0xbcaa99d8	-0.020825312
248	0x3ca822f5	0.020524481
249	0x3d935473	0.07193842
250	0xbe26d5be	-0.16292474
251	0xbe00c05e	-0.12573382
252	0xbda47459	-0.08030004
253	0xbed3fb10	-0.41402483
254	0x3edcc82e	0.43121475
255	0x3ed86c19	0.42269972

network_body._body_endoder.seq_layers.0.bias f4 [128]
0	0xbd496063	-0.049164187
1	0xbcdfaa66	-0.027302932
2	0xbc9c90d3	-0.019112026
3	0xbcad0deb	-0.0211248
4	0xbd8ea34a	-0.06964739
5	0xbcabc7cd	-0.020969296
6	0xbc24a746	-0.010049647
7	0xbd3756e4	-0.0447606
8	0x3b6cc709	0.0036129376
9	0x3cbdfd1d	0.023191983
10	0xbd37eb51	-0.04490215
11	0xbcda3912	-0.026638541
12	0x3c1dfe74	0.009643186
13	0xbc7e899b	-0.015535737
14	0xbdb28609	-0.087169714
15	0xbd25c057	-0.040466633
16	0xbd703146	-0.05864074
17	0x3be6dcc2	0.0070453594
18	0xbd1be8d5	-0.038063843
19	0xbd9a5e15	-0.07537476
20	0xbd9beaec	-0.07613167
21	0x3b548b28	0.0032431576
22	0xbd54fbfe	-0.05199813
23	0xbd131487	-0.03590825
24	0x3d3007cd	0.04297619
25	0xbd3ba920	-0.045815587
26	0xbce949db	-0.0284776
27	0xbc181de4	-0.00928447
28	0xbd4ad29a	-0.04951725
29	0xbd667600	-0.056264877
30	0xbc98b09c	-0.018638901
31	0xbd0d1ad9	-0.034449432
32	0xbd022d09	-0.03178123
33	0xbc9403e6	-0.018068265
34	0xbd67e1b9	-0.05661175
35	0xbc60f7ce	-0.013730956
36	0xbba9ad9b	-0.005178166
37	0xbd43e7dc	-0.04782854
38	0xbd62faee	-0.055415086
39	0x3d072a99	0.03299961
40	0xbc9d46fc	-0.019198887
41	0xbd1ce0b3	-0.038300227
42	0xbc1a4d04	-0.009417776
43	0xbc4b0c8d	-0.012393129
44	0x3cc28917	0.02374701
45	0xbd543da7	-0.05181661
46	0xbce57752	-0.028010998
47	0x3c2f7d18	0.010710977
48	0xbc9f538d	-0.01944902
49	0xbd49c116	-0.049256407
50	0xbc4400f6	-0.01196312
51	0x3a3b726a	0.0007150533
52	0xbd3fe62c	-0.04685037
53	0xbc8a9229	-0.016915398
54	0xbd450be0	-0.048107028
55	0x3caf548d	0.021402622
56	0xbd2e57ab	-0.042564075
57	0xbd29673a	-0.04135821
58	0xbd313a83	-0.04326869
59	0xbd9215d4	-0.0713307
60	0x39e42b25	0.00043519694
61	0x3c3ba035	0.011451771
62	0x3bb618bf	0.005557149
63	0xbceb09d6	-0.028691214
64	0x3c890d3b	0.016729942
65	0xbcdc34c6	-0.026880633
66	0xbd1e2daf	-0.038617786
67	0xbc714224	-0.014725242
68	0xbcb71df8	-0.022353157
69	0x3bf79e83	0.007556738
70	0xbcb016bc	-0.021495216
71	0x3ceadea9	0.028670626
72	0xbd74f406	-0.05980303
73	0xbd27c4be	-0.040959112
74	0xbdc5764c	-0.09641704
75	0xbd77c881	-0.06049395
76	0x3c0cd3fc	0.008595463
77	0xbaa12374	-0.0012293891
78	0xbd207e62	-0.039183028
79	0xbaafa902	-0.0013401809
80	0xbcd41c48	-0.025892392
81	0xbc52d1ba	-0.0128673855
82	0xbccbd0d4	-0.02487985
83	0xbd16bbb8	-0.036800116
84	0xbc00e948	-0.007868119
85	0xbce20de4	-0.027594514
86	0x3cdb9990	0.026806623
87	0xbd89560f	-0.067058675
88	0xbc374207	-0.011185176
89	0x3d011542	0.031514414
90	0xbc9e0607	-0.019289983
91	0x3baf6371	0.0053524305
92	0xbd020e12	-0.0317517
93	0xbcbbb3fa	-0.022912968
94	0x3ca4f4a2	0.020136181
95	0xbd901533	-0.070352934
96	0xbd8601bc	-0.065432996
97	0xbd37a278	-0.044832677
98	0xbd9d3744	-0.07676557
99	0xbc6a96f5	-0.0143182175
100	0xbc9f66fb	-0.019458285
101	0xbb694d0e	-0.0035598907
102	0xbcb8fa35	-0.022580246
103	0x3b6d7150	0.003623087
104	0xbd26c703	-0.040717136
105	0xbb1dd4c1	-0.002408311
106	0xbdaa1f73	-0.0830678
107	0xbd4be3eb	-0.049777906
108	0xbc7c5f33	-0.015403557
109	0xbd608794	-0.054816797
110	0xbc3e571a	-0.011617446
111	0xbd28afd6	-0.041183315
112	0xbc06d981	-0.008230568
113	0xbcfd6bac	-0.030935131
114	0x3d66e36a	0.056369223
115	0xbd54fec2	-0.05200077
116	0x3cad87ec	0.021182977
117	0xbc79b29b	-0.015240337
118	0xbd37b57f	-0.044850823
119	0xbca7969c	-0.020457558
120	0xbd59a6f0	-0.05313772
121	0x3d002c86	0.03129246
122	0x3bbb4a3c	0.0057156365
123	0xbd3af7a2	-0.045646317
124	0xbc7ee531	-0.015557573
125	0x3c9d62b0	0.019212097
126	0xbc67ac6f	-0.0141402325
127	0xbcf8088b	-0.030277511

network_body._body_endoder.seq_layers.2.weight f4 [128, 128]
0	0x3da5d91c	0.08098051
1	0x3dbb9056	0.09158389
2	0x3c47dbfe	0.012198446
3	0xbe5cfa4e	-0.21579859
4	0x3db370be	0.08761738
5	0xbc1a05ac	-0.009400766
6	0x3c1c92ca	0.009556482
7	0xbd0c8aa6	-0.034311913
8	0xbdd573ad	-0.10422454
9	0xbe5562e4	-0.20838505
10	0xbd8ea492	-0.06964983
11	0xbe158b1b	-0.14603846
12	0x3e061474	0.1309374
13	0x3d175571	0.036946718
14	0xbe05f2ba	-0.13080874
15	0xbda89535	-0.08231584
16	0xbdc018d2	-0.09379734
17	0xbe03c86a	-0.1286942
18	0x3dd0e02e	0.10199009
19	0x3de0bacc	0.10973129
20	0xbe083306	-0.13300714
21	0xbd48fe28	-0.049070507
22	0x3d3d4b8f	0.046214636
23	0xbe3567d0	-0.17715383
24	0x3dee0316	0.11621682
25	0xbe2fca8f	-0.17167114
26	0x3dd24cad	0.10268531
27	0xbdf4af05	-0.11947445
28	0xbd34cece	-0.044142537
29	0xbd8b3ddc	-0.06798908
30	0xbd6df4b7	-0.058094706
31	0x3d115e13	0.035490107
32	0x3bfddf43	0.007747562
33	0x3ddd9691	0.10819734
34	0x3da25b30	0.07927549
35	0x3d8d7fb2	0.069091216
36	0xbe8e021b	-0.2773598
37	0xbb817c33	-0.0039515733
38	0x3d71475c	0.058905944
39	0xbe908987	-0.28229925
40	0x3d97a97d	0.07405374
41	0xbd2fa7b6	-0.04288455
42	0xbe87d319	-0.26528242
43	0x3a2f87ac	0.0006695937
44	0xbdc125d2	-0.09431042
45	0xbd510d30	-0.051037967
46	0xbc69ebd8	-0.014277421
47	0xbd8d9dd1	-0.06914867
48	0xbd8220c9	-0.063539095
49	0x3c5d60f7	0.013511888
50	0x3dabc675	0.08387462
51	0xbdcebd4e	-0.10094701
52	0xbd961ff7	-0.073303156
53	0x3e1a542a	0.15071169
54	0x3c89bfd7	0.01681511
55	0x3d6d3b4b	0.057917874
56	0x3cf80691	0.030276569
57	0x3d6ed0c9	0.05830458
58	0xbcb1034f	-0.021608023
59	0x3d627c13	0.055294108
60	0xbdb12100	-0.086488724
61	0xbe1b9e3c	-0.1519708
62	0x3d87942c	0.066200584
63	0x3dec5b9d	0.11540911
64	0xbe65c43e	-0.22438142
65	0x3d0c37a6	0.034232758
66	0x3dc6c9da	0.09706469
67	0x3d489b3f	0.04897618
68	0xbe14aaa5	-0.1451822
69	0x3d5a69da	0.053323604
70	0x3cd191b8	0.02558218
71	0x3da2936b	0.07938274
72	0x3d7f0bab	0.062266987
73	0xbe076e7f	-0.13225745
74	0xbda27780	-0.07932949
75	0x3dab816f	0.08374297
76	0xbe7279bd	-0.23679252
77	0xbda1516b	-0.07876857
78	0xbe3b8647	-0.18312941
79	0x3e263a1f	0.16233109
80	0xbd0ac0e4	-0.03387536
81	0x3cdc8a54	0.026921429
82	0xbea6914f	-0.32532737
83	0xbe00e467	-0.12587129
84	0xbdd418ef	-0.10356318
85	0x3e224285	0.15845688
86	0xbd49ba84	-0.04925014
87	0xbdaabc45	-0.08336691
88	0x3e0a8e1a	0.1353077
89	0x3d685c30	0.05672854
90	0xbcaebd8c	-0.021330617
91	0xbe09c44f	-0.13453792
92	0x3d7b69c0	0.061380148
93	0xbc85b191	-0.016320022
94	0xbe0fd247	-0.14045058
95	0x3e1cafe2	0.15301469
96	0x3d05290d	0.032509852
97	0x3b3ee871	0.0029130245
98	0xbe005016	-0.1253055
99	0xbd6528c0	-0.055947065
100	0xbdc411e1	-0.09573723
101	0x3e0dd1cc	0.13849562
102	0x3dc0aec7	0.09408336
103	0xbd91a3ee	-0.07111345
104	0xbe2e9671	-0.17049576
105	0xbc6eaa04	-0.014566902
106	0x3d98ed80	0.074671745
107	0x3c197d25	0.009368216
108	0xbdba4686	-0.090954825
109	0xbdce76f1	-0.1008128
110	0x3daa3eba	0.083127454
111	0x3d750fd1	0.059829537
112	0xbd1dd730	-0.038535297
113	0xbdd779fe	-0.10521315
114	0x3e0e165e	0.1387572
115	0xbdd7f9c1	-0.10545684
116	0x3cce7048	0.025200024
117	0x3bc48535	0.005997325
118	0xbd98b977	-0.074572496
119	0x3e197591	0.14986254
120	0xbcefab13	-0.02925638
121	0xbcee5edb	-0.029097965
122	0xbcfa8d48	-0.030584946
123	0xbdf5c440	-0.12000322
124	0x3ca2b3a5	0.019861052
125	0xbaa5756a	-0.0012623493
126	0x3d827c78	0.06371397
127	0xbdda7098	-0.10666007
128	0xbe30856e	-0.172384
129	0xbbb403df	-0.0054936255
130	0xbdf17428	-0.11789733
131	0xbc77ac95	-0.01511683
132	0x3cbbe47c	0.022936098
133	0xbda3c9de	-0.079974875
134	0xbdd38924	-0.10328892
135	0x3d896627	0.06708937
136	0x3d1fe771	0.03903908
137	0x3d80042b	0.06250795
138	0xbc05caef	-0.008166059
139	0xbdd06dc8	-0.10177189
140	0xbd969218	-0.07352084
141	0xbdb23fbb	-0.08703562
142	0xbd7388ca	-0.059456624
143	0x3b8fcb43	0.0043882444
144	0xbd89b43a	-0.067238286
145	0x3c2dd093	0.01060881
146	0xbc6b3d3b	-0.01435786
147	0xbd6cbb80	-0.057796
148	0xbbedf118	-0.0072614066
149	0xbd923553	-0.07139077
150	0x3e2427eb	0.16030852
151	0x3de27138	0.11056751
152	0xbd5fb4e1	-0.05461586
153	0xbe628658	-0.2212156
154	0xbd43529c	-0.047686204
155	0xbd4c1e31	-0.04983348
156	0xbcfa599d	-0.030560309
157	0xbc925946	-0.017864835
158	0xbd180946	-0.03711822
159	0x3d077b92	0.03307683
160	0x3bed01c9	0.007232879
161	0x3e30acb5	0.17253383
162	0xbe1b16e9	-0.15145458
163	0xbd6682c9	-0.05627707
164	0xbd140358	-0.036136
165	0x3c1fae52	0.009746151
166	0x3d0d5e41	0.034513716
167	0x3dfc533f	0.123205654
168	0xbd8bbf82	-0.068236366
169	0x3bd3bf76	0.006462033
170	0xbdccae48	-0.09994179
171	0x3d92e1c6	0.07171969
172	0xbd7e0866	-0.062019728
173	0x3d060e90	0.03272873
174	0x3c8e6742	0.017383222
175	0xbd1a06c6	-0.037604116
176	0xbd33b0e9	-0.043869887
177	0xbd956b99	-0.07295913
178	0x3dd88543	0.10572293
179	0xbd817ea7	-0.06322985
180	0xbdfda918	-0.12385768
181	0x3c1dcb65	0.009631013
182	0x3d26eb34	0.04075165
183	0x3d46a965	0.04850139
184	0xbe3ccf51	-0.1843846
185	0xbd607e24	-0.054807797
186	0xbe2741a1	-0.16333629
187	0xbb0f5857	-0.0021872723
188	0xbd6908ff	-0.056893345
189	0xbda1d9eb	-0.07902893
190	0xbe7a2410	-0.24427819
191	0x3cb93ad9	0.022611069
192	0xbe1de535	-0.15419467
193	0x3da73af7	0.081655435
194	0xbd27c235	-0.040956695
195	0xbe957dd7	-0.2919757
196	0xbd424d9f	-0.047437306
197	0xbdd9cf80	-0.106352806
198	0xbd8db0bf	-0.06918477
199	0xbd938197	-0.07202452
200	0xbdf65375	-0.12027637
201	0xbd5654d1	-0.05232698
202	0x3d84295e	0.06453203
203	0xbd8972bb	-0.06711336
204	0x3cbe879f	0.023258029
205	0x3c8be7c3	0.017078286
206	0xbbc8ef65	-0.0061320537
207	0xbdc5570d	-0.09635744
208	0x3dc25154	0.09488168
209	0xbc7b3719	-0.0153329605
210	0x3b8e450d	0.0043417276
211	0xbdd6d63c	-0.10490081
212	0xbdafadc6	-0.085780665
213	0x3d8d85b3	0.06910267
214	0x3e49c8ad	0.19705458
215	0x3c9388e4	0.01800961
216	0x3d805f00	0.0626812
217	0xbe04ca39	-0.12967767
218	0x3dc062b7	0.09393828
219	0xbb9811ff	-0.004640817
220	0xbd73b15d	-0.05949532
221	0x3da39106	0.079866454
222	0x3ccbafad	0.024864042
223	0x3e15e67a	0.14638701
224	0xbcc2f553	-0.02379862
225	0x3d2287c8	0.039680272
226	0x3be5ee5f	0.0070169414
227	0x3afa6e92	0.0019106439
228	0xbc822344	-0.015885957
229	0xbd11841b	-0.035526376
230	0xbda1870a	-0.07887085
231	0xbd88e16f	-0.06683623
232	0x3ce9be28	0.028533056
233	0x3d8ccb4a	0.06874712
234	0xbd5a68b7	-0.05332252
235	0xbe0545f8	-0.13014972
236	0x3ccb1680	0.024791002
237	0xbc1c858c	-0.009553324
238	0xbdbe75a0	-0.09299779
239	0xbd8b1d26	-0.06792669
240	0xbdbc9a90	-0.09209168
241	0xbbf1acbd	-0.0073753283
242	0xbddd1e26	-0.10796766
243	0xbc89f01f	-0.016838131
244	0xbe0a7939	-0.13522805
245	0x3c78086a	0.015138725
246	0xbc2066e5	-0.009790157
247	0x3d702549	0.058629308
248	0xbd3b7a3a	-0.04577086
249	0x3d2944a0	0.04132521
250	0xbd798748	-0.06092003
251	0x3cc00a5a	0.023442436
252	0x3de0b648	0.109722674
253	0xbd928193	-0.071536206
254	0xbe0228d8	-0.12710893
255	0xbd55e12c	-0.052216694

network_body._body_endoder.seq_layers.2.bias f4 [128]
0	0xbb653710	-0.0034975447
1	0xbd12cc28	-0.03583923
2	0xbc5fed14	-0.013667364
3	0xbd1786dd	-0.03699385
4	0xbd6901ac	-0.05688636
5	0xbd9ae72b	-0.07563623
6	0x3c8b5286	0.017007124
7	0xbd8b0462	-0.06787945
8	0xbd3d2d18	-0.046185583
9	0xbd736ffb	-0.059432965
10	0xbb29ee1f	-0.0025929285
11	0xbcc3ec90	-0.023916513
12	0xbc93bace	-0.018033411
13	0xbcfcb124	-0.030846186
14	0xbd408853	-0.04700501
15	0xbd0ffd5f	-0.035153743
16	0xbce818cb	-0.028332135
17	0x3b4b797b	0.003104775
18	0xbca34d8c	-0.019934438
19	0xbb489426	-0.0030605881
20	0xbd8c68dd	-0.068559386
21	0x3cad73b3	0.021173334
22	0xbc970590	-0.01843527
23	0xbd8ab2e7	-0.06772404
24	0xbcde0790	-0.027103215
25	0xbd7a6403	-0.061130535
26	0xbcfc31eb	-0.030785521
27	0xbd276983	-0.04087211
28	0xbc95eb8d	-0.018300796
29	0xbc6db29f	-0.014507919
30	0xbc12a8f3	-0.008951413
31	0xbc82e902	-0.015980247
32	0xbd4a1017	-0.04933175
33	0x3c809045	0.015693793
34	0xbd85c59e	-0.06531833
35	0xbbfb3ee2	-0.0076674083
36	0xbc63c8fd	-0.0139029
37	0xbcae7d43	-0.021299964
38	0xbcda744b	-0.026666781
39	0xbd1634bb	-0.03667138
40	0xbd27ae0b	-0.040937465
41	0x3d0591fb	0.03260992
42	0xbd439567	-0.047749903
43	0xbd1ae90b	-0.037819903
44	0xbc61b30e	-0.0137756
45	0xbd0d612f	-0.03451651
46	0xbd145536	-0.036214076
47	0xbd0f7780	-0.035026073
48	0xbd7cf213	-0.061754297
49	0xbc9733db	-0.018457344
50	0x39adf8b9	0.00033182444
51	0xbcf73aaf	-0.03017935
52	0xbd4a8a21	-0.049448136
53	0x3b82f0d0	0.0039959922
54	0xbd0efc93	-0.034908842
55	0x3c3d3512	0.0115482975
56	0x3c8e896f	0.017399518
57	0xbd80114a	-0.062532976
58	0x3d4c86a7	0.049933102
59	0xbd941a9d	-0.072316386
60	0xbd75c985	-0.060006637
61	0x3cde7578	0.027155623
62	0xbc63353e	-0.013867674
63	0xbc2fe24a	-0.010735104
64	0xbda35a2f	-0.079761855
65	0xbbe1fa70	-0.0068963096
66	0xbd998ab8	-0.074971616
67	0xbc468f1a	-0.012119079
68	0xbda430ab	-0.08017095
69	0xbd1084ee	-0.03528302
70	0xbd321a22	-0.043481953
71	0xbcc1fbb6	-0.023679595
72	0xbd18d86c	-0.03731577
73	0xbcd5dbbd	-0.026105756
74	0xbcca5512	-0.024698768
75	0xbc3248d2	-0.0108816195
76	0x3c5efd15	0.013610144
77	0x3bbc0388	0.0057377256
78	0xbd161eb5	-0.03665038
79	0x3ba24487	0.0049520168
80	0x3c95c65e	0.018283065
81	0xbce585ec	-0.02801796
82	0xbc5e4685	-0.013566618
83	0xbd498d2a	-0.04920689
84	0xbd5fbfb5	-0.054626185
85	0xbc947446	-0.01812185
86	0xbd2d3fdc	-0.04229723
87	0xbbdd0821	-0.006745354
88	0xbd870b0c	-0.06593904
89	0xbd872d1d	-0.066004016
90	0xbc82cd4d	-0.015967036
91	0xbd34693d	-0.044045676
92	0xbd44ae5a	-0.048017837
93	0xbd84912a	-0.06473
94	0xbc37f150	-0.011226967
95	0xbd2b377d	-0.041800965
96	0xbbdc3d1c	-0.006721152
97	0xbc163fd6	-0.009170493
98	0xbda409c7	-0.080096774
99	0xbcbc207e	-0.022964712
100	0xbcdefe7c	-0.027220957
101	0xba4a9663	-0.0007728098
102	0xbd3cead4	-0.046122387
103	0xbd3ab718	-0.045584768
104	0xbbc73790	-0.0060796216
105	0xbd3d5230	-0.04622096
106	0x3ce80a05	0.02832509
107	0x3cc49af6	0.023999672
108	0xbd0d1fd3	-0.034454178
109	0x3c7f3371	0.015576229
110	0xbc6597bf	-0.01401323
111	0xbd7ebda5	-0.062192578
112	0x3be55219	0.006998312
113	0xbd519164	-0.051164046
114	0x3d08fb52	0.033442803
115	0xbcdc482f	-0.026889889
116	0xbce6b022	-0.028160159
117	0xbcca69d4	-0.024708666
118	0xbd7e8bad	-0.062144924
119	0xbd830715	-0.06397835
120	0xbd8dea90	-0.06929505
121	0xbd23b141	-0.039963964
122	0xbd0d2c01	-0.034465794
123	0xbc6ae678	-0.014337175
124	0xbc816300	-0.015794277
125	0xb8b9c80a	-8.8587476e-05
126	0xbd74da0c	-0.05977826
127	0xbc9aec85	-0.01891161

action_model._continuous_distribution.log_sigma f4 [1, 2]
0	0xbe20ac95	-0.15690835
1	0xbe1cb69b	-0.15304033

action_model._continuous_distribution.mu.weight f4 [2, 128]
0	0xbd4a8fc7	-0.049453523
1	0x3bd91176	0.006624396
2	0xbd0bbcb6	-0.034115516
3	0x3ceb42d3	0.028718388
4	0xbbac6755	-0.0052613416
5	0x3c9f3bf7	0.019437773
6	0xbc6c4463	-0.014420602
7	0x3b9b282b	0.004735013
8	0x3c1259e7	0.008932567
9	0x3b813430	0.003942989
10	0x3c090370	0.008362636
11	0xbc8e3df4	-0.017363526
12	0x3c60cd23	0.013720783
13	0xb8672e74	-5.5117955e-05
14	0x3c6b7a56	0.014372429
15	0x3cedcd96	0.029028695
16	0x3cc0d995	0.023541251
17	0x3c1e02ec	0.009644251
18	0x3cf5a027	0.029983593
19	0x3d2f2c7f	0.042767044
20	0x3bedadb7	0.0072533744
21	0xbc2501fb	-0.010071273
22	0x3c94f551	0.018183382
23	0x3b57915b	0.0032893035
24	0xbb3f23f7	-0.0029165724
25	0x3c2895e6	0.010289645
26	0x3d42ea85	0.047586937
27	0x3c089324	0.008335862
28	0x3c67e3fd	0.014153478
29	0x3b5862bd	0.0033017837
30	0x3d044a29	0.032297287
31	0xbc7b4969	-0.015337327
32	0x3c72492c	0.014787953
33	0x3cd941f5	0.026520709
34	0x3c4e05c8	0.012574621
35	0x3ccc8dd3	0.02496997
36	0x3baa2ccf	0.00519333
37	0x3a29d127	0.00064780045
38	0x3bf109a9	0.007355888
39	0x3cccb8b2	0.024990413
40	0x3b90644c	0.0044064876
41	0xbd2cd7a3	-0.042197835
42	0x3c2bc873	0.010484803
43	0x3ba888a9	0.0051432443
44	0xbc3fe271	-0.011711703
45	0x3afee1e2	0.001944598
46	0xbbd90332	-0.0066226954
47	0x3c39a3b1	0.011330531
48	0x3c6314ac	0.013859909
49	0x3ab42251	0.0013743137
50	0x3bcc62c0	0.006237358
51	0x3cc6a699	0.024249362
52	0x3c96806b	0.018371781
53	0x3cd6cb1e	0.0262199
54	0xbb43b760	-0.0029863939
55	0xbc6f8e45	-0.014621322
56	0x3cb5d754	0.022197403
57	0x3a7c6c28	0.00096291536
58	0xbb7309b8	-0.003708465
59	0x3bab76a6	0.00523265
60	0x3ba5412d	0.00504317
61	0xbc06463c	-0.008195456
62	0xbb93d8da	-0.0045119347
63	0x3c0e0fa3	0.00867072
64	0xbb9d5439	-0.0048013
65	0x3bf588a9	0.007493098
66	0x3cad4614	0.02115158
67	0xbce94e68	-0.02847977
68	0x3b0efebc	0.0021819314
69	0xbb8dcb31	-0.004327201
70	0x3b78eb0f	0.0037981903
71	0x3c23e215	0.010002633
72	0x3d106e8c	0.035261676
73	0x3b2bde37	0.002622498
74	0x3c467045	0.012111728
75	0x3beeddee	0.0072896397
76	0x3c7f0a61	0.015566439
77	0x3c4c2edc	0.012462344
78	0x3d12534c	0.03572397
79	0xb927161c	-0.00015934597
80	0x3ba2fe0e	0.0049741333
81	0x3bb1ba06	0.005423787
82	0xbafa9a95	-0.0019119555
83	0x3ca9419d	0.02066117
84	0x3b83fbc4	0.0040278155
85	0x3c4b284c	0.012399744
86	0x3c824336	0.01590119
87	0x3d224da3	0.03962482
88	0x3ca924be	0.020647403
89	0x3a5fa6ee	0.00085316494
90	0xbd231486	-0.039814495
91	0x3ae4a91b	0.0017445417
92	0x3c8f9ea2	0.017531697
93	0x3d1d8933	0.03846092
94	0x3d370936	0.04468652
95	0x3c5e4894	0.013567109
96	0xbcd9439f	-0.026521502
97	0xbd266fa5	-0.040633816
98	0x39c47e5e	0.00037478184
99	0x3cb1c0c8	0.02169837
100	0x3a23ddbc	0.00062509975
101	0x3cb753bc	0.022378795
102	0x3c5d30ef	0.013500436
103	0xbc79c667	-0.015245057
104	0x3bc5c9ab	0.0060360036
105	0x3c104394	0.008805174
106	0x3d11b1c1	0.03556991
107	0xbc0dd713	-0.008657235
108	0x3be4fcd3	0.006988147
109	0x3d4bd6ea	0.049765505
110	0x3c751db1	0.014960692
111	0xbba1384a	-0.0049200403
112	0xbd1482af	-0.036257442
113	0x3c1baaf9	0.009501212
114	0xbc40c7be	-0.011766372
115	0x3c8a1987	0.016857876
116	0xbbbbb0a5	-0.005727845
117	0xbc7b16f4	-0.015325297
118	0xbb5dca88	-0.0033842642
119	0xbb349a1a	-0.0027557672
120	0x3ae5b40f	0.0017524975
121	0x3ccb1c34	0.024793722
122	0x3cc539e5	0.024075458
123	0xbc1182d0	-0.008881286
124	0x3c6449e4	0.0139336325
125	0x3b99eb58	0.0046972446
126	0x3bc30db0	0.0059525594
127	0x3d182544	0.037144914
128	0x3c023222	0.007946523
129	0x3c142a7d	0.009043333
130	0x3a8aa271	0.0010576976
131	0xbc870bc8	-0.01648511
132	0xbc222123	-0.009895596
133	0xbc92f154	-0.01793734
134	0x3c28d639	0.010304981
135	0x3a5dd0fd	0.00084616226
136	0xbc1da297	-0.009621284
137	0xbb0d4684	-0.0021556923
138	0x3cc5c856	0.02414338
139	0x3cc16705	0.023608694
140	0x3b2f276a	0.0026726373
141	0x39d58b82	0.00040730467
142	0x3c24f022	0.010067018
143	0xbaf31ffd	-0.0018548962
144	0xbb8fc85c	-0.0043878984
145	0x3d0b0633	0.03394146
146	0xbba1051d	-0.0049139396
147	0xbd35e895	-0.04441126
148	0xbab98c06	-0.001415611
149	0x3d2721e5	0.04080381
150	0xbcd04907	-0.025425447
151	0xbba23473	-0.0049501
152	0xbccb7881	-0.024837734
153	0xbc1b92ab	-0.009495418
154	0xbc24b457	-0.010052762
155	0xbd2099cc	-0.039209172
156	0xba7b3add	-0.00095836614
157	0x3c23fc12	0.010008829
158	0xbce495db	-0.027903488
159	0x39c3dc23	0.00037357313
160	0x3ada7e78	0.0016669771
161	0x3d1d8ca6	0.03846421
162	0x3c415a5f	0.011801331
163	0x3c4c3d2b	0.012465755
164	0xbd2816c2	-0.04103733
165	0xbb9f3363	-0.0048584207
166	0xbc48cb13	-0.012255448
167	0xbce1aedb	-0.027549198
168	0xbc836193	-0.016037738
169	0x3d56b598	0.052419275
170	0xbbeafbad	-0.0071711154
171	0xbc2134f0	-0.009839281
172	0x3a03cdbf	0.0005027912
173	0xbc590eff	-0.013248204
174	0xbc444a9f	-0.011980682
175	0x3c7feaf2	0.01561998
176	0xb9fdd7af	-0.00048416617
177	0x3bf20d1e	0.0073868176
178	0x3d050df6	0.032484017
179	0xbd0863f2	-0.03329844
180	0xbb2a473e	-0.0025982405
181	0xbb8ffd39	-0.0043942
182	0x3cbb1bc8	0.022840396
183	0x3c88758b	0.016657611
184	0xbd31b2ff	-0.043383595
185	0x3b6410f9	0.0034800156
186	0x3d62a5ee	0.055334024
187	0xbc25cc6b	-0.010119538
188	0x3bb7ea0c	0.0056126174
189	0x3d430589	0.0476127
190	0x3d450899	0.048103902
191	0x3c8b3624	0.01699359
192	0x3baf1d54	0.0053440724
193	0x3c926773	0.017871594
194	0x3c3323d5	0.010933836
195	0xbb33f9a4	-0.002746203
196	0xbc511a59	-0.012762629
197	0xbbdc8743	-0.0067299916
198	0xbb3e9421	-0.002907999
199	0xbb4cdbfa	-0.0031259046
200	0x3c715132	0.014728831
201	0x3c355ef4	0.011070002
202	0x3be52127	0.0069924775
203	0xbc9cc7ee	-0.019138303
204	0x3c59c853	0.01329239
205	0xbd26f302	-0.040759094
206	0x3cb9a6ee	0.022662606
207	0x3c98762d	0.018611038
208	0x3cf5fb7a	0.03002714
209	0xbd218cfc	-0.039441094
210	0x3c6d866e	0.014497383
211	0xbc91aacc	-0.017781638
212	0xbc1e541c	-0.009663608
213	0xbb864c00	-0.0040984154
214	0xbc403da8	-0.01173345
215	0xbcaf17a8	-0.021373585
216	0xbc3484ec	-0.011018019
217	0xbc33351e	-0.010937957
218	0x3c6940db	0.014236654
219	0x3a8ab175	0.0010581451
220	0xbc379a5b	-0.011206235
221	0x3cb0ca8a	0.021580953
222	0xbce5efdb	-0.028068474
223	0x3b069969	0.0020538217
224	0x3c000e6c	0.007815938
225	0x3b2bb01b	0.0026197496
226	0xbabc9760	-0.0014388375
227	0x3c8137ec	0.015773736
228	0x3beddf2d	0.0072592706
229	0xbbe5854a	-0.0070044147
230	0xbcf92e28	-0.030417517
231	0xbd0cfb46	-0.03441932
232	0x3bafa3e6	0.0053601144
233	0x3c55caa0	0.013048798
234	0x3c7f210a	0.015571842
235	0x3d10fbcf	0.035396393
236	0xba02f2c3	-0.0004995281
237	0xbc3eba13	-0.011641043
238	0xbb43772e	-0.0029825675
239	0xb9a61810	-0.00031679915
240	0xbb10903c	-0.0022058627
241	0xbc4756e6	-0.012166714
242	0x3d01df30	0.03170699
243	0xbd121926	-0.035668515
244	0xbcfb2eba	-0.03066193
245	0x3ba02208	0.0048868693
246	0x3c932c1e	0.017965373
247	0xba3b1760	-0.0007136967
248	0xbb07fd37	-0.0020750293
249	0xbcc956ad	-0.024577463
250	0x3b056bad	0.002035837
251	0x3d2bdd3b	0.04195903
252	0x3cbe75e4	0.023249574
253	0x3d10de7f	0.03536844
254	0xbc9c1900	-0.01905489
255	0xbd0eb178	-0.034837216

action_model._continuous_distribution.mu.bias f4 [2]
0	0xbbebe75e	-0.007199212
1	0x3d7a2808	0.061073333
