Assets/results/petfollower4/PetFollower.onnx (onnx, 75610 bytes, 7 tensors)

network_body._body_endoder.seq_layers.0.weight f4 [128, 7]
0	0x3ecc7541	0.39933208
1	0xbecb0909	-0.3965533
2	0x3e9786bb	0.2959498
3	0xbeb87e92	-0.36034065
4	0xbee2df67	-0.44311067
5	0x3e8671a6	0.26258582
6	0x3e479e80	0.19494057
7	0x3ea82a00	0.32844543
8	0xbeb469ac	-0.3523687
9	0x3f078524	0.5293753
10	0x3e69d630	0.22835612
11	0x3fa2e807	1.2727059
12	0xbe5ba190	-0.2144835
13	0x3caa6cde	0.020803865
14	0x3e5cbd0d	0.21556492
15	0x3abe697a	0.0014527284
16	0xbe6b4214	-0.22974426
17	0xbecf6e3d	-0.40513793
18	0xbdecc919	-0.11561794
19	0x3eebbafa	0.4604109
20	0xbe832f56	-0.25622052
21	0x3e3373ba	0.17524615
22	0xbe488e96	-0.19585642
23	0xbd96464c	-0.07337627
24	0x3ec1dabd	0.37862197
25	0x3f0ab30b	0.5417945
26	0xbebe3a12	-0.3715368
27	0x3ef0c927	0.47028467
28	0x3d68bb36	0.056819163
29	0x3f3fccc5	0.7492183
30	0x3e95bf44	0.29247487
31	0xbb882e51	-0.004155912
32	0x3ee4f509	0.44718197
33	0x3e5a1eec	0.21300858
34	0x3cafefc9	0.021476643
35	0xbf00578f	-0.50133604
36	0x3f337cbb	0.701122
37	0x3e1344e3	0.14381747
38	0xbcf171c0	-0.029473186
39	0x3e54a106	0.2076455
40	0x3ea3a034	0.31958163
41	0xbeaa112a	-0.3321622
42	0x3e8a1d00	0.2697525
43	0xbf6c6669	-0.92343765
44	0xbdcfe724	-0.101515085
45	0x3d82d668	0.06388551
46	0x3ec14bf5	0.37753263
47	0x3ecd12b6	0.40053338
48	0xbf04847c	-0.51764655
49	0xbe121832	-0.14267042
50	0x3d99b39a	0.075049594
51	0x3e3117a1	0.1729417
52	0x3e88faab	0.26753744
53	0x3e95641d	0.29177943
54	0xbe84e9cd	-0.25959626
55	0xbd2d529d	-0.042315114
56	0xbed38a34	-0.41316378
57	0xbe339faf	-0.17541383
58	0x3dda31e6	0.106540486
59	0xbe760b43	-0.24027734
60	0xbd40b944	-0.047051683
61	0xbe3daec6	-0.18523702
62	0x3e0c7ba9	0.13719048
63	0x3e32e71a	0.17470971
64	0x3e73de52	0.23815277
65	0xbe3c4dae	-0.18389007
66	0xbd96fed7	-0.073728256
67	0xbe881686	-0.26579684
68	0x3e8fd6f7	0.28093693
69	0x3edc3249	0.43007115
70	0xbe7edfff	-0.24890135
71	0x3ec882b8	0.3916223
72	0x3e0de72c	0.13857716
73	0xbe87ff60	-0.26562023
74	0x3e3f15c1	0.18660642
75	0xbce25682	-0.02762914
76	0xbd780ac1	-0.06055713
77	0x3d26efda	0.040756084
78	0x3e4f0bb3	0.20219307
79	0x3e81e8d0	0.25372934
80	0x3f25aa88	0.64713335
81	0xbe901d01	-0.28147128
82	0xbd314725	-0.04328074
83	0x3f3de432	0.74176323
84	0xbf02c56f	-0.5108251
85	0xbc6a2388	-0.014290698
86	0x3f247386	0.64238775
87	0xbdd0fe0b	-0.10204705
88	0x3dec369c	0.115338534
89	0xbf15228b	-0.58255833
90	0x3e89b1c6	0.26893443
91	0xbe2b8d77	-0.16753183
92	0xbe1cd467	-0.153154
93	0x3eeb506a	0.4595979
94	0x3ea148ba	0.31500798
95	0xbe1b09f6	-0.15140519
96	0x3eefca77	0.46834156
97	0xbeb8ae7e	-0.36070627
98	0xbdf1a934	-0.11799851
99	0xbdff5539	-0.12467427
100	0x3e933bcd	0.28756562
101	0xbe82105d	-0.2540311
102	0x3d10a447	0.035312917
103	0x3f0ab1ee	0.5417775
104	0x3e5e3011	0.21698023
105	0xbe16b9a1	-0.1471925
106	0x3ec413eb	0.38296446
107	0x3e018443	0.1264811
108	0xbdd7c623	-0.105358385
109	0xbec3bd2d	-0.38230267
110	0xbf7db109	-0.9909826
111	0x3e9c94d0	0.30582285
112	0x3f209d42	0.62739956
113	0x3d47ae60	0.04875028
114	0xbf13cebd	-0.5773733
115	0xbeeb6141	-0.45972636
116	0xbd94232d	-0.07233272
117	0xbd78e533	-0.060765456
118	0x3eef1460	0.46695232
119	0xbdc02555	-0.093821205
120	0x3df210f1	0.118196376
121	0x3e276308	0.16346371
122	0x3db01c4a	0.08599146
123	0x3e08d03d	0.13360687
124	0x3ca8bf67	0.02059908
125	0x3e00a718	0.12563741
126	0x3da23cfd	0.07921789
127	0x3e9706fb	0.29497513
128	0xbe5ba043	-0.21447854
129	0xbebfb9b5	-0.3744637
130	0xbf1a37d2	-0.60241425
131	0x3f1ddb8f	0.61663145
132	0x3e3a288f	0.18179534
133	0x3f57fbf3	0.8436882
134	0xbea6edfc	-0.32603443
135	0x3eb981cf	0.3623185
136	0xbd3e279f	-0.046424504
137	0x3d2eabc6	0.042644285
138	0x3cec7f7d	0.028869385
139	0xbec20cfa	-0.37900525
140	0xbe56aa4d	-0.20963402
141	0xbf181a27	-0.59414905
142	0xbd272192	-0.0408035
143	0x3e8f45e5	0.27983013
144	0xbea59bd7	-0.3234546
145	0xbe17ac2a	-0.14811769
146	0xbea713c8	-0.3263228
147	0xbea85cfb	-0.32883438
148	0x3eda6d86	0.42661685
149	0x3e995fad	0.29955807
150	0xbec15ff9	-0.37768534
151	0x3dc088ad	0.09401069
152	0x3ea2d244	0.31801045
153	0xbe04ea73	-0.1298006
154	0x3ef98e99	0.48741606
155	0x3f2aab57	0.66667694
156	0xbef071b7	-0.46961758
157	0x3e78cafa	0.2429618
158	0xbe9e07c5	-0.30865303
159	0xbe2aa963	-0.16666178
160	0xbeee2867	-0.465152
161	0x3f10fe1c	0.5663774
162	0x3d2bbd31	0.041928474
163	0xbe97610a	-0.29566222
164	0x3d5dad76	0.054120503
165	0x3f375e9c	0.7162874
166	0xbdc043b4	-0.09387913
167	0x3ea65acf	0.32491156
168	0x3ea80baa	0.328214
169	0xbed572f9	-0.4168928
170	0x3dfe5fdd	0.12420628
171	0xbef2814d	-0.47364274
172	0x3e920140	0.2851658
173	0x3cae8c60	0.02130717
174	0xbb66dcb2	-0.003522676
175	0x3dd9b54b	0.10630282
176	0x3ed3639b	0.4128693
177	0x3f052e16	0.52023447
178	0xbf080a79	-0.5314098
179	0xbf03444b	-0.5127608
180	0xbe22dab4	-0.15903741
181	0xbe51149e	-0.20418021
182	0x3c84078f	0.016116885
183	0x3e0b4254	0.13599521
184	0x3e04c0b5	0.12964137
185	0xbe68b5f8	-0.22725666
186	0x3c3ca480	0.011513829
187	0x3e0b3608	0.1359483
188	0x3f22ec13	0.6364147
189	0x3e6aae09	0.22917952
190	0x3dc9acfe	0.09847449
191	0xbf0d5abe	-0.55216587
192	0xbebc964c	-0.36833417
193	0x3e8da43b	0.2766436
194	0x3e130579	0.14357556
195	0xbe176c7a	-0.14787474
196	0xbd9178cd	-0.07103119
197	0xbd974b52	-0.07387413
198	0xbee706b4	-0.45122302
199	0xbea520d8	-0.3225162
200	0x3ef40bf4	0.4766537
201	0xbd549b9b	-0.05190621
202	0xbef0dec3	-0.47044954
203	0x3cf52379	0.029924141
204	0x3eee42fb	0.46535477
205	0x3efd0cbb	0.49423775
206	0x3e17f3e2	0.14839128
207	0xbcc3a7c7	-0.023883713
208	0x3e8e151a	0.27750474
209	0xbedf1ad0	-0.43575144
210	0xbe1de5c2	-0.15419677
211	0xbd2e156f	-0.04250091
212	0xbd38f0c0	-0.045151472
213	0x3c47fe9c	0.0122067
214	0xbe06a280	-0.13147926
215	0x3e5a1a48	0.21299088
216	0xbf03cf3b	-0.51488084
217	0xbe6023eb	-0.21888702
218	0x3d2dc6a8	0.04242578
219	0x3f496ce3	0.7868177
220	0xbe1b1ee2	-0.151485
221	0xbf063f6e	-0.52440536
222	0x3f106fc3	0.56420535
223	0xbcb21be3	-0.021741813
224	0xbf0f78f7	-0.5604395
225	0x3f036210	0.51321507
226	0x3ec7bfe1	0.3901358
227	0xbe0b5ae9	-0.13608898
228	0x3eb405e5	0.35160747
229	0xbe358209	-0.17725386
230	0xbf1c2aea	-0.6100298
231	0xbe14538d	-0.14484997
232	0x3d443dcc	0.047910497
233	0xbf41c226	-0.7568687
234	0x3f3aeb1f	0.73015016
235	0x3e866ae1	0.26253417
236	0xbf0376f0	-0.5135336
237	0xbf421273	-0.758094
238	0xbc95e437	-0.018297298
239	0xbe6686a7	-0.22512303
240	0x3d5f20d5	0.05447467
241	0xbf5630c3	-0.83668154
242	0x3ee024c9	0.43778065
243	0x3eaedf2a	0.34154636
244	0x3dc76c47	0.09737449
245	0x3c80906c	0.015693866
246	0x3f0804fd	0.5313261
247	0x3e4dbe6e	0.20092174
248	0xbe8ddc11	-0.2770696
249	0x3e48b71a	0.19601098
250	0x3e10281a	0.14077798
251	0x3f1352c4	0.57548165
252	0xbba44f5b	-0.0050143427
253	0x3e23dd24	0.16002327
254	0xbe90a084	-0.28247464
255	0xbe19e5f6	-0.1502913

network_body._body_endoder.seq_layers.0.bias f4 [128]
0	0xbc48b0ef	-0.0122492155
1	0xbcfa3123	-0.030541008
2	0x3d1421ee	0.03616517
3	0xbc5f930e	-0.0136459
4	0x3ba27df7	0.004958864
5	0xbd186bce	-0.037212186
6	0xbcd1cae4	-0.025609441
7	0xbd27a0bc	-0.040924773
8	0x3c2b429c	0.010452893
9	0xbc9b1764	-0.018932052
10	0xbd2248e8	-0.03962031
11	0xb9098782	-0.00013115819
12	0x3cc85b49	0.02445759
13	0xbc19c1f2	-0.009384619
14	0xbcce8373	-0.025209164
15	0x3affba13	0.001951041
16	0xbcba8567	-0.02276869
17	0xbac43966	-0.0014970719
18	0xbd57b351	-0.052661244
19	0xbc9a63ce	-0.018846419
20	0x3ae62d96	0.0017561193
21	0xbd059bee	-0.03261941
22	0xbc90174a	-0.01758923
23	0x3d2efaf1	0.042719785
24	0xbcea8eec	-0.028632604
25	0xbcbce1cb	-0.023056885
26	0x3cea6b63	0.02861566
27	0x3ca61aad	0.020276392
28	0x3c0feed9	0.008784973
29	0x3b7a63a6	0.0038206368
30	0x3d124bc9	0.035716806
31	0x3be4b09f	0.0069790627
32	0xbd5b5225	-0.053545136
33	0x3d1d48eb	0.038399618
34	0xbbd9d00f	-0.006647117
35	0xbc8d62f5	-0.0172591
36	0x3d1d66ec	0.038428232
37	0xbbc3aaea	-0.0059713023
38	0xbca4add3	-0.020102417
39	0xbc2c7182	-0.010525109
40	0xbd436c74	-0.04771085
41	0x3b62f316	0.0034629754
42	0xbcabc3cc	-0.020967387
43	0xbb9a42ef	-0.004707686
44	0x3d6d6009	0.057952914
45	0xbc6a0b10	-0.014284864
46	0x3d7a625d	0.061128963
47	0xbd233c55	-0.03985246
48	0xbce855f2	-0.028361294
49	0x3ad55898	0.0016277013
50	0x3c375b27	0.011191166
51	0xbcbe1b96	-0.023206513
52	0x3c899bc6	0.016797911
53	0xbca1dda6	-0.01975901
54	0x3c8cda99	0.01719408
55	0xbd78eb91	-0.06077153
56	0xbbe9b155	-0.0071317353
57	0xbd55b4aa	-0.052174248
58	0x3ca4dd28	0.020124987
59	0xbd78ec68	-0.06077233
60	0xbc98fd63	-0.018675512
61	0xbd12edbc	-0.035871252
62	0xbcae1e66	-0.02125473
63	0xbb974362	-0.004616187
64	0xbcad8d03	-0.021185404
65	0xbcd36720	-0.02580601
66	0xbc731423	-0.014836344
67	0x3c975c4c	0.018476628
68	0x3cf23d72	0.029570315
69	0xbc48b41f	-0.012249975
70	0xba07e81e	-0.00051844295
71	0x3d662651	0.056188885
72	0x3c28e3e3	0.010308239
73	0xbb7ab153	-0.0038252666
74	0x3d82d9c5	0.063891925
75	0xbd35c715	-0.044379313
76	0xbcef4bc0	-0.029210925
77	0xbd279b19	-0.040919397
78	0x3c14f62b	0.009091894
79	0xbc86ade1	-0.016440334
80	0xbc498d99	-0.012301826
81	0x3d362679	0.044470284
82	0x3c83f792	0.016109262
83	0xbd1e6c3c	-0.03867744
84	0xbce9a9e0	-0.028523386
85	0xbac4a5b6	-0.0015002999
86	0xbc4a672a	-0.012353698
87	0xbce53dbc	-0.027983539
88	0x3c278490	0.010224476
89	0x3c066146	0.008201903
90	0xbbecec4e	-0.007230318
91	0x3bd9b717	0.0066441405
92	0x3d10d26d	0.035356928
93	0xbbb56365	-0.0055355304
94	0x3d312286	0.043245815
95	0x3ce092e6	0.027413797
96	0xbb8ea123	-0.004352705
97	0x3d1a7c71	0.037716333
98	0xbd164b63	-0.036692988
99	0xbce4a3c1	-0.027910115
100	0xbc7a37b4	-0.01527207
101	0x3cd0e900	0.025501728
102	0xbc43da05	-0.011953835
103	0xbbe77229	-0.0070631695
104	0x3c9ba704	0.019000538
105	0x3cbc149a	0.022959042
106	0x3c5d1578	0.013493888
107	0xbc8f2750	-0.0174748
108	0xbb7a59da	-0.0038200528
109	0xbc507f8b	-0.012725721
110	0xb92c1006	-0.00016409167
111	0xbd1001bd	-0.035157908
112	0xbd47f6a3	-0.048819195
113	0xbd707324	-0.058703557
114	0xbc71fbe7	-0.014769531
115	0x3c2dd07a	0.010608787
116	0xbbf96af4	-0.0076116268
117	0xbc9182ac	-0.017762505
118	0x3d3c04c4	0.045902982
119	0xbc9e98f4	-0.019360043
120	0x3b182100	0.002321303
121	0x3d1ef8f5	0.038811643
122	0x3d37c28c	0.04486327
123	0xbba4fdd5	-0.005035142
124	0x3c02a385	0.007973556
125	0xbc08a177	-0.0083392775
126	0x3b17d85f	0.0023169739
127	0xbc976469	-0.018480496

network_body._body_endoder.seq_layers.2.weight f4 [128, 128]
0	0x3da463c2	0.0802684
1	0xbc88b76b	-0.016689023
2	0xbdd17809	-0.10227973
3	0xbda2e792	-0.07954325
4	0xbc64f935	-0.013975431
5	0xbdefd99b	-0.11711427
6	0x3d0cfa30	0.034418285
7	0x3e16e03a	0.14733973
8	0xbe45eca9	-0.1932856
9	0xbce26a7d	-0.027638668
10	0x3db3f28d	0.08786497
11	0xbd9207e5	-0.07130412
12	0xbda9abc9	-0.082847185
13	0xbe17f0f9	-0.14838018
14	0x3ce88a8d	0.028386379
15	0x3c8c0921	0.017094197
16	0x3dfb36dc	0.12266323
17	0xb9bd8e0d	-0.00036154725
18	0xbd96db94	-0.073661
19	0x3d310ca3	0.043224942
20	0x3cce02b3	0.025147771
21	0x3df89853	0.121384285
22	0xbd7e6fa4	-0.062118188
23	0xbd60ee9f	-0.054915067
24	0xbdb55bba	-0.08855386
25	0x3ccbf6fe	0.024898048
26	0xbb5d1828	-0.0033736322
27	0xbd0aa01e	-0.033844106
28	0xbe5c6487	-0.21522723
29	0x3ca9f30c	0.020745777
30	0xbcd20de7	-0.025641395
31	0xbd81a47e	-0.063302025
32	0xbcdde913	-0.027088678
33	0xbd8e602c	-0.06951937
34	0xbd090ecf	-0.03346139
35	0x3d0a8148	0.0338147
36	0x3abf8060	0.0014610402
37	0xbdc1b0da	-0.0945756
38	0xbdb93d49	-0.09044892
39	0xbcbbe95e	-0.022938427
40	0xbe397f49	-0.18114962
41	0x3decfdfe	0.11571883
42	0xbdea949c	-0.11454126
43	0x3d81e455	0.06342379
44	0xbd4602db	-0.048342567
45	0x3df39156	0.11892955
46	0x3cf3d820	0.029766142
47	0xbc2a9094	-0.010410447
48	0xbcfabb9b	-0.030607035
49	0xbdd85c5f	-0.105644934
50	0xbd31f267	-0.043444064
51	0x3d1a54f5	0.037678678
52	0x3d4fe66d	0.05075686
53	0x3c8736e9	0.016505675
54	0xbd807be2	-0.06273629
55	0x3d8302c4	0.06397012
56	0xbdf9f59a	-0.12205048
57	0x3d95a817	0.07307451
58	0x3da4688c	0.08027753
59	0xbe31010b	-0.17285554
60	0xbce8be88	-0.028411165
61	0xbbef6550	-0.0073057786
62	0xbe11fe85	-0.14257248
63	0xbbebecad	-0.007199845
64	0x3a74ec45	0.0009343068
65	0xbdd2a21d	-0.10284827
66	0x3c426d9e	0.011866955
67	0x3e26fb9d	0.1630692
68	0x3df043d6	0.11731689
69	0xbdda64f9	-0.1066379
70	0x3d5a367b	0.053274613
71	0xbce310cc	-0.02771797
72	0x3d92089a	0.07130547
73	0x3ce1a9cd	0.027546788
74	0xbcb17f0f	-0.021667032
75	0xbdd980fe	-0.106203064
76	0xbde814db	-0.11332103
77	0x3dc94a00	0.098285675
78	0xbdaebd3e	-0.08532189
79	0x3d405d9e	0.04696428
80	0xbd89ff8b	-0.06738194
81	0x3cc38372	0.023866389
82	0xbd8fae5d	-0.07015679
83	0x3de6db1f	0.11272263
84	0x3c914397	0.017732425
85	0x3ceb15e5	0.028696964
86	0xbdb46c26	-0.0880969
87	0xbc285fc5	-0.0102767395
88	0x3d2b574e	0.041831307
89	0x3bec30d3	0.0072079687
90	0x3ced1071	0.028938504
91	0xbcf94c4c	-0.030431889
92	0xbd59b096	-0.05314692
93	0x3d125ee5	0.03573503
94	0xbd8033b3	-0.06259861
95	0xbdcfdf48	-0.101500094
96	0xbe0c22fa	-0.13685217
97	0x3d274d68	0.040845305
98	0xbdaba58e	-0.083811864
99	0x3d40b67a	0.047049023
100	0xbd884e09	-0.06655509
101	0x3d5af196	0.05345305
102	0xbdcfdf22	-0.10149981
103	0xbde86895	-0.113480724
104	0x3d25c823	0.04047407
105	0x3cc02ac6	0.023457896
106	0xbd8cce26	-0.06875257
107	0x3dea5ce8	0.11443502
108	0xbd4ca53d	-0.04996227
109	0xbdc9bd9a	-0.09850617
110	0xbdf265f7	-0.118358545
111	0xbe4c9aed	-0.19980974
112	0x3c9a2178	0.018814787
113	0x3cc400a0	0.02392608
114	0xbd90ae4a	-0.07064493
115	0xbc60595d	-0.013693181
116	0x3cf16201	0.029465677
117	0xbcc68fe3	-0.024238532
118	0x3dfdff8d	0.12402258
119	0xbdc69c49	-0.09697778
120	0xbd6a0282	-0.057131298
121	0xbe0e84dc	-0.1391787
122	0xbcbff720	-0.023433268
123	0xbe324a3e	-0.17411134
124	0x3e4c45e8	0.19948542
125	0xbbeeee91	-0.007291623
126	0x3dbe8028	0.093017876
127	0x3ce46b5d	0.027883226
128	0xbe2a4636	-0.16628346
129	0x3d385591	0.045003477
130	0x3d8a2e37	0.06747096
131	0xbe0e7e3a	-0.13915339
132	0xbe2a1a9b	-0.16611712
133	0xbdbaac20	-0.091148615
134	0x3d95b5b9	0.073100515
135	0x3c20c0f6	0.0098116305
136	0x3cc7ae10	0.024374992
137	0xbe10dd4d	-0.1414692
138	0xbd082fb6	-0.033248626
139	0xbd92facb	-0.07176741
140	0x3d22178d	0.03957324
141	0x3d5fbd40	0.054623842
142	0x3e0a7b7e	0.13523671
143	0x3d6e2cac	0.05814807
144	0x3d5bd90f	0.0536738
145	0xbdd3f123	-0.103487276
146	0xbc4b257a	-0.012399072
147	0x3c8c67ce	0.017139342
148	0xbde62f6f	-0.11239516
149	0x3dba03f6	0.09082787
150	0x3dac775b	0.08421203
151	0x3d80228c	0.06256589
152	0xbe000521	-0.12501957
153	0xbd912447	-0.070869975
154	0x3d863f90	0.06555092
155	0xbc2987f1	-0.010347352
156	0x3df0cf5a	0.11758299
157	0xbca3e218	-0.02000527
158	0x3df89328	0.12137443
159	0xbe1c3daa	-0.15257898
160	0xbd1be4e8	-0.0380601
161	0xbe0737bc	-0.13204855
162	0xbdc70834	-0.097183615
163	0xbd1cd444	-0.03828837
164	0x3d8f0de4	0.06985071
165	0x3cbb33f2	0.022851918
166	0x3d7e2d4a	0.06205491
167	0x3e0c0f0c	0.13677615
168	0x3dfef15f	0.12448382
169	0xbe2cc121	-0.16870548
170	0x3d9f6d59	0.07784528
171	0xbd9c1aa3	-0.07622268
172	0xbdd08703	-0.101820014
173	0x3d7b0d44	0.061291948
174	0xbe8878bc	-0.26654613
175	0xbd308f12	-0.043105192
176	0xbe2109dd	-0.15726419
177	0x3d85c7d6	0.06532256
178	0x3c00e7e3	0.007867786
179	0x3cd0d6d4	0.025493063
180	0xbe147cbc	-0.14500707
181	0x3c25f0c1	0.010128201
182	0x3c20c683	0.009812954
183	0xbd19cacb	-0.037546914
184	0xbdedf274	-0.1161851
185	0xbde0463f	-0.109508984
186	0x3de56a1e	0.11201881
187	0xbe0c7712	-0.13717297
188	0xbd291861	-0.041283015
189	0x3df6a41e	0.120430216
190	0x3de0b9c5	0.10972933
191	0xbd2d62ca	-0.04233054
192	0xbd636405	-0.055515308
193	0x3d925059	0.07144231
194	0xbdf09cd9	-0.11748666
195	0x3dbf1896	0.09330861
196	0xbda31904	-0.07963756
197	0x3d7147f7	0.05890652
198	0xbe75cb54	-0.24003345
199	0x3cb09247	0.021554125
200	0x3e133c54	0.14378482
201	0xbd7b974e	-0.061423592
202	0x3dabc4a3	0.08387115
203	0x3e823707	0.25432608
204	0x3da1f8d3	0.079087876
205	0x3d101f7f	0.035186287
206	0xbdee0f2c	-0.116239876
207	0xbbaaad91	-0.005208679
208	0xbd80400a	-0.062622145
209	0xbde46a75	-0.111531176
210	0x3db1be8b	0.08678921
211	0x3dd059d1	0.10173381
212	0x3e12820d	0.14307423
213	0xbe170b40	-0.14750385
214	0x3d32fe8c	0.043699786
215	0xbd2a4a81	-0.04157496
216	0xbdd0489a	-0.10170098
217	0xbd42f45d	-0.047596324
218	0x3da00954	0.07814279
219	0xbe7b48f7	-0.24539553
220	0xbd239bc5	-0.039943475
221	0xbca72de0	-0.020407617
222	0x3e1120ed	0.14172716
223	0xbe2c7058	-0.1683973
224	0x3d93bfc1	0.072143085
225	0xbe1bffb5	-0.15234263
226	0x3e23b812	0.15988186
227	0x3dda511b	0.10660001
228	0x3bac0a75	0.00525027
229	0x3cac2aac	0.021016441
230	0xbd7e32a0	-0.06206
231	0xbc809df3	-0.015700316
232	0x3c0d414a	0.008621523
233	0xbc0263d5	-0.007958372
234	0xbce52d4d	-0.027975703
235	0x3df08bca	0.11745413
236	0xbdd4915f	-0.1037929
237	0xbd35f3cb	-0.044421952
238	0x3e61c83c	0.2204904
239	0xbd051990	-0.03249508
240	0xbb9a6336	-0.004711534
241	0xbdad2f17	-0.08456247
242	0x3de109c3	0.1098819
243	0x3c344ea0	0.011005074
244	0xbd933174	-0.07187167
245	0x3de63f08	0.11242491
246	0xbcadd594	-0.021220006
247	0x3b672bf6	0.0035274005
248	0x3d980764	0.07423285
249	0xbd5bb767	-0.053641703
250	0x3dc7d725	0.097578324
251	0x3dd91099	0.10598869
252	0xbdee872f	-0.11646878
253	0xbdbfbb7f	-0.09361934
254	0xbdbd6da6	-0.092494294
255	0x3dc4e493	0.096139096

network_body._body_endoder.seq_layers.2.bias f4 [128]
0	0xbc850bcc	-0.016240977
1	0xbc77d7e6	-0.015127158
2	0x3c0d405a	0.0086213
3	0xbc0fd198	-0.008777998
4	0xbc7dcd04	-0.015490774
5	0x3cf99326	0.030465674
6	0xbc97b7d0	-0.018520266
7	0xbb9da913	-0.004811415
8	0xbb0976b1	-0.0020975287
9	0xbcfa0f41	-0.030524852
10	0xba1401df	-0.0005646031
11	0x3d22f390	0.03978306
12	0xbc9a6ef8	-0.018851742
13	0xbd124b29	-0.03571621
14	0x3bceaa13	0.0063068955
15	0xbce59ace	-0.028027918
16	0xbc912313	-0.01771692
17	0x3b2ce7ed	0.0026383356
18	0x3ab4e11c	0.0013799998
19	0x3c504092	0.012710707
20	0x3ccafff9	0.02478026
21	0x3cc5d37d	0.024148697
22	0xbbf8922b	-0.007585784
23	0xbc3e477d	-0.011613724
24	0xbcad5ac8	-0.021161452
25	0xb6eb1fbd	-7.0072406e-06
26	0xbbbf5578	-0.005839046
27	0xbbabba63	-0.005240725
28	0x3b92771e	0.0044697663
29	0xbca37291	-0.01995209
30	0x3c5e59ec	0.013571244
31	0xbbf203f5	-0.0073857256
32	0x3cd39791	0.025829108
33	0xbcd7a1ca	-0.026322264
34	0xbc952fee	-0.018211331
35	0x3cba57c4	0.022746928
36	0xbc93c0d3	-0.018036282
37	0xbca5564c	-0.020182751
38	0xbc38076f	-0.011232241
39	0xbcb35f34	-0.021895982
40	0x3b48eb6e	0.0030657905
41	0x3d37a6b3	0.04483671
42	0xbd0901f5	-0.033449132
43	0x3caf9bc2	0.021436576
44	0xbc8afedc	-0.01696723
45	0xbccad904	-0.024761684
46	0xbb01c23c	-0.001979961
47	0xbb78f632	-0.003798854
48	0xbcd68109	-0.026184576
49	0xbb9662f1	-0.0045894315
50	0xbd4180ae	-0.04724186
51	0xbb81cbdd	-0.00396107
52	0xbc9dbfb7	-0.019256456
53	0x3d185e4f	0.037199315
54	0x3bf4bf2d	0.007469079
55	0xbcf42853	-0.029804384
56	0xbca39568	-0.019968703
57	0x3c9be785	0.019031296
58	0xbd052065	-0.032501597
59	0xbd29960a	-0.041402854
60	0x3cb4de87	0.022078766
61	0xbc76d798	-0.01506605
62	0xbc37ba03	-0.011213782
63	0xbc4dd8fc	-0.01256394
64	0xbc903361	-0.017602624
65	0xbcf3397b	-0.029690495
66	0x3be44406	0.006966117
67	0xbca7cf6a	-0.020484645
68	0x3d23f8c2	0.040032156
69	0xbc98dc67	-0.018659784
70	0xbd2ca029	-0.042144928
71	0x3d0c77a5	0.03429379
72	0xbcca0be8	-0.02466388
73	0xbcb78e1f	-0.022406636
74	0xbd2bd7cd	-0.04195385
75	0x3cfec180	0.031098127
76	0xbcbc5c27	-0.02299316
77	0xbbfb9b2a	-0.007678409
78	0xbc12cc9b	-0.008959915
79	0xbc2a7cdc	-0.010405745
80	0xba1e9be6	-0.00060504524
81	0xbd01155e	-0.031514518
82	0x3cfd3d1e	0.030912932
83	0xbba53ffc	-0.005043028
84	0x393c7f85	0.00017976582
85	0x3ccaf966	0.024777126
86	0x3ba47c0f	0.0050196717
87	0xbcc0150a	-0.023447532
88	0x3c5b6a9b	0.013392116
89	0x3ce74449	0.028230803
90	0xbc80d0bd	-0.015724534
91	0xbca649fd	-0.020298952
92	0xbc471868	-0.012151815
93	0xbc151b0a	-0.009100685
94	0xbce612f4	-0.02808521
95	0x3d2738a9	0.04082552
96	0x3bd5bc1a	0.0065226676
97	0x3cfc757d	0.030817742
98	0xbcd669b7	-0.026173456
99	0x3bc5bd80	0.006034553
100	0xbc07261a	-0.00824883
101	0x3cf0ff61	0.02941865
102	0x3c9d0d92	0.01917151
103	0xbc7a0f1d	-0.015262392
104	0xbd0ae242	-0.033907183
105	0x3bf009c8	0.0073253848
106	0xbb64cb8b	-0.003491136
107	0x3cfb9f15	0.030715505
108	0xbd289f53	-0.04116757
109	0x3c803ac6	0.015653025
110	0x3a8b832a	0.0010643948
111	0xbc54fd81	-0.012999893
112	0xbad71471	-0.001640929
113	0xbcebe1f5	-0.028794268
114	0xbd0aa050	-0.033844292
115	0x3b2c60fd	0.0026302927
116	0x3ba7166d	0.005099109
117	0x3c8a6ade	0.016896661
118	0xbc5fee9a	-0.013667727
119	0xbb949903	-0.004534842
120	0xbd42415e	-0.04742562
121	0xbc8e4c96	-0.017370503
122	0xbbaca1bd	-0.005268304
123	0x3c816063	0.015793031
124	0xbbaccd1c	-0.0052734744
125	0xbc3d4457	-0.011551938
126	0xb976ec32	-0.00023548378
127	0xbc60a7da	-0.013711894

action_model._continuous_distribution.log_sigma f4 [1, 2]
0	0x3e3aae70	0.18230605
1	0x3c435620	0.011922389

action_model._continuous_distribution.mu.weight f4 [2, 128]
0	0x39062f87	0.00012796941
1	0x3c03ad43	0.008036914
2	0xbd15fdfc	-0.03661917
3	0x3b2065d1	0.002447475
4	0xbb77f065	-0.0037832495
5	0xbd901031	-0.07034338
6	0x3a8f1ac1	0.0010918007
7	0xbbfe334c	-0.00775758
8	0xbb4e7e1c	-0.0031508273
9	0x3cf67146	0.03008331
10	0x3cb91316	0.022592109
11	0xbaceaf83	-0.0015768859
12	0x3c270c46	0.010195797
13	0x3b17e023	0.0023174367
14	0x3cf338a1	0.029690089
15	0xbb959e28	-0.004565973
16	0xbb9b8452	-0.0047459984
17	0x38d41002	0.000101119294
18	0x3d6acad2	0.05732233
19	0xbbea152c	-0.007143637
20	0x3c73fe5c	0.014892187
21	0x3cdf84e7	0.027285052
22	0xbc35d027	-0.011096991
23	0x3a89256c	0.0010463423
24	0x3aacdcbd	0.0013188344
25	0xbcfe3c70	-0.031034678
26	0xbca1ba97	-0.019742293
27	0xbb94b65f	-0.004538342
28	0xbc5b774a	-0.01339514
29	0x3a3a4a7d	0.00071064365
30	0xbd5aa978	-0.053384274
31	0xbd01e4d1	-0.031712357
32	0xbcbc88bd	-0.02301442
33	0x3a908ec6	0.0011028878
34	0xbca41240	-0.020028234
35	0x3cd6dce7	0.026228381
36	0x3c5d71ba	0.013515884
37	0x3b17292f	0.0023065319
38	0x3aad6073	0.0013227597
39	0x3c2195bd	0.009862361
40	0xbb8989fd	-0.0041973577
41	0x3cd43b24	0.025907107
42	0x3c4b24b0	0.012398884
43	0xbd191d3c	-0.037381396
44	0x3cb198a3	0.021679228
45	0xbcc2f9dd	-0.023800785
46	0xbd1dd55a	-0.038533546
47	0xbca33ec9	-0.0199274
48	0xbd1f9365	-0.038958926
49	0xbd249a7d	-0.040186394
50	0x3b30ce5d	0.002697847
51	0x3c82c1ec	0.01596161
52	0xbb544f48	-0.0032395888
53	0xbb982c46	-0.0046439497
54	0xbc873e3c	-0.016509168
55	0xbd35c9ae	-0.04438179
56	0xba88dcab	-0.0010441741
57	0x3cf3a4fc	0.029741757
58	0x3ac8b58d	0.0015312895
59	0xbbb841f2	-0.0056230957
60	0xbc98a563	-0.01863355
61	0xbc4ab240	-0.0123716
62	0xbbd0e09e	-0.0063744327
63	0xbb3f5618	-0.0029195603
64	0x3c179fb6	0.009254387
65	0x3a674745	0.00088225707
66	0x3c231ec6	0.009956067
67	0xb9983315	-0.00029029758
68	0xbd5c18a5	-0.05373444
69	0x3b2dd906	0.002652706
70	0x3b37de7a	0.002805619
71	0x3ac61093	0.0015111141
72	0x3be6a7b7	0.007039036
73	0x3d7d01e3	0.061769377
74	0x3b48c90f	0.0030637418
75	0x3da4bb6f	0.080435626
76	0x3c7079f3	0.014677512
77	0xbb829bf8	-0.003985878
78	0xbc1178cd	-0.008878899
79	0xbc399a70	-0.011328325
80	0x3b5f54d0	0.0034077652
81	0xba5862a1	-0.0008254443
82	0x3a6dd473	0.000907249
83	0xbc787eda	-0.0151669625
84	0xbcee3c3a	-0.029081453
85	0xbcab7019	-0.020927476
86	0x3bdd1916	0.0067473752
87	0xbc6ac91c	-0.014330175
88	0xbd2abccc	-0.041683957
89	0x3be3217e	0.006931483
90	0x3a8571d0	0.0010181013
91	0xba12bb28	-0.00055973465
92	0x3c5b824a	0.013397763
93	0x3b22dac0	0.0024849623
94	0x3aabdcff	0.0013112127
95	0x3c31d85a	0.010854805
96	0xbd1d1737	-0.038352218
97	0xba61b66d	-0.00086102524
98	0xb86b47e5	-5.6095323e-05
99	0x3d606031	0.054779235
100	0x3c358dfe	0.011081217
101	0x3cbdf610	0.02318862
102	0x3c0620ec	0.00818656
103	0x3ad934d6	0.0016571532
104	0x3b7d15b3	0.003861767
105	0xbc20f4f9	-0.009824031
106	0xbcf8e2d4	-0.030381598
107	0x3c10f86a	0.008848289
108	0xbc9032a8	-0.01760228
109	0x3c8ee6d6	0.017444056
110	0x3ca6001e	0.020263728
111	0x3b16a6c8	0.0022987593
112	0x3cc4b998	0.02401428
113	0x3c5e021e	0.013550309
114	0x3b562bb6	0.0032679862
115	0x3ce5cb52	0.028051052
116	0x3c8a1afa	0.016858567
117	0xbc009db6	-0.007850101
118	0xba0dda4d	-0.00054112525
119	0xbb8a7486	-0.0042253165
120	0x3b090231	0.0020905847
121	0x3b89d3fb	0.0042061782
122	0xbc37def6	-0.011222592
123	0xbcb3dc1a	-0.021955539
124	0x3a0f194a	0.00054587855
125	0x3b11b191	0.0022231082
126	0x3b810c36	0.0039382232
127	0xbb4d2d01	-0.0031307342
128	0xbb64366f	-0.0034822484
129	0xbd84ca9e	-0.06483959
130	0x3a98d1a5	0.0011659159
131	0xbd7d04e2	-0.061772235
132	0xbca2ce4a	-0.019873757
133	0xbddb858e	-0.10718833
134	0xbb05aa14	-0.0020395564
135	0xbd1b0cac	-0.03785388
136	0xbca4921c	-0.020089202
137	0xbca8eaa7	-0.020619703
138	0xbd18c002	-0.037292488
139	0x3d524972	0.051339574
140	0xbd5be1a9	-0.053682003
141	0xbbf58c44	-0.0074935276
142	0x3bd10e5c	0.0063798856
143	0xbc768913	-0.0150473295
144	0xbd8d729f	-0.06906628
145	0xbaf202b6	-0.0018463943
146	0xbcc767ba	-0.024341453
147	0xbd424306	-0.0474272
148	0x3cc9c781	0.024631264
149	0x3cb156b5	0.02164779
150	0xbd204c5a	-0.039135315
151	0xbc4acf6e	-0.012378557
152	0x3b280b32	0.0025641439
153	0x3b614024	0.0034370506
154	0x3c9d9084	0.01923395
155	0x3b3306f4	0.0027317377
156	0x3be5bc63	0.007010983
157	0xbbd96c2c	-0.0066352095
158	0x3bb484e6	0.005509007
159	0x3bddcd18	0.006768834
160	0x3cb75869	0.022381024
161	0xbc31a702	-0.01084304
162	0xbd842f21	-0.064543016
163	0xbb651bb9	-0.003495915
164	0xbd83c26c	-0.064335674
165	0xb9a3bc5e	-0.00031230127
166	0x3b7a5144	0.003819541
167	0xba290d7d	-0.0006448848
168	0x3ca4a41b	0.020097783
169	0x3d39501b	0.04524241
170	0xbb9f4ab8	-0.004861202
171	0xbd54d591	-0.051961485
172	0xbd5e1f35	-0.05422898
173	0xbcfc0348	-0.030763283
174	0xbd64be59	-0.055845592
175	0x3a024c2f	0.00049704587
176	0xbc3024c3	-0.010750952
177	0xbd1a1cf6	-0.037625276
178	0xbb570b23	-0.0032813034
179	0x3c23086e	0.00995074
180	0xbca6152c	-0.020273767
181	0xbd635a1d	-0.05550586
182	0x3c19b3b3	0.009381223
183	0xbcebb77e	-0.02877402
184	0x3aa3a37b	0.0012484634
185	0x3ce02b60	0.027364433
186	0xbb3a0b42	-0.0028388058
187	0xbc8069a5	-0.015675375
188	0x3c638f70	0.013889179
189	0xbc01a1fe	-0.007912157
190	0xbbe0457e	-0.0068442216
191	0x3be9c5b1	0.0071341624
192	0xbd76272c	-0.06009595
193	0xbcc5400c	-0.024078391
194	0xbc237265	-0.009976004
195	0xbbdd7c7c	-0.0067592245
196	0xbd584518	-0.052800268
197	0xbbbe095a	-0.0057994546
198	0xbb5637af	-0.0032686999
199	0x3d0130f5	0.03154083
200	0xbcdde60b	-0.027087232
201	0xbcd2df87	-0.025741352
202	0xbb847dcf	-0.004043318
203	0xbc0d5688	-0.008626588
204	0xbc797bc2	-0.01522726
205	0x3b216b18	0.0024630483
206	0xbc1f8e06	-0.009738451
207	0xbb73bb4f	-0.0037190502
208	0xbca90a20	-0.02063471
209	0xbb1b1fc3	-0.0023670055
210	0x3c9e5725	0.019328663
211	0xbaf6c173	-0.0018825963
212	0x39b806a8	0.00035100174
213	0x3cb10e4c	0.021613263
214	0x3af183f9	0.0018426172
215	0xbc79b874	-0.015241731
216	0xbc486fb4	-0.012233663
217	0xbcec2705	-0.0288272
218	0xbc184455	-0.009293635
219	0xbc00a9ef	-0.007853015
220	0xbd35d8ac	-0.044396088
221	0x3b4903b1	0.0030672366
222	0xbd1bd60e	-0.038045935
223	0xbb0a9ba7	-0.0021149905
224	0x3c36d64e	0.011159493
225	0x3cbb8968	0.022892669
226	0xbd8bb6e9	-0.06821997
227	0xbd932751	-0.071852334
228	0xbba89fe5	-0.005146014
229	0x3cf8af21	0.030356945
230	0x3cac62a7	0.021043135
231	0x3a26db07	0.0006365035
232	0xbcaf46fc	-0.021396153
233	0xbb209722	-0.0024504145
234	0x3baee60c	0.0053374823
235	0x3b9884e9	0.004654516
236	0xbcd931ac	-0.026512943
237	0xbce93cb1	-0.028471323
238	0x3ca040c6	0.019562136
239	0xbb5383a0	-0.00322745
240	0xbcb1de3c	-0.021712415
241	0x3a7a20cf	0.0009541632
242	0xbbe763b9	-0.0070614484
243	0xbd9186c8	-0.071057856
244	0xbd89cf18	-0.06728953
245	0xbd860638	-0.06544155
246	0xbc6689ff	-0.014070987
247	0xbb7b0ef6	-0.0038308478
248	0xbc084d3f	-0.008319198
249	0xbd564de8	-0.05232039
250	0xbd29ff3b	-0.041503172
251	0x3cd5c8ce	0.026096728
252	0x3b916f3b	0.0044383085
253	0x3b5150d2	0.0031939042
254	0xbd947004	-0.07247928
255	0xbc57ec34	-0.013178874

action_model._continuous_distribution.mu.bias f4 [2]
0	0x3905a554	0.00012745458
1	0x3d3a5c57	0.04549822
