Assets/results/petfollower12/PetFollower/PetFollower-7387.onnx (onnx, 75610 bytes, 7 tensors)

network_body._body_endoder.seq_layers.0.weight f4 [128, 7]
0	0xbed94f5a	-0.42443353
1	0x3ec55146	0.3853857
2	0x3ede3782	0.43401724
3	0xbebb4431	-0.36575463
4	0xbec9999d	-0.3937501
5	0x3dfef4e8	0.12449056
6	0xbd9cae2f	-0.076504104
7	0x3cf21537	0.029551132
8	0xbecca751	-0.39971402
9	0xbee98fca	-0.45617515
10	0x3d1335f6	0.035940133
11	0x3ec0e2ec	0.37673128
12	0xbd2e8523	-0.042607438
13	0xbef74990	-0.4829831
14	0x3e419ee3	0.18908267
15	0x3e791eed	0.24328203
16	0x3ba300fb	0.004974482
17	0xbdcdfc80	-0.10057926
18	0xbe4a6e87	-0.19768725
19	0xbb110f16	-0.0022134236
20	0xbecc8975	-0.3994862
21	0x3f3fa7ce	0.74865425
22	0x3e539276	0.20661339
23	0x3f645421	0.8919087
24	0xbf109689	-0.564797
25	0x3ec49525	0.38395038
26	0xbf388bf2	-0.7208854
27	0x3f237dd7	0.6386389
28	0x3ebb7e56	0.36619824
29	0xbe8f5878	-0.27997184
30	0xbe59ab2d	-0.21256705
31	0x3db68326	0.08911733
32	0xbcea74ea	-0.028620202
33	0xbdd8160c	-0.1055108
34	0x3d98520a	0.07437523
35	0x3d054587	0.03253701
36	0x3efec1d2	0.49757248
37	0x3dc0e15f	0.09417986
38	0x3eab7fe8	0.33496022
39	0xbe729f2a	-0.23693529
40	0x3e0c7470	0.13716292
41	0xbefcb256	-0.4935481
42	0x3ec1e200	0.37867737
43	0x3dd0051f	0.10157227
44	0xbe28b7ed	-0.16476412
45	0x3f0490c2	0.5178338
46	0x3e739b08	0.23789608
47	0x3d098805	0.033576984
48	0xbd92fdbc	-0.07177302
49	0xbe295bfc	-0.16538996
50	0x3e2b2186	0.16712007
51	0xbf0e2879	-0.55530506
52	0x3e0b583c	0.13607877
53	0xbedcf7c9	-0.43157795
54	0xbeb68dc2	-0.35655028
55	0xbe18f385	-0.14936645
56	0x3dba05db	0.09083148
57	0x3e9044bf	0.2817745
58	0xbf1bb40c	-0.60821605
59	0xbe3c3b87	-0.18382083
60	0x3ecd22a4	0.4006549
61	0x3d935eb0	0.071957946
62	0xbea515dd	-0.32243243
63	0x3e9ad136	0.3023774
64	0x3e05d942	0.13071159
65	0x3e1aa3cf	0.1510155
66	0x3ed10fe1	0.40832427
67	0x3f325015	0.69653445
68	0x3eb4544e	0.3522057
69	0x3e0852b2	0.13312796
70	0xbe848ff1	-0.2589107
71	0x3d137786	0.03600266
72	0x3e805e43	0.25071916
73	0xbcc8a0cf	-0.024490742
74	0x3ea87dd1	0.3290849
75	0xbee23999	-0.4418457
76	0xbf03b222	-0.51443684
77	0x3eae0735	0.33989874
78	0x3ecf578d	0.40496483
79	0x3e147bff	0.14500426
80	0x3d354059	0.04425082
81	0xbcb6fbf5	-0.02233694
82	0x3d8ca9cd	0.068683244
83	0x3d856ed8	0.065152824
84	0x3e316750	0.17324567
85	0x3e8355d0	0.25651407
86	0x3e92a2ae	0.2863974
87	0x3d583872	0.052788205
88	0xbed90aca	-0.42391044
89	0x3ddc2d8d	0.107508756
90	0x3e580e8a	0.21099296
91	0x3e82b5cb	0.25529322
92	0xbe64dfd8	-0.22351015
93	0xbea8567e	-0.32878488
94	0x3ecbd130	0.39808035
95	0xbe13ff9f	-0.1445298
96	0x3ed96a64	0.42463982
97	0x3d411551	0.04713947
98	0xbee9a49f	-0.45633408
99	0xbf2f1ecc	-0.6840637
100	0xbf1f69fe	-0.62271106
101	0x3f5483eb	0.8301379
102	0xbdc033e5	-0.09384898
103	0x3f3d65c3	0.739834
104	0xbf00ab67	-0.5026154
105	0x3de1dc4b	0.11028346
106	0xbe2715ea	-0.16316953
107	0x3dd2e110	0.102968335
108	0xbee43bb3	-0.44576797
109	0x3da763ea	0.08173354
110	0xbe2a3f13	-0.16625623
111	0x3d34cb8f	0.04413944
112	0xbf4da932	-0.80336297
113	0xbd9ba6e5	-0.07600192
114	0x3e0ace13	0.13555174
115	0x3eeca26c	0.46217668
116	0x3e84ddd9	0.25950506
117	0xbd180172	-0.037110753
118	0x3edba36d	0.4289812
119	0x3ec1cf89	0.3785365
120	0x3eaa8e38	0.3331163
121	0xbed5ef7e	-0.4178428
122	0x3f25b1c4	0.64724374
123	0xbe9c9666	-0.30583495
124	0xbed6dfd7	-0.4196765
125	0xbeba167d	-0.36345282
126	0x3dde32e1	0.10849548
127	0xbeac6e43	-0.33677873
128	0x3ebc5a71	0.3678775
129	0xbed8c05b	-0.42334256
130	0xbf7a5c04	-0.97796655
131	0x3f1e2637	0.6177706
132	0x3f04999a	0.5179688
133	0x3f2c2f28	0.67259455
134	0xbf11782e	-0.56824005
135	0xbd13f550	-0.03612262
136	0xbf1abc34	-0.60443425
137	0xbc553db8	-0.013015203
138	0xbeb941a0	-0.3618288
139	0x3cb84798	0.022495076
140	0xbe182192	-0.14856556
141	0x3c9054d7	0.01761858
142	0x3ea69d9c	0.3254212
143	0xbf29d355	-0.6633809
144	0xbea13ca8	-0.3149159
145	0x3e60374c	0.21896094
146	0xbf6bc437	-0.92096275
147	0x3e551c04	0.20811468
148	0xbead6e30	-0.3387313
149	0x3e31eaf5	0.17374785
150	0x3eaeb87b	0.34125122
151	0xbecda534	-0.40165102
152	0xbca6a348	-0.02034153
153	0xbccb722c	-0.024834715
154	0x3eef3974	0.4672352
155	0xbf302a5d	-0.6881464
156	0xbf1820cd	-0.5942505
157	0xbe27b9ec	-0.16379517
158	0x3ef711b0	0.48255682
159	0xbe033811	-0.12814356
160	0xbf0feab1	-0.56217486
161	0x3ec82dff	0.39097592
162	0xbece31d4	-0.4027239
163	0x3efcf36b	0.49404463
164	0x3f0515d4	0.5198643
165	0x3e15c521	0.1462598
166	0x3cecc6cf	0.028903393
167	0x3e0a09cc	0.134803
168	0xbf131378	-0.5745158
169	0x3e7cea09	0.24698652
170	0xbebadd47	-0.36496946
171	0x3e878423	0.26468
172	0xbe531615	-0.20613892
173	0x3d8e38b8	0.06944412
174	0x3ea6ca34	0.32576144
175	0x3f00e116	0.50343454
176	0x3e15c3ec	0.1462552
177	0xbc019f7d	-0.00791156
178	0xbe47d00b	-0.19512956
179	0x3d955f59	0.07293577
180	0x3f1e8605	0.6192325
181	0xbf89c400	-1.076294
182	0xbe7fbfa4	-0.24975449
183	0x3e4800c4	0.19531542
184	0xbdc1c239	-0.09460873
185	0xbe284dc9	-0.16435923
186	0x3e673812	0.22579983
187	0x3e22b4f2	0.15889338
188	0xbe3eed8e	-0.18645307
189	0xbf554b6c	-0.8331821
190	0x3e200a26	0.15628871
191	0x3df91b64	0.121634275
192	0x3d57d1cc	0.052690312
193	0xbed6f727	-0.41985437
194	0x3eb3d48d	0.351231
195	0x3e25980a	0.1617128
196	0xbe02dc27	-0.12779294
197	0x3e20638a	0.15662971
198	0xbeae806d	-0.34082356
199	0x3c829cf4	0.015943982
200	0xbe70f5b2	-0.23531225
201	0x3d85472c	0.065077156
202	0x3ae0f171	0.0017161799
203	0x3d0d0d05	0.034436245
204	0x3ee99478	0.45621085
205	0xbee61e5d	-0.4494504
206	0xbed6dc46	-0.4196493
207	0xbe2b5eb7	-0.1673535
208	0xbd3d275a	-0.046180107
209	0x3ec338c4	0.38129246
210	0xbd109916	-0.035302244
211	0xbd474322	-0.048648007
212	0xbe02c730	-0.12771297
213	0xbb8ad0ef	-0.0042363326
214	0x3e9a2d9a	0.30112916
215	0xbe32aaee	-0.17448017
216	0x3e457195	0.1928161
217	0xbee890d1	-0.45422986
218	0x3efbb679	0.49162653
219	0x3e50eb10	0.20402169
220	0x3f076fa1	0.5290471
221	0x3d9cc03a	0.07653852
222	0x3ec2489f	0.3794603
223	0xbe5417d4	-0.20712215
224	0xbf09e37a	-0.53862727
225	0xbeb5058c	-0.35355794
226	0xbe8fbec5	-0.28075233
227	0xbe8598f6	-0.26093262
228	0xbcd6f94d	-0.026241923
229	0x3d02a13b	0.031892043
230	0x3e389b70	0.18028045
231	0xbf20caa5	-0.6280921
232	0x3f1a6099	0.60303646
233	0xbd55893f	-0.05213284
234	0x3c20acf1	0.009806857
235	0x3e723ffe	0.23657224
236	0x3be6f234	0.007047916
237	0xbf22a14c	-0.6352737
238	0xbf13f7a8	-0.5779977
239	0x3eaf0760	0.34185314
240	0x3c450fe8	0.012027718
241	0x3f7935e5	0.9734786
242	0xbc024f3c	-0.007953461
243	0xbe194682	-0.14968303
244	0x3ef274e7	0.47354814
245	0xbf3f4f2a	-0.7473017
246	0x3e947501	0.28995517
247	0x3eb9f24f	0.3631768
248	0xbf0ce198	-0.5503173
249	0x3ed94db7	0.42442104
250	0xbda0d11e	-0.07852386
251	0x3dafb543	0.08579495
252	0x3ebcfc33	0.36911163
253	0x3f2d090d	0.67591935
254	0x3d19077c	0.037360653
255	0x3e3dad58	0.18523157

network_body._body_endoder.seq_layers.0.bias f4 [128]
0	0xbb9290f6	-0.004472847
1	0xbc724002	-0.014785768
2	0xbc2d8346	-0.01059038
3	0xbc0a77aa	-0.008451382
4	0xbc5c95d2	-0.013463454
5	0xbc12ad9f	-0.008952527
6	0x3be58802	0.007004739
7	0x3c24f3a0	0.01006785
8	0xb929201f	-0.00016129062
9	0xbb690400	-0.0035555363
10	0xbb64c9f6	-0.0034910417
11	0xbb9417bd	-0.0045194314
12	0xbcc14642	-0.023593072
13	0xbc58a25f	-0.013222306
14	0x3bc0c3ad	0.0058827014
15	0xbc801e41	-0.015639426
16	0xbc0011c4	-0.007816736
17	0xbaa60702	-0.0012666883
18	0xbc7eea2c	-0.015558761
19	0x3c11fe1d	0.008910683
20	0x3c5985f0	0.013276562
21	0x3c2f1a29	0.010687389
22	0xbc1611e7	-0.009159542
23	0xba80f825	-0.0009839578
24	0x3ad7455c	0.0016423869
25	0xbc2fcee8	-0.010730483
26	0xbc9ec05c	-0.019378833
27	0xbbc0995a	-0.005877656
28	0xbbb225e7	-0.005436647
29	0xbc2ba2e6	-0.01047585
30	0xbca8d15f	-0.020607648
31	0x3bf31cc9	0.007419203
32	0xbbdeff7d	-0.006805359
33	0xbb8902f0	-0.0041812584
34	0xbc8b0b08	-0.016973034
35	0x3bdd47df	0.0067529525
36	0x39804e2c	0.00024472305
37	0x3a9c2bd0	0.0011914913
38	0x3b60d230	0.003430497
39	0xbc9055a8	-0.01761897
40	0x3c2ee929	0.010675707
41	0xbb85a46f	-0.00407844
42	0xbc00bde5	-0.007857774
43	0xbc2e7598	-0.010648154
44	0xbc592024	-0.013252292
45	0xbb779229	-0.0037776327
46	0xbc02e565	-0.007989262
47	0xbb926751	-0.0044678827
48	0xba77b602	-0.00094494235
49	0x3aa688c7	0.0012705558
50	0x3a1204ef	0.0005570193
51	0xbc2421c4	-0.010017816
52	0xbc5a6daa	-0.01333181
53	0xbb972717	-0.004612814
54	0xbc77f701	-0.015134574
55	0x394cdaa4	0.00019536406
56	0xb9a2ab51	-0.00031026689
57	0x3b30fb31	0.002700519
58	0xbab9afde	-0.0014166792
59	0xbc1c2403	-0.00953007
60	0x3c17a2fe	0.009255169
61	0x3a7f36a2	0.0009735619
62	0x3bac2e1f	0.0052545215
63	0xbbcaaf5c	-0.0061854552
64	0xbcca9013	-0.024726903
65	0xbb8482f1	-0.0040439297
66	0xbc7036a7	-0.014661468
67	0xbbd0d8c5	-0.006373497
68	0xbc478c09	-0.012179383
69	0xbc79dc3d	-0.015250263
70	0xbc0808f9	-0.0083029205
71	0xbb8361cc	-0.004009461
72	0xba75a5f0	-0.0009370735
73	0x3beaaea1	0.0071619307
74	0x3b80d5c5	0.0039317333
75	0xbc022530	-0.0079434365
76	0xbc7bb254	-0.015362341
77	0x3ab33be5	0.0013674466
78	0xbc21a059	-0.00986489
79	0xb933a17d	-0.0001713093
80	0xbc3ca79f	-0.011514573
81	0x39150757	0.00014212482
82	0x3a189286	0.00058201735
83	0x3bb21576	0.0054346872
84	0xba832086	-0.00100042
85	0xbc00e2e2	-0.007866593
86	0xbc31d1a2	-0.010853203
87	0x3c743d2f	0.014907165
88	0x3c61a297	0.013771675
89	0xbac8eb1d	-0.0015328858
90	0x3be53fb3	0.006996119
91	0xbc2f77c8	-0.01070971
92	0x3b37622f	0.0027982106
93	0xbc8ad5c9	-0.016947644
94	0x3ade5505	0.0016962594
95	0xbb9d1908	-0.0047942437
96	0xbc652349	-0.013985463
97	0xbc382d11	-0.011241213
98	0xbc46797a	-0.012113923
99	0x3bceab18	0.006307017
100	0x3be606b2	0.007019841
101	0x3ae872d4	0.0017734417
102	0xbc58ff32	-0.013244437
103	0x3c30f59d	0.010800746
104	0xbbcee4be	-0.0063138893
105	0x39c8221d	0.0003817239
106	0xbc276577	-0.010217062
107	0x3be739b0	0.0070564374
108	0xbbd4f224	-0.006498592
109	0xbc8588b8	-0.016300544
110	0x3bde2ba9	0.006780107
111	0xbb2c5ee1	-0.002630167
112	0x3c9a3734	0.018825151
113	0x3c4732a4	0.01215807
114	0x3bd3b035	0.0064602145
115	0xba8f7d69	-0.0010947409
116	0xbbd3c8bc	-0.0064631384
117	0xbc4a72a3	-0.012356433
118	0xbbb846ba	-0.0056236656
119	0xbbbcf6df	-0.005766734
120	0xbc263076	-0.01014339
121	0xbb441952	-0.0029922319
122	0xbbfa20a0	-0.0076332837
123	0x3b58d95e	0.0033088545
124	0x3c4b4d0d	0.012408507
125	0xbc555df6	-0.01302289
126	0xbb195776	-0.0023398078
127	0xba91f4ce	-0.001113558

network_body._body_endoder.seq_layers.2.weight f4 [128, 128]
0	0x3cdf029c	0.027222924
1	0xbdb0a2ca	-0.086247995
2	0xbdbdec8c	-0.09273633
3	0xbafeafcf	-0.0019431057
4	0x3d26f973	0.040765237
5	0xbced7ff4	-0.028991677
6	0xbd0068d5	-0.031349976
7	0x3d23ad4c	0.03996019
8	0xbcb7237d	-0.02235579
9	0x3e10dce0	0.14146757
10	0xbe827954	-0.2548319
11	0x3c7772b6	0.015103033
12	0xbdfcc9d5	-0.12343184
13	0x3b075103	0.0020647652
14	0xbd13b927	-0.036065247
15	0x3cd6afda	0.0262069
16	0x3ce31efe	0.02772474
17	0x3d2a5502	0.041584976
18	0xbe50e5b6	-0.20400128
19	0xbc92c79a	-0.017917443
20	0xbe2e834a	-0.1704227
21	0x3d8128c0	0.063066006
22	0xbc80df8b	-0.015731594
23	0xbd0fbd15	-0.035092432
24	0x3d8e2e61	0.0694244
25	0xbdaf839c	-0.08570024
26	0x3dd9883b	0.10621687
27	0xbc9fb41d	-0.019495064
28	0x3d8a90a1	0.06765867
29	0x3e06f3d5	0.13178952
30	0x39932d34	0.00028071704
31	0xbcb639ef	-0.022244422
32	0xbd87782f	-0.0661472
33	0xbdfc3a6c	-0.123158306
34	0xbda42f09	-0.08016784
35	0x3df4ddd9	0.119563766
36	0x3d935869	0.07194597
37	0x3c7f7ab4	0.01559322
38	0xbe021df2	-0.12706736
39	0xbd9f3018	-0.07772845
40	0x39ed4a99	0.00045259742
41	0x3cf35715	0.02970461
42	0x3dca2660	0.09870601
43	0x3d8b609d	0.06805537
44	0xbdbeed39	-0.093225904
45	0x3d270538	0.04077646
46	0xbd9b28e1	-0.075761564
47	0xbe9acf4f	-0.3023629
48	0xbd655c5a	-0.055996276
49	0xbe4b6dbf	-0.19866084
50	0x3db175b9	0.08665032
51	0xbd0ea04d	-0.034820843
52	0xbe3b73ce	-0.18305895
53	0x3e21ab33	0.15787964
54	0xbca26590	-0.01982382
55	0xbbfdbd04	-0.0077434797
56	0xbcf3c63a	-0.029757608
57	0x3dac3aef	0.08409678
58	0xbcc9e164	-0.024643607
59	0xbd4ab545	-0.04948928
60	0xbcb85ca0	-0.022505105
61	0x3e3b2305	0.18275078
62	0xbd4a6e6c	-0.049421713
63	0x3d5c5b97	0.053798284
64	0x3e2333c0	0.1593771
65	0x3ce86241	0.028367164
66	0xbd9848f2	-0.07435788
67	0x3d76fcb7	0.0602996
68	0xbc8db415	-0.017297784
69	0xbda2ef41	-0.0795579
70	0xbdee6ab4	-0.11641446
71	0xbd2a5e68	-0.04159394
72	0x3dcd2a1e	0.10017799
73	0x3dc66e30	0.09688985
74	0x3da7c6d4	0.0819222
75	0xba097162	-0.00052430306
76	0xbd3f9916	-0.046776854
77	0xbdaa6790	-0.08320534
78	0x3d5ff803	0.05467988
79	0xbd4ec6bd	-0.0504825
80	0x3d743f4e	0.059630685
81	0x3df68d06	0.12038617
82	0xbd184f57	-0.03718504
83	0x39a879b6	0.0003213414
84	0x3cdf2158	0.02723758
85	0x3c511cf7	0.012763253
86	0xbdd299cb	-0.1028324
87	0xbdbac9a6	-0.09120493
88	0xbc84b3a7	-0.016198946
89	0xbde85616	-0.113445446
90	0xbd753d18	-0.059872717
91	0xbb603ac5	-0.0034214717
92	0xbd93835a	-0.07202788
93	0x3d47f55c	0.048817977
94	0xbd1f8102	-0.03894139
95	0x3de3dedc	0.111264914
96	0xbe1e3923	-0.15451483
97	0x3d2b9360	0.041888595
98	0x3d8d0d5c	0.06887314
99	0x3e1c09d4	0.15238124
100	0x3cf2388b	0.029567977
101	0xbd79f4eb	-0.061024588
102	0x3c265c9f	0.0101539185
103	0x3cfdacc6	0.030966174
104	0x3df4a2d3	0.11945119
105	0xbddaef99	-0.10690231
106	0x3e1746a7	0.14773045
107	0xbd6b52b5	-0.057451922
108	0x3d497fdc	0.0491942
109	0xbd3cb4b6	-0.046070777
110	0xbdf5e1cc	-0.12005958
111	0x3dc170dc	0.09445354
112	0x3d4c0f6d	0.0498194
113	0xbe06d978	-0.13168895
114	0xb84b6b8a	-4.8499125e-05
115	0xbcd0c7a2	-0.025485817
116	0x3c4080ad	0.011749429
117	0xbd3458e9	-0.044030104
118	0x3db5cfda	0.08877535
119	0xbdd502cd	-0.10400925
120	0xbdade448	-0.08490807
121	0x3cbe8e7c	0.023261301
122	0x3c2f0851	0.010683135
123	0x3da7b60a	0.08189018
124	0x3ba4a39c	0.0050243866
125	0x3d287606	0.04112818
126	0x3be7bc33	0.0070719956
127	0x3e381961	0.17978431
128	0xbcb72cb9	-0.022360193
129	0xbcb9c284	-0.02267576
130	0x3d40ebd5	0.047099907
131	0xbe084270	-0.13306594
132	0xbe1aeed3	-0.15130167
133	0xbdd712f7	-0.10501664
134	0xbe46fb3e	-0.19431779
135	0xbd8e39b4	-0.069446
136	0xbe8ba38b	-0.2727321
137	0x3c947b32	0.01812515
138	0x3deaff6a	0.114744976
139	0x3a042bd1	0.00050419295
140	0xbdb04f2d	-0.086088516
141	0x3e0a6761	0.13515998
142	0x3e101017	0.14068638
143	0xbd5310c5	-0.051529665
144	0xbcb82af3	-0.022481417
145	0xbd064ecd	-0.032789994
146	0xbd6950dc	-0.05696188
147	0xbd9807ae	-0.0742334
148	0xbcbcad66	-0.023031902
149	0x3d68402d	0.056701828
150	0x3d36e4d3	0.044651818
151	0xbe097417	-0.13423191
152	0xbd7cb218	-0.06169328
153	0xbe0e4e3f	-0.13897036
154	0xbdcb6558	-0.09931439
155	0xbd9b97b2	-0.07597293
156	0xbd592ea7	-0.053023007
157	0xbd31d80d	-0.043418933
158	0x3e0d8f69	0.13824238
159	0x3d31f3f3	0.04344554
160	0xbe25c6c1	-0.161891
161	0x3dfd8afa	0.12380023
162	0xbd93ba9b	-0.072133265
163	0xbcc806ac	-0.024417244
164	0xbc632f2f	-0.01386623
165	0xbd972445	-0.07379965
166	0xbd99dd4a	-0.07512911
167	0x3d22519a	0.039628603
168	0xbdd2344c	-0.10263881
169	0xbd27deb1	-0.04098386
170	0xbdbaf9d0	-0.09129679
171	0x3dda73a4	0.10666588
172	0xbcb86ec8	-0.022513762
173	0xbce6fd31	-0.028196903
174	0x3d39d633	0.045370292
175	0x3d2574e0	0.040394664
176	0xbd1b3951	-0.037896458
177	0x3e067e5d	0.13134141
178	0xbc54b18f	-0.012981786
179	0xbb300d9f	-0.0026863588
180	0x3c91c4f0	0.017794102
181	0x3dbf5a02	0.093433395
182	0xbcbccbfa	-0.023046482
183	0xbd04c358	-0.032412857
184	0x3d179fa5	0.037017483
185	0x3daadd2c	0.083429664
186	0x3d8006ab	0.06251272
187	0xbd7cb7bc	-0.06169866
188	0x3cf9cf26	0.030494284
189	0x3dde38ff	0.10850715
190	0xbdc83ff5	-0.09777824
191	0xbd7d01dc	-0.06176935
192	0x3d0c7fd5	0.034301598
193	0x3d35b6b4	0.044363692
194	0xbc73f567	-0.014890051
195	0xbdbe1ae9	-0.092824765
196	0xbd5e3207	-0.05424693
197	0xbe0866e6	-0.13320503
198	0xbdf64586	-0.12024979
199	0x3e6071e0	0.2191844
200	0xbc8d35dc	-0.017237596
201	0x3e08a087	0.13342486
202	0x3c824df4	0.015906312
203	0x3a92df0e	0.0011205391
204	0x3d6e95c5	0.0582483
205	0x3de751f4	0.11294928
206	0xbdc82070	-0.09771812
207	0x3e1bdd5d	0.15221162
208	0xbdd86e02	-0.10567857
209	0x3d24d671	0.04024357
210	0xbd01d8be	-0.031700842
211	0x3d8b5fda	0.068053916
212	0xbdc16b5a	-0.09444304
213	0xbcc13f8c	-0.023589872
214	0xbe274b07	-0.16337214
215	0xbe364a3e	-0.17801759
216	0x3e29bf4b	0.16576879
217	0x3dadbe3d	0.08483551
218	0xbd17ae1d	-0.03703128
219	0xbcd3baeb	-0.025845965
220	0xbe78cc2a	-0.24296632
221	0xbdc60f6c	-0.0967091
222	0xbdea2af2	-0.114339724
223	0xbd6cfcdc	-0.057858333
224	0x3d69654d	0.056981374
225	0x3d0dd033	0.034622382
226	0xbe191696	-0.14950022
227	0xbdbff831	-0.09373511
228	0x3d661b46	0.056178354
229	0xbdd2c8e4	-0.10292223
230	0x3d88d630	0.06681478
231	0xbd132241	-0.03592134
232	0x3d63d560	0.055623412
233	0xbe044178	-0.129156
234	0xbd16384a	-0.036674775
235	0xbe18112f	-0.14850305
236	0xbde94cf6	-0.11391632
237	0xbd170df2	-0.036878534
238	0xbd179da4	-0.037015572
239	0xbb8ce286	-0.0042994646
240	0x3d1bc7bc	0.03803228
241	0x3bde7afd	0.0067895637
242	0xbd9c1322	-0.07620837
243	0xbd7481e1	-0.059694175
244	0xbd6e4db2	-0.058179565
245	0x3d84de65	0.06487731
246	0xbd9dda58	-0.077076614
247	0x3be4a441	0.0069775884
248	0xbd7a9d64	-0.061185256
249	0xbe0b7d1e	-0.13621947
250	0x3cfeba03	0.031094557
251	0xbd3f605b	-0.04672275
252	0xbdd4bac6	-0.10387187
253	0xbd918759	-0.07105894
254	0x3cd9009d	0.02648955
255	0x3ce6e484	0.028185137

network_body._body_endoder.seq_layers.2.bias f4 [128]
0	0x3c1e72cf	0.009670927
1	0x3bf0f539	0.0073534516
2	0xbae4114a	-0.0017400172
3	0xbb1ef55e	-0.0024255137
4	0xbc47b966	-0.0121901985
5	0xbae68ca2	-0.0017589519
6	0xbc5a18c7	-0.013311571
7	0xbc4b50c7	-0.012409396
8	0x3c1b9349	0.009495565
9	0xbc4ba35e	-0.0124290865
10	0xbbfc2394	-0.007694671
11	0xbc44ea32	-0.012018727
12	0xbc7cdde8	-0.015433766
13	0xbc5269d6	-0.012842616
14	0xba238dbc	-0.00062390766
15	0xbc64652d	-0.013940138
16	0xbbc6ddaf	-0.006068907
17	0xbbc2349a	-0.0059266808
18	0xbb98a3f5	-0.004658217
19	0xbbe1cfc1	-0.0068912213
20	0xbc26eb55	-0.0101879435
21	0xbc08ccce	-0.0083496105
22	0x3bd29155	0.0064260163
23	0x3be019ea	0.0068390267
24	0x3c2f276f	0.010690554
25	0xbc42ac46	-0.0118818935
26	0xbbd4befa	-0.0064924927
27	0xbbb42d7b	-0.0054985858
28	0xbc6af744	-0.014341179
29	0xbbc0f0e6	-0.0058880923
30	0xbc064f63	-0.008197638
31	0x3b138b6f	0.0022513529
32	0xbb04632b	-0.002020071
33	0xbc07df96	-0.008293053
34	0xbaf9df41	-0.0019063727
35	0xbc360d00	-0.011111498
36	0xbbe25b98	-0.0069078915
37	0xb98eabc2	-0.0002721232
38	0xbc078454	-0.008271296
39	0xbc27330c	-0.010205042
40	0x3a549364	0.0008109121
41	0xbc1c9f88	-0.00955952
42	0x3ba45d50	0.0050160065
43	0xbc777c94	-0.015105385
44	0xbc55f538	-0.013058953
45	0xbaf4e4fa	-0.0018683963
46	0xbc431768	-0.011907436
47	0xbb2f5abc	-0.0026756963
48	0xbc647a38	-0.013945155
49	0x3c0d545f	0.008626073
50	0xbaa7c8aa	-0.0012800891
51	0xbb2fe895	-0.002684151
52	0x3b8986f0	0.004196994
53	0xbc49eb5e	-0.012324182
54	0x3c0089f1	0.007845388
55	0xbb276c7e	-0.0025546844
56	0xbc5b1018	-0.013370536
57	0xbbcd29a1	-0.006261066
58	0xbc61707d	-0.013759729
59	0x3b5800a9	0.0032959378
60	0xbc39433f	-0.011307537
61	0x3b2f437a	0.00267431
62	0x3bfcde3b	0.0077169216
63	0x3b928cf5	0.00447237
64	0x3c0bfddc	0.0085444115
65	0xbc3d9556	-0.011571249
66	0xbc3ba81a	-0.011453653
67	0x3bdb545d	0.0066934065
68	0xbaf1f533	-0.0018459916
69	0xbc48935c	-0.012242164
70	0xbc338c69	-0.010958769
71	0xbbc6f6db	-0.006071908
72	0x3ba73b5c	0.0051035117
73	0x3b3c813f	0.002876356
74	0xbb973420	-0.004614368
75	0xbc4b1e17	-0.012397311
76	0xbbf56371	-0.007488661
77	0x3b9d3877	0.004797991
78	0xbc3f1506	-0.011662727
79	0x3a9be325	0.0011893256
80	0xbbabb88b	-0.005240505
81	0xbc1fc711	-0.009752051
82	0xbc46cbf8	-0.012133591
83	0xbb009df9	-0.001962541
84	0xbc400b35	-0.011721422
85	0xbae449d7	-0.0017417026
86	0x3bba4ba3	0.005685286
87	0xbbdc10d3	-0.006715873
88	0x3c301ff5	0.010749807
89	0x3c64b3c1	0.013958872
90	0x3c511a4a	0.012762615
91	0xbc1226cc	-0.008920383
92	0xbc09d1dd	-0.008411852
93	0x3927bd3a	0.00015996853
94	0xbbac79b4	-0.0052635316
95	0xbbc34105	-0.0059586787
96	0xbc0334d4	-0.008008201
97	0x39af9db5	0.00033496102
98	0xbb6839ff	-0.003543496
99	0xbc88e98b	-0.016712924
100	0x393a0fd7	0.00017744243
101	0xbc154281	-0.009110094
102	0xbc2efc0a	-0.010680208
103	0xbc0d25ea	-0.008614996
104	0xbc450d1f	-0.012027054
105	0xbb588aed	-0.003304179
106	0xbc36201e	-0.011116056
107	0x3abefc00	0.0014570951
108	0xbc71b795	-0.014753242
109	0xbbdd741c	-0.006758226
110	0xbc232fc4	-0.009960119
111	0xbc156012	-0.009117143
112	0xbc560770	-0.013063297
113	0x3c820604	0.01587201
114	0xbc28ad10	-0.010295168
115	0xbb9e5e04	-0.004832985
116	0xbc1c5457	-0.009541593
117	0xbc57de27	-0.013175524
118	0xbc4b9df8	-0.012427799
119	0x3b462ce3	0.0030239157
120	0xbc61e02f	-0.01378636
121	0xbab9f51a	-0.0014187426
122	0xbc2a515f	-0.010395377
123	0xbc4af097	-0.012386463
124	0xbacd870e	-0.0015680508
125	0xbc2105e1	-0.009828062
126	0xbbf005a0	-0.0073248893
127	0xbc83e9d0	-0.016102701

action_model._continuous_distribution.log_sigma f4 [1, 2]
0	0x3ba43b9d	0.0050119893
1	0xbd885c2d	-0.06658206

action_model._continuous_distribution.mu.weight f4 [2, 128]
0	0xba4320ba	-0.00074435363
1	0xbcfa6e86	-0.03057028
2	0xbc59454b	-0.01326115
3	0xbc173f2c	-0.00923137
4	0x3bb7eecd	0.005613184
5	0x3cc708bc	0.024296157
6	0x3bd567c7	0.0065126154
7	0xbc79b81e	-0.015241651
8	0xbd2a4ed2	-0.041579075
9	0xbc6d555f	-0.014485686
10	0x3c768e1e	0.015048532
11	0xbbfc8b0d	-0.007707006
12	0xbbd353c3	-0.006449194
13	0xbb95214e	-0.0045510894
14	0xbcbd9219	-0.023140954
15	0xbaa54bc2	-0.0012611079
16	0xbb327243	-0.002722875
17	0xbd5a17df	-0.05324542
18	0x3b7fd7e1	0.0039038586
19	0xbd0ed23b	-0.03486846
20	0x3b7bded7	0.0038432383
21	0x3a17f50b	0.0005796707
22	0xbc4de247	-0.012566156
23	0xbba2f9a8	-0.004973609
24	0xbc26061e	-0.010133294
25	0x3c0f8557	0.008759818
26	0xbbf20773	-0.007386142
27	0x3bbd2a03	0.0057728305
28	0xbb021c89	-0.0019853434
29	0xbc916420	-0.017747939
30	0xbbd4b48f	-0.006491251
31	0xbd2d9b4d	-0.042384434
32	0x3ccfa602	0.025347713
33	0x3bdc9300	0.006731391
34	0x3b532010	0.0032215156
35	0xbbd11b83	-0.0063814535
36	0xbcbd2741	-0.023090007
37	0xbcaafc81	-0.020872356
38	0x3b202586	0.0024436428
39	0xbcda9175	-0.026680687
40	0xbd2218d9	-0.039574478
41	0x3b8008a5	0.0039072805
42	0x3be2263c	0.0069015305
43	0xbbc70bd6	-0.006074409
44	0x3b80ebdd	0.003934367
45	0x3cbdbf5c	0.023162536
46	0x3ba6fec1	0.005096287
47	0x3aba6267	0.001422
48	0x3c37b7c7	0.0112132495
49	0xbc7b4748	-0.015336819
50	0x3bbe21e7	0.0058023813
51	0x3ae52596	0.0017482515
52	0x3c121d96	0.008918187
53	0x3c89fdac	0.016844593
54	0x3b64c12a	0.0034905174
55	0xbbe7f700	-0.0070790052
56	0x3c450cfc	0.0120270215
57	0xbb31de3b	-0.0027140516
58	0xbbf384e9	-0.0074316156
59	0x3cdcea25	0.026967118
60	0xbc9ba3ad	-0.018998945
61	0x3c1a3fa9	0.009414592
62	0xbc8475b5	-0.016169408
63	0x3b4c6014	0.0031185197
64	0x3ba033e0	0.0048889965
65	0xbceb71ed	-0.028740847
66	0xbcd903fc	-0.026491158
67	0x3bc3ed77	0.0059792357
68	0x3c290636	0.010316422
69	0x3b11662f	0.002218615
70	0x3a92a8d8	0.0011189235
71	0xbc8c6ec9	-0.01714267
72	0x3c784dd4	0.015155274
73	0x3bf61202	0.007509471
74	0xbcd3257d	-0.025774712
75	0xbc945011	-0.018104585
76	0xbcd03dd0	-0.0254201
77	0xbbf486f8	-0.0074623786
78	0xba63bcb7	-0.00086874835
79	0x3a294df1	0.00064584526
80	0x3ce6f98a	0.028195161
81	0x3b1b2686	0.0023674085
82	0xbbc9fefa	-0.006164429
83	0xbd37e159	-0.044892643
84	0xba4f227c	-0.0007901562
85	0xbc83c44b	-0.01608481
86	0xb9a67b44	-0.00031753827
87	0xbb482de8	-0.003054494
88	0xbce1b24c	-0.027550839
89	0xbc60ad32	-0.013713168
90	0xbb80a8fd	-0.003926395
91	0x3c2f4f1a	0.010700012
92	0x3c3ce9c9	0.011530348
93	0x3b244b39	0.002506925
94	0xbc6a3b3b	-0.014296348
95	0x3b527a1e	0.0032116245
96	0xbcb6b58a	-0.022303361
97	0xbce742a4	-0.028230019
98	0xbbd82c2a	-0.0065970616
99	0xbc294f23	-0.010333809
100	0x3ad4e35d	0.0016242076
101	0xba22bb59	-0.00062077265
102	0xbc6b34fc	-0.014355894
103	0xbd6b35f4	-0.0574245
104	0xbc30d9d9	-0.010794126
105	0x3ce6c47a	0.02816986
106	0xbbca8e51	-0.006181516
107	0x3d1cc3ae	0.038272552
108	0xbb247b4a	-0.00250979
109	0x3c07f11e	0.008297233
110	0xba9091f0	-0.0011029821
111	0x3a0b3859	0.00053108257
112	0xbce78026	-0.028259348
113	0x3bfdbbc2	0.0077433297
114	0xbcbc8f43	-0.023017531
115	0x3c3b346c	0.011426073
116	0x3acef68a	0.0015790027
117	0xbb77a58e	-0.0037787887
118	0xbc02154d	-0.007939649
119	0xbd054d4e	-0.032544427
120	0xbc0ab82b	-0.008466761
121	0xbca9280b	-0.020648977
122	0xbcb3f58c	-0.021967672
123	0x3c4c2232	0.012459325
124	0x3cfc9600	0.030833244
125	0xbbc8a812	-0.006123551
126	0xbd179c39	-0.03701422
127	0x3aa71cfc	0.0012749727
128	0xbce1a64b	-0.027545115
129	0xbbf191d2	-0.0073721195
130	0x3ba4ca07	0.0050289663
131	0xbbda4fd5	-0.0066623488
132	0x3c123b62	0.008925291
133	0x3b751fb3	0.0037402927
134	0x3d252628	0.04031959
135	0x3c466845	0.012109821
136	0xbc9c304f	-0.019066004
137	0x3c819631	0.015818687
138	0x3c8630fc	0.01638078
139	0x3bd1bfef	0.006401054
140	0x3c558333	0.013031769
141	0x3ac8d901	0.0015323461
142	0x3b3d4c4a	0.0028884583
143	0x3c2857fc	0.010274883
144	0x39bca908	0.00035984092
145	0x3c3f423e	0.011673508
146	0x38f9f0ba	0.00011918084
147	0xbc30fa7b	-0.010801907
148	0x3c1edc3a	0.009696061
149	0xbba26a75	-0.0049565383
150	0xbaf76510	-0.0018874723
151	0xbcb1b2a4	-0.021691628
152	0xbb6378cb	-0.003470945
153	0x3c291015	0.010318776
154	0xbb5ca16f	-0.0033665558
155	0x3abc3478	0.0014358899
156	0x3a658f08	0.000875697
157	0x3cab0b11	0.0208793
158	0x3c7c6547	0.015405006
159	0xbb637a76	-0.0034710444
160	0x3bedfa4e	0.0072625047
161	0x3b75b798	0.0037493464
162	0xbb862759	-0.004094046
163	0xba9f0d35	-0.0012134673
164	0x3c56907d	0.013095972
165	0x3ccbcc24	0.024877615
166	0xbaead0d9	-0.0017915025
167	0x3c47c3fe	0.012192724
168	0xbc731fa3	-0.014839086
169	0x3cec71cd	0.028862858
170	0xbbae868f	-0.005326099
171	0x3ac662ae	0.001513561
172	0x3b38e0c1	0.0028210136
173	0x3b931d5e	0.004489585
174	0x3c25610c	0.010093939
175	0xb924dffe	-0.00015723702
176	0x3d2dcbc9	0.042430673
177	0xbb0bbaa8	-0.0021320973
178	0x3a3edd13	0.00072808674
179	0xbb6a2f06	-0.0035733595
180	0xbcde2979	-0.027119385
181	0x3cc5dfc2	0.024154548
182	0xbbb139cb	-0.005408501
183	0x3b445ec5	0.0029963714
184	0x3d0355be	0.032064192
185	0x3cd1f9c3	0.025631791
186	0x3c4f4790	0.012651339
187	0xbc5213d9	-0.012822115
188	0x3ac89b7d	0.0015305128
189	0xbbe2dfcf	-0.0069236527
190	0xbbdef894	-0.006804535
191	0xbbae90e1	-0.0053273295
192	0xbcf0c3ef	-0.029390303
193	0x3c4b42f8	0.012406103
194	0x3c7e5d1e	0.015525131
195	0xbb0455af	-0.0020192673
196	0xbac81038	-0.0015263623
197	0x3b8d28c3	0.0043078377
198	0x3c6ea9c5	0.014566843
199	0x3c71b968	0.014753677
200	0xbcf85715	-0.030314961
201	0xbbfe5b38	-0.007762339
202	0x3bdb6946	0.006695899
203	0x3cdbf605	0.02685071
204	0xbb007c07	-0.0019605176
205	0xbcca1fdc	-0.024673395
206	0x3c3ff61f	0.011716395
207	0xbd152ba9	-0.03641859
208	0x3d25c756	0.040473305
209	0x3a752f95	0.00093530986
210	0xbb536151	-0.003225405
211	0x3c90f6cf	0.017695813
212	0x3c80b37f	0.01571059
213	0x3bf6818d	0.007522768
214	0xbce38dde	-0.027777608
215	0x3b2dfbbd	0.0026547753
216	0xbd495add	-0.04915892
217	0xbca6dd79	-0.020369278
218	0xbc3794ac	-0.01120488
219	0x3b4354dd	0.002980522
220	0x3a7a1e6a	0.0009541275
221	0x3b0a9df8	0.0021151286
222	0xbc30ab5e	-0.010783045
223	0x3ac33d04	0.0014895503
224	0xbb987731	-0.0046528806
225	0xbd20e6fc	-0.039282784
226	0x3c8ade36	0.016951662
227	0x3c185dcc	0.009299707
228	0xbc491b5f	-0.012274592
229	0x3c4562d4	0.012047488
230	0x3bc1e890	0.005917616
231	0x3b693029	0.0035581684
232	0x3b6513cd	0.003495443
233	0x3c8b9b58	0.017041847
234	0x3bd2caad	0.0064328522
235	0x3b6d4a53	0.003620763
236	0x3a4971b0	0.0007684482
237	0x3c7b9930	0.015356347
238	0x3bc25d55	0.005931536
239	0x3ab4e324	0.0013800603
240	0x3d2f32f4	0.042773202
241	0xbce63c7b	-0.028105011
242	0x3b1fe48c	0.00243977
243	0x3c104152	0.008804636
244	0x3c9b4316	0.018952888
245	0x3be70c75	0.0070510455
246	0x3c847c70	0.016172618
247	0xbc839cae	-0.016065922
248	0x3b0554e1	0.0020344781
249	0xbb3c3689	-0.002871903
250	0x3cb772cc	0.022393607
251	0x3d2d7879	0.04235122
252	0x3c3763b2	0.011193203
253	0x3b78bb01	0.003795326
254	0x3cef43c0	0.02920711
255	0x3b2cb20d	0.0026351244

action_model._continuous_distribution.mu.bias f4 [2]
0	0x3ba57acd	0.0050500394
1	0xbc0946f4	-0.008378733
