Assets/results/petfollower28/PetFollower/PetFollower-499971.onnx (onnx, 547009 bytes, 11 tensors)

network_body.observation_encoder.processors.0.normalizer.running_mean f4 [11]
0	0xbb43cc11	-0.0029876272
1	0xbc5290bc	-0.01285189
2	0x3c134f67	0.008991099
3	0x3d03d97b	0.032189827
4	0x00000000	0.0
5	0x3d05d2f2	0.032671876
6	0xbbd330ac	-0.006445011
7	0xb9f20425	-0.00046160925
8	0xbbb23973	-0.0054389774
9	0x40aadd03	5.339479
10	0x3ed9e03f	0.425539

network_body._body_endoder.seq_layers.0.weight f4 [256, 11]
0	0x3f3c692a	0.7359797
1	0xbdd3a0ca	-0.103334025
2	0x3eb6df1b	0.3571709
3	0xbed75903	-0.42060098
4	0xbe23bf4e	-0.15990946
5	0x3e48de79	0.19616117
6	0xbdecc593	-0.11561122
7	0xbe600010	-0.21875024
8	0x3f07455e	0.5284022
9	0x3d8152be	0.0631461
10	0x3ce164e1	0.027513923
11	0xbda51728	-0.08061057
12	0xbe11a8a8	-0.14224494
13	0x3d2407f4	0.040046647
14	0x3f457ed6	0.7714666
15	0x3e234095	0.15942605
16	0x3f2f884f	0.68567365
17	0x3d978869	0.07399065
18	0xbee77a43	-0.45210466
19	0xbd70f215	-0.058824617
20	0x3e2abe36	0.16674122
21	0xbdc0c5a8	-0.094127
22	0xbe020b4e	-0.12699625
23	0xbf10fb98	-0.566339
24	0x3dc91df1	0.09820164
25	0xbd72f914	-0.05931957
26	0x3e48173c	0.19540113
27	0xbf231acd	-0.6371277
28	0x3df58fa2	0.119902864
29	0x3d81972d	0.063276626
30	0xbd6eddd6	-0.058317028
31	0xbef81628	-0.48454404
32	0x3df7b899	0.12095756
33	0x3ed5b80e	0.41741985
34	0x3de269d4	0.11055341
35	0x3dbd7cd4	0.09252325
36	0xbe77addc	-0.24187416
37	0x3ee823af	0.45339724
38	0x3f3a6cfc	0.72822547
39	0xbe8c15e8	-0.27360463
40	0xbe51fcf9	-0.20506658
41	0xbe9e1d41	-0.30881694
42	0xbe8a2792	-0.26983315
43	0x3ed0ddb9	0.4079416
44	0x3f2564d7	0.64606994
45	0x3ed081be	0.40723985
46	0xbe32340e	-0.1740267
47	0x3eddd1d2	0.43324143
48	0xbdfad800	-0.1224823
49	0xbf248ea2	-0.6428014
50	0x3d68cb65	0.056834597
51	0xbe34fb23	-0.17673926
52	0x3e27e8b7	0.16397367
53	0xbd38d0ca	-0.04512099
54	0x3e2bacc0	0.16765118
55	0xbf17130b	-0.5901343
56	0x3e11d22e	0.14240333
57	0x3e5dc313	0.21656446
58	0x3e0239e0	0.1271739
59	0xbf14ee66	-0.5817627
60	0x3e77ee72	0.24212053
61	0xbea51e6b	-0.3224977
62	0xbdf4a664	-0.11945799
63	0xbd988e90	-0.07449067
64	0xbe624b3b	-0.2209901
65	0xbe3f0c77	-0.18657099
66	0xbed5ce49	-0.41758946
67	0x3e0efa92	0.13962772
68	0xbe968a84	-0.29402554
69	0xbd595e68	-0.05306855
70	0x3e7ea601	0.24868013
71	0x3d04a975	0.03238817
72	0x3e5f15b2	0.2178562
73	0xbe72336a	-0.23652425
74	0x3ebeb3a8	0.37246442
75	0x3d762cc5	0.06010129
76	0xbdef99f8	-0.11699289
77	0x3e0e3bd4	0.1389001
78	0x3eb694bc	0.3566035
79	0x3ee87f1e	0.45409483
80	0x3e11d9ed	0.14243288
81	0x3f35f7e2	0.71081364
82	0xbdd370b0	-0.10324228
83	0x3edc9cdf	0.43088433
84	0x3e0a9c01	0.13536073
85	0x3e52bfa3	0.20580916
86	0x3d845c76	0.06462948
87	0x3d619c50	0.05508071
88	0xbd982564	-0.07429007
89	0xbe2ff7d4	-0.17184383
90	0xbed321f7	-0.4123685
91	0x3e4c1351	0.19929244
92	0x3d42f381	0.047595505
93	0x3eda9585	0.426922
94	0xbe23431b	-0.15943567
95	0xbdf3e970	-0.11909759
96	0x3d8069ee	0.062702045
97	0x3f076358	0.5288596
98	0x3e8708bb	0.26373848
99	0xbf2128fd	-0.6295317
100	0xbe7ce1e8	-0.24695551
101	0x3e335595	0.17513116
102	0x3ea35325	0.31899372
103	0xbeb5a7ea	-0.3547967
104	0xbe4c50c3	-0.19952683
105	0xbee5953a	-0.44840413
106	0xbe69c87a	-0.22830382
107	0x3d2c81a3	0.04211582
108	0x3c9848d2	0.01858941
109	0xbf1ca761	-0.611929
110	0xbf597208	-0.8493962
111	0xbed9e646	-0.42558497
112	0xbf1a3d02	-0.6024934
113	0x3de0b3d9	0.10971803
114	0xbe3775ab	-0.1791598
115	0xbe294823	-0.16531424
116	0xbe5a5528	-0.21321547
117	0xbf08e045	-0.5346721
118	0xbe701b7b	-0.23447983
119	0xbd7d0092	-0.061768122
120	0xbf08f654	-0.53500867
121	0x3e11ba7f	0.14231299
122	0xbec6ba11	-0.38813832
123	0x3dd0353f	0.10166406
124	0xbe86b9a5	-0.2631351
125	0x3e28e43f	0.16493319
126	0x3eb0fd9e	0.34568495
127	0xbeac0cb9	-0.33603457
128	0xbd15cb4a	-0.036570825
129	0xbc500c93	-0.01269831
130	0xbe187016	-0.14886507
131	0xbd464f42	-0.04841543
132	0x3eea09ef	0.45710704
133	0xbe8b405d	-0.27197543
134	0xbea30cb2	-0.31845623
135	0xbbf04c6e	-0.00733333
136	0x3eadf31c	0.3397454
137	0x3d6f8d58	0.058484405
138	0xbe3526e6	-0.1769062
139	0xbd400032	-0.046875186
140	0xbcff7226	-0.03118236
141	0xbd014a59	-0.031565044
142	0x3ea08965	0.31354824
143	0xbf2df2e3	-0.6794874
144	0xbde6de6b	-0.112728916
145	0xbaa4c3f9	-0.0012570611
146	0x3d3ed880	0.04659319
147	0x3ec1fa19	0.37886122
148	0xbe5aa4de	-0.21351954
149	0x3f018e8b	0.5060813
150	0x3dfa6009	0.122253485
151	0xbe77de06	-0.24205789
152	0x3ebc679e	0.36797804
153	0x3dc5a386	0.0965033
154	0xbe26a39d	-0.16273351
155	0x3dae0eaa	0.08498891
156	0x3e906086	0.28198642
157	0xbe46b020	-0.19403124
158	0xbf17bcb3	-0.5927231
159	0x3dad850c	0.08472642
160	0x3dd996e2	0.10624482
161	0x3e1cef6d	0.15325709
162	0x3d193048	0.03739956
163	0x3d5ddd67	0.054166224
164	0x3ee08237	0.43849346
165	0x3d4ed900	0.050499916
166	0xbe15a29f	-0.14612816
167	0x3e090dc2	0.13384154
168	0x3d942ec9	0.07235486
169	0x3f239609	0.6390081
170	0xbe8ecd6e	-0.27891105
171	0x3e4d17ff	0.20028685
172	0x3f1ee0e4	0.62061906
173	0x3e21eee6	0.15813789
174	0x3e0ea19f	0.13928841
175	0xbe0391bd	-0.12848563
176	0xbe9e03dc	-0.3086232
177	0x3f313561	0.69222075
178	0x3e310a5d	0.1728911
179	0xbd73c49b	-0.05951367
180	0x3e4a9093	0.19781713
181	0xbf1eaba6	-0.61980665
182	0x3dc0cea2	0.09414412
183	0xbbc0b1b2	-0.005880558
184	0xbe8fa7f1	-0.28057817
185	0x3f214d6e	0.63008773
186	0x3e620a7e	0.22074315
187	0x3f06177c	0.52379584
188	0xbe67cb3d	-0.22636123
189	0xbec805d7	-0.39066955
190	0x3e4a1569	0.1973473
191	0xbdbfe4dc	-0.09369823
192	0x3e8818a5	0.26581302
193	0xbe3a9dcd	-0.18224259
194	0x3efbeded	0.4920496
195	0xbe9be438	-0.30447555
196	0x3ef81288	0.48451638
197	0xbe34808c	-0.17627162
198	0xbe69861a	-0.22805062
199	0x3e9c8ee7	0.30577776
200	0xbed50995	-0.41608873
201	0x3e20401b	0.15649454
202	0xbe948b6b	-0.29012617
203	0x3e052e66	0.13005981
204	0xbd56b1e7	-0.052415755
205	0xbeb00b48	-0.34383607
206	0xbef183f4	-0.47170985
207	0xbe8d7bf3	-0.27633628
208	0xbe2c66d6	-0.16836104
209	0x3f2a765c	0.6658685
210	0x3db78b12	0.089620724
211	0x3e1add52	0.1512349
212	0x3f053529	0.5203424
213	0x3f001540	0.50032425
214	0x3f1ff8ff	0.6248931
215	0xbf0f5b1e	-0.5599841
216	0xbdd008e7	-0.10157948
217	0xbe1358bb	-0.14389317
218	0x3ee2f57c	0.44327915
219	0xbd276427	-0.040866997
220	0x3e45421d	0.19263501
221	0xbe1b6bd4	-0.15177852
222	0x3ee6a3eb	0.45046934
223	0x3ef15c1d	0.4714059
224	0xbea8a124	-0.3293544
225	0x3e0c7711	0.13717295
226	0xbdb2f791	-0.08738626
227	0xbe7d74e5	-0.24751623
228	0xbe45328c	-0.19257563
229	0xbe8b043a	-0.27151662
230	0xbd8853c6	-0.066566035
231	0xbd3c10bc	-0.045914397
232	0xbe8f6ee2	-0.28014284
233	0x3e1ad580	0.15120506
234	0x3e518110	0.2045939
235	0x3e4cb300	0.19990158
236	0xbe90d5db	-0.2828816
237	0xbe30abf4	-0.17253095
238	0xbda6b809	-0.08140571
239	0x3e167106	0.14691553
240	0xbd278dd7	-0.040906753
241	0x3da0c140	0.078493595
242	0xbd7f7ffe	-0.062377922
243	0x3e5f59bd	0.21811576
244	0x3ed6d13b	0.41956505
245	0x3dae80a0	0.08520627
246	0x3dd4dbae	0.10393463
247	0xbd05a5c6	-0.032628797
248	0x3e41236b	0.18861167
249	0xbcff5783	-0.031169659
250	0xbf2fdfb5	-0.68700725
251	0xbec37dc3	-0.38181886
252	0x3d01b04a	0.031662263
253	0xb97c89bc	-0.00024083903
254	0x3bde243b	0.0067792214
255	0x3e154e46	0.1458064

network_body._body_endoder.seq_layers.0.bias f4 [256]
0	0x3c3d6e03	0.011561873
1	0x3cbe2f13	0.023215806
2	0x3cb0586b	0.021526536
3	0x39d1c4ff	0.0004001036
4	0x3cd9075c	0.026492767
5	0x3a4fbc24	0.00079244585
6	0x3cbc2c42	0.022970323
7	0x3c080641	0.008302272
8	0xbc01a8fc	-0.007913824
9	0xbd061f1c	-0.032744512
10	0xbb08fba4	-0.0020901943
11	0x3bf6255a	0.007511777
12	0x3ca9876a	0.020694453
13	0xbaa4d4c1	-0.0012575613
14	0xbbb2723d	-0.005445747
15	0xbcc8c454	-0.024507679
16	0x3c85afc1	0.016319158
17	0xbb787d2e	-0.003791641
18	0xbbb6ca22	-0.0055782953
19	0xbc04b4a1	-0.008099706
20	0xbbb63c5f	-0.005561396
21	0xbc97535a	-0.018472362
22	0x3c85455b	0.016268423
23	0xbd37ef9d	-0.044906247
24	0x3d1a86b4	0.03772612
25	0xbca11687	-0.019664062
26	0x3cd7c70c	0.02634003
27	0xbd16a219	-0.036775682
28	0xbcaee72e	-0.02135047
29	0xbc72a574	-0.014809955
30	0xbac30dc2	-0.001488142
31	0xbbb9e927	-0.005673546
32	0x3b337952	0.0027385545
33	0xbb7e04f8	-0.0038760286
34	0xbb8b8e82	-0.0042589316
35	0x37bbf288	2.2405075e-05
36	0x3c899475	0.016794423
37	0xbc01beb3	-0.007919001
38	0x3a06ab7d	0.0005137248
39	0x3c49b6f3	0.012311685
40	0xbc873c34	-0.0165082
41	0x3c88cfc9	0.016700642
42	0x3c826e14	0.01592163
43	0xbd16be32	-0.036802478
44	0xbcfdeb2a	-0.030995924
45	0x3c9f0254	0.01941029
46	0x396e35c0	0.00022717472
47	0x3a7a068b	0.0009537718
48	0x3b2d8ef4	0.0026482912
49	0xbc6cf05f	-0.014461606
50	0x3c38d4fa	0.011281246
51	0x3c7605e4	0.015016053
52	0x3ac26dcf	0.0014833751
53	0x3d04ff3c	0.032469973
54	0x3cc9d05c	0.024635486
55	0x3c127647	0.008939332
56	0xbd19afad	-0.037521053
57	0xbb38c2ba	-0.0028192238
58	0xbaa44b38	-0.0012534624
59	0x3c8026d0	0.015643507
60	0x3a3fea48	0.00073209824
61	0x3cc0c36d	0.023530686
62	0x3d05bb58	0.032649368
63	0x3d07ef0f	0.03318697
64	0x3c752516	0.014962455
65	0x3b2fc472	0.0026819971
66	0xbc825708	-0.01591064
67	0x3b916c76	0.0044379784
68	0xbd11815d	-0.03552376
69	0xb95b9007	-0.00020939122
70	0x3cbe2470	0.023210734
71	0x3ccab095	0.024742404
72	0x3cab49c3	0.020909196
73	0xbcb81480	-0.022470713
74	0x3cfd9dea	0.030959088
75	0xbc379a1c	-0.011206176
76	0x3cd90f35	0.02649651
77	0xbcc4ea5d	-0.024037534
78	0x3cb88a76	0.02252696
79	0xbc3bb39e	-0.011456398
80	0x3d669776	0.05629679
81	0xbcbbfb27	-0.022946907
82	0x3c821284	0.01587797
83	0x3c26e63c	0.010186728
84	0x3c980188	0.018555418
85	0x3c98160b	0.018565198
86	0x3c98721b	0.018609097
87	0x3c6a293f	0.01429206
88	0x3be8c84f	0.007103957
89	0xbcc3d048	-0.023903027
90	0xbaec8577	-0.0018045147
91	0x3cd98c8b	0.026556274
92	0xbd051a55	-0.032495815
93	0xbcbbdae8	-0.022931531
94	0xbb530444	-0.0032198587
95	0xbb51650b	-0.0031951095
96	0xbb966337	-0.004589464
97	0xbc0248b0	-0.0079519
98	0x3be34013	0.0069351285
99	0x3b225762	0.0024771322
100	0x3c92fe49	0.017943518
101	0xbc996c17	-0.018728299
102	0xbbe7c747	-0.0070733163
103	0xbba5ba0e	-0.00505758
104	0x3c811aa6	0.015759777
105	0xbaa5863d	-0.0012628507
106	0x3ab251d9	0.0013604715
107	0x3c0bb7b7	0.008527688
108	0x3be73966	0.007056403
109	0xbd13f4ea	-0.03612224
110	0xbc808b52	-0.015691433
111	0xbc48f601	-0.012265683
112	0x3ce3ce76	0.02780841
113	0x3af7eb2a	0.0018914689
114	0xbced8e2b	-0.028998455
115	0xbbbd71cf	-0.0057813893
116	0xbcd4e821	-0.025989594
117	0xbc7683e9	-0.015046098
118	0xbca9309e	-0.020653065
119	0x3cac1a9e	0.021008786
120	0xbced3fd6	-0.028961103
121	0x3c9582b1	0.018250795
122	0xbc5ad8cf	-0.013357355
123	0xbcb9900f	-0.0226517
124	0xbd09fcd4	-0.03368838
125	0xbccecc59	-0.025243925
126	0xbc22ddac	-0.009940546
127	0x3bb0620e	0.005382783
128	0xbbd6dbbe	-0.006556957
129	0xbb8519c3	-0.004061909
130	0x3c135f91	0.008994953
131	0xbc7c58f3	-0.0154020665
132	0x3c390b46	0.011294192
133	0xba332948	-0.00068344595
134	0x3d3da74a	0.046302117
135	0xbb4af1b5	-0.0030966823
136	0x3c769f83	0.015052679
137	0xba529cdb	-0.00080342375
138	0x3a99e1b6	0.0011740241
139	0xbce5b337	-0.028039558
140	0x3c1e8c2d	0.009676975
141	0x3c53e1ef	0.012932285
142	0xbd093f27	-0.033507492
143	0xbb4f21f2	-0.0031605926
144	0x3cc9c1de	0.024628576
145	0xba912145	-0.0011072537
146	0x3c9cd839	0.019146072
147	0xbd20ceb1	-0.039259616
148	0x3b74847f	0.003731042
149	0xbc653d88	-0.013991721
150	0x3cacf0f3	0.021110987
151	0xbc15eb73	-0.009150374
152	0x3cea783c	0.028621785
153	0x3cc49191	0.023995193
154	0x3ce97192	0.028496537
155	0x3bbc5a13	0.0057480424
156	0x3d16f566	0.036855124
157	0x3cfdc22d	0.03097638
158	0x3cc2c732	0.023776624
159	0x3c6936c9	0.014234253
160	0x3cc1de53	0.023665583
161	0xbc41643b	-0.011803682
162	0x3c08bcb0	0.008345768
163	0x3cae01c4	0.021241076
164	0x3d0f48f9	0.0349817
165	0xbd364d0a	-0.044507064
166	0xbcd58119	-0.026062535
167	0x3aba0b7e	0.0014194099
168	0xbba90cfb	-0.005159018
169	0xbb2378c3	-0.0024943806
170	0xbc572086	-0.013130313
171	0x3d4dc189	0.050233398
172	0x3d2571d5	0.04039176
173	0xbc8ff33b	-0.017572036
174	0x3bf0f7f0	0.007353775
175	0x3c150b54	0.009096939
176	0x3cbb1b96	0.022840302
177	0x3bce59f9	0.0062973467
178	0x3ca93383	0.020654446
179	0x3cbb40cf	0.022858052
180	0xbca6be5e	-0.020354446
181	0xbc94e74f	-0.018176703
182	0x3bebf127	0.0072003785
183	0x3d26d66f	0.040731844
184	0x3c98894f	0.018620161
185	0x3c8bc7dd	0.017063076
186	0xbb1c95ed	-0.0023893074
187	0x3cbb10ab	0.022835096
188	0x3c9759d5	0.018475452
189	0xbc7b2ccc	-0.015330505
190	0xbc354650	-0.011064127
191	0xbcc9e2b1	-0.024644228
192	0xbc11bc7f	-0.008895039
193	0x3d08a633	0.033361625
194	0xb9ee8b79	-0.00045498813
195	0xbc1b8e03	-0.009494307
196	0x3c9f96c9	0.01948108
197	0xbcd87c3d	-0.026426429
198	0xbc2336f5	-0.009961833
199	0xbc0bc556	-0.008530935
200	0x3c94d9b0	0.018170208
201	0x3bc6566e	0.0060527837
202	0xbcc856a1	-0.02445537
203	0x3c8bb143	0.017052298
204	0x3d1033bf	0.0352056
205	0x3bfe7c91	0.0077663143
206	0xbcd8cd1d	-0.026464993
207	0x3c48835e	0.012238352
208	0x3d399bf4	0.045314744
209	0xbbf24276	-0.0073931767
210	0x3bd5c010	0.00652314
211	0x3d320fe9	0.043472204
212	0x3d281fae	0.041045837
213	0xbc8377a0	-0.016048253
214	0xbba1b597	-0.0049349773
215	0x3c595241	0.01326424
216	0x3b935a48	0.0044968463
217	0x3c02646b	0.007958512
218	0x3ce06301	0.027390959
219	0x3bdbc6aa	0.006707032
220	0xbd56f73f	-0.052481886
221	0xbcf61ce6	-0.030043077
222	0xbc44b08b	-0.012004982
223	0x3c1dfb62	0.009642454
224	0x3b708cd0	0.0036705025
225	0xbd28df6e	-0.041228704
226	0x3c2e072b	0.010621826
227	0xbc33b1a7	-0.010967649
228	0x3c743095	0.014904161
229	0x3b761a31	0.0037552232
230	0xbc0859d5	-0.008322199
231	0xbc1116a3	-0.008855495
232	0x3d172c6a	0.03690759
233	0x3ce2d790	0.027690679
234	0x3d1e0a3e	0.038583986
235	0xbbd53c57	-0.006507437
236	0x3b1bb033	0.0023756146
237	0x3cc2eec9	0.023795502
238	0x3cbc5484	0.022989519
239	0x3ca46f4c	0.020072602
240	0x3bc1a571	0.0059096147
241	0x3c96d37b	0.018411389
242	0xbccd899c	-0.025090031
243	0x3b963208	0.004583601
244	0xbc7886b6	-0.015168836
245	0x3c837b59	0.016050028
246	0x3b6c0a98	0.0036017057
247	0x3c383a5f	0.0112443855
248	0xb974eda7	-0.00023358186
249	0x3bee4259	0.007271093
250	0x3d198ec6	0.037489675
251	0x3cbd617c	0.023117773
252	0x3c887f05	0.01666213
253	0x3d3e31f5	0.04643436
254	0x3c902750	0.01759687
255	0x3c3e803a	0.011627251

network_body._body_endoder.seq_layers.2.weight f4 [256, 256]
0	0xbe037364	-0.12836987
1	0xbd8b8070	-0.06811607
2	0x3d9f1b66	0.07768898
3	0x3be8a054	0.0070991907
4	0xbd9865cb	-0.074412905
5	0xbda68b2c	-0.08132014
6	0x3d3dd486	0.046345256
7	0x3c918790	0.017764837
8	0xbd9366e2	-0.07197358
9	0x3d9c24c9	0.07624204
10	0xbdfcae9e	-0.12337993
11	0xbd2df432	-0.04246921
12	0xbddefa71	-0.10887612
13	0x3de3470f	0.11097538
14	0x3cc33295	0.02382783
15	0x3d2c9164	0.042130843
16	0x3dd32a42	0.103107944
17	0x3ce521e3	0.02797026
18	0xbd6a7132	-0.057236858
19	0x3dfb2737	0.12263339
20	0xbc915256	-0.017739456
21	0x3cdcd2a3	0.026955908
22	0xbd6b7fd6	-0.05749496
23	0x3d74fe94	0.059813097
24	0x3c42b9d1	0.011885122
25	0x3de32139	0.11090321
26	0xbd801c65	-0.06255416
27	0x3da4f75c	0.080549926
28	0xbdb2167d	-0.086956955
29	0x3db395e6	0.08768825
30	0xbdc156b8	-0.094403684
31	0x3d3f2294	0.046663836
32	0xbd21933a	-0.039447047
33	0xbdbcf70e	-0.092268094
34	0xbdaa24b6	-0.08307783
35	0x3d813b11	0.06310094
36	0xbe127732	-0.14303282
37	0xbda87498	-0.082253635
38	0xbdeffd9c	-0.11718294
39	0xbc791b47	-0.015204257
40	0xbd3d465a	-0.04620967
41	0xbcbc661d	-0.02299791
42	0xbce15cf8	-0.027510151
43	0xbd52091d	-0.051278222
44	0x3d834220	0.06409097
45	0x3d8d8248	0.06909615
46	0x3b88ab4c	0.004170811
47	0x3e09e9f5	0.13468154
48	0x3dce1f1b	0.10064527
49	0xbda80b48	-0.08205277
50	0xbbdb42d6	-0.006691317
51	0xbe0ca563	-0.13734965
52	0x3d8d45de	0.06898092
53	0xbdcf0a07	-0.101093344
54	0x3e2b4a1f	0.16727494
55	0x3ce0634c	0.027391098
56	0xbce402aa	-0.027833302
57	0x3dd5ace0	0.10433364
58	0x3c79f163	0.015255305
59	0x3a998661	0.0011713022
60	0xbd851670	-0.0649842
61	0xbd9375c9	-0.072002
62	0x3b9be6a1	0.0047577177
63	0x3dd6769a	0.1047184
64	0x3d4f2ad4	0.050577953
65	0xbdb7daed	-0.08977304
66	0x3d25e816	0.040504538
67	0xbd1d3c79	-0.03838775
68	0x3d71f920	0.059075475
69	0xbd096fb7	-0.033553805
70	0x3dd63ea1	0.10461164
71	0x3d32ea91	0.04368073
72	0x3c1e2335	0.009651949
73	0x3d50f100	0.051011086
74	0x3dd626d0	0.10456622
75	0x3d05f40d	0.032703448
76	0xbdb36549	-0.08759553
77	0xbd51d417	-0.051227655
78	0xbdb361fc	-0.087589234
79	0x3cb662db	0.022263935
80	0x3d8918f6	0.06694214
81	0xbce661c4	-0.02812279
82	0xbccaae26	-0.024741244
83	0x3d88b182	0.06674482
84	0x3d7e590e	0.062096648
85	0x3cc81a6f	0.024426667
86	0xbca08252	-0.019593392
87	0xb9f0f22b	-0.00045956796
88	0xbd187826	-0.037223957
89	0x3ddbbfb8	0.10729927
90	0xbc251faa	-0.01007835
91	0x3df57e61	0.119869955
92	0x3cd257fd	0.025676722
93	0x3e2f5d5b	0.17125456
94	0xbdf1fa9f	-0.1181538
95	0x3b5f3270	0.0034057163
96	0x3d0025f3	0.03128619
97	0xbd84f601	-0.06492234
98	0x3d9aff30	0.075682044
99	0xbd36e0fe	-0.044648163
100	0xbd5fcd16	-0.054638945
101	0xbdd85f1e	-0.10565017
102	0xbdcad5de	-0.09904073
103	0x3b730bb9	0.0037085845
104	0x3d894295	0.06702153
105	0x3ddc7c3f	0.107658856
106	0x3d0d3550	0.03447467
107	0xbceddd93	-0.029036319
108	0x3c621091	0.013797895
109	0xbd466b59	-0.04844222
110	0x3d4a69b0	0.049417198
111	0x3c9b0c29	0.018926697
112	0xbd049c75	-0.03237577
113	0x3d84480b	0.064590536
114	0xbd81b1d2	-0.06332745
115	0xbb350587	-0.0027621703
116	0xbdb3ee79	-0.087857194
117	0x3d146121	0.03622544
118	0xbdcbc7f0	-0.099502444
119	0xbd8ebe43	-0.06969883
120	0xbcc05512	-0.023478065
121	0xbd22fe22	-0.03979314
122	0x3c86957f	0.016428707
123	0xbd332d82	-0.04374457
124	0x3db29856	0.08720462
125	0xbd90aa37	-0.07063716
126	0x3d1d5e9b	0.0384203
127	0xbd891072	-0.0669259
128	0x3bc61306	0.0060447482
129	0x3d0ffdf8	0.035154313
130	0xbe312b8a	-0.17301765
131	0xbc3198cc	-0.010839652
132	0x3d23b74c	0.039969727
133	0xbd8ab140	-0.06772089
134	0x3c8dfcec	0.017332517
135	0xbd36d77a	-0.04463909
136	0x3cadd724	0.021220751
137	0xbd5dc964	-0.05414714
138	0x3cd0c157	0.025482817
139	0xbd45e576	-0.048314534
140	0xbcc185ed	-0.023623431
141	0x3e0bf6c9	0.1366836
142	0x3d700efb	0.058608036
143	0xbca5aad9	-0.020223068
144	0x3b76068a	0.0037540519
145	0x3d0af8b7	0.0339286
146	0xbdc3b0a0	-0.09555173
147	0x3cfe75f6	0.031062108
148	0x3c525e6b	0.012839894
149	0x3d860690	0.065442204
150	0x3d78d34a	0.060748376
151	0x3d1af308	0.03782943
152	0x3de8a6c3	0.11359932
153	0x3ca2a7dc	0.019855432
154	0xbd3ce7bf	-0.046119448
155	0xbc166e06	-0.009181505
156	0x3d99d814	0.07511917
157	0x3c761b1a	0.01502111
158	0x3cd7f359	0.026361154
159	0x3df3f4dc	0.119119376
160	0xbdec69b1	-0.115435965
161	0xbdf24517	-0.11829584
162	0x3c201995	0.009771724
163	0x3d17fa48	0.03710392
164	0x3da67d74	0.08129397
165	0xbc895088	-0.016762033
166	0xbd2c2aca	-0.042032994
167	0xbd0fd12c	-0.03511159
168	0x3d55017d	0.052003372
169	0xbe083960	-0.13303137
170	0x3ccf46e7	0.025302364
171	0x3d044fe2	0.032302745
172	0x3bfd701f	0.007734313
173	0xbbf7e578	-0.0075651966
174	0xbc5e6b92	-0.013575451
175	0x3d351eff	0.044219013
176	0x3dde03bf	0.10840558
177	0x3c94b736	0.018153768
178	0xbc867eb4	-0.016417839
179	0xbccca6b0	-0.024981827
180	0xbcaf5d5b	-0.02140682
181	0x3c5faf83	0.013652685
182	0x3d8b9979	0.06816382
183	0x3cdf9e45	0.027297148
184	0xbc8aef0f	-0.016959695
185	0x3d8be2ff	0.068304054
186	0x3d59d2e9	0.053179655
187	0xbd746ca9	-0.05967394
188	0xbc8e51aa	-0.017372925
189	0x3cbe1992	0.023205552
190	0xbe64aa98	-0.22330701
191	0x3d37cc63	0.044872653
192	0xbd8f14c2	-0.06986381
193	0xbc9877b0	-0.018611759
194	0xbbcfc2a9	-0.006340344
195	0x3df3e299	0.119084544
196	0x3d3ee84f	0.046608265
197	0x3d812968	0.06306726
198	0x3cd26130	0.025681108
199	0xbcb62a32	-0.022236917
200	0xbdec55b5	-0.11539785
201	0xbc80179c	-0.015636258
202	0xbdd936cf	-0.10606157
203	0x3c912b0a	0.017720718
204	0xbc36bc6b	-0.011153321
205	0xbe4290d6	-0.19000563
206	0xbd54b0cb	-0.051926415
207	0x3d852d6b	0.065028034
208	0x3d2fc382	0.04291106
209	0xbb471856	-0.0030379496
210	0xbd1149ee	-0.035470895
211	0x3db03552	0.0860392
212	0xb9fa313d	-0.000477204
213	0xbd971580	-0.07377148
214	0x3ac4fc04	0.001502872
215	0xbc8b8116	-0.017029326
216	0xbccc19c4	-0.02491463
217	0xbdd5ca6a	-0.10438998
218	0x3dbea902	0.093095794
219	0x3dfcd189	0.12344653
220	0xbe1d2c68	-0.15348971
221	0x3db874a9	0.09006626
222	0xbdbd351a	-0.09238644
223	0xbd35c0f1	-0.044373456
224	0x3d5849a8	0.05280462
225	0x3afce021	0.001929287
226	0x3d99f4f9	0.07517428
227	0x3cd9398b	0.026516696
228	0x3db8628d	0.09003172
229	0x3d02234d	0.031771947
230	0x3c9f66ad	0.01945814
231	0x3da4d063	0.08047559
232	0xbd62a361	-0.05533159
233	0x3d47f71b	0.048819643
234	0xbce78dc6	-0.028265845
235	0x3d8ecaec	0.06972298
236	0xbdeb46bc	-0.11488101
237	0x3d5abc71	0.053402368
238	0xbc136a78	-0.008997552
239	0xbbd3573d	-0.0064496086
240	0xbd2d5b54	-0.042323425
241	0x3d8a35a2	0.06748511
242	0x3da10419	0.0786211
243	0xbd221e53	-0.0395797
244	0x3c4e5370	0.012593135
245	0x3d84aff4	0.06478873
246	0xbd754511	-0.05988032
247	0xbd9eb59f	-0.07749485
248	0xbdb0461d	-0.08607123
249	0x3d869c13	0.065727375
250	0x3cd6410f	0.02615407
251	0xbd2d9f0a	-0.042388
252	0xbb3cb2b5	-0.002879304
253	0xbd257ca4	-0.04040207
254	0xbd2c354b	-0.04204301
255	0xbd403685	-0.046926994

network_body._body_endoder.seq_layers.2.bias f4 [256]
0	0x3ad94c1a	0.0016578466
1	0xbbf12a3a	-0.00735977
2	0xbb54be59	-0.003246209
3	0xbc258891	-0.010103361
4	0xbc2e5f0e	-0.01064278
5	0x3ba36bd7	0.0049872207
6	0xbd378921	-0.04480851
7	0xbcc274d1	-0.023737343
8	0xbbf69b62	-0.0075258473
9	0x3c62f174	0.013851512
10	0x3cec584b	0.028850695
11	0x3ca98180	0.020691633
12	0x3c9a287a	0.018818129
13	0x3cb9348b	0.022608062
14	0xbcc4012c	-0.02392634
15	0xbd182ae8	-0.037150294
16	0xbd3975ad	-0.04527824
17	0xbc20b79b	-0.0098094
18	0x3cd37190	0.025810987
19	0xbc6a82c2	-0.014313402
20	0xbd0b0c5d	-0.033947337
21	0x3c13ad8d	0.009013546
22	0x3cca18e7	0.024670077
23	0xbcec9eb3	-0.028884267
24	0xbca72422	-0.020402972
25	0x3bcc4851	0.0062342067
26	0xbc9eb797	-0.019374652
27	0xbc0a0cfe	-0.008425949
28	0x3c8c082a	0.017093737
29	0x3b25200b	0.00251961
30	0x3ca1702a	0.019706804
31	0xbc86386d	-0.016384328
32	0x3d0427ef	0.032264646
33	0xbb337a6b	-0.00273862
34	0xbac2f045	-0.0014872631
35	0xbd49b414	-0.049244
36	0xb8c29740	-9.2788134e-05
37	0xbbf088c2	-0.0073405216
38	0xbb83f270	-0.0040267035
39	0xbc54a85f	-0.012979596
40	0x3bd456c2	0.006480069
41	0xbca67432	-0.020319078
42	0x3d049522	0.032368787
43	0x3c34a87e	0.0110265
44	0xbd0f0964	-0.034921065
45	0xbd1dc63a	-0.03851912
46	0x3cd734a2	0.026270214
47	0xbc703a42	-0.014662327
48	0x3c9f237a	0.019426096
49	0xbcfb91f8	-0.030709252
50	0x3b2f80b2	0.002677959
51	0x3b11b8ac	0.0022235317
52	0x3a34b842	0.00068939116
53	0x3b8b15cb	0.0042445413
54	0xbbfda4c0	-0.007740587
55	0x3c658df0	0.014010891
56	0xbd18396b	-0.037164133
57	0x3bc0c616	0.0058829887
58	0xbd0624fc	-0.032750115
59	0xbce38137	-0.027771575
60	0xbbad521b	-0.0052893288
61	0xbc608d59	-0.013705575
62	0x3c6ac120	0.014328271
63	0xbc215273	-0.009846318
64	0x3ab15c69	0.0013531569
65	0xbd3171eb	-0.04332153
66	0xbb415770	-0.002950158
67	0xbcd3b922	-0.025845114
68	0x3c7e1572	0.015508043
69	0xbd1504df	-0.0363816
70	0xbc4cad12	-0.012492435
71	0x3c36ec62	0.0111647565
72	0xba1a5987	-0.00058879744
73	0xbc3c89bb	-0.011507447
74	0xbc743fcb	-0.014907788
75	0xbd0ec357	-0.03485426
76	0x3bfd7a78	0.0077355467
77	0x3d04ea3e	0.032449953
78	0x3ba2ddc4	0.004970284
79	0xbc9a5fd6	-0.018844526
80	0x3b8f2127	0.0043679657
81	0xbcc8d444	-0.024515279
82	0xbd0d17fc	-0.0344467
83	0x3b940160	0.0045167655
84	0x3d03381d	0.032035936
85	0xbd0d3e65	-0.034483332
86	0xbd3d6ace	-0.046244435
87	0xbca38f06	-0.01996566
88	0xbd2e20c7	-0.042511728
89	0xbb95c400	-0.004570484
90	0xbccccbe2	-0.024999563
91	0x3c385dd2	0.011252837
92	0x3c9a9d80	0.01887393
93	0x3ce66381	0.028123619
94	0xbd173379	-0.036914323
95	0x3c9b2ff1	0.018943759
96	0xbca07574	-0.019587256
97	0xbcd7fc9b	-0.026365569
98	0x3b30177e	0.0026869471
99	0xbc2961b4	-0.010338236
100	0xbbd27e08	-0.0064237155
101	0xbd312372	-0.043246694
102	0xbbe053d4	-0.0068459306
103	0xbc93035a	-0.017945934
104	0xbc9c7d79	-0.019102799
105	0xbc8b571c	-0.01700931
106	0xbccb4065	-0.02481098
107	0x3bc00cb9	0.0058608917
108	0xbc93ca4e	-0.018040802
109	0xbc6bb25a	-0.014385784
110	0xbc2eec79	-0.010676497
111	0xbd025057	-0.0318149
112	0x3ca6e5de	0.020373281
113	0xbccf67be	-0.025318023
114	0xbc946954	-0.01811663
115	0xbc2a5d7f	-0.010398268
116	0x3ba8b495	0.00514848
117	0xbc02320c	-0.007946502
118	0x3cdd24d0	0.026995093
119	0x3b469fa2	0.003030755
120	0xbc1c9ef9	-0.009559386
121	0x3bcf5c89	0.0063281697
122	0x3a30b18e	0.0006740325
123	0xbcba5e75	-0.022750119
124	0xbcaf0cd8	-0.021368429
125	0xba348d73	-0.00068875327
126	0xbc083eab	-0.008315722
127	0xbbde7792	-0.0067891562
128	0x3be08f87	0.0068530473
129	0xbc7c9f08	-0.015418775
130	0x3cc8e4b7	0.024523122
131	0xbbb9fd7f	-0.005675971
132	0xbd51b984	-0.051202312
133	0xbcdc3a9d	-0.026883418
134	0xbd0bf10f	-0.03416544
135	0x3c697127	0.014248169
136	0xbc3535e1	-0.011060209
137	0xbca0cce7	-0.019628955
138	0xbcb490de	-0.022041734
139	0xbc5d7e13	-0.013518828
140	0x3c023698	0.0079475865
141	0x3c92685f	0.017872034
142	0xbd02808c	-0.031860873
143	0xbcb4c8eb	-0.022068461
144	0xbb80f6ac	-0.0039356556
145	0xbc90cfbc	-0.01767718
146	0xbbee84d1	-0.0072790165
147	0xbd0ba6cb	-0.034094613
148	0x3cab0c66	0.020879935
149	0x3cb71577	0.022349102
150	0xbca757f4	-0.020427682
151	0x3c1aca59	0.0094476575
152	0x3c800141	0.015625598
153	0xbcf24c7a	-0.029577482
154	0x3c144770	0.009050235
155	0xbd306474	-0.04306455
156	0xbd1ddd35	-0.038541038
157	0x3c140eeb	0.00903676
158	0xbcd74172	-0.026276324
159	0x3c8ae6e7	0.016955806
160	0x3c2bda45	0.010489051
161	0xbbad47e1	-0.0052881096
162	0x3ca060a5	0.019577334
163	0x3cc19b5a	0.023633648
164	0x39eaca02	0.00044782466
165	0xbc9013c5	-0.017587552
166	0x3cbf5812	0.023357425
167	0xbbf44246	-0.0074541895
168	0x3c85ab6d	0.016317094
169	0x3c3e2820	0.011606246
170	0xbce5c43d	-0.028047675
171	0x3cc6f1b7	0.02428518
172	0x3c565e6f	0.013084038
173	0xbce13adb	-0.027493885
174	0xbb45313d	-0.0030089163
175	0xbbc18f58	-0.0059069805
176	0xbbbebbd9	-0.005820733
177	0xbd05722b	-0.032579582
178	0x3b54d26f	0.003247406
179	0x3be737c6	0.0070562093
180	0x3d10be53	0.035337757
181	0x3c07809d	0.00827041
182	0xbd177112	-0.036973067
183	0x3c3234f3	0.010876882
184	0xbd2cb1f9	-0.042161915
185	0x3c51480d	0.012773526
186	0xbc08a4c1	-0.008340062
187	0xbcfc6856	-0.03081147
188	0x3b8b76cd	0.0042561055
189	0x3cb1b282	0.021691564
190	0x3c343769	0.010999539
191	0xbc336a4e	-0.010950638
192	0xbd0a89ed	-0.033822943
193	0x3c1ef91c	0.009702947
194	0xbd093d79	-0.03350589
195	0xbcd467bb	-0.025928369
196	0xbb87d961	-0.0041457866
197	0xbc9d56a9	-0.019206362
198	0x3c168a8a	0.009188304
199	0x3cbc4f41	0.02298701
200	0xbc22208e	-0.009895457
201	0xbb86a46a	-0.004108955
202	0x3b8b5264	0.004251765
203	0x3c97e8b2	0.018543575
204	0x3aa43849	0.0012528981
205	0xbcb1bfbd	-0.021697873
206	0xbcca7b60	-0.024717033
207	0xbcedaa17	-0.02901177
208	0x3c13f062	0.00902948
209	0x3cc7f55f	0.024408994
210	0xbc491f9f	-0.012275605
211	0x3b149527	0.002267191
212	0xbd325ab1	-0.04354352
213	0xbca6dcff	-0.020369051
214	0xbd0e5b10	-0.034754813
215	0xbc4701e3	-0.012146446
216	0xbcf73f69	-0.030181604
217	0xbc198f70	-0.009372577
218	0x3b68f700	0.0035547614
219	0xbc599318	-0.013279699
220	0x3d09c1a4	0.033631936
221	0xbcbfcaa6	-0.02341206
222	0x3c964174	0.018341757
223	0xbc4e3001	-0.012584687
224	0x3aec22f9	0.0018015794
225	0x3c061875	0.008184542
226	0xbcb29af4	-0.021802403
227	0xbcc0c11c	-0.023529582
228	0x3c0d4af7	0.00862383
229	0xbc4060c9	-0.011741825
230	0xbc37f493	-0.011227745
231	0xbb9ff736	-0.0048817648
232	0xbc6eb220	-0.0145688355
233	0xbba64977	-0.0050746757
234	0xbce66a27	-0.02812679
235	0xbcad44d0	-0.021150976
236	0xbca896d8	-0.02057974
237	0xbce90bdd	-0.02844804
238	0x3a8b3491	0.0010620524
239	0xbcd54f29	-0.026038723
240	0x3c00deef	0.0078656515
241	0xbb549cab	-0.0032442014
242	0x3ba03704	0.004889371
243	0x3b9df3e9	0.004820336
244	0x3ca77d9d	0.02044564
245	0x3c3bdafd	0.011465785
246	0x3c786862	0.015161606
247	0xbcfef9ff	-0.031125067
248	0x3c386356	0.011254152
249	0x3ad76b2e	0.001643514
250	0xbc545452	-0.012959557
251	0xbc4d0376	-0.012513032
252	0x3c8fe56e	0.017565455
253	0xbc43aa40	-0.011942446
254	0x3b87f1f1	0.0041487147
255	0x3cbebb94	0.023282804

network_body._body_endoder.seq_layers.4.weight f4 [256, 256]
0	0x3d704321	0.05865777
1	0xbe08ad94	-0.13347465
2	0x3dd45793	0.10368266
3	0xbe159255	-0.14606602
4	0xbd1fba2a	-0.0389959
5	0x3d8750a3	0.06607177
6	0xbbf8febb	-0.0075987256
7	0xbd8c165d	-0.06840203
8	0x3db00242	0.08594181
9	0xbd6c5a92	-0.057703562
10	0xbd917591	-0.07102502
11	0xbc6b4f23	-0.014362129
12	0x3d25ee8b	0.040510695
13	0x3da98dab	0.08278974
14	0x3d722669	0.059118662
15	0xbda81796	-0.08207624
16	0x3dbec1d4	0.093143135
17	0x3df70133	0.120607756
18	0xbd27defc	-0.04098414
19	0x3c9ed303	0.019387728
20	0xbd18eec6	-0.037337087
21	0xbcf10b79	-0.029424416
22	0x3d9de341	0.07709361
23	0xbca50426	-0.02014358
24	0xbda2dfac	-0.07952818
25	0x3d98e636	0.07465784
26	0xbc1c4864	-0.009538744
27	0xbd8c3391	-0.06845773
28	0x3ddfb527	0.10923224
29	0xbd2472e6	-0.04014864
30	0xbc5322d2	-0.01288672
31	0xbd96ded6	-0.07366721
32	0x3cf42bca	0.029806037
33	0xbd0480c1	-0.03234935
34	0x3d958f73	0.073027514
35	0x3bc83ab0	0.0061105117
36	0x3c0bbca1	0.008528859
37	0x3d8a7508	0.06760603
38	0xbd1a480a	-0.037666358
39	0x3a77ebef	0.0009457459
40	0x3d0fbd79	0.035092805
41	0xbd390b03	-0.045176517
42	0x3dc2e594	0.09516445
43	0x3c92341e	0.017847117
44	0xbd2441b9	-0.04010174
45	0x3b516ba1	0.003195502
46	0x3d989d20	0.07451844
47	0xbd80eb10	-0.062948346
48	0xbd0225c6	-0.031774305
49	0xbdbe8fc7	-0.09304767
50	0xbde34f7e	-0.11099146
51	0x3d33271b	0.043738466
52	0xbdc4ddcf	-0.09612619
53	0xbe038588	-0.12843907
54	0xbd77c653	-0.06049187
55	0xbe0503be	-0.12989709
56	0x3d04e6ff	0.032446858
57	0x3daf16e9	0.08549292
58	0xbd9866eb	-0.07441505
59	0x3d79cfa2	0.06098903
60	0x3cfe47c1	0.031040074
61	0xbd8f2e04	-0.06991199
62	0xbc035212	-0.008015173
63	0xbd168002	-0.03674317
64	0x3d42e1e8	0.047578722
65	0x3dd696fb	0.10478016
66	0x3e1fb89f	0.15597771
67	0xbd1ada94	-0.03780611
68	0x3ddaf827	0.106918626
69	0xbd225797	-0.039634313
70	0x3cd55ebe	0.026046153
71	0x3c23afdb	0.009990658
72	0x3d517559	0.051137302
73	0x3d9409ce	0.072284326
74	0xbc587cb6	-0.013213327
75	0xbd64da61	-0.055872325
76	0x3d48c1b1	0.049012844
77	0x3e0bbf48	0.13647187
78	0xbd0c422d	-0.034242798
79	0x3dde64d6	0.10859077
80	0xbd2cd550	-0.04219562
81	0xbc3e3ae8	-0.011610724
82	0x3cde9058	0.027168438
83	0xbd53c1c2	-0.051698454
84	0x3db6c883	0.08924963
85	0xbd4bef9b	-0.049789052
86	0xbe452ce3	-0.19255404
87	0xbc851d3d	-0.016249293
88	0xbd219eb5	-0.039457995
89	0xbc06d6a7	-0.008229888
90	0x3d9e16de	0.07719205
91	0xbbcd3b11	-0.006263145
92	0xbd882659	-0.06647939
93	0x3d1fd635	0.039022643
94	0x3d376c12	0.0447808
95	0xbb9461e6	-0.004528272
96	0x3d226dab	0.03965537
97	0x3da31de7	0.07964688
98	0xbd629272	-0.055315442
99	0x3c767021	0.015041382
100	0x3c3c9eab	0.011512439
101	0x3d64d832	0.055870242
102	0x3d172d89	0.03690866
103	0xbc7815bf	-0.015141903
104	0xbd0b645e	-0.034031264
105	0x3dc91a7c	0.098195046
106	0x3db1de95	0.08685032
107	0x3d9c712b	0.076387726
108	0x3d67efeb	0.056625288
109	0xbc82dd30	-0.015974611
110	0xbccb66d9	-0.024829315
111	0xbbeaebba	-0.007169214
112	0xbdf19b1f	-0.11797165
113	0xbcd86723	-0.026416367
114	0x3caf145f	0.021372018
115	0xbbc4fe57	-0.006011765
116	0x3ced5b7f	0.028974293
117	0xbcc78892	-0.024357114
118	0xbd534b6d	-0.051585604
119	0xbd86f0ec	-0.06588921
120	0xbda96926	-0.082720086
121	0x3c1b395d	0.009474126
122	0xbd2e30f1	-0.042527143
123	0x3d2027c9	0.039100442
124	0xbd6f8815	-0.058479387
125	0xbd6a9bc9	-0.057277475
126	0xbd88e553	-0.06684365
127	0xbd663071	-0.05619854
128	0x3d244a44	0.040109888
129	0xbc8b5577	-0.017008526
130	0x3db8cb37	0.09023135
131	0x389197b0	6.942393e-05
132	0x3cf22805	0.029560098
133	0x3cd4b23a	0.025963891
134	0xbd5f892a	-0.05457417
135	0xbc9137b4	-0.017726757
136	0xbe1d19bd	-0.1534185
137	0xbca2743d	-0.019830817
138	0xbc5e96b5	-0.013585736
139	0xbd156822	-0.036476262
140	0x3e013844	0.1261912
141	0x3da1a0a7	0.0789197
142	0xbacff764	-0.0015866575
143	0xbb96012a	-0.0045777755
144	0xbd238751	-0.03992397
145	0x3d724b2a	0.059153713
146	0xbd3a7e89	-0.04553083
147	0xbde15142	-0.11001827
148	0x3da3c338	0.079962194
149	0x3bc423a9	0.0059856963
150	0x3c9aa555	0.018877665
151	0xbc8a4bcf	-0.016881851
152	0xbd5bd4e5	-0.05366983
153	0x3b65595c	0.003499589
154	0x3dcfe87f	0.10151767
155	0xbd102d7d	-0.03519963
156	0x3d165ac6	0.036707662
157	0xbd4b952f	-0.04970282
158	0xbc6e9917	-0.014562867
159	0x3d4d765b	0.0501617
160	0x3dd65376	0.10465138
161	0xbd953a73	-0.07286539
162	0xbc39a4b2	-0.01133077
163	0xbd90a678	-0.070630014
164	0x3e096ceb	0.13420455
165	0x3c7677c6	0.015043205
166	0x3d5338f2	0.05156798
167	0xbd359799	-0.044334028
168	0x3dd9192d	0.10600505
169	0x3bb38d3a	0.005479482
170	0x3b8c6fcf	0.0042857896
171	0xbd38416c	-0.044984266
172	0x3dae37ef	0.08506762
173	0x3ceb4aa9	0.028722124
174	0xbd7c20e2	-0.061554797
175	0x3d9196e4	0.07108858
176	0xbd128f17	-0.035780992
177	0x3d5f2920	0.05448258
178	0xbcfe57d4	-0.03104774
179	0xbd4ab15b	-0.049485546
180	0x3d0b0ba6	0.033946656
181	0xbbafb7de	-0.005362495
182	0x3b61c0e5	0.003444725
183	0x3d3d69d0	0.04624349
184	0xbb324071	-0.0027199055
185	0x3dc87f2c	0.09789881
186	0xbd09aef4	-0.033614114
187	0xb990e849	-0.00027638886
188	0x3bc76d0a	0.0060859965
189	0x3cada326	0.02119596
190	0x3d4e492c	0.05036275
191	0x3d2c68fc	0.04209231
192	0xbce5126a	-0.027962882
193	0xbc639ffa	-0.013893122
194	0xbe042f3f	-0.12908648
195	0xbd52a6dd	-0.051428664
196	0x3e0a457c	0.13503069
197	0x3b389c31	0.002816927
198	0xbda9d5cc	-0.08292732
199	0xbc85f8b6	-0.016353946
200	0xbdd5cdc4	-0.10439637
201	0x3d9adeee	0.07562052
202	0x3e00bca4	0.1257196
203	0xbddb263b	-0.10700651
204	0x3c24d748	0.010061093
205	0xbd45ffdf	-0.04833972
206	0xbd1f2814	-0.03885658
207	0x3d27fc41	0.041012052
208	0x3d070608	0.032964736
209	0x3d94e1a2	0.072695985
210	0xbaf22095	-0.0018472845
211	0xbd689b17	-0.05678853
212	0xbbc27032	-0.005933785
213	0xbd577f2e	-0.052611522
214	0x3d242ae6	0.040079974
215	0x3ca91862	0.02064151
216	0xbd27c00c	-0.040954635
217	0x3baf2bca	0.0053457962
218	0x3c2b6a1a	0.010462308
219	0xbd8ce374	-0.06879321
220	0x3c77af41	0.015117467
221	0xbd96e8ca	-0.0736862
222	0x3b6c33e2	0.0036041667
223	0x3cb03535	0.021509746
224	0xbb4934db	-0.003070167
225	0xbdef2313	-0.11676612
226	0x3ca189ae	0.019718971
227	0xbd347400	-0.04405594
228	0x3c4ab3a5	0.012371932
229	0xbbba4455	-0.0056844153
230	0xbda54712	-0.08070196
231	0xbd69eb8c	-0.0571094
232	0xbd17b46d	-0.0370373
233	0x3daba2b9	0.08380646
234	0x3d937ddc	0.0720174
235	0x3e02efaa	0.12786737
236	0xbd1ba98e	-0.038003497
237	0x3d021745	0.031760473
238	0xbd9cf59f	-0.07664036
239	0xbd10dc01	-0.035366062
240	0x3d794fb9	0.060867045
241	0x3c8b0f32	0.01697502
242	0x3d3817c4	0.04494454
243	0x3cbd0043	0.023071414
244	0x3d5ad0a1	0.05342162
245	0x3cf93dbd	0.030424947
246	0x3e13290d	0.14371128
247	0x3d17079f	0.036872502
248	0xbd0ea81e	-0.034828298
249	0xbd40a5b9	-0.047033045
250	0xbd756c6c	-0.059917852
251	0xbcaa1352	-0.020761166
252	0x3be698a3	0.0070372387
253	0x3cc2f095	0.02379636
254	0xbcf715ae	-0.030161705
255	0x3cd557a9	0.026042776

network_body._body_endoder.seq_layers.4.bias f4 [256]
0	0x3cc59c9c	0.024122529
1	0xbd330750	-0.043708146
2	0xbd0d52d1	-0.034502808
3	0x3c8d7100	0.017265797
4	0xbc9980e6	-0.018738221
5	0xbccfce79	-0.025367009
6	0x3c8ec662	0.01742858
7	0xbd1988fa	-0.037484147
8	0x3c723bde	0.014784781
9	0x3cf486c2	0.029849414
10	0xbc2a5029	-0.010395088
11	0x3cac4d22	0.021032874
12	0x3c0c2c74	0.00855552
13	0x3ccca750	0.024982125
14	0xbbaccc59	-0.0052733836
15	0x3d1b8d43	0.037976515
16	0x3ccb933b	0.024850478
17	0xbce7f216	-0.028313678
18	0x3d01cd77	0.031690087
19	0xbc62d79b	-0.01384535
20	0xbb824149	-0.0039750678
21	0xbccb773c	-0.024837129
22	0x3d39362c	0.045217678
23	0x3caa7111	0.020805867
24	0x3c8c0095	0.017090121
25	0x3c4e6fd8	0.012599908
26	0x3c4661c4	0.01210827
27	0x3d2e3ee6	0.042540453
28	0x3ca17948	0.019711152
29	0x3cf7acbc	0.030233733
30	0xbbf67d0c	-0.007522231
31	0xbc33aafa	-0.010966057
32	0xbc39a028	-0.011329688
33	0xbd24f5f4	-0.04027362
34	0xbd11db4e	-0.035609536
35	0x3ce3e180	0.027817488
36	0xbd0bfc06	-0.034175895
37	0xbc937314	-0.01799921
38	0xbc15c7d7	-0.009141884
39	0xbd09b9c8	-0.03362444
40	0xbcc408f4	-0.02393005
41	0x3d06288e	0.03275352
42	0xbd10dbad	-0.03536575
43	0xbcd14ade	-0.025548395
44	0xbc9aa967	-0.018879605
45	0x3c8f3f8d	0.017486358
46	0x399b827d	0.00029661125
47	0xbd0dfc04	-0.03466417
48	0x3cf3ea72	0.029774878
49	0x3c429640	0.011876643
50	0xbd042e56	-0.032270752
51	0xbbd4b9a6	-0.0064918576
52	0x3ce03b3b	0.027371993
53	0xbd2c1755	-0.04201444
54	0xb9a0a61e	-0.00030641345
55	0x3c5a1f21	0.013313086
56	0x3cb3c795	0.021945754
57	0x3d15a2b1	0.036532108
58	0x3c5b7c5f	0.013396352
59	0xbd00e1e0	-0.03146541
60	0x3d3bfadc	0.045893535
61	0x3caf770b	0.021419069
62	0xbd171e71	-0.036894266
63	0xbd1a6ff7	-0.037704434
64	0xbd0102a9	-0.031496678
65	0xbc5f038b	-0.013611685
66	0xbc119830	-0.008886382
67	0x3c63200f	0.013862624
68	0x3cfd07c1	0.030887486
69	0xbc8cce3d	-0.017188186
70	0x3b8c2cb7	0.0042777914
71	0xbc0b2be0	-0.008494347
72	0xbca3e9eb	-0.020009002
73	0xbcc89111	-0.024483236
74	0xbcad4f43	-0.021155959
75	0xbd30ba55	-0.04314645
76	0x3d15b44a	0.03654889
77	0xbca56644	-0.020190366
78	0x3c516679	0.012780779
79	0xbcc8a935	-0.024494747
80	0x3d03b26d	0.032152582
81	0xbc883dbf	-0.016631005
82	0xbc202a9b	-0.009775783
83	0x3d21985d	0.039451946
84	0xbca8c1bb	-0.02060019
85	0x3cb22839	0.021747695
86	0xbb5f73d4	-0.0034096139
87	0xbcf5af26	-0.029990744
88	0xbcffa607	-0.031207098
89	0xbd256559	-0.040379856
90	0x3d1f9094	0.03895624
91	0x3c046539	0.008080774
92	0xbcc3ae76	-0.0238869
93	0xbc235a04	-0.009970192
94	0x3d32f25d	0.043688167
95	0xbccb6bb7	-0.024831636
96	0xbd1e59fb	-0.03866003
97	0xbcd3b2bc	-0.025842063
98	0x3d172c94	0.036907747
99	0x3bfabfcd	0.007652259
100	0xbc90a990	-0.017658979
101	0x3ce4e47c	0.027940981
102	0x3bd71fce	0.0065650707
103	0xbcb630b5	-0.022240022
104	0x3d1b2718	0.03787908
105	0xbcfe8517	-0.031069322
106	0x3c54b583	0.012982729
107	0xbd1065a2	-0.035253175
108	0xbc26c029	-0.0101776505
109	0x3c9701a1	0.018433394
110	0x3cfbc1d3	0.030732071
111	0xbd1508c1	-0.0363853
112	0xbca9ade4	-0.0207128
113	0xbcfdcd3b	-0.03098165
114	0x3d565474	0.052326635
115	0xbc65bd35	-0.014022161
116	0x3cb32901	0.021870138
117	0x3c006c8d	0.0078383805
118	0x3c398dff	0.011325358
119	0x3c8cb5e0	0.017176569
120	0x3cc2fde4	0.023802705
121	0x3c8e61dc	0.017380647
122	0x3ce9bc20	0.028532088
123	0xbc6064db	-0.013695921
124	0xbce1c4cd	-0.027559662
125	0xbc4d87a4	-0.012544546
126	0x3b8c7bbe	0.004287212
127	0xbca8a991	-0.020588668
128	0x3d3e0688	0.046392947
129	0x3d2ff207	0.042955425
130	0xbc653ba3	-0.013991269
131	0xbcf44d84	-0.029822119
132	0xbcfc0a54	-0.030766644
133	0x3c4fe34c	0.012688469
134	0x3aa3e1cc	0.0012503206
135	0x3c6c9cbf	0.014441668
136	0xbc1d46bb	-0.009599383
137	0xbcd835cf	-0.026392845
138	0x3ce050c8	0.02738227
139	0xbd2cf17e	-0.042222492
140	0xbd09c970	-0.03363937
141	0x3a2029db	0.00061097526
142	0xbcca8157	-0.024719877
143	0xbb939296	-0.0045035584
144	0xbca5ed72	-0.020254824
145	0xbd34246c	-0.043980047
146	0xbd18dd78	-0.037320584
147	0xbc47b3a0	-0.012188822
148	0xbcda532a	-0.026650984
149	0xbca93646	-0.020655762
150	0xbd13327e	-0.035936825
151	0x3c3f20df	0.011665552
152	0x3d34887e	0.04407548
153	0xbc32ea25	-0.010920082
154	0xbbac4969	-0.0052577746
155	0xbcf8968c	-0.030345224
156	0xbd0e9f9e	-0.03482019
157	0xba318707	-0.0006772135
158	0xbc3bd3e7	-0.011464096
159	0xbcb386f3	-0.021914935
160	0xbd057bb9	-0.032588694
161	0xbc2aeb1b	-0.01043203
162	0xbc8a41e0	-0.016877115
163	0x3d0d80dd	0.03454672
164	0x3cd4937e	0.025949236
165	0x3c8fb234	0.017541029
166	0x3c2ef374	0.010678161
167	0xbbf51e19	-0.0074803946
168	0xbceda618	-0.029009864
169	0x3cb5c3c4	0.022188075
170	0xbcade483	-0.021227127
171	0xbcb86164	-0.022507377
172	0xbd10a546	-0.035313867
173	0xbcb9a122	-0.022659842
174	0x3c98e0b8	0.018661842
175	0x3ce1d61f	0.027567921
176	0x3d16ec33	0.03684635
177	0x3c13b1c1	0.009014548
178	0x3d24db0b	0.04024796
179	0xbc545cb6	-0.012961557
180	0xbcba0b8d	-0.022710586
181	0x3ccc5d24	0.024946757
182	0xbc6888ac	-0.014192741
183	0xbc988652	-0.018618736
184	0x3c4bc5ea	0.012437323
185	0x3d1e8017	0.038696375
186	0x3c684f1d	0.014179018
187	0xbc8556fc	-0.016276829
188	0xbcfa57d6	-0.030559462
189	0xbd0fa7a5	-0.035071988
190	0xbcca64e0	-0.024706304
191	0xbd09ef44	-0.033675447
192	0xbc8a3900	-0.016872883
193	0x3c898045	0.016784796
194	0x3d7d04dc	0.061772212
195	0xbc9a375a	-0.018825222
196	0xbd03708c	-0.032089755
197	0x3ad09714	0.0015914165
198	0xbc9022be	-0.017594691
199	0x3d478ae3	0.048716437
200	0xbcfbedd9	-0.030753063
201	0x3c15f836	0.009153416
202	0xbcbb47e7	-0.022861434
203	0x3ce1dc7d	0.027570957
204	0xbc7c6803	-0.015405658
205	0x3a987faf	0.0011634732
206	0xbcc48c50	-0.023992687
207	0xbd063314	-0.032763556
208	0x3ca4e948	0.020130768
209	0xbd0b3697	-0.033987608
210	0x3b9e29f6	0.0048267795
211	0xbc1225d2	-0.00892015
212	0xbd13eaf4	-0.03611274
213	0xbd23f1cd	-0.04002552
214	0xb9037f9a	-0.00012540669
215	0xbc4825b9	-0.012216025
216	0x3cc36811	0.023853334
217	0xbc47fbdc	-0.012206044
218	0x3d20947b	0.039204102
219	0x3d19e40b	0.037570994
220	0xbd4f2289	-0.050570045
221	0xbca73eab	-0.020415625
222	0x3ccd36a1	0.025050463
223	0x3d026158	0.031831115
224	0xbd177e87	-0.0369859
225	0x3d1ca94a	0.038247384
226	0xbb539eab	-0.0032290618
227	0xbcd2b0da	-0.025719095
228	0x3d44c122	0.04803575
229	0xbcad1b5a	-0.021131206
230	0xbc2bd481	-0.010487677
231	0xbd164a84	-0.036692157
232	0xbb4efa6a	-0.0031582364
233	0x3d59cd38	0.053174227
234	0xbd433c01	-0.047664646
235	0xbcae78a7	-0.021297766
236	0x3c6d29d7	0.014475307
237	0xbcfecf89	-0.03110482
238	0x3c8305bd	0.015993947
239	0xbbe3e6b0	-0.0069549903
240	0x3cd11f2c	0.02552756
241	0xbce69aa2	-0.028149907
242	0xbc7b1ac4	-0.015326206
243	0x39d2f84a	0.0004023931
244	0xbd2944fe	-0.04132556
245	0xbcdc0553	-0.026858008
246	0x3b919b43	0.0044435575
247	0xbd2eed70	-0.042706907
248	0x3b8efcfc	0.004363654
249	0xbcf6deb3	-0.030135488
250	0xbcb23830	-0.021755308
251	0x3c5e2ad8	0.013560019
252	0x3d2fffde	0.042968623
253	0x3c3ae25a	0.0114065055
254	0xbbf503f9	-0.00747728
255	0xba079d94	-0.0005173322

action_model._continuous_distribution.log_sigma f4 [1, 2]
0	0xbe5e4d69	-0.21709217
1	0xbdcc1cc1	-0.09966422

action_model._continuous_distribution.mu.weight f4 [2, 256]
0	0xbc1e0324	-0.0096443035
1	0xbba3b497	-0.004995893
2	0x3bb6a373	0.005573684
3	0xbc2c394f	-0.01051171
4	0x3d0b0667	0.033941653
5	0x3cc41d1f	0.023939667
6	0x3cbc48d0	0.022983938
7	0x3bc1f958	0.0059196167
8	0x3b046359	0.0020200817
9	0xbc8847f1	-0.016635867
10	0x3d5d9bb2	0.05410356
11	0x3b5b246b	0.0033438455
12	0x3cb6bc04	0.02230645
13	0xbcc4a499	-0.024004268
14	0x3d20c09b	0.039246183
15	0x3c050d0c	0.008120786
16	0x3cc09a4f	0.02351108
17	0xbcbbd07e	-0.022926565
18	0x3c683a3a	0.014174039
19	0x3d5d8715	0.054083902
20	0x3b64c553	0.0034907653
21	0x3c897c2a	0.016782839
22	0x3ccafba3	0.024778193
23	0x3c844593	0.016146457
24	0xbd32cf74	-0.043654874
25	0x3c643b61	0.013930173
26	0x3c350387	0.011048204
27	0xbc97ee9d	-0.018546397
28	0x3cda35fe	0.026637074
29	0x3c5a583c	0.013326701
30	0xbc7643b5	-0.015030791
31	0x3b5f480f	0.003407005
32	0x3d54d8cf	0.051964577
33	0xbb9b6b67	-0.004743028
34	0xbc0eab04	-0.0087077655
35	0xbd0ff0b6	-0.03514167
36	0xb9934981	-0.0002809279
37	0xbd333051	-0.04374725
38	0x3d26a40f	0.040683802
39	0xbc80c9b8	-0.015721187
40	0xbd1537a1	-0.036430005
41	0x3cb4701c	0.022026114
42	0xbb0e77da	-0.0021738918
43	0x3bb4508e	0.005502767
44	0x3b6682f9	0.003517328
45	0x3d569883	0.05239154
46	0xbca573d1	-0.020196827
47	0xbc024084	-0.007949952
48	0x3cb01d03	0.021498209
49	0x3d502e88	0.050825626
50	0xbc1eab04	-0.009684328
51	0x3c38b481	0.011273504
52	0xba185705	-0.0005811307
53	0x3b2e8b7c	0.0026633432
54	0xbab94198	-0.0014133928
55	0x3ac75327	0.0015207276
56	0x3bc8b6d1	0.006125309
57	0xbd5a3ac1	-0.05327869
58	0xbd5fba27	-0.054620888
59	0xbc812c5e	-0.015768226
60	0xbc9a6809	-0.018848436
61	0xbd237580	-0.03990698
62	0xbcaf09e1	-0.021367015
63	0x3c072578	0.008248679
64	0x3c549e82	0.012977244
65	0x3cd5785d	0.02605837
66	0x3d287687	0.04112866
67	0xbdbbf509	-0.09177596
68	0x3b92fa3c	0.0044853967
69	0xbcf906ae	-0.030398693
70	0xbce8559d	-0.028361136
71	0x3cd1778d	0.025569702
72	0x3a6cb179	0.0009029131
73	0xbc04369c	-0.0080696605
74	0x3d4c9e44	0.04995562
75	0x3b291305	0.002579869
76	0xbc834c6b	-0.01602765
77	0x3bfb99d3	0.0076782494
78	0xbb21e0c4	-0.002470062
79	0x3bda02d8	0.006653171
80	0x3ca15d42	0.01969779
81	0x3cfb8de1	0.030707302
82	0x3a31737b	0.0006769222
83	0xbb2685b4	-0.0025409283
84	0x3d4c0d1b	0.049817186
85	0xbc436b2b	-0.011927406
86	0xbd24dc87	-0.040249374
87	0xbac21e7e	-0.0014810113
88	0x3c9e2a16	0.019307178
89	0x3be2e754	0.006924549
90	0xbc9ee111	-0.01939443
91	0x3d5d6adc	0.054056987
92	0xbcee663b	-0.029101482
93	0x3ae64bf7	0.0017570247
94	0xbb25c04c	-0.002529162
95	0xbb6680c2	-0.003517196
96	0x3b87a61f	0.004139676
97	0x3d09135d	0.033465732
98	0xbb27b9b5	-0.0025592868
99	0x3c88e2fb	0.016709795
100	0xbcfecbab	-0.031102976
101	0xbcaec089	-0.021332042
102	0x3bb3ed4c	0.0054909345
103	0x3c483f99	0.012222194
104	0x3d0f88ed	0.035042692
105	0x3bb4a557	0.005512874
106	0x3d66c60d	0.05634122
107	0xbc1e4720	-0.009660512
108	0x3ab557e6	0.00138354
109	0x3d53e5e4	0.051732913
110	0x3cf78eb2	0.03021941
111	0x3c9ea210	0.019364387
112	0xbd2dd66c	-0.042440817
113	0x3c24dc89	0.010062345
114	0x3ced8b3e	0.02899706
115	0x3ca8ee85	0.020621547
116	0x3cdb4ffe	0.026771542
117	0x3c019090	0.007908002
118	0x3c44dda3	0.012015733
119	0x3c182705	0.009286647
120	0x3d01b8dc	0.031670436
121	0x3cd3caa2	0.025853459
122	0xbd2a47e8	-0.04157248
123	0xbcd9cd7c	-0.02658724
124	0xb9fd9443	-0.00048366384
125	0x3c938b1c	0.018010668
126	0xbcc17ab0	-0.023618072
127	0xbb46ab5a	-0.0030314536
128	0x3a903828	0.0011003064
129	0xbb8edc07	-0.0043597254
130	0xbd89fb9d	-0.067374445
131	0x3d0c0cd7	0.034191933
132	0x3c4e6288	0.012596734
133	0xbd806a38	-0.062702596
134	0xbd2e6d7f	-0.042584892
135	0x3b6239a2	0.0034519215
136	0x3d1ecb9b	0.038768392
137	0xbc9ff1ec	-0.019524537
138	0xbd9196ab	-0.07108816
139	0x3bb1af2a	0.0054224925
140	0x3c9cced8	0.0191416
141	0x3c94d17f	0.018166302
142	0xb9efcf0e	-0.000457399
143	0x3d15f1f8	0.036607713
144	0xbc5fe2c3	-0.013664904
145	0xbb0c948f	-0.0021450853
146	0xbb87bfab	-0.0041427216
147	0x3cc1ee4c	0.0236732
148	0xbd323c9c	-0.043514833
149	0x3a700277	0.0009155641
150	0xbc205f00	-0.009788275
151	0x3d80b436	0.062843725
152	0x3c7d287e	0.015451549
153	0xba4082b8	-0.00073436974
154	0x3d3d2fa5	0.046188015
155	0xbb32feb0	-0.002731245
156	0xbd1735a6	-0.036916398
157	0xbcc3a52e	-0.023882475
158	0xbd5acc40	-0.053417444
159	0x3c01f887	0.007932789
160	0xbab259eb	-0.001360712
161	0x3c9717f9	0.018444048
162	0x3d2a3ce3	0.041561972
163	0x3cbd81f9	0.023133265
164	0xbcd2f715	-0.025752584
165	0x3d0757fe	0.0330429
166	0xbd314cbd	-0.043286074
167	0x3ceb66d7	0.028735561
168	0x3c2a8fb3	0.010410237
169	0xbd338511	-0.043828074
170	0xbc448fd2	-0.01199718
171	0xbd02d9e8	-0.031946093
172	0xba813f9a	-0.0009860874
173	0x3b92afa7	0.004476506
174	0xbcbc61a9	-0.022995787
175	0x3ce42b42	0.027852658
176	0xbc8a5b14	-0.016889133
177	0xbd6c6fa2	-0.05772365
178	0x3c5e614a	0.013573
179	0xbba77e1a	-0.005111468
180	0xbcf32d89	-0.029684799
181	0xbcae90d5	-0.021309296
182	0xbd1fdef5	-0.039030988
183	0x3c95d096	0.018287938
184	0xbcd70833	-0.026249027
185	0xbc4c69ee	-0.0124764275
186	0x3d72e05b	0.059295993
187	0xbd3cc688	-0.04608777
188	0xbcbdf31e	-0.023187216
189	0xbbbd989e	-0.0057860157
190	0xbbf2c9cd	-0.0074093104
191	0x3aaf4acd	0.0013373733
192	0x3d14888c	0.036263034
193	0x3b55c8ff	0.0032621024
194	0xbb4d3ee3	-0.0031318
195	0xbbaa2931	-0.0051928987
196	0xbc1157f8	-0.008871071
197	0x3c06e243	0.008232656
198	0x3d24b8e0	0.040215373
199	0x3c2bc4bb	0.010483916
200	0xbc878238	-0.016541585
201	0x3c2322ab	0.009956996
202	0xbcbaae29	-0.022788124
203	0xbc907a4b	-0.017636439
204	0xbd0803fd	-0.03320693
205	0xbc999786	-0.01874901
206	0x3c2a54ce	0.010396196
207	0xbb71748d	-0.0036843151
208	0x38171a24	3.602555e-05
209	0xbc676bfb	-0.014124866
210	0x3cb24a03	0.021763807
211	0x3d11a565	0.035558123
212	0xbc420990	-0.0118431
213	0xbbb27dce	-0.005447126
214	0xbd35ecf8	-0.044415444
215	0xbd38b4f8	-0.04509446
216	0x3be07f32	0.0068511004
217	0x3a884234	0.0010395707
218	0x3b846afa	0.004041073
219	0x3c9667f3	0.018360114
220	0xba5c741f	-0.00084096374
221	0x3c842682	0.016131643
222	0xbc14922b	-0.009068052
223	0x3cacb347	0.02108158
224	0xba9d4bf9	-0.0012000791
225	0x3cbfdaf2	0.023419831
226	0xbd427595	-0.047475416
227	0x3a7c251e	0.0009618568
228	0xbc48dd4f	-0.012259795
229	0x3c51add3	0.012797791
230	0xbb0397f6	-0.002007959
231	0xbaeb7f6e	-0.0017967054
232	0x3d396b2a	0.045268215
233	0x3c835e95	0.016036311
234	0x3bebfeb6	0.007201995
235	0xbd4b9343	-0.049700987
236	0x3cc3912c	0.023872934
237	0xbc6a15fa	-0.014287466
238	0xbceb3331	-0.028710933
239	0x3d03a0a7	0.032135632
240	0x3d449c05	0.048000354
241	0x3bcb318d	0.0062009753
242	0x3c7a2275	0.015267004
243	0xbcc54263	-0.024079507
244	0x3b84606a	0.0040398138
245	0xbc11ac2d	-0.008891148
246	0xbd488907	-0.048958804
247	0x3ac1c0f5	0.0014782237
248	0xbc9b0c70	-0.01892683
249	0xbc212b72	-0.009837018
250	0x3c8b020a	0.016968746
251	0xbb5cb94b	-0.003367978
252	0x3c718217	0.0147404885
253	0xbaa3b6c7	-0.0012490385
254	0x3d11a3af	0.03555649
255	0x3d659d52	0.056058235

action_model._continuous_distribution.mu.bias f4 [2]
0	0x3b4296a1	0.0029691833
1	0x3d335f13	0.04379184

onnx::Div_56 f4 [11]
0	0x3f372b52	0.71550477
1	0x3befd587	0.0073191556
2	0x3f32c9a5	0.69838935
3	0x3f36feac	0.7148235
4	0x3ab95e76	0.0014142531
5	0x3f32a30c	0.6978004
6	0x3f36bb93	0.71379966
7	0x3c403142	0.011730494
8	0x3f3260b6	0.6967882
9	0x40b3598b	5.6046805
10	0x3e921ef2	0.28539234
