Assets/results/petfollower28/PetFollower.onnx (onnx, 547009 bytes, 11 tensors)

network_body.observation_encoder.processors.0.normalizer.running_mean f4 [11]
000000 9e 5b 69 3b e1 d8 64 bc 1e 23 15 3d 31 44 e2 3c
       0.0035607587 -0.013967724 0.036410443 0.027620407
000010 00 00 00 00 c3 23 60 3d 6f d8 28 bc 8e 9b e5 b9
       0.0 0.054721605 -0.010305508 -0.0004379418
000020 42 b7 04 bb bb 1e 98 40 69 dd c3 3e
       -0.0020250832 4.7537513 0.3825486

network_body._body_endoder.seq_layers.0.weight f4 [256, 11]
000000 88 f1 3b 3f 72 8e d4 bd 57 c1 b5 3e 83 6c dc be
       0.7341542 -0.10378732 0.3549907 -0.43051538
000010 4e bf 23 be 95 d3 49 3e 1a cf f9 bd 02 8d 4f be
       -0.15990946 0.19709618 -0.121977046 -0.20268634
000020 b9 a1 08 3f db dc 8a 3d 7a 43 04 3d 08 f2 af bd
       0.5337177 0.06780406 0.032290913 -0.08591086
000030 6f d2 0b be 69 f4 25 3d c6 47 45 3f 95 40 23 3e
       -0.13654493 0.04051629 0.7706264 0.15942605
000040 b1 b5 30 3f bb fd a3 3d c9 be e5 be 42 1e 6f bd
       0.6902724 0.080073796 -0.4487212 -0.058378465
000050 a2 d3 2c 3e cd d1 c1 bd 26 f1 01 be 6a 0a 14 bf
       0.16877607 -0.094638444 -0.12689647 -0.5782839
000060 b6 e9 d6 3d 7b f5 6f bd 3c 17 48 3e 7e 6e 22 bf
       0.104937956 -0.058583718 0.19540113 -0.6344985
000070 ad 0b e8 3d 5d b4 5a 3d 87 29 7e bd f5 3e f9 be
       0.11330352 0.053394664 -0.062051322 -0.48680845
000080 15 37 f0 3d 44 78 d6 3e e2 32 dd 3d f2 41 ae 3d
       0.11729256 0.4188863 0.10800721 0.08508672
000090 bb c7 7c be af 23 e8 3e 25 c5 3a 3f 93 9b 8b be
       -0.24685566 0.45339724 0.7295707 -0.2726713
0000a0 c8 2a 4a be df 06 9b be 32 4f 89 be a2 5d d1 3e
       -0.19742882 -0.3027868 -0.26818234 0.4089175
0000b0 65 37 25 3f 9b ef d1 3e df 3a 34 be c4 ad de 3e
       0.6453765 0.41003117 -0.17600583 0.43491948
0000c0 00 d8 fa bd 70 cd 29 bf f3 af 6a 3d a2 d6 40 be
       -0.1224823 -0.663291 0.057296705 -0.18831876
0000d0 44 4b 2c 3e 33 b2 3d bd e8 fc 2b 3e c9 75 17 bf
       0.16825587 -0.046312522 0.16795695 -0.591641
0000e0 c1 8e 17 3e 62 d8 62 3e 36 d1 01 3e 66 ee 14 bf
       0.1480055 0.22152856 0.12677464 -0.5817627
0000f0 05 4d 7a 3e 77 f6 a0 be 63 2b e4 bd a3 e7 94 bd
       0.24443443 -0.31438038 -0.11141088 -0.07270744
000100 5d 5f 5f be 10 92 3d be 6b 2a d3 be 74 e7 0f 3e
       -0.21813722 -0.1851275 -0.412433 0.14053136
000110 df d6 90 be 60 ee 4a bd 01 a6 7e 3e b7 b3 41 3d
       -0.28288934 -0.04954374 0.24868013 0.04729053
000120 b3 96 65 3e 40 08 7a be 85 65 bb 3e 79 f0 84 3d
       0.22420768 -0.2441721 0.3660089 0.06491179
000130 41 13 f0 bd 9e 05 0f 3e e2 bd b6 3e 9d cb ec 3e
       -0.117224224 0.13966987 0.35691744 0.46249095
000140 9a fa 13 3e e2 f7 35 3f ce a3 d9 bd 2b be db 3e
       0.14451066 0.71081364 -0.106269464 0.42918524
000150 94 3b 07 3e da 93 50 3e 2f 35 82 3d e8 02 5d 3d
       0.13206321 0.20368901 0.063578 0.05395785
000160 25 09 93 bd 18 fc 36 be e2 65 d6 be f2 06 51 3e
       -0.071794786 -0.17869604 -0.41874605 0.20412806
000170 81 f3 42 3d ac eb df 3e af 42 23 be 51 6d f1 bd
       0.047595505 0.4373449 -0.15943407 -0.117884286
000180 6a 6d 6e 3d 1c 16 07 3f a0 56 83 3e 46 bd 21 bf
       0.058209814 0.5276811 0.25652027 -0.63179433
000190 01 59 80 be af c1 38 3e 30 c3 a2 3e ea a7 b5 be
       -0.25067905 0.18042634 0.3178954 -0.3547967
0001a0 cd 3c 46 be 10 9d e5 be 40 ca 69 be 9e ec 25 3d
       -0.19359131 -0.44846392 -0.22831059 0.04050886
0001b0 03 a1 98 3c 68 85 1c bf b9 00 5a bf 64 d4 d9 be
       0.018631464 -0.6114106 -0.8515735 -0.42544854
0001c0 0b e1 18 bf f6 ea e0 3d ab 75 37 be 77 b4 22 be
       -0.5971839 0.10982315 -0.1791598 -0.15889154
0001d0 16 eb 5a be 20 94 09 bf 46 55 71 be 66 5b 67 bd
       -0.2137874 -0.53741646 -0.23567685 -0.05648365
0001e0 be c3 07 bf 32 a4 13 3e 24 a0 cb be 5d bf c0 3d
       -0.53033054 0.14418104 -0.39770615 0.094115
0001f0 30 78 87 be 3f e4 28 3e 35 36 b1 3e c7 3c ab be
       -0.26458883 0.16493319 0.3461167 -0.33444807
000200 df 64 0c bd 92 51 75 bc 5c 10 18 be 2d 79 4d bd
       -0.034275886 -0.014973061 -0.1484999 -0.05016439
000210 f8 99 eb 3e 6b 92 8d be d2 1d a6 be 4b 3f a5 bb
       0.46015906 -0.2765077 -0.32444626 -0.0050429455
000220 1c f3 ad 3e e3 33 7e 3d 12 e8 31 be 74 78 85 bd
       0.3397454 0.0620612 -0.17373684 -0.06517115
000230 a0 3c 17 bd 86 aa 02 bd a8 82 9e 3e 54 26 2e bf
       -0.03692305 -0.031900905 0.30959058 -0.68027234
000240 10 d3 e8 bd 10 b0 4e 3b b6 d3 49 3d 19 fa c1 3e
       -0.11368382 0.0031538047 0.04927417 0.37886122
000250 e2 cf 59 be 40 e9 fd 3e bf 12 03 3e 6d 0e 79 be
       -0.21270707 0.49592018 0.1280012 -0.24321909
000260 b0 9a bc 3e ae 10 ca 3d 9c d4 21 be 93 22 b5 3d
       0.36836767 0.09866463 -0.1580376 0.08844485
000270 1e 2e 8c 3e e1 7a 41 be b3 bc 17 bf 87 25 a8 3d
       0.27378935 -0.18894531 -0.5927231 0.08210283
000280 ca b7 cd 3d e1 ed 2f 3e 88 68 1c 3d 53 2b 4d 3d
       0.100448206 0.17180587 0.038185626 0.050090145
000290 91 e3 e0 3e 37 86 52 3d 39 50 21 be 03 4c 0e 3e
       0.4392362 0.05139753 -0.15753259 0.13896184
0002a0 e6 0a 9b 3d 09 96 23 3f 49 45 8e be aa 56 4b 3e
       0.07570438 0.6390081 -0.27787235 0.19857278
0002b0 b7 55 1f 3f d0 d6 17 3e 08 51 06 3e 10 9e 0b be
       0.62240165 0.14828038 0.13116848 -0.13634515
0002c0 48 00 a0 be 43 81 30 3f aa 44 29 3e 03 c4 63 bd
       -0.31250215 0.6894724 0.165301 -0.055606853
0002d0 93 90 4a 3e d7 15 22 bf df 96 c2 3d 57 7e f2 b9
       0.19781713 -0.63314575 0.095014326 -0.00046251967
0002e0 aa 15 8e be 99 11 20 3f b0 dc 62 3e d2 9c 06 3f
       -0.27750903 0.6252685 0.22154498 0.5258304
0002f0 df f2 6b be 8c 92 cb be aa f0 4b 3e dc e4 bf bd
       -0.23041867 -0.39760244 0.19916025 -0.09369823
000300 d9 e9 8a 3e a4 07 3c be 7e 21 f9 3e 1f cd 9d be
       0.27131537 -0.1836229 0.48658365 -0.30820557
000310 bf 4b f8 3e 09 24 37 be 83 30 6c be 07 42 a0 3e
       0.4849529 -0.1788484 -0.23065381 0.31300375
000320 8a ad d3 be 5f de 1f 3e 6b 8b 94 be 8e f3 09 3e
       -0.41343337 0.15612172 -0.29012617 0.13471815
000330 75 92 42 bd 9b b6 b1 be be a9 f0 be cc 95 8e be
       -0.047502954 -0.3470963 -0.47004503 -0.2784866
000340 ee 93 2b be 95 67 2a 3f 6b e7 b3 3d 95 14 10 3e
       -0.1675565 0.66564304 0.08784374 0.14070351
000350 b7 9e 04 3f 40 15 00 3f 04 18 20 3f 49 b2 0f bf
       0.5180468 0.50032425 0.62536645 -0.56131417
000360 75 3a c4 bd fd bc 0e be 41 6a e2 3e b9 7f 2d bd
       -0.09581462 -0.13939281 0.4422169 -0.042358134
000370 cc c0 45 3e ae bb 26 be 91 78 e6 3e c0 df f2 3e
       0.19311827 -0.16282532 0.4501386 0.47436333
000380 24 a1 a8 be 64 03 08 3e 46 ea bd bd a8 bf 79 be
       -0.3293544 0.13282543 -0.092732 -0.24389517
000390 53 00 4b be 54 34 8d be e1 85 92 bd 5d a8 3f bd
       -0.19824342 -0.27578986 -0.071544416 -0.046791423
0003a0 6a f1 96 be a0 3f 21 3e c9 f1 54 3e 00 b3 4c 3e
       -0.2948106 0.15746927 0.20795359 0.19990158
0003b0 ff 3a 90 be ed d6 39 be eb 91 9e bd 82 88 0e 3e
       -0.2817001 -0.18148394 -0.077426754 0.13919261
0003c0 1e f9 4b bd 19 8a 90 3d 41 85 7f bd b4 ca 66 3e
       -0.049798124 0.0705759 -0.06238294 0.22538263
0003d0 2d 56 d7 3e 38 89 b2 3d ae db d4 3d 60 62 1c bd
       0.42057934 0.08717579 0.10393463 -0.038179755
0003e0 82 42 41 3e db 0f e7 bc e2 ed 30 bf e0 9a c0 be
       0.18873027 -0.028205803 -0.6911298 -0.3761816
0003f0 a9 6f 1a 3d 13 5b fe bb bd af 5f 3b 0e 03 12 3e
       0.037704144 -0.0077623217 0.0034131848 0.14258978

network_body._body_endoder.seq_layers.0.bias f4 [256]
000000 c8 73 06 3c b6 e9 d3 3c 4a 77 b3 3c b4 49 61 bb
       0.008206315 0.025868278 0.021907467 -0.0034376206
000010 93 19 07 3d bd 3d 59 38 80 13 9c 3c 81 c8 66 3c
       0.032983374 5.179433e-05 0.019052267 0.01408589
000020 93 77 1d bc 41 20 0f bd 62 61 01 bc c6 e4 e7 3b
       -0.009611028 -0.03494287 -0.007896753 0.0070768325
000030 c8 1b b2 3c ef 89 ce bb 0e 14 1a bc ec 83 c2 bc
       0.021741763 -0.006303064 -0.0094041955 -0.023744546
000040 83 5e c1 3c c2 48 7f bb eb 4a f2 bb 84 46 21 bc
       0.023604637 -0.003895328 -0.007394185 -0.009843472
000050 8a 4a 56 bb 7b d7 71 bc d8 7e 8d 3c e2 c0 2e bd
       -0.0032698237 -0.014760847 0.017272398 -0.042664416
000060 6b 30 2a 3d 39 5e a1 bc 51 7e f3 3c d5 58 16 bd
       0.04155008 -0.01969825 0.029723318 -0.03670581
000070 1e 6d af bc 5d 1b 50 bc 78 ad 2e bb 9d 8a 9d bb
       -0.021414336 -0.012701836 -0.0026653688 -0.0048077838
000080 3e e7 65 3b d4 47 89 39 24 9f 05 bb b2 9f 27 3b
       0.0035080458 0.00026184192 -0.0020389045 0.0025577364
000090 a4 32 aa 3c bf 35 c1 bb 75 94 b3 ba a8 ff 54 3c
       0.0207761 -0.0058962996 -0.001370086 0.013000406
0000a0 93 dd 77 bc ba 73 a7 3c 65 a4 bb 3c 15 fa 12 bd
       -0.015128511 0.020440925 0.022905538 -0.035883028
0000b0 d0 92 16 bd fe f4 af 3c 4e 77 24 39 09 19 a5 39
       -0.036761105 0.021479126 0.00015684703 0.00031489905
0000c0 80 2c 92 3b c5 3d 8e bc 76 ae 2b 3c 4a 84 87 3c
       0.004460871 -0.017363438 0.010478606 0.016542573
0000d0 7f 02 8a 3b d1 cb 19 3d 2c 1b cd 3c 08 93 fe 3b
       0.0042117233 0.03754789 0.02503737 0.0077689923
0000e0 25 6e 28 bd f4 97 f3 ba 81 bb 08 3b ce 76 47 3c
       -0.041120667 -0.0018584714 0.0020863714 0.012174321
0000f0 86 f3 7e 3b 7b e0 d6 3c e5 f3 12 3d 05 c1 fe 3c
       0.0038902475 0.026230088 0.035877127 0.031097898
000100 95 37 7e 3c fb f0 40 3a 49 8b 9b bc f6 5d b9 3b
       0.0155161815 0.00073601276 -0.018987315 0.005656953
000110 af 08 18 bd 0d 70 d7 b9 8d 8f e9 3c d4 98 b7 3c
       -0.037117656 -0.0004109148 0.028510833 0.022411741
000120 91 71 9e 3c cb 31 c3 bc e5 e6 13 3d ed 2c 1c bc
       0.019341262 -0.023827454 0.03610887 -0.0095321955
000130 b3 62 03 3d ce 38 b7 bc d3 98 d9 3c cc 3e e9 bb
       0.03207655 -0.022365954 0.02656213 -0.0071180817
000140 16 2e 7a 3d 92 77 d9 bc e5 bb 83 3c 03 26 0a 3c
       0.061079107 -0.026546273 0.016080806 0.008431914
000150 d3 81 96 3c 41 ed 9a 3c 13 07 88 3c e9 b6 a4 3c
       0.018372452 0.01891196 0.016604936 0.02010675
000160 80 7f da 3b 4f 90 09 bd 53 a9 8a bb 4f 6a f9 3c
       0.006668031 -0.03358489 -0.004231611 0.0304462
000170 bb 87 1a bd d5 c2 d3 bc c4 47 37 3a 30 c2 68 bb
       -0.0377271 -0.02584974 0.000699159 -0.0035516135
000180 7e 60 fb bb 9b 34 2e bc b9 1e 16 3c 7c 7f 66 3b
       -0.007671415 -0.010632659 0.009162598 0.0035171201
000190 30 7e a4 3c 01 9d 84 bc 2b fb 0c bc e3 5d 98 ba
       0.020079702 -0.016188147 -0.008604805 -0.001162466
0001a0 5e 1a 8a 3c 1f 06 01 bb 7d 0a 28 3a 78 11 31 3c
       0.016858276 -0.0019687486 0.0006410254 0.0108073875
0001b0 c2 87 eb 3b 4f f0 06 bd 6e 07 a0 bc 09 69 58 bc
       0.0071878145 -0.03294402 -0.019534793 -0.013208636
0001c0 56 71 eb 3c af 1c 9a ba c6 fb 02 bd 70 2d a8 bb
       0.028740566 -0.0011757816 -0.03197839 -0.0051323697
0001d0 2b a2 f1 bc f1 f6 be bc 7a 42 95 bc fe 31 98 3c
       -0.029496273 -0.02331111 -0.018220175 0.018578526
0001e0 1c 5a 1d bd ca f6 82 3c 56 8b 16 bc 65 27 e9 bc
       -0.038416013 0.015986819 -0.009188494 -0.028461168
0001f0 e5 6c 33 bd 75 6a cf bc e2 87 92 bc 4c d2 d5 3a
       -0.04380502 -0.025319317 -0.01788706 0.0016313284
000200 e8 4e 50 bc a3 8b 64 bb e0 61 64 3c e7 ee 5e bc
       -0.012714125 -0.003487327 0.013939351 -0.013606763
000210 30 e5 3b 3c fa 2c a9 ba d4 f8 51 3d 8a b6 67 bb
       0.011468217 -0.0012907081 0.05126269 -0.0035356604
000220 79 17 73 3c ee 3d 4c ba bb cd 09 3b 0e 33 f2 bc
       0.014837139 -0.00077912107 0.0021027166 -0.02956536
000230 5b 6c 82 3c 97 4a 20 3c a1 dc 0e bd fb 2c 29 3b
       0.015920809 0.009783409 -0.034878377 0.0025814164
000240 9c 3b 14 3d 02 c2 8e 3a 10 21 b7 3c 91 06 0b bd
       0.03618966 0.0010891559 0.022354633 -0.03394181
000250 a3 ad 48 3b e7 f5 37 bc d8 7b c1 3c c2 e6 38 bc
       0.0030621074 -0.011228061 0.023618624 -0.011285486
000260 73 96 b8 3c 8d 8e c7 3c c7 91 f8 3c 05 2c d8 3b
       0.022532677 0.024359966 0.03034295 0.0065970444
000270 04 5e 13 3d 82 c3 02 3d 28 56 e7 3c cc ce 79 3c
       0.035978332 0.031924732 0.028239325 0.015247058
000280 06 5c c0 3c 0f f4 e9 bb ec 69 23 3c c6 a7 b6 3c
       0.02348138 -0.0071396898 0.009973984 0.022296797
000290 99 47 07 3d 8a 88 40 bd 81 92 e8 bc 53 2a d0 3b
       0.033027265 -0.047005214 -0.028390171 0.0063527017
0002a0 84 0d 12 bc 30 6c 79 38 5e ef 8f bc 51 5a 74 3d
       -0.008914355 5.9466984e-05 -0.017570194 0.059656445
0002b0 64 66 23 3d 23 06 d4 bc 55 47 33 3c c9 56 22 3c
       0.03989257 -0.025881832 0.0109423 0.0099083865
0002c0 1b b8 a8 3c c6 bc 12 3c 61 b9 aa 3c c5 d0 9e 3c
       0.0205956 0.00895614 0.020840349 0.019386658
0002d0 3d fa c0 bc 7b 1b 78 bc e5 54 bd 3b a7 f3 26 3d
       -0.023556823 -0.015143271 0.0057779425 0.04075971
0002e0 f3 93 8d 3c e0 20 9a 3c 7e 6b 9c bb 9c 65 d2 3c
       0.017282462 0.018814504 -0.0047735563 0.025683217
0002f0 26 a7 91 3c 93 62 a3 bc 13 a0 36 bc 68 7a ce bc
       0.017779898 -0.019944465 -0.011146563 -0.025204852
000300 d7 0e 6c bc 8b 19 26 3d be 0e e1 ba cf 72 3f bc
       -0.014407835 0.040551703 -0.0017170531 -0.011685087
000310 ca 30 89 3c a1 92 f3 bc b4 82 1f bc 32 47 22 bc
       0.016746897 -0.029733004 -0.009735752 -0.00990467
000320 fb 69 a7 3c 7c f8 0a 3c 0c 49 ec bc e1 e3 bd 3c
       0.020436278 0.008482095 -0.028843425 0.02317995
000330 29 a6 17 3d 6e 42 08 3c df 3e c2 bc 2d c9 5a 3c
       0.037023697 0.008316619 -0.02371162 0.013353628
000340 3e 45 42 3d df 62 22 bc 3f b8 16 3c 86 59 3c 3d
       0.047429316 -0.009911268 0.009199201 0.045983814
000350 db c3 44 3d a3 de 36 bc 8e bc 5b bb 1f ef 5c 3c
       0.048038345 -0.011161479 -0.0033529135 0.013484745
000360 a4 0a 5c 3b 4e 4c 48 3b 7b da e1 3c a7 cb a9 3b
       0.0033575678 0.003056306 0.02757 0.005181748
000370 d0 91 5d bd 2e dd f2 bc 39 cc d8 bb 37 58 5f 3c
       -0.054094136 -0.029646482 -0.006616142 0.013631872
000380 bf 84 c7 3b 77 77 27 bd 44 de 0e 3c dc bf 21 bc
       0.0060888226 -0.040885415 0.008719984 -0.009872403
000390 43 2e 4f 3c 8c 4d 42 3b f4 40 e5 bb 23 af 76 bc
       0.012645307 0.0029648272 -0.0069962684 -0.015056404
0003a0 aa ea 0a 3d b0 b6 0a 3d 28 d7 23 3d 96 78 02 3a
       0.0339152 0.03386563 0.04000011 0.0004977075
0003b0 d5 48 8f ba 13 35 c3 3c e5 ba c0 3c b2 b1 c3 3c
       -0.001093174 0.023829019 0.023526618 0.023888443
0003c0 77 3d df 3b 58 19 b7 3c e6 d4 d6 bc 7d 96 8a 3b
       0.006812747 0.022350952 -0.026224565 0.0042293654
0003d0 85 dc 8f bc e8 18 37 3c 95 76 04 bb 5b 5e 5d 3c
       -0.017561207 0.011175372 -0.0020212282 0.013511266
0003e0 9e 2e 86 bb c0 6e b7 3b b1 9f 17 3d a2 ee d4 3c
       -0.0040949127 0.005597919 0.037017528 0.025992695
0003f0 fb 1c 83 3c e5 0b 4b 3d 97 cb 8b 3c 1b 35 8b 3c
       0.01600503 0.04957189 0.017064853 0.016993096

network_body._body_endoder.seq_layers.2.weight f4 [256, 256]
000000 43 cd ff bd 48 dc 98 bd 81 a8 9a 3d 60 1a b4 3b
       -0.124903224 -0.0746389 0.07551671 0.005496308
000010 63 44 9c bd c1 91 a4 bd f1 8a 19 3d be 7a 81 3c
       -0.07630231 -0.08035613 0.03748602 0.015805598
000020 31 ab 99 bd 21 d6 a4 3d 81 97 fd bd c8 98 37 bd
       -0.07503355 0.08048654 -0.12382413 -0.044823438
000030 e7 3c e2 bd a9 ad de 3d 4c d0 c9 3c 88 89 23 3d
       -0.110467725 0.10872967 0.024635457 0.039926082
000040 32 55 d0 3d d7 f6 cf 3c bf 19 70 bd 9a 3b f2 3d
       0.101725 0.025386257 -0.058618303 0.11827774
000050 2f 7e b7 bc 6a 1f 19 3d 4f d6 7b bd 49 93 80 3d
       -0.022399036 0.037383474 -0.061483677 0.062780924
000060 50 e0 02 3c 66 47 d4 3d 07 ed 77 bd 70 10 a1 3d
       0.007988051 0.10365181 -0.06052878 0.07864463
000070 dc 73 ca bd 4a a2 a1 3d 7a a5 c4 bd 7f 4b 1d 3d
       -0.0988538 0.07892282 -0.09601875 0.038402077
000080 4e 4f 39 bd 28 ec d2 bd 97 a3 bb bd 02 33 7f 3d
       -0.045241646 -0.102989495 -0.09162062 0.062304504
000090 49 b0 15 be e7 f9 b9 bd cc 91 fd bd 77 ee e8 bc
       -0.14618029 -0.09080868 -0.12381324 -0.028434021
0000a0 87 90 54 bd 13 40 ac bc c6 9e de bc ae 60 55 bd
       -0.051895645 -0.021026647 -0.027175318 -0.052094154
0000b0 a2 39 77 3d 07 77 93 3d 69 1b 19 3b 6f 38 00 3e
       0.060357697 0.07200437 0.0023362285 0.12521528
0000c0 8b 20 c5 3d 85 99 a4 bd e9 cf 64 bc ad 27 14 be
       0.09625348 -0.08037094 -0.013965585 -0.1446826
0000d0 8d eb 89 3d 45 e8 c2 bd 85 65 26 3e c9 80 cc 3c
       0.06734381 -0.09516958 0.16249664 0.024963753
0000e0 9d 1f 2b bd 97 81 cd 3d 21 97 0b 3c 6b 8f 57 bb
       -0.041778196 0.10034483 0.008519919 -0.003289188
0000f0 a0 99 91 bd 52 15 8b bd a9 e8 2b ba 42 f8 d5 3d
       -0.0710938 -0.06791176 -0.00065578014 0.10447742
000100 89 ed 4a 3d 8d fc be bd 5d 5d 03 3d 7a ff 45 bd
       0.049542937 -0.09325514 0.03207146 -0.048339345
000110 4c fd 6c 3d a2 7b 12 bd f4 04 dc 3d 8f 33 30 3d
       0.05785875 -0.035762437 0.10743132 0.04301792
000120 d9 58 fe 3b ed 91 2f 3d c7 33 dc 3d 19 cf fd 3c
       0.0077620563 0.042863775 0.10752063 0.03098254
000130 8c 2a b9 bd 4e 45 83 bd 09 fe b3 bd 01 91 94 3c
       -0.09041318 -0.06409703 -0.08788688 0.01813555
000140 64 2c 8a 3d 09 00 09 bd 6b dd c8 bc b4 38 81 3d
       0.06746748 -0.0334473 -0.024519643 0.063096434
000150 5d 5c 62 3d f0 d3 64 3c 3e 59 d1 bc d8 80 93 ba
       0.055263866 0.013966545 -0.02555525 -0.0011253608
000160 a9 88 3b bd 91 58 d9 3d 2b 43 37 bc 04 71 f9 3d
       -0.045784626 0.10612596 -0.011185448 0.12179759
000170 45 91 d0 3c 2a 4f 22 3e 3c b8 01 be 7b 03 ca ba
       0.025459895 0.15850511 -0.12667936 -0.0015412414
000180 9c 58 28 3d cb ba 90 bd f4 09 9f 3d ed ec 30 bd
       0.04110013 -0.07066878 0.0776557 -0.0431947
000190 fa 1b 6d bd fa 42 e6 bd c1 50 d7 bd 7d b2 ac 3b
       -0.05788801 -0.112432435 -0.105134495 0.005270301
0001a0 91 58 80 3d 4e 7a de 3d ae 66 f9 3c 25 64 1d bd
       0.06266893 0.108631715 0.03044447 -0.038425583
0001b0 ad 70 e8 3b 96 db 57 bd 8a bd 3b 3d 59 ff a7 3c
       0.00709351 -0.052699648 0.045835055 0.020507501
0001c0 0a 79 1b bd 5a e7 71 3d 2d 11 93 bd 0a 11 05 bb
       -0.03795723 0.059058525 -0.071810104 -0.0020304346
0001d0 a1 41 ce bd 4c 3f d2 3c ac 94 d2 bd e5 c2 a3 bd
       -0.100711115 0.025664948 -0.10282263 -0.079961576
0001e0 39 ce e0 bc f2 ab 23 bd 1d b4 da 3b 41 0b 49 bd
       -0.027442085 -0.0399589 0.006674303 -0.049083
0001f0 af 68 af 3d 87 f2 ac bd 18 bb 11 3d 09 9b 6e bd
       0.08564889 -0.08444696 0.035578817 -0.05825332
000200 d1 a9 0e 3b 6c 47 ea 3c 95 e7 31 be 32 db a9 bc
       0.00217687 0.02859851 -0.17373498 -0.020734403
000210 4c 34 03 3d d8 7d 89 bd 93 ce a6 3c 30 72 65 bd
       0.032032296 -0.06713456 0.020362174 -0.0560171
000220 26 e6 9a 3c 8d fa 81 bd e9 f2 c3 3c 2f d8 7a bd
       0.018908571 -0.06346617 0.02391954 -0.061241325
000230 9f 2a ae bc 49 80 fd 3d 6b 34 7a 3d 43 23 af bc
       -0.021260558 0.12377984 0.061085146 -0.021379119
000240 b4 19 05 3c a2 7b fd 3c 5e 5b d1 bd fd 02 0e 3d
       0.008123804 0.030942742 -0.10222505 0.03467082
000250 25 6b 08 3c 32 7e 83 3d 73 8e 44 3d 8d 82 0e 3d
       0.0083263265 0.06420554 0.047987413 0.03479247
000260 58 1e d4 3d 0f 76 89 3c 02 75 54 bd 43 e0 04 bc
       0.1035735 0.016779928 -0.0518694 -0.008110109
000270 1d c0 93 3d 0f ca 6c 3c 2a 1e e5 3c 48 b5 03 3e
       0.07214377 0.014452471 0.027968485 0.12862122
000280 3c bd f3 bd 23 68 f7 bd 00 4f 1d 3c 5c 68 16 3d
       -0.11901328 -0.120804094 0.009601355 0.03672062
000290 0b 11 ac 3d 14 d6 a6 bc fe d4 18 bd e2 cc 25 bd
       0.08401688 -0.020365752 -0.0373125 -0.040478595
0002a0 45 9d 45 3d ae af 0c be 24 d8 82 3c 2c e0 0e 3d
       0.048245687 -0.13738891 0.015972205 0.034881756
0002b0 16 4f e1 3b 4a 67 15 bc 05 70 9a bc 4b c2 4c 3d
       0.006875883 -0.009118864 -0.018852243 0.04998998
0002c0 be 88 cc 3d a4 fd 80 3c 2a 32 9d bc 94 e6 e1 bc
       0.09987019 0.015745945 -0.01918896 -0.027575769
0002d0 e3 48 b3 bc 19 c8 93 3c d1 98 88 3d 0b ed e9 3c
       -0.021885341 0.01803975 0.066697724 0.028555414
0002e0 01 e7 a2 bc b7 3e 92 3d fe d4 44 3d 64 17 83 bd
       -0.019885542 0.07140868 0.048054688 -0.06400946
0002f0 a9 7f a0 bc 64 29 b0 3c ef b8 67 be 47 a7 3b 3d
       -0.019592123 0.021504112 -0.2262914 0.045813825
000300 bd bf 8f bd 2d e8 8f bc 67 a2 f6 bb 03 50 f5 3d
       -0.07018993 -0.017566765 -0.007526684 0.11978152
000310 f2 75 45 3d 28 3d 81 3d 30 99 8a 3c 1d 86 d5 bc
       0.048208185 0.06310493 0.016918749 -0.026064927
000320 a9 3f f4 bd d9 de 81 bc fa 8c df bd 79 fd c7 3c
       -0.11926205 -0.015853332 -0.10915561 0.024412857
000330 53 47 5c bc 65 1d 48 be 53 7d 8c bd 92 11 82 3d
       -0.013444739 -0.19542463 -0.06859841 0.063510075
000340 a3 22 39 3d 37 bc b4 bb 16 8d 08 bd c4 27 b0 3d
       0.045199048 -0.005515601 -0.033337675 0.08601335
000350 2c 38 1c bb 3e a1 96 bd e7 23 a6 ba c9 8a dd bc
       -0.0023837192 -0.07354973 -0.0012675495 -0.027043717
000360 21 a3 e8 bc c3 16 df bd 80 59 bd 3d 88 7e f8 3d
       -0.028398098 -0.10893013 0.092455864 0.12133509
000370 d1 10 24 be 29 49 b8 3d d1 8a c2 bd 72 8e 66 bd
       -0.1602204 0.08998329 -0.094991334 -0.05628819
000380 3e be 17 3d cb a2 81 b9 4a e8 96 3d 60 5d ef 3c
       0.037046663 -0.00024726088 0.073685244 0.02921933
000390 c8 dc aa 3d ab dd f5 3c 88 3e 8f 3c bd 92 a7 3d
       0.08342892 0.030012926 0.017485872 0.08182285
0003a0 3c 75 76 bd af a4 64 3d ab 3e 00 bd be 93 90 3d
       -0.060170397 0.055821117 -0.031309765 0.070594296
0003b0 5c bd f1 bd 4d aa 40 3d af da 91 3a 52 25 c4 bb
       -0.118036956 0.04703741 0.0011127795 -0.0059858942
0003c0 2c 72 29 bd a8 77 8c 3d 04 aa 9a 3d e5 50 33 bd
       -0.04136865 0.0685876 0.07551959 -0.04377832
0003d0 f7 ee b4 3b dc 60 68 3d 06 8b 82 bd 16 b9 a3 bd
       0.005521651 0.056732997 -0.06374173 -0.07994287
0003e0 9d 33 b2 bd e3 c8 79 3d 1f 68 7c 3c 0d 42 34 bd
       -0.08701251 0.060982596 0.015405684 -0.044008303
0003f0 98 3f 97 ba 05 ba 41 bd 27 ff 32 bd 9c fb 27 bd
       -0.0011539338 -0.047296543 -0.043700363 -0.041011438

network_body._body_endoder.seq_layers.2.bias f4 [256]
000000 0a 4b 60 bb ba 3b 1e bc b2 47 f7 bb 48 97 36 bc
       -0.0034224414 -0.009657795 -0.0075463885 -0.011144467
000010 3b 8a 10 bc a4 5c 8e ba b4 f7 3b bd af 33 a7 bc
       -0.008822019 -0.0010861349 -0.045890525 -0.020410387
000020 7e 41 1c bb 58 0d 92 3c 07 cd f3 3c 8a 25 bf 3c
       -0.0023842747 0.017828628 0.02976085 0.02333333
000030 43 6b c8 3c 95 e4 ac 3c b2 a0 af bc 1b 75 14 bd
       0.024465209 0.02110509 -0.02143893 -0.036244493
000040 07 31 40 bd c3 06 b6 bb 99 58 da 3c 44 b9 63 bc
       -0.046921756 -0.0055550053 0.026653575 -0.013899151
000050 f1 40 13 bd 11 4c 1c 3c 0b 03 f5 3c 16 ca ee bc
       -0.035950605 0.00953962 0.029908678 -0.029149096
000060 e9 c1 ad bc 7d 48 29 3c 81 cd ac bc 8c db a3 bb
       -0.021210628 0.010332224 -0.021094086 -0.0050005373
000070 a0 18 6e 3c c0 95 21 3a f7 e6 88 3c c6 cd 92 bc
       0.014532238 0.0006163977 0.016711695 -0.017920386
000080 5c 01 15 3d 88 c3 c7 bb d4 09 a5 38 9c ce 4b bd
       0.03637825 -0.006096307 7.869644e-05 -0.049757585
000090 04 a8 94 bb 1c 05 13 bc 18 fc 16 bc 28 eb 76 bc
       -0.0045366306 -0.008973386 -0.009215377 -0.015070714
0000a0 f6 00 2d 3b 99 56 a7 bc e3 f7 00 3d e0 d1 2a 3c
       0.0026398278 -0.020427035 0.031486403 0.010426015
0000b0 1e c4 0f bd 50 d3 0d bd af 6b df 3c a5 f1 7e bc
       -0.03509914 -0.03462535 0.027273027 -0.015560542
0000c0 74 e9 ad 3c 83 02 d9 bc 12 14 a2 3a 99 c3 a4 3b
       0.021229483 -0.026490455 0.00123656 0.0050282
0000d0 67 0b b1 bb 36 73 07 3c da f4 9d bb 6c 97 b1 3c
       -0.0054029706 0.0082672145 -0.0048204483 0.021678649
0000e0 d5 12 20 bd 61 e9 5a 3c c7 a7 2e bd 1c f7 de bc
       -0.03908046 0.013361306 -0.042640474 -0.02721744
0000f0 43 d0 85 bb 5d e0 3c bc 4c 52 69 3c 2e 5c 14 bc
       -0.0040836646 -0.011528102 0.0142408125 -0.0090551805
000100 17 37 6d 39 74 05 3b bd b3 ba 81 3b db 17 c6 bc
       0.00022622604 -0.045659497 0.003959024 -0.024181297
000110 94 13 56 3c 22 e4 11 bd 2d 9a 86 bc 13 89 f4 3b
       0.013066191 -0.035617955 -0.016430939 0.0074626296
000120 bb 7c ec ba c7 68 7c bc b1 c2 53 bc c3 5b 0f bd
       -0.0018042544 -0.01540584 -0.012924836 -0.03499962
000130 1d 7b 1b 3c 92 84 19 3d 80 ef cc 3b f3 fc ae bc
       0.009489802 0.037479945 0.0062541366 -0.02136085
000140 cc 59 33 ba 6e 7f f3 bc 5c e8 22 bd ce f7 4c 3b
       -0.0006841689 -0.02972385 -0.039772376 0.0031275633
000150 4a 9f e9 3c cc c4 1d bd 64 84 51 bd f3 7f 7e bc
       0.028518338 -0.03851776 -0.05115165 -0.015533435
000160 50 42 36 bd 61 95 68 3a d4 b7 cf bc 76 c6 6d 3c
       -0.044496834 0.0008872357 -0.02535621 0.014512649
000170 c4 a8 8f 3c 13 61 e2 3c e8 76 0c bd bc b6 d9 3c
       0.017536528 0.02763418 -0.034293085 0.026576392
000180 ad 0b ab bc 1f 6f d2 bc c2 ab 70 3a 45 58 06 bc
       -0.02087959 -0.025687752 0.00091808673 -0.008199756
000190 04 08 09 bc 78 9a 58 bd e6 f9 3e bc f5 aa b7 bc
       -0.0083637275 -0.052881688 -0.01165626 -0.022420386
0001a0 dc b1 c4 bc b1 0e 73 bc 3b a6 cf bc 1a f3 83 3b
       -0.024010591 -0.014835046 -0.02534782 0.0040267827
0001b0 64 bd 84 bc 25 8b a1 bc bb b0 4b bc a2 f7 f2 bc
       -0.01620359 -0.01971967 -0.012432273 -0.029659096
0001c0 0f 67 b5 3c 06 53 ef bc a2 5d a2 bc 72 74 c4 bb
       0.022143869 -0.029214393 -0.019820038 -0.0059953267
0001d0 96 10 ad 3b c6 b0 46 bc f5 84 f7 3c 33 c9 86 ba
       0.005281518 -0.012127107 0.030214766 -0.0010283351
0001e0 b0 89 5c bc 4a 83 e4 3b 87 6c 27 3b e5 2b 93 bc
       -0.013460562 0.0069736587 0.0025546865 -0.017965266
0001f0 39 c5 ae bc 56 d6 a3 ba 68 6e 04 bc 21 f2 f8 bb
       -0.021334277 -0.001249979 -0.0080829635 -0.0075972234
000200 21 43 4b 3c 90 68 4a bc b2 3d d9 3c 08 ea 09 bc
       0.0124061415 -0.012354031 0.026518676 -0.008417614
000210 f1 09 51 bd e4 00 03 bd 1f 67 1d bd 2d c0 44 3c
       -0.05103487 -0.03198327 -0.038428422 0.012008709
000220 3f 97 97 bc ab a7 c8 bc 54 f8 66 bc 71 c6 72 bc
       -0.018504737 -0.024494013 -0.014097292 -0.01481782
000230 a7 f0 05 3c 1a 73 9c 3c 70 19 1b bd 7e 95 e9 bc
       0.008175052 0.019097853 -0.037866056 -0.028513666
000240 a6 32 cd ba 1e a8 a9 bc 5d 39 2d bc 13 52 33 bd
       -0.0015655353 -0.020710047 -0.0105727585 -0.043779444
000250 fa 9f c7 3c 94 73 a2 3c 6f 01 a2 bc 50 6f d7 3b
       0.024368275 0.019830503 -0.019776074 0.006574549
000260 bb a9 52 3c 18 d2 f3 bc fb 87 3a 3c 74 bb 34 bd
       0.01285785 -0.029763266 0.011384959 -0.04412408
000270 d4 ba 17 bd 68 11 5b 3c df 31 eb bc 30 b8 b1 3c
       -0.037043408 0.013370849 -0.028710304 0.021694273
000280 6d c3 33 3c 8c d9 ad bb 46 c6 80 3c 33 f8 d6 3c
       0.010971886 -0.0053054746 0.015719544 0.026241397
000290 ef a1 41 bb 0b 09 64 bc 3c 48 ba 3c 84 30 89 bb
       -0.0029545983 -0.013918172 0.022739522 -0.0041866917
0002a0 a8 e4 71 3c 7b a4 6b 3c d8 7e 06 bd 7a b0 cc 3c
       0.014763989 0.014382477 -0.03283581 0.024986494
0002b0 d8 0f 8a 3c b7 3c 06 bd 8a 08 42 bb 23 69 e3 bb
       0.016853258 -0.032772746 -0.002960714 -0.0069400235
0002c0 d9 c0 34 bc 43 e2 f9 bc fd 1e 3e bb 3c f1 7e 3b
       -0.011032307 -0.030503398 -0.002901017 0.003890111
0002d0 7f a5 0f 3d 23 0d 68 3b ad 79 11 bd fb 9e 84 3c
       0.03506994 0.003540822 -0.03551643 0.016189089
0002e0 8b 6c 3c bd d2 fd 6c 3c 33 aa 17 bc db c3 0f bd
       -0.046001952 0.014464812 -0.009256887 -0.03509889
0002f0 fe e9 05 3c 90 f7 d9 3c cc 87 7f 3c b4 c2 86 bb
       0.008173464 0.026607305 0.015596341 -0.004112566
000300 cb 50 2e bd 17 e2 30 3c 84 93 07 bd 51 ca b4 bc
       -0.04255752 0.0107960915 -0.033099666 -0.022069128
000310 c1 1e f7 bb 4f f5 a6 bc f7 b1 29 3c 73 76 b6 3c
       -0.007541508 -0.020380644 0.0103573715 0.022273278
000320 b7 09 12 bc 03 b7 ad bb 6b b1 bc 3b 7e e9 a0 3c
       -0.008913449 -0.0053013577 0.0057584546 0.019642588
000330 6f e2 65 bb b4 1a a4 bc f6 11 e2 bc 00 3e e2 bc
       -0.0035077592 -0.020032264 -0.027596455 -0.027617455
000340 44 24 52 3c f4 bf b8 3c dc c5 73 bc 1e cb ea ba
       0.012826029 0.022552468 -0.014878716 -0.0017913317
000350 14 84 28 bd 25 2b b2 bc 88 f4 09 bd 19 9b 97 bc
       -0.041141585 -0.021749089 -0.03368047 -0.018506574
000360 cc 1b 00 bd 67 b3 37 bc be 60 4d 3b 41 e0 99 bc
       -0.03127651 -0.011212206 0.003133818 -0.01878369
000370 8c cc 22 3d 30 80 ba bc 7d 81 9d 3c a5 10 c7 bb
       0.039745852 -0.022766203 0.019226784 -0.006074982
000380 bf c2 7a 3b 29 57 0d 3c ee bb 97 bc a6 33 f1 bc
       0.003826305 0.008626738 -0.018522229 -0.029443573
000390 f8 2f de 3b be 04 8a bc b3 7d 72 bc bb 6f 28 bc
       0.0067806207 -0.016847964 -0.014800477 -0.010280545
0003a0 29 cc 60 bc 3f 2a d0 ba 24 bb f9 bc 31 aa a1 bc
       -0.013720551 -0.0015881731 -0.030484743 -0.019734474
0003b0 62 b1 b0 bc 9a 51 02 bd ee e1 81 3b bf 2e e2 bc
       -0.021568958 -0.031816103 0.0039637005 -0.02761018
0003c0 ea 68 1b 3c 82 a4 0b bb 3c 94 69 3b e8 47 9d 3b
       0.009485463 -0.002130777 0.0035641333 0.0047998317
0003d0 cb 48 bc 3c f3 25 21 3c c1 c0 2f 3c ea e6 09 bd
       0.02298393 0.009835708 0.010727108 -0.033667482
0003e0 3b 34 3d 3c b1 d6 5b 3a 51 60 6d bc 5e 43 67 bc
       0.011548097 0.00083861785 -0.014488296 -0.014115183
0003f0 a7 f7 a9 3c 2a 6a 8d bc 5d 91 85 39 f8 81 de 3c
       0.020747973 -0.017262537 0.0002547604 0.027161583

network_body._body_endoder.seq_layers.4.weight f4 [256, 256]
000000 f4 8a 72 3d b2 87 0b be 05 92 d5 3d dd 42 19 be
       0.059214547 -0.13625982 0.10428242 -0.14966913
000010 68 64 14 bd cc 0c 8a 3d 37 8f 76 bb 19 80 7e bd
       -0.036228567 0.06740722 -0.0037621984 -0.062133882
000020 f8 84 d2 3d 86 05 65 bd a8 9a 95 bd f3 1a 99 bc
       0.10279268 -0.05591347 -0.07304889 -0.018689608
000030 92 38 29 3d 39 3d a4 3d 15 54 77 3d 0b ac a1 bd
       0.041313715 0.0801949 0.06038292 -0.07894143
000040 87 af c4 3d 59 b4 f1 3d af f7 2f bd 78 9b c9 3c
       0.09603792 0.11801977 -0.04296082 0.024610266
000050 92 6e 12 bd 6d 34 0c bd ee 98 9d 3d 7d 55 d8 bc
       -0.03574998 -0.034229685 0.07695185 -0.026407951
000060 82 51 b0 bd 77 e9 a4 3d 0d 0e d0 bb d0 03 6b bd
       -0.086092964 0.080523424 -0.0063493312 -0.057376683
000070 63 28 e3 3d 1b 7a 1c bd f0 91 2b bc 02 63 9d bd
       0.110916875 -0.038202386 -0.010471806 -0.076849
000080 88 67 e6 3c 53 b6 1b bd 78 72 99 3d 41 53 f5 3a
       0.02812554 -0.038015675 0.07492536 0.0018716828
000090 09 3c 2f 3c ee 10 96 3d 9c f4 16 bd 6d 23 54 bb
       0.010695466 0.07327448 -0.03685437 -0.0032369748
0000a0 d5 16 09 3d 93 72 3c bd ac 3d c4 3d 79 4d 89 3c
       0.03346904 -0.046007704 0.095820755 0.016760575
0000b0 ff 47 1b bd 46 f0 80 3b af 3f 90 3d e5 7b 6e bd
       -0.037910458 0.003934893 0.07043397 -0.058223624
0000c0 4a e0 ee bc ce 64 cc bd 5f b6 f7 bd 42 48 4b 3d
       -0.029159684 -0.099801645 -0.120953314 0.049629457
0000d0 25 3e c0 bd 3e d3 02 be 78 a7 67 bd f9 cc 05 be
       -0.09386853 -0.12775895 -0.056556195 -0.13066472
0000e0 55 22 e5 3c 15 3c b1 3d 54 92 94 bd 52 47 81 3d
       0.027970472 0.08654038 -0.072544724 0.063124314
0000f0 fc 76 a3 3c 93 69 7b bd 20 c8 03 bc f3 5a 00 bd
       0.019954197 -0.06137998 -0.008043319 -0.031336736
000100 1e 01 33 3d c2 2e d4 3d 89 7b 24 3e fe bf 1c bd
       0.043702237 0.10360481 0.1606275 -0.038269036
000110 ab 86 d7 3d d7 0b 28 bd f3 8b b8 3c b1 6d 18 3c
       0.10523733 -0.041026916 0.02252767 0.009303496
000120 c9 1e 74 3d 58 54 8f 3d ea d5 b2 bb 53 77 5f bd
       0.05959967 0.06998509 -0.0054576294 -0.054557156
000130 aa a8 3f 3d 4a 40 09 3e 0e 3e ef bc c8 37 de 3d
       0.04679171 0.1340343 -0.029204395 0.10850483
000140 2f 88 4d bd b2 8d 13 bc de 8e df 3c 37 d6 5a bd
       -0.050178703 -0.009005951 0.027289804 -0.053426947
000150 fd 2a b5 3d aa c0 43 bd b0 8f 44 be 00 65 61 bc
       0.0884609 -0.04779116 -0.19195437 -0.01375699
000160 72 60 1e bd 6e 11 00 bb 46 ae a5 3d 2e 22 32 bc
       -0.038666196 -0.001954164 0.08089881 -0.010872407
000170 b8 4d 99 bd 7a df 04 3d bc be 2e 3d 1f 73 3a bb
       -0.07485527 0.032439686 0.042662367 -0.0028449965
000180 9f cc 2e 3d 90 8f 97 3d bd e9 61 bd 50 65 b7 3c
       0.04267561 0.07400429 -0.05515455 0.022387177
000190 3b 62 20 3c 51 5f 70 3d 12 14 06 3d ac fa 52 bc
       0.009789045 0.05868465 0.032733984 -0.012877148
0001a0 c6 bd 02 bd 81 f2 d3 3d 6a 34 bd 3d cb bc 8d 3d
       -0.031919263 0.10348988 0.09238513 0.06920775
0001b0 ce 80 5e 3d 11 29 a1 bc 97 29 c6 bc bd 68 4c bc
       0.054322056 -0.019672902 -0.024189753 -0.012476143
0001c0 2b 62 ee bd 9c 05 dd bc fe 95 aa 3c d9 a6 ec 3b
       -0.11639818 -0.026980214 0.020823475 0.007222038
0001d0 62 62 ea 3c 37 20 ae bc fd fe 5b bd a6 d2 97 bd
       0.028611366 -0.021255596 -0.053709973 -0.07413225
0001e0 93 50 a7 bd f6 40 5d 3c 1e f7 36 bd 67 50 27 3d
       -0.08169665 0.013504257 -0.044669263 0.040848162
0001f0 36 07 6a bd 67 3b 53 bd 10 57 83 bd ea 87 84 bd
       -0.057135783 -0.051570322 -0.0641309 -0.06471236
000200 8d ec 31 3d 00 3e 67 bc e8 68 b6 3d 17 5e b4 3b
       0.043438483 -0.014113903 0.08906728 0.0055043804
000210 93 be e0 3c 3d 23 fd 3c d1 67 5b bd ff f5 d7 bc
       0.027434623 0.030900592 -0.053565804 -0.026362417
000220 ce a1 14 be e6 79 aa bc 85 f7 a1 ba 05 9b 21 bd
       -0.14514849 -0.020810079 -0.0012357092 -0.03945448
000230 21 0e 01 3e 1f 65 a6 3d a2 3d 5e 3b dd c3 3f bc
       0.12603046 0.08124756 0.0033911248 -0.011704412
000240 4a e7 21 bd dc e9 63 3d d2 5c 3d bd 89 05 da bd
       -0.039527215 0.055642948 -0.0462311 -0.10645587
000250 41 01 a4 3d 28 6c d6 3b a3 c2 db 3c 5b 39 bf bc
       0.08008052 0.006543655 0.026826208 -0.023342779
000260 80 99 5a bd 4d 79 f9 3a 75 7d d4 3d 6d 44 0e bd
       -0.053369045 0.0019033343 0.103754915 -0.034733225
000270 73 68 2e 3d 5d 09 3a bd bb 42 69 bc 9b 4b 59 3d
       0.04258008 -0.045419086 -0.014237101 0.05305062
000280 d4 e4 ca 3d b4 e4 9c bd 4f 22 76 bc 99 3a 88 bd
       0.09906927 -0.07660809 -0.015022828 -0.066518016
000290 8a 67 fe 3d 90 92 92 3c 8f af 4c 3d c1 3a 33 bd
       0.12422092 0.017892152 0.049972113 -0.043757204
0002a0 75 fa db 3d 49 28 ab 3b 7b 06 d3 bb fe ba 62 bd
       0.1074113 0.005223308 -0.0064399815 -0.05535411
0002b0 44 6c b5 3d ca 1c ee 3c 5c fa 8f bd 34 3f 89 3d
       0.08858541 0.029066462 -0.07030174 0.06701508
0002c0 40 55 17 bd 80 50 64 3d 60 84 26 bd fd 48 54 bd
       -0.036946535 0.055740833 -0.040653586 -0.05182742
0002d0 22 cd 02 3d cf 1f 81 bc 6e e0 af 39 06 37 48 3d
       0.03193391 -0.015762238 0.00033545814 0.0488806
0002e0 4a bc fe 39 1e 28 cd 3d ef f2 16 bd 0f a2 8e 39
       0.00048586942 0.10017417 -0.036852773 0.00027205094
0002f0 e1 7c b1 3b 1c 1b aa 3c 91 43 60 3d 11 a1 32 3d
       0.005416498 0.02076488 0.054751936 0.043610636
000300 39 83 d9 bc 47 17 7e bc ff e4 08 be 03 7c 3c bd
       -0.02655183 -0.015508479 -0.13368605 -0.046016704
000310 fb 5c 07 3e de b6 fc 3b f9 40 b4 bd c1 fe 9b bc
       0.13219063 0.007712229 -0.08801455 -0.019042375
000320 cc e0 c4 bd 95 8d 8b 3d 66 e6 01 3e a7 ee d0 bd
       -0.09613189 0.06814114 0.12685546 -0.10201769
000330 68 30 b8 3b 4e 58 4c bd 8c 9f 33 bd d5 80 1d 3d
       0.005621005 -0.0498889 -0.043853328 0.038452942
000340 6b 62 03 3d 7a 46 8e 3d db 57 24 bb d3 14 7c bd
       0.03207628 0.06947036 -0.002507678 -0.061543297
000350 db b7 db 3a 57 a1 51 bd 8e 00 2e 3d 80 ec 6f 3c
       0.0016763167 -0.051179256 0.042480998 0.014643788
000360 d6 1a 57 bd 6f 02 a0 3b ce 18 d7 39 3d e5 82 bd
       -0.052515827 0.0048831026 0.00041026477 -0.0639138
000370 cf 61 68 3c 78 1b 99 bd 5e d5 74 3a ee eb fb 3c
       0.014183476 -0.074759424 0.00093396555 0.030752148
000380 f9 4f 04 bc bf 21 f6 bd e3 b1 fb 3c 92 4e 17 bd
       -0.008075708 -0.12018155 0.030724471 -0.036940165
000390 fe ba 33 ba 2e 53 0b bc 57 02 a4 bd 91 a0 63 bd
       -0.0006856172 -0.008503718 -0.08008259 -0.05557305
0003a0 e7 47 d7 bc 24 2f b1 3d 97 a1 97 3d c7 21 05 3e
       -0.026279403 0.086515695 0.07403868 0.13001166
0003b0 11 b8 25 bd f5 87 d0 3c e1 ff 9d bd 5e ed 15 bd
       -0.040458743 0.025455454 -0.07714821 -0.036603324
0003c0 bb db 81 3d 79 6e aa 3c dd 29 0d 3d bb 1c e3 3c
       0.063407384 0.02080463 0.034463752 0.02772366
0003d0 de 14 65 3d 50 67 c7 3c 31 bd 10 3e 32 a9 09 3d
       0.055928104 0.024341255 0.14134671 0.033608623
0003e0 e5 f7 1b bd f5 3b 4c bd f3 6f 60 bd 12 46 fa bc
       -0.038078208 -0.049861867 -0.054794263 -0.03055099
0003f0 c9 a5 ee 3b ca 43 f5 3c ba e1 22 bd 60 8d e4 3c
       0.0072829467 0.02993955 -0.03976605 0.027899444

network_body._body_endoder.seq_layers.4.bias f4 [256]
000000 27 70 d6 3c 7b 78 20 bd 31 f6 04 bd d4 99 a5 3c
       0.026176525 -0.0391774 -0.03246135 0.020214953
000010 ad 21 82 bc b6 9a d0 bc 0c 38 76 3c b3 d3 1e bd
       -0.015885198 -0.025464397 0.015028011 -0.03877611
000020 81 d9 6d 3c 8e fd 16 3d 37 b5 56 bc 5f 87 8b 3c
       0.014517189 0.036862902 -0.013104728 0.017032323
000030 83 11 26 3b 82 7b dd 3c 97 67 8a bb 97 54 24 3d
       0.0025340028 0.027036432 -0.0042237747 0.040119734
000040 ec 65 c7 3c e7 33 e3 bc b7 fa f9 3c 7d 9b 79 bc
       0.024340592 -0.02773471 0.030515058 -0.015234825
000050 de 87 b4 ba 3c 37 c8 bc 6c ce 36 3d 0e 83 a3 3c
       -0.0013773402 -0.0244404 0.044630453 0.019959953
000060 a0 ac b7 3c a5 23 27 3c 5d c9 12 3c d0 be 40 3d
       0.022421181 0.010201369 0.008959142 0.047056973
000070 41 82 9d 3c cf 51 ec 3c 80 d8 48 bb 51 b3 29 bc
       0.019227149 0.028847603 -0.0030646622 -0.010357694
000080 e3 86 43 bc e2 08 13 bd 8e 38 df bc d3 75 0b 3d
       -0.011934015 -0.035897143 -0.027248647 0.034047913
000090 80 b5 f8 bc b4 1b a2 bc 4b a7 02 bc 44 33 11 bd
       -0.030359983 -0.0197886 -0.007974456 -0.03544928
0000a0 67 fb a7 bc 2a 3d 05 3d b6 aa f7 bc 72 e4 d2 bc
       -0.02050562 0.032529034 -0.030232769 -0.025743697
0000b0 d1 bd 5c bc 1a be 53 3c 5c b2 0e 3b 5b c0 08 bd
       -0.01347299 0.012923742 0.002177379 -0.03338657
0000c0 aa 27 e4 3c 2b 43 07 3c d0 51 f9 bc f2 17 e1 bb
       0.027850945 0.00825576 -0.030434519 -0.0068693096
0000d0 10 3d eb 3c 74 09 30 bd 42 78 b5 3b 28 46 3f 3c
       0.02871564 -0.042977765 0.0055380175 0.011674441
0000e0 cc 69 aa 3c 83 0a 2f 3d 55 df 8f 3c 4f 6b cf bc
       0.020802401 0.042734634 0.017562548 -0.025319723
0000f0 53 36 52 3d 1a 5e e0 3c e9 5d 01 bd 87 4e 17 bd
       0.05132134 0.027388621 -0.0315837 -0.036940124
000100 2a 37 f4 bc 53 26 7f bc c7 60 52 bc bf 49 a3 3c
       -0.02981146 -0.015573102 -0.012840456 0.019932626
000110 22 02 04 3d 36 22 86 bc 1a c5 18 3c 16 b1 cf bb
       0.032228597 -0.016373735 0.009324336 -0.006338249
000120 3b 97 76 bc 07 e9 87 bc 23 38 b6 bc 52 ac 2e bd
       -0.015050705 -0.016590608 -0.022243565 -0.042644806
000130 5b 19 22 3d fa 86 61 bc be fc 9e 3c ea b0 a5 bc
       0.039574962 -0.013765091 0.019407626 -0.02022596
000140 28 de fd 3c 1b 89 51 bc 15 70 7a bc 38 f4 2d 3d
       0.030989721 -0.012789036 -0.0152855115 0.042469233
000150 05 d0 b2 bc 69 b3 cc 3c b4 d9 02 bb b4 45 cc bc
       -0.021827707 0.024987893 -0.0019966187 -0.02493558
000160 2e 3d e8 bc 2b 0e 27 bd 0b fe 32 3d 20 66 c8 3b
       -0.028349485 -0.040784996 0.043699306 0.00611569
000170 19 91 ad bc bb bb 2b bc 2a 20 49 3d 18 f3 93 bc
       -0.021187352 -0.01048177 0.04910294 -0.018060252
000180 69 2b 0a bd 90 28 c5 bc cc 9a 2d 3d e9 38 85 3b
       -0.033732805 -0.024067193 0.042383954 0.004065622
000190 66 dd 91 bc 33 a1 04 3d 05 38 00 3c f5 fa be bc
       -0.017805766 0.032380294 0.007825856 -0.023313025
0001a0 f8 e2 17 3d b5 18 f6 bc 29 18 1d 3c 4d 3f 01 bd
       0.03708169 -0.030041078 0.00958828 -0.03155451
0001b0 89 ed 55 bb 0b 27 7b 3c 9a 23 ec 3c 37 63 1b bd
       -0.0032642803 0.015329133 0.02882557 -0.037936416
0001c0 93 26 9b bc c9 25 ef bc 5a d7 69 3d df 86 39 bc
       -0.018939292 -0.029192822 0.05709014 -0.01132366
0001d0 61 d9 a2 3c 98 f1 bc 3b 6e b8 da 3b f6 2d 82 3c
       0.019879045 0.005766105 0.0066748178 0.015891057
0001e0 9a f5 b1 3c 97 1a 81 3c 6c 03 fd 3c de fa 7e bc
       0.021723557 0.01575975 0.03088542 -0.015562741
0001f0 80 a9 a4 bc 7d a3 5e bc ec 58 24 3c 75 a3 86 bc
       -0.020100355 -0.013588783 0.010030966 -0.016435364
000200 e5 89 58 3d 8d 3c 37 3d bc 94 5b bc b9 c9 fc bc
       0.05286588 0.04473548 -0.01340216 -0.030857908
000210 77 a8 f0 bc 6a bf 6f 3c d7 b4 22 3b ac ae 38 3c
       -0.029377205 0.014633039 0.0024827027 0.011272114
000220 70 e9 2a bc c9 f2 a4 bc 8e 33 06 3d b6 19 2f bd
       -0.010431632 -0.0201353 0.03276401 -0.04274913
000230 d3 d7 ec bc e8 75 0c 39 2c a6 c4 bc ea da ff bb
       -0.028911507 0.00013395364 -0.024005018 -0.007808079
000240 db f8 43 bc eb d1 28 bd 81 f4 08 bd 57 9a 50 bc
       -0.011961187 -0.04121582 -0.033436302 -0.01273211
000250 80 fa d6 bc 16 f0 71 bc 71 96 0f bd 04 21 3e 3c
       -0.026242495 -0.014766714 -0.03505558 0.011604551
000260 d5 5f 3b 3d 2e 72 fc bb bc 42 d1 bb e7 64 f1 bc
       0.04574569 -0.007704041 -0.006386129 -0.02946706
000270 20 a5 02 bd 46 88 5c 3b 2c 1a d5 bb b0 2e 8b bc
       -0.031895757 0.0033650561 -0.006503364 -0.016990036
000280 68 bf f9 bc a6 30 c2 bb f2 74 94 bc 3f 2b 09 3d
       -0.030486777 -0.0059262095 -0.01812217 0.03348851
000290 dc 7a ff 3c da 07 5c 3c cc eb 42 3c 2f e0 21 bc
       0.031186514 0.013429606 0.011897039 -0.00988011
0002a0 f1 2b e1 bc 99 de ba 3c 6f 58 a0 bc 7e 65 ab bc
       -0.027486773 0.022811221 -0.019573418 -0.020922419
0002b0 89 db d4 bc 55 9c 87 bc c1 f3 b1 3c ed 05 d4 3c
       -0.025983589 -0.016554037 0.021722676 0.025881732
0002c0 70 e2 2f 3d a5 a2 21 3c 24 e6 35 3d bb 9b 64 bc
       0.042940557 0.009865438 0.044408932 -0.013953145
0002d0 19 53 a3 bc d5 cf f2 3c 5c 84 69 bc 1b 6b 62 bc
       -0.019937085 0.029640118 -0.014252748 -0.013819481
0002e0 df 38 9a 3c 6b 1a 2e 3d f7 a3 3f 3c 19 4b 6b bc
       0.018825946 0.042505663 0.011696807 -0.014361166
0002f0 67 4d e2 bc ce ec fa bc d2 7f cd bc 4f 91 13 bd
       -0.027624799 -0.030630495 -0.025085364 -0.03602725
000300 d5 bb 89 bc 65 21 89 3c f9 9d 8e 3d 02 c1 6a bc
       -0.016813198 0.016739557 0.06963725 -0.014328243
000310 99 e9 d2 bc 84 20 98 3a 95 a0 a9 bc 5b 16 5b 3d
       -0.025746154 0.001160637 -0.020706454 0.053488117
000320 55 09 d7 bc 6e b1 c0 3b 5a 86 50 bc d3 3a 06 3d
       -0.026249567 0.0058805263 -0.012727344 0.032770943
000330 5b 02 5f bc a7 23 e2 3a c5 20 8b bc 38 9d 00 bd
       -0.013611401 0.0017253057 -0.0169834 -0.031399935
000340 c8 79 a5 3c 5f 75 05 bd 87 92 16 3b 71 e6 08 bc
       0.020199671 -0.032582637 0.002297552 -0.008355723
000350 73 bf 10 bd de 84 25 bd df d0 2a 3b 43 8d 15 bc
       -0.03533883 -0.040409915 0.0026064438 -0.009127918
000360 68 c0 c9 3c e9 bb f6 bb 97 72 34 3d d3 c1 26 3d
       0.02462788 -0.007529725 0.044054594 0.04071219
000370 b8 5f 36 bd fb 96 9d bc a5 ab 01 3d 49 ba 00 3d
       -0.04452488 -0.019237032 0.031657834 0.031427655
000380 2e 96 ed bc b1 6c 1b 3d 94 b8 08 bb c8 8a a5 bc
       -0.029002275 0.037945453 -0.002086197 -0.020207778
000390 65 b9 63 3d cd 41 7e bc 4d 38 4d bc 3b 3a 01 bd
       0.055596728 -0.015518618 -0.01252563 -0.031549674
0003a0 40 86 97 bb 15 0e 70 3d 91 9c 4d bd cc 29 a8 bc
       -0.004624158 0.05860718 -0.05019814 -0.020527743
0003b0 46 15 53 3c d9 92 f8 bc 3f 77 9e 3c 71 9b 4a bb
       0.01288349 -0.03034346 0.01934397 -0.0030915404
0003c0 b8 79 ca 3c 3f a1 de bc 9f b2 3e bc fa 05 81 3b
       0.024716243 -0.027176498 -0.011639266 0.00393748
0003d0 8f 58 29 bd 63 11 a4 bc f6 2f 1e 3c 4b c0 3b bd
       -0.04134422 -0.020027822 0.0096549895 -0.04583768
0003e0 c1 87 f3 3b 97 63 c1 bc af a5 b3 bc 04 cf 65 3c
       0.0074319546 -0.023607058 -0.02192959 0.014026407
0003f0 47 03 3a 3d 7d e5 46 3c e0 44 2d bc e2 62 49 bb
       0.04541328 0.012139675 -0.010575503 -0.0030729105

action_model._continuous_distribution.log_sigma f4 [1, 2]
000000 ef a9 6c be 88 c2 c5 bd
       -0.231117 -0.096562445
