results/petfollower24/PetFollower/PetFollower-89931.onnx (onnx, 547009 bytes, 11 tensors)

network_body.observation_encoder.processors.0.normalizer.running_mean f4 [11]
-0.016525012 -0.13955325 0.0050192997 -0.013128982 0.0 -0.002753676 0.027710263 1.57027e-05
0.023092367 5.541503 0.47214788
00000000: 765f 87bc 0ce7 0ebe f078 a43b f11a 57bc
00000010: 0000 0000 0477 34bb a200 e33c 4bb9 8337
00000020: 342c bd3c fe53 b140 5ebd f13e

network_body._body_endoder.seq_layers.0.weight f4 [256, 11]
0.45307896 0.0057304706 -0.16352324 -0.24518007 -0.17705727 0.4469419 0.123225585 0.01769907
0.13024211 0.059621107 -0.09351371 0.08689158 -0.41842276 0.47600845 0.37006044 0.05047916
0.6298126 0.052412383 -0.1315167 0.124611676 0.21699224 -0.22894175 -0.3754856 0.07540713
-0.0069118463 -0.060568456 0.15783288 0.5966469 0.19050738 0.15044728 -0.35198534 0.4303053
-0.032262083 0.33760074 0.17308715 0.54104614 -0.03192025 0.18959908 0.34410346 0.10292956
0.5673672 -0.047033384 -0.6031227 0.100869134 -0.3235896 -0.44202578 0.1662468 -0.016920384
0.02876036 0.0153063405 -0.11239898 -0.027630588 -0.3227849 -0.22382388 -0.48208335 0.4893793
-0.07886246 0.089094184 -0.16689049 0.12298378 0.04055064 -0.13771261 -0.032768335 0.07013636
0.07450268 0.32377824 -0.2165982 0.25877094 -0.1626123 0.1247582 0.5234363 -0.30396917
0.3556138 -0.68298274 -0.34708327 0.14726147 0.37421325 -0.28618753 0.06456977 0.1885328
-0.068919614 0.26393837 0.45526865 -0.74872106 -0.53617424 -0.14355782 -0.031697445 -0.052119892
0.058647223 0.01315806 -0.4148044 -0.5364135 -0.72896695 0.018413655 -0.14194058 0.3353346
-0.5751524 -0.32841268 -0.25231752 -0.32756504 -0.39811698 -0.22808161 -0.45405805 0.39663106
0.1378415 0.2907931 -0.37111917 0.22261155 0.17808308 -0.014549334 -0.044751618 -0.20610414
0.0030218095 0.24566264 -0.31306574 -0.13123418 -0.14932956 -0.22369461 -0.4284299 0.07763927
-0.26192683 0.21475247 -0.14107233 0.038138464 -0.18653809 -0.23939204 0.48605168 -0.23902294
0.34092474 0.28262278 -0.35598245 -0.5559401 0.15321764 0.45250157 -0.09673611 -0.75430286
0.48813346 0.041032333 -0.10200366 0.07095169 -0.04708969 -0.16654189 -0.4073283 0.1370625
-0.08873719 0.09227888 0.18395779 0.21514194 0.027950915 0.14963552 -0.09342202 -0.22432797
-0.36856285 0.39283398 0.06129628 -0.28569147 0.12223444 -0.09543101 -0.06945611 -0.12865517
0.040277354 0.07075693 0.518202 -0.38415983 -0.5433767 0.19163796 0.19623815 0.5924513
0.8491644 0.17052282 -0.4979243 -0.2718565 -0.18500218 0.0676513 -0.68409646 -0.4959972
0.33676142 -0.32934198 -0.110949084 0.47177535 0.055965524 -0.20930067 -0.08940286 -0.09854151
-0.049648378 0.76987725 -0.09101425 -0.0793 -0.13550322 -0.146295 -0.3544084 -0.09602355
-0.031460248 -0.35755667 0.15139239 0.22868787 0.26903355 0.07663195 -0.43478447 0.17159244
0.226888 0.0165672 -0.03965189 0.10575859 0.5709578 0.007042261 0.22212443 -0.10785464
-0.11262854 -0.1252481 -0.35693353 0.046489343 -0.01474698 -0.6992836 0.030206066 -0.2855866
0.092537284 -0.054387454 -0.08262279 0.1733044 -0.3574995 0.12984549 -0.39842567 -0.46197116
0.017869506 0.27272514 0.18737032 0.23106633 0.2943868 0.5758554 -0.21086422 0.11018768
-0.39830208 -0.17829639 -0.15159295 0.6667265 0.25813112 -0.04645298 -0.16109233 0.059634913
0.035887636 0.23639475 0.0777465 0.04358341 -0.1746369 -0.17834744 0.15559374 0.50073266
-0.27451262 0.21556737 0.41802925 -0.1390999 -0.44540042 0.37872946 -0.012679977 -0.20138931
00000000: f7f9 e73e acc6 bb3b a372 27be 7c10 7bbe
00000010: 804e 35be 92d5 e43e b25d fc3d a4fd 903c
00000020: 305e 053e 4335 743d 1e84 bfbd 36f4 b13d
00000030: 823b d6be 61b7 f33e 9078 bd3e 3cc3 4e3d
00000040: 663b 213f 5eae 563d 50ac 06be 6834 ff3d
00000050: 3733 5e3e b56f 6abe a63f c0be 0e6f 9a3d
00000060: c57c e2bb a116 78bd f19e 213e dabd 183f
00000070: 5e14 433e da0e 1a3e 6c37 b4be fa50 dc3e
00000080: 3f25 04bd 01da ac3e c23d 313e 0082 0a3f
00000090: cfbe 02bd 4326 423e 542e b03e bccc d23d
000000a0: fa3e 113f 14a6 40bd 4066 1abf 7a94 ce3d
000000b0: 89ad a5be 3451 e2be 9a3c 2a3e 9e9c 8abc
000000c0: d99a eb3c 72c7 7a3c 7031 e6bd 8b59 e2bc
000000d0: 1044 a5be 1632 65be a1d3 f6be ec8f fa3e
000000e0: a482 a1bd 0377 b63d 57e5 2abe ecde fb3d
000000f0: 6e18 263d 8904 0dbe 1738 06bd a7a3 8f3d
00000100: dc94 983d 43c6 a53e ebcb 5dbe a07d 843e
00000110: d783 26be 3a81 ff3d ecff 053f d9a1 9bbe
00000120: 0313 b63e f5d7 2ebf e6b4 b1be b6cb 163e
00000130: e198 bf3e 2c87 92be 283d 843d be0e 413e
00000140: ba25 8dbd ee22 873e f918 e93e 2fac 3fbf
00000150: b742 09bf d200 13be 2ed5 01bd ab7b 55bd
00000160: 1238 703d e794 573c 3e61 d4be 6552 09bf
00000170: 949d 3abf 3cd8 963c df58 11be fab0 ab3e
00000180: 303d 13bf b525 a8be c32f 81be 9bb6 a7be
00000190: fdd5 cbbe 3a8e 69be 4c7a e8be 3a13 cb3e
000001a0: 5226 0d3e d5e2 943e 5503 bebe 48f4 633e
000001b0: 695b 363e 5460 6ebc 794d 37bd f70c 53be
000001c0: 8d09 463b fd8e 7b3e 274a a0be 4162 06be
000001d0: d9e9 18be 3310 65be 2a5b dbbe 5601 9f3d
000001e0: 461b 86be 12e8 5b3e 4475 10be 1437 1c3d
000001f0: d703 3fbe 3023 75be c4db f83e 6ec2 74be
00000200: b08d ae3e efb3 903e 5543 b6be 1752 0ebf
00000210: 16e5 1c3e 49ae e73e 951d c6bd fe19 41bf
00000220: a1ec f93e 8511 283d 4be7 d0bd 1f4f 913d
00000230: 1ee1 40bd f589 2abe 568d d0be 1d5a 0c3e
00000240: d8bb b5bd b6fc bc3d 6e5f 3c3e 2b4e 5c3e
00000250: 51f9 e43c 0e3a 193e 0b54 bfbd 3bb6 65be
00000260: 45b4 bcbe 8921 c93e cf11 7b3d 2746 92be
00000270: 0d56 fa3d 5571 c3bd 013f 8ebd 2ebe 03be
00000280: def9 243d 02e9 903d e3a8 043f 99b0 c4be
00000290: bc1a 0bbf be3c 443e a7f2 483e e3aa 173f
000002a0: d762 593f 899d 2e3e efef febe c630 8bbe
000002b0: 3671 3dbe c48c 8a3d f220 2fbf 58f3 fdbe
000002c0: fe6b ac3e 839f a8be 4639 e3bd 8a8c f13e
000002d0: 1b3c 653d ea52 56be d918 b7bd 22d0 c9bd
000002e0: 195c 4bbd ad16 453f ae65 babd 0a68 a2bd
000002f0: 5bc1 0abe 5bce 15be 0575 b5be ffa7 c4bd
00000300: 76dc 00bd ab11 b7be 9b06 1b3e 272d 6a3e
00000310: c4be 893e 36f1 9c3d 129c debe eeb5 2f3e
00000320: 5455 683e f0b7 873c 056a 22bd f697 d83d
00000330: 4a2a 123f c4c2 e63b 9674 633e e5e2 dcbd
00000340: cba9 e6bd 0a41 00be febf b6be 9c6b 3e3d
00000350: 519d 71bc 4004 33bf b672 f73c 6838 92be
00000360: 3084 bd3d 61c5 5ebd 2336 a9bd b576 313e
00000370: 2d0a b7be 37f6 043e 73fe cbbe 7c87 ecbe
00000380: 1263 923c a1a2 8b3e 01de 3f3e a79c 6c3e
00000390: deb9 963e 426b 133f caec 57be 14aa e13d
000003a0: 40ee cbbe 5493 36be 2f3b 1bbe 97ae 2a3f
000003b0: c329 843e 7b45 3ebd 63f5 24be bd43 743d
000003c0: eafe 123d 7711 723e 8f39 9f3d 8584 323d
000003d0: 04d4 32be b6a0 36be f753 1f3e 0430 003f
000003e0: eb8c 8cbe b1bd 5c3e ee07 d63e 3470 0ebe
000003f0: 860b e4be d4e8 c13e aebf 4fbc 0039 4ebe

network_body._body_endoder.seq_layers.0.bias f4 [256]
0.010010015 0.022530109 0.017603284 0.007248905 -0.019064454 -0.006742024 0.02596165 0.01463817
0.003258968 0.010372357 -0.015300173 -0.009622076 0.0006392131 -0.013728071 -0.034925494 0.0009993024
0.005652631 0.0021575561 0.013868456 0.0046876236 0.018996809 0.0068467613 -0.017928937 0.02327894
0.0072617196 -0.00915718 -0.00020003704 -0.0044264235 -0.026317919 -0.011214582 0.023172736 -0.0021182902
0.05661594 0.012635391 0.027295325 -0.002732786 0.036361624 0.016245654 -0.006783219 -0.004966463
0.0067989356 0.017143844 0.022326509 0.0032053674 0.011714012 0.0066386145 -0.010896055 0.036352877
0.019811088 0.018214796 -0.0009916353 0.021224443 0.010662798 0.012484236 -0.0025148147 0.017744318
0.0153195355 0.00564068 -0.0045026597 0.012464656 0.008367188 0.02205453 -0.034874372 -0.003959995
-2.8053108e-05 -0.019396406 0.0018573325 -0.010673196 0.00764792 -0.00629068 0.032511182 0.028274095
0.032551363 -0.015815174 0.016283594 -0.016745508 0.0047206124 0.011173129 0.014884479 0.0157344
0.0036854006 -0.017018143 0.00030784225 0.007820184 0.02217789 -0.032019317 0.0018551478 0.025871405
-0.0022263615 0.0092605995 0.022007644 0.011174699 0.006515029 0.001172714 0.015856624 -0.0012762428
0.0024311454 0.005343299 -0.02439369 -0.018841797 0.011082564 -0.0066610533 0.02213404 -0.014246678
0.0111205075 0.011549509 0.004063109 0.0018194402 -0.0014256503 0.006401297 -0.0020025347 0.022575064
-0.018688213 -0.009213827 -0.0012057675 0.017914241 0.004460233 0.003042149 0.0015596699 0.0013626072
0.0056466325 0.0049814275 0.0019015508 0.034695208 -0.010221531 -0.0013688537 -0.0071134297 -0.0038079915
0.0050994596 0.013446333 -0.024985231 -0.007567618 0.0009465637 -0.016552094 0.010710242 -0.021963835
0.0043463064 0.023974275 -0.010707607 0.03128716 0.024073796 0.00799644 -0.00057808467 -0.0021833314
0.018451937 -0.008212825 0.020309545 -0.0058797896 0.0048695058 0.0056937034 0.003966239 0.011874684
-0.024783364 -0.006525263 0.018594235 -0.014995565 0.022915825 -0.004657168 0.023470487 0.007625848
0.039434433 -0.0046398514 0.0114636915 0.0014228555 0.021863963 0.033696722 -0.014496519 0.023985622
0.013705847 0.00847657 0.013698395 -0.006618691 0.012644028 -0.0012588433 0.01998593 0.0048561823
0.024096854 0.0026482467 0.016252913 0.0024569368 0.01211021 -0.009172359 -0.0010644782 -0.008352441
0.028105961 0.025259607 0.02719905 0.010582487 -0.0015485007 -0.005137689 0.015301931 -0.0009436963
0.0061690984 -0.0053165355 -0.0008442786 0.0075335028 -0.0018099023 -0.037880834 0.005123552 0.017145116
0.0005103436 0.032429572 0.00014172327 0.0245796 0.014153982 0.005602153 0.021946967 0.008161104
0.010914557 0.0038763478 -0.004285321 -0.005858125 -0.011992666 0.014346002 0.021696597 0.021205503
-0.004709852 0.044481587 0.010798672 0.004376373 -0.025851417 0.01059124 0.017435992 -0.022415005
-0.031365078 0.03294929 0.012940591 -0.007818855 0.009662654 -0.017127482 0.0021379339 0.022536645
0.016230322 -0.011103036 0.010203211 -0.0077707837 0.03713484 0.012222583 -0.0117928 0.011486694
0.02674636 0.023561286 0.020296726 0.011410755 0.026060611 -0.00928094 0.01742002 0.001979505
-0.0040376494 0.03413029 0.004363131 0.0075938976 -0.017704887 -0.008627559 0.0058314092 -0.02089544
00000000: 0c01 243c 1091 b83c c334 903c 3988 ed3b
00000010: 0f2d 9cbc 32ec dcbb 87ad d43c efd4 6f3c
00000020: 6994 553b d2f0 293c 94ad 7abc e9a5 1dbc
00000030: dd90 273a b4eb 60bc 090e 0fbd 06fb 823a
00000040: b539 b93b c965 0d3b 8538 633c a39a 993b
00000050: 329f 9b3c cc5a e03b b5df 92bc 7ab3 be3c
00000060: b8f3 ed3b ff07 16bc 09c1 51b9 880b 91bb
00000070: ad98 d7bc 5ebd 37bc c0d4 bd3c 03d3 0abb
00000080: 1ee6 673d ac04 4f3c 729a df3c 8a18 33bb
00000090: edef 143d 9b15 853c c445 debb b6bd a2bb
000000a0: 9bc9 de3b 3f71 8c3c 15e6 b63c 2411 523b
000000b0: 21ec 3f3c bc88 d93b 5e85 32bc c1e6 143d
000000c0: dd4a a23c 3237 953c c2f9 81ba e2de ad3c
000000d0: 04b3 2e3c ae8a 4c3c 97cf 24bb 885c 913c
000000e0: cafe 7a3c 74d5 b83b 0c8b 93bb 8e38 4c3c
000000f0: 8816 093c b4ab b43c 6ed8 0ebd d9c2 81bb
00000100: 9753 ebb7 36e5 9ebc bd71 f33a a1de 2ebc
00000110: 679b fa3b 0c22 cebb 722a 053d 139f e73c
00000120: 9454 053d d38e 81bc 2c65 853c e02d 89bc
00000130: 5eaf 9a3b 800f 373c 08de 733c 6ee5 803c
00000140: c386 713b a269 8bbc e365 a139 3b20 003c
00000150: 68ae b53c b026 03bd 6e28 f33a 45f0 d33c
00000160: 26e8 11bb c5b9 173c 6049 b43c 1616 373c
00000170: 067c d53b c1b5 993a c0e5 813c 9a47 a7ba
00000180: da53 1f3b d716 af3b 47d5 c7bc 1d5a 9abc
00000190: a493 353c f744 dabb 7252 b53c e66a 69bc
000001a0: ca32 363c 273a 3d3c d423 853b 487a ee3a
000001b0: e3dc baba f9c1 d13b f53c 03bb 57ef b83c
000001c0: 0618 99bc 97f5 16bc d80a 9eba e3c0 923c
000001d0: 2527 923b ca5e 473b d66d cc3a 8399 b23a
000001e0: 6307 b93b 3e3b a33b 753d f93a 901c 0e3d
000001f0: 3578 27bc 1c6b b3ba c617 e9bb 7f8f 79bb
00000200: 5e19 a73b 024e 5c3c d4ad ccbc c8f9 f7bb
00000210: d122 783a 4298 87bc 037a 2f3c 80ed b3bc
00000220: 766b 8e3b b365 c43c f56e 2fbc f726 003d
00000230: 6936 c53c 8003 033c 9b8a 17ba 3916 0fbb
00000240: 8428 973c 168f 06bc 3460 a63c 40ab c0bb
00000250: 6090 9f3b 3f92 ba3b 39f7 813b 098e 423c
00000260: 7b06 cbbc e0d1 d5bb f052 983c f5af 75bc
00000270: f8b9 bb3c 289b 98bb 2e45 c03c 40e2 f93b
00000280: 0086 213d e509 98bb 35d2 3b3c 1c7f ba3a
00000290: 0e1c b33c 9305 0a3d cf82 6dbc 7f7d c43c
000002a0: 7d8e 603c 50e1 0a3c 3c6f 603c 9be1 d8bb
000002b0: e628 4f3c c6ff a4ba 88b9 a33c 9c20 9f3b
000002c0: c466 c53c 358e 2d3b d424 853c 8f04 213b
000002d0: e769 463c a947 16bc f685 8bba add8 08bc
000002e0: 793e e63c 3ced ce3c 8bd0 de3c 2b62 2d3c
000002f0: 10f7 caba 0f5a a8bb f3b4 7a3c 6362 77ba
00000300: 2626 ca3b 5536 aebb 9452 5dba 9adb f63b
00000310: 3e3a edba ef28 1bbd 78e3 a73b ea73 8c3c
00000320: 94c8 053a dfd4 043d 8d9b 1439 285b c93c
00000330: 1ae6 673c 4492 b73b 20ca b33c 27b6 053c
00000340: f8d2 323c 530a 7e3b e16b 8cbb 84f5 bfbb
00000350: e37c 44bc 7e0b 6b3c 10bd b13c 2ab7 ad3c
00000360: 1a55 9abb 5332 363d eaec 303c ad67 8f3b
00000370: 5ac6 d3bc e186 2d3c edd5 8e3c ac9f b7bc
00000380: ab78 00bd d6f5 063d c604 543c a81a 00bc
00000390: 1c50 1e3c ef4e 8cbc 941c 0c3b c59e b83c
000003a0: 74f5 843c 82e9 35bc 5e2b 273c 0fa2 febb
000003b0: b41a 183d 3b41 483c 9736 41bc b032 3c3c
000003c0: 2f1b db3c 9903 c13c 5245 a63c 2df4 3a3c
000003d0: 107d d53c 150f 18bc 6eb4 8e3c 95ba 013b
000003e0: 424e 84bb 34cc 0b3d 98f8 8e3b 3bd6 f83b
000003f0: d709 91bc 9b5a 0dbc 6815 bf3b ea2c abbc

network_body._body_endoder.seq_layers.2.weight f4 [256, 256]
-0.057677004 -0.12508644 -0.040708456 0.07017953 -0.068511695 0.007896736 0.16118674 0.031910814
0.030832753 0.0055184006 0.12609623 0.025650047 0.052395917 0.033224676 -0.013796385 -0.055157762
0.07467734 -0.06541468 -0.095811814 -0.05278565 -0.054484766 0.008991346 0.035116024 0.009658137
-0.096988335 -0.013874823 0.018793924 0.05311478 0.028463881 0.06939298 0.04558224 -0.04178946
0.0031976183 -0.06827367 0.034792896 -0.0048587318 -0.025928888 -0.095225684 0.04169228 -0.099185996
0.08749891 -0.03949719 0.012489496 -0.0017330301 0.01458777 -0.12490941 -0.03240344 0.11673812
-0.04175713 -0.06268014 0.009897434 0.012076854 -0.05319874 -0.0043374873 0.08252524 0.04276178
-0.029301366 0.055404115 0.07163056 -0.07116071 0.036896277 -0.041862484 -0.032138687 -0.041317943
-0.0838411 -0.09129095 0.054963257 -0.11275395 0.032477435 0.02937558 -0.009413867 -0.014068782
0.042981673 -0.051018987 -0.12716772 0.05523442 -0.057650425 -0.13479224 0.009250603 0.01974062
0.08228803 -0.019427942 -0.109908774 0.04245835 -0.079193115 -0.019367827 0.14579937 0.13300306
0.10894928 0.124064006 -0.0040508052 -0.014233487 -0.016725507 -0.036548726 -0.0077801906 0.0010971337
-0.0031902762 -0.0046123327 0.00024040406 -0.061928075 0.023922976 -0.04565699 -0.028417991 -0.07042879
-0.028745675 -0.0041391193 -0.02172011 -0.1318999 0.085246615 0.026658934 -0.05856 -0.042303145
0.025724253 -0.05851669 -0.05251232 -0.06859728 0.05240518 -0.047374114 -0.01313133 0.006555586
-0.053552706 0.008913768 0.08403058 -0.055164244 -0.033881452 -0.0057399054 -0.033846542 0.06939631
0.06846765 0.006303519 -0.07679762 -0.046854377 -0.024325846 0.025221242 -0.010866978 0.06362528
-0.06910355 -0.009623391 0.11246689 -0.08696894 -0.07328553 0.0011063454 0.028646354 -0.0016772331
-0.014993695 -0.06043684 0.03566659 -0.013300184 -0.03639117 0.037783813 0.0020244434 -0.07529187
-0.034618568 -0.06360425 -0.05624578 -0.00443546 0.104456164 -0.110228114 0.00084003166 -0.028318474
0.08799169 0.13671665 0.041565362 -0.11788221 -0.0024761683 -0.0017017178 -0.017701993 0.040917624
0.05476136 0.0052751224 -0.041637074 -0.030519597 -0.022682881 0.021251826 0.014637627 -0.0912577
0.06549176 0.018837687 -0.026196418 0.018874524 -0.12122186 -0.10003137 0.05225944 -0.028152052
0.032354653 0.08677152 0.0014429262 0.00058852247 0.114285916 0.02673446 0.052158773 0.020928046
0.03967755 0.11874771 0.027215665 -0.11000652 -0.03910578 -0.013544924 0.031005418 -0.07301831
-0.022805322 -0.083671376 -0.02386142 0.04854942 -0.0324471 0.0682716 0.09646095 0.0054337
0.03311126 -0.07383037 0.05381488 -0.07461558 0.042574517 -0.047470827 0.012193179 0.046486385
0.006971996 0.026749492 0.054702885 -0.06518376 -0.0152875595 -0.06868972 -0.0033224588 -0.09818462
-0.042771958 -0.023439713 0.016713718 -0.070283525 0.020586705 0.026884684 -0.06601641 0.008019679
0.1197959 0.035006158 0.14090307 0.085275695 0.01691377 -0.026092494 0.05114743 -0.016205262
0.02386525 0.024894493 0.022569997 0.020713657 -0.013076859 0.019258948 0.069773704 -0.043225866
0.019796664 0.007823473 0.0429901 0.06550215 -0.037016034 0.089707665 -0.011808326 0.05461766
00000000: b93e 6cbd a916 00be e9bd 26bd 49ba 8f3d
00000010: dc4f 8cbd 5061 013c 230e 253e eab4 023d
00000020: f894 fc3c b3d3 b43b 5f1f 013e 0c20 d23c
00000030: 1a9d 563d 9916 083d 3c0a 62bc 1bed 61bd
00000040: 6ff0 983d 22f8 85bd fc38 c4bd c435 58bd
00000050: 6b2b 5fbd 7050 133c d2d5 0f3d 2a3d 1e3c
00000060: d2a1 c6bd 3a53 63bc b7f5 993c e28e 593d
00000070: 162d e93c e81d 8e3d 71b4 3a3d 6d2b 2bbd
00000080: 228f 513b 11d3 8bbd ff82 0e3d ff35 9fbb
00000090: d268 d4bc af05 c3bd 86c5 2a3d 0722 cbbd
000000a0: a132 b33d cec7 21bd bea0 4c3c d726 e3ba
000000b0: 8b01 6f3c 81d0 ffbd 78b9 04bd 6514 ef3d
000000c0: 8609 2bbd 725e 80bd d928 223c ffdd 453c
000000d0: ece6 59bd 7b21 8ebb fe02 a93d fa26 2f3d
000000e0: 6b09 f0bc 6def 623d 0bb3 923d b5bc 91bd
000000f0: 8d20 173d ff77 2bbd dba3 03bd 013d 29bd
00000100: e2b4 abbd c0f6 babd 2721 613d 8beb e6bd
00000110: 0f07 053d 0ea5 f03c 9f3c 1abc c080 66bc
00000120: 8d0d 303d 49f9 50bd 4138 02be 7d3d 623d
00000130: da22 6cbd fa06 0abe d78f 173c 15b7 a13c
00000140: a086 a83d 5927 9fbc da17 e1bd cfe8 2d3d
00000150: 0030 a2bd 47a9 9ebc 6e4c 153e f431 083e
00000160: cd20 df3d 4515 fe3d 9ebc 84bb 9233 69bc
00000170: ee03 89bc 1eb4 15bd f8f0 febb b3cd 8f3a
00000180: f413 51bb 0d23 97bb f914 7c39 4ba8 7dbd
00000190: 1efa c33c d302 3bbd d9cc e8bc f83c 90bd
000001a0: 0d7c ebbc 73a1 87bb 5fee b1bc c410 07be
000001b0: c795 ae3d d663 da3c 9cdc 6fbd 1046 2dbd
000001c0: abbb d23c 32af 6fbd 2917 57bd bb7c 8cbd
000001d0: d0a6 563d 5c0b 42bd ca24 57bc 3ed0 d63b
000001e0: 155a 5bbd 0e0b 123c 3a18 ac3d e7f3 61bd
000001f0: 47c7 0abd d115 bcbb aca2 0abd a71f 8e3d
00000200: c438 8c3d c08d ce3b 1248 9dbd 60ea 3fbd
00000210: ff46 c7bc c79c ce3c 690b 32bc f94d 823d
00000220: 2986 8dbd 6dab 1dbc 0a55 e63d c61c b2bd
00000230: b916 96bd cb02 913a c2ab ea3c 9bd6 dbba
00000240: 1da8 75bc 9f8c 77bd 2117 123d 04e9 59bc
00000250: e80e 15bd 33c3 1a3d 86ac 043b a032 9abd
00000260: 33cc 0dbd f242 82bd fa61 66bd 5657 91bb
00000270: 1ded d53d 47bf e1bd 9235 5c3a 25fc e7bc
00000280: fd34 b43d 73ff 0b3e 7140 2a3d 3a6c f1bd
00000290: 3647 22bb 2d0c dfba c503 91bc 3d99 273d
000002a0: 734d 603d efda ac3b a38b 2abd 3c04 fabc
000002b0: 73d1 b9bc 4f18 ae3c a8d2 6f3c 51e5 babd
000002c0: 8b20 863d 7e51 9a3c df99 d6bc bf9e 9a3c
000002d0: 2b43 f8bd 3fdd ccbd ff0d 563d 229f e6bc
000002e0: 5086 043d 44b5 b13d 9220 bd3a 1347 1a3a
000002f0: bc0e ea3d 3a02 db3c 70a4 553d 4b71 ab3c
00000300: ed84 223d 0032 f33d 63f3 de3c 194b e1bd
00000310: 622d 20bd 87eb 5dbc 13ff fd3c a08a 95bd
00000320: 3ad2 babc e65b abbd 0679 c3bc c2db 463d
00000330: 40e7 04bd fbd1 8b3d 528d c53d 2e0d b23b
00000340: ac9f 073d 6134 97bd fe6c 5c3d 0ed0 98bd
00000350: 9e62 2e3d c570 42bd e6c5 473c 8268 3e3d
00000360: 5775 e43b c021 db3c 2210 603d 107f 85bd
00000370: ac78 7abc 32ad 8cbd 9cbd 59bb 0515 c9bd
00000380: a631 2fbd a404 c0bc 35eb 883c cff0 8fbd
00000390: 73a5 a83c 453d dc3c 9d33 87bd f964 033c
000003a0: 8e57 f53d 9e62 0f3d e548 103e 06a5 ae3d
000003b0: bf8e 8a3c edbf d5bc f87f 513d e6c0 84bc
000003c0: 0f81 c33c 89ef cb3c b7e4 b83c b0af a93c
000003d0: 5240 56bc f1c4 9d3c 84e5 8e3d 9b0d 31bd
000003e0: 9d2c a23c 062e 003c 6316 303d fe25 863d
000003f0: 209e 17bd a7b8 b73d b577 41bc c4b6 5f3d

network_body._body_endoder.seq_layers.2.bias f4 [256]
0.0065464657 -0.041511524 0.0142753115 -0.0144477505 0.010102836 -0.013292181 0.018005544 0.008738314
-0.017580142 0.008702808 0.012326545 0.012626812 -0.009686666 -0.018308459 -0.01011913 0.018210616
-0.0033971572 -0.01133983 0.007558071 -0.017904738 -0.019261139 0.008648496 -0.012050692 -0.026095945
0.012548034 0.02132444 0.011994787 0.0032668621 0.017460793 0.017867845 -0.012627192 0.011753015
0.003841977 0.031362575 0.018331205 -0.014372647 -0.01915734 -0.020640124 0.0015800665 0.020823264
0.013034023 0.00016160386 -0.010468083 0.024375949 -0.028621847 -0.0064271814 -0.016563766 -0.00930292
-0.019259362 -0.021494571 -0.027317021 -0.011468648 0.020719593 -0.025993316 0.00050812814 -0.005513186
0.015000583 0.012303212 0.022609318 -0.0030241462 0.0053817974 0.023186103 -0.016398452 0.005451228
-0.018970923 0.020585656 -0.01463675 0.0059166504 -0.015552232 0.024434067 -0.016513243 0.012879416
-0.0066067725 0.015671987 0.0038217888 0.007287162 -0.020371566 -0.01992717 -0.006556161 -0.014579705
-0.011691305 -0.0007617271 -0.0014870133 -0.016456349 0.013879209 -0.0058503267 0.0008868073 0.016438946
0.030744312 -0.015204866 -0.003492883 0.010827479 0.033029906 -0.021521984 0.02071563 0.008559204
-0.029152984 -0.029799812 0.018001504 -0.0094242925 0.00054764905 0.008333018 -0.022333277 -0.02876348
0.02152982 0.019328976 -0.0065919906 -0.010546775 0.0153358625 -0.015292084 -0.015752567 -0.014456959
0.015804386 0.001106287 0.020761441 -0.019955827 -0.017687924 -0.0038567255 0.021007353 -0.014884728
0.015272501 0.020362068 0.025395615 -0.031744707 0.008731148 -0.012228866 -0.007592415 -0.021625051
-0.032371603 -0.004387081 -0.010103018 0.016232455 -0.017451698 -0.021839125 0.020490924 -0.014474026
-0.0004610561 -0.0093629 -0.011067964 -0.00020658823 0.018607171 0.011047795 -0.0069271172 0.020733597
-0.014875586 0.017795298 0.0047357706 0.021870915 -0.0064801206 0.00034733172 -0.0038164654 0.025950143
-0.012112317 0.03350841 0.0071504847 0.012161826 -0.038459487 0.014059483 0.02381813 -0.020637123
-0.022902064 0.002053034 -0.0024666209 -0.0042610774 -0.0151357595 -0.023457045 -0.02335974 -0.0055852565
0.00031294578 0.007313466 0.016923092 -0.0017326666 0.010375924 -0.022169404 0.01037216 -0.01645132
0.016850375 0.008097022 0.028743375 0.03315631 -0.002209986 0.013928595 -0.0062425276 -0.0012397711
-0.008290774 0.00044821846 -0.0026671381 0.0051346757 -0.02649465 -0.014104024 0.019228186 0.018502181
-0.00844184 0.0107389325 -0.004932675 -0.016635219 -0.025861269 -0.011270133 0.013085421 0.0005326812
-0.0014654767 -0.020550506 -0.0022646356 -0.007739404 0.009512244 0.017049724 -0.0323327 -0.0010199663
0.0038105033 -0.010725979 -0.0137209315 0.004563123 -0.021912213 -0.02702923 -0.03924565 -0.01397848
0.024816556 0.017164472 0.023197193 0.026369652 -0.015255073 0.023764282 -0.006379144 0.016394313
-0.002639513 -0.020302279 -0.0043157944 -0.0030500775 0.0034969733 -0.034472134 -0.005552714 -0.029388156
0.0169597 0.015756868 -0.024649266 0.02043237 -0.0126407845 0.0023680986 0.00091849983 -0.0074106706
0.0295028 -0.0050018285 0.012655659 -0.02834607 0.018438501 -0.018952463 0.018020395 -0.0035520126
0.0024770023 0.011900771 -0.014663421 -0.017793639 -0.003758473 0.009496501 -0.00063850323 0.0020443907
00000000: bc83 d63b fd07 2abd ffe2 693c 42b6 6cbc
00000010: 5e86 253c 73c7 59bc 5d80 933c 252b 0f3c
00000020: 3b04 90bc 3996 0e3c 47f5 493c b0e0 4e3c
00000030: d2b4 1ebc 9ffb 95bc b5ca 25bc 6e2e 953c
00000040: d7a2 5ebb b2ca 39bc b2a9 f73b f5ac 92bc
00000050: 89c9 9dbc 6cb2 0d3c 4470 45bc 2ac7 d5bc
00000060: 4596 4d3c 98b0 ae3c c885 443c da18 563b
00000070: f009 8f3c 965f 923c 48e2 4ebc b88f 403c
00000080: aec9 7b3b 0b76 003d 532b 963c 407b 6bbc
00000090: dbef 9cbc 7a15 a9bc 3c1a cf3a 8d95 aa3c
000000a0: a88c 553c 3574 2939 5382 2bbc 12b0 c73c
000000b0: 5d78 eabc 1b9b d2bb bcb0 87bc 466b 18bc
000000c0: cfc5 9dbc 6215 b0bc f2c7 dfbc ffe6 3bbc
000000d0: 23bc a93c efef d4bc e733 053a f5a7 b4bb
000000e0: 01c5 753c 6993 493c 2d37 b93c c130 46bb
000000f0: ca59 b03b c8f0 bd3c 0c56 86bc 37a0 b23b
00000100: e968 9bbc 40a3 a83c fbce 6fbc 76e0 c13b
00000110: cace 7ebc f429 c83c c846 87bc 3004 533c
00000120: a07d d8bb 8a62 803c fa76 7a3b 25c9 ee3b
00000130: 45e2 a6bc 4e3e a3bc 11d5 d6bb b7df 6ebc
00000140: e38c 3fbc a4ae 47ba e3e7 c2ba 77cf 86bc
00000150: 9f65 633c 19b4 bfbb a178 683a f8aa 863c
00000160: 7fdb fb3c d51d 79bc dae8 64bb bd65 313c
00000170: 5e4a 073d df4e b0bc d3b3 a93c e73b 0c3c
00000180: 3dd2 eebc bc1e f4bc e477 933c 5968 1abc
00000190: 1b90 0f3a 3687 083c 47f4 b6bc 64a1 ebbc
000001a0: 4e5f b03c cd57 9e3c a001 d8bb 61cc 2cbc
000001b0: 4543 7b3c a68b 7abc 870b 81bc e2dc 6cbc
000001c0: 3378 813c d500 913a e613 aa3c 677a a3bc
000001d0: 44e6 90bc 1ec1 7cbb 9d17 ac3c 13df 73bc
000001e0: 8339 7a3c 5ace a63c 770a d03c bd06 02bd
000001f0: 170d 0f3c 955b 48bc cbc9 f8bb 0527 b1bc
00000200: 1698 04bd 81c1 8fbb 2187 25bc edf9 843c
00000210: ddf6 8ebc f7e7 b2bc 95dc a73c 7724 6dbc
00000220: e7b9 f1b9 d966 19bc 6856 35bc 9b9f 58b9
00000230: 116e 983c d001 353c dffc e2bb 81d9 a93c
00000240: bbb8 73bc 72c7 913c 862e 9b3b a22a b33c
00000250: 3157 d4bb 131a b639 aa1d 7abb 6595 d43c
00000260: bd72 46bc 1d40 093d 9d4e ea3b 6542 473c
00000270: b287 1dbd bf59 663c 3d1e c33c 2f0f a9bc
00000280: 1c9d bbbc 328c 063b 08a7 21bb 82a0 8bbb
00000290: fafb 77bc fd28 c0bc ed5c bfbc 8704 b7bb
000002a0: df12 a439 cda5 ef3b 4ca2 8a3c a51a e3ba
000002b0: c8ff 293c 9c9c b5bc feef 293c ebc4 86bc
000002c0: cc09 8a3c 5fa9 043c 3a77 eb3c e9ce 073d
000002d0: 6ad5 10bb c334 643c 1e8e ccbb d17f a2ba
000002e0: 07d6 07bc ddfe ea39 27cb 2ebb c840 a83b
000002f0: 4f0b d9bc 9014 67bc 6e84 9d3c e391 973c
00000300: a54f 0abc 59f2 2f3c 47a2 a1bb 9546 88bc
00000310: 03db d3bc 5da6 38bc 3c64 563c a1a3 0b3a
00000320: 3d15 c0ba 8959 a8bc 486a 14bb d49a fdbb
00000330: 3ed9 1b3c ddab 8b3c 4b6f 04bd 64b0 85ba
00000340: a3b9 793b 04bc 2fbc c2cd 60bc 4086 953b
00000350: 3e81 b3bc 676c ddbc 0cc0 20bd ff05 65bc
00000360: 174c cb3c 829c 8c3c 0a08 be3c 2b05 d83c
00000370: 6af0 79bc 50ad c23c 2308 d1bb 5e4d 863c
00000380: aefb 2cbb f750 a6bc 826b 8dbb cfe3 47bb
00000390: 7a2d 653b a732 0dbd 8bf3 b5bb 6ebf f0bc
000003a0: 12ef 8a3c 8c14 813c 42ed c9bc c961 a73c
000003b0: 4b1b 4fbc 1a32 1b3b 7bc7 703a 36d5 f2bb
000003c0: dbaf f13c 61e6 a3bb ae59 4f3c 0436 e8bc
000003d0: 570c 973c 3242 9bbc 829f 933c e2c8 68bb
000003e0: 3455 223b 74fb 423c d83e 70bc f7c3 91bc
000003f0: b750 76bb 3697 1b3c 3a61 27ba 2ffb 053b

network_body._body_endoder.seq_layers.4.weight f4 [256, 256]
0.022559421 0.04405269 0.012310225 -0.009137145 0.0016863705 0.02347374 -0.09474838 0.022907563
0.01055978 0.07694994 -0.0071386592 -0.036887955 -0.057103302 0.055640463 -0.00699079 -0.12615786
0.00502787 0.038394555 -0.04819356 0.10806605 -0.038333766 -0.0022383921 0.022031417 -0.046492413
0.03003845 0.09286616 0.012822534 0.025110396 -0.01465894 -0.012518061 0.13245924 0.17946129
-0.008723027 -0.035222545 0.082307726 -0.027421605 -0.027636677 0.043463595 0.059876543 0.08816258
-0.020105347 -0.056186978 0.07527795 -0.11448995 0.01215922 0.018192573 0.02743206 0.05578081
-0.093239695 0.07160079 -0.0678705 0.101526715 -0.14147377 0.05643384 0.04581951 -0.0738845
-0.04639905 0.03969499 0.07912511 -0.07421062 -9.410084e-05 -0.010978539 0.004392305 -0.17706007
-0.037655268 -0.058557317 0.023163406 0.043053627 0.08167087 0.025158092 0.009263132 -0.05353149
0.04603544 -0.010298627 0.03433953 -0.039712716 0.0033194814 -0.06892657 0.015339752 0.13885655
0.022877233 -0.034876708 0.056719642 -0.05667479 0.031230714 0.044028357 -0.07688962 0.04750487
-0.062251426 -0.02128499 -0.06075751 -0.16764557 0.028390072 0.045113847 0.069490165 -0.010163988
-0.13757092 0.1089342 -0.008477199 0.017153144 0.058355134 0.055201538 0.024305249 0.044830464
0.072203584 0.05890322 -0.031159393 -0.06426586 -0.06233833 0.0008853927 0.021332143 -0.10326162
-0.0008699923 -0.019298634 -0.09233076 0.007902163 0.054850217 0.11351668 0.0125117935 -0.20386262
-0.13507433 0.0060982564 -0.045790154 0.011374062 -0.048820633 0.009050985 0.109939024 -0.010717204
-0.008124523 -0.038567554 0.018364092 -0.13257156 0.11575885 0.00012208514 -0.08848274 0.077716306
-0.07687417 -0.04003887 -0.012183202 -0.021082228 0.04611086 -0.044452727 0.051681988 0.02025677
0.0024407678 -0.018984908 0.047201123 -0.02545863 -0.047718193 -0.014242874 0.021304987 -0.0063431724
-0.06616622 -0.02505147 0.06437993 -0.019138016 0.085220225 -0.015965339 -0.08177767 0.0616632
-0.02806712 -0.026792025 0.044871774 -0.0074539077 -0.022790916 -0.08705031 0.002355877 0.047254805
0.061967444 -0.013725056 -0.008154019 -0.08757162 -0.026667392 0.04043591 -0.0304048 0.030947166
-0.053688202 0.017025555 0.05502172 -0.12179018 0.0927719 0.051481552 0.024854364 0.021068934
-0.13115618 -0.10613583 -0.043069065 -0.1306161 0.022781424 0.10610129 -0.0776446 0.060554482
-0.0006130711 -0.00034997414 -0.011349464 -0.021659834 0.16396119 -0.055473074 0.04630044 -0.00035718732
0.02336759 0.11214102 0.17447537 -0.007406923 -0.04009288 0.050955832 0.08945424 -0.03854546
-0.0664782 0.015849141 0.037107937 0.041981716 0.019278944 -0.05248296 0.015357859 -0.10561559
-0.040042065 -0.03387197 -0.054144584 -0.029366123 -0.077915706 -0.04270848 -0.13351336 0.01062273
0.026672488 0.04850393 0.028834505 -0.13879682 0.12724225 0.0643115 -0.015214136 -0.06779814
-0.0640553 0.083940744 0.050780073 -0.026747357 -0.01972935 -0.033012506 -0.0151034165 -0.033237733
-0.023262747 0.021735122 -0.16611709 -0.027424553 0.021931777 0.0056834915 0.07404503 -0.094858244
-0.12386223 -0.022554236 -0.05216292 0.008418396 0.15345728 0.012457498 -0.04496132 0.0049730577
00000000: 89ce b83c 9870 343d d3b0 493c f7b3 15bc
00000010: 3409 dd3a 004c c03c 700b c2bd a4a8 bb3c
00000020: ed02 2d3c ee97 9d3d 6aeb e9bb d317 17bd
00000030: 27e5 69bd 41e7 633d ff12 e5bb 872f 01be
00000040: d5c0 a43b 9c43 1d3d 9c66 45bd bc51 dd3d
00000050: de03 1dbd fdb1 12bb 3b7b b43c d46e 3ebd
00000060: 3213 f63c 9d30 be3d 9b15 523c 51b4 cd3c
00000070: 0d2c 70bc 8e18 4dbc 65a3 073e b3c4 373e
00000080: 07eb 0ebc 8445 10bd f490 a83d 46a3 e0bc
00000090: 5066 e2bc e206 323d 1b41 753d 958e b43d
000000a0: f8b3 a4bc 5124 66bd 532b 9a3d b579 eabd
000000b0: 7737 473c 9708 953c 33b9 e03c 6b7a 643d
000000c0: 74f4 bebd 6fa3 923d b0ff 8abd 3ded cf3d
000000d0: 80de 10be 2c27 673d 3dad 3b3d c250 97bd
000000e0: ee0c 3ebd 3797 223d 580c a23d bdfb 97bd
000000f0: 0158 c5b8 54df 33bc 53ed 8f3b 3c4f 35be
00000100: 693c 1abd ccd9 6fbd 2fc1 bd3c 0059 303d
00000110: 0f43 a73d 5818 ce3c 64c4 173c d643 5bbd
00000120: a88f 3c3d 93bb 28bc 9ba7 0c3d cda9 22bd
00000130: a88b 593b 6029 8dbd 9553 7b3c 6930 0e3e
00000140: 0969 bb3c e1da 0ebd db52 683d d323 68bd
00000150: 8ed7 ff3c 1457 343d 4e78 9dbd 7794 423d
00000160: 5afb 7ebd dc5d aebc dedc 78bd 48ab 2bbe
00000170: 4c92 e83c 4cc9 383d dc50 8e3d db86 26bc
00000180: 64df 0cbe e518 df3d f3e3 0abc c084 8c3c
00000190: cb05 6f3d 021b 623d cd1b c73c 26a0 373d
000001a0: 79df 933d 8144 713d fc41 ffbc d29d 83bd
000001b0: 7a56 7fbd b319 683a bfc0 ae3c d47a d3bd
000001c0: 3210 64ba 2b18 9ebc e917 bdbd 1378 013c
000001d0: 9faa 603d 6f7b e83d 44fe 4c3c 5dc1 50be
000001e0: ed50 0abe e2d3 c73b 758e 3bbd 465a 3a3c
000001f0: 25f8 47bd 954a 143c b627 e13d 3697 2fbc
00000200: b81c 05bc 03f9 1dbd 4b70 963c d7c0 07be
00000210: fa12 ed3d fb03 0039 7036 b5bd ba29 9f3d
00000220: 3470 9dbd ccff 23bd 0e9c 47bc a3b4 acbc
00000230: bede 3c3d 1014 36bd 7eb0 533d 87f1 a53c
00000240: 4af5 1f3b 3d86 9bbc f755 413d 9e8e d0bc
00000250: 2774 43bd f25a 69bc cc87 ae3c 63da cfbb
00000260: 2882 87bd be38 cdbc a0d9 833d 54c7 9cbc
00000270: f187 ae3d bec9 82bc 0d7b a7bd 8d92 7c3d
00000280: 04ed e5bc f37a dbbc 77cb 373d e93f f4bb
00000290: 04b4 babc 6f47 b2bd 0f65 1a3b 418e 413d
000002a0: 93d1 7d3d 0fdf 60bc 6f98 05bc c058 b3bd
000002b0: 9375 dabc 20a0 253d 7d13 f9bc e984 fd3c
000002c0: 29e8 5bbd 2d79 8b3c 745e 613d 216d f9bd
000002d0: 32ff bd3d 52de 523d 619b cb3c c298 ac3c
000002e0: ce4d 06be be5d d9bd 3069 30bd 3ac0 05be
000002f0: 1ca0 ba3c a24b d93d 2204 9fbd fa07 783d
00000300: 81b6 20ba bc7c b7b9 1af3 39bc f76f b1bc
00000310: 71e5 273e bc37 63bd 88a5 3d3d df44 bbb9
00000320: 636d bf3c 31aa e53d aca9 323e c6b5 f2bb
00000330: 6f38 24bd 10b7 503d c933 b73d d8e1 1dbd
00000340: b925 88bd 0fd6 813c 7efe 173d 05f5 2b3d
00000350: e0ee 9d3c 5ff8 56bd 889f 7b3c fd4c d8bd
00000360: 2603 24bd 56bd 0abd b6c6 5dbd 3991 f0bc
00000370: 4592 9fbd 16ef 2ebd bab7 08be f50a 2e3c
00000380: 4380 da3c 0fac 463d 5736 ec3c c120 0ebe
00000390: cb4b 023e bfb5 833d b644 79bc c0d9 8abd
000003a0: 6d2f 83bd 20e9 ab3d c4fe 4f3d 461d dbbc
000003b0: 729f a1bc 1f38 07bd 5274 77bc 4a24 08bd
000003c0: 8491 bebc db0d b23c 991a 2abe 75a9 e0bc
000003d0: 45aa b33c 953c ba3b eca4 973d 0a45 c2bd
000003e0: 7bab fdbd a9c3 b8bc c9a8 55bd 50ed 093c
000003f0: e823 1d3e 891a 4c3c 5c29 38bd 08f5 a23b

network_body._body_endoder.seq_layers.4.bias f4 [256]
-0.029503971 -0.03038416 0.021165567 0.028560152 0.019843407 0.0009093526 0.027185608 -0.00013550434
0.014430212 -0.008555825 0.022663778 -0.017783908 0.009682078 -0.031167885 0.024337243 -0.024416994
0.017095 0.019547757 -0.011005838 -0.007233318 -0.017452199 0.014923966 0.0047842925 0.03016168
-0.019070154 -0.014197992 -0.03371039 -0.0014253375 0.0016570397 -0.00020856885 0.027447328 -0.009029369
-0.026371118 0.006717919 0.020580105 0.0196461 -0.017941382 0.023062322 -0.02923203 0.011321819
0.012632275 0.023523021 -0.006142952 -0.02621238 -0.016608527 -0.011416975 -0.0026487398 -0.018383935
0.026040953 0.029991584 0.023610065 0.029944638 0.019435681 0.017808795 0.013816567 0.02497996
-0.022224626 0.020585883 0.0073579904 -0.024749726 -0.02126734 0.022982746 -0.019968916 0.0032924984
-0.028596098 0.023032306 0.017627109 0.015084894 -0.0070320903 -0.0070308726 0.029627245 0.02307635
0.0023441908 -0.029527878 0.007050054 0.0151197035 0.014857371 -0.021925591 0.023008786 -0.023594799
0.0096101565 0.0052626664 -0.02773559 0.019768188 0.00031900674 0.031955805 0.00045583714 -0.010067671
-0.015748499 0.0096622165 -0.019727247 -0.023283683 0.020341398 0.02506493 0.006425015 0.010442302
0.016420502 0.014255676 -0.026304262 0.010432737 0.020091876 -0.029309696 -0.000603911 -0.026438724
0.025370402 -0.027635906 0.019532496 -0.008381954 0.009634559 -0.022505356 -0.024723865 0.01693968
0.023632182 -0.038585182 -0.017860271 0.006010114 -0.009608766 -0.020991411 0.007663438 -0.021296635
-0.015039832 0.02241852 -0.033907298 0.020883866 0.013287939 0.015174909 -0.020441521 -0.02423077
0.02423573 0.026402628 0.005035768 -0.007653083 -0.03574447 0.023651784 -0.025882704 -0.021518439
-0.021332541 -0.033812515 -4.174529e-05 0.027965443 0.028734304 -0.018116675 0.0066767666 0.005614718
-0.031223467 -0.00066911464 -0.008059234 -0.016776908 0.012345626 -0.026017893 -0.026453752 0.012363072
-0.02988589 -0.021968057 0.0046069003 0.015136374 0.023984224 -0.0035222636 -0.010569799 -0.028586227
-0.028174732 -0.0003585408 0.014986093 0.01714541 -0.0071739857 -0.009200185 -0.032486185 -0.010119075
-0.01938075 0.016630504 -0.011728637 -0.011448363 -0.026307909 -0.027998721 0.015833411 0.009162306
-0.007046995 0.028300967 0.02559857 -0.0053936606 -0.020526774 -0.0057518673 0.03127422 -0.0063386126
-0.029705724 0.027765602 -0.024761448 -0.020028556 -0.030934103 0.0084724175 8.200572e-05 0.016020136
-0.013825657 0.005465854 0.003036519 -0.030174065 -0.006843954 -0.0031144556 0.009208358 0.027139604
-0.0025543699 0.025325779 1.9705507e-05 0.00018443045 0.010408509 0.006822622 0.002750313 0.006976918
-0.009380814 0.019027568 -0.03058389 -0.0096527785 -0.013787218 0.00036781325 -0.011427608 -0.026218483
0.02365123 -0.024173237 -0.03347188 0.027636703 0.031451404 0.03325653 0.02204163 0.02512791
-0.021788398 0.021484835 -0.008310157 -0.026200026 -0.029942023 0.02573886 0.022409432 0.011932319
-0.023226235 0.020240404 0.024908308 0.00077761215 0.004549163 -0.027191427 -0.025711846 0.01587284
-0.008930568 0.014966668 0.026903741 0.025007663 0.018789839 0.008024958 0.02230739 -0.0017602199
0.02226885 -0.0128461765 0.023796452 -0.0033754671 -0.017139185 0.014482172 0.013654114 0.03271871
00000000: 50b2 f1bc 34e8 f8bc 6963 ad3c fbf6 e93c
00000010: a48e a23c 9f61 6e3a 5ab4 de3c 2b16 0eb9
00000020: b26c 6c3c bb2d 0cbc 63a9 b93c 8faf 91bc
00000030: 94a1 1e3c cb53 ffbc e65e c73c 2606 c8bc
00000040: d00a 8c3c 9e22 a03c d551 34bc 7805 edbb
00000050: eaf7 8ebc a683 743c 8ec5 9c3b a115 f73c
00000060: 0339 9cbc b29e 68bc e813 0abd 64d2 baba
00000070: 0731 d93a 46b3 5ab9 38d9 e03c ebef 13bc
00000080: 3e08 d8bc fd21 dc3b 9c97 a83c dcf0 a03c
00000090: cef9 92bc 32ed bc3c 0378 efbc 277f 393c
000000a0: 9af7 4e3c 5ab3 c03c d14a c9bb 58bb d6bc
000000b0: 9b0e 88bc 440e 3bbc 7b96 2dbb e899 96bc
000000c0: d653 d53c e9b0 f53c e569 c13c 754e f53c
000000d0: 9437 9f3c c0e3 913c e25e 623c c6a2 cc3c
000000e0: 6b10 b6bc baa3 a83c 4c1b f13b f0bf cabc
000000f0: d838 aebc 5046 bc3c da95 a3bc f5c6 573b
00000100: 5d42 eabc 3fae bc3c ba66 903c a226 773c
00000110: 736d e6bb 3c63 e6bb d6b4 f23c 9d0a bd3c
00000120: ffa0 193b 73e4 f1bc 2404 e73b a2b8 773c
00000130: 556c 733c 4c9d b3bc ec7c bc3c e149 c1bc
00000140: eb73 1d3c 7272 ac3b bf35 e3bc e5f0 a13c
00000150: 5c40 a739 17e4 023d 6dfd ee39 dff2 24bc
00000160: ff02 81bc 464e 1e3c 099b a1bc 6cbd bebc
00000170: 01a3 a63c f854 cd3c ef88 d23b 3016 2b3c
00000180: 4a84 863c a490 693c 097c d7bc 12ee 2a3c
00000190: b897 a43c e31a f0bc c84f 1eba 0696 d8bc
000001a0: 97d5 cf3c b264 e2bc 9d02 a03c 7754 09bc
000001b0: 45da 1d3c 275d b8bc b489 cabc 15c5 8a3c
000001c0: 4798 c13c 7f0b 1ebd b44f 92bc 7ef0 c43b
000001d0: 166e 1dbc 2ef6 abbc 941d fb3b 4876 aebc
000001e0: a169 76bc 0ba7 b73c 61e2 0abd a414 ab3c
000001f0: a8b5 593c 2ea0 783c fa74 a7bc 9c7f c6bc
00000200: 028a c63c 534a d83c 1503 a53b b7c6 fabb
00000210: cb68 12bd 63c1 c13c f707 d4bc 7047 b0bc
00000220: 95c1 aebc fe7e 0abd aa17 2fb8 c917 e53c
00000230: 3464 eb3c 6c69 94bc c7c8 da3b abfb b73b
00000240: 5bc8 ffbc 8667 2fba e10a 04bc ba6f 89bc
00000250: 4f45 4a3c 7a23 d5bc 8ab5 d8bc 7b8e 4a3c
00000260: 41d3 f4bc 5bf6 b3bc 7bf5 963b 8efe 773c
00000270: 907a c43c c7d5 66bb f32c 2dbc aa2d eabc
00000280: b2ce e6bc 88fa bbb9 3b88 753c 8874 8c3c
00000290: c113 ebbb 5fbc 16bc 3c10 05bd 7aca 25bc
000002a0: 61c4 9ebc b23c 883c 7829 40bc ea91 3bbc
000002b0: af83 d7bc 935d e5bc 12b5 813c 7f1d 163c
000002c0: 7bea e6bb 6ed7 e73c 18b4 d13c 4ebd b0bb
000002d0: c427 a8bc 297a bcbb 6619 003d 23b4 cfbb
000002e0: 6b59 f3bc b074 e33c 85d8 cabc ed12 a4bc
000002f0: 8469 fdbc e5cf 0a3c 7cfa ab38 a93c 833c
00000300: 0285 62bc e81a b33b 5600 473b 9a2f f7bc
00000310: 3f43 e0bb e51b 4cbb a7de 163c e053 de3c
00000320: 3767 27bb 0278 cf3c 414d a537 ac63 4139
00000330: 7388 2a3c 4d90 df3b 983e 343b a19e e43b
00000340: fcb1 19bc b4df 9b3c 118b fabc b026 1ebc
00000350: c9e3 61bc 0fd7 c039 dd3a 3bbc 25c8 d6bc
00000360: 39c0 c13c f406 c6bc cf19 09bd 5e66 e23c
00000370: 30d3 003d 0038 083d a690 b43c 0cd9 cd3c
00000380: 957d b2bc f700 b03c 5327 08bc 70a1 d6bc
00000390: f948 f5bc 4dda d23c fc93 b73c c67f 433c
000003a0: f244 bebc 34cf a53c 820c cc3c abd8 4b3a
000003b0: 2511 953b 8ec0 debc a6a1 d2bc c207 823c
000003c0: 8451 12bc c136 753c 3c65 dc3c dfdc cc3c
000003d0: 26ed 993c 1d7b 033c fdbd b63c 2eb7 e6ba
000003e0: 2a6d b63c c578 52bc c7f0 c23c f136 5dbb
000003f0: 7a67 8cbc a246 6d3c 81b5 5f3c 0e04 063d

action_model._continuous_distribution.log_sigma f4 [1, 2]
-0.07955598 -0.02104632
00000000: 3fee a2bd 5569 acbc

action_model._continuous_distribution.mu.weight f4 [2, 256]
0.012986566 -0.00014911655 0.010812319 -0.030859917 0.0056688976 0.033834673 -0.036083017 -0.029494643
-0.023161886 -0.0006367453 -0.0068002534 0.03220555 0.015880719 0.0031052951 -0.013482111 0.0132929105
0.031605016 0.017053196 0.03856631 -0.03413173 0.0037933255 -0.010159073 -0.051885385 -0.0014773558
0.015136246 0.013464176 0.016878482 0.04277546 -0.020580048 0.045038234 -0.010171023 -0.033618078
0.0143950535 0.026464097 0.01120111 -0.020547163 -0.016177045 0.029796552 -0.011150906 0.037017114
0.015934056 -0.01971934 0.027428947 0.009833702 0.040309038 -0.01720379 -0.028330911 -0.0042220955
-0.025425928 -0.0009908561 -7.99058e-06 -0.018912783 -0.043243833 -0.0018824269 0.010759754 0.011221975
0.02013879 0.005245855 0.032236222 0.016143523 0.010226824 -0.011796508 0.013220189 0.005038483
0.01969869 0.0048118825 0.03497578 -0.022773542 -0.016587395 0.026780544 0.00069466233 -0.009084716
-0.0018951101 0.008966556 0.04073196 0.051008508 -0.046037726 0.03859365 -0.033846494 -0.010401096
0.015645264 -0.03799945 0.013010118 -0.0070767347 -0.025613887 -0.006858383 -0.004237222 -0.0049222745
-0.022497967 0.033932712 -0.0023875185 -0.001256604 0.010999404 -0.02971954 -0.02965044 -0.023517119
0.025662325 -0.0416407 0.014933718 -0.037179396 0.02468666 -0.011770356 0.035508916 0.009557542
-0.031540368 0.0040512923 -0.007780809 0.02422374 -0.0030203818 -0.009708563 -0.016569676 6.222563e-05
0.029149523 0.009210317 0.033776112 -0.019282484 0.04090717 -0.0063064424 0.012256463 0.002732603
0.022719737 0.0042171 0.0045272973 0.0009858452 0.03662878 0.008035409 0.026058227 0.024178067
-0.021105802 0.0136503065 0.03381162 -0.034153987 0.011073195 -0.00028934958 0.018835053 -0.007706878
0.017957337 0.0072037773 0.012858632 -0.017726654 0.0008710375 0.027627995 -0.027221315 0.034043342
0.0033846174 -0.031548496 0.026887897 0.029082496 -0.010608701 -0.008544713 0.02483595 -0.056226503
-0.00719423 0.0068731005 -0.024949418 -0.0007904171 0.021810193 -0.053746987 0.028078945 0.015806545
0.011713019 -0.01845773 0.011236417 0.0050355042 0.039416134 0.02373307 0.0028326763 0.026907738
0.0056924666 0.02660393 -0.03850427 0.035808373 0.015852224 0.032384634 0.003330002 -0.0068094824
0.043279972 -0.004505682 -0.03478943 0.022626543 0.019834964 0.030682709 -0.030031165 0.026316732
0.01495983 0.0034460898 -0.0016859295 0.0377128 0.0047264695 -0.013140677 0.06280744 0.012547218
-0.008143417 -0.01787821 0.0406469 0.014803321 0.04928031 0.0010166841 -0.0313134 -0.018070113
0.028422391 -0.013822497 -0.060990516 0.034569442 0.05522656 -0.00816132 9.340273e-05 0.015290004
0.027960163 0.009354748 0.019692881 0.021571297 -0.034095634 0.026257625 -0.024853775 0.012208704
-0.006273592 -0.009365354 -0.0003717093 -0.030930603 -0.03635612 -0.024196956 -0.04366919 0.0041015316
0.012997482 -0.0060779448 0.021624707 -0.02155752 0.0019010315 0.022389611 -0.011871553 0.018429754
-0.017882505 -0.04697123 0.048695173 -0.03770698 -0.043407783 0.016145445 0.013950705 0.013639385
-0.027323425 0.030812558 0.027850207 -0.060714822 0.022425842 0.0010087062 0.01282691 -0.039265104
-0.036663555 0.037324045 -0.008597414 0.050329965 -0.005253183 0.04213046 0.029432347 0.0022821694
00000000: 9bc5 543c 2b5c 1cb9 2726 313c f0cd fcbc
00000010: 29c2 b93b 3a96 0a3d c9cb 13bd c09e f1bc
00000020: ffbd bdbc 41eb 26ba a9d4 debb f7e9 033d
00000030: 4818 823c 3582 4b3b 12e4 5cbc 82ca 593c
00000040: 4374 013d 25b3 8b3c b5f7 1d3d b7cd 0bbd
00000050: 7199 783b 3e72 26bc c585 54bd d6a3 c1ba
00000060: 04fe 773c d998 5c3c be44 8a3c 5235 2f3d
00000070: 7d97 a8bc 037a 383d 5da4 26bc 1cb3 09bd
00000080: 3bd9 6b3c 3ccb d83c dc84 373c 8652 a8bc
00000090: b985 84bc e617 f43c 4ab2 36bc 429f 173d
000000a0: 2388 823c 748a a1bc acb2 e03c 891d 213c
000000b0: 171b 253d f6ee 8cbc 3a16 e8bc 8159 8abb
000000c0: 094a d0bc 9ddf 81ba 480f 06b7 fbee 9abc
000000d0: 7220 31bd c4bb f6ba ae49 303c 60dc 373c
000000e0: 1bfa a43c 6ce5 ab3b 210a 043d 6c3f 843c
000000f0: 698e 273c 2446 41bc 7e99 583c dc19 a53b
00000100: 265f a13c ffac 9d3b c342 0f3d 948f babc
00000110: 4ae2 87bc df62 db3c 001a 363a 10d8 14bc
00000120: 5865 f8ba 76e8 123c 8ed6 263d 4cee 503d
00000130: 0e92 3cbd 6014 1e3d 9fa2 0abd 5c69 2abc
00000140: 7f2a 803c 50a5 1bbd 6428 553c f4e3 e7bb
00000150: 37d4 d1bc 49bc e0bb 65d8 8abb 084b a1bb
00000160: a84d b8bc 07fd 0a3d ea77 1cbb a2b4 a4ba
00000170: d836 343c 6576 f3bc 7be5 f2bc f9a6 c0bc
00000180: cc39 d23c 708f 2abd 8eac 743c 6c49 18bd
00000190: ae3b ca3c 74d8 40bc cc71 113d 3d97 1c3c
000001a0: 7930 01bd b4c0 843b 28f6 febb dd70 c63c
000001b0: 99f1 45bb aa10 1fbc 21bd 87bc 217f 8238
000001c0: fbca ee3c dfe6 163c d258 0a3d 4df6 9dbc
000001d0: 478e 273d 46a6 cebb 55cf 483c 7915 333b
000001e0: be1e ba3c 992f 8a3b b959 943b 7a37 813a
000001f0: 0f08 163d f3a6 033c 1078 d53c 1511 c63c
00000200: 13e6 acbc 89a5 5f3c 0e7e 0a3d 0de5 0bbd
00000210: 596c 353c d8b3 97b9 f84b 9a3c fa89 fcbb
00000220: 441b 933c aa0d ec3b 03ad 523c 7d37 91bc
00000230: 5656 643a 1b54 e23c 3cff debc 0871 0b3d
00000240: 75d0 5d3b ff38 01bd 0244 dc3c 6a3e ee3c
00000250: 1ed0 2dbc 20ff 0bbc c374 cb3c c34d 66bd
00000260: 93bd ebbb bf37 e13b b962 ccbc fe33 4fba
00000270: 4aab b23c cd25 5cbd d105 e63c ba7c 813c
00000280: f6e7 3f3c aa34 97bc f318 383c df00 a53b
00000290: d072 213d db6b c23c 6ca4 393b 9e6d dc3c
000002a0: df87 ba3b 7cf0 d93c a7b6 1dbd cdab 123d
000002b0: 86dc 813c c0a5 043d 2a3c 5a3b 1422 dfbb
000002c0: 5746 313d 66a4 93bb 5d7f 0ebd 4d5b b93c
000002d0: ef7c a23c 4e5a fb3c eb03 f6bc 3096 d73c
000002e0: 131a 753c cbd7 613b 68fa dcba bd78 1a3d
000002f0: 80e0 9a3b fe4b 57bc 30a1 803d d992 4d3c
00000300: f76b 05bc 5375 92bc 5d7d 263d a189 723c
00000310: 26da 493d 4242 853a 7b42 00bd c607 94bc
00000320: 13d6 e83c c177 62bc 31d1 79bd b098 0d3d
00000330: 3f35 623d 0fb7 05bc 35e1 c338 ed82 7a3c
00000340: b60c e53c a844 193c f752 a13c 4ab6 b03c
00000350: dda7 0bbd 3b1a d73c 259a cbbc 0407 483c
00000360: b492 cdbb 2471 19bc fae1 c2b9 2d62 fdbc
00000370: 28ea 14bd b238 c6bc 77de 32bd 2466 863b
00000380: 64f3 543c 7f29 c7bb 4c26 b13c 6599 b0bc
00000390: 082c f93a 6b6a b73c e780 42bc fff9 963c
000003a0: 557e 92bc e864 40bd 9774 473d a272 1abd
000003b0: 5ccc 31bd 7443 843c 7f91 643c ba77 5f3c
000003c0: 60d5 dfbc 9e6a fc3c 1e26 e43c 1bb0 78bd
000003d0: 66b6 b73c 9036 843a f627 523c 72d4 20bd
000003e0: 862c 16bd 19e1 183d 2bdc 0cbc cb26 4e3d
000003f0: e522 acbb fd90 2c3d 1b1c f13c 7390 153b

action_model._continuous_distribution.mu.bias f4 [2]
-0.0050689136 0.03148566
00000000: 2119 a6bb 1bf7 003d

onnx::Div_56 f4 [11]
0.7098861 0.091721684 0.6840305 0.7219504 0.0033345933 0.6918224 0.71595335 0.041133974
0.68701226 5.0917687 0.26440683
00000000: 18bb 353f 94d8 bb3d 9f1c 2f3f bed1 383f
00000010: 3189 5a3b 461b 313f b848 373f 197c 283d
00000020: 09e0 2f3f c5ef a240 5560 873e
