Assets/results/petfollower25/PetFollower/checkpoint.pt (torch, 459746 bytes, 44 tensors)

network_body.observation_encoder.processors.0.normalizer.running_mean f4 [11]
0	0xbd863e2b	-0.06554826
1	0xbdf6a2c3	-0.12042763
2	0xbd526cad	-0.051373173
3	0xbe2863da	-0.1644434
4	0x00000000	0.0
5	0xbe42020b	-0.18946092
6	0xbd218551	-0.03943378
7	0xb9a296ab	-0.00031011304
8	0xbd535ae5	-0.051600356
9	0x40b6b2e4	5.709337
10	0x3f0b5a78	0.5443492

network_body.observation_encoder.processors.0.normalizer.running_variance f4 [11]
0	0x4723a382	41891.508
1	0x4404368e	528.8524
2	0x472e557e	44629.492
3	0x4725bef9	42430.973
4	0x3f800000	1.0
5	0x471fde66	40926.4
6	0x472a52a1	43602.63
7	0x42d971c4	108.7222
8	0x4727446d	42820.426
9	0x49644d2c	935122.75
10	0x45b5f8a5	5823.0806

network_body.processors.0.normalizer.running_mean f4 [11]
0	0xbd863e2b	-0.06554826
1	0xbdf6a2c3	-0.12042763
2	0xbd526cad	-0.051373173
3	0xbe2863da	-0.1644434
4	0x00000000	0.0
5	0xbe42020b	-0.18946092
6	0xbd218551	-0.03943378
7	0xb9a296ab	-0.00031011304
8	0xbd535ae5	-0.051600356
9	0x40b6b2e4	5.709337
10	0x3f0b5a78	0.5443492

network_body.processors.0.normalizer.running_variance f4 [11]
0	0x4723a382	41891.508
1	0x4404368e	528.8524
2	0x472e557e	44629.492
3	0x4725bef9	42430.973
4	0x3f800000	1.0
5	0x471fde66	40926.4
6	0x472a52a1	43602.63
7	0x42d971c4	108.7222
8	0x4727446d	42820.426
9	0x49644d2c	935122.75
10	0x45b5f8a5	5823.0806

network_body._body_endoder.seq_layers.0.weight f4 [128, 11]
0	0xbd4b17d5	-0.049583275
1	0x3f02b04b	0.5105025
2	0x3e6cb262	0.23114923
3	0xbe6781ba	-0.2260808
4	0xbed76d6b	-0.42075667
5	0x3e25bbb1	0.1618488
6	0xbf2e152b	-0.6800105
7	0x3f171ff3	0.59033126
8	0x3f02fb19	0.51164395
9	0xbe34cf79	-0.1765727
10	0x3e3fe966	0.18741378
11	0x3c2598bf	0.010107218
12	0xbe18dd34	-0.14928132
13	0x3dcc020c	0.09961328
14	0x3e9347f3	0.2876583
15	0xbe3cdd5b	-0.18443815
16	0x3ea78eff	0.32726285
17	0xbe4d30da	-0.20038167
18	0xbceadafd	-0.028668875
19	0xbe0224d3	-0.1270936
20	0x3e1c55a9	0.15267052
21	0xbd863cd2	-0.06554569
22	0x3eb99767	0.36248323
23	0x3e1ab5f4	0.15108472
24	0x3f122a82	0.5709611
25	0xbdd09385	-0.10184387
26	0x3f1055c3	0.5638086
27	0x3eded3c3	0.43520936
28	0xbd647cc1	-0.055783037
29	0xbe49643e	-0.19667146
30	0xbe40cd36	-0.18828282
31	0xbdca7499	-0.098855205
32	0x3e4bfb02	0.1991997
33	0x3d9b70f3	0.07589903
34	0x3e74f0cc	0.23919982
35	0xbd7245f7	-0.059148755
36	0xbf020533	-0.50789183
37	0x3e21efd5	0.15814145
38	0xbdc65787	-0.09684663
39	0xbcadd924	-0.021221705
40	0x3d2cfebf	0.042235132
41	0x3d5fb702	0.05461789
42	0xbe90231f	-0.28151795
43	0x3e706f63	0.2347999
44	0xbf201f59	-0.6254783
45	0xbe7b8198	-0.24561155
46	0xbeaf5008	-0.34240746
47	0x3e604ca2	0.21904233
48	0x3f13962d	0.57651025
49	0xbe389fbd	-0.18029685
50	0xbec77ea6	-0.38963813
51	0xbf1e8a1e	-0.619295
52	0xbea5becd	-0.32372132
53	0x3ec55c08	0.38546777
54	0x3da15cdf	0.07879042
55	0x3e27aa70	0.1637361
56	0xbc14eeb2	-0.0090901125
57	0x3d8364e6	0.06415729
58	0xbd804d65	-0.06264762
59	0xbf042b4e	-0.5162858
60	0x3e9a8729	0.30181244
61	0x3e60c15d	0.21948762
62	0xbdf3a573	-0.11896791
63	0x3c69e856	0.014276585
64	0xbca7c718	-0.020480677
65	0x3e90e674	0.28300822
66	0xbe1da9b1	-0.15396763
67	0x3f098b8a	0.53728545
68	0x3edcb139	0.4310396
69	0x3dd01a52	0.1016127
70	0xbf2fdd1c	-0.6869676
71	0x3f20d10b	0.62818974
72	0x3e750ba3	0.2393022
73	0xbcdcbaa7	-0.026944472
74	0x3e69d98e	0.22836897
75	0xbef5bb25	-0.47994342
76	0x3ea21ebc	0.31664073
77	0x3e8b454c	0.27201307
78	0xbf1dc382	-0.61626446
79	0x3cba596d	0.02274772
80	0x3d96c1e6	0.07361202
81	0x3d130f36	0.03590318
82	0x3cca5ae9	0.024701552
83	0x3e5120ac	0.2042262
84	0x3f003d78	0.50093794
85	0x3f252095	0.6450284
86	0xbdda15ba	-0.10648675
87	0xbc83d46e	-0.016092505
88	0xbead9e99	-0.33910063
89	0x3ed91cd6	0.42404813
90	0xbdc6b981	-0.09703351
91	0xbc0ff358	-0.008786045
92	0x3dfbbe06	0.122921035
93	0x3ee87ca0	0.4540758
94	0x3eb8a885	0.3606607
95	0x3df73530	0.120706916
96	0x3eae6a51	0.34065488
97	0x3e8c537b	0.2740744
98	0xbea52ec2	-0.32262236
99	0x3eb11a87	0.3459055
100	0xbecc6411	-0.39920095
101	0xbdf25bd9	-0.11833925
102	0xbf30f7bb	-0.69128007
103	0xbd84bbd9	-0.064811416
104	0xbe03ff83	-0.12890439
105	0x3e04edfb	0.12981407
106	0x3ec76c45	0.3894979
107	0xbd86e363	-0.06586339
108	0x3df750b4	0.1207594
109	0xbeac307c	-0.3363074
110	0xbe2b0d16	-0.1670421
111	0xbce4e5f4	-0.027941681
112	0xbf1fde1a	-0.62448275
113	0x3e44edb3	0.192313
114	0xbe7f11a5	-0.24909075
115	0x3e18a5f5	0.14907058
116	0xbe76373f	-0.24044512
117	0xbeb34e59	-0.35020712
118	0x3ef7f317	0.4842765
119	0xbda35bbe	-0.07976483
120	0x3e16726e	0.14692089
121	0xbe9aee1a	-0.30259782
122	0x3e438c3e	0.19096467
123	0x3e3331cb	0.17499463
124	0xbd22fe7c	-0.039793476
125	0x3eb9a9e2	0.36262423
126	0xbe3aedea	-0.1825482
127	0x3eca9bfb	0.3957213
128	0xbe8187a1	-0.2529879
129	0x3e5cd94e	0.2156727
130	0xbd79124d	-0.06080847
131	0x3ec3a7cc	0.38213956
132	0xbeec0c2a	-0.4610303
133	0xbf201e64	-0.6254637
134	0x3f52c127	0.8232598
135	0x3ebd562d	0.3697981
136	0xbeaf301a	-0.34216386
137	0xbe572374	-0.21009618
138	0xbf2f76f5	-0.6854089
139	0xbea0b9f3	-0.31391868
140	0x3e37512b	0.17902057
141	0x3df1ba7b	0.118031465
142	0x3d9435bf	0.07236814
143	0x3e763ea1	0.24047329
144	0xbf06d14e	-0.52663124
145	0xbe901a30	-0.2814498
146	0xbe5e9786	-0.21737489
147	0xbeb6ace8	-0.35678792
148	0xbe75b446	-0.2399455
149	0xbe1eaf32	-0.15496519
150	0x3dd30d7e	0.10305308
151	0x3e9a11a2	0.30091578
152	0xbf1088dc	-0.5645883
153	0x3eba387f	0.36371228
154	0x3e045203	0.1292191
155	0xbec1cd8d	-0.37852135
156	0x3d33b1b6	0.04387065
157	0x3e1b3c17	0.15159641
158	0x3e243e20	0.16039324
159	0x3df7b430	0.12094915
160	0x3c6c639e	0.014428047
161	0xbe5b1e9e	-0.21398398
162	0xbe9cfc4c	-0.30661237
163	0xbef4aee1	-0.47789672
164	0xbe9500cb	-0.29102167
165	0xbde81ce3	-0.11333635
166	0x3cb68132	0.022278402
167	0xbdd809c5	-0.105487384
168	0xbea43ede	-0.32079214
169	0x3e62764c	0.22115439
170	0xbe17b46a	-0.14814916
171	0xbe95cc01	-0.29257205
172	0x3e5d2379	0.21595563
173	0x3d1b01d5	0.037843544
174	0x3debed71	0.11519898
175	0xbe91360d	-0.2836155
176	0x3d8a65d9	0.06757707
177	0xbdb31207	-0.08743673
178	0xbe4096cc	-0.18807524
179	0xbdb22f5b	-0.087004386
180	0xbe97cc81	-0.29648212
181	0x3ebdd9f8	0.3708036
182	0xbf939f6c	-1.1533027
183	0xbeed5639	-0.46354845
184	0x3d8d7a4e	0.069080934
185	0x3df07b5e	0.117422804
186	0x3ec9bfce	0.39404148
187	0xbeb3a282	-0.3508492
188	0xbe3752d5	-0.17902692
189	0xbd6b64a2	-0.057469018
190	0x3d270e18	0.040784925
191	0x3f00831d	0.50200063
192	0x3e105959	0.14096583
193	0x3f003274	0.50076985
194	0xbe99068c	-0.29887807
195	0x3e90f3d7	0.28311035
196	0x3e49125f	0.19635914
197	0x3d17c7ee	0.037055902
198	0x3e710a5d	0.2353911
199	0x3de90cc0	0.11379385
200	0xbd9f57c6	-0.07780413
201	0x3f0ee907	0.5582432
202	0xbecef560	-0.4042158
203	0x3d9ec21a	0.07751866
204	0xbe07af41	-0.13250448
205	0x3de248ca	0.1104904
206	0x3f6dd03c	0.92895865
207	0x3e858de1	0.26084808
208	0x3e8ebda5	0.27879062
209	0x3ea1decc	0.31615293
210	0xbd6f12b6	-0.058367454
211	0xbe8c521e	-0.274064
212	0x3f414a23	0.7550375
213	0xbf0c81d3	-0.54885596
214	0x3eaf9184	0.34290707
215	0x3e3659d2	0.17807701
216	0xbe93fbd0	-0.28903055
217	0x3c85927b	0.016305199
218	0x3e2437e2	0.16036943
219	0xbecdb453	-0.4017664
220	0xbebf5b79	-0.37374476
221	0x3e43ee35	0.19133838
222	0x3e1104f8	0.14162052
223	0x3f344167	0.70412296
224	0xbdf46925	-0.11934117
225	0x3ecb5f31	0.39721063
226	0x3e1f77f2	0.155731
227	0x3e2c9c2b	0.16856448
228	0xbe1d8d47	-0.15385924
229	0xbf014859	-0.5050102
230	0xbee01c6f	-0.43771693
231	0xbe97ee70	-0.296741
232	0x3ee787f2	0.45220906
233	0x3d909563	0.07059743
234	0x3ea132be	0.31484026
235	0xbe83e4bd	-0.2576045
236	0xbeb0acc3	-0.34506807
237	0xbe6b3b3a	-0.22971812
238	0xbebf11bd	-0.3731822
239	0x3ea49025	0.32141224
240	0xbefd1315	-0.4942862
241	0x3e6a3db0	0.22875094
242	0x3ef28f3b	0.473749
243	0xbeb187bf	-0.3467388
244	0xbdc773c3	-0.09738877
245	0xbda11e3d	-0.078670956
246	0x3e204cef	0.15654348
247	0xbdf85b9e	-0.121268496
248	0x3ebebe9c	0.37254798
249	0x3d267df4	0.040647462
250	0x3d0c08bb	0.034188014
251	0xbe28ed60	-0.16496801
252	0x3de743a1	0.11292196
253	0x3c02e3b3	0.007988858
254	0x3eb0eddc	0.34556472
255	0x3eb159da	0.34638864

network_body._body_endoder.seq_layers.0.bias f4 [128]
0	0x3cee8123	0.029114312
1	0x3c52beb1	0.012862847
2	0x3b008e31	0.0019616003
3	0x3aee0c54	0.0018161633
4	0x3d1e062e	0.038580112
5	0xbd0b279d	-0.033973325
6	0xbc77e68b	-0.015130649
7	0xbc17fd8b	-0.009276758
8	0xbc183acc	-0.009291362
9	0x3bab860e	0.0052344864
10	0x3cf2267f	0.029559372
11	0x3d2f5670	0.042807043
12	0x3ce1f1e6	0.027581166
13	0xbbedd91f	-0.007258549
14	0xbc2f841f	-0.0107126525
15	0x3c8a81e1	0.016907634
16	0x3cddb0f3	0.027061915
17	0x3b853bb2	0.004065954
18	0x3cd1bedd	0.025603706
19	0x3c63f7a3	0.013914022
20	0x3bce0dbb	0.006288258
21	0x3cf43c60	0.029813945
22	0xbc10684d	-0.00881393
23	0x3d485c2b	0.048916023
24	0x3cfef13d	0.03112089
25	0x3bbff918	0.0058585517
26	0x3d4c24b8	0.049839705
27	0x3cedb5d0	0.029017359
28	0x3ce61c2c	0.028089605
29	0x3aaa71f1	0.0013003928
30	0x3b96c85b	0.004601521
31	0x3d4caaa2	0.049967416
32	0x3c1b9889	0.009496816
33	0x3c9aa608	0.018877998
34	0x3d08a175	0.033357102
35	0x3bbb39e5	0.0057136887
36	0xbc6e29b4	-0.01453631
37	0x3c832ef0	0.016013592
38	0x3cc237ec	0.023708306
39	0x3cc696d5	0.024241844
40	0x3d2d7903	0.042351734
41	0xbbfbe371	-0.0076870252
42	0x3c23ce8b	0.009997974
43	0x3b384df9	0.0028122647
44	0x3d050b63	0.032481562
45	0xbc07d58d	-0.008290661
46	0x3d5380a2	0.051636346
47	0x3c8464df	0.01616138
48	0xbbd2302d	-0.0064144344
49	0xbc2e2b15	-0.010630389
50	0xbcf21eba	-0.029555667
51	0x3c9ce0a9	0.019150095
52	0xbb03f311	-0.0020133893
53	0x3bf464fd	0.007458328
54	0xbca7d24b	-0.020486018
55	0x3bfe6814	0.007763872
56	0x3cf4c98a	0.029881258
57	0x3c0aa1ae	0.008461399
58	0x3cb02ba4	0.021505184
59	0x3d1edb85	0.03878357
60	0x3c47975e	0.012182085
61	0x3cdb4355	0.026765505
62	0x3cc0cd1a	0.0235353
63	0x3c104f99	0.00880804
64	0x3d3cdf75	0.046111543
65	0xbb359f8d	-0.0027713508
66	0x3d099ad1	0.03359491
67	0x3d21398a	0.039361514
68	0x3d31659b	0.04330979
69	0xbc0a7dc4	-0.008452836
70	0x3d21c8a2	0.03949798
71	0xbb415c73	-0.0029504567
72	0xbb98e1af	-0.0046655755
73	0xbbfa9aef	-0.007647864
74	0xbc21e0fc	-0.009880301
75	0x3b1625b3	0.0022910654
76	0x3c72847e	0.014802096
77	0xbc5e478b	-0.013566862
78	0x3be66952	0.007031598
79	0x3d008ca6	0.031384133
80	0x3be00d4f	0.006837524
81	0x3d0a6f35	0.03379746
82	0xbc8c9791	-0.017162116
83	0xba61cb10	-0.00086133275
84	0x3cd22dd7	0.025656624
85	0xbc1116c1	-0.008855523
86	0x3c9e9b34	0.019361116
87	0xbaa7c78b	-0.0012800557
88	0xbc2df806	-0.010618215
89	0x3c0686b9	0.008210831
90	0xbc3168aa	-0.0108281765
91	0x3d3ffc88	0.046871692
92	0xb8a3d8dd	-7.8128396e-05
93	0x3cd4fdac	0.025999866
94	0x3d1b5a37	0.037927832
95	0x3acfacdc	0.0015844363
96	0x3b9191d5	0.0044424334
97	0x3ccf0c0d	0.025274301
98	0x3bfe7f57	0.007766645
99	0x3b9d1c04	0.0047945995
100	0x3cbef53b	0.023310294
101	0x3d250c4f	0.04029494
102	0x3c13d795	0.009023567
103	0x3cc46183	0.023972278
104	0x3c84c99f	0.016209422
105	0x3c9db51d	0.0192514
106	0x3c433c48	0.011916228
107	0x3aa572ef	0.0012622754
108	0x3d34926b	0.044084948
109	0x3c1eec41	0.009699882
110	0xbc0b60c8	-0.008506961
111	0x3c730162	0.014831873
112	0xbc4bee88	-0.012447007
113	0x3c883794	0.016628064
114	0x3d2352e7	0.039873984
115	0x3b3942ce	0.0028268578
116	0x3ca2985a	0.019848038
117	0xbbe3ee73	-0.0069559156
118	0x3d2ee38b	0.04269747
119	0xbc57715c	-0.013149586
120	0x3cda7e2c	0.026671492
121	0x3c0112d4	0.007878024
122	0x3c8af747	0.016963614
123	0x3cb60810	0.022220641
124	0xbc873708	-0.016505733
125	0xbb7bc4b0	-0.0038416795
126	0x3d549310	0.051898062
127	0x3b99b688	0.004690949

network_body._body_endoder.seq_layers.2.weight f4 [128, 128]
0	0x3e138e27	0.14409696
1	0xbd026ace	-0.031840138
2	0x3d8490c2	0.06472923
3	0x3dcdbeb1	0.10046137
4	0x3df06fcf	0.11740076
5	0xbd06b726	-0.032889508
6	0x3d77ecf3	0.060528707
7	0x3e2aba5a	0.1667265
8	0x3df37e80	0.11889362
9	0xbcf8a892	-0.030353818
10	0xbd82bda3	-0.063838266
11	0xbe011540	-0.12605762
12	0x3e0beaa4	0.13663727
13	0x3d9268c2	0.07148887
14	0xbd2dca86	-0.04242947
15	0xbd9365e2	-0.07197167
16	0x3ccae3bb	0.024766793
17	0x3da895a6	0.08231668
18	0xbb14d759	-0.0022711365
19	0x3e5ad452	0.21370056
20	0x3d66aea9	0.056318913
21	0xbd85dd2b	-0.06536325
22	0xb8682e22	-5.5356075e-05
23	0x3d7f306f	0.06230205
24	0xbcee684c	-0.029102467
25	0xbd3dff9d	-0.04638635
26	0xbcb0b9e9	-0.021573024
27	0xbd6846be	-0.05670809
28	0x3b6a09fe	0.0035711522
29	0x3d4e7a8d	0.050409842
30	0xbd87b237	-0.06625789
31	0xbc161fd2	-0.00916286
32	0x3e32a24c	0.17444724
33	0xbdaaeee5	-0.08346347
34	0xbd03c750	-0.0321725
35	0x3d8e2d9c	0.06942293
36	0x3ddd345f	0.108010046
37	0x3dde5c44	0.10857442
38	0x3b452ecc	0.0030087708
39	0x3e27558c	0.16341227
40	0x3e47ac94	0.19499427
41	0x3dad5813	0.084640644
42	0x3e1b20f4	0.1514929
43	0x3b82487a	0.003975925
44	0xbdef6c4d	-0.116905786
45	0x3dc07382	0.09397031
46	0x3da44922	0.080217615
47	0xb76de227	-1.4178956e-05
48	0x3d83e201	0.06439591
49	0x3d2f4449	0.04278973
50	0xbd92a200	-0.07159805
51	0x3d981606	0.07426076
52	0xbda1598e	-0.07878409
53	0x3e4d5838	0.20053184
54	0xbde51332	-0.11185302
55	0xbc11f9e8	-0.00890968
56	0x3d67126c	0.056414053
57	0x3c32eca3	0.010920676
58	0x3dc38365	0.09546546
59	0x3d38ae75	0.04508825
60	0x3e085d6c	0.13316888
61	0xbd60d67a	-0.05489204
62	0x3e33c5fa	0.17555991
63	0x3b282c3f	0.0025661138
64	0x3d401739	0.046897147
65	0x3def815c	0.11694595
66	0xbd21c699	-0.039496038
67	0x3dacb669	0.084332295
68	0xbdc10eb9	-0.09426636
69	0xbe4576b0	-0.19283557
70	0x3e18c22e	0.14917824
71	0x3d288e1d	0.041151155
72	0x3cf55c92	0.029951368
73	0x3e1591eb	0.14606445
74	0xbcca218c	-0.0246742
75	0x3dc7654a	0.09736116
76	0xbe193e12	-0.14965084
77	0x3cddb32d	0.027062977
78	0xbd7d6bf2	-0.061870523
79	0x3d8ed883	0.0697489
80	0xbd276cd2	-0.040875264
81	0x3e5fafc2	0.2184439
82	0x3cabcf71	0.02097294
83	0xbdc4213e	-0.09576653
84	0xbd8240a3	-0.06359985
85	0xbc8f7d04	-0.017515667
86	0xbd80b7dd	-0.06285069
87	0x3e04609c	0.12927479
88	0xbd8fed74	-0.070277125
89	0x3e10c803	0.14138798
90	0x3de3e800	0.11128235
91	0xba81b7a9	-0.0009896654
92	0xbe043a17	-0.12912785
93	0x3e8b0373	0.2715107
94	0x3b9498af	0.004534803
95	0x3df10547	0.11768585
96	0xbdd40dea	-0.103542164
97	0x3e2f70e4	0.17132908
98	0xbc4a4562	-0.012345644
99	0x3d983721	0.0743239
100	0x3ca498e7	0.02009244
101	0x3ccfc9d7	0.0253648
102	0x3d7d24dc	0.06180273
103	0x3cd94238	0.026520833
104	0x3dcdd3f9	0.10050196
105	0x3c5e7021	0.013576538
106	0xbc8fb341	-0.01754153
107	0x3d5478ec	0.051873133
108	0x3bac302a	0.005254765
109	0xbdec2bdd	-0.11531804
110	0x3ca19b33	0.019727325
111	0xbd15e094	-0.036591128
112	0xbd95b19e	-0.073092684
113	0x3d5f8f7b	0.054580193
114	0xbc60e4c1	-0.013726414
115	0xbe2ac0ff	-0.16675185
116	0xbd733711	-0.059378687
117	0x3da7abd1	0.08187068
118	0x3be7b92a	0.007071634
119	0x3e014249	0.12622942
120	0x3dfcdd48	0.123468935
121	0x3dc7f77e	0.09764002
122	0xbd10e897	-0.035378065
123	0x3e1c2c64	0.15251309
124	0x3d383315	0.04497059
125	0xbdb8a036	-0.09014933
126	0xbaadedcb	-0.001326972
127	0x3dabd0d5	0.08389441
128	0x3cb11a1f	0.0216189
129	0x3e150701	0.14553453
130	0x3e660d06	0.22465906
131	0x3e058d31	0.13042141
132	0xbdb248fb	-0.08705326
133	0xbe24f6c8	-0.16109765
134	0x3d140332	0.03613586
135	0xbd56a101	-0.05239964
136	0x3e1ccc5e	0.15312335
137	0x3e00f9d0	0.12595296
138	0x3dba737d	0.09104059
139	0x3d508a88	0.050913364
140	0xbc02ce01	-0.0079836855
141	0xbc12def8	-0.008964293
142	0xbc637b29	-0.013884344
143	0x3aee437d	0.0018178072
144	0xbe04804b	-0.12939565
145	0xbd139ff7	-0.036041226
146	0xbdbbd31c	-0.09171125
147	0x3d9460a9	0.07244999
148	0xbd227435	-0.039661605
149	0x3de995ce	0.11405526
150	0xbdf5f662	-0.120098844
151	0x3af34ce7	0.0018562347
152	0xbd6dca3d	-0.058054198
153	0x3e0d84aa	0.13820139
154	0x3d99fe18	0.07519168
155	0x3d36286e	0.04447215
156	0x39ace709	0.0003297853
157	0xbdaed463	-0.08536603
158	0x3d2310e9	0.03981105
159	0xbd907b96	-0.07054822
160	0xbdb385b7	-0.087657385
161	0xbd924cef	-0.0714358
162	0x3cc9a3f5	0.024614314
163	0x3e28d40b	0.16487138
164	0xbe03c8d2	-0.12869576
165	0x3b8bd70b	0.0042675785
166	0x3da97e03	0.08275988
167	0x3d033adf	0.032038566
168	0x3d96a782	0.07356168
169	0xbc1f43ce	-0.009720756
170	0xbdb74d9b	-0.08950349
171	0x3d80d85c	0.06291267
172	0x3c9a6af9	0.018849837
173	0xbdd60336	-0.10449831
174	0x3ba7857c	0.005112348
175	0xbd3d4b86	-0.046214603
176	0x3d587cac	0.05285327
177	0x3de9a046	0.11407523
178	0xbe361822	-0.17782643
179	0x3d552356	0.052035652
180	0x3dc2af90	0.09506142
181	0xbd735643	-0.059408437
182	0x3b001cac	0.001954834
183	0xbd1d50a7	-0.038406994
184	0xbd2f17af	-0.042747196
185	0xbdd6cc4a	-0.10488184
186	0x3df2af26	0.11849813
187	0x3c558df7	0.013034335
188	0x3c7d1275	0.015446295
189	0xbb454a52	-0.0030104113
190	0xbd04b0f4	-0.03239532
191	0x3d7ab181	0.061204437
192	0x3d3b40eb	0.045716207
193	0x3de47919	0.1115591
194	0x3ca7ad30	0.020468324
195	0x3e190127	0.14941846
196	0xbd4d0b93	-0.050059866
197	0xbd86fc5b	-0.06591102
198	0x3e0457cc	0.12924117
199	0x3d6dc400	0.05804825
200	0x3d7436f6	0.059622727
201	0xbd7578ea	-0.059929766
202	0x3cb63655	0.022242704
203	0x3cd6255a	0.026140857
204	0xbdc9c3d4	-0.098518044
205	0xbac6f585	-0.0015179372
206	0xbd488a8b	-0.04896025
207	0x3cea7b7f	0.02862334
208	0xbda79994	-0.081835896
209	0x3d598253	0.053102802
210	0xbd107da6	-0.035276078
211	0xbe4a6d18	-0.19768178
212	0x3d0a0c29	0.033703003
213	0xbd5ad243	-0.053423177
214	0x3e0ff8cb	0.1405975
215	0xbc0c0076	-0.008545032
216	0xbd0a7cd5	-0.033810455
217	0x3e0c787e	0.13717839
218	0x3c986acf	0.018605618
219	0xbd5b5a74	-0.05355306
220	0x3cae9bd0	0.021314532
221	0x3e147005	0.14495857
222	0xbda2e44f	-0.07953703
223	0x3e31a1eb	0.17346923
224	0x3d7ca748	0.06168297
225	0x3e16a286	0.14710435
226	0xbe2947cc	-0.16531295
227	0x3e032a8b	0.12809198
228	0xbc706e93	-0.0146748
229	0xbde6c586	-0.11268143
230	0x3d777d0c	0.06042199
231	0x3dc2235b	0.094794
232	0xbdb84a7b	-0.08998581
233	0xbd21a66b	-0.03946535
234	0xbc26d95b	-0.0101836575
235	0xbdb0a23b	-0.08624693
236	0xbd87778c	-0.06614599
237	0xbdc083ea	-0.094001606
238	0xbdbfa704	-0.093580276
239	0xbc272840	-0.010202467
240	0x39b72e3b	0.00034938924
241	0xbcfc6969	-0.030811982
242	0xbe07a3f6	-0.1324614
243	0x3d6b625d	0.057466853
244	0x3d00c04d	0.031433392
245	0x3ccd40f1	0.02505538
246	0xbe4e6858	-0.20156991
247	0x3dc52918	0.09626979
248	0xbcda7e4a	-0.026671547
249	0x3d8247ea	0.06361373
250	0x3db56345	0.08856825
251	0xbda53235	-0.08066217
252	0x3dd034dd	0.10166333
253	0xbe1c4361	-0.15260078
254	0xbd1cb44c	-0.038257882
255	0x3d5a1d58	0.05325064

network_body._body_endoder.seq_layers.2.bias f4 [128]
0	0x3c7eb345	0.015545671
1	0x3acca029	0.0015611696
2	0x3d077ed3	0.033079933
3	0xbc62d4ad	-0.013844651
4	0x3cc62480	0.024187326
5	0x3c52deaa	0.01287047
6	0xbc90e17f	-0.01768565
7	0xbce96b5c	-0.028493576
8	0xbd02fdb6	-0.03198024
9	0x3c86b202	0.016442303
10	0x3c845995	0.016155997
11	0x3bdb4a87	0.006692234
12	0xbcd870da	-0.026421
13	0xbb993c8c	-0.004676407
14	0x3cdc62ed	0.02690264
15	0x3b7ace6a	0.0038270005
16	0xbbb77de4	-0.005599724
17	0x3b08cd8d	0.002087447
18	0xbbd812e9	-0.006594051
19	0xbc472677	-0.012155167
20	0xbc1e25dd	-0.009652582
21	0x3cdc6c89	0.026907222
22	0xbc0d8ad8	-0.00863906
23	0xbc2d9888	-0.010595448
24	0x3d2841c8	0.04107836
25	0x3c1cc66f	0.009568795
26	0x3cec5c42	0.028852586
27	0x3bee84f2	0.007279032
28	0xbc91ff7d	-0.017822022
29	0x3d1b36a8	0.03789392
30	0xbc37f9cb	-0.011228989
31	0xbce4617a	-0.027878512
32	0xbb59ca5d	-0.003323219
33	0xbc85a030	-0.016311735
34	0xbc5a2828	-0.013315238
35	0xbc15078e	-0.009096039
36	0x3cd26d2a	0.02568682
37	0x3ce021f5	0.027359942
38	0xbc95c84a	-0.018283982
39	0xbc567618	-0.013089679
40	0x3c9d61e6	0.01921172
41	0xbc8a6bd5	-0.016897121
42	0xbca7ceee	-0.020484414
43	0xba2704a3	-0.00063712354
44	0xbaa8eee0	-0.0012888573
45	0x3bbfa164	0.0058480967
46	0xbc67d726	-0.0141504165
47	0x3c52dcc5	0.012870018
48	0xbca3a581	-0.01997638
49	0x3cf9e3cd	0.030504132
50	0x3cabd117	0.020973725
51	0x3cb1656a	0.021654803
52	0x3ceb9aad	0.028760279
53	0xbce9f3cf	-0.02855864
54	0x3c59408f	0.013260021
55	0x3cab6d61	0.02092618
56	0xbc549f75	-0.012977471
57	0xbce022c1	-0.027360322
58	0x3b8b153d	0.004244475
59	0xbc2c5603	-0.010518554
60	0xbccfd612	-0.025370631
61	0xbc599b8e	-0.013281716
62	0x3d34b318	0.04411611
63	0x3c8b12e7	0.016976787
64	0xbcf09595	-0.029368201
65	0x3c4853c8	0.012227006
66	0x3c90fbdd	0.017698223
67	0xbcc8141c	-0.024423651
68	0xbc8bffc0	-0.017089725
69	0x3d089907	0.033349063
70	0x3bb83c4b	0.005622422
71	0xbbbdb992	-0.005789944
72	0x3c94d895	0.01816968
73	0x3d1b661c	0.037939176
74	0x3c450eb7	0.012027434
75	0x3c9114c4	0.017710097
76	0x3ce7e3b4	0.02830682
77	0x3cd44051	0.025909575
78	0x3cce4350	0.025178581
79	0x3ceee4c0	0.02916181
80	0x3ccb68d5	0.024830261
81	0x3ccb93cd	0.02485075
82	0x3ce29277	0.02765773
83	0xbce08a0f	-0.027409581
84	0x3cbfeb40	0.023427606
85	0x3bbcb705	0.0057591223
86	0x3c2ccd79	0.010547035
87	0x3c80b7da	0.015712667
88	0x3c8a2331	0.016862484
89	0xbb217f70	-0.002464261
90	0x3cbaa94e	0.022785809
91	0x3ce496e5	0.027903983
92	0x3c7e102e	0.015506787
93	0x3ca2ed10	0.01988843
94	0x3d0d2115	0.034455378
95	0x3becf17b	0.007230935
96	0xbd152abf	-0.03641772
97	0xbcbadc8e	-0.022810247
98	0x3ced3cdb	0.028959682
99	0xbc9b7ae4	-0.018979497
100	0x3cf3adf0	0.029746026
101	0xbcf0c8ce	-0.029392626
102	0x3d15e7e2	0.036598094
103	0x3c257e8e	0.010100974
104	0x3a63ac32	0.0008685022
105	0x3b1325b6	0.0022452897
106	0x3cfcf9e0	0.030880868
107	0xbc7d31a3	-0.015453729
108	0xbad8d807	-0.0016543873
109	0x3d08486b	0.03327219
110	0x3d319754	0.04335721
111	0x3cd187b6	0.025577407
112	0xbc37e3f6	-0.011223784
113	0x3d38ad06	0.045086883
114	0x3c2eb50c	0.010663282
115	0x3d3d800b	0.04626469
116	0xbcb21396	-0.021737855
117	0x3d1b6830	0.037941158
118	0xbafb5c04	-0.0019177203
119	0x3c725370	0.014790401
120	0xbcae7d79	-0.021300064
121	0xbcb3efaf	-0.021964876
122	0x3c9dcf2f	0.019263832
123	0x3d15e018	0.036590666
124	0xbc860d59	-0.016363787
125	0xbca97dd3	-0.02068988
126	0x3cde02ec	0.027101003
127	0x3be5b846	0.0070104925

action_model._continuous_distribution.log_sigma f4 [1, 2]
0	0xbc266872	-0.010156738
1	0x3c851d16	0.01624922

action_model._continuous_distribution.mu.weight f4 [2, 128]
0	0x3cae9611	0.021311792
1	0xbcdc6fd0	-0.026908785
2	0xbc90db24	-0.01768262
3	0x3c4693b3	0.012120175
4	0x3c8588a8	0.016300514
5	0xbc2da749	-0.010598966
6	0x3ca7667d	0.020434612
7	0x3ad1bb1b	0.0016001196
8	0xbc5d7169	-0.013515809
9	0xbbbf56b9	-0.0058391956
10	0x3d3b81f2	0.045778222
11	0xbcf5b9aa	-0.029995758
12	0x3b90716d	0.0044080527
13	0xbcd1fe39	-0.025633918
14	0xbb96a79d	-0.004597618
15	0x3d16348c	0.036671206
16	0x3ce7166c	0.028208934
17	0x3d72884a	0.059212007
18	0xbd06b505	-0.032887477
19	0x3ce5673f	0.028003333
20	0xbcda00c1	-0.026611688
21	0xbc243a3f	-0.010023653
22	0x3c5013a2	0.012699993
23	0x3ba86439	0.0051389006
24	0xbc604766	-0.013688898
25	0x3d59587a	0.053062893
26	0xbbcb74f3	-0.00620901
27	0x3baed968	0.0053359754
28	0xbcb249c3	-0.021763688
29	0xbc93786e	-0.018001761
30	0x3c67058e	0.014100445
31	0xbc5cbaab	-0.0134722395
32	0x3c1202cd	0.008911801
33	0xbcc711b6	-0.024300437
34	0x3d14125b	0.036150318
35	0x3d35a9df	0.044351455
36	0x3d36a089	0.044586692
37	0x3c99ab16	0.018758338
38	0x3bd85e8a	0.006603067
39	0xbcb17f8c	-0.021667264
40	0xbc64a955	-0.0139563875
41	0xbc9244dc	-0.0178551
42	0x3bd3cebe	0.0064638546
43	0xbd3b6a4f	-0.04575568
44	0x3c806daf	0.015677301
45	0xbd1b5c2f	-0.03792971
46	0xbc6ec007	-0.01457215
47	0x3d27ddf6	0.040983163
48	0x3c22b9c7	0.009931988
49	0x3c1f3e2d	0.009719414
50	0x3d4d3bfc	0.050106034
51	0x3c4edd8e	0.012626065
52	0x3d04c840	0.032417536
53	0x3ba86671	0.005139165
54	0x3c387fdf	0.011260956
55	0x3d5f0e9e	0.0544573
56	0x3c3dbc14	0.011580486
57	0x3c54e012	0.012992876
58	0xbc8aaf36	-0.01692925
59	0xbd2b138d	-0.041766692
60	0xbca26e0a	-0.019827861
61	0x3c8cf1bc	0.017205112
62	0xbc434e67	-0.011920548
63	0x3d395fd2	0.045257397
64	0x3b2cf126	0.0026388853
65	0x3be7a3dd	0.0070690946
66	0x3cc592df	0.024117885
67	0xbcbef635	-0.02331076
68	0xbbb0ebb6	-0.0053991927
69	0xbc760b0a	-0.01501728
70	0xbcaf54fe	-0.021402832
71	0x3cf8c3b1	0.03036675
72	0x3bfe6674	0.007763678
73	0xbc9239bb	-0.017849794
74	0xbcafdcc8	-0.021467581
75	0xbc845884	-0.016155489
76	0x3d293493	0.041309904
77	0xbd01fb01	-0.031733517
78	0x3b431882	0.0029769246
79	0x3c2d6878	0.010583989
80	0xbc00b039	-0.007854515
81	0xbca466c0	-0.020068526
82	0x3b91c4ca	0.004448508
83	0xbbf04bf3	-0.0073332726
84	0x3bf3de9b	0.007442308
85	0xbd0c1732	-0.03420181
86	0xbb2345c5	-0.0024913412
87	0xbbef9ad5	-0.0073121586
88	0x3ca405de	0.020022329
89	0xbc49e9d1	-0.012323813
90	0xbc832b71	-0.016011925
91	0xbd29b199	-0.041429136
92	0xbcd1809e	-0.025574025
93	0x3d4bdcba	0.049771048
94	0x3cd3fc66	0.025877189
95	0xbd8050a5	-0.06265382
96	0x3c40a2d5	0.011757572
97	0x3d0ee7df	0.0348891
98	0x3b8fde47	0.004390511
99	0xbc2d0649	-0.0105605805
100	0x3b1059fe	0.0022026296
101	0xb8652244	-5.4629767e-05
102	0xbca89874	-0.020580508
103	0x3c3152ae	0.010822935
104	0x3cf51b8c	0.029920362
105	0x3c77b558	0.015118919
106	0xbc9c43c8	-0.01907529
107	0xbade942b	-0.0016981413
108	0x3d6c56e0	0.057700038
109	0x3ca2ac2b	0.019857487
110	0x3ae5e598	0.0017539738
111	0x3d3049e4	0.043039218
112	0x3c884d89	0.016638534
113	0x3b9a8e0b	0.00471664
114	0x3cfe171d	0.03101688
115	0x3b30cfc6	0.0026979311
116	0xbcdd8414	-0.027040519
117	0x3d2721dd	0.04080378
118	0x3d0b3f64	0.033996
119	0xbc182926	-0.009287154
120	0xbd2eeade	-0.042704456
121	0x3b8e0545	0.0043341243
122	0x3c31a51f	0.010842591
123	0xbc364095	-0.011123796
124	0xbb84f096	-0.0040570004
125	0x3c332d88	0.010936148
126	0x3d017fc4	0.031615987
127	0xbc571276	-0.01312696
128	0x3c11e5c8	0.008904882
129	0x3bc0d52e	0.005884788
130	0x3d0e495c	0.03473793
131	0xbca3322d	-0.019921387
132	0x3d1c82d0	0.03821069
133	0x3c214116	0.009842178
134	0xbc2e4d96	-0.010638615
135	0xbcd39708	-0.025828853
136	0xbd199b37	-0.03750154
137	0x3ceab8ee	0.028652634
138	0x3d172a06	0.03690531
139	0xbb56896f	-0.0032735725
140	0xbcb3943a	-0.021921266
141	0xbbfb4f45	-0.007669362
142	0x3cc7ba37	0.024380786
143	0x3b8ec487	0.004356924
144	0xbcb93ef1	-0.02261302
145	0xbc0a6823	-0.00844768
146	0xbafc3be6	-0.0019243925
147	0xbd033004	-0.032028213
148	0xbc857511	-0.016291173
149	0x3ce18aba	0.02753197
150	0xbc9ed75e	-0.019389804
151	0xbc811815	-0.015758554
152	0x3d425b6c	0.047450468
153	0xbc050fb1	-0.008121417
154	0x3caa2e6a	0.020774085
155	0x3be63ee9	0.0070265424
156	0xbb7e5e42	-0.0038813506
157	0x3d0fe48d	0.035130072
158	0xbc62a525	-0.013833319
159	0xbc9edf41	-0.019393565
160	0xbc17995d	-0.009252873
161	0xbc9f85d4	-0.019472994
162	0xbd261506	-0.040547393
163	0xbd5a93b2	-0.05336351
164	0x3cea15ad	0.028574789
165	0x3ce6d9fd	0.028180117
166	0xbcb7f14a	-0.022453923
167	0xbcd1e12b	-0.025620064
168	0x3d0f6e29	0.035017166
169	0xbc12bdb3	-0.008956361
170	0xbc61f037	-0.013790182
171	0xbb9d0fbd	-0.004793136
172	0xbbb5dcd3	-0.005550006
173	0x3c0b8b53	0.008517104
174	0xbcc43530	-0.023951143
175	0x3b83982a	0.004015942
176	0xbc79516e	-0.015217168
177	0x3d5439bc	0.051812872
178	0x3bd38907	0.006455544
179	0x3ce379da	0.027768064
180	0x3c5b2a28	0.01337675
181	0xbd0429cc	-0.032266423
182	0x3beea189	0.00728244
183	0x3d2ff2ef	0.04295629
184	0xbc25f47c	-0.01012909
185	0xbd35e0eb	-0.04440395
186	0x3c94255e	0.018084224
187	0xbd0bc316	-0.034121595
188	0xbd29b360	-0.04143083
189	0x3b4d292a	0.0031305053
190	0x3d511a69	0.051050577
191	0x3ceeda08	0.0291567
192	0xbd32fc19	-0.04369745
193	0x3c814906	0.01578189
194	0x3ce21ff0	0.02760312
195	0xbca6fd53	-0.020384466
196	0xbbe66e97	-0.0070322263
197	0x3d1bbaf1	0.038020078
198	0x3c7f6eeb	0.01559041
199	0xbc1242af	-0.008927031
200	0x3c014dd9	0.0078920955
201	0x3d34ccac	0.044140503
202	0x3b02c51b	0.001995391
203	0x3cac8ef8	0.021064267
204	0x3d03e9fb	0.032205563
205	0x3cc7febd	0.02441346
206	0x3d3db0e7	0.046311285
207	0x3d414ee7	0.047194388
208	0x3cc6c037	0.024261577
209	0x3d1e0ae3	0.0385846
210	0x3d31afff	0.043380734
211	0xbd06caa9	-0.032908116
212	0x3d04ab29	0.032389794
213	0xba65daa1	-0.0008768235
214	0x3c5d845d	0.013520327
215	0x3c94715d	0.018120462
216	0x3b651363	0.0034954182
217	0xbc0157ea	-0.0078944955
218	0x3c92e8bc	0.017933242
219	0x3caaaf7b	0.020835629
220	0x3cf5b26e	0.029992308
221	0x3cb168d4	0.021656431
222	0x3d88ba8d	0.06676207
223	0x3c994bc6	0.01871289
224	0xbcd6217d	-0.026139015
225	0xbcf999a9	-0.030468779
226	0x3c78f2f7	0.015194646
227	0xbc7eb3df	-0.015545814
228	0x3cbdc90a	0.023167152
229	0xbcbf8e72	-0.023383353
230	0x3d3d8410	0.046268523
231	0x3bd8a300	0.006611228
232	0xbc39fb05	-0.011351352
233	0xbb7308a9	-0.003708402
234	0x3d62f037	0.055404868
235	0xbd9a8677	-0.075451784
236	0xbabf7766	-0.0014607727
237	0x3d1a62bf	0.037691828
238	0x3d3a1c37	0.045437064
239	0x3d3341d7	0.04376396
240	0xbb954bd5	-0.004556159
241	0x3d41cb18	0.047312826
242	0x3c863037	0.016380413
243	0x3d0c9794	0.034324244
244	0xbd054e36	-0.03254529
245	0x3d4fbfa8	0.050719887
246	0xbb8886f9	-0.0041664806
247	0x3c955800	0.018230438
248	0xbd0b2623	-0.033971917
249	0xbd0bbf40	-0.034117937
250	0x3c9e141e	0.019296702
251	0x3cb3c992	0.021946702
252	0xbd12e937	-0.035866942
253	0xbd228ce7	-0.039685156
254	0x3d2eb0d8	0.04264912
255	0xbaa70ea3	-0.0012745451

action_model._continuous_distribution.mu.bias f4 [2]
0	0x3b124ce1	0.0022323655
1	0x3cef1e1f	0.029189168

exp_avg f4 [128, 11]
0	0x39c490bd	0.00037491872
1	0x38a8e903	8.054266e-05
2	0xb945f516	-0.00018878686
3	0x3a023314	0.00049667177
4	0x00000000	0.0
5	0x397cd267	0.00024110974
6	0x3a1c1745	0.0005954395
7	0xb8d7b001	-0.00010284782
8	0xb99ac3ea	-0.00029519136
9	0x38e90133	0.00011110529
10	0x385b9cc5	5.2359672e-05
11	0xb815a311	-3.5676236e-05
12	0xb927f3eb	-0.00016017228
13	0x3793336a	1.7547707e-05
14	0xb85777ae	-5.1371455e-05
15	0x00000000	0.0
16	0xb90c00a6	-0.00013351682
17	0x38aea9af	8.3285726e-05
18	0xb89b5f64	-7.408744e-05
19	0x3919f879	0.0001468378
20	0xb8bc31b0	-8.9737936e-05
21	0xb8f2eb31	-0.00011583267
22	0x39b2707b	0.0003403461
23	0xb8f4cccd	-0.00011672974
24	0xb9cee030	-0.00039458415
25	0x391a6732	0.00014725028
26	0x00000000	0.0
27	0xba11e0f5	-0.0005564832
28	0x3a29fd34	0.00064845686
29	0x39cab47f	0.00038662922
30	0xb889d4b7	-6.57229e-05
31	0x38c37d0d	9.321617e-05
32	0x38c573a7	9.415234e-05
33	0xb985fd61	-0.0002555652
34	0x38da929d	0.00010422359
35	0x39b782fe	0.00035002077
36	0x39d00344	0.00039675285
37	0x00000000	0.0
38	0x3a3c61f0	0.00071862247
39	0xb9da8e69	-0.00041686304
40	0x3772066f	1.4425822e-05
41	0xb9e4c695	-0.00043635504
42	0x35d04eb2	1.5520111e-06
43	0xb88455f3	-6.31026e-05
44	0x3a23a5ee	0.0006242682
45	0xb9e7f8f6	-0.00044245244
46	0xb9803715	-0.00024455102
47	0x39906f2e	0.00027548656
48	0x00000000	0.0
49	0x39b51ade	0.00034543028
50	0x3a443bfc	0.0007485745
51	0x399ba168	0.0002968416
52	0x39430c25	0.00018601173
53	0xb9793dcd	-0.00023769513
54	0xb9ca67ee	-0.00038605876
55	0x35c92946	1.4987679e-06
56	0x3650bcee	3.1104387e-06
57	0xb94f2026	-0.00019753035
58	0xb9395c68	-0.00017677399
59	0x00000000	0.0
60	0xb9b2b6ed	-0.00034087096
61	0xb7c950a3	-2.3998617e-05
62	0xb97000bc	-0.00022888457
63	0x394235a0	0.00018521259
64	0x38468d20	4.733831e-05
65	0x38a12313	7.683611e-05
66	0xb8ce5b1a	-9.8398144e-05
67	0x39645555	0.00021775563
68	0x38879242	6.464544e-05
69	0xb9368bd2	-0.0001740896
70	0x00000000	0.0
71	0x39e05545	0.0004278814
72	0xba0787bd	-0.0005170068
73	0x3a2129c8	0.00061478885
74	0xba20d230	-0.0006134836
75	0x38b7550e	8.741963e-05
76	0x38c3c129	9.3343035e-05
77	0xb9587ca8	-0.00020645803
78	0xba11a09f	-0.00055552454
79	0x38829bc1	6.2278945e-05
80	0xb9b20761	-0.00033956303
81	0x00000000	0.0
82	0xb9ba716e	-0.00035561196
83	0x38ef2a5b	0.000114042974
84	0xb913492b	-0.0001404627
85	0x3a163f68	0.0005731494
86	0xb9fa9ef4	-0.00047802145
87	0xba0e6a68	-0.0005432726
88	0x38d3c55e	0.000100980265
89	0x3920f854	0.00015351298
90	0x39a62c60	0.0003169505
91	0x38fd0478	0.000120648125
92	0x00000000	0.0
93	0x39ab2b57	0.00032647952
94	0xba036c63	-0.00050134043
95	0x390cd94e	0.00013432393
96	0xb9f71516	-0.00047127221
97	0x390dab24	0.00013510563
98	0x3918743b	0.00014539149
99	0xb862e8a1	-5.409925e-05
100	0x3847db15	4.7649333e-05
101	0x38fa93b1	0.000119484386
102	0x390c7c51	0.00013397752
103	0x00000000	0.0
104	0x3997c01c	0.00028944097
105	0xb982a8d2	-0.00024921313
106	0xb808ab83	-3.258466e-05
107	0xb9767a62	-0.0002350598
108	0x37d7f237	2.5742787e-05
109	0x37f712c5	2.9453435e-05
110	0x394b5c0f	0.00019393883
111	0x3934947a	0.0001722145
112	0xb807ed75	-3.2407657e-05
113	0x3933c6ea	0.00017144872
114	0x00000000	0.0
115	0x390da740	0.00013509113
116	0x3980b78c	0.00024550816
117	0x3a45de16	0.0007548047
118	0xba0e7912	-0.0005434911
119	0x386cf772	5.6497236e-05
120	0x3739a83b	1.10660285e-05
121	0x3a269b4c	0.00063555385
122	0xb8fe61bb	-0.000121298675
123	0x384568f0	4.706619e-05
124	0x3a03aa9d	0.0005022677
125	0x00000000	0.0
126	0x3a026188	0.000497364
127	0x3a664824	0.00087845535
128	0x39aa8c0c	0.0003252927
129	0xb9823e3b	-0.00024841898
130	0xb8740abb	-5.8184127e-05
131	0xb8f5d800	-0.000117227435
132	0x39afb6c0	0.0003351476
133	0xba7d9616	-0.00096735486
134	0xb9102c02	-0.00013749304
135	0xb84506de	-4.6974856e-05
136	0x00000000	0.0
137	0xba19d398	-0.0005868017
138	0x3a77652f	0.000943738
139	0x38ba225a	8.8755696e-05
140	0x39bbc5be	0.0003581475
141	0xb9ea1a57	-0.00044651583
142	0xba20eac9	-0.00061385013
143	0xb90834a0	-0.00012989575
144	0xb9a5b850	-0.00031608576
145	0xb8b6fc86	-8.7254724e-05
146	0xb972e1e2	-0.00023163066
147	0x00000000	0.0
148	0xb900c589	-0.00012280619
149	0xb8f9e55f	-0.00011915969
150	0xb91f0834	-0.00015166478
151	0x39765e5a	0.00023495537
152	0xb92d3c99	-0.0001652114
153	0xb932e4a4	-0.00017060578
154	0x36e1d405	6.730205e-06
155	0xb9b113fd	-0.00033774963
156	0x39460a7d	0.00018886659
157	0xb90a9811	-0.00013217355
158	0x00000000	0.0
159	0xb90ef052	-0.00013631702
160	0xb89b4101	-7.403084e-05
161	0xb980b80f	-0.00024551197
162	0x399acf20	0.0002952749
163	0xb97bec0d	-0.00024025161
164	0xb9909f53	-0.00027584526
165	0x39d99365	0.00041499283
166	0xb945f390	-0.00018878118
167	0xb896726e	-7.1738716e-05
168	0x396760fa	0.00022066003
169	0x00000000	0.0
170	0x39014036	0.00012326319
171	0x39a725e5	0.00031880956
172	0x37bf106a	2.2776618e-05
173	0xb90dad8b	-0.00013511458
174	0xb8e9043a	-0.00011111093
175	0xb94a0fdd	-0.0001927013
176	0x38d538cb	0.0001016721
177	0x390f0898	0.00013640744
178	0xb902c5ed	-0.00012471499
179	0x38f606fb	0.00011731494
180	0x00000000	0.0
181	0xb93a745c	-0.0001778169
182	0x39fb8acf	0.0004797787
183	0x3a092f8e	0.00052332215
184	0xb914d414	-0.00014193385
185	0xb8f7f87b	-0.00011824161
186	0xb95b5b91	-0.00020919579
187	0x38a984bf	8.083274e-05
188	0x38c94494	9.5972006e-05
189	0x38c0a1b0	9.18539e-05
190	0x38a5b5b9	7.9016616e-05
191	0x00000000	0.0
192	0xb724087f	-9.77714e-06
193	0xb8f8853a	-0.00011850377
194	0xb7cd4285	-2.446888e-05
195	0xb92ce94a	-0.00016490105
196	0x38787597	5.923732e-05
197	0x3874b452	5.834207e-05
198	0xb8c508a4	-9.3953015e-05
199	0xb8bd418a	-9.02443e-05
200	0x396e980f	0.00022754095
201	0x389d44bf	7.499148e-05
202	0x00000000	0.0
203	0x3a05b19a	0.0005100012
204	0x37ca6a07	2.412965e-05
205	0x3a0a8c45	0.0005285184
206	0xb9d9ad49	-0.00041518573
207	0xb7816f63	-1.5429867e-05
208	0xb8a026f6	-7.6366516e-05
209	0xb917f0cf	-0.0001449019
210	0xb7bf6ed9	-2.2820592e-05
211	0xb9107943	-0.00013778084
212	0xb8d92107	-0.00010353518
213	0x00000000	0.0
214	0xb903ac2a	-0.0001255727
215	0x390dd676	0.00013526701
216	0x39a698bb	0.0003177578
217	0x391cb651	0.00014945237
218	0x3708c00a	8.150944e-06
219	0x369ac5bb	4.6125765e-06
220	0xb76fbbbd	-1.4289221e-05
221	0xb9736cc4	-0.00023214804
222	0x389c6bce	7.45874e-05
223	0xb95b3777	-0.0002090613
224	0x00000000	0.0
225	0xb9bac671	-0.00035624535
226	0x38264d6f	3.96496e-05
227	0xb95b8444	-0.0002093474
228	0x39b84733	0.00035148262
229	0xb94f25c6	-0.0001975513
230	0xb978eda5	-0.00023739653
231	0x39d04708	0.00039725774
232	0xb9a5c159	-0.00031615308
233	0x38d70c45	0.00010254284
234	0x39258866	0.00015786439
235	0x00000000	0.0
236	0x393f16db	0.00018223694
237	0x3a39583d	0.00070703385
238	0x38e7ef48	0.00011059508
239	0x38a25655	7.7408426e-05
240	0xb9943bf8	-0.0002827344
241	0xb9c879ad	-0.00038237628
242	0x39082ae1	0.00012985944
243	0xb98c6285	-0.00026776284
244	0xb6f8947a	-7.408261e-06
245	0xb8a1acbb	-7.709252e-05
246	0x00000000	0.0
247	0xb9a11367	-0.0003072277
248	0x38752f06	5.8456346e-05
249	0xb98133ce	-0.00024643395
250	0x3920b4d5	0.00015326154
251	0xb8c04e1d	-9.169823e-05
252	0xb8af1bb8	-8.349813e-05
253	0x3954a681	0.00020279923
254	0xb95ad2b3	-0.00020868592
255	0x376433ab	1.3601889e-05

exp_avg_sq f4 [128, 11]
0	0x35b3eddb	1.3405764e-06
1	0x359fe0e7	1.1911878e-06
2	0x35a44c5f	1.2241179e-06
3	0x35c0614a	1.433343e-06
4	0x00000000	0.0
5	0x359434fc	1.104228e-06
6	0x35e6b005	1.7187564e-06
7	0x350dd589	5.283733e-07
8	0x358365b0	9.789856e-07
9	0x354dacd9	7.661998e-07
10	0x35948ae7	1.1067285e-06
11	0x340c87fe	1.308799e-07
12	0x34f22f49	4.5110417e-07
13	0x33e0c8aa	1.04673134e-07
14	0x3410259d	1.3424729e-07
15	0x00000000	0.0
16	0x3421b21c	1.5059089e-07
17	0x34012a9b	1.2029561e-07
18	0x33406d34	4.4802803e-08
19	0x33f57471	1.1429882e-07
20	0x34198a12	1.4299465e-07
21	0x344b6d33	1.8945575e-07
22	0x3532ca25	6.6604326e-07
23	0x36077049	2.0181926e-06
24	0x3569e422	8.713124e-07
25	0x3544d5db	7.332689e-07
26	0x00000000	0.0
27	0x355f4f60	8.318948e-07
28	0x3563fb5d	8.492987e-07
29	0x34702371	2.2364635e-07
30	0x352722a0	6.2262734e-07
31	0x355f4a17	8.318179e-07
32	0x3586bc7f	1.0038638e-06
33	0x3598f97a	1.139749e-06
34	0x3571ca99	9.0074315e-07
35	0x35c05ba1	1.4331782e-06
36	0x35918f29	1.0845007e-06
37	0x00000000	0.0
38	0x3573d84d	9.0839313e-07
39	0x35c5d458	1.4739444e-06
40	0x33edf335	1.10804116e-07
41	0x35a47173	1.225197e-06
42	0x359da8f0	1.1746579e-06
43	0x35c18e4b	1.4421033e-06
44	0x368d735b	4.2155566e-06
45	0x36af9ee7	5.233905e-06
46	0x365f187d	3.3243844e-06
47	0x364edf2c	3.0826295e-06
48	0x00000000	0.0
49	0x366afb20	3.5014891e-06
50	0x366f4260	3.565241e-06
51	0x35311bb6	6.5977963e-07
52	0x367a37e1	3.7285429e-06
53	0x36815224	3.854062e-06
54	0x36a201a2	4.8281663e-06
55	0x3496346c	2.797782e-07
56	0x348f57c5	2.6699686e-07
57	0x349b6068	2.8941145e-07
58	0x34ad973d	3.23338e-07
59	0x00000000	0.0
60	0x348fc8c8	2.6781913e-07
61	0x34bc2e27	3.505131e-07
62	0x33fde97a	1.18237e-07
63	0x346e6cb2	2.220502e-07
64	0x34b4c551	3.367118e-07
65	0x34d2a449	3.923508e-07
66	0x3522cd3d	6.0648364e-07
67	0x34df0f56	4.1548145e-07
68	0x350a0bb0	5.1426014e-07
69	0x3520b3d4	5.986633e-07
70	0x00000000	0.0
71	0x353f4fea	7.1269335e-07
72	0x3520d19a	5.9909655e-07
73	0x34b07797	3.2869568e-07
74	0x34f7cae5	4.615496e-07
75	0x34a92ab0	3.1509762e-07
76	0x34f3ac19	4.5387495e-07
77	0x357396e9	9.074416e-07
78	0x365b3061	3.2661703e-06
79	0x353bd96f	6.9979336e-07
80	0x355790aa	8.0304255e-07
81	0x00000000	0.0
82	0x3559e078	8.1165444e-07
83	0x354a9009	7.546046e-07
84	0x34d7893c	4.0146722e-07
85	0x355b6fde	8.1746646e-07
86	0x355def60	8.267725e-07
87	0x359e4a96	1.1793625e-06
88	0x350bf0f5	5.2132174e-07
89	0x34b1699c	3.304566e-07
90	0x34f553c1	4.5695745e-07
91	0x3502d370	4.8736456e-07
92	0x00000000	0.0
93	0x3515e97e	5.58466e-07
94	0x35213414	6.005296e-07
95	0x33bd23ae	8.8074884e-08
96	0x34e63684	4.2880504e-07
97	0x34e15e76	4.1978245e-07
98	0x34f536f9	4.5674804e-07
99	0x350ddfd1	5.285229e-07
100	0x36373cc5	2.7304498e-06
101	0x34e3f46a	4.245988e-07
102	0x34e85c46	4.3280505e-07
103	0x00000000	0.0
104	0x34db3ef8	4.0837745e-07
105	0x3501ce64	4.835658e-07
106	0x3473a330	2.2690506e-07
107	0x34f8b14e	4.6322606e-07
108	0x3520f733	5.9964367e-07
109	0x356507ec	8.5320676e-07
110	0x35b11f22	1.3196588e-06
111	0x360cfe8e	2.1009796e-06
112	0x35c246a8	1.447469e-06
113	0x35c364ed	1.4558005e-06
114	0x00000000	0.0
115	0x35c03060	1.4319194e-06
116	0x35c5b73d	1.4730973e-06
117	0x35a40c26	1.2222488e-06
118	0x35bae1d5	1.3923806e-06
119	0x35c1c2d4	1.4436323e-06
120	0x35f11b01	1.7963758e-06
121	0x362be8ba	2.561645e-06
122	0x35cf65e3	1.5452355e-06
123	0x360b7303	2.077956e-06
124	0x36205151	2.388919e-06
125	0x00000000	0.0
126	0x35fc78ad	1.8810584e-06
127	0x362d7683	2.5847992e-06
128	0x3493d4a0	2.753559e-07
129	0x360a22d9	2.0583886e-06
130	0x361e5601	2.3593896e-06
131	0x36429a76	2.899816e-06
132	0x35f71718	1.8409655e-06
133	0x36b185e5	5.2905984e-06
134	0x35e9990b	1.7404394e-06
135	0x36012186	1.9242011e-06
136	0x00000000	0.0
137	0x35fe3802	1.8940775e-06
138	0x36160508	2.235467e-06
139	0x351a2437	5.742217e-07
140	0x35db2474	1.6327381e-06
141	0x35eec953	1.7790975e-06
142	0x36248762	2.4516708e-06
143	0x353008c2	6.5577854e-07
144	0x365383c3	3.1518146e-06
145	0x352ceb35	6.4417264e-07
146	0x353a854f	6.948439e-07
147	0x00000000	0.0
148	0x35175937	5.638171e-07
149	0x3548f665	7.486436e-07
150	0x34a873bd	3.137665e-07
151	0x3518a1e8	5.6860017e-07
152	0x3549fe83	7.52487e-07
153	0x35931dbd	1.0961008e-06
154	0x3556b7d7	7.9988735e-07
155	0x362c7f86	2.5704226e-06
156	0x353fa9e4	7.140027e-07
157	0x3559cdaa	8.113808e-07
158	0x00000000	0.0
159	0x3546bde5	7.403708e-07
160	0x355e01f4	8.2704287e-07
161	0x3495966f	2.7862868e-07
162	0x353a70ca	6.945453e-07
163	0x354ea91c	7.6987067e-07
164	0x3590bc27	1.0783596e-06
165	0x358bf6ed	1.0428172e-06
166	0x35e86739	1.7315389e-06
167	0x3572a589	9.039291e-07
168	0x3587863d	1.0097352e-06
169	0x00000000	0.0
170	0x352adac3	6.3648275e-07
171	0x35a03f76	1.1939399e-06
172	0x34324a7b	1.6604638e-07
173	0x354195a6	7.211587e-07
174	0x35a069ba	1.19517e-06
175	0x35b84723	1.3729772e-06
176	0x35eed244	1.7793577e-06
177	0x36179749	2.2588813e-06
178	0x35f80890	1.8479932e-06
179	0x360f4bc7	2.1352769e-06
180	0x00000000	0.0
181	0x35b18983	1.3227549e-06
182	0x362f7b8d	2.6148948e-06
183	0x351af4fb	5.7725964e-07
184	0x35a8a5cd	1.256523e-06
185	0x36066431	2.0025875e-06
186	0x361bc5da	2.3211965e-06
187	0x33d2d272	9.817167e-08
188	0x34b7974a	3.4196484e-07
189	0x33ccfc39	9.545369e-08
190	0x33f0ea8b	1.1218534e-07
191	0x00000000	0.0
192	0x33d11ee0	9.737937e-08
193	0x340c67d0	1.3076283e-07
194	0x329d700d	1.832816e-08
195	0x33b5aac3	8.459531e-08
196	0x33def73d	1.0382653e-07
197	0x3419e90d	1.4334019e-07
198	0x35d48c55	1.5836073e-06
199	0x3574e88c	9.1235484e-07
200	0x35b9b88e	1.3837287e-06
201	0x35c0b3d3	1.435745e-06
202	0x00000000	0.0
203	0x35e6c9ea	1.71951e-06
204	0x35b71a6a	1.364225e-06
205	0x3496c7c0	2.8085014e-07
206	0x35e7f265	1.7281387e-06
207	0x35cd4c58	1.5295909e-06
208	0x35e7cd60	1.7270613e-06
209	0x34bc735e	3.510167e-07
210	0x358818c2	1.0139995e-06
211	0x348eacf4	2.65754e-07
212	0x34dadcca	4.076631e-07
213	0x00000000	0.0
214	0x34c38f60	3.64259e-07
215	0x34b1e303	3.3133992e-07
216	0x34a3c7f1	3.0506592e-07
217	0x34a3369b	3.0400847e-07
218	0x34b97992	3.454739e-07
219	0x34fb1d65	4.677378e-07
220	0x355d1d97	8.2371974e-07
221	0x35f64246	1.8347716e-06
222	0x351c6bfd	5.827167e-07
223	0x355a4122	8.130611e-07
224	0x00000000	0.0
225	0x3547cf88	7.4435275e-07
226	0x35411f13	7.194332e-07
227	0x34c3d416	3.6475893e-07
228	0x352e2341	6.487135e-07
229	0x351a5560	5.749371e-07
230	0x355c7519	8.2126786e-07
231	0x359283ee	1.0916244e-06
232	0x3502cbc7	4.872531e-07
233	0x3559f4fb	8.1195293e-07
234	0x3554115b	7.900141e-07
235	0x00000000	0.0
236	0x355a65a1	8.135922e-07
237	0x3564b1cc	8.519535e-07
238	0x341aed54	1.4428707e-07
239	0x357abf78	9.341088e-07
240	0x350764cb	5.043809e-07
241	0x354968aa	7.503064e-07
242	0x34e967a5	4.3475043e-07
243	0x35b17843	1.3222528e-06
244	0x34bef95d	3.5571694e-07
245	0x34de7892	4.143845e-07
246	0x00000000	0.0
247	0x34b84cb3	3.4328477e-07
248	0x34ed25af	4.4172108e-07
249	0x34353f83	1.6880044e-07
250	0x34bec965	3.5536792e-07
251	0x3500e926	4.802299e-07
252	0x352c3611	6.415367e-07
253	0x360acaa7	2.0681562e-06
254	0x359af61f	1.1545525e-06
255	0x35d566b9	1.5899633e-06

exp_avg f4 [128]
0	0xba61e7ed	-0.00086176285
1	0xb7f4f8c3	-2.9202905e-05
2	0xb920192e	-0.00015268169
3	0xba555101	-0.00081373757
4	0xba516e14	-0.000798912
5	0x3984b0d2	0.00025308743
6	0xb94565e5	-0.00018825343
7	0x3a1d9e6a	0.000601268
8	0xb984abe1	-0.00025305062
9	0xb89de1f7	-7.5284326e-05
10	0xba23b66f	-0.0006245141
11	0xb9ebe491	-0.00044992988
12	0xb9f9e206	-0.00047661382
13	0x39c5a01b	0.00037694056
14	0x39963784	0.00028651592
15	0xba0202b2	-0.0004959508
16	0xba3edafc	-0.0007280556
17	0xb9229520	-0.00015505077
18	0xba2d6d65	-0.00066157273
19	0xb8ad173b	-8.25361e-05
20	0x38e4e76f	0.00010914995
21	0xb982e3c1	-0.00024965222
22	0x39d3e659	0.00040416679
23	0xba154277	-0.0005693803
24	0xb9cdc3b6	-0.00039246463
25	0xba50bc64	-0.00079626427
26	0xbaaaedf2	-0.0013040884
27	0xba0d3146	-0.00053860655
28	0xba258ed9	-0.00063155364
29	0x39a3945f	0.00031200328
30	0xb9c6cd01	-0.00037918243
31	0xbaa2cf9f	-0.0012421495
32	0xb9dbc5fd	-0.00041918448
33	0xb8d5624a	-0.00010174939
34	0xba5cd440	-0.00084239617
35	0xb915dbb5	-0.00014291595
36	0x395b1459	0.00020893048
37	0xba232504	-0.00062234723
38	0xb980f5a0	-0.00024597067
39	0xb9828616	-0.00024895434
40	0xb9dbc232	-0.00041915622
41	0xb8205274	-3.8223763e-05
42	0x38508904	4.971867e-05
43	0xb97750f6	-0.00023585916
44	0xba839c1e	-0.0010041033
45	0x38d8072c	0.000103010185
46	0xba59355c	-0.0008285844
47	0xb9d1dae8	-0.00040026684
48	0x39573220	0.00020522671
49	0xb828f22b	-4.0279858e-05
50	0x38006e55	3.0620333e-05
51	0xb9f53c23	-0.00046774847
52	0xba2fe2ad	-0.00067094975
53	0xb92b51a0	-0.00016338238
54	0xb96b5b31	-0.00022445318
55	0x393c35a8	0.00017949066
56	0xb9a04cde	-0.0003057485
57	0xb9d1fe9e	-0.0004005329
58	0xb818503d	-3.631435e-05
59	0xba681e15	-0.000885458
60	0x39930dd2	0.00028048322
61	0xba45aad0	-0.00075404067
62	0x38137637	3.5157627e-05
63	0xb995b93d	-0.00028557508
64	0xb984e871	-0.00025350184
65	0xb91c31cf	-0.00014895874
66	0x393bc4c9	0.00017907018
67	0xb99b9807	-0.00029677173
68	0xb9694d51	-0.00022249414
69	0xb9a33636	-0.00031130173
70	0xbaa6d133	-0.0012727141
71	0x385211a8	5.0084345e-05
72	0x3a76876e	0.0009404336
73	0x38d93465	0.000103571256
74	0x3a31209d	0.0006756874
75	0xb9e0a5f2	-0.00042848248
76	0xba17eaca	-0.0005795179
77	0xba273966	-0.00063790975
78	0x390f9e5e	0.00013696539
79	0xb8cc1549	-9.731443e-05
80	0x3a01c60f	0.00049504725
81	0xba41636c	-0.0007377181
82	0xb974cd70	-0.00023346185
83	0xb8c7eb67	-9.5329066e-05
84	0xba4975f7	-0.00076851196
85	0x39f07cfc	0.00045869488
86	0xba63262e	-0.0008665052
87	0x39668f4e	0.00021987894
88	0x38a99467	8.08619e-05
89	0x39ddd31d	0.00042309696
90	0xb8e21c45	-0.000107817854
91	0xba37d8a2	-0.0007013177
92	0x39e7d6d4	0.00044219813
93	0xb8ea1ff7	-0.000111639434
94	0xba18147c	-0.0005801392
95	0xb9a7f5e8	-0.00032035937
96	0xba49a5c2	-0.00076922413
97	0xb9611878	-0.00021466787
98	0xb934e334	-0.00017250777
99	0x396bf6b1	0.00022503246
100	0xb9e26dde	-0.00043187937
101	0xba8c5b8b	-0.0010708434
102	0x39c76b25	0.00038036067
103	0xba3db9cb	-0.0007237463
104	0xb9012336	-0.00012315516
105	0xb8d26b1e	-0.000100335325
106	0x39c31c7a	0.00037214515
107	0x3937dcd5	0.00017534506
108	0xba756658	-0.00093612587
109	0xb7267d29	-9.923512e-06
110	0x3711212a	8.650395e-06
111	0xba1424e9	-0.0005651252
112	0xb75ac517	-1.3039701e-05
113	0xb905ef6b	-0.00012773059
114	0xba2024ae	-0.00061089813
115	0x39dd641e	0.00042226998
116	0xb9218f89	-0.00015407628
117	0x399db793	0.00030082147
118	0xba785e88	-0.00094745355
119	0x3912b27b	0.00013990134
120	0xb8ab5611	-8.1699465e-05
121	0xb9291cea	-0.00016127867
122	0xb9ae0917	-0.0003319464
123	0xba673f90	-0.0008821422
124	0x39a581d8	0.00031567994
125	0xb94c81b3	-0.00019503273
126	0xba67ce6b	-0.00088427094
127	0xba2c8d67	-0.000658235

exp_avg_sq f4 [128]
0	0x35c172ea	1.4413065e-06
1	0x33ffb39d	1.1907034e-07
2	0x35468ba1	7.3963935e-07
3	0x35a66f17	1.2400295e-06
4	0x3686c119	4.0159907e-06
5	0x3498067c	2.8316924e-07
6	0x350c91d6	5.2366283e-07
7	0x3551cb39	7.8154295e-07
8	0x34fa7902	4.6654174e-07
9	0x350244a7	4.8528676e-07
10	0x35cfaab3	1.5472382e-06
11	0x36291bed	2.5199217e-06
12	0x35f706fa	1.8404965e-06
13	0x353e0c5e	7.079851e-07
14	0x3558a273	8.0702665e-07
15	0x358f28d9	1.0666218e-06
16	0x3605dc10	1.9946638e-06
17	0x33dac3c8	1.01870285e-07
18	0x35c0ec73	1.437393e-06
19	0x34aad2f6	3.1818462e-07
20	0x353da163	7.0642835e-07
21	0x3579b485	9.302242e-07
22	0x34d1891e	3.902905e-07
23	0x3603204f	1.9539327e-06
24	0x35900e27	1.0732955e-06
25	0x35881568	1.013902e-06
26	0x365114cb	3.115553e-06
27	0x35b0c3df	1.3170028e-06
28	0x35813708	9.627265e-07
29	0x34e73b3c	4.3070202e-07
30	0x34baf87b	3.4825993e-07
31	0x37137978	8.790164e-06
32	0x35313956	6.6021073e-07
33	0x34ca4428	3.7675022e-07
34	0x3671b144	3.601498e-06
35	0x34dabea5	4.0744376e-07
36	0x34f9fb6d	4.65628e-07
37	0x3598b5c6	1.1377786e-06
38	0x357fb935	9.5264414e-07
39	0x354c3b5a	7.608229e-07
40	0x36726a4e	3.6122688e-06
41	0x34145d39	1.3817488e-07
42	0x34f73ced	4.6051665e-07
43	0x35d88e79	1.6134719e-06
44	0x3696e182	4.496601e-06
45	0x3409a3bf	1.281869e-07
46	0x368c811b	4.187355e-06
47	0x34bacb98	3.4793334e-07
48	0x3596aeda	1.1226759e-06
49	0x33e26a82	1.0543319e-07
50	0x35165b2f	5.6012044e-07
51	0x35f3a62e	1.8153276e-06
52	0x357de9fd	9.459034e-07
53	0x34aa50fb	3.172389e-07
54	0x3439e708	1.7313516e-07
55	0x349c829a	2.915229e-07
56	0x34a507cc	3.0739318e-07
57	0x356cf60d	8.82749e-07
58	0x35163b94	5.596605e-07
59	0x3690c273	4.3141713e-06
60	0x36372274	2.728918e-06
61	0x35fbe973	1.87689e-06
62	0x3577300c	9.208459e-07
63	0x344c7b66	1.9043873e-07
64	0x3660c3c4	3.3492552e-06
65	0x34440e6c	1.8259169e-07
66	0x35e287e8	1.6877866e-06
67	0x362e9242	2.6013154e-06
68	0x364c6e41	3.0462545e-06
69	0x3641ce4a	2.8879317e-06
70	0x36aa0d8b	5.0679714e-06
71	0x341d7d4d	1.4667349e-07
72	0x3665d235	3.4246016e-06
73	0x3567fd43	8.642275e-07
74	0x35f297ab	1.8074546e-06
75	0x34bbdf49	3.4993926e-07
76	0x353413f1	6.7084244e-07
77	0x35b575c2	1.3519823e-06
78	0x34d693a3	3.9968026e-07
79	0x35714efb	8.989443e-07
80	0x3587a62a	1.0106644e-06
81	0x35d2361e	1.5661969e-06
82	0x3481aa1b	2.415189e-07
83	0x34c877b4	3.7339998e-07
84	0x3628cb1a	2.5152171e-06
85	0x358a895c	1.0321778e-06
86	0x3635e4c5	2.7104263e-06
87	0x358bc392	1.0413225e-06
88	0x34b07172	3.2865097e-07
89	0x35e35364	1.6937088e-06
90	0x349dd7e8	2.940062e-07
91	0x35f2a00b	1.8076984e-06
92	0x34f16123	4.4960424e-07
93	0x362bd6e9	2.560608e-06
94	0x35f77478	1.8436831e-06
95	0x34c5f60d	3.6873135e-07
96	0x35e0a521	1.6737359e-06
97	0x34db449d	4.0841852e-07
98	0x3648b2a3	2.9906303e-06
99	0x348ee8b2	2.661887e-07
100	0x35c77b18	1.486248e-06
101	0x363de813	2.829828e-06
102	0x34cfa940	3.86799e-07
103	0x3684f1e7	3.9620677e-06
104	0x34171d2d	1.4073585e-07
105	0x34433e75	1.8183512e-07
106	0x35966d5a	1.1207696e-06
107	0x35f8b506	1.8530125e-06
108	0x36bf170d	5.694927e-06
109	0x3557267f	8.014976e-07
110	0x3533af74	6.6938014e-07
111	0x35976e96	1.1282561e-06
112	0x3427d0b3	1.5629011e-07
113	0x358f637a	1.0683282e-06
114	0x363e3116	2.8340778e-06
115	0x34fa602d	4.6636106e-07
116	0x35068248	5.0108474e-07
117	0x34c4038c	3.6510426e-07
118	0x365b264a	3.265583e-06
119	0x349ced3d	2.9229878e-07
120	0x34c7c049	3.7206544e-07
121	0x3495e320	2.7918668e-07
122	0x35b477f3	1.3445955e-06
123	0x369e1ded	4.7122508e-06
124	0x34f44969	4.5501955e-07
125	0x345de67a	2.0666076e-07
126	0x36961782	4.473085e-06
127	0x35ee74af	1.7766341e-06
