Assets/results/petfollower8/PetFollower.onnx (onnx, 76634 bytes, 7 tensors)

network_body._body_endoder.seq_layers.0.weight f4 [128, 9]
0.51213056 -0.21788983 -0.4065951 -0.28274414 -0.09902406 0.4025383 0.022266585 0.86875135
-0.37956917 -0.24908996 -0.26460534 -0.25998056 0.23774102 -0.20821446 0.3219718 -0.16550998
-0.05532845 0.033088244 0.33864865 -0.42677933 0.4633661 -0.6686896 0.31432876 0.06886806
0.6525493 -0.112790525 0.6175234 0.26889706 0.55525696 0.32980472 0.14522943 -0.50551903
-0.3982882 -0.25035936 -0.3212484 -0.24010417 0.12054093 0.23272346 0.54015577 0.9726462
-0.19280915 -0.3314886 -0.31060204 -0.27771267 -0.15746607 -0.014487889 -0.04898098 0.3847009
-0.277331 -0.21070293 0.13815314 -0.0052501257 0.39368454 0.4215785 0.46125033 0.09734047
-0.2339542 0.09014417 -0.2668283 -0.1836783 0.3536386 0.17155536 -0.2960433 -0.23755756
0.49490708 0.031270143 -0.016122017 0.6007773 -0.06381638 0.4790223 -0.14005008 0.34408566
-0.06438438 0.1308717 0.20080341 -0.043557815 -0.63364387 0.058012128 0.018045183 -0.06563401
-0.5797368 0.37378803 -0.074835315 -0.043833565 -0.7829357 0.038962096 -0.40842113 -0.10376173
-0.16337068 -0.6428749 0.17335258 0.15897688 -0.1790494 0.0758672 0.09157425 -0.080486655
-0.7037081 -0.24938314 -0.31829816 -0.43735787 -0.015595288 -0.002305413 -0.17731348 -0.28493023
-0.36883968 0.8389054 -0.27292266 -0.08238635 -0.56928927 -0.48641303 0.13760091 0.32469806
-0.059351396 0.19930041 0.035210293 0.2522124 -0.4703762 0.20418097 -0.25605932 0.29858398
0.022433802 -0.1866286 -0.26132953 0.55279785 -0.30561554 0.14263621 0.66005296 -0.012890457
-0.028587008 -0.2332169 -0.4438793 -0.047052424 -0.56438535 -0.20770417 -0.15755138 -0.26559487
0.09101784 -0.07102168 -0.22872612 -0.4246745 0.011918822 0.20556918 -0.06519815 0.21359544
-0.15241349 0.37893423 0.26412052 0.56385356 -0.28518337 0.21438776 -0.16884373 0.19077429
-0.5043474 -0.09621561 -0.2322186 -0.04549081 -0.064792186 -0.0074962196 0.33698007 0.51859385
-0.2668264 -0.5747974 -0.17054261 -0.3432261 0.24205893 0.074259095 0.60404176 -0.12006826
-0.38899222 -0.060393367 0.12982382 0.06855196 0.14079191 0.29519907 0.48837948 -0.0008130406
0.6120254 -0.16395643 -0.2619954 -0.03336582 -0.55855024 0.2084536 0.07177508 0.25289866
0.31870383 0.027199987 -0.1318326 0.4030581 -0.21488713 0.055367827 0.29525146 0.05228742
-0.43434298 0.06721507 0.13185233 -0.24330352 -0.24978678 -0.048083022 0.25735337 -0.36117762
0.4390522 0.24369931 -0.10213312 0.31822315 -0.11954403 -0.2982611 0.10713351 -0.32739428
0.5417165 0.36679718 0.36983094 -0.43322858 0.31127623 -0.59699523 -0.6567489 0.4057603
0.26812354 0.02278282 0.26269743 0.2953248 0.31766865 0.4316289 -0.19859229 0.07739846
0.29181832 -0.46874878 0.3376077 -0.1797067 0.51504916 -0.07868892 0.16957246 -0.19380602
0.59126407 0.6873357 -0.5455794 0.27656117 0.41988835 -0.111844584 0.08021359 -0.27441916
0.35755485 -0.009212866 0.032748975 -0.14608471 -0.26899654 0.039218236 -0.37677917 -0.38298127
-0.072054744 -0.5067854 0.21200328 0.2689862 0.24247403 0.052329198 0.36496517 -0.4167815
00000000: fd1a 033f 831e 5fbe 3c2d d0be d7c3 90be
00000010: 20cd cabd 8019 ce3e 6a68 b63c 7d66 5e3f
00000020: e456 c2be 7011 7fbe 5a7a 87be 2c1c 85be
00000030: 6272 733e 2c36 55be 7dd9 a43e 737b 29be
00000040: 16a0 62bd 8a87 073d 5b63 ad3e d282 dabe
00000050: 523e ed3e 3e2f 2bbf b3ef a03e b30a 8d3d
00000060: 790d 273f b8fe e6bd 0316 1e3f e0ac 893e
00000070: 5225 0e3f 2adc a83e 06b7 143e b269 01bf
00000080: 6eec cbbe 1a2f 80be ac7a a4be dedd 75be
00000090: 2ade f63d 0f4f 6e3e a647 0a3f 57ff 783f
000000a0: c36f 45be e0b8 a9be 3b07 9fbe 5b30 8ebe
000000b0: c93e 21be 9c5e 6dbc 48a0 48bd 84f7 c43e
000000c0: 54fe 8dbe 82c2 57be 0478 0d3e 3f09 acbb
000000d0: 0591 c93e 23d9 d73e 0129 ec3e 715a c73d
000000e0: b191 6fbe 829d b83d b89d 88be 2a16 3cbe
000000f0: 1e10 b53e 35ac 2f3e fd92 97be 4a42 73be
00000100: 7664 fd3e 1f15 003d 5212 84bc 8bcc 193f
00000110: 2ab2 82bd 6942 f53e 4a69 0fbe ff2b b03e
00000120: f5db 83bd 3b03 063e 699f 4d3e ae69 32bd
00000130: 7c36 22bf 209e 6d3d 7ed3 933c 206b 86bd
00000140: a269 14bf 2561 bf3e 4243 99bd d38a 33bd
00000150: 796e 48bf b896 1f3d 931c d1be 0881 d4bd
00000160: a54a 27be 7393 24bf 5783 313e d6ca 223e
00000170: ba58 37be 4360 9b3d 488b bb3d 30d6 a4bd
00000180: 3726 34bf 4b5e 7fbe faf7 a2be 5fed dfbe
00000190: 6183 7fbc 6916 17bb aa91 35be 60e2 91be
000001a0: 8ed8 bcbe 81c2 563f 85bc 8bbe 2dba a8bd
000001b0: f1bc 11bf 210b f9be 41e7 0c3e d33e a63e
000001c0: 731a 73bd 6815 4c3e ab38 103d fc21 813e
000001d0: 26d5 f0be d114 513e 351a 83be 00e0 983e
000001e0: 18c7 b73c 911b 3fbe fccc 85be 2984 0d3f
000001f0: a479 9cbe 3a0f 123e 3bf9 283f 7f32 53bc
00000200: 4d2f eabc 69d0 6ebe 2644 e3be 0bba 40bd
00000210: 8f7b 10bf 67b0 54be 2655 21be 0dfc 87be
00000220: 9067 ba3d d173 91bd 2e37 6abe f06e d9be
00000230: 2a47 433c ba80 523e 9c86 85bd c3b8 5a3e
00000240: 4812 1cbe ab03 c23e ce3a 873e b558 103f
00000250: 8e03 92be 7788 5b3e 5fe5 2cbe 565a 433e
00000260: e91c 01bf b10c c5bd b6ca 6dbe 9254 3abd
00000270: c4b1 84bd d9a2 f5bb a788 ac3e 91c2 043f
00000280: 789d 88be ec25 13bf b9a2 2ebe 55bb afbe
00000290: 4cde 773e 2715 983d 7ba2 1a3f 59e6 f5bd
000002a0: fd29 c7be 095f 77bd 89f0 043e f864 8c3d
000002b0: c12b 103e 5524 973e e00c fa3e 3b22 55ba
000002c0: b2ad 1c3f 32e4 27be 4324 86be 99aa 08bd
000002d0: 26fd 0ebf dc74 553e d0fe 923d ef7b 813e
000002e0: 262d a33e 82d2 de3c 20ff 06be a25d ce3e
000002f0: 5f0b 5cbe 60c9 623d 332b 973e 552b 563d
00000300: 3462 debe 0ea8 893d 4c04 073e 8f24 79be
00000310: 1bc8 7fbe b4f2 44bd d2c3 833e 46ec b8be
00000320: 73cb e03e 508c 793e 2b2b d1bd 25ee a23e
00000330: 80d3 f4bd aeb5 98be d068 db3d 39a0 a7be
00000340: efad 0a3f d7cc bb3e 7b5a bd3e 23d0 ddbe
00000350: 995f 9f3e aed4 18bf b220 28bf d0bf cf3e
00000360: 7d47 893e 09a3 ba3c 4780 863e d034 973e
00000370: 77a5 a23e 77fe dc3e c75b 4bbe 1583 9e3d
00000380: 3669 953e d7ff efbe ebda ac3e 0805 38be
00000390: 43da 033f a827 a1bd 67a4 2d3e 1675 46be
000003a0: 155d 173f 3cf5 2f3f 17ab 0bbf 6d99 8d3e
000003b0: 9bfb d63e c60e e5bd 0647 a43d ab80 8cbe
000003c0: 6e11 b73e 90f1 16bc ca23 063d 3b97 15be
000003d0: eab9 89be 4da3 203d 33e9 c0be 1f16 c4be
000003e0: 7091 93bd b0bc 01bf 6317 593e 8fb8 893e
000003f0: 1d4b 783e 2457 563d b7dc ba3e 6364 d5be

network_body._body_endoder.seq_layers.0.bias f4 [128]
0.046725996 -0.040078837 0.007004652 0.05286014 -0.0213654 -0.017961474 -0.044285886 -0.02433563
-0.00032281794 0.022286812 -0.026223069 -0.0091795195 -0.014199427 0.021022456 -0.025025154 -0.02727177
-0.011011441 0.0047636325 -0.025356308 -0.021507131 -0.0012205777 0.035896327 -0.012134432 -0.019819386
0.00859876 0.02741047 -0.041876018 -0.05104395 -0.017763425 0.0032483698 -0.02952186 0.012939459
-0.0041155624 0.021754794 0.02291383 0.018624792 0.012751017 0.008065217 0.025978949 -0.0022776027
-0.028567955 -0.005028255 0.0390623 0.0082586985 -0.003971212 0.015231927 -0.010297503 0.00033802184
-0.02397343 -0.03790177 0.008186159 -0.0066136965 -0.028678512 0.0042842207 -0.006248624 0.0062115155
-0.027743468 -0.05762444 0.00108914 -0.053694837 0.0042081038 -0.04039929 0.022824004 -0.05317056
-0.030592436 -0.041628778 0.019122722 -0.10005655 -0.059733342 -0.048929166 -0.013366613 -0.031407777
-0.02024383 -0.012760328 0.014192494 -0.037073355 -0.051349398 -0.04341813 -0.031978633 -0.057075307
-0.053610686 0.008822955 -0.07057638 0.0111695845 0.041288573 -0.011390862 -0.0891715 -0.02571807
-0.00732042 -0.012986996 0.01431235 -0.00910051 0.0030635113 -0.027823307 0.001819027 0.0042047915
0.024307255 0.029932665 0.02169875 -0.003118747 -0.06351406 0.00722244 0.024425596 -0.015976166
-0.06652076 -0.021402285 -0.016120996 -0.04738692 0.009182941 -0.06492013 -0.046277322 0.012183974
-0.0059022177 -0.027657134 0.038569044 0.0056891567 -0.06902261 -0.07353775 -0.0043375236 0.026530255
-0.065020606 -0.045148473 0.018021729 -0.04032289 -0.08199872 -0.036571737 -0.0203434 -0.033850055
00000000: c263 3f3d b529 24bd 4887 e53b e083 583d
00000010: 7e06 afbc f123 93bc 1e65 35bd 845b c7bc
00000020: e43f a9b9 d592 b63c c3d1 d6bc b265 16bc
00000030: b7a4 68bc 4937 ac3c 8d01 cdbc 0c69 dfbc
00000040: 5569 34bc 3f18 9c3b 08b8 cfbc b92f b0bc
00000050: cbfb 9fba 0708 133d 7fcf 46bc 445c a2bc
00000060: d0e1 0c3c ec8b e03c 3086 2bbd 7613 51bd
00000070: 9a84 91bc 9ae2 543b d4d7 f1bc 0600 543c
00000080: d7db 86bb 1c37 b23c c9b5 bb3c 0593 983c
00000090: a4e9 503c f923 043c ced1 d43c d543 15bb
000000a0: 5807 eabc 0fc4 a4bb caff 1f3d 7e4f 073c
000000b0: f120 82bb 558f 793c dcb6 28bc 8638 b139
000000c0: ed63 c4bc e33e 1bbd 3d1f 063c b5b7 d8bb
000000d0: 33ef eabc a662 8c3b 42c1 ccbb f889 cb3b
000000e0: 4546 e3bc 9b07 6cbd 79c1 8e3a 1eef 5bbd
000000f0: 22e4 893b ba79 25bd 68f9 ba3c 60c9 59bd
00000100: fd9c fabc f082 2abd 41a7 9c3c 73ea ccbd
00000110: f3aa 74bd f369 48bd a3ff 5abc 71a5 00bd
00000120: 63d6 a5bc b210 51bc a287 683c 3bda 17bd
00000130: bf53 52bd 36d7 31bd 07fc 02bd ccc7 69bd
00000140: e196 5bbd 288e 103c 598a 90bd a200 373c
00000150: 351e 293d bda0 3abc 8c9f b6bd b4ae d2bc
00000160: 22e0 efbb 69c7 54bc 597e 6a3c 4e1a 15bc
00000170: 31c5 483b b4ed e3bc 6b6c ee3a 59c8 893b
00000180: 0220 c73c 5935 f53c 94c1 b13c e463 4cbb
00000190: a913 82bd 38aa ec3b 3018 c83c 73e0 82bc
000001a0: 093c 88bd d853 afbc 2e10 84bc c918 42bd
000001b0: 0c74 163c d8f4 84bd 4a8d 3dbd 4a9f 473c
000001c0: 6467 c1bb 3791 e2bc 93fa 1d3d 1b6c ba3b
000001d0: ba5b 8dbd f69a 96bd c921 8ebb fa55 d93c
000001e0: 8629 85bd 9bed 38bd 4ea2 933c 9d29 25bd
000001f0: f2ee a7bd 3fcc 15bd 34a7 a6bc 5ba6 0abd

network_body._body_endoder.seq_layers.2.weight f4 [128, 128]
0.011284425 0.034754958 0.117647246 0.07617321 0.036700714 -0.025968587 0.022929775 0.14622004
-0.0644153 0.0023528247 -0.13115157 0.08274213 0.102482855 0.23439214 0.14407867 -0.120194174
-0.0021663867 0.12000219 0.0038930145 -0.06566276 -0.07722305 -0.06130622 0.11734229 -0.049391706
0.23119478 0.12276441 0.08310629 -0.019587412 -0.06548421 0.014037482 0.025883285 0.10651167
-0.05187376 -0.02336072 0.08506546 0.0748843 0.040858194 -0.13573524 0.055827826 -0.09968818
-0.026601534 0.17742842 -0.0049816975 0.07635607 -0.022330979 -0.103481166 0.2080807 0.06266557
0.069174804 0.030439584 0.14392284 0.0015380629 0.15422997 0.008593305 0.027098052 -0.0035990379
-0.08894493 0.015020328 -0.020669691 -0.015224272 -0.012422327 0.0569892 -0.039169382 0.05936984
-0.030524109 -0.04892189 0.05520309 -0.024490109 -0.05352868 0.06946894 -0.085654035 0.034743793
-0.15242413 -0.09812986 -0.009326212 -0.10146972 0.11959893 0.1927589 0.016319104 -0.06146167
0.02361108 -0.022028977 -0.015465129 -0.06440532 0.0058973203 0.093699194 -0.06461872 0.030572554
0.1072982 0.05585591 0.03396573 0.09065267 0.11513499 -0.09461107 -0.024073025 -0.10040079
-0.08415821 -0.015575515 0.041693 0.03047478 -0.030731494 0.047964398 0.009427127 -0.100223035
-0.022940038 0.18737091 0.005340378 0.11995845 -0.04107317 -0.062629715 0.06340076 -0.0079787085
0.27274644 -0.10089194 -0.015235683 0.105552696 -0.114661805 -0.042995043 0.032372907 -0.0020686467
-0.0038971903 0.015336322 0.058039945 -0.07033073 -0.10730281 0.056695502 -0.0076062973 0.026296457
0.053840738 -0.07588634 0.0012464433 -0.0714068 -0.17969151 -0.07353204 -0.021552922 0.13880652
-0.09315765 0.052644346 -0.05469322 -0.06692306 -0.080237925 -0.06038199 -0.01751922 -0.027097095
-0.024874413 -0.03479438 0.009307649 -0.018175947 0.0023164838 -0.0133820195 0.051684327 0.14994013
0.14122523 0.06874493 -0.08855746 -0.036696963 -0.045986217 -0.08736967 -0.08502917 -0.11415749
0.0636499 -0.07399014 -0.029677156 -0.034634825 0.02433173 0.0018491987 -0.009267713 0.075868145
-0.18649742 0.06284417 -0.1393789 -0.08830344 0.061079495 0.038981978 -0.017105352 -0.020783344
-0.03188096 0.019486932 0.03859905 -0.09069993 -0.005858638 -0.18562615 -0.1329773 -0.093333505
0.06711418 0.017543484 0.015331005 0.051125836 0.052285604 -0.020946512 -0.10672032 0.110018186
-0.028582148 0.028177913 -0.089267805 -0.077092916 0.19715333 0.07390693 0.060176406 -0.0023296312
-0.1702755 0.121223025 -0.15916802 -0.0032774988 -0.0042931 -0.10783589 0.068709925 -0.03629041
-0.029868582 -0.1483255 0.07363859 -0.1258483 0.04687545 -0.049835198 0.21098001 -0.1512402
-0.11215619 -0.0735164 0.068965256 -0.053312566 -0.04195879 0.024399417 -0.0076034474 0.015680809
0.10414744 -0.090790644 -0.09067337 0.123042434 -0.059289448 -0.028173637 0.07350324 -0.025555877
0.037087936 0.026287364 -0.11244326 -0.025941512 0.030141747 0.099479675 -0.040920217 -0.005074129
0.043542575 0.001119693 -0.16591515 0.046547335 -0.07079322 -0.05857211 -0.004592595 -0.11491885
-0.15603141 -0.055886265 -0.051946875 0.14301775 -0.05940895 0.01054301 -0.008831763 -0.10935468
00000000: 4fe2 383c 375b 0e3d 0af1 f03d b300 9c3d
00000010: 7d53 163d 13bc d4bc 39d7 bb3c b5ba 153e
00000020: 2bec 83bd d931 1a3b 994c 06be b574 a93d
00000030: 88e2 d13d 7e04 703e 5c89 133e 5d28 f6bd
00000040: f0f9 0dbb b5c3 f53d f221 7f3b 327a 86bd
00000050: 1e27 9ebd 3b1c 7bbd 2851 f03d f54e 4abd
00000060: 53be 6c3e e86b fb3d a133 aa3d c875 a0bc
00000070: 961c 86bd 78fd 653c 2f09 d43c ca22 da3d
00000080: 9479 54bd fb5e bfbc cd36 ae3d f15c 993d
00000090: ec5a 273d 2efe 0abe b8ab 643d 5129 ccbd
000000a0: 76eb d9bc ccaf 353e 823d a3bb 9260 9c3d
000000b0: 75ef b6bc efed d3bd 1b13 553e ce56 803d
000000c0: 85ab 8d3d 6f5c f93c 8260 133e d498 c93a
000000d0: 76ee 1d3e efca 0c3c bcfc dd3c d6dd 6bbb
000000e0: c228 b6bd d217 763c 7c53 a9bc 3a6f 79bc
000000f0: 0487 4bbc 826d 693d 1370 20bd ca2d 733d
00000100: b20d fabc 5262 48bd a31c 623d 7b9f c8bc
00000110: e440 5bbd bb45 8e3d 626b afbd 824f 0e3d
00000120: 1215 1cbe 4ff8 c8bd f8cc 18bc 5bcf cfbd
00000130: 49f0 f43d 9762 453e a4af 853c 3bbf 7bbd
00000140: 066c c13c 1d76 b4bc 7461 7dbc f0e6 83bd
00000150: 4f3e c13b 5de5 bf3d d256 84bd 4b73 fa3c
00000160: 29bf db3d 2bc9 643d a61f 0b3d 1ba8 b93d
00000170: e5cb eb3d 73c3 c1bd cb34 c5bc ee9e cdbd
00000180: 245b acbd 7230 7fbc 47c6 2a3d 3fa6 f93c
00000190: 9dc0 fbbc 5176 443d 3d74 1a3c bc41 cdbd
000001a0: bfec bbbc 29de 3f3e 56fe ae3b c7ac f53d
000001b0: 573c 28bd 0244 80bd 42d8 813d 21b9 02bc
000001c0: 6ca5 8b3e 6fa0 cebd 169f 79bc 032c d83d
000001d0: cfd3 eabd 921b 30bd 7499 043d 2292 07bb
000001e0: 0168 7fbb 3245 7b3c 4bbb 6d3d 8f09 90bd
000001f0: 93c1 dbbd 8b39 683d 3f3e f9bb ab6b d73c
00000200: 1b88 5c3d 4c6a 9bbd b25f a33a ba3d 92bd
00000210: 0d01 38be f797 96bd c18f b0bc 4c23 0e3e
00000220: 70c9 bebd 99a1 573d ff05 60bd f50e 89bd
00000230: c853 a4bd 1b53 77bd 7884 8fbc bafa ddbc
00000240: 6dc5 cbbc 8d84 0ebd 1c7f 183c b9e5 94bc
00000250: 26d0 173b 4240 5bbc f2b2 533d e889 193e
00000260: 599d 103e 24ca 8c3d 9d5d b5bd 8e4f 16bd
00000270: 0b5c 3cbd dfee b2bd c623 aebd 67cb e9bd
00000280: e15a 823d 2488 97bd 821d f3bc 3fdd 0dbd
00000290: 5653 c73c d060 f23a 9bd7 17bc c260 9b3d
000002a0: 2ef9 3ebe 72b4 803d 58b9 0ebe 6fd8 b4bd
000002b0: 7e2e 7a3d 91ab 1f3d 8620 8cbc d541 aabc
000002c0: 9c95 02bd 0fa3 9f3c 0a1a 1e3d e3c0 b9bd
000002d0: d1f9 bfbb c814 3ebe 342b 08be a325 bfbd
000002e0: 2973 893d 5ab7 8f3c e52e 7b3c 5369 513d
000002f0: 6e29 563d 0598 abbc 2f90 dabd 3751 e13d
00000300: 1c25 eabc 5ed5 e63c 0ad2 b6bd e4e2 9dbd
00000310: 90e2 493e 845c 973d 897b 763d baac 18bb
00000320: b35c 2ebe c743 f83d f1fc 22be 4ecb 56bb
00000330: 22ad 8cbb 10d9 dcbd cab7 8c3d 41a5 14bd
00000340: f5ae f4bc a4e2 17be d4cf 963d 60de 00be
00000350: 7900 403d fe1f 4cbd 250b 583e b6de 1abe
00000360: 25b2 e5bd c48f 96bd a83d 8d3d 475e 5abd
00000370: fbdc 2bbd 49e1 c73c 5726 f9bb 0a75 803c
00000380: 414b d53d 72f0 b9bd f6b2 b9bd acfd fb3d
00000390: 7ed9 72bd 66cc e6bc de88 963d 8f5a d1bc
000003a0: 85e9 173d 9958 d73c a748 e6bd 4b83 d4bc
000003b0: d3eb f63c 00bc cb3d f59b 27bd e144 a6bb
000003c0: b359 323d aac2 923a a9e5 29be 6ba8 3e3d
000003d0: 09fc 90bd 4fe9 6fbd 7b7d 96bb 935a ebbd
000003e0: b3c6 1fbe ffe8 64bd 3fc6 54bd 3f73 123e
000003f0: cd56 73bd 97bc 2c3c 19b3 10bc 59f5 dfbd

network_body._body_endoder.seq_layers.2.bias f4 [128]
0.028162843 -0.036829595 -0.017493548 -0.059571926 -0.026539631 -0.010237779 -0.031537544 -0.046653867
-0.022365486 -0.020885019 0.010060774 -0.021475969 -0.032566793 0.00045081004 -0.03870587 -0.005257061
-0.032605924 -0.04606985 -0.029760836 -0.0092867855 -0.035054587 0.018951794 -0.048559 -0.03757401
-0.027577559 -0.033246625 -0.034384076 -0.055573 -0.014400008 -0.02274612 -0.02365634 -0.03160382
-0.013918064 0.00047126765 -0.04769447 -0.0040974845 0.010786358 -0.019302333 -0.05676961 -0.0056731957
-0.016646676 -0.015005456 -0.041250493 -0.027652146 -0.009367898 -0.03190361 -0.056698974 -0.039888766
-0.008766171 -0.03101023 -0.033710238 -0.017634064 -0.031113762 -0.013977649 -0.04276371 -0.049820513
-0.0022191342 0.015895136 -0.041212104 -0.01014461 -0.023157999 -0.027964044 -0.0368702 -0.028063416
-0.032710303 -0.06130935 -0.018929444 -0.036257 -0.0505872 0.0017614203 -0.008260438 -0.03510104
0.024109764 -0.026872233 -0.025929827 0.025537893 -0.005622982 -0.0110069085 0.017346911 -0.04300651
-0.019123103 -0.013613504 -0.03395609 -0.051823936 -0.020852827 0.03002099 -0.004386074 -0.03528472
-0.004583976 -0.03568133 0.036101155 -0.010216159 -0.039870013 0.029142639 -0.018179113 -0.026290411
-0.009778104 -0.02494646 0.004613697 0.013319208 -0.023776254 -0.021827113 -0.00797915 -0.024915975
-0.042075314 -0.030026501 -0.0089640375 -0.054218046 -0.03921166 -0.026350524 -0.03955592 -0.032139763
-0.026941884 -0.031104112 0.0034167755 -0.04383228 -0.022125596 -0.025355062 0.057264846 -0.01598735
-0.021132242 -0.0017509997 -0.030008204 -0.04039313 -0.03423215 -0.010484502 -0.015033677 -0.0119658355
00000000: c3b5 e63c a1da 16bd a14e 8fbc b101 74bd
00000010: a469 d9bc 5bbc 27bc 832d 01bd 2018 3fbd
00000020: d337 b7bc 0f17 abbc f2d5 243c 5fee afbc
00000030: c264 05bd b35a ec39 0c8a 1ebd 6d43 acbb
00000040: ca8d 05bd bdb3 3cbd ffcc f3bc 9a27 18bc
00000050: 6695 0fbd cb40 9b3c cde5 46bd 35e7 19bd
00000060: 55ea e1bc 9d2d 08bd 51d6 0cbd 84a0 63bd
00000070: 03ee 6bbc 1256 babc f1ca c1bc 0273 01bd
00000080: 9708 64bc 7914 f739 475b 43bd 3144 86bb
00000090: 44b9 303c ed1f 9ebc 4087 68bd 37e6 b9bb
000000a0: 9c5e 88bc 72d9 75bc 47f6 28bd c186 e2bc
000000b0: d07b 19bc 5cad 02bd 2f3d 68bd 6762 23bd
000000c0: fc9f 0fbc 2a09 febc bf13 0abd 5075 90bc
000000d0: 4ae2 febc 8202 65bc 0029 2fbd 9810 4cbd
000000e0: e56e 11bb 8436 823c 06ce 28bd 9435 26bc
000000f0: d8b5 bdbc da14 e5bc 3505 17bd 40e5 e5bc
00000100: 3dfb 05bd 831f 7bbd ec11 9bbc 3882 14bd
00000110: 8634 4fbd 75df e63a ca56 07bc 1cc6 0fbd
00000120: d781 c53c 2823 dcbc ca6a d4bc d834 d13c
00000130: fe40 b8bb 5256 34bc 1c1b 8e3c 9827 30bd
00000140: 0ea8 9cbc 2d0b 5fbc 8b15 0bbd 5645 54bd
00000150: 8cd3 aabc 94ee f53c 0eb9 8fbb b686 10bd
00000160: 2e35 96bb 9626 12bd cede 133d ad61 27bc
00000170: bd4e 23bd 8bbc ee3c 5dec 94bc fd5e d7bc
00000180: 5734 20bc 855c ccbc 7f2e 973b cf38 5a3c
00000190: 6bc6 c2bc c6ce b2bc fbba 02bc 961c ccbc
000001a0: 2a57 2cbd 23fa f5bc e6dd 12bc be13 5ebd
000001b0: 689c 20bd 0edd d7bc 6305 22bd fca4 03bd
000001c0: 3ab5 dcbc 0dce febc fbeb 5f3b 7a89 33bd
000001d0: bd40 b5bc 6bb5 cfbc 8b8e 6a3d e7f7 82bc
000001e0: 861d adbc cd81 e5ba c4d3 f5bc 4473 25bd
000001f0: 0337 0cbd 30c7 2bbc d04f 76bc 5a0c 44bc

action_model._continuous_distribution.log_sigma f4 [1, 2]
-0.07375324 -0.14134729
00000000: f00b 97bd 58bd 10be

action_model._continuous_distribution.mu.weight f4 [2, 128]
-0.019476201 0.0081244605 0.013099209 0.008829451 -0.026695779 0.03378944 0.0017120095 0.012556062
0.0066636507 -0.0037609178 0.014673821 0.02608129 0.0031163672 -0.007058185 0.00044463362 0.005814758
0.0090754125 0.004914342 0.009777913 -0.0046828245 -0.006713807 -0.0037829143 0.007389185 0.0034457687
0.003821724 0.00595301 -0.015314904 -0.0038139091 0.004899184 0.0019286803 0.010975079 0.0059006116
-0.0112696625 -0.03702935 0.00747552 -0.017727772 0.005975992 0.0035348313 0.007106059 -0.011453487
-0.007991326 -0.020650107 -0.0041194004 0.0023737014 -0.011846329 0.008876486 0.0024416524 0.011485814
-0.009322183 0.0068313293 -0.004748864 -0.017775135 0.036400948 -0.0005162168 0.009700227 0.0034763096
0.0015723126 -0.013888853 -0.010014955 0.022326548 0.020333497 0.009878936 -0.0005556201 0.022611655
0.0025869969 -0.0009361073 0.012641484 -0.039835144 0.0010039872 -0.017189518 -0.013101236 -0.005041342
0.0019130935 -0.05699205 -0.003199226 0.00339695 0.0118256705 -0.010448189 -0.0055465163 -0.0022110734
0.009997024 -0.004445285 -0.018243944 -0.000586334 -0.009687122 -0.020195594 -0.0024534012 -0.0044337967
0.0031861393 -0.01607663 -0.021962442 0.002534726 0.008159212 -0.029241448 -0.00680944 -0.012792387
0.0066229473 -0.013744939 -0.0014376671 -0.030586552 0.037862252 0.0048277695 0.0071291095 -0.018311555
-0.0029657516 -0.016251348 -0.018834706 0.003068143 -0.004995563 0.0015309508 0.0031292462 0.00042002552
0.0073268954 -0.013511891 -0.007944883 0.0032212485 0.011514812 0.00076305994 -0.010383888 -0.00074052543
0.0072655883 -0.007863988 0.0033961842 -0.0010053942 -0.007799047 0.0061834045 -0.0036873969 -0.035316005
0.029601883 -0.006803548 0.0106150415 -0.00454416 -0.017149623 0.016565923 0.0048173782 -0.01478511
-0.00668676 -0.025281426 0.019520722 0.0036543612 -0.00965218 -0.0015320433 -0.011073755 0.015202439
-0.025938775 -0.010607855 -0.009868418 0.008651319 -0.011583526 0.023951545 -0.01217193 -0.025070662
-0.006540598 -0.0036255012 0.00033423243 -0.010637207 -0.01705137 0.004830391 -0.019461151 -0.0015834925
-0.0023714802 0.009943896 -0.0007711566 -0.022858646 0.019378515 -0.020642355 -0.00017336574 0.014131397
-0.013109581 -0.010894165 0.0013527047 0.01672098 0.026186684 -0.014719939 -0.0121199135 -0.017373053
0.0059992964 0.0042062807 -0.01771759 -0.019769937 -0.01835021 0.0030911008 0.0060062516 -0.011977956
-0.005700987 -0.0047642062 0.00949635 -0.009099747 -0.017334513 -0.009551724 -0.01666545 -0.004777443
-0.015225236 -0.010558639 -0.010193095 0.0010126407 -0.008539416 0.011854205 0.003648249 -0.0004401702
0.011626382 -0.0015200785 -0.0069019888 0.019917052 0.008834567 -0.0011198254 0.017754642 -0.010854698
-0.010800235 -0.0019762 -0.009246126 -0.01307482 -0.010369321 0.009630852 -0.0212684 0.0041396157
0.014863782 -0.028068423 0.006411779 -0.024205778 -0.0031931312 0.03482879 -0.012465997 -0.0016994763
-0.037823703 -0.012576949 0.017953325 0.019318037 -0.024641158 -0.0037644503 0.0100056175 -0.0021270653
-0.008853226 0.0042573554 -0.015464218 -0.004461569 -0.006573109 -0.010491374 0.0022228318 -0.0041576163
-0.012803031 -0.014821857 0.0056547076 -0.019437393 -0.007990798 -0.008391652 0.047929082 -0.011980313
0.0030208959 -0.020665605 -0.020109203 -0.015657235 -0.004547234 -0.02283027 0.0034250512 -0.0060854717
00000000: 8e8c 9fbc 751c 053c 119e 563c 67a9 103c
00000010: 1bb1 dabc cc66 0a3d 8265 e03a f1b7 4d3c
00000020: c15a da3b bb79 76bb 776a 703c 6ea8 d53c
00000030: f73b 4c3b 5948 e7bb b71d e939 ba89 be3b
00000040: 0ab1 143c 7d08 a13b 8a33 203c 6172 99bb
00000050: 7fff dbbb c5ea 77bb fa20 f23b 68d2 613b
00000060: e475 7a3b 7811 c33b 5deb 7abc c7f2 79bb
00000070: 5689 a03b c6cb fc3a d1d0 333c eb59 c13b
00000080: 64a4 38bc 16ac 17bd 35f5 f43b d539 91bc
00000090: 41d2 c33b a1a8 673b f2d9 e83b 68a7 3bbc
000000a0: 0dee 02bc 6a2a a9bc 09fc 86bb 1a90 1b3b
000000b0: 1b17 42bc ae6e 113c 2104 203b ff2e 3c3c
000000c0: 12bc 18bc 58d9 df3b 5c9c 9bbb 299d 91bc
000000d0: 2919 153d b952 07ba b3ed 1e3c ccd2 633b
000000e0: 0e16 ce3a 128e 63bc c415 24bc 2ae6 b63c
000000f0: 6f92 a63c 43db 213c 09a7 11ba 143c b93c
00000100: 9b8a 293b 1965 75ba 3a1e 4f3c 2d2a 23bd
00000110: 3898 833a 08d1 8cbc 91a6 56bc d831 a5bb
00000120: c4c0 fa3a 7f70 69bd 1baa 51bb 5d9f 5e3b
00000130: 75c0 413c e22e 2bbc 8dbf b5bb a8e7 10bb
00000140: 8fca 233c c1a9 91bb 5374 95bc 35b4 19ba
00000150: bcb6 1ebc 3b71 a5bc 3ec9 20bb 6249 91bb
00000160: 8cce 503b 23b3 83bc 94ea b3bc a51d 263b
00000170: 37ae 053c c38b efbc b921 dfbb 2997 51bc
00000180: 4f05 d93b 7432 61bc 1a70 bcba a690 fabc
00000190: 7315 1b3d 4432 9e3b 4e9b e93b 1d02 96bc
000001a0: 0e5d 42bb 8c21 85bc 3e4b 9abc e612 493b
000001b0: d2b1 a3bb 2faa c83a 0a14 4d3b df36 dc39
000001c0: 7416 f03b fa60 5dbc 412b 02bc 951b 533b
000001d0: 9fa8 3c3c 1608 483a 2f21 2abc d21f 42ba
000001e0: 2c14 ee3b f5d7 00bc 8492 5e3b 6ec7 83ba
000001f0: 268f ffbb 289e ca3b 41a8 71bb 84a7 10bd
00000200: a67f f23c 4cf0 debb b6ea 2d3c 2de7 94bb
00000210: 5e7d 8cbc 42b5 873c 19db 9d3b 3f3d 72bc
00000220: 9c1c dbbb fe1a cfbc ece9 9f3c 027e 6f3b
00000230: 2d24 1ebc d8ce c8ba b26e 35bc a713 793c
00000240: 8e7d d4bc 92cc 2dbc 25af 21bc 43be 0d3c
00000250: d4c8 3dbc 0836 c43c c66c 47bc fd60 cdbc
00000260: 8352 d6bb d199 6dbb eb3b af39 ae47 2ebc
00000270: 51af 8bbc 4248 9e3b fe6c 9fbc 318d cfba
00000280: d66a 1bbb b9eb 223c 7227 4aba 0e42 bbbc
00000290: b1bf 9e3c 281a a9bc 83c9 35b9 6087 673c
000002a0: 91c9 56bc 717d 32bc 3d4d b13a 70fa 883c
000002b0: 7585 d63c e62b 71bc 9a92 46bc ef51 8ebc
000002c0: bf95 c43b d7d4 893b 7b24 91bc 90f4 a1bc
000002d0: 2e53 96bc 1194 4a3b 17d0 c43b 303f 44bc
000002e0: 58cf babb 0f1d 9cbb 9496 1b3c 1b17 15bc
000002f0: 1c01 8ebc d67e 1cbc fb85 88bc 198c 9cbb
00000300: 4573 79bc 24fe 2cbc f000 27bc 95ba 843a
00000310: e8e8 0bbc 2438 423c 7617 6f3b a5c6 e6b9
00000320: 957c 3e3c 5f3d c7ba 142a e2bb 1629 a33c
00000330: dcbe 103c 1bc7 92ba 2f72 913c e7d7 31bc
00000340: 78f3 30bc 2283 01bb 107d 17bc c537 56bc
00000350: 16e4 29bc b9ca 1d3c 113b aebc 9da5 873b
00000360: 3887 733c c0ef e5bc e719 d23b 324b c6bc
00000370: da43 51bb a2a8 0e3d 2e3e 4cbc f6c0 deba
00000380: 07ed 1abd 8c0f 4ebc da12 933c dc40 9e3c
00000390: 41dc c9bc ffb4 76bb 9aee 233c 3c66 0bbb
000003a0: 1f0d 11bc 4981 8b3b a25d 7dbc 5a32 92bb
000003b0: 3c63 d7bb 03e4 2bbc eeac 113b 9d3c 88bb
000003c0: cec3 51bc 60d7 72bc 204b b93b 2b3b 9fbc
000003d0: d6eb 02bc 247d 09bc 4951 443d 1349 44bc
000003e0: 39fa 453b ea4a a9bc 0ebc a4bc 9a43 80bc
000003f0: f700 95bb 8c06 bbbc d376 603b a368 c7bb

action_model._continuous_distribution.mu.bias f4 [2]
-0.018682275 0.059202712
00000000: 920b 99bc 8b7e 723d
