results/petfollower17/PetFollower/checkpoint.pt (torch, 157538 bytes, 20 tensors)

network_body.observation_encoder.processors.0.normalizer.running_mean f4 [11]
0	0xbe5e7c18	-0.21727026
1	0xbd27ee10	-0.04099852
2	0xbdf03895	-0.11729542
3	0xbb22a6f4	-0.002481875
4	0xbdfc2246	-0.12311225
5	0xbbaad9c6	-0.005213949
6	0x4105e250	8.367752
7	0x3ed3b285	0.41347137
8	0x00000000	0.0
9	0x00000000	0.0
10	0x00000000	0.0

network_body.observation_encoder.processors.0.normalizer.running_variance f4 [11]
0	0x445e5199	889.27496
1	0x4145956a	12.348978
2	0x4443bb5f	782.9277
3	0x44477d6f	797.9599
4	0x42e6ea3a	115.45747
5	0x44539444	846.31665
6	0x4790b8bd	74097.48
7	0x432f1af4	175.10529
8	0x3f800000	1.0
9	0x3f800000	1.0
10	0x3f800000	1.0

network_body.processors.0.normalizer.running_mean f4 [11]
0	0xbe5e7c18	-0.21727026
1	0xbd27ee10	-0.04099852
2	0xbdf03895	-0.11729542
3	0xbb22a6f4	-0.002481875
4	0xbdfc2246	-0.12311225
5	0xbbaad9c6	-0.005213949
6	0x4105e250	8.367752
7	0x3ed3b285	0.41347137
8	0x00000000	0.0
9	0x00000000	0.0
10	0x00000000	0.0

network_body.processors.0.normalizer.running_variance f4 [11]
0	0x445e5199	889.27496
1	0x4145956a	12.348978
2	0x4443bb5f	782.9277
3	0x44477d6f	797.9599
4	0x42e6ea3a	115.45747
5	0x44539444	846.31665
6	0x4790b8bd	74097.48
7	0x432f1af4	175.10529
8	0x3f800000	1.0
9	0x3f800000	1.0
10	0x3f800000	1.0

network_body._body_endoder.seq_layers.0.weight f4 [128, 11]
0	0x3db6c7aa	0.08924802
1	0xbe542335	-0.20716555
2	0x3d5b8514	0.05359371
3	0x3ede0d2b	0.4336942
4	0x3e5b0e99	0.21392287
5	0xbea52ae2	-0.3225928
6	0xbee41371	-0.44546083
7	0xbe41acb2	-0.18913534
8	0x3e530a0d	0.20609303
9	0x3f0bfab5	0.54679424
10	0xbd9f8f47	-0.07791
11	0xbe9b34f0	-0.30313826
12	0xbcecd0ad	-0.028908098
13	0x3f048162	0.5175992
14	0xbf4156fc	-0.7552335
15	0x3ea8dc76	0.32980698
16	0xbec5c1e6	-0.38624495
17	0x3ec94ff8	0.39318824
18	0x3d558615	0.052129824
19	0x3d6e3bba	0.05816243
20	0xbf39749a	-0.72443545
21	0xbf43fe17	-0.76559585
22	0xbda948fb	-0.08265873
23	0xbdd11448	-0.102089465
24	0xbdc3bb59	-0.09557218
25	0x3e9b1fc0	0.3029766
26	0x3d8c5b9b	0.0685341
27	0xbde3b7cb	-0.1111904
28	0x3f2afe8f	0.66794676
29	0x3e87197b	0.26386628
30	0xbe90aaf4	-0.28255427
31	0x3e28cf3a	0.164853
32	0x3e24f79c	0.1611008
33	0xbe8767af	-0.26446292
34	0xbe9bb5c5	-0.30412117
35	0xbe4fe507	-0.20302211
36	0x3f32cd33	0.6984436
37	0xbe870580	-0.26371384
38	0xbe1afea7	-0.15136205
39	0x3f29be24	0.66305757
40	0xbece6c4a	-0.40316993
41	0xbe31d163	-0.17365031
42	0x3eb89d9d	0.3605775
43	0xbd6069ac	-0.054788277
44	0x3ed2a465	0.41141048
45	0xbdc5fc9f	-0.09667324
46	0xbe93fa3b	-0.28901848
47	0xbeb8b06b	-0.36072096
48	0x3dabe0c8	0.08392483
49	0x3e8aedcd	0.27134553
50	0xbeca79e9	-0.39546135
51	0x3d069ac1	0.03286243
52	0xbde24435	-0.11048166
53	0x3e8f4803	0.27984628
54	0xbe6d7875	-0.23190482
55	0xbd88f005	-0.06686405
56	0xbee1f545	-0.44132438
57	0x3ead9dd7	0.33909485
58	0xbec0ea99	-0.37678984
59	0x3e9ecc24	0.31015122
60	0xbf1d294a	-0.6139113
61	0xbe127a28	-0.14304411
62	0xbef6fd6a	-0.48240215
63	0xbe012aa6	-0.12613925
64	0xbe12a1d5	-0.14319547
65	0x3e04f662	0.12984613
66	0xbe8db2c1	-0.2767544
67	0xbd1a6504	-0.037693992
68	0xbe4581d0	-0.19287801
69	0x3e85aed2	0.2610994
70	0xbe4ba065	-0.19885404
71	0x3eb9e477	0.36307117
72	0x3ee04096	0.43799275
73	0xbe82331d	-0.2542962
74	0x3ec25fd4	0.37963736
75	0x3ea9c62d	0.3315901
76	0x3d9ff3ed	0.07810197
77	0x3e915567	0.2838547
78	0x3d6e4fc8	0.058181554
79	0xbf27fb20	-0.6561756
80	0xbf7b3bf0	-0.9813833
81	0x3bfa15be	0.0076319864
82	0x3e9198ad	0.28436795
83	0xbe05144e	-0.12996027
84	0xbe811a9d	-0.25215617
85	0x3e3e424f	0.18579982
86	0xbe4b5f70	-0.19860625
87	0x3e9cdc42	0.30636793
88	0x3d487c96	0.04894694
89	0xbe58fd46	-0.21190366
90	0x3e93af52	0.28844696
91	0xbc2c265b	-0.0105071915
92	0xbdf31751	-0.118696816
93	0xbe38f304	-0.18061453
94	0x3d961439	0.07328076
95	0xbe11b752	-0.14230087
96	0xbe990c85	-0.29892364
97	0xbeb8f539	-0.3612459
98	0xbe968722	-0.29399973
99	0x3e85916a	0.26087505
100	0xbec4c80d	-0.38433877
101	0x3e0d5f41	0.13805868
102	0xbdf736a0	-0.12070966
103	0xbe22d3db	-0.15901129
104	0x3ee32f75	0.44372144
105	0x3eceea49	0.4041312
106	0xbdb8f4f0	-0.09031093
107	0xbd051206	-0.03248789
108	0xbe42571c	-0.18978542
109	0xbf7c6ed4	-0.9860661
110	0x3e7e85f7	0.24855791
111	0x3da49301	0.08035851
112	0xbdeddbed	-0.11614213
113	0x3eb64ea7	0.35606882
114	0xbed7274a	-0.42022163
115	0xbe273e84	-0.16332442
116	0xbe5a1bd4	-0.21299678
117	0xbe46b8e5	-0.19406469
118	0xbe9e324d	-0.3089775
119	0xbe23557c	-0.15950578
120	0x3ecf4f27	0.40490076
121	0xbe3afce0	-0.18260527
122	0xbe48d42d	-0.19612189
123	0xbd8ad5f2	-0.06779088
124	0xbf198ef7	-0.5998377
125	0xbdb7f5c6	-0.089824244
126	0xbf210b9a	-0.6290833
127	0xbe2065f8	-0.15663898
128	0x3e70b325	0.23505838
129	0x3e61ea4e	0.22062036
130	0x3ee90b00	0.45516205
131	0xbdcf75bd	-0.10129879
132	0xbe00f430	-0.1259315
133	0x3d54f746	0.05199363
134	0x3c6d50c5	0.014484589
135	0xbd5284f2	-0.051396318
136	0xbd87f6c7	-0.06638866
137	0xbda65832	-0.08122291
138	0x3d5bb524	0.053639546
139	0x3e200cfd	0.15629955
140	0x3d5f1f10	0.054472983
141	0xbe361ef8	-0.17785251
142	0x3e86f5fa	0.2635954
143	0xbebc66a4	-0.3679706
144	0x3d9bd9d8	0.0760991
145	0xbdf77d5a	-0.12084456
146	0x3e862638	0.26201034
147	0x3de62d9b	0.11239167
148	0xbd49b5ad	-0.049245525
149	0xbd895628	-0.06705886
150	0x3e143f36	0.14477238
151	0x3db006de	0.0859506
152	0x3da352f8	0.079748094
153	0x3e4e72e1	0.2016101
154	0xbf0dd056	-0.5539602
155	0x3eb2f2ea	0.34950954
156	0xbe931630	-0.28727865
157	0xbd93fb05	-0.072256126
158	0x3d05e387	0.03268769
159	0x3cc30476	0.023805838
160	0x3e0f9fda	0.14025822
161	0xbe26cd94	-0.1628936
162	0x3e92f2d1	0.2870088
163	0x3cc50904	0.02405215
164	0x3dfa411e	0.12219451
165	0x3e05911f	0.1304364
166	0x3e98b544	0.29825795
167	0xbf2156c4	-0.6302302
168	0xbe69b158	-0.22821558
169	0x3dd2e1a6	0.10296945
170	0x3ef85491	0.4850202
171	0x3dfbabd3	0.12288632
172	0xbe62fb73	-0.22166233
173	0x3f47324e	0.77811134
174	0x3eee7205	0.46571365
175	0x3de65d77	0.11248296
176	0xbd05dbf2	-0.03268046
177	0x3ac90741	0.0015337245
178	0xbe8502c9	-0.25978687
179	0xbe1a687b	-0.15078919
180	0xbe20ff9d	-0.15722509
181	0x3e558267	0.20850526
182	0xbd69eb6f	-0.057109293
183	0xbf3326ea	-0.69981253
184	0xbf0be7e4	-0.5465071
185	0xbe7462f1	-0.23865868
186	0x3d4d6934	0.050149158
187	0xbe7a5454	-0.24446231
188	0xbe65f250	-0.22455716
189	0xbefc49dd	-0.49275103
190	0x3dc9be0b	0.09850701
191	0xbf0e5b02	-0.55607617
192	0xbeb6e1a0	-0.35719013
193	0xbd73d7b4	-0.059531882
194	0xbecd0444	-0.40042317
195	0xbd01352d	-0.031544853
196	0xbe28439f	-0.16432045
197	0x3eb00d90	0.34385347
198	0xbe1649fc	-0.1467666
199	0xbdf651b4	-0.120273024
200	0x3cda023b	0.026612392
201	0x3c7ca872	0.01542102
202	0x3eb50243	0.35353288
203	0xbe605b94	-0.21909934
204	0xbe89f268	-0.26942754
205	0xbddf92ba	-0.10916658
206	0xbe591983	-0.21201138
207	0xbe6e7e42	-0.23290351
208	0xbea1d8e7	-0.31610796
209	0xbdc20d73	-0.094752215
210	0x3e7e4f45	0.24834926
211	0xbeb4ca0a	-0.35310394
212	0xbec469ad	-0.38361874
213	0x3ce69976	0.028149348
214	0x3d9c4ecb	0.07632216
215	0xbe311e0f	-0.17296623
216	0x3e1c3c12	0.1525729
217	0x3d6dbbd2	0.058040448
218	0x3ea4946c	0.32144487
219	0x3d857f24	0.06518391
220	0x3e20db0b	0.15708558
221	0xbd3e56a2	-0.04646934
222	0xbdeb9fdc	-0.115051
223	0xbf6e8947	-0.9317822
224	0x3e7f6046	0.24939069
225	0x3f188e0b	0.5959174
226	0x3c99c9b5	0.01877294
227	0xbbb064cb	-0.005383109
228	0xbe4d91b5	-0.20075114
229	0xbd9ae16e	-0.075625286
230	0x3e598085	0.21240433
231	0x3d2775c8	0.04088381
232	0xbdb6e50e	-0.089304075
233	0x3d08421e	0.03326618
234	0x3ee58319	0.44826582
235	0xbe2bbfec	-0.16772431
236	0x3f00092f	0.50014013
237	0x3df6f715	0.12058846
238	0xbf017d83	-0.5058214
239	0x3e53b8c0	0.20675945
240	0x3d82b87c	0.06382844
241	0xbe0adfa2	-0.13561872
242	0xbdaa2384	-0.08307555
243	0xbf40092e	-0.7501401
244	0xbe4b63ee	-0.19862339
245	0x3ecba23f	0.3977222
246	0xbe63e728	-0.22256148
247	0xbeccb128	-0.3997891
248	0xbe939204	-0.2882234
249	0xbccd8058	-0.025085613
250	0xbd4e731b	-0.050402742
251	0x3e273375	0.16328223
252	0xbe9b4bb0	-0.30331182
253	0xbcab0318	-0.020875499
254	0x3d2ad7a7	0.04170957
255	0x3e273db6	0.16332135

network_body._body_endoder.seq_layers.0.bias f4 [128]
0	0x00000000	0.0
1	0x00000000	0.0
2	0x00000000	0.0
3	0x00000000	0.0
4	0x00000000	0.0
5	0x00000000	0.0
6	0x00000000	0.0
7	0x00000000	0.0
8	0x00000000	0.0
9	0x00000000	0.0
10	0x00000000	0.0
11	0x00000000	0.0
12	0x00000000	0.0
13	0x00000000	0.0
14	0x00000000	0.0
15	0x00000000	0.0
16	0x00000000	0.0
17	0x00000000	0.0
18	0x00000000	0.0
19	0x00000000	0.0
20	0x00000000	0.0
21	0x00000000	0.0
22	0x00000000	0.0
23	0x00000000	0.0
24	0x00000000	0.0
25	0x00000000	0.0
26	0x00000000	0.0
27	0x00000000	0.0
28	0x00000000	0.0
29	0x00000000	0.0
30	0x00000000	0.0
31	0x00000000	0.0
32	0x00000000	0.0
33	0x00000000	0.0
34	0x00000000	0.0
35	0x00000000	0.0
36	0x00000000	0.0
37	0x00000000	0.0
38	0x00000000	0.0
39	0x00000000	0.0
40	0x00000000	0.0
41	0x00000000	0.0
42	0x00000000	0.0
43	0x00000000	0.0
44	0x00000000	0.0
45	0x00000000	0.0
46	0x00000000	0.0
47	0x00000000	0.0
48	0x00000000	0.0
49	0x00000000	0.0
50	0x00000000	0.0
51	0x00000000	0.0
52	0x00000000	0.0
53	0x00000000	0.0
54	0x00000000	0.0
55	0x00000000	0.0
56	0x00000000	0.0
57	0x00000000	0.0
58	0x00000000	0.0
59	0x00000000	0.0
60	0x00000000	0.0
61	0x00000000	0.0
62	0x00000000	0.0
63	0x00000000	0.0
64	0x00000000	0.0
65	0x00000000	0.0
66	0x00000000	0.0
67	0x00000000	0.0
68	0x00000000	0.0
69	0x00000000	0.0
70	0x00000000	0.0
71	0x00000000	0.0
72	0x00000000	0.0
73	0x00000000	0.0
74	0x00000000	0.0
75	0x00000000	0.0
76	0x00000000	0.0
77	0x00000000	0.0
78	0x00000000	0.0
79	0x00000000	0.0
80	0x00000000	0.0
81	0x00000000	0.0
82	0x00000000	0.0
83	0x00000000	0.0
84	0x00000000	0.0
85	0x00000000	0.0
86	0x00000000	0.0
87	0x00000000	0.0
88	0x00000000	0.0
89	0x00000000	0.0
90	0x00000000	0.0
91	0x00000000	0.0
92	0x00000000	0.0
93	0x00000000	0.0
94	0x00000000	0.0
95	0x00000000	0.0
96	0x00000000	0.0
97	0x00000000	0.0
98	0x00000000	0.0
99	0x00000000	0.0
100	0x00000000	0.0
101	0x00000000	0.0
102	0x00000000	0.0
103	0x00000000	0.0
104	0x00000000	0.0
105	0x00000000	0.0
106	0x00000000	0.0
107	0x00000000	0.0
108	0x00000000	0.0
109	0x00000000	0.0
110	0x00000000	0.0
111	0x00000000	0.0
112	0x00000000	0.0
113	0x00000000	0.0
114	0x00000000	0.0
115	0x00000000	0.0
116	0x00000000	0.0
117	0x00000000	0.0
118	0x00000000	0.0
119	0x00000000	0.0
120	0x00000000	0.0
121	0x00000000	0.0
122	0x00000000	0.0
123	0x00000000	0.0
124	0x00000000	0.0
125	0x00000000	0.0
126	0x00000000	0.0
127	0x00000000	0.0

network_body._body_endoder.seq_layers.2.weight f4 [128, 128]
0	0xbb4092ac	-0.0029384298
1	0x3d338d00	0.04383564
2	0x3c8549c3	0.016270524
3	0x3da53fe2	0.08068825
4	0xbcb4ac62	-0.022054855
5	0x3df5fb2c	0.12010798
6	0xbcbeafef	-0.023277251
7	0xbbd68892	-0.006547042
8	0xbda53f03	-0.08068659
9	0x3d032ec4	0.03202702
10	0xbcbdd4c2	-0.02317274
11	0xbc522737	-0.012826732
12	0xbc94c8df	-0.018162189
13	0xbda7a057	-0.08184879
14	0x3d544f53	0.051833462
15	0x3b5d902c	0.0033807857
16	0x3e1f226f	0.15540479
17	0xbe0a41b1	-0.13501622
18	0x3c73b687	0.014875061
19	0xbdc1f275	-0.09470073
20	0x3da4543a	0.080238774
21	0x3da44d7d	0.08022592
22	0x3d461f4e	0.0483697
23	0xbdbf896d	-0.09352384
24	0x3c24295c	0.0100196265
25	0xbc055824	-0.00813869
26	0xbcb7d930	-0.02244243
27	0xbe4453a8	-0.19172537
28	0xbcd38844	-0.025821812
29	0xbcb7a8fd	-0.022419447
30	0x3db9c679	0.09071059
31	0x3de06eb8	0.10958618
32	0xbe1cd834	-0.1531685
33	0x3d52b644	0.051443353
34	0x3d4ba415	0.049717028
35	0xbd5aa367	-0.05337849
36	0x3e120cb8	0.14262664
37	0x3d7c01f4	0.0615253
38	0xbdf46944	-0.1193414
39	0x3c8b4f3c	0.017005555
40	0xbdce11c3	-0.100619815
41	0x3dbc9e26	0.09209852
42	0xbbccee9b	-0.00625403
43	0x39dad054	0.00041735417
44	0x3d85998b	0.065234266
45	0x3d9f7784	0.07786468
46	0x3da15602	0.07877733
47	0xbdf06f07	-0.11739927
48	0x3dbdf2ee	0.09274851
49	0xbd3b1f1c	-0.045683965
50	0x3d0dee2a	0.03465096
51	0xbc5ffc48	-0.013670988
52	0x3dafa75b	0.085768424
53	0xbe829176	-0.25501603
54	0x3de36210	0.11102688
55	0xbde49769	-0.11161692
56	0x3d843638	0.06455654
57	0xbe26577d	-0.16244312
58	0xbd975905	-0.07390026
59	0x3df352e4	0.118810445
60	0x3e55094d	0.20804329
61	0xbe111a9f	-0.14170311
62	0xbd991adf	-0.074758284
63	0x3c66480b	0.014055262
64	0x3dc5b1b5	0.096530356
65	0x3d1b9900	0.03798771
66	0xbc6264e0	-0.013817996
67	0xbba8f0d7	-0.0051556635
68	0xbd8cae7a	-0.06869216
69	0xbcafcd48	-0.02146019
70	0x3e63990d	0.22226353
71	0x3e3b6e6d	0.18303843
72	0x3c613ca1	0.013747365
73	0xbe392266	-0.18079528
74	0x3dceee2b	0.10104021
75	0x3cbbc575	0.022921303
76	0xbe22b210	-0.15888238
77	0xbdce2ae7	-0.10066777
78	0xbd4dabbf	-0.050212618
79	0xbe1a60d5	-0.15076001
80	0xbd2377b6	-0.039909087
81	0x3d86bbf7	0.0657882
82	0xbb8c176f	-0.0042752544
83	0x3d131e7d	0.035917748
84	0x3dd8844f	0.10572111
85	0xbb95e581	-0.004574478
86	0xbdb9e172	-0.090762034
87	0x3d41aaa9	0.047281895
88	0x3cf71924	0.030163355
89	0xbec98068	-0.3935578
90	0x3da45c48	0.08025414
91	0x3d47450b	0.04864983
92	0xbdb92fae	-0.09042297
93	0xbc9ca546	-0.019121777
94	0x3e11df89	0.14245428
95	0x3cebec07	0.02879907
96	0x3c8bcb23	0.017064637
97	0xbc49a418	-0.012307189
98	0xbd665d3f	-0.05624127
99	0xbb7b0054	-0.0038299756
100	0xbd9b3e82	-0.07580282
101	0xbb225ad5	-0.0024773378
102	0xbb8bc831	-0.004265808
103	0xbd5585ef	-0.052129682
104	0x3df92102	0.12164499
105	0xbdced8f6	-0.10099976
106	0xbc662db4	-0.014048982
107	0x3a93bf23	0.0011272173
108	0xbd381a47	-0.044946935
109	0x3bdd8fc0	0.006761521
110	0xbd1b2f9d	-0.037887204
111	0xbd87e954	-0.06636301
112	0xbe1f5310	-0.1555903
113	0x3ded0218	0.11572665
114	0x3d842c15	0.064537205
115	0xbd5cc637	-0.05389997
116	0xbceb2361	-0.028703393
117	0x3dff0bbe	0.124534115
118	0x3cfb2afa	0.030660141
119	0xbc7fc2f6	-0.015610447
120	0xbcc2dc49	-0.02378668
121	0xbdb2d93e	-0.08732842
122	0xbd8f593b	-0.06999441
123	0x3d21a572	0.03946442
124	0xbdc69008	-0.096954405
125	0x3cb6cc74	0.022314288
126	0x3c83e5d7	0.016100807
127	0x3d167508	0.036732703
128	0x3ddda8cf	0.10823213
129	0xbde03f0c	-0.10949525
130	0xbd796c71	-0.060894433
131	0xbd9cccc6	-0.07656245
132	0x3d9b404e	0.075806245
133	0xbe0e38f5	-0.13888915
134	0xbe2c46c5	-0.16823871
135	0x3d13dd39	0.036099646
136	0x3c63eb8b	0.013911138
137	0xbe4368fb	-0.19083016
138	0xbde99daf	-0.11407029
139	0xbe194dd6	-0.14971098
140	0x3da4f593	0.08054652
141	0xbd13f2ee	-0.036120348
142	0xbdf4204a	-0.11920221
143	0x3d5c252f	0.0537464
144	0xbe12fd91	-0.1435454
145	0x3d46f974	0.04857774
146	0x3d726961	0.05918253
147	0xbd7c85a7	-0.0616509
148	0xbd9613c5	-0.073279895
149	0x3d605713	0.05477054
150	0xbd82d508	-0.06388289
151	0xbcd3f23a	-0.025872339
152	0x3c1c91e8	0.009556271
153	0xbc4ce226	-0.01250509
154	0xbc0964fb	-0.008385892
155	0xbd18b000	-0.03727722
156	0x3de89c39	0.11357922
157	0xbe192a4f	-0.14957546
158	0xbdbb6128	-0.091493905
159	0x3d69b936	0.057061397
160	0xbcea55aa	-0.028605301
161	0x3e1928cb	0.14956968
162	0x3d590719	0.052985284
163	0x3d4126b3	0.047156047
164	0x3afbe162	0.001921695
165	0x3da69b47	0.081350856
166	0xbdeb315b	-0.11484023
167	0x3d56c118	0.052430242
168	0xbd8345d6	-0.064098045
169	0xbdb13ecd	-0.086545564
170	0x3cfbe1d4	0.030747332
171	0x3d0f0f00	0.034926414
172	0xbce3d9e1	-0.027813854
173	0xbba0287a	-0.0048876377
174	0x3cd73f28	0.026275232
175	0x3ceb4d73	0.028723454
176	0xbda32554	-0.07966104
177	0x3d60472d	0.05475538
178	0xbd4a413a	-0.04937861
179	0x3d56acc9	0.052410875
180	0xbc31dc1b	-0.0108557
181	0xbd6c971a	-0.05776129
182	0x3d8bb927	0.068224244
183	0xbc8a9169	-0.01691504
184	0xbdd5ec96	-0.10445516
185	0x3d86b3fe	0.065772995
186	0xbe095e92	-0.13414982
187	0x3e0f47c6	0.13992223
188	0x3d9abdb4	0.07555714
189	0x3e363922	0.17795232
190	0x3da5de75	0.08099071
191	0xbad7ac32	-0.0016454516
192	0x3da3b6c3	0.079938434
193	0x3dc42b29	0.09578545
194	0xbda310b0	-0.07962167
195	0xbdc1ea8f	-0.094685666
196	0xbd182903	-0.037148487
197	0x3bdd29a8	0.0067493506
198	0x3dc47f2e	0.0959457
199	0x3dc4fac4	0.09618142
200	0x3c16caa6	0.009203589
201	0xbe0a2692	-0.13491276
202	0x3d2dec07	0.04246142
203	0x3c7e7bf6	0.015532484
204	0x3c908f61	0.017646493
205	0xbda0713a	-0.07834096
206	0xbd514fd4	-0.05110152
207	0xbcddce82	-0.02707601
208	0xbcdc9d94	-0.026930608
209	0x3def2fd0	0.116790414
210	0xbd2087d7	-0.039192047
211	0xbdd427ce	-0.10359155
212	0x3d7c1bae	0.061549835
213	0xbdd4e812	-0.103958264
214	0x3e26608a	0.16247764
215	0x3db0ebe6	0.08638744
216	0xbd37359e	-0.044728868
217	0x3d2db84c	0.042412087
218	0xbca8c855	-0.020603338
219	0xbd139ed1	-0.03604013
220	0x3da25820	0.07926965
221	0x3dc172bf	0.09445714
222	0xbc046747	-0.008081264
223	0xbd64ff3a	-0.055907466
224	0xbdb775c4	-0.08958009
225	0x3d531cca	0.051541127
226	0x3e346a61	0.17618705
227	0x3ce12bb3	0.027486658
228	0x3d1b8bcd	0.03797512
229	0x3d3546c4	0.04425694
230	0x3db39a7c	0.087697
231	0xba92cea3	-0.0011200499
232	0xbdba3b01	-0.09093285
233	0x3cfa31b4	0.030541278
234	0xbe0fcc7f	-0.14042853
235	0x3d396ef2	0.04527182
236	0xbda4a4e4	-0.08039263
237	0x3d1eb93c	0.038750872
238	0x3dc84c7a	0.09780212
239	0x3d9e6486	0.07734017
240	0x3df23af3	0.1182765
241	0xbc457b81	-0.012053371
242	0x3cc2bcc6	0.023771655
243	0xbc825b47	-0.015912665
244	0x3dfd9890	0.123826146
245	0xbd0f2940	-0.03495145
246	0x3d546220	0.05185139
247	0xbe2afeeb	-0.16698806
248	0x3df04e94	0.117337376
249	0xbd992add	-0.07478879
250	0x3d6d4dad	0.057935406
251	0xbbd92353	-0.0066265254
252	0xbd50874c	-0.05091028
253	0x3d3ca0f8	0.04605195
254	0xbe0f694e	-0.14005014
255	0x38d4b652	0.000101429076

network_body._body_endoder.seq_layers.2.bias f4 [128]
0	0x00000000	0.0
1	0x00000000	0.0
2	0x00000000	0.0
3	0x00000000	0.0
4	0x00000000	0.0
5	0x00000000	0.0
6	0x00000000	0.0
7	0x00000000	0.0
8	0x00000000	0.0
9	0x00000000	0.0
10	0x00000000	0.0
11	0x00000000	0.0
12	0x00000000	0.0
13	0x00000000	0.0
14	0x00000000	0.0
15	0x00000000	0.0
16	0x00000000	0.0
17	0x00000000	0.0
18	0x00000000	0.0
19	0x00000000	0.0
20	0x00000000	0.0
21	0x00000000	0.0
22	0x00000000	0.0
23	0x00000000	0.0
24	0x00000000	0.0
25	0x00000000	0.0
26	0x00000000	0.0
27	0x00000000	0.0
28	0x00000000	0.0
29	0x00000000	0.0
30	0x00000000	0.0
31	0x00000000	0.0
32	0x00000000	0.0
33	0x00000000	0.0
34	0x00000000	0.0
35	0x00000000	0.0
36	0x00000000	0.0
37	0x00000000	0.0
38	0x00000000	0.0
39	0x00000000	0.0
40	0x00000000	0.0
41	0x00000000	0.0
42	0x00000000	0.0
43	0x00000000	0.0
44	0x00000000	0.0
45	0x00000000	0.0
46	0x00000000	0.0
47	0x00000000	0.0
48	0x00000000	0.0
49	0x00000000	0.0
50	0x00000000	0.0
51	0x00000000	0.0
52	0x00000000	0.0
53	0x00000000	0.0
54	0x00000000	0.0
55	0x00000000	0.0
56	0x00000000	0.0
57	0x00000000	0.0
58	0x00000000	0.0
59	0x00000000	0.0
60	0x00000000	0.0
61	0x00000000	0.0
62	0x00000000	0.0
63	0x00000000	0.0
64	0x00000000	0.0
65	0x00000000	0.0
66	0x00000000	0.0
67	0x00000000	0.0
68	0x00000000	0.0
69	0x00000000	0.0
70	0x00000000	0.0
71	0x00000000	0.0
72	0x00000000	0.0
73	0x00000000	0.0
74	0x00000000	0.0
75	0x00000000	0.0
76	0x00000000	0.0
77	0x00000000	0.0
78	0x00000000	0.0
79	0x00000000	0.0
80	0x00000000	0.0
81	0x00000000	0.0
82	0x00000000	0.0
83	0x00000000	0.0
84	0x00000000	0.0
85	0x00000000	0.0
86	0x00000000	0.0
87	0x00000000	0.0
88	0x00000000	0.0
89	0x00000000	0.0
90	0x00000000	0.0
91	0x00000000	0.0
92	0x00000000	0.0
93	0x00000000	0.0
94	0x00000000	0.0
95	0x00000000	0.0
96	0x00000000	0.0
97	0x00000000	0.0
98	0x00000000	0.0
99	0x00000000	0.0
100	0x00000000	0.0
101	0x00000000	0.0
102	0x00000000	0.0
103	0x00000000	0.0
104	0x00000000	0.0
105	0x00000000	0.0
106	0x00000000	0.0
107	0x00000000	0.0
108	0x00000000	0.0
109	0x00000000	0.0
110	0x00000000	0.0
111	0x00000000	0.0
112	0x00000000	0.0
113	0x00000000	0.0
114	0x00000000	0.0
115	0x00000000	0.0
116	0x00000000	0.0
117	0x00000000	0.0
118	0x00000000	0.0
119	0x00000000	0.0
120	0x00000000	0.0
121	0x00000000	0.0
122	0x00000000	0.0
123	0x00000000	0.0
124	0x00000000	0.0
125	0x00000000	0.0
126	0x00000000	0.0
127	0x00000000	0.0

action_model._continuous_distribution.log_sigma f4 [1, 2]
0	0x00000000	0.0
1	0x00000000	0.0

action_model._continuous_distribution.mu.weight f4 [2, 128]
0	0xbb793b40	-0.00380297
1	0xbbea20a5	-0.007145005
2	0x3d3f3b4b	0.046687406
3	0x3ac13644	0.0014740904
4	0xbc93897b	-0.018009892
5	0xbd0884c5	-0.033329744
6	0xbc227f3b	-0.009918029
7	0x3cbb23bf	0.022844194
8	0x3b5588e8	0.0032582823
9	0x3cb03504	0.021509655
10	0x3ba62dd4	0.005071381
11	0x3c9d6b85	0.019216308
12	0xbac94d03	-0.0015358034
13	0xbb38c955	-0.0028196175
14	0x3a29074f	0.00064479274
15	0x3c6e8228	0.014557399
16	0x3bb5cabc	0.0055478495
17	0x3d795c67	0.060879137
18	0x3d06ccff	0.032910343
19	0x3c157e47	0.009124345
20	0xbc45bf6b	-0.012069563
21	0xbc8743df	-0.016511856
22	0x3b8452e6	0.0040382026
23	0x3ccfc3f2	0.025361989
24	0xbc60e12b	-0.013725559
25	0xbc498507	-0.012299783
26	0x3aed31c3	0.0018096495
27	0x3c071a96	0.008246085
28	0x3c6153c7	0.013752884
29	0xbbef1268	-0.0072958954
30	0x3c53a388	0.012917407
31	0xb815def0	-3.5731995e-05
32	0x3cc32f36	0.023826223
33	0xbc9db5a3	-0.01925165
34	0x3d2f3497	0.042774763
35	0x3b87019e	0.004120066
36	0xbc3ba897	-0.011453769
37	0x3cc77a09	0.024350183
38	0xbc69019b	-0.014221574
39	0xbc5fe5d0	-0.013665631
40	0x3bc5449c	0.0060201418
41	0xbcbd4652	-0.02310482
42	0xbb906917	-0.004407059
43	0x3931bfc2	0.00016951471
44	0xbc361b53	-0.011114913
45	0xba62f713	-0.0008658033
46	0x3c5aff92	0.013366597
47	0x3c0d046c	0.008607011
48	0xbc88368f	-0.016627578
49	0x3c2e9fc1	0.0106582055
50	0xbcbce36c	-0.023057662
51	0xbc97e569	-0.018542008
52	0xbbc1f66c	-0.0059192684
53	0x3c83ac3f	0.016073344
54	0xbc8e098f	-0.017338542
55	0xbcaeb995	-0.021328727
56	0x3cea63c3	0.028612023
57	0xbcdacd50	-0.026709229
58	0x3c589c38	0.013220839
59	0xbc6826bb	-0.01416939
60	0xbc3ede8f	-0.011649742
61	0xbcc25898	-0.023723885
62	0x3ce72312	0.028214965
63	0xbd4e2f8f	-0.050338324
64	0x3c40de80	0.011771798
65	0xb9ff384b	-0.00048679332
66	0xbd4ea2f3	-0.05044837
67	0xbc3b5169	-0.011432984
68	0x3cc67a67	0.024228288
69	0xbccfa1fd	-0.025345797
70	0xbcb274a6	-0.021784138
71	0x3c0310f7	0.00799965
72	0xbce0ba5a	-0.02743261
73	0xbc18b6db	-0.00932094
74	0xba6c88dd	-0.000902308
75	0xbd411d24	-0.04714693
76	0x3c14cc6e	0.009081943
77	0x3cb137ed	0.021633113
78	0xbb149267	-0.002267027
79	0x3c815fea	0.015792806
80	0x3c028e91	0.007968561
81	0x3c25e3ec	0.010125142
82	0xbc928dd1	-0.017889889
83	0x3d4d9f98	0.05020103
84	0xbc7898c2	-0.015173139
85	0xbb540d0a	-0.0032356405
86	0x3b811d1f	0.003940239
87	0xbb103bdc	-0.0022008335
88	0x3c13c371	0.009018765
89	0xbb2d33e8	-0.0026428644
90	0xbbcd11ab	-0.0062582097
91	0xbc4d1938	-0.01251822
92	0x3b4b8d8c	0.003105971
93	0x3b4f08af	0.003159087
94	0xbd41a1e7	-0.047273543
95	0xbcbd3c03	-0.023099905
96	0x3c465df8	0.012107365
97	0x3c8a9013	0.016914403
98	0x37cf0f20	2.4683366e-05
99	0xbc4b4785	-0.012407188
100	0x3cd6bf72	0.026214335
101	0x3ce09045	0.027412543
102	0x3d0078ac	0.03136508
103	0x3cdf59e5	0.027264545
104	0xbc14f354	-0.009091217
105	0xbc141bd0	-0.009039834
106	0xbaf65e85	-0.001879648
107	0xbae6789d	-0.0017583553
108	0x3c06ad10	0.008219972
109	0x3bc8401f	0.0061111595
110	0x3c585c5a	0.013205612
111	0xbafe6caa	-0.0019411047
112	0xbbd71fbf	-0.0065650637
113	0x3c860bef	0.016363112
114	0xbcccef43	-0.025016433
115	0xbd0a5726	-0.033774517
116	0xbc81b397	-0.015832705
117	0x3c3e7f47	0.011627025
118	0x3c139e9f	0.009009986
119	0x3b5dbefa	0.0033835755
120	0x3d083faf	0.03326386
121	0xbca9e7c6	-0.020740401
122	0x3c33afd4	0.010967214
123	0x3c106b3f	0.008814632
124	0xba543057	-0.00080943614
125	0xbb9ab938	-0.004721787
126	0xbcbe3362	-0.02321786
127	0x3c803fcb	0.015655419
128	0xbca89a76	-0.020581465
129	0x3a6d923d	0.0009062624
130	0x3b80107b	0.0039082146
131	0xbce2e52b	-0.027697166
132	0x3c718c8a	0.01474298
133	0x3bc58698	0.0060280077
134	0xbc61dd22	-0.013785632
135	0x3ab5d32b	0.0013872137
136	0xbb078f27	-0.002068469
137	0x3ce62f38	0.028098688
138	0x3c4efc22	0.012633355
139	0x3bf2b5d3	0.007406929
140	0xbd10c82e	-0.035347156
141	0x3ca3f8ea	0.020016152
142	0xbc294e34	-0.0103335865
143	0xbabe5c7b	-0.0014523411
144	0x3cb72578	0.022356734
145	0x3bf1136b	0.007357051
146	0xbbd56df0	-0.0065133497
147	0x3bb844be	0.005623429
148	0xbce4a147	-0.027908934
149	0xbb9bbef9	-0.0047529903
150	0x3d1e30b5	0.03862067
151	0x3c906181	0.017624618
152	0xbbe11bf7	-0.0068697887
153	0xbc0bd9e1	-0.008535833
154	0xbc819ba8	-0.015821293
155	0x3c64fd1b	0.013976361
156	0xbcadd2cb	-0.021218678
157	0x3bfcc65a	0.007714075
158	0x3bf50a9a	0.0074780704
159	0xbbd51c3f	-0.0065036113
160	0x3b2e23cf	0.0026571637
161	0xbbcf9ae0	-0.006335601
162	0xbc8ff37b	-0.017572155
163	0x3c84439a	0.016145516
164	0xbcdb6ab2	-0.026784275
165	0xbbc069a7	-0.0058719697
166	0x3cbd419a	0.02310257
167	0x3c8a6e67	0.016898347
168	0x3cab3200	0.020897865
169	0xbca9ca93	-0.020726478
170	0xbcfb0bd2	-0.030645285
171	0xbd1297eb	-0.03578941
172	0xbc7edb83	-0.015555265
173	0xbbe98642	-0.0071266005
174	0xbc5997d2	-0.013280826
175	0xbc120189	-0.008911499
176	0x3c26da13	0.010183829
177	0xbcdf055f	-0.02722424
178	0x3ca2236d	0.019792283
179	0x3c70cedf	0.014697759
180	0x3cafe10e	0.02146962
181	0xbc961ff3	-0.018325781
182	0xbc9da918	-0.01924567
183	0xba19c5f5	-0.0005865985
184	0xbd355296	-0.044268213
185	0xbca4fd97	-0.020140452
186	0xbb20ecfb	-0.0024555314
187	0xbc6ff6f8	-0.014646284
188	0xbbaf5bc7	-0.005351517
189	0xbc96d5ac	-0.018412434
190	0x3c46ee36	0.012141755
191	0x3c844f36	0.016151052
192	0xbbc4115f	-0.005983516
193	0x3aae51d2	0.0013299531
194	0xba5982ea	-0.0008297401
195	0xbcd837cb	-0.026393792
196	0xbc3158b3	-0.01082437
197	0xbc3e96e8	-0.011632659
198	0xbc1c0a40	-0.009523928
199	0x3c573490	0.0131350905
200	0xbc724eed	-0.014789325
201	0x3c1cee56	0.009578308
202	0x3c40885f	0.011751263
203	0xbcc9317a	-0.024559725
204	0x3cb4b667	0.022059632
205	0xbc0fe7c6	-0.008783286
206	0x3b98b863	0.0046606525
207	0x3c6561ab	0.014000337
208	0xbc192e71	-0.009349451
209	0xbcf3067b	-0.029666176
210	0x3d15aa54	0.03653939
211	0x3cc2171d	0.023692662
212	0x3cabcc17	0.020971341
213	0xbc494539	-0.01228457
214	0x3c7ab7ef	0.015302642
215	0xbca465c3	-0.020068055
216	0x3b21bb56	0.0024678311
217	0x3ce31cda	0.027723718
218	0xbb909183	-0.0044118776
219	0x3c5252e3	0.012837145
220	0x3c97c66c	0.018527232
221	0xbcd96f8d	-0.02654245
222	0x3c8091da	0.015694547
223	0x3c0a4f45	0.008441751
224	0xbc26b1f0	-0.01017426
225	0xbc2e538d	-0.010640037
226	0xbd02565b	-0.031820636
227	0xbc6b8792	-0.014375584
228	0x3ce6e557	0.02818553
229	0xbc4e4388	-0.012589343
230	0x3b8f31d3	0.004369953
231	0xbcdc3702	-0.026881699
232	0x3b4d8f9a	0.003136611
233	0x3c60fb5f	0.013731807
234	0xbd20f8ff	-0.03929996
235	0xbb8ff11e	-0.004392757
236	0x3c614593	0.013749498
237	0xbc113343	-0.008862319
238	0x3b9b6625	0.004742401
239	0xbab56177	-0.0013838251
240	0xbc77e680	-0.015130639
241	0xbcd83c7a	-0.026396025
242	0xbcdfa8db	-0.027302196
243	0x392f33b9	0.00016708569
244	0xbc547b93	-0.0129689155
245	0x3be3f835	0.006957079
246	0xbc7c7225	-0.015408074
247	0x3c08cd8b	0.0083497865
248	0x3b8a6697	0.0042236554
249	0xbbc98682	-0.006150068
250	0xbb1f4de1	-0.0024307894
251	0xbca7c619	-0.020480203
252	0x3c8a847a	0.016908873
253	0xbcd6258a	-0.026140947
254	0xbbc4d5ae	-0.006006918
255	0xbcaaa35f	-0.020829855

action_model._continuous_distribution.mu.bias f4 [2]
0	0x00000000	0.0
1	0x00000000	0.0

network_body.observation_encoder.processors.0.normalizer.running_mean f4 [11]
0	0xbe5e7c18	-0.21727026
1	0xbd27ee10	-0.04099852
2	0xbdf03895	-0.11729542
3	0xbb22a6f4	-0.002481875
4	0xbdfc2246	-0.12311225
5	0xbbaad9c6	-0.005213949
6	0x4105e250	8.367752
7	0x3ed3b285	0.41347137
8	0x00000000	0.0
9	0x00000000	0.0
10	0x00000000	0.0

network_body.observation_encoder.processors.0.normalizer.running_variance f4 [11]
0	0x445e5199	889.27496
1	0x4145956a	12.348978
2	0x4443bb5f	782.9277
3	0x44477d6f	797.9599
4	0x42e6ea3a	115.45747
5	0x44539444	846.31665
6	0x4790b8bd	74097.48
7	0x432f1af4	175.10529
8	0x3f800000	1.0
9	0x3f800000	1.0
10	0x3f800000	1.0

network_body.processors.0.normalizer.running_mean f4 [11]
0	0xbe5e7c18	-0.21727026
1	0xbd27ee10	-0.04099852
2	0xbdf03895	-0.11729542
3	0xbb22a6f4	-0.002481875
4	0xbdfc2246	-0.12311225
5	0xbbaad9c6	-0.005213949
6	0x4105e250	8.367752
7	0x3ed3b285	0.41347137
8	0x00000000	0.0
9	0x00000000	0.0
10	0x00000000	0.0

network_body.processors.0.normalizer.running_variance f4 [11]
0	0x445e5199	889.27496
1	0x4145956a	12.348978
2	0x4443bb5f	782.9277
3	0x44477d6f	797.9599
4	0x42e6ea3a	115.45747
5	0x44539444	846.31665
6	0x4790b8bd	74097.48
7	0x432f1af4	175.10529
8	0x3f800000	1.0
9	0x3f800000	1.0
10	0x3f800000	1.0

network_body._body_endoder.seq_layers.0.weight f4 [128, 11]
0	0x3d4405e2	0.047857173
1	0x3ed60930	0.41803885
2	0x3f14f717	0.5818953
3	0x3e1ea9d2	0.15494469
4	0x3e7917b4	0.24325448
5	0xbc2ee9f8	-0.0106759
6	0xbeec2159	-0.46119192
7	0xbd12466e	-0.0357117
8	0x3eb5b648	0.35490632
9	0x3e67d561	0.22639991
10	0xbea9868a	-0.33110458
11	0x3d298a5e	0.041391723
12	0xbea8d820	-0.3297739
13	0x3ddc7826	0.10765104
14	0x3eeefdf6	0.46678132
15	0xbe9a356c	-0.30118883
16	0x3f40ef43	0.75365084
17	0xbede3390	-0.43398714
18	0x3dd3f40f	0.10349285
19	0x3e2a1d92	0.16612843
20	0x3de8df5e	0.11370729
21	0xbd8972f4	-0.06711379
22	0xbe422b70	-0.18961883
23	0x3ef138fe	0.47113794
24	0xbe2a3440	-0.16621494
25	0xbee6f3e9	-0.45107964
26	0x3d1a830f	0.037722643
27	0xbe68be0f	-0.22728752
28	0x3e15583a	0.14584437
29	0x3efffd92	0.49998146
30	0x3d8ac03a	0.067749456
31	0xbdd871fd	-0.105686165
32	0x3d05bc2c	0.032650158
33	0x3ed33112	0.41248375
34	0x3efed38e	0.49770778
35	0xbdc724b6	-0.09723799
36	0x3ddbe80f	0.10737621
37	0xbc834c13	-0.016027486
38	0x3da000c2	0.078126445
39	0x3ef8c3cd	0.48586884
40	0x3e850645	0.25981346
41	0xbd3bda54	-0.04586251
42	0x3d17e56d	0.03708403
43	0xbc43a2a1	-0.011940629
44	0xbde04709	-0.10951049
45	0xbe7e80d7	-0.24853836
46	0x3e5ce039	0.21569909
47	0xbda8cf5d	-0.082426764
48	0xbdf07931	-0.117418654
49	0x3d5f9d3a	0.054593302
50	0xbd89f134	-0.06735459
51	0xbe4c38ae	-0.19943497
52	0x3d0bc8b0	0.034126937
53	0x3e153c29	0.1457373
54	0x3ea97ac2	0.3310147
55	0xbf09db91	-0.53850657
56	0x3e9129e3	0.2835227
57	0xbe8c2387	-0.27370855
58	0xbe5a0e52	-0.21294525
59	0xbd9c1071	-0.076203234
60	0x3e73cd04	0.23808676
61	0xbc8321c1	-0.016007306
62	0x3ee3510e	0.44397777
63	0x3f1b57a4	0.60680604
64	0x3e4c5b13	0.19956617
65	0x3e38a76a	0.18032613
66	0xbd1ed9eb	-0.03878204
67	0xbe65eea8	-0.22454321
68	0xbe933824	-0.2875377
69	0x3ecffa42	0.4062062
70	0x3e1ae3cc	0.1512596
71	0x3d07b2be	0.033129446
72	0x3ca6b763	0.020351117
73	0x3ec16333	0.37770995
74	0xbe19db53	-0.15025072
75	0xbe895551	-0.26822904
76	0xbd662dff	-0.05619621
77	0x3edb91c3	0.42884645
78	0xbefc02ff	-0.49221036
79	0xbe2a3952	-0.16623428
80	0xbdbadaf2	-0.09123792
81	0xbec3a020	-0.38208103
82	0x3d71bc60	0.05901754
83	0xbeb7a5a6	-0.35868567
84	0xbc8634b3	-0.01638255
85	0x3e4409a3	0.19144301
86	0x3ed23b5a	0.41060907
87	0x3d913c01	0.07091523
88	0x3daffd41	0.08593226
89	0x3dc2c77b	0.09510704
90	0x3e956c1e	0.2918405
91	0x3d94eee4	0.07272127
92	0x3e866a2c	0.26252878
93	0xbe87d9d2	-0.2653337
94	0xbe973f41	-0.29540446
95	0xbe3c5c01	-0.18394472
96	0x3f103992	0.56337845
97	0x3ee29252	0.4425226
98	0xbf0bc83f	-0.54602426
99	0x3d884dc9	0.06655461
100	0xbd60fdd5	-0.054929573
101	0xbeed63d1	-0.46365216
102	0xbef61f24	-0.48070633
103	0x3f1f08f0	0.6212301
104	0x3d7967ff	0.060890194
105	0x3e01ea9e	0.12687156
106	0xbd82fa93	-0.063954495
107	0x3c14eea6	0.009090101
108	0x3d839d3f	0.06426477
109	0xbe26e076	-0.16296563
110	0x3c6149df	0.013750522
111	0x3ee4bace	0.4467377
112	0x3e6fca06	0.2341691
113	0x3db19df1	0.08672703
114	0xbdbde629	-0.09272415
115	0x3db5cef1	0.088773616
116	0xbb7ce5cb	-0.0038589116
117	0x3e17b8e8	0.1481663
118	0x3d906992	0.07051386
119	0xbe35231a	-0.17689171
120	0x3e3609fa	0.17777243
121	0xbf094092	-0.5361415
122	0xbe6d23fa	-0.23158255
123	0xbe2b3371	-0.16718842
124	0x3f0d2209	0.5513006
125	0x3f268d5b	0.6505944
126	0xbe779ef2	-0.24181727
127	0x3e0cb87a	0.13742247
128	0xbb02b541	-0.0019944462
129	0x3d83e055	0.06439272
130	0x3eab12a0	0.33412647
131	0x3d94e5ee	0.07270418
132	0xbe3937d3	-0.18087701
133	0xbd2051a6	-0.039140366
134	0x3c931245	0.017953048
135	0xbf283f12	-0.6572124
136	0x3e742d35	0.2384537
137	0xbe8757af	-0.26434085
138	0xbe19abe3	-0.15006976
139	0x3ece054d	0.4023842
140	0x3f2ddfd0	0.67919636
141	0xbdeb84c4	-0.114999324
142	0xbaa98aca	-0.0012935039
143	0xbec6c41c	-0.38821495
144	0x3dbe27ca	0.09284933
145	0xbde8c03a	-0.11364789
146	0x3d89e48a	0.067330435
147	0x3ec72374	0.38894236
148	0xbe77665b	-0.2416014
149	0xbe19d28c	-0.15021724
150	0xbe377bf5	-0.1791838
151	0xbe84f1c2	-0.25965697
152	0x3e8cb10c	0.27478826
153	0xbdead2b1	-0.114659674
154	0x3eabb4bf	0.33536336
155	0x3dbcae85	0.092129745
156	0xbe06875a	-0.1313757
157	0x3df14f25	0.11782674
158	0xbe9bb841	-0.30414012
159	0x3df7ee8c	0.12106046
160	0xbd7bf8cb	-0.061516564
161	0x3e012970	0.12613463
162	0x3e672415	0.22572358
163	0xbf108eef	-0.564681
164	0xbc7a1b24	-0.01526526
165	0x3e0109fd	0.12601466
166	0x3b8b3ff3	0.0042495667
167	0xbef456df	-0.47722527
168	0x3e852c89	0.2601054
169	0x3dd8e670	0.105908275
170	0x3cafd288	0.021462694
171	0xbdd8763c	-0.105694264
172	0xbe7d6521	-0.24745609
173	0xbe79a468	-0.24379122
174	0xbe5bf63f	-0.21480654
175	0xbdec24c3	-0.11530449
176	0x3e0140c8	0.12622368
177	0xbe9494ce	-0.2901978
178	0x3df4047a	0.11914916
179	0x3e71c3a1	0.23609783
180	0x3edc7238	0.43055892
181	0x3db57378	0.088599145
182	0xbe5765f8	-0.21034992
183	0x3d91af1e	0.07113479
184	0xbe8c1b57	-0.2736461
185	0xbe37336f	-0.17890714
186	0xbe4a33ad	-0.19746275
187	0xbe0700c1	-0.13183881
188	0xbefd37c9	-0.49456623
189	0xbe77cef0	-0.24200034
190	0x3ecaa8c8	0.39581895
191	0xbebfc043	-0.37451372
192	0xbe232704	-0.15932852
193	0xbe05e63e	-0.13076112
194	0x3e57eb0c	0.21085757
195	0x3d8adfee	0.067809924
196	0xbf253a83	-0.64542407
197	0x3e56a759	0.20962276
198	0x3dc96d54	0.09835306
199	0x3dcadceb	0.09905418
200	0x3e7599d5	0.23984464
201	0x3f424866	0.7589172
202	0x3db9bb28	0.090689
203	0xbec6f3b1	-0.38857797
204	0x3e3b4c96	0.18290934
205	0x3c6e070d	0.014528048
206	0x3d98f0d4	0.07467809
207	0x3e7da7e8	0.24771082
208	0x3e109217	0.14118229
209	0xbd0c91c3	-0.034318697
210	0xbef22aeb	-0.4729837
211	0xbf104884	-0.5636065
212	0xbd134b9b	-0.035960775
213	0xbda33931	-0.07969893
214	0xbd83c6d6	-0.06434409
215	0x3eea7c80	0.4579811
216	0x3e0d1020	0.13775682
217	0x3ea4ac47	0.32162687
218	0xbe4c26b4	-0.19936639
219	0xbda7b494	-0.081887394
220	0x3dc10dbc	0.09426448
221	0x3e9b4c5d	0.30331698
222	0xbddf3b65	-0.109000005
223	0x3e63e1ce	0.22254106
224	0x3eafc3c8	0.34329057
225	0xbef738cf	-0.4828553
226	0xbc7c2be3	-0.015391323
227	0x3f075b6a	0.5287386
228	0xbef0dbc0	-0.47042656
229	0xbcdb53a2	-0.026773278
230	0x3f00cd6e	0.5031346
231	0xbe6b762c	-0.22994298
232	0xbe6e6694	-0.23281318
233	0x3ea5047f	0.32229993
234	0xbf0dcbc2	-0.55389035
235	0x3ee71c81	0.45138934
236	0x3e9c0183	0.30469903
237	0x3c190b72	0.009341108
238	0xbd2368d5	-0.039894897
239	0xbe61efe7	-0.22064172
240	0xbe933715	-0.28752962
241	0xbc7b9856	-0.015356144
242	0xbd51aada	-0.051188327
243	0xbe890dfa	-0.26768476
244	0xbee9d54c	-0.45670545
245	0xbd59a6fc	-0.053137764
246	0xbf00b5d6	-0.5027746
247	0xbe9ce6fc	-0.30644977
248	0xbcd14e8c	-0.02555015
249	0x3d6e0755	0.05811246
250	0x3e04523a	0.12921992
251	0xbe387fbb	-0.18017475
252	0xbe34ff86	-0.176756
253	0x3e699a1c	0.22812694
254	0x3f0af4b4	0.5427964
255	0xbed6e0da	-0.41968423

network_body._body_endoder.seq_layers.0.bias f4 [128]
0	0x00000000	0.0
1	0x00000000	0.0
2	0x00000000	0.0
3	0x00000000	0.0
4	0x00000000	0.0
5	0x00000000	0.0
6	0x00000000	0.0
7	0x00000000	0.0
8	0x00000000	0.0
9	0x00000000	0.0
10	0x00000000	0.0
11	0x00000000	0.0
12	0x00000000	0.0
13	0x00000000	0.0
14	0x00000000	0.0
15	0x00000000	0.0
16	0x00000000	0.0
17	0x00000000	0.0
18	0x00000000	0.0
19	0x00000000	0.0
20	0x00000000	0.0
21	0x00000000	0.0
22	0x00000000	0.0
23	0x00000000	0.0
24	0x00000000	0.0
25	0x00000000	0.0
26	0x00000000	0.0
27	0x00000000	0.0
28	0x00000000	0.0
29	0x00000000	0.0
30	0x00000000	0.0
31	0x00000000	0.0
32	0x00000000	0.0
33	0x00000000	0.0
34	0x00000000	0.0
35	0x00000000	0.0
36	0x00000000	0.0
37	0x00000000	0.0
38	0x00000000	0.0
39	0x00000000	0.0
40	0x00000000	0.0
41	0x00000000	0.0
42	0x00000000	0.0
43	0x00000000	0.0
44	0x00000000	0.0
45	0x00000000	0.0
46	0x00000000	0.0
47	0x00000000	0.0
48	0x00000000	0.0
49	0x00000000	0.0
50	0x00000000	0.0
51	0x00000000	0.0
52	0x00000000	0.0
53	0x00000000	0.0
54	0x00000000	0.0
55	0x00000000	0.0
56	0x00000000	0.0
57	0x00000000	0.0
58	0x00000000	0.0
59	0x00000000	0.0
60	0x00000000	0.0
61	0x00000000	0.0
62	0x00000000	0.0
63	0x00000000	0.0
64	0x00000000	0.0
65	0x00000000	0.0
66	0x00000000	0.0
67	0x00000000	0.0
68	0x00000000	0.0
69	0x00000000	0.0
70	0x00000000	0.0
71	0x00000000	0.0
72	0x00000000	0.0
73	0x00000000	0.0
74	0x00000000	0.0
75	0x00000000	0.0
76	0x00000000	0.0
77	0x00000000	0.0
78	0x00000000	0.0
79	0x00000000	0.0
80	0x00000000	0.0
81	0x00000000	0.0
82	0x00000000	0.0
83	0x00000000	0.0
84	0x00000000	0.0
85	0x00000000	0.0
86	0x00000000	0.0
87	0x00000000	0.0
88	0x00000000	0.0
89	0x00000000	0.0
90	0x00000000	0.0
91	0x00000000	0.0
92	0x00000000	0.0
93	0x00000000	0.0
94	0x00000000	0.0
95	0x00000000	0.0
96	0x00000000	0.0
97	0x00000000	0.0
98	0x00000000	0.0
99	0x00000000	0.0
100	0x00000000	0.0
101	0x00000000	0.0
102	0x00000000	0.0
103	0x00000000	0.0
104	0x00000000	0.0
105	0x00000000	0.0
106	0x00000000	0.0
107	0x00000000	0.0
108	0x00000000	0.0
109	0x00000000	0.0
110	0x00000000	0.0
111	0x00000000	0.0
112	0x00000000	0.0
113	0x00000000	0.0
114	0x00000000	0.0
115	0x00000000	0.0
116	0x00000000	0.0
117	0x00000000	0.0
118	0x00000000	0.0
119	0x00000000	0.0
120	0x00000000	0.0
121	0x00000000	0.0
122	0x00000000	0.0
123	0x00000000	0.0
124	0x00000000	0.0
125	0x00000000	0.0
126	0x00000000	0.0
127	0x00000000	0.0

network_body._body_endoder.seq_layers.2.weight f4 [128, 128]
0	0xbcf1d3ca	-0.029519934
1	0x3def166b	0.11674198
2	0xbdec0962	-0.11525227
3	0xbd415cfb	-0.047207814
4	0xbd55ef85	-0.052230377
5	0x3e452f22	0.19256261
6	0x3d178ae8	0.036997706
7	0xbd67d3d5	-0.056598503
8	0x3dda6372	0.10663499
9	0xbe75090d	-0.23929234
10	0xbd14d184	-0.036332622
11	0x3cb9687e	0.022632834
12	0xbdc6eb4f	-0.0971285
13	0x3e078c58	0.1323713
14	0x3db223cd	0.08698235
15	0xbe53fb16	-0.2070125
16	0x3d98c143	0.07458737
17	0x3d44943f	0.04799294
18	0xbdd77b18	-0.10521525
19	0xbe296644	-0.16542917
20	0x3e24248b	0.16029565
21	0x3df3f7e3	0.11912515
22	0x3e538a33	0.20658188
23	0xbdf4aade	-0.11946653
24	0x3d4e931b	0.05043326
25	0xbdfafdb7	-0.122554235
26	0xbdf13808	-0.11778265
27	0x3d9a4252	0.07532181
28	0xbcaf192a	-0.021374304
29	0x3c883eb0	0.016631454
30	0x3cf2d67e	0.029643293
31	0x3db0e989	0.08638293
32	0xbdcd01ee	-0.10010134
33	0xbd9b5e53	-0.0758635
34	0xbcd7cb27	-0.026341988
35	0x3d4a949e	0.04945814
36	0x3dc58d4b	0.0964609
37	0x3d831692	0.06400789
38	0x3db87274	0.09006205
39	0x3d077ebc	0.033079848
40	0xbc65ef87	-0.014034159
41	0xbca47723	-0.02007634
42	0x3c5f6d37	0.013636879
43	0xbcf3cb96	-0.029760163
44	0xbe034eed	-0.12823077
45	0xbdff36ff	-0.124616615
46	0x3d6297ec	0.055320665
47	0x3c4d8e31	0.012546108
48	0x3db8cc24	0.09023312
49	0xbb2dbb55	-0.0026509364
50	0xbc8df9c8	-0.017331019
51	0xbd8dd5b4	-0.06925526
52	0x3cef8f17	0.029243035
53	0x3d3fc1fd	0.04681586
54	0x3ca85177	0.020546658
55	0xbd2eb27d	-0.04265069
56	0x3db0508b	0.08609112
57	0xbdaf837e	-0.08570002
58	0x3d36ed64	0.044659987
59	0xbd0c7cd8	-0.034298748
60	0xbdca5199	-0.09878845
61	0xbd80983c	-0.062790364
62	0xba674b25	-0.0008823148
63	0x3dba641a	0.09101124
64	0xbdf17be7	-0.117912106
65	0x3da7e7ab	0.08198484
66	0xbd48c30d	-0.04901414
67	0xbddff771	-0.109358676
68	0x3ca40716	0.02002291
69	0xbda4677c	-0.080275506
70	0x3cd57847	0.02605833
71	0xbda231fb	-0.07919689
72	0xbd2150fe	-0.03938388
73	0xbdcf551a	-0.10123654
74	0xbd835e07	-0.06414419
75	0xbd2d311c	-0.042283162
76	0xbd42297f	-0.047402855
77	0x3c2f75af	0.01070921
78	0xbda98996	-0.082781956
79	0xbd9f68d9	-0.0778367
80	0x3d7c68ce	0.061623387
81	0xbd355e02	-0.044279106
82	0x3e03fe2a	0.12889925
83	0x3e0e45c4	0.13893801
84	0x3d433b3d	0.047663916
85	0x3dc7150a	0.0972081
86	0xbd6ba9ae	-0.057534866
87	0xbe2e6a73	-0.17032795
88	0xbd7ab477	-0.06120726
89	0xbe3aeca6	-0.18254337
90	0xbdcc8a08	-0.09987265
91	0xbdb1fbbb	-0.08690592
92	0xbd6cbbb5	-0.0577962
93	0x3da5e5bc	0.08100459
94	0xbd5aa6b9	-0.053381655
95	0xbde9e14d	-0.11419926
96	0xbc75ecb0	-0.015010044
97	0xbd96a810	-0.07356274
98	0x3df47a45	0.119373836
99	0x3d777ca1	0.06042159
100	0xbdb36d78	-0.08761114
101	0x3d446bb3	0.047954272
102	0x39ea5377	0.00044694144
103	0x3dbac3ea	0.09119399
104	0xbd8de3e3	-0.069282316
105	0xbdc857bf	-0.09782361
106	0xbd73e0bd	-0.0595405
107	0xbdc73fe7	-0.09728985
108	0x3dcbbce0	0.099481344
109	0xbdf61a21	-0.120167024
110	0x3d0e08ac	0.03467624
111	0x3dcac5d1	0.09901012
112	0x3ddbf0cd	0.107392885
113	0xbc93fa85	-0.018063793
114	0xbe5bd3fe	-0.21467587
115	0xbb835bde	-0.004008754
116	0x3d692497	0.05691966
117	0xbe03b016	-0.1286014
118	0x3df33ecd	0.11877213
119	0x3d18e598	0.037328333
120	0xbd5353ce	-0.051593594
121	0xbdf70fb1	-0.1206354
122	0xbda08d80	-0.07839489
123	0xbda5139f	-0.08060383
124	0x3da79841	0.08183337
125	0xbcb1f829	-0.021724777
126	0xbded8534	-0.11597672
127	0xbd608a83	-0.054819595
128	0x3daa39a9	0.08311779
129	0x3d80f5e7	0.06296902
130	0x3d774d82	0.06037665
131	0x3ca841e7	0.020539237
132	0xbc319d67	-0.01084075
133	0xbd323008	-0.043502837
134	0xbd66a4a1	-0.056309346
135	0x3c46107c	0.012088891
136	0x3dd54bb2	0.10414828
137	0xbc23c239	-0.009995037
138	0xbe10d64c	-0.14144248
139	0xbe372758	-0.17886102
140	0x3e09180c	0.1338808
141	0xbd6a1d8d	-0.057157088
142	0xbcef0550	-0.029177338
143	0xbbec7f95	-0.0072173574
144	0xbe0906cf	-0.13381504
145	0x3df0cd86	0.117579505
146	0x3e02a1ea	0.12757078
147	0xbc8a812c	-0.016907297
148	0xbd1a58ba	-0.037682272
149	0xbe156972	-0.14591005
150	0xbe0f5301	-0.13996507
151	0x3d62b98d	0.055352736
152	0xbc251265	-0.010075186
153	0xbb080f44	-0.0020761052
154	0x3db5e773	0.08882036
155	0x3c7ff4a4	0.015622292
156	0xbe230ac9	-0.15922083
157	0x3d9f302f	0.07772862
158	0x3de32702	0.110914245
159	0x3d53ab59	0.05167708
160	0xbd24da9a	-0.040247537
161	0xba810ee2	-0.0009846354
162	0x3b130ead	0.0022439167
163	0x3dece3e7	0.115669064
164	0x3c5fc848	0.013658591
165	0x3b9ee9a0	0.0048496276
166	0x3d7262cd	0.059176255
167	0xbd97ee03	-0.07418444
168	0x3da971cf	0.082736604
169	0xbce793c7	-0.028268708
170	0xbd23115c	-0.039811477
171	0xbde16ae2	-0.110067144
172	0x3c73f481	0.014889837
173	0xbd36c395	-0.044620115
174	0xbe2ce0e5	-0.16882665
175	0xbd160a68	-0.036631018
176	0x3c94b107	0.01815082
177	0x3ce56503	0.028002268
178	0x3e031d81	0.12804224
179	0x3da5a443	0.08087971
180	0xbdc973ce	-0.09836541
181	0x3db3f66c	0.087872356
182	0xbce61383	-0.028085476
183	0xbcfbdac6	-0.030743968
184	0xbcb8d0b1	-0.02256045
185	0x3d9eaf94	0.077483326
186	0xbe1ec5b4	-0.15505105
187	0xbe355c85	-0.17711075
188	0x3e2965a9	0.16542687
189	0x3d00d693	0.031454634
190	0xbe09ce51	-0.1345761
191	0xbe41b18f	-0.1891539
192	0x3df4296c	0.11921963
193	0xbd872d51	-0.0660044
194	0xbd116585	-0.035497207
195	0xbd140ec2	-0.036146887
196	0xbc7487c8	-0.014924951
197	0x3ce3d141	0.027809741
198	0x3dea1d59	0.11431379
199	0x3c3ea610	0.011636272
200	0xbc7832d6	-0.015148839
201	0x3c00bdd4	0.007857759
202	0x3d814b9f	0.06313252
203	0xbcd77311	-0.026299985
204	0x3e4b0660	0.1982665
205	0xba4efac9	-0.0007895646
206	0xbc6ab84e	-0.014326168
207	0x3dd34236	0.10315363
208	0x3cb39545	0.021921763
209	0xbdc00720	-0.09376359
210	0x3d6250a8	0.0552527
211	0x3ca4724d	0.020074034
212	0xbd1bf9c2	-0.038079984
213	0x3dd6c068	0.10485917
214	0xbdbd84cb	-0.09253844
215	0xbb988d05	-0.0046554827
216	0xbd255a0c	-0.04036908
217	0x3d4be10f	0.04977518
218	0xbe105300	-0.14094162
219	0x3d97612f	0.07391583
220	0x3da058be	0.07829426
221	0xbce50606	-0.027956974
222	0xbcb949bd	-0.022618169
223	0xbe239e20	-0.15978289
224	0x3dbcd024	0.09219387
225	0x3d445d88	0.04794076
226	0x3cb416b6	0.021983486
227	0x3dd54b7a	0.10414787
228	0xbc313f7e	-0.01081836
229	0x3cac933a	0.021066297
230	0x3e06fbbb	0.13181965
231	0x3dcf021b	0.101078235
232	0xbdf3d959	-0.1190669
233	0x3d6f8edb	0.058485847
234	0xbd591787	-0.053000953
235	0x3d9f9bf7	0.0779342
236	0x3e0a069f	0.13479088
237	0x3dc68610	0.09693539
238	0x3cb3e775	0.021960953
239	0xbd8ddd7b	-0.0692701
240	0x3d8055c1	0.06266356
241	0xbde13769	-0.10996897
242	0x3bf31e80	0.0074194074
243	0x3c75c3d3	0.015000301
244	0x3e0e6d36	0.13908848
245	0xbc07aec9	-0.008281418
246	0x3df497b8	0.119430006
247	0xbd220a47	-0.039560582
248	0xbda43e8c	-0.08019742
249	0xbc64573b	-0.013936813
250	0xbe2495a8	-0.16072714
251	0xbdc0621a	-0.093937114
252	0x3b875323	0.0041297837
253	0x3d360374	0.044436887
254	0xbd7bac5d	-0.061443675
255	0xbc8711ac	-0.016487919

network_body._body_endoder.seq_layers.2.bias f4 [128]
0	0x00000000	0.0
1	0x00000000	0.0
2	0x00000000	0.0
3	0x00000000	0.0
4	0x00000000	0.0
5	0x00000000	0.0
6	0x00000000	0.0
7	0x00000000	0.0
8	0x00000000	0.0
9	0x00000000	0.0
10	0x00000000	0.0
11	0x00000000	0.0
12	0x00000000	0.0
13	0x00000000	0.0
14	0x00000000	0.0
15	0x00000000	0.0
16	0x00000000	0.0
17	0x00000000	0.0
18	0x00000000	0.0
19	0x00000000	0.0
20	0x00000000	0.0
21	0x00000000	0.0
22	0x00000000	0.0
23	0x00000000	0.0
24	0x00000000	0.0
25	0x00000000	0.0
26	0x00000000	0.0
27	0x00000000	0.0
28	0x00000000	0.0
29	0x00000000	0.0
30	0x00000000	0.0
31	0x00000000	0.0
32	0x00000000	0.0
33	0x00000000	0.0
34	0x00000000	0.0
35	0x00000000	0.0
36	0x00000000	0.0
37	0x00000000	0.0
38	0x00000000	0.0
39	0x00000000	0.0
40	0x00000000	0.0
41	0x00000000	0.0
42	0x00000000	0.0
43	0x00000000	0.0
44	0x00000000	0.0
45	0x00000000	0.0
46	0x00000000	0.0
47	0x00000000	0.0
48	0x00000000	0.0
49	0x00000000	0.0
50	0x00000000	0.0
51	0x00000000	0.0
52	0x00000000	0.0
53	0x00000000	0.0
54	0x00000000	0.0
55	0x00000000	0.0
56	0x00000000	0.0
57	0x00000000	0.0
58	0x00000000	0.0
59	0x00000000	0.0
60	0x00000000	0.0
61	0x00000000	0.0
62	0x00000000	0.0
63	0x00000000	0.0
64	0x00000000	0.0
65	0x00000000	0.0
66	0x00000000	0.0
67	0x00000000	0.0
68	0x00000000	0.0
69	0x00000000	0.0
70	0x00000000	0.0
71	0x00000000	0.0
72	0x00000000	0.0
73	0x00000000	0.0
74	0x00000000	0.0
75	0x00000000	0.0
76	0x00000000	0.0
77	0x00000000	0.0
78	0x00000000	0.0
79	0x00000000	0.0
80	0x00000000	0.0
81	0x00000000	0.0
82	0x00000000	0.0
83	0x00000000	0.0
84	0x00000000	0.0
85	0x00000000	0.0
86	0x00000000	0.0
87	0x00000000	0.0
88	0x00000000	0.0
89	0x00000000	0.0
90	0x00000000	0.0
91	0x00000000	0.0
92	0x00000000	0.0
93	0x00000000	0.0
94	0x00000000	0.0
95	0x00000000	0.0
96	0x00000000	0.0
97	0x00000000	0.0
98	0x00000000	0.0
99	0x00000000	0.0
100	0x00000000	0.0
101	0x00000000	0.0
102	0x00000000	0.0
103	0x00000000	0.0
104	0x00000000	0.0
105	0x00000000	0.0
106	0x00000000	0.0
107	0x00000000	0.0
108	0x00000000	0.0
109	0x00000000	0.0
110	0x00000000	0.0
111	0x00000000	0.0
112	0x00000000	0.0
113	0x00000000	0.0
114	0x00000000	0.0
115	0x00000000	0.0
116	0x00000000	0.0
117	0x00000000	0.0
118	0x00000000	0.0
119	0x00000000	0.0
120	0x00000000	0.0
121	0x00000000	0.0
122	0x00000000	0.0
123	0x00000000	0.0
124	0x00000000	0.0
125	0x00000000	0.0
126	0x00000000	0.0
127	0x00000000	0.0

value_heads.value_heads.extrinsic.weight f4 [1, 128]
0	0x3e02047b	0.12697022
1	0x3d0f5aeb	0.034998816
2	0x3da40d82	0.08010389
3	0xbe3d4ceb	-0.18486373
4	0x3e496d64	0.19670635
5	0x3d401166	0.046891592
6	0x3ccc55f3	0.024943328
7	0xbe297f5f	-0.16552494
8	0x3e2d9e91	0.1695502
9	0x3cb57633	0.022151088
10	0xbda69761	-0.08134342
11	0xbdd3965f	-0.103314154
12	0xbde1a68b	-0.11018094
13	0xbe233d70	-0.15941405
14	0xbda2f38a	-0.07956608
15	0xbe0ee539	-0.13954629
16	0x3db5beb4	0.08874264
17	0xbe190745	-0.1494418
18	0xbd0e6db6	-0.034772597
19	0xbdbd6269	-0.09247286
20	0x3dfd38ed	0.12364373
21	0xbcfcc5e9	-0.03085609
22	0x3e45ee04	0.19329077
23	0x3de3b26f	0.11118018
24	0x3e488e98	0.19585645
25	0xbe52bcd7	-0.20579849
26	0xbdc61f6a	-0.096739605
27	0x3b4f37b0	0.0031618886
28	0xbd6a4f84	-0.05720474
29	0xbe3202e6	-0.17383918
30	0xbdc00f1f	-0.09377884
31	0xbc1c009f	-0.009521632
32	0x3dee6be2	0.11641671
33	0x3d3cbb56	0.046077095
34	0xbe01b931	-0.12668301
35	0xbdf3dec5	-0.11907724
36	0xbe3c5fb1	-0.18395878
37	0x3cf4b15a	0.029869724
38	0xbe054ba8	-0.13017142
39	0xbdc72183	-0.09723189
40	0x3d336dbe	0.04380583
41	0xbdc2ec58	-0.09517735
42	0x3d87ee75	0.06637279
43	0xbe55a059	-0.20861949
44	0xbe5be478	-0.21473873
45	0xbd1e6f62	-0.03868044
46	0x3daf25e4	0.08552149
47	0xbdebf517	-0.115213566
48	0xbbb86930	-0.0056277737
49	0x3dfc944e	0.123329744
50	0xbd634243	-0.055483114
51	0x3e16327e	0.14667699
52	0x3e46ce36	0.194146
53	0xbe5927d5	-0.21206601
54	0xbd27f3d7	-0.04100403
55	0xbe5098b6	-0.20370755
56	0xbc0e761f	-0.008695154
57	0xbe1d094c	-0.15335578
58	0x3e04bb68	0.12962115
59	0x3d58c01b	0.05291758
60	0x3c7a6889	0.015283712
61	0x3e1ed244	0.15509897
62	0xbe0958c9	-0.13412775
63	0xbb157b44	-0.0022809068
64	0xbe57595d	-0.21030183
65	0xbc77e62d	-0.015130562
66	0xbd4b219a	-0.04959259
67	0x39c32d65	0.0003722712
68	0x3e4804fe	0.19533154
69	0xbe3149c2	-0.17313293
70	0xbe2b3a0e	-0.16721365
71	0xbe471b93	-0.19444112
72	0xbb7e816d	-0.0038834468
73	0xbd1389e9	-0.036020193
74	0x3e214331	0.15748288
75	0xbdecc8dc	-0.115617484
76	0xba78eb22	-0.0009495487
77	0xbdef8947	-0.116961055
78	0xbc10cd3e	-0.008837996
79	0x3cec52c5	0.028848061
80	0xbbeffdb9	-0.0073239473
81	0x3c1d8541	0.00961429
82	0xbe50a6df	-0.20376156
83	0x3e121bb3	0.14268379
84	0x3cdb11ab	0.026741823
85	0x3dbc4352	0.09192528
86	0xbe01eaf0	-0.12687278
87	0x3c66fe33	0.014098692
88	0x3de590b7	0.11209243
89	0x3da4db9e	0.08049701
90	0xbe46f4f9	-0.19429387
91	0xbc54eae1	-0.012995453
92	0xbd743124	-0.059617177
93	0xbd1c1347	-0.03810432
94	0x3c0196c1	0.007909478
95	0xbe4ab306	-0.19794855
96	0xbe3fd624	-0.18734032
97	0x3b7a5b0e	0.0038201245
98	0x3d1a890b	0.03772835
99	0xbe41c878	-0.18924129
100	0xbce53b07	-0.027982248
101	0x3c9b95c3	0.01899231
102	0xbc9522f3	-0.018205142
103	0x3dc3ae18	0.0955469
104	0xbe44a56c	-0.19203728
105	0x3db56cd4	0.08858648
106	0x3d1a134a	0.03761605
107	0x3e275b11	0.16343333
108	0x3cc69ac7	0.024243725
109	0x3daa4835	0.08314554
110	0xbc53163d	-0.01288372
111	0x3e51e035	0.20495684
112	0x3d886002	0.06658937
113	0x3d0b04b9	0.03394005
114	0x3dcbae18	0.09945315
115	0x3d8a55ac	0.06754622
116	0xbe4804df	-0.19533108
117	0x3df50c91	0.119652875
118	0x3e12400d	0.14282246
119	0xbcc7f522	-0.02440888
120	0xbd90e787	-0.0707541
121	0xbddcd508	-0.1078282
122	0x3de52a6f	0.11189734
123	0xbda4246d	-0.0801476
124	0xbce7f828	-0.028316572
125	0x3dca4600	0.09876633
126	0x3d8c2cf4	0.06844512
127	0x3e4bfec4	0.19921404
