Assets/results/petfollower11/PetFollower/checkpoint.pt (torch, 444450 bytes, 36 tensors)

network_body._body_endoder.seq_layers.0.weight f4 [128, 7]
000000 01 fc dd 3c ff aa ea 3d b1 42 06 3f 7b c8 d4 3d
       0.027097704 0.11458396 0.52445513 0.10389801
000010 78 01 53 3d eb 62 76 be b5 9f 07 bf dd 7f 99 3e
       0.051515073 -0.24061172 -0.5297807 0.29980364
000020 fa 00 15 bf 47 42 6e 3d f7 bc fc 3e 8f b8 09 bf
       -0.58204615 0.058168676 0.4936292 -0.5379724
000030 d1 c0 74 3d 9f 6d b6 3c 9c b9 ba bd 00 d9 a2 3d
       0.059754197 0.022269068 -0.091174334 0.07951546
000040 9f df 4e 3f cb 1e 01 3d 34 c9 8b be 62 92 63 3d
       0.8080997 0.031523507 -0.27301943 0.055559523
000050 53 5f 9f 3e bf 19 83 bf 0a c0 29 bd 68 bc 00 3f
       0.31127414 -1.0242232 -0.04144291 0.50287485
000060 75 fe df bd 22 39 60 be 87 02 3f be 66 00 fe bc
       -0.10937206 -0.21896794 -0.18653308 -0.03100605
000070 e2 8b 4e bf ab ee cd 3e 7e df 36 3e 1a ca 73 be
       -0.80682194 0.40221152 0.17858693 -0.23807564
000080 a3 d4 87 be 82 ab ac 3c be 01 72 3e ea f8 77 3e
       -0.26529416 0.021077875 0.23633477 0.24216047
000090 7d 25 cd be 0f b9 d6 be 26 54 e2 be 01 36 e4 3d
       -0.40067664 -0.41938064 -0.44204825 0.11143113
0000a0 9c 3b 0b be 44 2a 89 3d cc d5 0d bf 81 c8 8c be
       -0.13596958 0.06697515 -0.55404353 -0.27496722
0000b0 82 19 29 3f d0 d0 0b 3f c7 ad b2 3e 91 a2 82 3e
       0.66054547 0.546155 0.34898207 0.25514653
0000c0 e6 a3 69 3f 5c 34 34 3e df 7f 8f bc f7 1e 33 3f
       0.91265714 0.17598099 -0.017517028 0.69969124
0000d0 d2 fe 8c 3d 03 5a 2c 3f 40 9f 66 be 5c c3 41 bc
       0.068845406 0.67324847 -0.22521687 -0.011826362
0000e0 62 dd 2b 3e 24 83 0a bf fe bd d7 3e 66 35 92 be
       0.1678367 -0.54106355 0.4213714 -0.28556365
0000f0 c9 c0 80 3d 63 2b 00 3e 48 95 09 3e ba 24 43 3e
       0.06286771 0.1251655 0.13435853 0.19056979
000100 1f 2b 2a bd f0 f4 2f bf 2f 8d b5 3d 6e 4e 36 bf
       -0.04154503 -0.6873312 0.08864819 -0.71213424
000110 a2 e0 37 bf 86 97 e6 3e 05 a2 e7 bc 3b 83 5a 3e
       -0.7182714 0.45037478 -0.0282755 0.21339123
000120 80 ed 14 3f 62 13 08 3e 44 80 cd 3e af 52 f1 bc
       0.58174896 0.13288644 0.4013692 -0.029458372
000130 96 0f 47 3e 12 21 f4 3d 6d 55 d9 3e 9a 9d cc be
       0.1943954 0.1192037 0.42447987 -0.3996399
000140 28 51 53 be af b6 20 bf 52 a7 3c 3e 43 2f c7 be
       -0.20636427 -0.62778753 0.18423203 -0.38903245
000150 f8 ac 56 be 3d 6d f7 be 12 9c 11 bd 3e 4c 92 bd
       -0.2096442 -0.4832553 -0.03554923 -0.07143448
000160 44 1a e7 3e 17 e2 a4 3d d7 45 ef 3d 28 28 6d 3e
       0.45137227 0.08050936 0.11683243 0.2315985
000170 36 8a f9 3d f6 81 ff be 8b fe f2 3e 84 36 18 3e
       0.12184565 -0.4990384 0.47459826 0.14864546
000180 67 7a 9a be c1 52 41 3e bc 4d 96 be 67 8d 2c bd
       -0.3017151 0.18879224 -0.29356182 -0.04212704
000190 e6 b8 14 3b d0 c0 dd 3e a9 61 fe 3e 9c b0 e4 3e
       0.0022693216 0.43311167 0.49683884 0.44665992
0001a0 8c 43 35 be 6b 21 84 3d d3 7e 29 bd ed 59 63 3e
       -0.17701548 0.064516865 -0.041380715 0.22202273
0001b0 7a d6 68 be 74 54 72 be d7 39 28 be 08 22 74 3e
       -0.22738066 -0.23665029 -0.16428314 0.23841107
0001c0 dc e2 8a bd 7e b7 84 bf 9c ad f7 3e 46 9a 58 3d
       -0.06781551 -1.0368497 0.4837464 0.0528815
0001d0 cb ac 9d be 26 38 12 be 92 15 53 3d de ca 0a bf
       -0.30795893 -0.14279231 0.051534243 -0.542158
0001e0 cf 37 36 3e 3e 04 2f 3e 4b 98 e7 3d f3 64 67 be
       0.17794727 0.17091462 0.113083445 -0.22597103
0001f0 93 f5 15 be 82 c5 e4 be 11 14 39 be af b3 a9 be
       -0.1464446 -0.44681937 -0.18074061 -0.331449
000200 01 68 21 bf 5a 91 ec be ed 5b 8a be 1d 3b 0a bd
       -0.6304932 -0.46204644 -0.2702326 -0.03374778
000210 bf b3 f7 bc 2d 21 80 be 74 8e 53 bf 94 63 55 be
       -0.030237077 -0.2502531 -0.8263924 -0.20838767
000220 03 1e 94 3e 5d a4 42 bf fa 56 da 3e 56 b2 5e 3f
       0.28929147 -0.7603205 0.42644483 0.8699087
000230 5e e9 1e 3e fa 47 d0 bd af 2c 65 be c6 0c 29 3f
       0.1551871 -0.101699784 -0.22380327 0.66035116
000240 b8 c1 c7 3e a9 18 a6 bc b4 98 39 be 59 ee 2c 3b
       0.39014983 -0.02027543 -0.18124658 0.0026387183
000250 86 ee eb bd 21 aa 13 bf 34 df 9d be 5b c7 80 3e
       -0.11520104 -0.5768147 -0.30834353 0.25152096
000260 14 a7 54 bf 16 62 7d be 78 f0 e6 3e 62 7a e5 3e
       -0.8306744 -0.24744448 0.45105338 0.44819933
000270 34 63 89 be 02 5f 62 3e a7 77 1f 3f eb 04 75 3d
       -0.26833498 0.22106555 0.6229195 0.059819143
000280 0a e9 3d bf 5b 83 97 be e8 51 20 be 42 be 25 be
       -0.74183714 -0.29592404 -0.15656245 -0.16185859
000290 50 1d 0a be 95 ed 22 3e f2 14 81 3e 3d bb 42 3e
       -0.13487744 0.15910943 0.25211293 0.19016738
0002a0 3e 88 ff be 5e 4a 94 3d 7c 2c dd 3e db b9 e2 3a
       -0.49908632 0.07240747 0.43198 0.0017297821
0002b0 42 f6 0a bf b2 44 c6 3e 21 c6 99 3e 3a 56 e7 3d
       -0.5428201 0.38724285 0.30033973 0.11295743
0002c0 06 a3 c2 3d da 35 ed 3e f3 6d 80 3e b2 2f 15 3e
       0.095037505 0.46330148 0.25083885 0.14568976
0002d0 2b a8 17 be b5 cb d0 3e 5d f5 df bd 05 3d 1b bf
       -0.14810245 0.40780416 -0.10935471 -0.60639983
0002e0 af b6 82 3e df 52 aa be 10 2b 62 3e 06 76 c7 bd
       0.25530002 -0.3326635 0.2208674 -0.09739308
0002f0 f8 17 86 be bc ee db bc 1c d5 55 3f 5c 2c 96 3d
       -0.26190162 -0.026847236 0.83528304 0.0733268
000300 8a f1 4f bf b9 3c c4 3e 48 27 a5 3d 45 3c a4 be
       -0.81227934 0.38327578 0.08064133 -0.32077232
000310 7c b3 21 3d 6d f1 da 3e 29 2f ef 3e d7 1a dd 3e
       0.03947781 0.42762318 0.46715668 0.4318454
000320 3c 1a 9d bd 3d 5b 46 3e a7 fe b4 3e 6c a3 5d bd
       -0.076710194 0.19370742 0.35350534 -0.05411093
000330 99 3c 10 3d 3e 51 59 3e a9 17 88 bd 77 f5 c6 be
       0.03521404 0.21222398 -0.06645138 -0.3885915
000340 c3 01 e8 3d 08 8e a3 be a1 e2 92 3f e7 30 3a be
       0.11328461 -0.319443 1.1475412 -0.18182717
000350 91 68 f0 be 7e 36 5d 3c 60 9c f1 bd 64 af 6d be
       -0.46954778 0.0135017615 -0.11797404 -0.23211437
000360 97 1c 6a 3e 8a 87 34 bf 69 40 37 be 34 f9 b3 bc
       0.22862469 -0.70519316 -0.17895664 -0.021969415
000370 2f da f4 3e 39 6f e9 be cd 8f 6b 3e 5d b6 00 3e
       0.4782271 -0.4559267 0.23004074 0.12569566
000380 b5 d3 4c bf 55 c1 10 bf 72 0e 0d bf 98 49 1a 3f
       -0.8001054 -0.56545 -0.55100167 0.60268545
000390 d3 8d ca 3e 3c 6b 96 3e c0 e1 d8 be d3 e1 79 3e
       0.39561328 0.29378688 -0.42359734 0.24402551
0003a0 00 a1 b1 3e 5e 3f 29 be e6 ce 14 bf a4 da 07 bf
       0.34693146 -0.16528079 -0.581282 -0.53067994
0003b0 f9 35 26 3f 88 84 d2 3c 61 62 5d 3e bd 6f 2e bf
       0.64926106 0.025697961 0.2161956 -0.6813925
0003c0 9a e7 4e 3e 90 49 2d 3f 4f e4 92 be fd 20 8e bd
       0.20205536 0.6769037 -0.2868981 -0.06939886
0003d0 eb ee 45 3f 75 b1 e9 3d e4 4f 1f be d0 b8 fd bd
       0.77317685 0.114108 -0.1555782 -0.12388766
0003e0 a8 06 25 3f 1f c2 b6 3e 16 8a 53 3f 81 da 66 3d
       0.6446328 0.35694978 0.8263258 0.056360725
0003f0 e9 61 c1 be ce 42 c3 39 12 b7 7b 3e 12 51 9c 3e
       -0.37770012 0.00037243072 0.24581555 0.30530602

network_body._body_endoder.seq_layers.0.bias f4 [128]
000000 e8 dc 25 3c c6 e5 85 b9 47 85 f1 bb e4 5a b6 3c
       0.010123469 -0.0002553893 -0.007370624 0.022260137
000010 68 9c 89 3b a5 dd 56 3b 09 5e 6f bc 15 c9 ec ba
       0.0041995533 0.003278592 -0.014609822 -0.0018065298
000020 6b 43 0e bc c4 ef 7d bb 1c 0a 18 bc 87 9f 85 3c
       -0.008683066 -0.0038747648 -0.009279754 0.01631142
000030 77 ea 7d 3c a1 c4 7c bb 0d ed 45 3c d2 0b e0 bb
       0.015497795 -0.0038569348 0.012080443 -0.0068373466
000040 4f 73 df bb 51 cc b5 bb 7e 5d 52 3c e5 34 a7 3b
       -0.006819166 -0.005548038 0.012839673 0.005102741
000050 ff 7b 98 bc 3b 0d 9f 3c 20 f1 25 3b c9 10 f8 bb
       -0.018613813 0.019415488 0.0025320724 -0.0075703603
000060 ee 70 63 3b eb 71 5c bb 51 a3 95 bc 70 05 79 bc
       0.0034704763 -0.0033637236 -0.018266352 -0.01519905
000070 a8 2b c5 bb 57 c5 ec 3b f9 02 bf 3b 96 b0 03 3b
       -0.006017167 0.007225673 0.005829212 0.0020094267
000080 e4 c1 a8 bb 66 b3 9a bc 38 ef 53 3b ae 41 ed bb
       -0.0051500667 -0.018884372 0.003233863 -0.0072404956
000090 22 99 01 3b 67 ae a2 bb e6 b3 50 bc 46 55 03 3c
       0.0019775112 -0.004964638 -0.012738204 0.008015936
0000a0 ba cb b2 b9 42 85 5c 3c bd bd 86 3c 0d 45 8b 3c
       -0.00034102594 0.0134595055 0.016447896 0.0170007
0000b0 fc b3 0b 3c 43 55 8e bb 1f 9b 01 bb e2 f6 1c 3d
       0.008526798 -0.00434366 -0.0019776297 0.038321383
0000c0 44 2b 94 3c 09 83 8b bc 52 2e 1c 3b 3e 01 e8 3c
       0.018087037 -0.017030256 0.002383132 0.028320905
0000d0 5e aa 8b 3b 34 21 a3 38 93 e2 33 bc 55 8b a6 bb
       0.0042622527 7.77863e-05 -0.0109793125 -0.0050825276
0000e0 44 5c b6 bb 38 1f 52 bb d4 40 55 b8 1c 46 e7 bc
       -0.005565198 -0.0032062065 -5.0843533e-05 -0.028231673
0000f0 31 f4 28 bc 30 af 4a 3c 62 55 1e bc bd 19 db bb
       -0.010312126 0.0123708695 -0.009663912 -0.006686418
000100 8d b7 a0 bb 59 1c 3c bc 02 d3 50 bd fc 93 d1 bb
       -0.0049046935 -0.011481368 -0.050982483 -0.006395815
000110 48 d7 82 bb fe 59 88 bc d2 e7 74 ba fb e3 ab 3b
       -0.0039929487 -0.016644474 -0.0009342405 0.0052456832
000120 bf 94 21 bc a2 d8 46 bc c0 2b cb bb 81 4d b6 3c
       -0.009862124 -0.01213661 -0.0062002838 0.022253754
000130 63 16 63 3c 7d 96 0e bc 97 cc fd 3a 59 d7 d3 bb
       0.013860318 -0.008702871 0.0019363341 -0.0064648804
000140 7d 0c bf 3c d7 76 5b 3c c6 76 f8 bb 5c 1a ae bb
       0.023321385 0.013395033 -0.0075825183 -0.005313201
000150 1b 58 db 39 e5 7d f0 3b 76 af 6c 3b fd de 71 bc
       0.0004183658 0.0073392265 0.0036115325 -0.014762637
000160 d5 2c ee bb 09 55 94 b9 2b 3a a2 3c 45 8e 71 3b
       -0.007268528 -0.00028292116 0.019803127 0.003685848
000170 f0 e1 51 bc 5a 9a ea 3a cd e1 06 3c b3 35 60 bb
       -0.012810215 0.0017898784 0.008232546 -0.0034211695
000180 a4 70 12 3c f3 43 98 bb a0 dd 8f 3c c5 9c bd 3b
       0.008937988 -0.004646772 0.017561734 0.0057865107
000190 86 9b 99 bc 28 ca b0 3b b3 60 d2 bc 53 82 2f bc
       -0.018750917 0.0053951927 -0.025680875 -0.010712224
0001a0 45 e0 1f bc 92 9f 45 bc c6 ec 22 3c 4b c4 1c 3c
       -0.00975806 -0.01206197 0.0099441465 0.009568284
0001b0 62 c1 2f 3c cc 36 f6 3b 50 b8 f2 bc 62 c3 aa 3b
       0.010727258 0.0075138565 -0.029628903 0.0052112797
0001c0 af 49 9d bb c3 50 46 bc ff 90 cc bb ee db 7f 3b
       -0.0048000435 -0.012104216 -0.006242871 0.0039041
0001d0 aa 2e 81 b8 35 4e e3 3b a2 7a 9f bb c7 bd e2 bb
       -6.159891e-05 0.0069368132 -0.004866914 -0.006919596
0001e0 0e ec 09 bc 94 8e ff bb b3 a7 2b 3d fd 46 9a 3c
       -0.008418096 -0.007798979 0.041907977 0.018832678
0001f0 f9 b6 f2 bb f7 69 aa ba 19 92 2b bc f6 97 ff bb
       -0.007407066 -0.0013001551 -0.010471844 -0.0078000976

network_body._body_endoder.seq_layers.2.weight f4 [128, 128]
000000 cd 5d 01 be 5c 21 4b 3b f3 3a 4d 3e 19 ae 2b 3d
       -0.12633438 0.0030995226 0.20042019 0.04191408
000010 33 41 5d 3c 7e 4c 56 3d 9c 16 0b be 8f b1 fb 3c
       0.013504314 0.052319042 -0.13582844 0.030724315
000020 73 ce 26 bc 22 be 14 be 3f 3b b2 3d c8 5f a6 3d
       -0.010181057 -0.14525655 0.087027065 0.081237376
000030 c6 30 88 bd c7 c0 15 bd d4 47 2c bc 3e 1e 6d bd
       -0.06649928 -0.0365608 -0.010515172 -0.05789017
000040 c0 91 8b bd 60 ab 0d bc 59 b9 78 bd ac 43 6c be
       -0.06814909 -0.008646816 -0.060723636 -0.2307269
000050 e1 3a 9e bc 07 d7 c3 3a b4 d8 b8 3d 82 de 84 3d
       -0.019315185 0.0014941402 0.09025708 0.064877525
000060 c2 03 a0 3d 85 7f 26 3e 2c 9c cc bc 03 3b 9e bd
       0.07813217 0.16259582 -0.024976812 -0.07726099
000070 71 9d ce 3d 00 cb 19 be 95 cf 1f bb 10 10 25 3c
       0.10088623 -0.15018845 -0.0024385203 0.01007463
000080 3d dc 22 3e e9 9f f8 3d 62 ee b1 bb 90 d4 08 3d
       0.15904327 0.121398754 -0.005430029 0.03340584
000090 18 ab 3f 3e 0f a3 14 3d ba 6c da bc dd a7 64 3d
       0.18717611 0.036288317 -0.026663173 0.05582415
0000a0 7a 3c 3a bd 7c b8 fb 3d db 75 0a bd 4e e4 08 3e
       -0.04546783 0.12291047 -0.033803802 0.13368341
0000b0 90 75 86 3c b3 fe be bd ec bd 88 3d a7 05 14 3e
       0.01641348 -0.09325924 0.0667685 0.14455281
0000c0 fc 61 88 bd 58 51 8b 3d 2d 73 8b bd 78 ab 94 3d
       -0.06659314 0.068026245 -0.068090774 0.072592676
0000d0 5b 4d ce bd 67 9e b0 3d aa a8 3c bb 01 e1 75 3e
       -0.10073348 0.08623963 -0.0028787055 0.24011613
0000e0 d7 18 0e 3c 34 29 5d bd 3d 01 f7 bc c5 f0 e8 3d
       0.0086729145 -0.053994372 -0.030151958 0.11374048
0000f0 a2 f5 c7 bd c3 3c 1b be ad c7 29 3e 72 3e 33 bd
       -0.097636476 -0.15159898 0.16580077 -0.043760724
000100 83 69 a5 bc c4 90 b4 bd 60 96 59 3d b8 e1 4a be
       -0.020191913 -0.08816674 0.053121924 -0.19812667
000110 37 95 a0 3d 4e f6 f0 3d 3e a3 ed bd c2 6d 25 bc
       0.078409605 0.11765729 -0.116034016 -0.010096969
000120 9a 7b 28 3e 4f 9c 04 be e5 1c 67 bd 58 9f bd 3d
       0.164534 -0.12950252 -0.05642404 0.09258908
000130 91 58 29 3d df ac ff 3d 99 e0 de 3d 8b 7f f3 bd
       0.04134423 0.124841444 0.10882682 -0.11889561
000140 bb bf bb bd 87 65 f2 bd a3 fc 9b 3c 6f 1c 25 bd
       -0.09167429 -0.11835771 0.019041365 -0.04031032
000150 47 6f 6e 3e 4a 95 9d 3d b4 f5 fb 3c eb 0c 83 3c
       0.23284636 0.0769449 0.030756809 0.01599737
000160 b6 26 ab bc 80 de a9 3c ea ed 32 3d fe 6a dc bd
       -0.020892482 0.02073598 0.043683924 -0.10762595
000170 30 84 ef 3d 52 09 0b 3e 20 69 82 bc 37 78 f7 bc
       0.11695135 0.13577774 -0.015919268 -0.03020869
000180 6e e7 bd bd a3 f4 ad 3d dc ab 69 bd 84 9a 0e 3e
       -0.09272657 0.084939264 -0.057048663 0.1392613
000190 40 47 17 3e af a6 0a 3d 0f e2 e9 bb 0e 12 e3 bd
       0.14773273 0.033850368 -0.007137544 -0.11087428
0001a0 9f 1b fb bc d9 34 e0 bd 98 81 fd 3c e4 b1 ba 3d
       -0.03065282 -0.1094758 0.030945584 0.09115961
0001b0 85 d2 13 3e 57 4e 2e 3d 6b 0b 86 3d c0 79 ef bd
       0.14435776 0.04255518 0.065451466 -0.11693144
0001c0 0a 2d fd 3c 91 9e c3 bd bf 4b 9c 3d f7 78 ca 3c
       0.030905265 -0.095517285 0.07631635 0.024715884
0001d0 9a 01 91 bc 5f 1d 26 3e a5 43 24 3d 05 a1 1f 3e
       -0.017700959 0.16222142 0.040103573 0.15588768
0001e0 3f b2 86 bc 1c 87 05 be 30 e0 6a bd 59 81 04 3d
       -0.016442416 -0.13039821 -0.057342708 0.032349918
0001f0 96 01 52 3d b3 97 4d 3e 17 0c 94 bd 3e 74 bb bd
       0.051271044 0.200774 -0.072288685 -0.09153031
000200 b3 98 0b 3d cb 04 77 bd 28 68 c3 bd 8d b3 27 bc
       0.034081172 -0.060307305 -0.095413506 -0.010235679
000210 40 09 2c 3d 52 c6 d4 bd 01 c4 a3 bc d4 d1 77 bd
       0.04200101 -0.10389389 -0.019990923 -0.060502842
000220 36 b9 00 bd ea aa d2 3d a0 5c a7 3c 16 dc 99 3d
       -0.03142663 0.102865055 0.02042991 0.07512681
000230 05 85 bc 3d dd 20 75 3e 55 15 0a be 38 6c e1 3d
       0.09205059 0.23938318 -0.134847 0.11006969
000240 27 7e c7 bb 24 13 2d bd 7e 2b 3e 3e 59 06 08 be
       -0.0060880366 -0.042254582 0.18571278 -0.13283671
000250 79 f6 56 bd 71 24 1a bd a4 2d 1f bd 0a 53 32 3d
       -0.05248115 -0.03763241 -0.038861886 0.043536223
000260 85 db c9 bd 72 c0 23 be 42 80 f5 3d 4d 4b 34 3d
       -0.09856323 -0.15991381 0.11987354 0.044017125
000270 f9 bb d4 bd 1f 15 00 3e 3d 00 c4 bb d2 a9 2e 3d
       -0.103874154 0.12508057 -0.0059814737 0.042642422
000280 86 8b 8f 3c 2e 1b ce 3d 01 c6 37 3d af 89 2f be
       0.017522585 0.10063778 0.044866566 -0.17142366
000290 0b 83 00 3e 44 ed 8b bd 9c c3 f9 3d e3 a6 83 bc
       0.12549989 -0.06832364 0.12195513 -0.016070789
0002a0 d0 92 10 3d 3c 0d 18 bb ec 2a cb 3c 6b 19 8a bc
       0.03529626 -0.0023201248 0.02480074 -0.016857823
0002b0 9c c1 a4 bd fc 61 78 3c 68 f4 07 be 00 d0 2e bd
       -0.080447406 0.01516008 -0.13276827 -0.042678833
0002c0 48 c2 a5 3d 28 21 9e 3d 47 c8 ad bc 2f f6 be 3c
       0.08093697 0.07721168 -0.021213664 0.023310749
0002d0 48 b1 81 bd b6 a1 71 3c 52 1a 17 3e ff 45 54 bd
       -0.06332642 0.014748028 0.14756134 -0.051824566
0002e0 8c ef 69 bc 77 39 26 bd 99 7a 57 bd cf a9 6b bd
       -0.014278304 -0.040582146 -0.052607153 -0.05753499
0002f0 4e 48 36 3e f0 27 50 bd 82 96 9c 3b 4b 96 19 3e
       0.1780102 -0.050819337 0.004778684 0.14998738
000300 93 a7 05 3c 9b c6 1e be b1 6d 58 bd f9 64 89 bd
       0.008157629 -0.1550545 -0.052838985 -0.06708712
000310 7f ef 94 3c 4a d0 fb bd 1f 2e 22 be d8 72 11 bc
       0.018180607 -0.12295587 -0.15837906 -0.008877479
000320 5d 98 57 3d 0b d2 a1 bd 03 ff 8f 3d 81 4d fa bd
       0.05263554 -0.07901391 0.070310615 -0.12221814
000330 2c 79 05 bc 89 c2 72 3d f5 9c 1c 3e 51 4a 46 bd
       -0.008146565 0.059267554 0.1529425 -0.048410717
000340 95 9a cb 39 81 10 aa 3d 8c 79 91 bc 57 a4 7e 3d
       0.0003883435 0.08303929 -0.017758153 0.062168445
000350 49 1a 97 bb 32 bc e1 3b f5 6c d7 bc 18 98 f6 3c
       -0.0046112877 0.0068888897 -0.026297072 0.03010182
000360 6b 6f 3a bd ce cf 8c 3d a2 b7 44 bd 82 16 2e bd
       -0.045516413 0.06875573 -0.04802669 -0.042501934
000370 a4 08 1c 3e 2e 01 a0 3c 12 ee 44 bd f1 59 a2 3d
       0.15237671 0.019531813 -0.048078604 0.07927311
000380 0f 43 80 3e 15 5d a3 3d 89 6a a3 3c ce 2d a1 bb
       0.25051162 0.07976738 0.01994826 -0.0049187904
000390 93 28 07 3c 4b e8 9b bd ba a0 32 bd 1e 8c aa bc
       0.00824942 -0.07612666 -0.043610312 -0.020818766
0003a0 f8 0b 3a be 64 69 e9 3a 6f 07 94 bc 03 d2 83 3d
       -0.18168628 0.0017807898 -0.01806995 0.06436541
0003b0 b3 27 5f bd b5 a5 9b bd 39 60 71 3c eb 00 a4 bc
       -0.05448122 -0.075999655 0.014732414 -0.020019969
0003c0 d3 cd 83 bd 69 a1 de bb aa 53 1b 3e 8b 77 d9 3c
       -0.06435742 -0.006794144 0.15168634 0.02654626
0003d0 df 02 3e 3d 80 d4 0e 3e 60 d3 bc 3c 63 16 25 3e
       0.046389457 0.1394825 0.02305001 0.16121821
0003e0 83 80 22 3d 8d 1c 51 3c d9 b5 ae bc 2f 0f f0 3c
       0.03967334 0.012763155 -0.021326946 0.029304115
0003f0 86 cb db 3d 51 28 9e bc d1 62 ec bd e1 1f 66 bd
       0.107321784 -0.019306334 -0.11542285 -0.056182746

network_body._body_endoder.seq_layers.2.bias f4 [128]
000000 79 94 77 bb cf 0c b7 3a ca 70 ef b9 d5 ab c9 3c
       -0.0037777706 0.0013965609 -0.00045669667 0.024618069
000010 ba f9 64 bb 15 60 89 3c 22 98 df 3b 4c b0 50 bc
       -0.0034938888 0.016769448 0.0068235556 -0.012737345
000020 7a 4f 19 bc 44 35 28 3b 09 2e a2 3a 24 c0 1b 3c
       -0.009357328 0.0025666514 0.0012373339 0.009506259
000030 ce 43 9b bb fd 73 36 3c ee 51 aa 3c d4 c1 4e 3b
       -0.0047383076 0.011136052 0.02079102 0.0031548636
000040 67 28 bf bb 08 da 27 bc a8 fb dc bb f2 d3 6a 3c
       -0.0058336738 -0.010244854 -0.006743867 0.014332758
000050 85 58 4b bc f7 3e d3 3b 87 6c 29 bc 46 b7 a8 bb
       -0.012411241 0.006446715 -0.010340816 -0.005148801
000060 9b a8 90 3b 19 57 bf 3b 9c 92 5e 3c 85 ae ce bb
       0.0044146306 0.0058392403 0.013584759 -0.0063074254
000070 59 be af bb 4f ae ee b9 91 93 4d 3b 36 33 c3 bb
       -0.0053632674 -0.00045524767 0.0031368474 -0.0059570326
000080 f7 44 ce ba c1 c9 8e 3c 5f 7d 44 bc ef 3b c7 3c
       -0.0015737106 0.017430188 -0.011992781 0.02432057
000090 4d 4b 34 bc 24 29 93 3c b8 21 a4 bb 64 47 15 bc
       -0.011004281 0.017963953 -0.0050089024 -0.009111259
0000a0 e8 e6 80 3b 3a 3c 84 3c 71 01 9d 3b 00 c3 37 3c
       0.003933776 0.016142 0.0047914316 0.011215925
0000b0 11 cb 31 3c e5 ea 99 bb 32 f5 d6 bb 47 2a 6a 3b
       0.010851637 -0.004697191 -0.0065599913 0.0035730766
0000c0 97 5b 6b bb ff 77 f3 bb ea ac 07 bb 8c b4 16 bc
       -0.0035912746 -0.007430076 -0.002070243 -0.009198319
0000d0 a5 92 93 3b a0 d6 b2 bb 53 e4 69 3c a7 13 af 39
       0.0045035654 -0.005457714 0.014275628 0.00033393243
0000e0 2b fa f0 3b 16 58 08 3b a9 1a d0 ba cf 19 8d 3c
       0.007354041 0.0020804456 -0.0015877086 0.01722422
0000f0 8b 73 d4 ba 80 b6 39 bc 7b 69 5b bb ff b3 e6 bb
       -0.0016208751 -0.011335015 -0.003347962 -0.0070405
000100 b4 17 47 3c 2a 64 bf bc 3e 41 95 bb 99 8b 15 3c
       0.012151647 -0.023363192 -0.0045548966 0.009127521
000110 81 2e 3c 3b 79 ce 74 3c 54 b6 89 3c da 4f 1f 3c
       0.0028714242 0.014941805 0.016810574 0.009723628
000120 78 1e 0f bc e3 34 cf bb 01 ca 11 bc de 8a 68 3c
       -0.008735292 -0.0063234433 -0.008898259 0.014193265
000130 f5 68 1e bc b0 7e 0a bc 2e 10 8e 3b d8 aa 32 bc
       -0.009668578 -0.008453056 0.004335425 -0.01090499
000140 70 92 f4 bb ae 75 1a 3b 81 69 23 bc ce ba d6 b9
       -0.007463746 0.0023568678 -0.009973885 -0.0004095644
000150 4c 34 2f bc 4f 40 b1 bb 5c 59 83 bc 2b e3 f8 3a
       -0.010693621 -0.0054092775 -0.01603382 0.00189886
000160 77 a2 10 bb e0 55 45 ba 7c c2 04 bb d0 2f 9b 3b
       -0.0022069493 -0.000752775 -0.0020257523 0.0047359243
000170 d6 61 4d bb 7b 00 8e bb cd 18 73 3c 99 01 0e 39
       -0.0031338832 -0.0043335534 0.014837456 0.0001354277
000180 99 33 59 3b 5b 6d 90 ba ae 5f 0d 3c 5d 7d 32 bb
       0.0033142327 -0.0011018919 0.008628769 -0.0027235367
000190 5c ba c9 bb 4b 9a b1 3a d3 fd 6a 3c 06 e1 c6 3a
       -0.006156249 0.0013550011 0.014342743 0.0015173263
0001a0 fa eb 81 b9 26 c2 1a bc f7 66 ea 3b fc 6d 8b bc
       -0.00024780614 -0.009445703 0.0071533876 -0.017020218
0001b0 ea 7b 81 3b 72 98 7d 39 dd ff 66 3a 4d c2 8d bb
       0.0039515393 0.0002418475 0.00088119303 -0.004326141
0001c0 8e 60 3a ba e4 83 c3 bb 52 06 04 bc e7 97 42 3a
       -0.00071097247 -0.0059666503 -0.0080581475 0.0007423148
0001d0 d9 69 1f 3c 59 36 97 3b cf 38 29 bc 98 66 11 3b
       0.009729826 0.004614633 -0.010328486 0.0022186395
0001e0 7a 6d ba bb 03 ef 09 bc 8e ca a2 bc e8 93 40 3c
       -0.00568932 -0.008418801 -0.019871976 0.011754014
0001f0 56 51 0a 3c 46 18 b8 bb 4b 1b c6 3c f9 26 53 3c
       0.008442244 -0.005618128 0.024182936 0.01288771

action_model._continuous_distribution.log_sigma f4 [1, 2]
000000 4d 2b 1b bd 3e fc 3e 3c
       -0.03788309 0.011656819

action_model._continuous_distribution.mu.weight f4 [2, 128]
000000 62 ef 2d bc ea cc 53 bb f8 f0 28 bd af 1c 94 bb
       -0.010616155 -0.0032318183 -0.04124543 -0.004520021
000010 d0 79 93 3b 98 43 f4 bc 8c fa 1e 3d 85 7f 32 3d
       0.004500605 -0.029817387 0.03881316 0.043578643
000020 ab b4 b3 3c 51 2b 1a b9 34 39 36 3b 2a 37 0c 3c
       0.021936735 -0.00014702721 0.0027805092 0.008558074
000030 fe 7c 71 3c 64 54 9b 39 ba 67 58 bc 35 28 96 bc
       0.014739273 0.0002962678 -0.013208324 -0.01832972
000040 89 d3 81 3c 91 66 1d bc 79 06 d7 3c e5 65 30 bc
       0.015847938 -0.009606973 0.026248204 -0.010766481
000050 14 7d 02 3b da 04 8d 3c 86 5b a0 bb b2 a4 ff 3c
       0.0019910978 0.017214227 -0.004893723 0.031206463
000060 a6 c1 d4 bb cb c5 06 3d e8 24 bc 3a 07 a4 2a 3c
       -0.0064928113 0.032903474 0.0014354261 0.010415084
000070 fa c0 32 ba b9 54 2c 3c a9 ad b4 3c f7 3a c2 ba
       -0.0006818917 0.010518246 0.022055464 -0.0014818598
000080 e6 fb b1 bc da 58 4b 3c 65 72 b2 3c 9f 0a c4 3c
       -0.02172656 0.012411321 0.021783063 0.023930846
000090 16 c3 91 3c 8d bd e9 3c d1 f4 80 bb b4 97 0e 3d
       0.01779322 0.028532768 -0.0039354344 0.034812644
0000a0 4a 14 9c bc ff aa a0 3b 21 33 aa bc 7b 1b 20 3d
       -0.019052643 0.004903197 -0.020776333 0.039088707
0000b0 87 7e 97 3a 51 ad b6 3a fb 42 4c 3c e0 a6 90 bc
       0.0011558094 0.001393715 0.012467141 -0.017657697
0000c0 82 c7 d8 bb ae 33 04 3c 64 e7 64 3c 9c 79 4a 3c
       -0.00661558 0.008068962 0.013971183 0.0123580955
0000d0 42 22 bc bb de e4 b5 3c 9c 48 87 bc 5f 32 5a 3c
       -0.0057413885 0.022203859 -0.016514115 0.0133176735
0000e0 20 85 d8 3b 21 16 09 3c 03 cc 87 bc dc 89 98 bc
       0.0066076666 0.008367092 -0.016576773 -0.018620424
0000f0 1f da 10 3d 7c c9 96 3b a9 4f 23 bc d8 d8 1c 3b
       0.035364266 0.0046016555 -0.009967723 0.002393296
000100 08 32 d6 b9 e9 2a b5 bb 36 ea e0 3c ab 01 8e bc
       -0.00040854537 -0.005528797 0.02745543 -0.01733478
000110 31 19 de bc 76 d0 29 3b 1c ea 09 bd f3 ec c2 bc
       -0.027111622 0.0025911606 -0.03367053 -0.023794627
000120 76 d7 58 3c b2 f4 aa 3c a7 f1 df 3b 39 36 c1 b9
       0.013234964 0.020868633 0.006834227 -0.00036852228
000130 9b 18 8b 3c 09 49 91 3b 89 b9 96 3c e3 94 3f 3d
       0.016979506 0.0044337553 0.018399017 0.04677285
000140 eb 07 4e bb f4 81 68 bb b1 80 3a 3d c1 84 80 bc
       -0.0031437825 -0.0035477849 0.045532886 -0.015688302
000150 52 bf 9b 3c 4a 98 18 3d 91 48 bc bc e4 5d 48 3c
       0.019012127 0.03725461 -0.022983821 0.0122294165
000160 15 7f c1 bc 8f 7e 3d 3a 9f 6d b4 bb ea 6a 6b bc
       -0.023620168 0.00072286365 -0.005506232 -0.014368752
000170 84 16 5b 3c 43 fa dc ba e6 86 21 bb b1 b8 dd bc
       0.013372067 -0.0016859252 -0.0024647056 -0.027065607
000180 64 42 0b bc 7d f5 42 bc 3b d5 97 bc 73 9f c9 3b
       -0.0084997155 -0.011899349 -0.018534293 0.006153041
000190 7c ee 1b bc 5c 14 c4 3b b4 3d 97 ba 2e 0a a7 3c
       -0.009517308 0.0059838723 -0.0011538775 0.020390596
0001a0 05 13 55 3c 6d 02 5a bb 1e 98 15 bc 3b 93 03 3d
       0.013005023 -0.0033265606 -0.009130506 0.03212283
0001b0 06 c6 49 ba 81 4a 98 bc e0 17 c0 3b dd fc c4 bb
       -0.00076970493 -0.018590214 0.005862221 -0.006011589
0001c0 89 77 8c 3b 60 64 27 bb 4a fe 10 3d 75 06 e3 bc
       0.0042867106 -0.0025542006 0.03539876 -0.02771304
0001d0 7d a6 39 3b 66 08 6d 3b 97 11 d1 3a 71 64 25 bc
       0.0028327995 0.0036168336 0.0015950677 -0.010094748
0001e0 0e 3c fc 3c 7a 02 59 3c 22 b4 e6 bb 94 a5 bd bc
       0.030790355 0.013245219 -0.0070405165 -0.023150243
0001f0 e4 63 0f 3b 42 e4 dd 3c 48 74 02 3c d9 41 05 3b
       0.0021879608 0.02708638 0.007962294 0.0020333438
000200 6e 86 14 bb 98 19 96 3a 80 bf 19 3d 8c 6f 2b bc
       -0.0022663134 0.0011451719 0.037536144 -0.010463607
000210 d2 c4 16 3c 1e 2a a6 bc 73 e2 01 3c b5 bd bf 3c
       0.009202199 -0.020283755 0.007927525 0.023405889
000220 86 cb 69 3b fc 72 37 3a 82 ce a5 bc 78 d3 58 bc
       0.0035674288 0.000699803 -0.020240072 -0.013234012
000230 cf 4f d7 3a 78 71 b3 bc e1 2d 09 bc a7 68 7d 3b
       0.0016426983 -0.021904692 -0.008372755 0.0038667114
000240 04 2c 33 bc cc b9 76 3c 92 06 03 3c a4 1c 0b bd
       -0.010935787 0.015058946 0.007997172 -0.03396286
000250 e5 8a 9d 3c 87 97 c3 3a 68 33 1f 3d 5e b9 75 bc
       0.01923127 0.0014922478 0.038867384 -0.014997808
000260 cc 4d e6 bb c9 60 55 3b 21 a3 d5 bc 20 63 3b bb
       -0.007028317 0.003255891 -0.026078762 -0.0028593019
000270 44 6e 80 3c 16 9f d6 bc 82 3b d2 3c c3 ba 2b 3c
       0.015677579 -0.026198905 0.025663141 0.010481539
000280 5f 9d 14 3c 1e 8e 57 bb 97 cd ab 3c 86 a6 e8 b8
       0.009070723 -0.0032891105 0.020972056 -0.000110936395
000290 6a c9 eb 3c 8f 52 5a bb 98 72 cb 3c 69 d0 86 3c
       0.028782565 -0.003331337 0.024834916 0.0164568
0002a0 71 41 08 ba e8 a3 4f bd 34 e3 de bb 04 36 2c bc
       -0.000519774 -0.050693423 -0.006801987 -0.010510925
0002b0 6c 23 b8 3c 27 26 0d 3d 80 79 8f bb 5d 6d 66 3b
       0.022477828 0.034460213 -0.0043784976 0.00351604
0002c0 62 60 c4 3c e6 10 60 3c 8b 35 31 3d 55 ce 96 ba
       0.02397174 0.013675904 0.043263953 -0.0011505584
0002d0 21 66 16 bc 76 f1 0a 3c 3b 2f 52 bc 0f 6b 92 3a
       -0.009179623 0.00848042 -0.012828643 0.0011170822
0002e0 7a 1e b7 bc 5c 9b 47 3a 05 21 2b 3c de c0 e6 bc
       -0.0223534 0.0007614398 0.010444884 -0.028168138
0002f0 20 98 b8 bb 9b d1 09 3b 3d d3 ff b9 11 33 15 3c
       -0.005633369 0.0021029476 -0.00048794775 0.009106413
000300 1d 5c ba bc 52 41 e1 3c e4 54 02 3b 86 62 93 bc
       -0.022749001 0.027496967 0.0019887025 -0.017991316
000310 d6 9f d0 bc e0 74 3d bd 6b 1f dd bc 48 d7 46 bc
       -0.02546684 -0.04625404 -0.02699252 -0.012136288
000320 ba 24 55 3c 04 b6 bf 3b f3 07 59 3c d1 94 60 bb
       0.013009245 0.0058505554 0.013246524 -0.003426839
000330 54 ff 09 3c db 1d 10 3c 6f 61 fd 3c 12 ea 18 3c
       0.008422691 0.008796181 0.030930249 0.00933315
000340 df f9 52 3c e7 00 21 bc b7 20 1c 3d cc 75 c7 b9
       0.012876957 -0.009826875 0.038117137 -0.00038044003
000350 cf 5d 0c 3d 9e ab 9c 3c 84 e6 d3 3b 32 f2 e6 bc
       0.03426915 0.019124802 0.0064666886 -0.02819166
000360 81 b5 14 3d e2 15 14 bb 10 7d 3d 3d 30 ae ba bc
       0.036305908 -0.002259605 0.046261847 -0.022788137
000370 c1 fc e5 3c f8 9b 45 ba ff 21 11 bc 6e 79 b5 3c
       0.028074624 -0.0007538195 -0.008858203 0.022152629
000380 99 9f a6 bb 56 e5 99 3c 7e df a7 bc 33 13 4e bc
       -0.0050849435 0.018786114 -0.020492312 -0.01257782
000390 66 a6 c3 3c c8 90 0f 3c 40 98 58 bc e3 7f 3c bd
       0.023883056 0.008762546 -0.013219893 -0.0460204
0003a0 bd 21 8a 3c fd 72 a7 3b 05 13 a8 bc ab 9e e5 3c
       0.01686179 0.005110143 -0.020516882 0.02802976
0003b0 b0 14 19 bd 86 44 c0 3b 8b 01 c5 3c 3f e5 70 3c
       -0.037373245 0.0058675436 0.024048587 0.014703094
0003c0 e5 7b 63 bc 19 f6 35 3b b2 50 8e 3b 91 39 e0 3b
       -0.013884519 0.0027765094 0.0043431157 0.0068428
0003d0 f3 46 de bc 5c 26 5d bc e0 a6 26 ba 31 d7 c0 3a
       -0.02713344 -0.013497915 -0.0006357264 0.001471257
0003e0 5f 98 64 bc d2 21 01 3c c5 60 84 3c 97 56 e3 bc
       -0.013952344 0.007881599 0.016159425 -0.02775125
0003f0 b7 0d dc 3a 9d 0f fd bb 65 db ba bc ab cd 97 3b
       0.0016788755 -0.0077228085 -0.022809694 0.004632672

action_model._continuous_distribution.mu.bias f4 [2]
000000 78 4e c5 bb 55 f8 0f bc
       -0.006021317 -0.008787234

exp_avg f4 [128, 7]
000000 59 26 4e b6 8a 83 83 b2 31 6d 45 34 c6 bf 0e 37
       -3.0718713e-06 -1.5310224e-08 1.8386778e-07 8.50851e-06
000010 0e 99 e5 b3 7f a3 1a 37 84 04 c5 37 7d 70 65 ba
       -1.0691484e-07 9.217182e-06 2.3486333e-05 -0.0008752419
000020 66 d6 96 b6 5c 90 eb 38 a8 47 ff 39 c3 45 1f 35
       -4.4953076e-06 0.00011232562 0.00048690778 5.933363e-07
000030 51 22 50 3a 8f a9 da 3b 28 b7 7f 3a 32 98 a7 36
       0.0007939684 0.006673045 0.00097547704 4.9947057e-06
000040 8a a2 27 38 f7 ae d5 b9 e4 9c 4a b6 ab 35 21 ba
       3.996728e-05 -0.00040756885 -3.0191668e-06 -0.000614966
000050 63 8d fa bb 16 1e 82 3a 8b 97 a1 36 32 69 8a b8
       -0.007646249 0.0009927179 4.815816e-06 -6.599947e-05
000060 e7 59 24 ba 33 6f 0d 34 b0 8b b6 ba e1 de 02 bc
       -0.00062695 1.3172102e-07 -0.0013927128 -0.007987709
000070 4e 95 20 3b ea 67 4b 37 fb 4b 37 b9 51 53 9e ba
       0.0024503055 1.2123937e-05 -0.00017480545 -0.0012079274
000080 fc f2 60 b6 e8 70 2f bb 63 07 9f bc 4c 5a df 39
       -3.3520037e-06 -0.0026770178 -0.019412702 0.0004260115
000090 be 2e 05 36 6f 4f 96 b8 f4 0c e4 b8 43 46 52 b4
       1.9845752e-06 -7.167353e-05 -0.000108743 -1.9583335e-07
0000a0 ca 98 30 ba 38 e7 68 bb 94 62 31 ba 51 b0 67 b6
       -0.00067366345 -0.0035538208 -0.00067667034 -3.4524312e-06
0000b0 11 95 4d 39 2a 36 82 39 fd 06 e4 b5 99 4f 5a 3a
       0.00019605855 0.00024835888 -1.6989358e-06 0.0008327901
0000c0 9b 51 b0 3b 04 23 a2 38 4e 56 00 35 a2 78 80 b7
       0.005380822 7.731284e-05 4.7809306e-07 -1.5314963e-05
0000d0 11 8e 75 38 6e 31 15 b5 42 ea c0 38 6b b6 2e ba
       5.854486e-05 -5.5578755e-07 9.198907e-05 -0.00066647556
0000e0 79 fb 0e 3a 05 87 32 36 ad fd 08 b8 37 a9 80 b9
       0.00054543425 2.6602659e-06 -3.266118e-05 -0.00024540137
0000f0 85 a1 0f b6 d5 8e 1e ba 09 97 89 bb 1e 22 5c 39
       -2.1402677e-06 -0.00060485053 -0.004198913 0.00020993545
000100 64 72 8f 35 d6 9d ef 37 b4 77 53 b9 76 ab b2 b5
       1.0687622e-06 2.8564518e-05 -0.00020167121 -1.3311935e-06
000110 c7 11 30 b9 a9 73 c6 ba 1f 95 09 38 89 45 5d 34
       -0.0001679129 -0.0015140671 3.2802225e-05 2.0607526e-07
000120 71 7f be 38 bb 8a 3f b8 7d be d1 b4 a9 3e ab 39
       9.083644e-05 -4.566715e-05 -3.9067882e-07 0.00032662347
000130 6a e6 7e b9 99 13 83 b8 20 17 b3 b4 b6 f1 3c b7
       -0.00024309164 -6.250217e-05 -3.3358174e-07 -1.1261951e-05
000140 9f ac c2 37 cb c6 ba 34 9e 2a ca 37 ab 56 f8 39
       2.3206985e-05 3.478984e-07 2.4100122e-05 0.0004736682
000150 07 31 af 39 97 41 bb 35 fc f4 1a b9 1b c1 3a b9
       0.0003341513 1.3951675e-06 -0.00014777848 -0.0001781028
000160 b8 a9 ea 35 68 c6 6f ba de 7e 39 bb 96 18 df 39
       1.7483753e-06 -0.00091466913 -0.0028304379 0.00042552192
000170 14 8c 13 36 a1 c2 44 b8 a3 bc 8b b9 db 65 0f 35
       2.1986243e-06 -4.6911304e-05 -0.0002665269 5.341987e-07
000180 65 bd c0 b9 44 f5 58 bb c5 3b 96 39 0f 6e d8 35
       -0.00036762204 -0.0033105174 0.0002865476 1.6125285e-06
000190 12 9a fa 36 9a 80 5c b9 44 5c 05 34 77 8f 18 b9
       7.4685167e-06 -0.00021028743 1.2420156e-07 -0.00014549294
0001a0 db 75 06 bb d6 f4 72 3a d1 15 97 36 24 fb 3b b9
       -0.0020517025 0.0009268051 4.5026904e-06 -0.00017927267
0001b0 23 29 d3 b9 92 df ee 34 41 ac 9c ba 70 a7 f3 bb
       -0.00040275705 4.4493623e-07 -0.0011953191 -0.0074357316
0001c0 80 1a 1a b8 02 58 3c b4 a4 40 ce 38 2c eb 80 b8
       -3.674114e-05 -1.7540881e-07 9.834886e-05 -6.14732e-05
0001d0 a5 eb 38 b5 cd 0c 4a 39 b6 99 a3 39 8c 80 be 37
       -6.888825e-07 0.0001926899 0.00031204306 2.2709624e-05
0001e0 b2 75 cb 33 03 49 91 b6 95 60 f0 b7 9e a5 15 34
       9.474333e-08 -4.3298364e-06 -2.8655204e-05 1.3936958e-07
0001f0 59 53 5a b8 fd 54 40 b9 a9 5d 24 b9 2b 31 6e b5
       -5.2052874e-05 -0.00018342207 -0.0001567515 -8.873346e-07
000200 6d a0 58 b8 c7 bc af b8 78 c3 76 36 71 86 0d b9
       -5.164782e-05 -8.379813e-05 3.6770634e-06 -0.00013496891
000210 54 6c 93 3a 38 81 5b 3a 04 e5 83 36 50 cf 2a b9
       0.0011247494 0.0008373442 3.930765e-06 -0.00016289693
000220 15 58 cc b9 17 24 93 35 3c 75 b2 ba c5 d8 e0 bb
       -0.00038975538 1.0962857e-06 -0.0013615261 -0.0068617784
000230 0b de be b7 47 69 4b b4 73 81 25 b6 e4 fb d3 37
       -2.2753162e-05 -1.8944148e-07 -2.4662265e-06 2.5270456e-05
000240 d5 4b 6c b3 f1 8b 23 b8 3d 19 fb 38 56 e3 6c 38
       -5.5017e-08 -3.899256e-05 0.00011973314 5.6478508e-05
000250 b7 da b2 34 53 46 c3 b6 6b 66 b8 b7 76 6b 54 33
       3.331422e-07 -5.8196397e-06 -2.1982201e-05 4.945783e-08
000260 46 48 51 b7 93 1a d5 b9 39 0c 23 b6 87 85 40 b2
       -1.2474198e-05 -0.00040646325 -2.4296007e-06 -1.12062315e-08
000270 44 ed eb b4 45 e5 15 36 0b 36 a9 31 ed 1c 53 36
       -4.3944794e-07 2.2336183e-06 4.9246913e-09 3.1458287e-06
000280 4f 6e 9f 37 e5 48 3b 3a 2a 0a 6f 36 03 97 8d b8
       1.9005643e-05 0.0007144346 3.5619692e-06 -6.751532e-05
000290 6b 37 85 b9 ac 74 91 b5 52 42 24 ba 9a d2 bc bb
       -0.00025409026 -1.0837298e-06 -0.0006265986 -0.0057624104
0002a0 ef f7 3e 39 21 86 6d 35 66 66 9e b8 c2 86 f3 b8
       0.00018212174 8.8484563e-07 -7.5531e-05 -0.000116122435
0002b0 bb 95 19 35 92 da c5 b9 71 52 b4 ba d5 d8 01 bb
       5.721483e-07 -0.00037737616 -0.001375748 -0.001981308
0002c0 d3 3b 25 b7 92 6b 77 39 e6 78 7f 3a eb b6 98 b4
       -9.848695e-06 0.00023595829 0.00097454933 -2.8445297e-07
0002d0 d3 87 15 3b cc c9 80 3c 6e d2 11 39 15 22 3d 35
       0.0022816553 0.015721224 0.00013906669 7.045758e-07
0002e0 6a 59 e3 b7 89 50 a3 b7 9d 5c 4f b3 70 55 ee b8
       -2.7102145e-05 -1.9468616e-05 -4.8280175e-08 -0.00011364638
0002f0 c6 bd 8f ba d8 02 38 38 c5 31 69 34 6f 59 44 b7
       -0.0010966591 4.3871667e-05 2.1717922e-07 -1.1703333e-05
000300 6f 1a d5 34 6c 58 55 34 85 97 61 b8 05 1e bb b9
       3.9693575e-07 1.9869339e-07 -5.3785294e-05 -0.00035689786
000310 43 7a fc b9 df d6 18 b6 4f d1 df 38 0e c2 82 39
       -0.00048156278 -2.2774836e-06 0.000106724554 0.00024940114
000320 ff 93 26 b6 8e 1b 60 3a 8b 07 83 3b fb d0 34 37
       -2.4822073e-06 0.0008549028 0.003998702 1.0777493e-05
000330 a0 f3 98 32 f4 a1 63 b7 f8 7f 06 b7 90 a3 79 34
       1.7805917e-08 -1.3567962e-05 -8.016817e-06 2.3249436e-07
000340 72 45 6c b8 b8 e3 ea b8 8d 70 17 ba 7c 66 4a b6
       -5.633146e-05 -0.000112004054 -0.0005776964 -3.016e-06
000350 e4 16 8a b6 b6 d9 6d 39 20 b2 14 36 b8 d1 9c 39
       -4.1153853e-06 0.00022683185 2.21574e-06 0.0002991089
000360 50 35 97 3b 4a e2 43 3a b3 e7 77 36 bd 0e 93 38
       0.0046145096 0.00074723794 3.6940735e-06 7.0122514e-05
000370 44 ea ee b9 73 5d f7 b5 52 ea 2e ba 3f 45 bf bb
       -0.0004556944 -1.8430131e-06 -0.00066724897 -0.005837112
000380 fc 3a b7 b7 44 f8 d5 b3 10 93 ad 34 95 12 11 37
       -2.1842767e-05 -9.963745e-08 3.2330763e-07 8.647e-06
000390 7a 6c 2f 30 12 38 0d b2 c8 86 3f 39 23 88 21 b9
       6.3818784e-10 -8.220029e-09 0.0001826539 -0.00015404871
0003a0 dc 9b 3b b5 e7 cf 91 38 ff 7b 8b b8 0d 2d 2c b5
       -6.9889734e-07 6.9528636e-05 -6.6511326e-05 -6.414055e-07
0003b0 cf b4 74 39 66 b7 c0 3a a3 ed 1f 39 39 fd 26 35
       0.0002333701 0.0014703094 0.00015251948 6.2208306e-07
0003c0 29 20 40 b8 ca d2 75 b8 20 44 8a 35 a5 6d be b9
       -4.580632e-05 -5.8608864e-05 1.0301628e-06 -0.00036321316
0003d0 34 58 b4 ba 57 a3 63 ba 5e 43 95 b6 cd cf 4a 39
       -0.0013759197 -0.00086837023 -4.4483886e-06 0.00019341633
0003e0 be 22 0e 39 cd b3 dc 34 68 59 31 3a 0c 28 e4 3b
       0.00013555118 4.1109016e-07 0.0006765337 0.006962782
0003f0 21 f6 06 3a c1 d2 29 36 51 31 7a b8 f6 5b 98 b9
       0.00051483704 2.5305637e-06 -5.9650574e-05 -0.00029060215

exp_avg_sq f4 [128, 7]
000000 96 55 38 32 f7 aa b0 2d 8e 1f e3 32 0c de 78 32
       1.072967e-08 2.0084807e-11 2.6440627e-08 1.44859875e-08
000010 55 39 b0 2e 71 14 cf 32 3c e2 0e 35 56 af af 35
       8.0137376e-11 2.4107267e-08 5.3228337e-07 1.3089546e-06
000020 6d a7 2c 2f a8 45 b8 35 1b c3 de 35 61 67 d9 30
       1.570279e-10 1.3729341e-06 1.6597072e-06 1.581821e-09
000030 03 7f 97 35 5a fe 3d 39 9a e2 ba 36 67 3e 4b 30
       1.1287342e-06 0.00018119198 5.569612e-06 7.393965e-10
000040 d5 e7 d9 36 0e 0f ce 36 05 f6 86 31 4c 85 af 36
       6.4940928e-06 6.141031e-06 3.9278825e-09 5.230924e-06
000050 fa 5e 34 3a 28 6a 3e 36 41 da 38 30 aa 92 ac 35
       0.00068806077 2.8373997e-06 6.724897e-10 1.2857683e-06
000060 05 f3 1c 36 d7 02 84 30 a7 eb 02 36 b3 2c 49 39
       2.3387267e-06 9.605071e-10 1.9508677e-06 0.00019185506
000070 f4 a3 44 37 34 0d 15 31 b4 10 36 37 03 68 4a 37
       1.1720684e-05 2.1689859e-09 1.0851934e-05 1.2064355e-05
000080 18 ce 1a 32 ea f3 32 37 27 20 ab 3a 19 c7 05 35
       9.01084e-09 1.0666417e-05 0.0013055847 4.9836086e-07
000090 cd a2 ad 2e 52 d8 56 35 2d 18 2e 35 04 03 16 30
       7.8960484e-11 8.0036e-07 6.485523e-07 5.457397e-10
0000a0 9d e4 26 35 87 76 bd 38 7a 4d 65 36 0e 6c 73 30
       6.2172495e-07 9.0343e-05 3.4168756e-06 8.855644e-10
0000b0 7f a6 71 36 cc a3 78 36 13 32 b9 31 db b7 4b 36
       3.6008712e-06 3.7050222e-06 5.3899014e-09 3.0356375e-06
0000c0 5a 81 a6 39 d5 e5 3a 34 bf 32 99 2e d3 56 7a 34
       0.00031758362 1.7406212e-07 6.966649e-11 2.3314651e-07
0000d0 e9 b1 65 34 fe c3 3c 30 f8 15 44 34 0a f7 d3 37
       2.139201e-07 6.8672523e-10 1.8261915e-07 2.5268197e-05
0000e0 f2 4b 25 35 1e 6a c2 2e ef dd 4e 35 41 06 46 35
       6.1577805e-07 8.840949e-11 7.7063936e-07 7.376985e-07
0000f0 f8 f2 48 30 1b ed 31 35 9c 8a d6 38 f8 8d be 35
       7.3104856e-10 6.628267e-07 0.00010230133 1.4197421e-06
000100 a8 26 07 30 a6 82 08 36 ca 80 0a 36 1b ee 47 31
       4.916765e-10 2.0341627e-06 2.0638568e-06 2.9093659e-09
000110 d8 0a bb 35 ef dd 25 39 c0 28 02 36 ef 8a 98 2f
       1.3935742e-06 0.00015818303 1.939523e-06 2.7747357e-10
000120 c8 9f c2 35 41 58 dc 35 75 8c ed 30 33 d1 d1 35
       1.4500629e-06 1.6416963e-06 1.728394e-09 1.5632598e-06
000130 d6 f3 53 39 b6 41 32 33 3a 05 4a 2e 31 1e 9c 33
       0.00020213364 4.150362e-08 4.5934125e-11 7.269808e-08
000140 20 61 81 33 37 13 a8 2e ca 4f 4f 33 62 a5 67 36
       6.0246975e-08 7.643169e-11 4.826851e-08 3.4517948e-06
000150 8a 70 d2 35 c0 0f 7d 2f bb d4 8a 35 7a 3a b8 35
       1.5678972e-06 2.3015811e-10 1.0343714e-06 1.3726087e-06
000160 85 46 a0 30 d2 f7 94 35 b6 17 26 39 8f 94 27 35
       1.1661575e-09 1.1098984e-06 0.00015839827 6.242853e-07
000170 6b 74 0e 2f 81 ba 7a 35 85 64 6c 35 02 8d de 30
       1.2956185e-10 9.3403656e-07 8.8063126e-07 1.6192703e-09
000180 50 78 43 35 a3 b8 ec 38 c6 8d 37 35 b7 1d ab 2f
       7.281824e-07 0.00011287748 6.837912e-07 3.1125832e-10
000190 81 5e 00 35 2b 11 42 35 d5 96 db 2f 37 d5 ea 34
       4.7821237e-07 7.2295614e-07 3.994304e-10 4.374103e-07
0001a0 99 25 9d 37 92 bd cf 35 23 f1 39 2f db 24 9b 35
       1.8733366e-05 1.5477874e-06 1.6911321e-10 1.1559126e-06
0001b0 6f 94 c6 35 e6 1f 86 30 b6 12 ac 35 6f 11 33 39
       1.479535e-06 9.758849e-10 1.2820444e-06 0.00017077265
0001c0 47 02 0c 36 1d 13 f0 2f f9 8f 1b 36 b8 88 0e 36
       2.0862951e-06 4.3669326e-10 2.3180603e-06 2.123923e-06
0001d0 7b 33 04 31 e0 ec 06 36 3f 94 87 39 89 58 1d 33
       1.9237791e-09 2.0105435e-06 0.00025859658 3.6634933e-08
0001e0 7e dc 8d 2e 75 b8 23 33 4f 52 ce 32 6a 36 35 30
       6.451105e-11 3.8119158e-08 2.4018986e-08 6.5924743e-10
0001f0 b7 3d 59 33 39 14 55 35 f4 6d d7 35 28 39 f3 2f
       5.058038e-08 7.937811e-07 1.6050749e-06 4.4242054e-10
000200 41 74 d1 35 6c af ed 35 2b f5 2b 31 c4 38 8d 35
       1.5605548e-06 1.770893e-06 2.5023137e-09 1.052184e-06
000210 bf a5 18 39 96 9c 1e 36 c1 d2 0b 30 d7 92 1d 36
       0.00014557595 2.363498e-06 5.0867405e-10 2.3480295e-06
000220 a6 76 31 36 10 d1 7f 31 56 f7 10 36 dd e1 83 39
       2.6444118e-06 3.7226222e-09 2.160164e-06 0.00025154548
000230 7f 48 90 32 66 3f 5a 2d af 1d c7 32 04 f1 e5 32
       1.6796774e-08 1.2405943e-11 2.3180148e-08 2.676871e-08
000240 62 76 13 2e df e6 85 32 a2 65 79 35 f3 55 0d 33
       3.3529075e-11 1.5588226e-08 9.2907624e-07 3.290729e-08
000250 22 a4 b2 2d 0d 6e 52 33 04 ab 11 33 48 81 e8 2e
       2.0309147e-11 4.8994526e-08 3.391598e-08 1.05731035e-10
000260 34 6a 31 33 86 f8 ee 35 57 1c 28 31 c3 85 f5 2c
       4.1307615e-08 1.7804712e-06 2.4463327e-09 6.9781693e-12
000270 cb dd 8e 31 52 55 6c 31 b0 cb 6e 2c ec 73 48 31
       4.157959e-09 3.439102e-09 3.3934903e-12 2.9169724e-09
000280 a3 6a c7 33 c2 dc 0b 36 b0 ff 0f 30 c0 40 5f 36
       9.286057e-08 2.0841112e-06 5.238645e-10 3.326728e-06
000290 71 fd 3b 36 46 81 79 31 a5 ef 1f 36 fc c8 a7 39
       2.8012694e-06 3.6307752e-09 2.3832338e-06 0.00032002467
0002a0 44 4a ea 35 48 b1 d1 2f af 78 02 36 80 fe 07 36
       1.7455973e-06 3.8142844e-10 1.9441757e-06 2.0264706e-06
0002b0 71 ab 27 31 db 9a ce 35 18 4d 80 39 b1 94 13 37
       2.4399152e-09 1.5393265e-06 0.00024471502 8.796503e-06
0002c0 f5 0b 14 31 e2 55 30 37 6e 8c 37 37 a1 92 2e 32
       2.1543631e-09 1.0510414e-05 1.0940346e-05 1.01614726e-08
0002d0 5a 1d 0b 37 cb ec 87 3a b1 84 49 33 f8 36 08 2e
       8.29188e-06 0.0010370252 4.691964e-08 3.0971642e-11
0002e0 8b 86 58 33 a8 c7 88 33 6e 21 d3 2e 00 f7 16 33
       5.0413785e-08 6.369311e-08 9.6011074e-11 3.514924e-08
0002f0 19 6b 25 36 fa 66 28 33 f9 63 29 2e a8 2a 80 33
       2.4649255e-06 3.9209205e-08 3.8514945e-11 5.9682236e-08
000300 8a 37 9a 33 f4 c7 87 2f 75 f3 db 32 3d d5 b3 35
       7.181286e-08 2.4698432e-10 2.5605667e-08 1.33986e-06
000310 84 9e bc 35 95 62 58 2f ae ff bc 35 4f 9d bd 35
       1.4053226e-06 1.9680109e-10 1.4081504e-06 1.412738e-06
000320 0f a9 4a 30 7c c7 b4 35 9b 7b 17 39 57 63 ab 32
       7.372742e-10 1.3469103e-06 0.00014446529 1.9952195e-08
000330 75 e2 9a 2d c0 9e f6 32 40 aa d8 32 1d 59 23 2e
       1.760834e-11 2.871036e-08 2.522313e-08 3.7141058e-11
000340 26 9a d9 32 de 32 02 36 ac 27 09 36 be 55 4a 2f
       2.5332223e-08 1.9401118e-06 2.0437683e-06 1.8402255e-10
000350 d5 dd 52 36 e0 78 24 36 02 f5 d6 30 3b 38 18 36
       3.1421562e-06 2.4508263e-06 1.5640185e-09 2.2682495e-06
000360 a3 99 cc 39 19 d0 e8 36 bd 0c bc 30 3f c5 cc 36
       0.0003902438 6.9383645e-06 1.3682421e-09 6.1026362e-06
000370 99 2f de 36 3b 42 b0 31 ee d9 c1 36 39 c3 35 3a
       6.6216567e-06 5.1298037e-09 5.7772186e-06 0.00069336925
000380 d5 f7 5f 33 4c 4c 32 2e b9 7f e4 32 44 59 52 33
       5.2146635e-08 4.054028e-11 2.6600775e-08 4.8975622e-08
000390 db 6d c6 2f 75 46 f2 32 0d 88 94 35 8e 26 56 34
       3.6094047e-10 2.8204548e-08 1.1066455e-06 1.9944329e-07
0003a0 fc bb 10 2e d3 b7 4e 34 16 f6 5c 34 b4 f8 64 2e
       3.2908773e-11 1.925212e-07 2.0578622e-07 5.206209e-11
0003b0 cd f9 4c 34 97 09 9d 37 45 04 a7 34 98 e6 88 2e
       1.9089858e-07 1.8720324e-05 3.110928e-07 6.2255257e-11
0003c0 d8 4d ea 34 f3 03 d0 34 f9 d3 cd 2f c6 79 bb 34
       4.3642535e-07 3.8745893e-07 3.7439898e-10 3.4920066e-07
0003d0 52 36 3d 38 25 c9 57 35 16 bb e2 2e bd 70 3b 35
       4.51117e-05 8.0386445e-07 1.0310523e-10 6.9826984e-07
0003e0 eb 7e 3b 35 cb 1c 9a 2f e8 79 50 35 da c3 b0 38
       6.984762e-07 2.8032895e-10 7.7663435e-07 8.428814e-05
0003f0 5c df 62 35 8d 66 61 2f 04 fe 26 35 f0 d6 4f 35
       8.451659e-07 2.0500064e-10 6.220946e-07 7.7426284e-07

exp_avg f4 [128]
000000 a1 4b 40 36 ed 4d 61 3a 0c c8 80 ba 54 43 80 ba
       2.8654251e-06 0.00085946807 -0.0009825244 -0.000978569
000010 a2 b4 1e bb 0e 2f dc b9 dc 47 2f 3a 79 26 bc b8
       -0.0024216552 -0.00041996728 0.0006686428 -8.971705e-05
000020 55 11 0a ba c7 bc 52 b9 ed 27 36 b8 d5 2e 85 38
       -0.0005266865 -0.00020097486 -4.3429365e-05 6.350657e-05
000030 1b 44 a3 b9 28 20 de b9 29 6e 95 b9 aa 21 6e ba
       -0.00031140525 -0.00042367098 -0.0002850157 -0.0009083996
000040 e2 25 f3 37 74 bf b2 b7 68 af 2d 39 53 f9 55 ba
       2.8985498e-05 -2.1308406e-05 0.0001656391 -0.00081624574
000050 96 3c d0 37 30 1d 70 b8 fd 70 22 36 e4 5a 3c ba
       2.4823745e-05 -5.7247642e-05 2.420565e-06 -0.00071851746
000060 17 96 30 b9 7c 18 00 3b d0 e6 10 b9 4c ed 35 b8
       -0.00016840581 0.0019545844 -0.00013818895 -4.3374763e-05
000070 67 6c f7 39 82 67 14 b7 04 e6 1a 3a f4 84 42 ba
       0.00047192277 -8.845587e-06 0.0005908909 -0.0007420324
000080 13 19 b6 37 ad d1 28 39 1c f6 1c b9 87 de 64 3a
       2.1707767e-05 0.00016099839 -0.00014969002 0.0008730669
000090 e9 8e 04 ba 00 6d 23 3a 16 85 09 39 cd eb e0 b9
       -0.00050566957 0.0006234199 0.00013114917 -0.00042900295
0000a0 34 dd 71 3a 29 da 39 38 19 a4 df 37 bc 6f 1a 39
       0.0009226382 4.4310615e-05 2.6660085e-05 0.00014728209
0000b0 00 77 38 39 42 df a3 38 50 18 21 37 50 08 45 b9
       0.00017591938 7.814031e-05 9.6020085e-06 -0.0001879048
0000c0 a2 76 08 b9 4a 70 82 b8 89 ab 8e b4 e5 7e 59 36
       -0.00013014165 -6.2197985e-05 -2.657437e-07 3.2409382e-06
0000d0 e4 d9 e9 b7 a4 2e 19 b7 73 d3 8b ba 32 75 77 b9
       -2.7877228e-05 -9.13037e-06 -0.0010667875 -0.00023599414
0000e0 9f fa 34 3a 9f b3 2c ba 11 0c b6 b9 73 be 50 b7
       0.00069038005 -0.0006588045 -0.00034722735 -1.24421085e-05
0000f0 45 56 03 3a e1 3a 8e ba 86 4d 29 ba 81 a0 4b 36
       0.00050101086 -0.0010851288 -0.000645839 3.0342783e-06
000100 c9 80 45 39 fb 0c 6b 38 7b 87 22 b8 1e 4a f0 ba
       0.0001883536 5.6040455e-05 -3.8749986e-05 -0.0018332636
000110 31 ec 92 3a 4e 15 4b b8 9c bb 94 b8 d8 6a c5 b8
       0.0011209307 -4.8418813e-05 -7.092135e-05 -9.413593e-05
000120 44 c7 35 3a 45 bb cb 38 1f 50 9e 36 a0 a7 2d 38
       0.0006934295 9.714676e-05 4.7180943e-06 4.1402527e-05
000130 76 44 a4 b6 bd 50 45 39 3c 52 eb 37 99 87 39 b7
       -4.895551e-06 0.00018817461 2.8052476e-05 -1.1058431e-05
000140 e7 de b8 38 44 bf c1 ba c5 ac 86 ba 97 29 71 ba
       8.8153225e-05 -0.0014781733 -0.0010274878 -0.0009199618
000150 10 91 98 b5 06 7c e3 ba a7 da 18 3a 69 52 14 3a
       -1.1367101e-06 -0.0017355687 0.00058309216 0.0005658032
000160 0d 72 16 3a e2 4f 5f 38 40 3a 42 b9 a7 f8 97 b9
       0.0005739041 5.324174e-05 -0.00018522982 -0.00028986225
000170 81 f9 1e b8 0d a7 0f ba 43 77 e3 38 2e 10 51 ba
       -3.7902504e-05 -0.00054799096 0.00010846418 -0.0007975128
000180 51 82 09 b8 df ec ef 34 91 e7 af 35 f7 3d 73 3a
       -3.2784712e-05 4.4689565e-07 1.3105911e-06 0.0009278948
000190 47 52 40 b8 31 f1 8a ba d7 70 a4 b7 c6 43 93 b9
       -4.5852994e-05 -0.0010600445 -1.9602869e-05 -0.0002808852
0001a0 75 d6 e0 38 18 f4 f5 39 9d f5 73 ba fa c0 68 35
       0.00010721098 0.00046911906 -0.00093063136 8.670755e-07
0001b0 ca bd fb b9 47 a0 66 ba 3b 9a a2 b8 2f b7 9d b7
       -0.00048015855 -0.0008797687 -7.7534896e-05 -1.880116e-05
0001c0 49 78 b6 3a 9c f3 65 35 16 ac 35 3a 8a fc 81 36
       0.0013921346 8.5663646e-07 0.0006930245 3.873899e-06
0001d0 f4 62 43 ba a9 04 83 b8 c9 13 48 ba 4c 80 a0 38
       -0.0007453405 -6.247435e-05 -0.0007632343 7.653292e-05
0001e0 8f d9 e0 37 e2 71 19 3a e9 56 a2 38 00 62 f6 b9
       2.680419e-05 0.00058534567 7.74095e-05 -0.00046993792
0001f0 3f 12 b8 39 37 58 bc 38 88 8e 93 b7 92 12 bf 3a
       0.0003510881 8.98097e-05 -1.7590137e-05 0.0014577678
