Assets/results/petfollower11/PetFollower/PetFollower-4025.onnx (onnx, 75610 bytes, 7 tensors)

network_body._body_endoder.seq_layers.0.weight f4 [128, 7]
00000000: 01fc dd3c ffaa ea3d b142 063f 7bc8 d43d
00000010: 7801 533d eb62 76be b59f 07bf dd7f 993e
00000020: fa00 15bf 4742 6e3d f7bc fc3e 8fb8 09bf
00000030: d1c0 743d 9f6d b63c 9cb9 babd 00d9 a23d
00000040: 9fdf 4e3f cb1e 013d 34c9 8bbe 6292 633d
00000050: 535f 9f3e bf19 83bf 0ac0 29bd 68bc 003f
00000060: 75fe dfbd 2239 60be 8702 3fbe 6600 febc
00000070: e28b 4ebf abee cd3e 7edf 363e 1aca 73be
00000080: a3d4 87be 82ab ac3c be01 723e eaf8 773e
00000090: 7d25 cdbe 0fb9 d6be 2654 e2be 0136 e43d
000000a0: 9c3b 0bbe 442a 893d ccd5 0dbf 81c8 8cbe
000000b0: 8219 293f d0d0 0b3f c7ad b23e 91a2 823e
000000c0: e6a3 693f 5c34 343e df7f 8fbc f71e 333f
000000d0: d2fe 8c3d 035a 2c3f 409f 66be 5cc3 41bc
000000e0: 62dd 2b3e 2483 0abf febd d73e 6635 92be
000000f0: c9c0 803d 632b 003e 4895 093e ba24 433e
00000100: 1f2b 2abd f0f4 2fbf 2f8d b53d 6e4e 36bf
00000110: a2e0 37bf 8697 e63e 05a2 e7bc 3b83 5a3e
00000120: 80ed 143f 6213 083e 4480 cd3e af52 f1bc
00000130: 960f 473e 1221 f43d 6d55 d93e 9a9d ccbe
00000140: 2851 53be afb6 20bf 52a7 3c3e 432f c7be
00000150: f8ac 56be 3d6d f7be 129c 11bd 3e4c 92bd
00000160: 441a e73e 17e2 a43d d745 ef3d 2828 6d3e
00000170: 368a f93d f681 ffbe 8bfe f23e 8436 183e
00000180: 677a 9abe c152 413e bc4d 96be 678d 2cbd
00000190: e6b8 143b d0c0 dd3e a961 fe3e 9cb0 e43e
000001a0: 8c43 35be 6b21 843d d37e 29bd ed59 633e
000001b0: 7ad6 68be 7454 72be d739 28be 0822 743e
000001c0: dce2 8abd 7eb7 84bf 9cad f73e 469a 583d
000001d0: cbac 9dbe 2638 12be 9215 533d deca 0abf
000001e0: cf37 363e 3e04 2f3e 4b98 e73d f364 67be
000001f0: 93f5 15be 82c5 e4be 1114 39be afb3 a9be
00000200: 0168 21bf 5a91 ecbe ed5b 8abe 1d3b 0abd
00000210: bfb3 f7bc 2d21 80be 748e 53bf 9463 55be
00000220: 031e 943e 5da4 42bf fa56 da3e 56b2 5e3f
00000230: 5ee9 1e3e fa47 d0bd af2c 65be c60c 293f
00000240: b8c1 c73e a918 a6bc b498 39be 59ee 2c3b
00000250: 86ee ebbd 21aa 13bf 34df 9dbe 5bc7 803e
00000260: 14a7 54bf 1662 7dbe 78f0 e63e 627a e53e
00000270: 3463 89be 025f 623e a777 1f3f eb04 753d
00000280: 0ae9 3dbf 5b83 97be e851 20be 42be 25be
00000290: 501d 0abe 95ed 223e f214 813e 3dbb 423e
000002a0: 3e88 ffbe 5e4a 943d 7c2c dd3e dbb9 e23a
000002b0: 42f6 0abf b244 c63e 21c6 993e 3a56 e73d
000002c0: 06a3 c23d da35 ed3e f36d 803e b22f 153e
000002d0: 2ba8 17be b5cb d03e 5df5 dfbd 053d 1bbf
000002e0: afb6 823e df52 aabe 102b 623e 0676 c7bd
000002f0: f817 86be bcee dbbc 1cd5 553f 5c2c 963d
00000300: 8af1 4fbf b93c c43e 4827 a53d 453c a4be
00000310: 7cb3 213d 6df1 da3e 292f ef3e d71a dd3e
00000320: 3c1a 9dbd 3d5b 463e a7fe b43e 6ca3 5dbd
00000330: 993c 103d 3e51 593e a917 88bd 77f5 c6be
00000340: c301 e83d 088e a3be a1e2 923f e730 3abe
00000350: 9168 f0be 7e36 5d3c 609c f1bd 64af 6dbe
00000360: 971c 6a3e 8a87 34bf 6940 37be 34f9 b3bc
00000370: 2fda f43e 396f e9be cd8f 6b3e 5db6 003e
00000380: b5d3 4cbf 55c1 10bf 720e 0dbf 9849 1a3f
00000390: d38d ca3e 3c6b 963e c0e1 d8be d3e1 793e
000003a0: 00a1 b13e 5e3f 29be e6ce 14bf a4da 07bf
000003b0: f935 263f 8884 d23c 6162 5d3e bd6f 2ebf
000003c0: 9ae7 4e3e 9049 2d3f 4fe4 92be fd20 8ebd
000003d0: ebee 453f 75b1 e93d e44f 1fbe d0b8 fdbd
000003e0: a806 253f 1fc2 b63e 168a 533f 81da 663d
000003f0: e961 c1be ce42 c339 12b7 7b3e 1251 9c3e
0.027097704 0.11458396 0.52445513 0.10389801 0.051515073 -0.24061172 -0.5297807 0.29980364
-0.58204615 0.058168676 0.4936292 -0.5379724 0.059754197 0.022269068 -0.091174334 0.07951546
0.8080997 0.031523507 -0.27301943 0.055559523 0.31127414 -1.0242232 -0.04144291 0.50287485
-0.10937206 -0.21896794 -0.18653308 -0.03100605 -0.80682194 0.40221152 0.17858693 -0.23807564
-0.26529416 0.021077875 0.23633477 0.24216047 -0.40067664 -0.41938064 -0.44204825 0.11143113
-0.13596958 0.06697515 -0.55404353 -0.27496722 0.66054547 0.546155 0.34898207 0.25514653
0.91265714 0.17598099 -0.017517028 0.69969124 0.068845406 0.67324847 -0.22521687 -0.011826362
0.1678367 -0.54106355 0.4213714 -0.28556365 0.06286771 0.1251655 0.13435853 0.19056979
-0.04154503 -0.6873312 0.08864819 -0.71213424 -0.7182714 0.45037478 -0.0282755 0.21339123
0.58174896 0.13288644 0.4013692 -0.029458372 0.1943954 0.1192037 0.42447987 -0.3996399
-0.20636427 -0.62778753 0.18423203 -0.38903245 -0.2096442 -0.4832553 -0.03554923 -0.07143448
0.45137227 0.08050936 0.11683243 0.2315985 0.12184565 -0.4990384 0.47459826 0.14864546
-0.3017151 0.18879224 -0.29356182 -0.04212704 0.0022693216 0.43311167 0.49683884 0.44665992
-0.17701548 0.064516865 -0.041380715 0.22202273 -0.22738066 -0.23665029 -0.16428314 0.23841107
-0.06781551 -1.0368497 0.4837464 0.0528815 -0.30795893 -0.14279231 0.051534243 -0.542158
0.17794727 0.17091462 0.113083445 -0.22597103 -0.1464446 -0.44681937 -0.18074061 -0.331449
-0.6304932 -0.46204644 -0.2702326 -0.03374778 -0.030237077 -0.2502531 -0.8263924 -0.20838767
0.28929147 -0.7603205 0.42644483 0.8699087 0.1551871 -0.101699784 -0.22380327 0.66035116
0.39014983 -0.02027543 -0.18124658 0.0026387183 -0.11520104 -0.5768147 -0.30834353 0.25152096
-0.8306744 -0.24744448 0.45105338 0.44819933 -0.26833498 0.22106555 0.6229195 0.059819143
-0.74183714 -0.29592404 -0.15656245 -0.16185859 -0.13487744 0.15910943 0.25211293 0.19016738
-0.49908632 0.07240747 0.43198 0.0017297821 -0.5428201 0.38724285 0.30033973 0.11295743
0.095037505 0.46330148 0.25083885 0.14568976 -0.14810245 0.40780416 -0.10935471 -0.60639983
0.25530002 -0.3326635 0.2208674 -0.09739308 -0.26190162 -0.026847236 0.83528304 0.0733268
-0.81227934 0.38327578 0.08064133 -0.32077232 0.03947781 0.42762318 0.46715668 0.4318454
-0.076710194 0.19370742 0.35350534 -0.05411093 0.03521404 0.21222398 -0.06645138 -0.3885915
0.11328461 -0.319443 1.1475412 -0.18182717 -0.46954778 0.0135017615 -0.11797404 -0.23211437
0.22862469 -0.70519316 -0.17895664 -0.021969415 0.4782271 -0.4559267 0.23004074 0.12569566
-0.8001054 -0.56545 -0.55100167 0.60268545 0.39561328 0.29378688 -0.42359734 0.24402551
0.34693146 -0.16528079 -0.581282 -0.53067994 0.64926106 0.025697961 0.2161956 -0.6813925
0.20205536 0.6769037 -0.2868981 -0.06939886 0.77317685 0.114108 -0.1555782 -0.12388766
0.6446328 0.35694978 0.8263258 0.056360725 -0.37770012 0.00037243072 0.24581555 0.30530602

network_body._body_endoder.seq_layers.0.bias f4 [128]
00000000: e8dc 253c c6e5 85b9 4785 f1bb e45a b63c
00000010: 689c 893b a5dd 563b 095e 6fbc 15c9 ecba
00000020: 6b43 0ebc c4ef 7dbb 1c0a 18bc 879f 853c
00000030: 77ea 7d3c a1c4 7cbb 0ded 453c d20b e0bb
00000040: 4f73 dfbb 51cc b5bb 7e5d 523c e534 a73b
00000050: ff7b 98bc 3b0d 9f3c 20f1 253b c910 f8bb
00000060: ee70 633b eb71 5cbb 51a3 95bc 7005 79bc
00000070: a82b c5bb 57c5 ec3b f902 bf3b 96b0 033b
00000080: e4c1 a8bb 66b3 9abc 38ef 533b ae41 edbb
00000090: 2299 013b 67ae a2bb e6b3 50bc 4655 033c
000000a0: bacb b2b9 4285 5c3c bdbd 863c 0d45 8b3c
000000b0: fcb3 0b3c 4355 8ebb 1f9b 01bb e2f6 1c3d
000000c0: 442b 943c 0983 8bbc 522e 1c3b 3e01 e83c
000000d0: 5eaa 8b3b 3421 a338 93e2 33bc 558b a6bb
000000e0: 445c b6bb 381f 52bb d440 55b8 1c46 e7bc
000000f0: 31f4 28bc 30af 4a3c 6255 1ebc bd19 dbbb
00000100: 8db7 a0bb 591c 3cbc 02d3 50bd fc93 d1bb
00000110: 48d7 82bb fe59 88bc d2e7 74ba fbe3 ab3b
00000120: bf94 21bc a2d8 46bc c02b cbbb 814d b63c
00000130: 6316 633c 7d96 0ebc 97cc fd3a 59d7 d3bb
00000140: 7d0c bf3c d776 5b3c c676 f8bb 5c1a aebb
00000150: 1b58 db39 e57d f03b 76af 6c3b fdde 71bc
00000160: d52c eebb 0955 94b9 2b3a a23c 458e 713b
00000170: f0e1 51bc 5a9a ea3a cde1 063c b335 60bb
00000180: a470 123c f343 98bb a0dd 8f3c c59c bd3b
00000190: 869b 99bc 28ca b03b b360 d2bc 5382 2fbc
000001a0: 45e0 1fbc 929f 45bc c6ec 223c 4bc4 1c3c
000001b0: 62c1 2f3c cc36 f63b 50b8 f2bc 62c3 aa3b
000001c0: af49 9dbb c350 46bc ff90 ccbb eedb 7f3b
000001d0: aa2e 81b8 354e e33b a27a 9fbb c7bd e2bb
000001e0: 0eec 09bc 948e ffbb b3a7 2b3d fd46 9a3c
000001f0: f9b6 f2bb f769 aaba 1992 2bbc f697 ffbb
0.010123469 -0.0002553893 -0.007370624 0.022260137 0.0041995533 0.003278592 -0.014609822 -0.0018065298
-0.008683066 -0.0038747648 -0.009279754 0.01631142 0.015497795 -0.0038569348 0.012080443 -0.0068373466
-0.006819166 -0.005548038 0.012839673 0.005102741 -0.018613813 0.019415488 0.0025320724 -0.0075703603
0.0034704763 -0.0033637236 -0.018266352 -0.01519905 -0.006017167 0.007225673 0.005829212 0.0020094267
-0.0051500667 -0.018884372 0.003233863 -0.0072404956 0.0019775112 -0.004964638 -0.012738204 0.008015936
-0.00034102594 0.0134595055 0.016447896 0.0170007 0.008526798 -0.00434366 -0.0019776297 0.038321383
0.018087037 -0.017030256 0.002383132 0.028320905 0.0042622527 7.77863e-05 -0.0109793125 -0.0050825276
-0.005565198 -0.0032062065 -5.0843533e-05 -0.028231673 -0.010312126 0.0123708695 -0.009663912 -0.006686418
-0.0049046935 -0.011481368 -0.050982483 -0.006395815 -0.0039929487 -0.016644474 -0.0009342405 0.0052456832
-0.009862124 -0.01213661 -0.0062002838 0.022253754 0.013860318 -0.008702871 0.0019363341 -0.0064648804
0.023321385 0.013395033 -0.0075825183 -0.005313201 0.0004183658 0.0073392265 0.0036115325 -0.014762637
-0.007268528 -0.00028292116 0.019803127 0.003685848 -0.012810215 0.0017898784 0.008232546 -0.0034211695
0.008937988 -0.004646772 0.017561734 0.0057865107 -0.018750917 0.0053951927 -0.025680875 -0.010712224
-0.00975806 -0.01206197 0.0099441465 0.009568284 0.010727258 0.0075138565 -0.029628903 0.0052112797
-0.0048000435 -0.012104216 -0.006242871 0.0039041 -6.159891e-05 0.0069368132 -0.004866914 -0.006919596
-0.008418096 -0.007798979 0.041907977 0.018832678 -0.007407066 -0.0013001551 -0.010471844 -0.0078000976

network_body._body_endoder.seq_layers.2.weight f4 [128, 128]
00000000: cd5d 01be 5c21 4b3b f33a 4d3e 19ae 2b3d
00000010: 3341 5d3c 7e4c 563d 9c16 0bbe 8fb1 fb3c
00000020: 73ce 26bc 22be 14be 3f3b b23d c85f a63d
00000030: c630 88bd c7c0 15bd d447 2cbc 3e1e 6dbd
00000040: c091 8bbd 60ab 0dbc 59b9 78bd ac43 6cbe
00000050: e13a 9ebc 07d7 c33a b4d8 b83d 82de 843d
00000060: c203 a03d 857f 263e 2c9c ccbc 033b 9ebd
00000070: 719d ce3d 00cb 19be 95cf 1fbb 1010 253c
00000080: 3ddc 223e e99f f83d 62ee b1bb 90d4 083d
00000090: 18ab 3f3e 0fa3 143d ba6c dabc dda7 643d
000000a0: 7a3c 3abd 7cb8 fb3d db75 0abd 4ee4 083e
000000b0: 9075 863c b3fe bebd ecbd 883d a705 143e
000000c0: fc61 88bd 5851 8b3d 2d73 8bbd 78ab 943d
000000d0: 5b4d cebd 679e b03d aaa8 3cbb 01e1 753e
000000e0: d718 0e3c 3429 5dbd 3d01 f7bc c5f0 e83d
000000f0: a2f5 c7bd c33c 1bbe adc7 293e 723e 33bd
00000100: 8369 a5bc c490 b4bd 6096 593d b8e1 4abe
00000110: 3795 a03d 4ef6 f03d 3ea3 edbd c26d 25bc
00000120: 9a7b 283e 4f9c 04be e51c 67bd 589f bd3d
00000130: 9158 293d dfac ff3d 99e0 de3d 8b7f f3bd
00000140: bbbf bbbd 8765 f2bd a3fc 9b3c 6f1c 25bd
00000150: 476f 6e3e 4a95 9d3d b4f5 fb3c eb0c 833c
00000160: b626 abbc 80de a93c eaed 323d fe6a dcbd
00000170: 3084 ef3d 5209 0b3e 2069 82bc 3778 f7bc
00000180: 6ee7 bdbd a3f4 ad3d dcab 69bd 849a 0e3e
00000190: 4047 173e afa6 0a3d 0fe2 e9bb 0e12 e3bd
000001a0: 9f1b fbbc d934 e0bd 9881 fd3c e4b1 ba3d
000001b0: 85d2 133e 574e 2e3d 6b0b 863d c079 efbd
000001c0: 0a2d fd3c 919e c3bd bf4b 9c3d f778 ca3c
000001d0: 9a01 91bc 5f1d 263e a543 243d 05a1 1f3e
000001e0: 3fb2 86bc 1c87 05be 30e0 6abd 5981 043d
000001f0: 9601 523d b397 4d3e 170c 94bd 3e74 bbbd
00000200: b398 0b3d cb04 77bd 2868 c3bd 8db3 27bc
00000210: 4009 2c3d 52c6 d4bd 01c4 a3bc d4d1 77bd
00000220: 36b9 00bd eaaa d23d a05c a73c 16dc 993d
00000230: 0585 bc3d dd20 753e 5515 0abe 386c e13d
00000240: 277e c7bb 2413 2dbd 7e2b 3e3e 5906 08be
00000250: 79f6 56bd 7124 1abd a42d 1fbd 0a53 323d
00000260: 85db c9bd 72c0 23be 4280 f53d 4d4b 343d
00000270: f9bb d4bd 1f15 003e 3d00 c4bb d2a9 2e3d
00000280: 868b 8f3c 2e1b ce3d 01c6 373d af89 2fbe
00000290: 0b83 003e 44ed 8bbd 9cc3 f93d e3a6 83bc
000002a0: d092 103d 3c0d 18bb ec2a cb3c 6b19 8abc
000002b0: 9cc1 a4bd fc61 783c 68f4 07be 00d0 2ebd
000002c0: 48c2 a53d 2821 9e3d 47c8 adbc 2ff6 be3c
000002d0: 48b1 81bd b6a1 713c 521a 173e ff45 54bd
000002e0: 8cef 69bc 7739 26bd 997a 57bd cfa9 6bbd
000002f0: 4e48 363e f027 50bd 8296 9c3b 4b96 193e
00000300: 93a7 053c 9bc6 1ebe b16d 58bd f964 89bd
00000310: 7fef 943c 4ad0 fbbd 1f2e 22be d872 11bc
00000320: 5d98 573d 0bd2 a1bd 03ff 8f3d 814d fabd
00000330: 2c79 05bc 89c2 723d f59c 1c3e 514a 46bd
00000340: 959a cb39 8110 aa3d 8c79 91bc 57a4 7e3d
00000350: 491a 97bb 32bc e13b f56c d7bc 1898 f63c
00000360: 6b6f 3abd cecf 8c3d a2b7 44bd 8216 2ebd
00000370: a408 1c3e 2e01 a03c 12ee 44bd f159 a23d
00000380: 0f43 803e 155d a33d 896a a33c ce2d a1bb
00000390: 9328 073c 4be8 9bbd baa0 32bd 1e8c aabc
000003a0: f80b 3abe 6469 e93a 6f07 94bc 03d2 833d
000003b0: b327 5fbd b5a5 9bbd 3960 713c eb00 a4bc
000003c0: d3cd 83bd 69a1 debb aa53 1b3e 8b77 d93c
000003d0: df02 3e3d 80d4 0e3e 60d3 bc3c 6316 253e
000003e0: 8380 223d 8d1c 513c d9b5 aebc 2f0f f03c
000003f0: 86cb db3d 5128 9ebc d162 ecbd e11f 66bd
-0.12633438 0.0030995226 0.20042019 0.04191408 0.013504314 0.052319042 -0.13582844 0.030724315
-0.010181057 -0.14525655 0.087027065 0.081237376 -0.06649928 -0.0365608 -0.010515172 -0.05789017
-0.06814909 -0.008646816 -0.060723636 -0.2307269 -0.019315185 0.0014941402 0.09025708 0.064877525
0.07813217 0.16259582 -0.024976812 -0.07726099 0.10088623 -0.15018845 -0.0024385203 0.01007463
0.15904327 0.121398754 -0.005430029 0.03340584 0.18717611 0.036288317 -0.026663173 0.05582415
-0.04546783 0.12291047 -0.033803802 0.13368341 0.01641348 -0.09325924 0.0667685 0.14455281
-0.06659314 0.068026245 -0.068090774 0.072592676 -0.10073348 0.08623963 -0.0028787055 0.24011613
0.0086729145 -0.053994372 -0.030151958 0.11374048 -0.097636476 -0.15159898 0.16580077 -0.043760724
-0.020191913 -0.08816674 0.053121924 -0.19812667 0.078409605 0.11765729 -0.116034016 -0.010096969
0.164534 -0.12950252 -0.05642404 0.09258908 0.04134423 0.124841444 0.10882682 -0.11889561
-0.09167429 -0.11835771 0.019041365 -0.04031032 0.23284636 0.0769449 0.030756809 0.01599737
-0.020892482 0.02073598 0.043683924 -0.10762595 0.11695135 0.13577774 -0.015919268 -0.03020869
-0.09272657 0.084939264 -0.057048663 0.1392613 0.14773273 0.033850368 -0.007137544 -0.11087428
-0.03065282 -0.1094758 0.030945584 0.09115961 0.14435776 0.04255518 0.065451466 -0.11693144
0.030905265 -0.095517285 0.07631635 0.024715884 -0.017700959 0.16222142 0.040103573 0.15588768
-0.016442416 -0.13039821 -0.057342708 0.032349918 0.051271044 0.200774 -0.072288685 -0.09153031
0.034081172 -0.060307305 -0.095413506 -0.010235679 0.04200101 -0.10389389 -0.019990923 -0.060502842
-0.03142663 0.102865055 0.02042991 0.07512681 0.09205059 0.23938318 -0.134847 0.11006969
-0.0060880366 -0.042254582 0.18571278 -0.13283671 -0.05248115 -0.03763241 -0.038861886 0.043536223
-0.09856323 -0.15991381 0.11987354 0.044017125 -0.103874154 0.12508057 -0.0059814737 0.042642422
0.017522585 0.10063778 0.044866566 -0.17142366 0.12549989 -0.06832364 0.12195513 -0.016070789
0.03529626 -0.0023201248 0.02480074 -0.016857823 -0.080447406 0.01516008 -0.13276827 -0.042678833
0.08093697 0.07721168 -0.021213664 0.023310749 -0.06332642 0.014748028 0.14756134 -0.051824566
-0.014278304 -0.040582146 -0.052607153 -0.05753499 0.1780102 -0.050819337 0.004778684 0.14998738
0.008157629 -0.1550545 -0.052838985 -0.06708712 0.018180607 -0.12295587 -0.15837906 -0.008877479
0.05263554 -0.07901391 0.070310615 -0.12221814 -0.008146565 0.059267554 0.1529425 -0.048410717
0.0003883435 0.08303929 -0.017758153 0.062168445 -0.0046112877 0.0068888897 -0.026297072 0.03010182
-0.045516413 0.06875573 -0.04802669 -0.042501934 0.15237671 0.019531813 -0.048078604 0.07927311
0.25051162 0.07976738 0.01994826 -0.0049187904 0.00824942 -0.07612666 -0.043610312 -0.020818766
-0.18168628 0.0017807898 -0.01806995 0.06436541 -0.05448122 -0.075999655 0.014732414 -0.020019969
-0.06435742 -0.006794144 0.15168634 0.02654626 0.046389457 0.1394825 0.02305001 0.16121821
0.03967334 0.012763155 -0.021326946 0.029304115 0.107321784 -0.019306334 -0.11542285 -0.056182746

network_body._body_endoder.seq_layers.2.bias f4 [128]
00000000: 7994 77bb cf0c b73a ca70 efb9 d5ab c93c
00000010: baf9 64bb 1560 893c 2298 df3b 4cb0 50bc
00000020: 7a4f 19bc 4435 283b 092e a23a 24c0 1b3c
00000030: ce43 9bbb fd73 363c ee51 aa3c d4c1 4e3b
00000040: 6728 bfbb 08da 27bc a8fb dcbb f2d3 6a3c
00000050: 8558 4bbc f73e d33b 876c 29bc 46b7 a8bb
00000060: 9ba8 903b 1957 bf3b 9c92 5e3c 85ae cebb
00000070: 59be afbb 4fae eeb9 9193 4d3b 3633 c3bb
00000080: f744 ceba c1c9 8e3c 5f7d 44bc ef3b c73c
00000090: 4d4b 34bc 2429 933c b821 a4bb 6447 15bc
000000a0: e8e6 803b 3a3c 843c 7101 9d3b 00c3 373c
000000b0: 11cb 313c e5ea 99bb 32f5 d6bb 472a 6a3b
000000c0: 975b 6bbb ff77 f3bb eaac 07bb 8cb4 16bc
000000d0: a592 933b a0d6 b2bb 53e4 693c a713 af39
000000e0: 2bfa f03b 1658 083b a91a d0ba cf19 8d3c
000000f0: 8b73 d4ba 80b6 39bc 7b69 5bbb ffb3 e6bb
00000100: b417 473c 2a64 bfbc 3e41 95bb 998b 153c
00000110: 812e 3c3b 79ce 743c 54b6 893c da4f 1f3c
00000120: 781e 0fbc e334 cfbb 01ca 11bc de8a 683c
00000130: f568 1ebc b07e 0abc 2e10 8e3b d8aa 32bc
00000140: 7092 f4bb ae75 1a3b 8169 23bc ceba d6b9
00000150: 4c34 2fbc 4f40 b1bb 5c59 83bc 2be3 f83a
00000160: 77a2 10bb e055 45ba 7cc2 04bb d02f 9b3b
00000170: d661 4dbb 7b00 8ebb cd18 733c 9901 0e39
00000180: 9933 593b 5b6d 90ba ae5f 0d3c 5d7d 32bb
00000190: 5cba c9bb 4b9a b13a d3fd 6a3c 06e1 c63a
000001a0: faeb 81b9 26c2 1abc f766 ea3b fc6d 8bbc
000001b0: ea7b 813b 7298 7d39 ddff 663a 4dc2 8dbb
000001c0: 8e60 3aba e483 c3bb 5206 04bc e797 423a
000001d0: d969 1f3c 5936 973b cf38 29bc 9866 113b
000001e0: 7a6d babb 03ef 09bc 8eca a2bc e893 403c
000001f0: 5651 0a3c 4618 b8bb 4b1b c63c f926 533c
-0.0037777706 0.0013965609 -0.00045669667 0.024618069 -0.0034938888 0.016769448 0.0068235556 -0.012737345
-0.009357328 0.0025666514 0.0012373339 0.009506259 -0.0047383076 0.011136052 0.02079102 0.0031548636
-0.0058336738 -0.010244854 -0.006743867 0.014332758 -0.012411241 0.006446715 -0.010340816 -0.005148801
0.0044146306 0.0058392403 0.013584759 -0.0063074254 -0.0053632674 -0.00045524767 0.0031368474 -0.0059570326
-0.0015737106 0.017430188 -0.011992781 0.02432057 -0.011004281 0.017963953 -0.0050089024 -0.009111259
0.003933776 0.016142 0.0047914316 0.011215925 0.010851637 -0.004697191 -0.0065599913 0.0035730766
-0.0035912746 -0.007430076 -0.002070243 -0.009198319 0.0045035654 -0.005457714 0.014275628 0.00033393243
0.007354041 0.0020804456 -0.0015877086 0.01722422 -0.0016208751 -0.011335015 -0.003347962 -0.0070405
0.012151647 -0.023363192 -0.0045548966 0.009127521 0.0028714242 0.014941805 0.016810574 0.009723628
-0.008735292 -0.0063234433 -0.008898259 0.014193265 -0.009668578 -0.008453056 0.004335425 -0.01090499
-0.007463746 0.0023568678 -0.009973885 -0.0004095644 -0.010693621 -0.0054092775 -0.01603382 0.00189886
-0.0022069493 -0.000752775 -0.0020257523 0.0047359243 -0.0031338832 -0.0043335534 0.014837456 0.0001354277
0.0033142327 -0.0011018919 0.008628769 -0.0027235367 -0.006156249 0.0013550011 0.014342743 0.0015173263
-0.00024780614 -0.009445703 0.0071533876 -0.017020218 0.0039515393 0.0002418475 0.00088119303 -0.004326141
-0.00071097247 -0.0059666503 -0.0080581475 0.0007423148 0.009729826 0.004614633 -0.010328486 0.0022186395
-0.00568932 -0.008418801 -0.019871976 0.011754014 0.008442244 -0.005618128 0.024182936 0.01288771

action_model._continuous_distribution.log_sigma f4 [1, 2]
00000000: 4d2b 1bbd 3efc 3e3c
-0.03788309 0.011656819

action_model._continuous_distribution.mu.weight f4 [2, 128]
00000000: 62ef 2dbc eacc 53bb f8f0 28bd af1c 94bb
00000010: d079 933b 9843 f4bc 8cfa 1e3d 857f 323d
00000020: abb4 b33c 512b 1ab9 3439 363b 2a37 0c3c
00000030: fe7c 713c 6454 9b39 ba67 58bc 3528 96bc
00000040: 89d3 813c 9166 1dbc 7906 d73c e565 30bc
00000050: 147d 023b da04 8d3c 865b a0bb b2a4 ff3c
00000060: a6c1 d4bb cbc5 063d e824 bc3a 07a4 2a3c
00000070: fac0 32ba b954 2c3c a9ad b43c f73a c2ba
00000080: e6fb b1bc da58 4b3c 6572 b23c 9f0a c43c
00000090: 16c3 913c 8dbd e93c d1f4 80bb b497 0e3d
000000a0: 4a14 9cbc ffaa a03b 2133 aabc 7b1b 203d
000000b0: 877e 973a 51ad b63a fb42 4c3c e0a6 90bc
000000c0: 82c7 d8bb ae33 043c 64e7 643c 9c79 4a3c
000000d0: 4222 bcbb dee4 b53c 9c48 87bc 5f32 5a3c
000000e0: 2085 d83b 2116 093c 03cc 87bc dc89 98bc
000000f0: 1fda 103d 7cc9 963b a94f 23bc d8d8 1c3b
00000100: 0832 d6b9 e92a b5bb 36ea e03c ab01 8ebc
00000110: 3119 debc 76d0 293b 1cea 09bd f3ec c2bc
00000120: 76d7 583c b2f4 aa3c a7f1 df3b 3936 c1b9
00000130: 9b18 8b3c 0949 913b 89b9 963c e394 3f3d
00000140: eb07 4ebb f481 68bb b180 3a3d c184 80bc
00000150: 52bf 9b3c 4a98 183d 9148 bcbc e45d 483c
00000160: 157f c1bc 8f7e 3d3a 9f6d b4bb ea6a 6bbc
00000170: 8416 5b3c 43fa dcba e686 21bb b1b8 ddbc
00000180: 6442 0bbc 7df5 42bc 3bd5 97bc 739f c93b
00000190: 7cee 1bbc 5c14 c43b b43d 97ba 2e0a a73c
000001a0: 0513 553c 6d02 5abb 1e98 15bc 3b93 033d
000001b0: 06c6 49ba 814a 98bc e017 c03b ddfc c4bb
000001c0: 8977 8c3b 6064 27bb 4afe 103d 7506 e3bc
000001d0: 7da6 393b 6608 6d3b 9711 d13a 7164 25bc
000001e0: 0e3c fc3c 7a02 593c 22b4 e6bb 94a5 bdbc
000001f0: e463 0f3b 42e4 dd3c 4874 023c d941 053b
00000200: 6e86 14bb 9819 963a 80bf 193d 8c6f 2bbc
00000210: d2c4 163c 1e2a a6bc 73e2 013c b5bd bf3c
00000220: 86cb 693b fc72 373a 82ce a5bc 78d3 58bc
00000230: cf4f d73a 7871 b3bc e12d 09bc a768 7d3b
00000240: 042c 33bc ccb9 763c 9206 033c a41c 0bbd
00000250: e58a 9d3c 8797 c33a 6833 1f3d 5eb9 75bc
00000260: cc4d e6bb c960 553b 21a3 d5bc 2063 3bbb
00000270: 446e 803c 169f d6bc 823b d23c c3ba 2b3c
00000280: 5f9d 143c 1e8e 57bb 97cd ab3c 86a6 e8b8
00000290: 6ac9 eb3c 8f52 5abb 9872 cb3c 69d0 863c
000002a0: 7141 08ba e8a3 4fbd 34e3 debb 0436 2cbc
000002b0: 6c23 b83c 2726 0d3d 8079 8fbb 5d6d 663b
000002c0: 6260 c43c e610 603c 8b35 313d 55ce 96ba
000002d0: 2166 16bc 76f1 0a3c 3b2f 52bc 0f6b 923a
000002e0: 7a1e b7bc 5c9b 473a 0521 2b3c dec0 e6bc
000002f0: 2098 b8bb 9bd1 093b 3dd3 ffb9 1133 153c
00000300: 1d5c babc 5241 e13c e454 023b 8662 93bc
00000310: d69f d0bc e074 3dbd 6b1f ddbc 48d7 46bc
00000320: ba24 553c 04b6 bf3b f307 593c d194 60bb
00000330: 54ff 093c db1d 103c 6f61 fd3c 12ea 183c
00000340: dff9 523c e700 21bc b720 1c3d cc75 c7b9
00000350: cf5d 0c3d 9eab 9c3c 84e6 d33b 32f2 e6bc
00000360: 81b5 143d e215 14bb 107d 3d3d 30ae babc
00000370: c1fc e53c f89b 45ba ff21 11bc 6e79 b53c
00000380: 999f a6bb 56e5 993c 7edf a7bc 3313 4ebc
00000390: 66a6 c33c c890 0f3c 4098 58bc e37f 3cbd
000003a0: bd21 8a3c fd72 a73b 0513 a8bc ab9e e53c
000003b0: b014 19bd 8644 c03b 8b01 c53c 3fe5 703c
000003c0: e57b 63bc 19f6 353b b250 8e3b 9139 e03b
000003d0: f346 debc 5c26 5dbc e0a6 26ba 31d7 c03a
000003e0: 5f98 64bc d221 013c c560 843c 9756 e3bc
000003f0: b70d dc3a 9d0f fdbb 65db babc abcd 973b
-0.010616155 -0.0032318183 -0.04124543 -0.004520021 0.004500605 -0.029817387 0.03881316 0.043578643
0.021936735 -0.00014702721 0.0027805092 0.008558074 0.014739273 0.0002962678 -0.013208324 -0.01832972
0.015847938 -0.009606973 0.026248204 -0.010766481 0.0019910978 0.017214227 -0.004893723 0.031206463
-0.0064928113 0.032903474 0.0014354261 0.010415084 -0.0006818917 0.010518246 0.022055464 -0.0014818598
-0.02172656 0.012411321 0.021783063 0.023930846 0.01779322 0.028532768 -0.0039354344 0.034812644
-0.019052643 0.004903197 -0.020776333 0.039088707 0.0011558094 0.001393715 0.012467141 -0.017657697
-0.00661558 0.008068962 0.013971183 0.0123580955 -0.0057413885 0.022203859 -0.016514115 0.0133176735
0.0066076666 0.008367092 -0.016576773 -0.018620424 0.035364266 0.0046016555 -0.009967723 0.002393296
-0.00040854537 -0.005528797 0.02745543 -0.01733478 -0.027111622 0.0025911606 -0.03367053 -0.023794627
0.013234964 0.020868633 0.006834227 -0.00036852228 0.016979506 0.0044337553 0.018399017 0.04677285
-0.0031437825 -0.0035477849 0.045532886 -0.015688302 0.019012127 0.03725461 -0.022983821 0.0122294165
-0.023620168 0.00072286365 -0.005506232 -0.014368752 0.013372067 -0.0016859252 -0.0024647056 -0.027065607
-0.0084997155 -0.011899349 -0.018534293 0.006153041 -0.009517308 0.0059838723 -0.0011538775 0.020390596
0.013005023 -0.0033265606 -0.009130506 0.03212283 -0.00076970493 -0.018590214 0.005862221 -0.006011589
0.0042867106 -0.0025542006 0.03539876 -0.02771304 0.0028327995 0.0036168336 0.0015950677 -0.010094748
0.030790355 0.013245219 -0.0070405165 -0.023150243 0.0021879608 0.02708638 0.007962294 0.0020333438
-0.0022663134 0.0011451719 0.037536144 -0.010463607 0.009202199 -0.020283755 0.007927525 0.023405889
0.0035674288 0.000699803 -0.020240072 -0.013234012 0.0016426983 -0.021904692 -0.008372755 0.0038667114
-0.010935787 0.015058946 0.007997172 -0.03396286 0.01923127 0.0014922478 0.038867384 -0.014997808
-0.007028317 0.003255891 -0.026078762 -0.0028593019 0.015677579 -0.026198905 0.025663141 0.010481539
0.009070723 -0.0032891105 0.020972056 -0.000110936395 0.028782565 -0.003331337 0.024834916 0.0164568
-0.000519774 -0.050693423 -0.006801987 -0.010510925 0.022477828 0.034460213 -0.0043784976 0.00351604
0.02397174 0.013675904 0.043263953 -0.0011505584 -0.009179623 0.00848042 -0.012828643 0.0011170822
-0.0223534 0.0007614398 0.010444884 -0.028168138 -0.005633369 0.0021029476 -0.00048794775 0.009106413
-0.022749001 0.027496967 0.0019887025 -0.017991316 -0.02546684 -0.04625404 -0.02699252 -0.012136288
0.013009245 0.0058505554 0.013246524 -0.003426839 0.008422691 0.008796181 0.030930249 0.00933315
0.012876957 -0.009826875 0.038117137 -0.00038044003 0.03426915 0.019124802 0.0064666886 -0.02819166
0.036305908 -0.002259605 0.046261847 -0.022788137 0.028074624 -0.0007538195 -0.008858203 0.022152629
-0.0050849435 0.018786114 -0.020492312 -0.01257782 0.023883056 0.008762546 -0.013219893 -0.0460204
0.01686179 0.005110143 -0.020516882 0.02802976 -0.037373245 0.0058675436 0.024048587 0.014703094
-0.013884519 0.0027765094 0.0043431157 0.0068428 -0.02713344 -0.013497915 -0.0006357264 0.001471257
-0.013952344 0.007881599 0.016159425 -0.02775125 0.0016788755 -0.0077228085 -0.022809694 0.004632672

action_model._continuous_distribution.mu.bias f4 [2]
00000000: 784e c5bb 55f8 0fbc
-0.006021317 -0.008787234
