Assets/results/petfollower16/PetFollower/checkpoint.pt (torch, 456738 bytes, 36 tensors)

network_body._body_endoder.seq_layers.0.weight f4 [128, 11]
0	0xbea3b7ce	-0.3197617
1	0xbe80dfcd	-0.25170746
2	0x3ed225d7	0.41044495
3	0xbde48d0a	-0.111597136
4	0x3e4e81fb	0.20166771
5	0x3ee0530a	0.43813354
6	0xbf0f2741	-0.5591927
7	0xbd6b8c0e	-0.057506613
8	0x3e40a40f	0.18812583
9	0x3dfadfb5	0.122497
10	0x3c149615	0.0090689855
11	0x3e93c4b7	0.2886102
12	0xbd806e26	-0.06271009
13	0xbe873f90	-0.26415682
14	0x3f256cd1	0.64619166
15	0x3ee39d38	0.44455886
16	0x3d00b56d	0.03142302
17	0x3e5a2734	0.21304017
18	0xbe5871ce	-0.21137163
19	0xbde67129	-0.11252052
20	0xbe14c95e	-0.1452994
21	0xbd4e3c25	-0.050350327
22	0x3e1367ef	0.14395116
23	0x3e4267db	0.1898493
24	0x3d947af1	0.07250012
25	0x3eb85f50	0.36010218
26	0x3d7c7b1d	0.061640847
27	0x3f109966	0.5648407
28	0x3e91b1ae	0.2845587
29	0xbee0492c	-0.43805826
30	0x3f0c0113	0.5468914
31	0xbd95c4d6	-0.07312934
32	0xbddb3cb2	-0.10704936
33	0x3e4448ae	0.1916835
34	0x3e4e3716	0.20138201
35	0xbdc26f05	-0.094938315
36	0xbe6d93d6	-0.23200926
37	0xbef0700c	-0.46960485
38	0xbdc28e74	-0.09499827
39	0xbe90849a	-0.28226167
40	0xbe9fe122	-0.3122645
41	0x3e427bc0	0.1899252
42	0x3de579c0	0.112048626
43	0xbc5eb6d6	-0.013593396
44	0xbe1f1e1c	-0.1553883
45	0x3e886c4b	0.2664512
46	0x3c233fa7	0.009963906
47	0xbdf8e84c	-0.12153682
48	0x3ddf1276	0.10892193
49	0x3e1fa49a	0.15590134
50	0xbe3ed5ec	-0.18636292
51	0xbf132d7c	-0.5749128
52	0x3e932004	0.28735363
53	0xbe08fba4	-0.13377243
54	0xbde62424	-0.11237362
55	0x3a1f8bdf	0.0006086211
56	0x3e9fb575	0.31193128
57	0xbe7f94e4	-0.24959141
58	0x3e31c19e	0.17359015
59	0xbe187ad9	-0.14890613
60	0xbe44a68a	-0.19204155
61	0xbd4b7547	-0.04967239
62	0xbed7bb68	-0.42135167
63	0x3e73b171	0.23798157
64	0xbe7609e7	-0.24027215
65	0x3f143a09	0.57901055
66	0x3e902abf	0.28157613
67	0x3e4d7964	0.20065838
68	0xbec6b987	-0.3881342
69	0x3e27c037	0.16381918
70	0xbbd0583a	-0.0063581737
71	0xbed2dbf2	-0.4118343
72	0xbd8d8238	-0.06909603
73	0x3f0bcf21	0.5461293
74	0xbd41f9f5	-0.04735752
75	0x3c73dc7b	0.01488411
76	0x3e6198b5	0.2203091
77	0x3ec7b18e	0.3900265
78	0x3e2b4c4d	0.16728325
79	0xbe80f0ef	-0.25183818
80	0xbd9e562f	-0.07731282
81	0xbb8a0110	-0.0042115524
82	0xbcd7c924	-0.026341029
83	0x3ef06fb4	0.46960223
84	0xbe77f9eb	-0.2421643
85	0x3e79b846	0.24386701
86	0xbec2b1db	-0.38026318
87	0x3eafee06	0.34361285
88	0xbeaae1be	-0.33375353
89	0x3d6db0c2	0.058029898
90	0x3d392186	0.045197986
91	0x3e1a8366	0.15089187
92	0xbe8c7bcb	-0.27438197
93	0x3db3799f	0.08763432
94	0xbe7aefec	-0.24505585
95	0x3e2c76ec	0.1684224
96	0x3e92769c	0.28606117
97	0xbeb4eb2d	-0.35335675
98	0xbef07867	-0.4696686
99	0x3f21b80c	0.6317146
100	0xbe88c68c	-0.2671398
101	0x3bcb1a70	0.00619822
102	0x3df52cd8	0.11971444
103	0x3c31a3e1	0.010842294
104	0x3f20dd1f	0.62837404
105	0x3e7608d5	0.24026807
106	0xbdfbb13f	-0.122896664
107	0x3cab6351	0.020921381
108	0xbe1547c3	-0.14578156
109	0xbe3bb340	-0.18330097
110	0x3d75c4be	0.06000208
111	0x3ed28be9	0.41122368
112	0x3ee7877b	0.4522055
113	0xbea7eb7c	-0.32796848
114	0x3ec70892	0.38873726
115	0x3ed2044e	0.4101891
116	0xbe0f2ee0	-0.13982725
117	0xbf0baf36	-0.54564226
118	0x3eaa83d0	0.3330369
119	0xbe97d1fe	-0.296524
120	0xbeffbe3f	-0.49949834
121	0xbdbbc282	-0.09167959
122	0x3e01eda0	0.12688303
123	0xbe807dd4	-0.25096
124	0xbd0edae1	-0.034876708
125	0xbef8997a	-0.48554593
126	0xbe72b141	-0.2370043
127	0xbf01f560	-0.5076504
128	0xbe8bbb4d	-0.27291337
129	0xbe6f16c1	-0.23348524
130	0x3da3512e	0.07974468
131	0xbe742f31	-0.23846127
132	0xbe44f399	-0.1923355
133	0x3f22da3d	0.63614255
134	0xbe8d75a7	-0.27628824
135	0xbd96deba	-0.073667005
136	0xbdb00ea9	-0.08596546
137	0x3e02f734	0.12789613
138	0x3f044e91	0.5168238
139	0x3e73bbc8	0.23802102
140	0x3efc8cc5	0.4932615
141	0xbe48e74e	-0.19619486
142	0xbe8d8512	-0.27640587
143	0x3cc90e83	0.024543053
144	0x3e58d2aa	0.21174112
145	0xbd2a2b50	-0.041545212
146	0xbca73aec	-0.020413838
147	0x3d53f356	0.051745735
148	0x3e250280	0.16114235
149	0x3cf9df0e	0.030501869
150	0x3ed30a34	0.41218722
151	0x3ed3e47d	0.4138526
152	0x3e288e23	0.16460471
153	0xbf212764	-0.6295073
154	0xbe179185	-0.14801605
155	0xbe900c3a	-0.28134328
156	0x3d5f22c7	0.054476526
157	0x3b958212	0.0045626247
158	0x3ee72eca	0.45152885
159	0x3dd19669	0.102337666
160	0xbce991f7	-0.028511984
161	0x3f36b618	0.71371603
162	0xbe4867a2	-0.19570783
163	0x3ecb389f	0.39691636
164	0xbe80ca0e	-0.25154155
165	0x3e449598	0.1919769
166	0x3e911766	0.28338164
167	0xbec16eb1	-0.37779763
168	0x3e09151a	0.13386956
169	0x3da84d0e	0.08217822
170	0x3e235463	0.1595016
171	0x3d6d1d97	0.057889547
172	0x3dc68115	0.09692589
173	0x3f168b1a	0.58806
174	0xbe236c35	-0.15959246
175	0x3cd4b154	0.025963463
176	0x3cb3de39	0.02195655
177	0x3e2170ef	0.15765737
178	0xbecfbe4a	-0.40574867
179	0x3de36f42	0.11105205
180	0x3d1b5a88	0.037928134
181	0x3d92661d	0.07148383
182	0x3e776c1c	0.24162334
183	0x3d875d67	0.06609612
184	0x3de6c67f	0.11268329
185	0xbe752ce9	-0.23942913
186	0x3d9555e4	0.07291773
187	0x3e25fa21	0.16208698
188	0xbe1bcd39	-0.15215005
189	0x3e915ce1	0.28391173
190	0x3e0f01c8	0.13965523
191	0x3e3fe04a	0.18737903
192	0xbe3af299	-0.18256606
193	0xbdc11e40	-0.09429598
194	0x3efd1ac1	0.49434474
195	0x3ee59e06	0.44847125
196	0xbf146377	-0.5796427
197	0x3e1a907c	0.15094179
198	0xbebe9b3a	-0.37227803
199	0xbebeff5a	-0.37304193
200	0x3e45fb9a	0.1933426
201	0x3d9f6bb3	0.07784214
202	0x3f2c57af	0.67321295
203	0x3ecd4c2e	0.40097183
204	0xbda3ecd2	-0.08004154
205	0xbec49ec5	-0.38402382
206	0xbe16288f	-0.1466391
207	0xbe710fb5	-0.23541148
208	0xbf35a85b	-0.70960015
209	0x3e81c26c	0.25343645
210	0x3eca9402	0.39566046
211	0x3e1aa7e0	0.15103102
212	0xbe5c097c	-0.21487993
213	0xbe80b2f8	-0.25136542
214	0xbe33c2f5	-0.17554839
215	0x3ed5a7a5	0.41729465
216	0xbe634a36	-0.22196278
217	0x3e4745a3	0.19460158
218	0x3e6026b9	0.21889772
219	0xbd9d79ec	-0.076892704
220	0xbe83563e	-0.25651735
221	0xbe4fc981	-0.20291711
222	0xbd986e67	-0.074429326
223	0xbf1a9224	-0.6037924
224	0x3e89c3fc	0.26907337
225	0xbd5f24e2	-0.054478534
226	0x3e9a0f47	0.3008978
227	0xbedd89bd	-0.43269148
228	0x3e7b6ef6	0.24554047
229	0x3e873e61	0.2641478
230	0xbd9e5720	-0.077314615
231	0xbecbdba8	-0.39816022
232	0xbc98e616	-0.018664401
233	0xbee3c27c	-0.44484317
234	0xbd097539	-0.033559058
235	0xbf6d00a6	-0.92579114
236	0x3e912220	0.28346348
237	0x3f0acee0	0.54221916
238	0x3e05ab6d	0.13053675
239	0x3e765538	0.24055946
240	0x3e54f37a	0.20796004
241	0xbf291f5a	-0.66063464
242	0x3ebf9a5a	0.37422448
243	0xbf3f4b1a	-0.7472397
244	0x3e9908be	0.29889482
245	0xbe6558f3	-0.22397213
246	0xbf3931ed	-0.72341806
247	0xbe1f4edd	-0.15557428
248	0x3e49e74c	0.19717139
249	0xbf047ede	-0.51756084
250	0xbd049f6d	-0.032378603
251	0xbec41f33	-0.38305053
252	0xbd80b5da	-0.062846854
253	0x3e60d43a	0.21955958
254	0x3f33b149	0.7019239
255	0xbd20c77a	-0.039252736

network_body._body_endoder.seq_layers.0.bias f4 [128]
0	0xbd1242a1	-0.035708074
1	0x3c92d5f6	0.01792429
2	0xba7f3de9	-0.00097367034
3	0xbc822dac	-0.015890919
4	0x3cb6af17	0.022300286
5	0xbca05eef	-0.019576518
6	0x3c084596	0.008317372
7	0x3b8a5433	0.004221463
8	0xbc99e69e	-0.018786725
9	0xbab1e31e	-0.0013571715
10	0xbca1ce39	-0.019751655
11	0xbb99dd25	-0.004695552
12	0xbc8f4418	-0.017488524
13	0x3b245127	0.0025072785
14	0x3a170c43	0.000576202
15	0xbd176bb6	-0.036967956
16	0x3c59ee81	0.013301493
17	0xbb981933	-0.004641676
18	0xbd1c9bc6	-0.038234495
19	0xbc2482b8	-0.010040931
20	0xbc4820e7	-0.012214876
21	0xbaf54438	-0.0018712347
22	0xbcb2fc91	-0.021848949
23	0xbc0f25d2	-0.008737044
24	0xbb4d0cb3	-0.0031288087
25	0xbd1ab37d	-0.03776883
26	0xbc430f81	-0.011905552
27	0x3b3bb677	0.0028642693
28	0xbd0d6708	-0.034522086
29	0x3c3c5e80	0.01149714
30	0xbcbb67f8	-0.022876725
31	0x3c101703	0.008794549
32	0xbc9b8fc2	-0.018989448
33	0x3c12cf1d	0.0089605125
34	0x3b5599fc	0.0032593003
35	0xbbfcad90	-0.00771112
36	0xbd7985c9	-0.060918603
37	0xbd0b06ed	-0.03394215
38	0xbc0cf7fd	-0.008604047
39	0xbbf3d016	-0.0074405773
40	0x3ca4b755	0.02010695
41	0x3d0ff1b8	0.03514263
42	0xbcd8e799	-0.026477622
43	0x3bb32e71	0.0054681827
44	0x3d1e987b	0.038719635
45	0xbced57c7	-0.02897252
46	0x3d3904ec	0.04517071
47	0xbd17bb8d	-0.037044097
48	0x3cbde24d	0.023179198
49	0xbc6b2567	-0.014352179
50	0x3bd75127	0.0065709534
51	0xbcc23d53	-0.023710882
52	0xbc183157	-0.009289107
53	0xbc492465	-0.012276744
54	0xbc8e1022	-0.017341677
55	0xbb2cb220	-0.0026351288
56	0x3cb9f517	0.022699876
57	0xbb489df3	-0.0030611723
58	0x3c8c3657	0.017115755
59	0xbbafe247	-0.0053675505
60	0xbba933e5	-0.005163657
61	0x3cc05391	0.023477348
62	0xbd4f00b7	-0.05053779
63	0xbc873705	-0.016505728
64	0xbba12da3	-0.0049187704
65	0x3c3aa3e5	0.011391615
66	0xbc6320af	-0.013862773
67	0x39df98c4	0.00042647694
68	0xbc3d5ea8	-0.011558212
69	0x3ce17117	0.027519746
70	0x3c481b99	0.012213611
71	0xbccb9763	-0.02485246
72	0xba4fd0ee	-0.0007927556
73	0x3c6fbf97	0.014633081
74	0x3bd0cac1	0.0063718264
75	0x3c407394	0.011746306
76	0xbc0698d4	-0.008215148
77	0x3c2df4a1	0.010617406
78	0xbd54db77	-0.05196711
79	0xbce69069	-0.028145032
80	0x3c0f90ca	0.008762548
81	0xbcf90ee3	-0.030402606
82	0x3c483330	0.012219235
83	0x3c84b7a5	0.01620085
84	0xbc8e3768	-0.017360404
85	0xbaf107d5	-0.0018389175
86	0xbc655582	-0.013997437
87	0x3c3a7d18	0.011382364
88	0xbcafaff7	-0.021446211
89	0x3cb73235	0.022362808
90	0xbc81d491	-0.01584843
91	0xbb819af7	-0.003955241
92	0xbcc51d0d	-0.024061704
93	0xbcc1bf93	-0.02365092
94	0x3aa5a7b5	0.0012638482
95	0xbb1f3464	-0.0024292702
96	0xbb97f967	-0.0046378854
97	0xbcb4c130	-0.022064775
98	0xbd21172c	-0.03932874
99	0x3d352f17	0.04423436
100	0xbc53eedb	-0.012935366
101	0x3c30ef22	0.010799201
102	0x3bf76385	0.0075497054
103	0x3c325ced	0.010886413
104	0xbc9adaab	-0.018903097
105	0xbc8a35e9	-0.01687141
106	0x3c48f62b	0.012265722
107	0x3bdf372a	0.006811996
108	0x3a6d6509	0.0009055888
109	0x3ba0de92	0.004909345
110	0xbc240c68	-0.0100127235
111	0xbd49586d	-0.049156595
112	0x3c544563	0.012955996
113	0xbc431290	-0.011906281
114	0xbcb64294	-0.022248544
115	0xbc85bac1	-0.016324403
116	0xbc995f55	-0.018722216
117	0xbd1a2753	-0.03763516
118	0xbbcb88a9	-0.0062113595
119	0x3c44b156	0.012005171
120	0xbcc5e606	-0.024157535
121	0x3ca2d930	0.019878954
122	0xbcaa6125	-0.020798275
123	0xbcbcd43a	-0.023050416
124	0xbc3f2491	-0.011666433
125	0xbc78b720	-0.015180379
126	0x3c587cbf	0.013213336
127	0x3c90f306	0.017694008

network_body._body_endoder.seq_layers.2.weight f4 [128, 128]
0	0xbdc0d11e	-0.09414886
1	0x3d6d5523	0.05794252
2	0x3cac84ba	0.021059383
3	0xbdae00c3	-0.08496239
4	0x3d556c57	0.052105274
5	0x3e0404b0	0.12892413
6	0x3df663f5	0.12030784
7	0x3da8a254	0.08234087
8	0x3df39a5b	0.11894675
9	0xbd9ca12b	-0.07647928
10	0x3b99c642	0.0046928236
11	0xbb9b12ff	-0.004732489
12	0xbdf1d7bb	-0.118087254
13	0xbc936014	-0.01799015
14	0x3d86782e	0.06565891
15	0x3c01a7e1	0.007913561
16	0x3cde120b	0.027108213
17	0xbbe70fd7	-0.007051449
18	0xbd92ad12	-0.07161917
19	0x3bccebe5	0.0062537068
20	0x3d1778a7	0.036980297
21	0x3ce5063f	0.02795708
22	0x3c480de3	0.012210342
23	0xbe0554c7	-0.13020621
24	0x3ac699e2	0.0015152062
25	0xbdd5b631	-0.10435141
26	0xbe59e70b	-0.21279542
27	0x3ca295a9	0.019846754
28	0x3da0e545	0.0785623
29	0x3d9ebfb3	0.077514075
30	0x3d99156f	0.07474791
31	0xbd537079	-0.051620934
32	0x3d898d7e	0.067164406
33	0x3d665e86	0.05624249
34	0x3db23183	0.0870085
35	0x3d5dd1b2	0.05415506
36	0xbe3e35c7	-0.18575202
37	0xbc467808	-0.012113579
38	0xbe0a92f7	-0.13532625
39	0xbd4c44a6	-0.049870156
40	0x3e03f539	0.12886514
41	0x3e05fa1f	0.13083695
42	0x3d13e73a	0.036109187
43	0xbccc9df5	-0.024977664
44	0x3e7f1f5f	0.24914311
45	0xbe4aba8d	-0.19797726
46	0xbc8c4324	-0.017121859
47	0xbba94946	-0.0051662056
48	0x3dca2883	0.09871008
49	0x3de5aacd	0.11214218
50	0x3d4092f1	0.047015134
51	0xbdcc6755	-0.099806465
52	0xbdd3908f	-0.10330307
53	0x3bce760c	0.0063006934
54	0x3dac62ae	0.08417259
55	0xbd8eb7b9	-0.06968636
56	0xbc8feea0	-0.01756984
57	0xbe2ba616	-0.16762576
58	0xbd9d4b32	-0.07680358
59	0xbd084877	-0.033272233
60	0x3e2e4cc9	0.17021479
61	0x3d9a6402	0.07538606
62	0x3cbed833	0.023296451
63	0xbe87454b	-0.26420054
64	0xbe0ffd8e	-0.14061567
65	0x3d7a77c1	0.061149362
66	0xbcecdc6a	-0.028913695
67	0x3d6c07ce	0.05762463
68	0xbd90e3d7	-0.07074707
69	0x3b9587ad	0.004563293
70	0xbe51a602	-0.20473483
71	0xbcd31ae9	-0.025769668
72	0x3d9fe6ca	0.078076914
73	0xbd5edf22	-0.054412015
74	0x3c9a6909	0.018848913
75	0x3b556de8	0.003256673
76	0x3d992d8f	0.07479393
77	0x3bd0522b	0.0063574514
78	0xbe815eb5	-0.25267568
79	0xbd0c4d0b	-0.03425316
80	0xbc89d9ac	-0.016827427
81	0xbd8886bb	-0.06666323
82	0x3d9a20c9	0.075257845
83	0xbe14a587	-0.14516269
84	0xbc56d317	-0.013111851
85	0xbd9aa894	-0.07551685
86	0x3bc0c00d	0.0058822692
87	0x3d86c27e	0.06580065
88	0xbdd694e3	-0.10477617
89	0x3d6ab65f	0.05730283
90	0xbdd042d9	-0.10169
91	0x3df06e8f	0.117398374
92	0x3d6cbad5	0.057795364
93	0x3e02af4b	0.12762181
94	0xbd83fc3c	-0.06444594
95	0x3da0310a	0.078218535
96	0x3d94a6b2	0.07258357
97	0xbdd44c36	-0.103660986
98	0x3e18a870	0.14908004
99	0x3a9d142e	0.0011984163
100	0xbc97c8f6	-0.018528443
101	0x3d8ceb46	0.06880812
102	0x3dd695e0	0.10477805
103	0xbd223b50	-0.039607346
104	0x3d9588ce	0.07301484
105	0x3bc08937	0.0058757323
106	0xbdc7979f	-0.09745716
107	0x3d5d4b9b	0.05402718
108	0xbcc45d65	-0.023970315
109	0xbd32bbba	-0.04363606
110	0x3caf92cb	0.021432301
111	0x3dcb847c	0.09937379
112	0x3d163f44	0.03668143
113	0x3d744d2f	0.05964392
114	0x3cba878f	0.022769717
115	0xbd840032	-0.0644535
116	0xbd6ca407	-0.057773616
117	0x3e178259	0.14795817
118	0x3db44444	0.08802083
119	0xbd29a428	-0.041416317
120	0xbdc4942e	-0.095985755
121	0x3c12692e	0.00893621
122	0x3d04496b	0.03229658
123	0xbd3063dd	-0.043063987
124	0xbd6f4602	-0.058416374
125	0x3db5a82d	0.088699676
126	0x3d4b7120	0.04966843
127	0x3e01e0fb	0.1268348
128	0x3c9eac4d	0.019369269
129	0xbd32ed44	-0.043683305
130	0x3cfbddaf	0.030745355
131	0xbde3834d	-0.11109028
132	0xbcd206f4	-0.025638081
133	0xbd461c2d	-0.048366714
134	0x3c4e9fea	0.012611369
135	0x3dd3938b	0.10330876
136	0xbddf3509	-0.108987875
137	0xbe18e30b	-0.1493036
138	0xbd2fa910	-0.04288584
139	0x3d8d690e	0.06904803
140	0x3d562895	0.052284796
141	0x3df9eeaf	0.122037284
142	0x3d8affbb	0.06787058
143	0x3d29ee69	0.04148713
144	0x3dcd3b04	0.10021022
145	0x3cc4e317	0.024034066
146	0xbcde084d	-0.027103567
147	0x3d0cdc9b	0.034390073
148	0x3e44fe25	0.19237573
149	0xbbfb0c5e	-0.0076613864
150	0xbe0e66e1	-0.13906433
151	0xbca512b9	-0.02015053
152	0xbe11bc0e	-0.14231893
153	0x3e6fb444	0.2340861
154	0x3d7cec07	0.06174853
155	0x3e1c49a4	0.15262467
156	0x3d45f95e	0.04833352
157	0x3d5be6e7	0.053687003
158	0x39c64696	0.00037818094
159	0xbe1038c7	-0.14084159
160	0xbda7bc1f	-0.08190178
161	0x3da8c643	0.082409404
162	0xbd1ada84	-0.03780605
163	0xbcab5161	-0.020912828
164	0xbb3a3380	-0.0028412044
165	0xbdc224aa	-0.09479649
166	0xbd7fe233	-0.06247158
167	0xbd5725d8	-0.052526325
168	0x3d808523	0.06275394
169	0xbd3c4633	-0.045965385
170	0xbde95c2b	-0.11394533
171	0x3daf1150	0.08548224
172	0xbd83f153	-0.06442513
173	0xbda30ccc	-0.07961425
174	0x3e4d68c4	0.20059496
175	0xbe21d84f	-0.15805171
176	0x3cb286e2	0.021792833
177	0x3e236283	0.15955548
178	0xbd985de3	-0.074397825
179	0x3d41f18f	0.04734951
180	0x3d544a76	0.051828824
181	0xbc972c27	-0.01845367
182	0xbcfff4dd	-0.03124469
183	0x3c51ae01	0.012797833
184	0x3d6f906d	0.058487345
185	0x3e07deed	0.13268633
186	0x3d11b428	0.0355722
187	0x3b8bed3c	0.004270224
188	0x3d20a9b6	0.03922435
189	0xbd0fd813	-0.035118174
190	0x3d2fca31	0.042917434
191	0x3db0cb93	0.08632579
192	0xbd671001	-0.056411747
193	0xbd7dc4b7	-0.06195518
194	0x3e0bcb2d	0.13651724
195	0xbdc3ce3d	-0.09560821
196	0xbdb3dccf	-0.0878235
197	0x3c4b5456	0.012410244
198	0xbd317258	-0.043321937
199	0x3d6d761c	0.057973966
200	0x3e4049ef	0.18778203
201	0xbcdd752b	-0.02703341
202	0xbd1fa3e7	-0.03897467
203	0x3d20854d	0.039189626
204	0xbdc4060f	-0.09571468
205	0x3cbc8db3	0.023016786
206	0x3dba7210	0.09103787
207	0x3c8eb6e8	0.0174212
208	0x3d1f0b77	0.038829293
209	0x3d13aa5e	0.036051147
210	0xbd832c24	-0.064049035
211	0xbe2bc56c	-0.16774529
212	0xbd273448	-0.040821344
213	0xbcd339fa	-0.025784481
214	0xbd404e7a	-0.04694984
215	0x3d3c57a1	0.045982007
216	0x3e16d823	0.14730887
217	0xbdca7796	-0.098860905
218	0xbd405eb0	-0.0469653
219	0x3cc283f5	0.023744563
220	0xbd7306a4	-0.059332505
221	0xbd2809d4	-0.041024998
222	0x3da9d4a2	0.082925096
223	0xbc236cf4	-0.009974707
224	0x3de235ff	0.11045455
225	0xbe2bb8d6	-0.16769728
226	0xbd8fc5df	-0.07020163
227	0xbdcb5445	-0.099281825
228	0xbe188f70	-0.14898467
229	0xbe0d625e	-0.13807055
230	0x3d5883ba	0.05286
231	0xbcd16611	-0.025561364
232	0x3e155d0b	0.14586274
233	0xbe1a24ae	-0.15053055
234	0x3d511f10	0.051055014
235	0x3e0d15ea	0.13777891
236	0x3c8b8633	0.017031765
237	0xbd3426a4	-0.043982163
238	0x3de7ba74	0.1131486
239	0x3dc19ea7	0.09454089
240	0x3d13f38c	0.036120936
241	0xbdb98fa9	-0.09060604
242	0xbd373efe	-0.04473781
243	0x3d2f8d4b	0.042859357
244	0xbd2224be	-0.03958582
245	0xbe2e3e09	-0.17015852
246	0xbd1e16f1	-0.038596097
247	0x3da2ed38	0.07955402
248	0xbd8da27e	-0.069157586
249	0xbc8822ed	-0.016618216
250	0xbd639731	-0.05556411
251	0xbd750e39	-0.059828017
252	0x3d2423a7	0.040073063
253	0x3d16f2d5	0.036852676
254	0xbde4585b	-0.11149665
255	0x3d5d8b76	0.05408808

network_body._body_endoder.seq_layers.2.bias f4 [128]
0	0xbbd18fb0	-0.0063953027
1	0xbba1fdf8	-0.0049436055
2	0xbbf805f7	-0.0075690704
3	0x3babc2fc	0.00524175
4	0x3c810136	0.015747648
5	0xbd0ec598	-0.03485641
6	0xbbcd83cf	-0.0062718163
7	0xbcac8668	-0.021060184
8	0xbca397be	-0.019969817
9	0x3cc4f82a	0.024044115
10	0xbd38c19a	-0.045106508
11	0xbcc07d85	-0.023497352
12	0xbd42ba66	-0.047541045
13	0xbd03737f	-0.032092568
14	0xbd159bdd	-0.036525596
15	0x3c1d7417	0.0096101975
16	0x3c95da2b	0.018292507
17	0x3c7fb0d0	0.01560612
18	0xbc72e4d3	-0.014825064
19	0xbc191102	-0.009342434
20	0xbcecbabc	-0.028897636
21	0xbca8a969	-0.020588594
22	0xbc9bcc82	-0.019018415
23	0xbc60b90c	-0.013715994
24	0xbbd19a0b	-0.006396537
25	0xbc124201	-0.008926869
26	0xbc924126	-0.01785333
27	0x3b83d875	0.0040236064
28	0xbc8c9309	-0.017159956
29	0x3c47f39d	0.012204078
30	0xbc0baede	-0.008525578
31	0xbbeec5e3	-0.0072867735
32	0xbcb73079	-0.02236198
33	0x3c66541e	0.014058141
34	0xbcb1bd4e	-0.021696713
35	0xbd1ec9b1	-0.038766567
36	0x3bdb99a3	0.0067016645
37	0xbc85c447	-0.016328944
38	0x3c6c174c	0.014409851
39	0xbc060f48	-0.008182354
40	0x3ba8085d	0.00512795
41	0x3c727f3a	0.014800841
42	0xbc6e2281	-0.014534594
43	0xbc15829a	-0.009125376
44	0xbcc0bffe	-0.023529049
45	0x3c984784	0.018588789
46	0xbd37c989	-0.044869933
47	0xbb4902d1	-0.0030671845
48	0x3cd3a77a	0.025836695
49	0x3cc0ca0e	0.023533847
50	0xbc95e908	-0.018299595
51	0xbc97074d	-0.018436098
52	0x3c849c99	0.016187953
53	0x3caeb1e5	0.021325061
54	0x3aff38e3	0.001947191
55	0xbc9c05c5	-0.01904572
56	0x3bfca207	0.007709745
57	0xbc7e9161	-0.015537591
58	0xbc8544c1	-0.016268136
59	0x3b91c41e	0.004448428
60	0xbcb69b30	-0.022290796
61	0x3b8d2b6c	0.004308155
62	0xbc827879	-0.015926586
63	0x3cb44461	0.022005262
64	0xbc9e2407	-0.019304289
65	0xbc8b114f	-0.016976027
66	0xbca694ef	-0.020334689
67	0xbc93c97d	-0.018040413
68	0xb910f3e2	-0.00013823764
69	0xbca10827	-0.019657208
70	0xbb1e71a8	-0.002417663
71	0xbc840364	-0.016114898
72	0xbc7ae9ff	-0.015314578
73	0x397c9891	0.00024089428
74	0x3c0e93e2	0.00870225
75	0xbbc26a32	-0.0059330696
76	0x3cb1f2be	0.021722194
77	0xbc98c6ac	-0.018649422
78	0x3bdbc2c5	0.006706568
79	0xbca27816	-0.019832652
80	0xbd3bb19c	-0.04582368
81	0xbcb20bc1	-0.02173412
82	0xbb9f4cf9	-0.004861471
83	0xbafbc4be	-0.0019208414
84	0xbcb84996	-0.022496026
85	0x3c8ae1d4	0.016953386
86	0x3bb57843	0.005538018
87	0xbc8bc65e	-0.017062362
88	0xbd2fa598	-0.042882532
89	0x3ca0cb54	0.019628204
90	0xbd600b2f	-0.054698166
91	0x3c4df4d9	0.012570583
92	0x3c402c65	0.0117293345
93	0xbbfca666	-0.007710266
94	0xbccdfd70	-0.025145262
95	0xbcf50b88	-0.029912725
96	0xbd53f0b6	-0.05174323
97	0xbb553de1	-0.0032538103
98	0xbc065799	-0.008199596
99	0xbcb27de2	-0.021788541
100	0xbbe9c075	-0.0071335384
101	0xbca14355	-0.019685427
102	0xbd48a077	-0.048981156
103	0xbc7e4c95	-0.015521188
104	0xbc86b0ac	-0.016441666
105	0x3ccb06c6	0.024783503
106	0xbcf4460e	-0.02981856
107	0x3ac69b41	0.001515247
108	0xbc69e2db	-0.014275278
109	0x3b9f7513	0.0048662513
110	0x3c389690	0.011266366
111	0x3abd0f90	0.0014424194
112	0x3c3f6ec0	0.01168412
113	0xbd0e7665	-0.03478088
114	0xbc19ffd8	-0.009399377
115	0xbcb07b48	-0.02154316
116	0xbd1a93f6	-0.037738763
117	0xbc7efa80	-0.015562654
118	0xbcbbd27a	-0.022927511
119	0xbbe74d0a	-0.0070587443
120	0xbd01ed3d	-0.03172039
121	0xbc98fcc8	-0.018675223
122	0xbc5079e6	-0.012724375
123	0xbb54e16b	-0.0032482992
124	0x3ba5ecd5	0.005063633
125	0xbd193c5d	-0.037411083
126	0xbccb252e	-0.024798002
127	0xba32c658	-0.00068197167

action_model._continuous_distribution.log_sigma f4 [1, 2]
0	0xbda81518	-0.08207148
1	0xbbcbc97b	-0.0062190867

action_model._continuous_distribution.mu.weight f4 [2, 128]
0	0x3a9e534d	0.0012079269
1	0xbb28e4ed	-0.0025771216
2	0xbd22912f	-0.03968924
3	0x3befc555	0.007317225
4	0xbb933e21	-0.0044934903
5	0xbd247163	-0.040147197
6	0xbc4d0d9e	-0.012515454
7	0xbccd28c4	-0.025043853
8	0xbc2ff6ee	-0.010740025
9	0xbbbbca44	-0.005730899
10	0xbd0b075f	-0.033942576
11	0xbc8ead3f	-0.017416595
12	0xbcf5e477	-0.030016167
13	0xbd3290f7	-0.04359528
14	0xbcdf2867	-0.027240945
15	0x3cf28704	0.029605396
16	0x3d0ab92a	0.033867992
17	0x3ced5eae	0.02897581
18	0xbc7dc626	-0.015489137
19	0xba18d798	-0.0005830466
20	0xbd119e50	-0.03555137
21	0xbd32c5a1	-0.043645505
22	0xbcd2d496	-0.025736134
23	0xbb6afdb1	-0.0035856778
24	0xbc6c1be2	-0.014410945
25	0x3bdc39b9	0.0067207483
26	0xbcd25834	-0.025676824
27	0xbbad2bb4	-0.005284751
28	0xbbc86e82	-0.006116689
29	0x3b93e8d5	0.0045138397
30	0xbcaa75dd	-0.020808155
31	0xbb34f139	-0.00276096
32	0xbba2aa5e	-0.004964157
33	0x3c2019f0	0.009771809
34	0xba3a9444	-0.000711743
35	0xbd71a321	-0.058993462
36	0xbc9eb043	-0.019371158
37	0xbcb02886	-0.021503698
38	0x3c88762e	0.016657915
39	0xba5da046	-0.00084543636
40	0x3b23e24f	0.0025006717
41	0x3cc61ff3	0.024185156
42	0xbc0d507c	-0.008625146
43	0xbb840907	-0.0040293965
44	0xbcef54e8	-0.029215291
45	0x3c75d1e6	0.015003657
46	0xbd0750bb	-0.033035975
47	0x3c8ac4fc	0.016939633
48	0x3c9fa0f0	0.01948592
49	0x3cf50f32	0.029914472
50	0xbc8cc7d5	-0.017185131
51	0xbca0445a	-0.019563843
52	0xbadd4f30	-0.0016884562
53	0x3c376f07	0.011195905
54	0x3c6f5eee	0.014610035
55	0xbd1d49fd	-0.03840064
56	0x3adb07dd	0.0016710717
57	0xbc9c75d0	-0.019099146
58	0xbbf6d5fa	-0.007532832
59	0x3a739b99	0.00092929
60	0xbc9ccfcc	-0.019142054
61	0x3a7b24ba	0.0009580363
62	0xbd652f2b	-0.055953186
63	0x3cf85e0b	0.03031828
64	0xbb683592	-0.003543232
65	0xbc543290	-0.012951508
66	0xbd9f1b4f	-0.077688806
67	0xbb6d6e98	-0.003622925
68	0x3b3139b7	0.0027042457
69	0xbc3757fe	-0.011190413
70	0xbb712d00	-0.0036800504
71	0x39fb19bc	0.00047893624
72	0xbd175d1a	-0.036954023
73	0x3c59711b	0.013271595
74	0x3cd87f1d	0.0264278
75	0xbc713c4e	-0.01472385
76	0x3ca1dcd7	0.019758625
77	0xbbab6188	-0.0052301325
78	0xbb5f497a	-0.0034070895
79	0xbd0b8ccf	-0.034069832
80	0xbd3f6b9e	-0.04673349
81	0xbc1fccf4	-0.0097534545
82	0xbbac2cad	-0.005254349
83	0xbc0e3d46	-0.008681601
84	0xbd1998f0	-0.03749937
85	0xbbdd4aaf	-0.0067532877
86	0x3b87e610	0.0041472986
87	0xbc74291d	-0.01490238
88	0xbce7d038	-0.028297529
89	0x3cacb870	0.02108404
90	0xbcd01962	-0.025402728
91	0x3b333e99	0.0027350544
92	0x3c2af50b	0.010434399
93	0xbcded33f	-0.02720034
94	0xbc5971d7	-0.01327177
95	0xbd02d4b4	-0.03194113
96	0xbd5b3e1f	-0.05352604
97	0xbad8ebb6	-0.001654974
98	0xbbb5bb17	-0.0055459845
99	0xbd015662	-0.03157652
100	0x3bf43bca	0.0074534165
101	0xbc46dac0	-0.012137115
102	0xbd1932dc	-0.03740202
103	0xbb8b508e	-0.004251546
104	0xbbbf8426	-0.0058446107
105	0x3c80c69b	0.015719702
106	0xbd32a18d	-0.043611098
107	0x3b88fc9c	0.004180504
108	0xbc8da74c	-0.017291687
109	0xbca5f303	-0.020257479
110	0xbb6a4116	-0.003574436
111	0xbc163bef	-0.009169563
112	0xbc417ba8	-0.011809267
113	0xbc3138af	-0.010816737
114	0xbb849c64	-0.0040469635
115	0xbc9ae7e3	-0.0189094
116	0xbc78db63	-0.015189025
117	0xbbc44024	-0.0059890915
118	0xbc4172cd	-0.011807156
119	0x3b95c61d	0.004570736
120	0xbd013638	-0.031545848
121	0xbcc53464	-0.024072833
122	0xbb034438	-0.0020029675
123	0xbaab75e9	-0.0013081405
124	0xbc938606	-0.018008243
125	0xbcaa45b7	-0.020785196
126	0xbc83654b	-0.016039511
127	0x3c225776	0.009908548
128	0xba1d23bd	-0.00059944
129	0x3bf878d3	0.0075827627
130	0xbd2bac2f	-0.041912254
131	0x3cda8946	0.026676785
132	0xbd1267de	-0.035743587
133	0xbd00ec6d	-0.031475473
134	0xbc8fd085	-0.017555485
135	0xbcc2d059	-0.023780989
136	0x3b239af1	0.0024964178
137	0x3b5baa1d	0.0033518143
138	0x3ca06b92	0.019582544
139	0x3cd5d1dd	0.026101047
140	0xbc609deb	-0.013709526
141	0xbc82702b	-0.015922626
142	0xbc07ab9e	-0.008280663
143	0xbbbb6c28	-0.0057196803
144	0x3c390f6b	0.01129518
145	0x3ac06310	0.001467796
146	0xbc1d403a	-0.009597832
147	0xbb3085f3	-0.0026935309
148	0xbcf1537a	-0.02945875
149	0xbd04f503	-0.032460224
150	0xbd4e4939	-0.0503628
151	0xbbd6f77b	-0.0065602637
152	0xbd67a9a6	-0.056558274
153	0xba4f285a	-0.0007902436
154	0xbcaf6750	-0.021411568
155	0x3c01e594	0.007928271
156	0xbb815354	-0.003946701
157	0xbd39d278	-0.045366734
158	0xbd1c5e68	-0.03817597
159	0x3c2e08ac	0.010622185
160	0x3b18430e	0.0023233327
161	0xbcce1e6b	-0.025160989
162	0x38c989be	9.610083e-05
163	0xbcb56006	-0.022140514
164	0xbd2ba24a	-0.041902818
165	0xbca0e394	-0.019639768
166	0x3c539b0c	0.012915384
167	0x3c36eeb4	0.01116531
168	0x3c5bb618	0.013410114
169	0x3c6abe5b	0.014327611
170	0x3c3fd14e	0.011707617
171	0x393eb075	0.00018185547
172	0xbc94ed5f	-0.018179594
173	0x3c736df1	0.014857755
174	0x3c33981f	0.010961561
175	0xbcbf02f5	-0.02331684
176	0xbc9704d7	-0.018434925
177	0x3c47f47b	0.012204285
178	0xbc86b349	-0.016442912
179	0xbce6bb90	-0.028165609
180	0x3c5da2b5	0.013527562
181	0x3c9693ec	0.018381082
182	0xbc9d034f	-0.019166617
183	0x3c9f7195	0.01946334
184	0x3c31df7b	0.010856505
185	0x3caf2b48	0.021382943
186	0xbc944efa	-0.018104065
187	0x3d534e85	0.051588554
188	0xbba611d2	-0.0050680423
189	0xbc98ed0a	-0.018667717
190	0x3c464db6	0.012103489
191	0x3cb47030	0.022026151
192	0x3bd996f4	0.0066403095
193	0xbc862c70	-0.016378611
194	0x3d4879af	0.04894417
195	0xbc50074b	-0.012697051
196	0x3c8367c9	0.0160407
197	0x3b3f57a5	0.0029196527
198	0xbc489207	-0.012241847
199	0xbc37aeda	-0.011211121
200	0xbcf2410b	-0.02957203
201	0xbc007290	-0.007839814
202	0xbb94b451	-0.004538097
203	0xbced6355	-0.02897803
204	0x3cab7ba5	0.020932982
205	0x3ad83535	0.0016495349
206	0xba957f4e	-0.0011405738
207	0x3d2d5e69	0.042326365
208	0x3bb1ccd8	0.0054260306
209	0xbb18f103	-0.0023337014
210	0xbcd9ed5c	-0.02660244
211	0x3cf963b9	0.03044306
212	0x3ccfa58e	0.025347497
213	0x3c2c44e9	0.010514476
214	0xba8279dc	-0.000995453
215	0xbd3689e8	-0.04456511
216	0xbc05403e	-0.008132992
217	0x3ca1a2b2	0.0197309
218	0x3c0e411d	0.008682516
219	0xbd25f000	-0.040512085
220	0x3c8ca8ed	0.017170394
221	0xbc67adb6	-0.014140537
222	0xbc7e59ee	-0.015524371
223	0x3c850976	0.016239863
224	0x36a2cb5c	4.8516504e-06
225	0x3cbeb1a9	0.023278074
226	0xbca02159	-0.019547151
227	0xbd32fd18	-0.0436984
228	0xbc929cd8	-0.017897055
229	0xbc819df3	-0.015822386
230	0xb972d616	-0.00023158672
231	0xbd0bd039	-0.034134123
232	0xbc5897c2	-0.013219776
233	0x3ca68dae	0.02033123
234	0xbcad7bb0	-0.021177143
235	0x3c25c538	0.010117821
236	0x3cc8b77a	0.024501551
237	0xbd339785	-0.043845672
238	0x3c428e0a	0.011874685
239	0xbd1e016d	-0.03857558
240	0xbd61c4d0	-0.055119336
241	0xbc43d7c5	-0.011953299
242	0x3c5c45da	0.013444388
243	0xb9bf5f69	-0.00036501445
244	0xbc4564a4	-0.01204792
245	0x3ca27d04	0.019835003
246	0xbc051935	-0.008123686
247	0x3c5af701	0.013364554
248	0xbc97a159	-0.018509554
249	0x3bf58eba	0.007493821
250	0x3bde8a40	0.006791383
251	0x3b30a968	0.0026956443
252	0xbd62a05a	-0.055328704
253	0x3abb87c0	0.0014307424
254	0xbbb0555a	-0.0053812684
255	0xbc3d0611	-0.011537091

action_model._continuous_distribution.mu.bias f4 [2]
0	0x3cd9b330	0.026574701
1	0x3bf5496a	0.0074855583

exp_avg f4 [128, 11]
0	0xb48dc854	-2.6409054e-07
1	0xb100c878	-1.8740405e-09
2	0x34d6ea2b	4.0030986e-07
3	0x3563d2c0	8.487077e-07
4	0x31887050	3.9708894e-09
5	0x3323c78d	3.8132885e-08
6	0x3736e0f4	1.0900421e-05
7	0x3557dfd6	8.0419466e-07
8	0xb40b3c82	-1.2967396e-07
9	0x00000000	0.0
10	0xb4bf8611	-3.5674068e-07
11	0x388221b0	6.205158e-05
12	0xb5121b7a	-5.442922e-07
13	0x392ddd01	0.00016580896
14	0xb88e2f1e	-6.779864e-05
15	0x352bed5f	6.4047885e-07
16	0xb7ac35d7	-2.0529069e-05
17	0x3b25bd5d	0.0025289871
18	0x393c4ee5	0.00017958468
19	0xb83f3c50	-4.559412e-05
20	0x00000000	0.0
21	0x3889900f	6.559502e-05
22	0xb7767760	-1.4690537e-05
23	0xb4fd9b42	-4.7237887e-07
24	0x38f19177	0.000115188705
25	0x39cf17f9	0.00039499978
26	0xb688d172	-4.0774985e-06
27	0x38d94653	0.00010360465
28	0x3a97f4b0	0.0011593308
29	0x39038e16	0.00012546065
30	0x39bb6685	0.00035743802
31	0x00000000	0.0
32	0x39af0565	0.0003338262
33	0x37050719	7.92907e-06
34	0xb3ade64c	-8.097831e-08
35	0x37d83676	2.5774567e-05
36	0x36905216	4.3010905e-06
37	0xb393dabd	-6.885009e-08
38	0xb6a0dbf3	-4.793977e-06
39	0x39cc4fa5	0.00038969252
40	0x37ed6bf3	2.830287e-05
41	0xb73f4b76	-1.1402057e-05
42	0x00000000	0.0
43	0x36bc0c65	5.6042795e-06
44	0xb62c78d6	-2.5700333e-06
45	0x3287b64f	1.5798973e-08
46	0xb6d0ccb1	-6.2227123e-06
47	0xb7e84341	-2.7687873e-05
48	0x3433368f	1.6690522e-07
49	0xb71d42eb	-9.37351e-06
50	0xb8ce86b3	-9.847935e-05
51	0xb6f81bd2	-7.3942147e-06
52	0xb7e77938	-2.7593793e-05
53	0x00000000	0.0
54	0xb7611835	-1.3416681e-05
55	0xb8105ec2	-3.4420525e-05
56	0x34808dcd	2.3945032e-07
57	0xb8c2bcea	-9.285829e-05
58	0x371375e2	8.7893295e-06
59	0xb500bdb0	-4.795975e-07
60	0x370c2d68	8.355222e-06
61	0xbadcbbcd	-0.0016840637
62	0xb8d4e0d3	-0.000101508245
63	0x37b253d9	2.1258298e-05
64	0x00000000	0.0
65	0xb8b0d7d6	-8.4325366e-05
66	0x379a0e6f	1.8364952e-05
67	0xb3ed4bcd	-1.10499606e-07
68	0x381dacad	3.7592534e-05
69	0xb80a83a4	-3.3024364e-05
70	0x33002492	2.9835583e-08
71	0xb7ff22f3	-3.0414643e-05
72	0x3a147085	0.00056625187
73	0x3828fb9f	4.028866e-05
74	0xb8693d1d	-5.5608445e-05
75	0x00000000	0.0
76	0xb854ffda	-5.078302e-05
77	0x38f3aa68	0.000116188836
78	0xb59b5451	-1.1572939e-06
79	0x39c57a27	0.0003766578
80	0x39709f45	0.00022947516
81	0xb5f618ec	-1.8335681e-06
82	0xb930628d	-0.00016821381
83	0x3bc420e8	0.005985368
84	0x39d60987	0.0004082436
85	0x3990a19d	0.00027586232
86	0x00000000	0.0
87	0x397eadf4	0.0002428813
88	0x3735ae28	1.082899e-05
89	0xb2f1a700	-2.8132035e-08
90	0x3788f454	1.6326238e-05
91	0x36a32df4	4.863128e-06
92	0xb307ce05	-3.161951e-08
93	0xb387c8a6	-6.322925e-08
94	0x39966286	0.00028683635
95	0x37a3dae4	1.9533043e-05
96	0x36d5807f	6.3628536e-06
97	0x00000000	0.0
98	0x36f4a9d3	7.291537e-06
99	0x36a80b4d	5.0081057e-06
100	0xb508e0ed	-5.099126e-07
101	0x39207694	0.00015302963
102	0x3a193444	0.0005844275
103	0xb6b7725a	-5.4671373e-06
104	0x36fe3fb2	7.577205e-06
105	0x3b0cc351	0.0021478722
106	0x3937cdb9	0.00017528878
107	0x3a24eacd	0.00062910916
108	0x00000000	0.0
109	0x3a03f6f8	0.00050340546
110	0x36f2c05d	7.234556e-06
111	0xb34b53e4	-4.734092e-08
112	0x37857c92	1.5912843e-05
113	0x3674084f	3.636367e-06
114	0xb2461f8b	-1.1532289e-08
115	0xb7521298	-1.2521305e-05
116	0x398936c0	0.00026171468
117	0x3790633e	1.7212351e-05
118	0x37933773	1.7549586e-05
119	0x00000000	0.0
120	0x3650c23f	3.1107481e-06
121	0x32a65478	1.9363355e-08
122	0x3206811c	7.829183e-09
123	0xb5abe34e	-1.2806647e-06
124	0x35feb6da	1.8977692e-06
125	0x327c430c	1.4683575e-08
126	0xb5764906	-9.1748404e-07
127	0xb7034cc6	-7.826084e-06
128	0xb547c4a7	-7.4419444e-07
129	0x362cddc6	2.5759086e-06
130	0x00000000	0.0
131	0xb5896f17	-1.0239627e-06
132	0x3888bcf3	6.52018e-05
133	0xb4da00d9	-4.060628e-07
134	0x391dec66	0.00015060752
135	0xb950350f	-0.00019856192
136	0x35f35744	1.8130308e-06
137	0xb95df659	-0.00021167974
138	0x3b2c31e6	0.002627486
139	0x39256567	0.00015773402
140	0xb8ac0d89	-8.20412e-05
141	0x00000000	0.0
142	0xb7a1aafc	-1.9272316e-05
143	0xb7857cf1	-1.5913016e-05
144	0xb24b9887	-1.1850836e-08
145	0xb71379ac	-8.790212e-06
146	0xb90f52b6	-0.00013668355
147	0x3585bf7f	9.965005e-07
148	0xb8648062	-5.4479002e-05
149	0xb9bd71bf	-0.00036133637
150	0xb7601f9f	-1.3358803e-05
151	0xb8c4ed85	-9.39025e-05
152	0x00000000	0.0
153	0x369473eb	4.4242383e-06
154	0xb8164327	-3.5825327e-05
155	0xb3a3b806	-7.623753e-08
156	0x36e9c7bd	6.9671937e-06
157	0x38dfaccd	0.00010665655
158	0xb599311b	-1.141368e-06
159	0xb611d84d	-2.1732587e-06
160	0xb9505345	-0.00019867446
161	0x363d18cd	2.817763e-06
162	0x38fd6d50	0.00012084341
163	0x00000000	0.0
164	0x3876e8bf	5.8867732e-05
165	0x3802ea0f	3.12124e-05
166	0xb3e6e464	-1.07517536e-07
167	0x387c6b84	6.0181614e-05
168	0xb6d52b65	-6.3529465e-06
169	0x351f9ff1	5.946486e-07
170	0xb7e0fd0f	-2.682072e-05
171	0x3ab5c744	0.001386859
172	0x3883b306	6.2799125e-05
173	0xb85766ec	-5.1355848e-05
174	0x00000000	0.0
175	0xb813ac04	-3.5207733e-05
176	0x389d15d3	7.4904085e-05
177	0xb506473c	-5.002255e-07
178	0x39298548	0.00016166747
179	0x3912cbbb	0.0001399954
180	0xb56ca313	-8.8154155e-07
181	0x375eb05b	1.3273292e-05
182	0x3b2df0bd	0.0026541196
183	0x393e99d3	0.00018177116
184	0x388c1b00	6.680749e-05
185	0x00000000	0.0
186	0x3915f408	0.00014300656
187	0x37a49069	1.961757e-05
188	0x32ad9326	2.0206766e-08
189	0x36371a9b	2.7284611e-06
190	0x383180cd	4.2320044e-05
191	0xb3e19e9e	-1.0506231e-07
192	0xb82b1483	-4.078868e-05
193	0x398daf2e	0.00027024135
194	0x3684af14	3.9542883e-06
195	0xb70d19b7	-8.410242e-06
196	0x00000000	0.0
197	0xb80ba683	-3.329526e-05
198	0x375ea3bd	1.3270354e-05
199	0x32b2894a	2.078436e-08
200	0x36c41721	5.8439477e-06
201	0x37be2db0	2.267104e-05
202	0xb3a53d9c	-7.694618e-08
203	0xb70634c2	-7.999306e-06
204	0x3959c8bf	0.00020769516
205	0x3715cacb	8.9283085e-06
206	0x37eedef5	2.8475633e-05
207	0x00000000	0.0
208	0x38605db0	5.3493015e-05
209	0x385a0cb6	5.198709e-05
210	0xb5445ec8	-7.3153615e-07
211	0x396c3343	0.0002252581
212	0xb91ed4da	-0.00015147348
213	0x3528b837	6.2852945e-07
214	0xb82f7e63	-4.1840958e-05
215	0x3b53d54f	0.0032323187
216	0x396fe147	0.00022876739
217	0xb9289324	-0.00016076543
218	0x00000000	0.0
219	0xb7ed644c	-2.8299306e-05
220	0xb85626ee	-5.1057832e-05
221	0x349239cc	2.7236672e-07
222	0xb8b46c14	-8.6032e-05
223	0xb71403f8	-8.8224115e-06
224	0xb44dc9f5	-1.9165584e-07
225	0x380533fe	3.1758093e-05
226	0xbabbda07	-0.0014331945
227	0xb8da3b98	-0.0001040615
228	0x37719b71	1.4400911e-05
229	0x00000000	0.0
230	0xb8c38332	-9.3227616e-05
231	0x3836ae9b	4.3554795e-05
232	0xb52b5b3b	-6.383522e-07
233	0x39402e23	0.00018327734
234	0x39465184	0.00018913118
235	0xb60bd15e	-2.0834482e-06
236	0x375d8886	1.3204413e-05
237	0x3b2e19e3	0.0026565723
238	0x3953c53f	0.00020196008
239	0x3963b6fb	0.00021716573
240	0x00000000	0.0
241	0x398aad3a	0.00026450475
242	0x37ec748c	2.8187664e-05
243	0xb46c9f37	-2.2037135e-07
244	0x38a42600	7.8272074e-05
245	0xb60c37b7	-2.0894056e-06
246	0x35063376	4.9993776e-07
247	0xb8b7231a	-8.732658e-05
248	0x3aae3486	0.00132908
249	0x38aa1f7c	8.112096e-05
250	0xb8a52647	-7.874943e-05
251	0x00000000	0.0
252	0xb819a6c9	-3.6633373e-05
253	0xb898e371	-7.290289e-05
254	0x35574ec3	8.0208355e-07
255	0xb9794a1a	-0.00023774095

exp_avg_sq f4 [128, 11]
0	0x32880164	1.5833116e-08
1	0x2dc37cc1	2.2224335e-11
2	0x32b69b9d	2.1258353e-08
3	0x328c612c	1.6342334e-08
4	0x2d28fb99	9.60556e-12
5	0x32adc93a	2.0231358e-08
6	0x3507307b	5.036197e-07
7	0x31abe553	5.002826e-09
8	0x328af5a7	1.6177024e-08
9	0x00000000	0.0
10	0x32b07429	2.054192e-08
11	0x35bac77d	1.3916139e-06
12	0x302b3550	6.22852e-10
13	0x35c1abd9	1.4429635e-06
14	0x35a9ae7f	1.2642266e-06
15	0x30187564	5.54641e-10
16	0x35b2c9bb	1.3320745e-06
17	0x39a0a7bd	0.00030642553
18	0x35dbcecb	1.6376956e-06
19	0x35b641de	1.3579227e-06
20	0x00000000	0.0
21	0x35bc9ff8	1.4053649e-06
22	0x36742a93	3.6383615e-06
23	0x3030987f	6.4245137e-10
24	0x36872c34	4.0284594e-06
25	0x3667fa1a	3.456726e-06
26	0x3101adbc	1.8870727e-09
27	0x367d3057	3.7728075e-06
28	0x3ab17c01	0.0013540984
29	0x36dcd4d8	6.581289e-06
30	0x36692693	3.4742159e-06
31	0x00000000	0.0
32	0x367c7e67	3.7624502e-06
33	0x34226417	1.5123838e-07
34	0x2f0fc932	1.3077253e-10
35	0x3413b2e0	1.3755516e-07
36	0x3404d795	1.2371886e-07
37	0x2f0874ca	1.241062e-10
38	0x340a10c5	1.2858352e-07
39	0x3765933c	1.3683744e-05
40	0x33f8e067	1.15892185e-07
41	0x3411045e	1.3505766e-07
42	0x00000000	0.0
43	0x341de49e	1.4704935e-07
44	0x33437fb4	4.551812e-08
45	0x2e62c221	5.1558872e-11
46	0x33279ca7	3.9025192e-08
47	0x333ffd83	4.470122e-08
48	0x2f3435b2	1.6389981e-10
49	0x333e50d3	4.431133e-08
50	0x36901b3b	4.2947045e-06
51	0x3303d0da	3.0690764e-08
52	0x33350540	4.214712e-08
53	0x00000000	0.0
54	0x332cec62	4.026186e-08
55	0x34aeba68	3.2545654e-07
56	0x2f01512c	1.176132e-10
57	0x34cc67a6	3.8073375e-07
58	0x34a83d5b	3.133708e-07
59	0x2f2df74c	1.5822116e-10
60	0x34dfc81c	4.1682586e-07
61	0x38317525	4.2309188e-05
62	0x34ab0600	3.1855598e-07
63	0x34b09d0f	3.289683e-07
64	0x00000000	0.0
65	0x34e8415f	4.326093e-07
66	0x34e2491f	4.2148983e-07
67	0x2f669f5b	2.0974993e-10
68	0x3569481e	8.690421e-07
69	0x351ccbed	5.841128e-07
70	0x3052984f	7.6614e-10
71	0x35231629	6.075448e-07
72	0x38b8c841	8.811104e-05
73	0x353bd191	6.996789e-07
74	0x35244923	6.120119e-07
75	0x00000000	0.0
76	0x351bc307	5.80258e-07
77	0x3695f104	4.468604e-06
78	0x305ffeae	8.148885e-10
79	0x36cf0ddb	6.1706937e-06
80	0x369e8032	4.723691e-06
81	0x3180909a	3.7417296e-09
82	0x36a505c3	4.918054e-06
83	0x3ad6c1b6	0.0016384635
84	0x370c31c5	8.356238e-06
85	0x36ad412e	5.1633897e-06
86	0x00000000	0.0
87	0x36a74a56	4.9856417e-06
88	0x342fd9ac	1.6377334e-07
89	0x2ec27521	8.842905e-11
90	0x340109e4	1.201766e-07
91	0x340a4e36	1.2880705e-07
92	0x2ea61cba	7.553909e-11
93	0x3423dba4	1.5260463e-07
94	0x36d49f46	6.336634e-06
95	0x335ed643	5.1883273e-08
96	0x340c732e	1.3080418e-07
97	0x00000000	0.0
98	0x342b1f77	1.5937063e-07
99	0x36c1de2b	5.777712e-06
100	0x304ee46b	7.5266965e-10
101	0x3703cf26	7.856439e-06
102	0x36cf6a85	6.1814812e-06
103	0x317eacf5	3.706018e-09
104	0x36e6b503	6.8756067e-06
105	0x3b1b113e	0.00236614
106	0x3741a08a	1.1541075e-05
107	0x36dbf81e	6.5555932e-06
108	0x00000000	0.0
109	0x36db4f01	6.535906e-06
110	0x3259df85	1.2681885e-08
111	0x2e01fe52	2.9557086e-11
112	0x329036b6	1.6788686e-08
113	0x327bb18a	1.4650491e-08
114	0x2ec97ca5	9.162563e-11
115	0x32848825	1.5428734e-08
116	0x35de9c07	1.6585699e-06
117	0x32173514	8.801425e-09
118	0x3282d22e	1.522957e-08
119	0x00000000	0.0
120	0x3284f6af	1.5479001e-08
121	0x32c986e7	2.3460826e-08
122	0x2e091950	3.1172676e-11
123	0x32ba53f3	2.1691426e-08
124	0x32bc0ca9	2.1891838e-08
125	0x2f2dd05f	1.5808287e-10
126	0x32dec1c7	2.5932321e-08
127	0x35006019	4.7823556e-07
128	0x31a27f0c	4.729264e-09
129	0x32cda6af	2.394094e-08
130	0x00000000	0.0
131	0x32b3af8d	2.0918174e-08
132	0x35e3f178	1.6983095e-06
133	0x2fb23c2c	3.2420766e-10
134	0x362c94fa	2.5716713e-06
135	0x36140abf	2.2059974e-06
136	0x3052580f	7.6522694e-10
137	0x360f2d20	2.1334927e-06
138	0x3a0dcc2b	0.00054091465
139	0x3649e760	3.0086012e-06
140	0x36104ba8	2.150171e-06
141	0x00000000	0.0
142	0x3605fca6	1.9965605e-06
143	0x35954d2c	1.1123825e-06
144	0x2f5c6a40	2.0046631e-10
145	0x3599831e	1.1437548e-06
146	0x35962781	1.1187368e-06
147	0x3020ae1d	5.845509e-10
148	0x359de62d	1.1764402e-06
149	0x399ffdcb	0.00030515934
150	0x35c36011	1.4556591e-06
151	0x3599ab20	1.1449192e-06
152	0x00000000	0.0
153	0x358dbdee	1.0560595e-06
154	0x3550c47a	7.777195e-07
155	0x2f9caa68	2.8497316e-10
156	0x355e310a	8.2772806e-07
157	0x35384c07	6.8655976e-07
158	0x3090b49a	1.0528709e-09
159	0x355e0ed6	8.2723034e-07
160	0x39592774	0.0002070943
161	0x358deab2	1.0573624e-06
162	0x354b685e	7.577527e-07
163	0x00000000	0.0
164	0x355c32e3	8.2030436e-07
165	0x35493594	7.49563e-07
166	0x2f2619cf	1.5106781e-10
167	0x35b750ba	1.3658057e-06
168	0x357159bc	8.9910077e-07
169	0x30b0cf5a	1.2864618e-09
170	0x3593d6ea	1.1014902e-06
171	0x39a143c7	0.0003075881
172	0x35d8327f	1.610795e-06
173	0x357e0a96	9.463778e-07
174	0x00000000	0.0
175	0x3591c5b5	1.0860882e-06
176	0x353505db	6.7436275e-07
177	0x2f1b5f03	1.4130923e-10
178	0x356dcb09	8.8584835e-07
179	0x35359e7e	6.765839e-07
180	0x30931d22	1.0703938e-09
181	0x3550e1ec	7.78148e-07
182	0x39794b26	0.00023774485
183	0x35a70e78	1.244668e-06
184	0x35417eba	7.2082514e-07
185	0x00000000	0.0
186	0x3546b318	7.4021364e-07
187	0x3453b868	1.9717993e-07
188	0x2e99ce9e	6.994337e-11
189	0x34883c6e	2.5375942e-07
190	0x34774ca3	2.3031548e-07
191	0x2fad2605	3.149553e-10
192	0x347fb09a	2.3812973e-07
193	0x37c2e918	2.3235145e-05
194	0x344625f6	1.8453997e-07
195	0x346c09fc	2.1982845e-07
196	0x00000000	0.0
197	0x34699be9	2.1756536e-07
198	0x347a87f7	2.3332528e-07
199	0x2f37dea0	1.6722845e-10
200	0x34605fae	2.0896434e-07
201	0x343d9de2	1.7659434e-07
202	0x2fe240fa	4.115533e-10
203	0x349f1b28	2.9635817e-07
204	0x379ae52e	1.846495e-05
205	0x341264e2	1.363401e-07
206	0x344fc37e	1.9349497e-07
207	0x00000000	0.0
208	0x348f3947	2.66775e-07
209	0x36a10e81	4.7998624e-06
210	0x306bf67b	8.584277e-10
211	0x36a62d43	4.9524547e-06
212	0x3691a4bc	4.3405144e-06
213	0x31b655da	5.3066573e-09
214	0x369e394c	4.715437e-06
215	0x3a880ab6	0.0010379169
216	0x36b60b97	5.425372e-06
217	0x369a3639	4.59587e-06
218	0x00000000	0.0
219	0x3699785f	4.5737684e-06
220	0x35a86e81	1.2549136e-06
221	0x2fd40b56	3.857063e-10
222	0x35b03e26	1.3131109e-06
223	0x3589528e	1.0231322e-06
224	0x3012e02d	5.3433064e-10
225	0x35a560e1	1.2321653e-06
226	0x39a71dad	0.00031874832
227	0x35f1d86f	1.801889e-06
228	0x359d4f28	1.1720449e-06
229	0x00000000	0.0
230	0x35a74d9b	1.2465056e-06
231	0x35d50c93	1.5873396e-06
232	0x301955ea	5.5783167e-10
233	0x360d4b19	2.105435e-06
234	0x35d9ded0	1.6232607e-06
235	0x30ebdd61	1.716142e-09
236	0x35f139f0	1.7972761e-06
237	0x39d78fba	0.0004111508
238	0x3618246f	2.2670972e-06
239	0x35e8861c	1.7324378e-06
240	0x00000000	0.0
241	0x3602f259	1.9512574e-06
242	0x353942c7	6.9015044e-07
243	0x2ee46b2e	1.03872785e-10
244	0x354e1a3e	7.677917e-07
245	0x3527256f	6.226682e-07
246	0x30313e3e	6.4480676e-10
247	0x3542d20a	7.257628e-07
248	0x398390ba	0.00025094097
249	0x3594aa75	1.1076469e-06
250	0x352da6ca	6.469023e-07
251	0x00000000	0.0
252	0x3542d43a	7.257946e-07
253	0x362f4729	2.6118453e-06
254	0x2fe534e9	4.1692452e-10
255	0x3683e5c1	3.930851e-06

exp_avg f4 [128]
0	0x3526d1c9	6.2145097e-07
1	0x393c426e	0.00017953824
2	0x390279ed	0.00012443187
3	0x37e87b53	2.7713982e-05
4	0xb6e9ffae	-6.973706e-06
5	0xb8d2c285	-0.000100498124
6	0x38258146	3.945946e-05
7	0x39d4bb21	0.00040575213
8	0x37980a05	1.8124478e-05
9	0x39327ae2	0.0001702118
10	0x379157ab	1.732617e-05
11	0xb5a12392	-1.2005787e-06
12	0x39256de7	0.00015776568
13	0xb76a8ff5	-1.39810045e-05
14	0x3687e894	4.050389e-06
15	0x388212f9	6.202417e-05
16	0x393ce104	0.00018012902
17	0x368f6185	4.273085e-06
18	0x36f6102e	7.333255e-06
19	0x397291e5	0.00023133268
20	0xb8d2088f	-0.000100151745
21	0x39522d4a	0.00020044032
22	0x38aa77ad	8.128523e-05
23	0xb987cc14	-0.00025901257
24	0x397a6140	0.00023878086
25	0x3705e02c	7.979612e-06
26	0xb9301fea	-0.00016796557
27	0x3992236d	0.00027873684
28	0x39cb0fd8	0.00038730982
29	0x392e76a9	0.00016638137
30	0x38704839	5.728772e-05
31	0x39c76334	0.0003803015
32	0x375dca08	1.3219666e-05
33	0xb4d69a87	-3.997304e-07
34	0x38f3cea0	0.0001162563
35	0xb705ca3f	-7.974507e-06
36	0x378a4ba2	1.6486101e-05
37	0x35faadfc	1.8677088e-06
38	0xb9e87437	-0.00044337075
39	0x36f850e8	7.4003947e-06
40	0x39e9a056	0.00044560683
41	0xb7d8e958	-2.5857866e-05
42	0xb9c5b16b	-0.00037706955
43	0x37bb078a	2.2295648e-05
44	0xb8065830	-3.203022e-05
45	0x39000fd0	0.00012212922
46	0x3985f3cd	0.00025549383
47	0x37bd542f	2.2569757e-05
48	0x399340db	0.00028086346
49	0x38e39a82	0.00010852983
50	0xb941da8c	-0.0001848733
51	0x3697b428	4.5211236e-06
52	0xb85924cc	-5.17711e-05
53	0xb9579af8	-0.00020561728
54	0x37805f7a	1.5303249e-05
55	0x379f88b3	1.9017933e-05
56	0x38a6e6be	7.958476e-05
57	0x39e9b1a3	0.00044573573
58	0xb679b6b5	-3.721024e-06
59	0xb6955252	-4.4501294e-06
60	0x39aadd7e	0.0003258995
61	0x361bfa6a	2.324256e-06
62	0x37869216	1.6042071e-05
63	0x3690f3cd	4.3199166e-06
64	0x386f8251	5.7103407e-05
65	0x3950c1bc	0.00019908597
66	0xb9a7ee46	-0.0003203025
67	0x38ceb279	9.8560886e-05
68	0x37af82a6	2.0922464e-05
69	0x39a954ac	0.00032297277
70	0x3981e5a3	0.0002477589
71	0xb99523d7	-0.00028446197
72	0xb663e2bc	-3.3957613e-06
73	0x3a25a8a4	0.000631938
74	0x39a6f074	0.0003184114
75	0x382ae89d	4.0747796e-05
76	0xb6fae750	-7.477509e-06
77	0xb928dc26	-0.0001610374
78	0x372176b1	9.623983e-06
79	0x3760daf0	1.3402416e-05
80	0x3914e4d5	0.00014199626
81	0x36cdf850	6.1383835e-06
82	0x39ce8daa	0.0003939693
83	0x3976e63a	0.00023546154
84	0x37abf42f	2.0498495e-05
85	0xb700c367	-7.67489e-06
86	0x372a9397	1.0167153e-05
87	0x396a35d5	0.00022336033
88	0x38011d71	3.0783416e-05
89	0x38d8f32e	0.00010344978
90	0xb942b855	-0.00018569951
91	0xb8b9da87	-8.862191e-05
92	0x370372e1	7.834956e-06
93	0x375b538c	1.30728695e-05
94	0x3712611d	8.724889e-06
95	0xb6edcf7f	-7.087306e-06
96	0xb50ebb14	-5.3171357e-07
97	0x368407e6	3.934826e-06
98	0xb8351be3	-4.3179734e-05
99	0x38cd46a6	9.788321e-05
100	0xb883416f	-6.258755e-05
101	0x39025e82	0.00012432973
102	0xb638d372	-2.7541214e-06
103	0x34f8de92	4.635554e-07
104	0x3771e861	1.4418824e-05
105	0x38c00ff0	9.158242e-05
106	0x390a314d	0.00013179072
107	0xb832f279	-4.2664327e-05
108	0x389ada9a	7.38401e-05
109	0x3546db8d	7.4080236e-07
110	0xb43c829c	-1.755638e-07
111	0x37b19e4c	2.1173757e-05
112	0x393b3e1b	0.00017856846
113	0x3726b683	9.936865e-06
114	0xba1e1014	-0.00060296175
115	0x392e699d	0.00016633277
116	0x391ca259	0.00014937799
117	0xb4a515db	-3.0749547e-07
118	0xb73ede0f	-1.1376585e-05
119	0x3a032636	0.00050029473
120	0xb51b86fd	-5.7938433e-07
121	0x39a1f365	0.00030889656
122	0xb9b97345	-0.00035371832
123	0xb44b1356	-1.8912883e-07
124	0xb99ac58d	-0.00029520356
125	0x38c65c8b	9.458613e-05
126	0x39a6d50c	0.0003182072
127	0xb7d61490	-2.5520363e-05

exp_avg_sq f4 [128]
0	0x331964fc	3.5714933e-08
1	0x363d5856	2.8214613e-06
2	0x370344f6	7.824265e-06
3	0x349b2e3d	2.8904643e-07
4	0x33b96443	8.632971e-08
5	0x353859f1	6.8676223e-07
6	0x35ad8834	1.2929145e-06
7	0x3732ad58	1.06499865e-05
8	0x3491ee54	2.718176e-07
9	0x376b11c1	1.4011225e-05
10	0x3300c3a9	2.9980274e-08
11	0x33424a5c	4.5236774e-08
12	0x368f7ca6	4.276243e-06
13	0x3619a83c	2.2896702e-06
14	0x35d94499	1.6187724e-06
15	0x36105884	2.1509195e-06
16	0x35d46c45	1.5826741e-06
17	0x34eb3016	4.3807148e-07
18	0x34effd89	4.470169e-07
19	0x37226c6c	9.681196e-06
20	0x362aad2e	2.5432778e-06
21	0x3674eb2a	3.6495717e-06
22	0x35c0af30	1.4356101e-06
23	0x36dcca2b	6.5800464e-06
24	0x36c39347	5.828598e-06
25	0x337ca315	5.8821644e-08
26	0x357ace01	9.343203e-07
27	0x36feb42f	7.590766e-06
28	0x36b93ed6	5.5207447e-06
29	0x36bd1e32	5.636154e-06
30	0x3606dffd	2.0097934e-06
31	0x371a9153	9.212951e-06
32	0x344f82a5	1.9325905e-07
33	0x32ecd7a7	2.7572083e-08
34	0x373cbbc3	1.124939e-05
35	0x347a8b92	2.333384e-07
36	0x337af8a5	5.8433802e-08
37	0x3363b6d0	5.3018823e-08
38	0x37b535ec	2.160199e-05
39	0x34875738	2.520917e-07
40	0x378d4264	1.6839425e-05
41	0x358118e7	9.618497e-07
42	0x370d885e	8.436005e-06
43	0x35f1ac98	1.8006131e-06
44	0x356adc31	8.7492214e-07
45	0x362998d2	2.5271916e-06
46	0x36cc5615	6.089695e-06
47	0x34c577b6	3.678121e-07
48	0x36cc69b1	6.091978e-06
49	0x3621fc2e	2.4137657e-06
50	0x3655a7a8	3.1837062e-06
51	0x33938f71	6.871313e-08
52	0x366d2860	3.5339253e-06
53	0x36824cf1	3.883259e-06
54	0x352fa66a	6.5434745e-07
55	0x36e793ae	6.9015286e-06
56	0x34b6d25f	3.4053207e-07
57	0x37471ea7	1.1868461e-05
58	0x360cb91a	2.096937e-06
59	0x335ab31f	5.091999e-08
60	0x372f28b7	1.04402925e-05
61	0x360b2356	2.0733182e-06
62	0x337e7667	5.924667e-08
63	0x35f3da8d	1.8168517e-06
64	0x364f2f28	3.0872852e-06
65	0x363bf867	2.800976e-06
66	0x36bf7450	5.705784e-06
67	0x364c1aed	3.0414042e-06
68	0x340f262d	1.3331801e-07
69	0x364cf151	3.0538833e-06
70	0x36c1c82c	5.7751513e-06
71	0x376923ce	1.3896219e-05
72	0x34460f49	1.8445748e-07
73	0x37ac67bc	2.0552303e-05
74	0x378163b1	1.542442e-05
75	0x355514c4	7.93789e-07
76	0x332a8bb6	3.9708276e-08
77	0x35a1b5a2	1.2048297e-06
78	0x33d41425	9.8756836e-08
79	0x334a6f33	4.7132925e-08
80	0x35db5954	1.6342769e-06
81	0x33828cd4	6.079213e-08
82	0x37232184	9.723361e-06
83	0x3677c9fe	3.6923443e-06
84	0x340d3799	1.3151875e-07
85	0x331ca8d6	3.6475136e-08
86	0x33bdada2	8.832582e-08
87	0x36a57f70	4.932219e-06
88	0x34e2ff7b	4.2281667e-07
89	0x365f7fd7	3.3304002e-06
90	0x362301f7	2.4290036e-06
91	0x36347f23	2.6896093e-06
92	0x33ef726c	1.1150118e-07
93	0x34084b32	1.2693343e-07
94	0x346b2bfe	2.1902085e-07
95	0x329eed26	1.8501463e-08
96	0x3381e5b4	6.0488134e-08
97	0x33abcc0d	7.9999246e-08
98	0x3492010e	2.7195387e-07
99	0x34d8c40f	4.0375787e-07
100	0x3604f32d	1.981108e-06
101	0x357f2e50	9.5062296e-07
102	0x34866e00	2.503948e-07
103	0x3404ff64	1.2386369e-07
104	0x35e48e60	1.702876e-06
105	0x357e4c55	9.473345e-07
106	0x3644f016	2.9346024e-06
107	0x3611b961	2.1714588e-06
108	0x36981d1a	4.533341e-06
109	0x348b04ad	2.589417e-07
110	0x3304634d	3.082396e-08
111	0x33ebbf49	1.0977835e-07
112	0x3605fe9e	1.996675e-06
113	0x35e765e0	1.7240491e-06
114	0x37b251fa	2.1257427e-05
115	0x35a5c50b	1.2350805e-06
116	0x359fda9a	1.1910045e-06
117	0x334f9f17	4.8340635e-08
118	0x3536209b	6.784773e-07
119	0x37486764	1.19450015e-05
120	0x327baec2	1.4649858e-08
121	0x370cacd5	8.384891e-06
122	0x376cf8c5	1.4124617e-05
123	0x3332bc32	4.1615017e-08
124	0x3708f63d	8.1635635e-06
125	0x36a18875	4.8140596e-06
126	0x368fbf7e	4.2840247e-06
127	0x3560f6c1	8.3805577e-07
