Assets/results/petfollower16/PetFollower/PetFollower-13572.onnx (onnx, 77658 bytes, 7 tensors)

network_body._body_endoder.seq_layers.0.weight f4 [128, 11]
00000000: ceb7 a3be cddf 80be d725 d23e 0a8d e4bd
00000010: fb81 4e3e 0a53 e03e 4127 0fbf 0e8c 6bbd
00000020: 0fa4 403e b5df fa3d 1596 143c b7c4 933e
00000030: 266e 80bd 903f 87be d16c 253f 389d e33e
00000040: 6db5 003d 3427 5a3e ce71 58be 2971 e6bd
00000050: 5ec9 14be 253c 4ebd ef67 133e db67 423e
00000060: f17a 943d 505f b83e 1d7b 7c3d 6699 103f
00000070: aeb1 913e 2c49 e0be 1301 0c3f d6c4 95bd
00000080: b23c dbbd ae48 443e 1637 4e3e 056f c2bd
00000090: d693 6dbe 0c70 f0be 748e c2bd 9a84 90be
000000a0: 22e1 9fbe c07b 423e c079 e53d d6b6 5ebc
000000b0: 1c1e 1fbe 4b6c 883e a73f 233c 4ce8 f8bd
000000c0: 7612 df3d 9aa4 1f3e ecd5 3ebe 7c2d 13bf
000000d0: 0420 933e a4fb 08be 2424 e6bd df8b 1f3a
000000e0: 75b5 9f3e e494 7fbe 9ec1 313e d97a 18be
000000f0: 8aa6 44be 4775 4bbd 68bb d7be 71b1 733e
00000100: e709 76be 093a 143f bf2a 903e 6479 4d3e
00000110: 87b9 c6be 37c0 273e 3a58 d0bb f2db d2be
00000120: 3882 8dbd 21cf 0b3f f5f9 41bd 7bdc 733c
00000130: b598 613e 8eb1 c73e 4d4c 2b3e eff0 80be
00000140: 2f56 9ebd 1001 8abb 24c9 d7bc b46f f03e
00000150: ebf9 77be 46b8 793e dbb1 c2be 06ee af3e
00000160: bee1 aabe c2b0 6d3d 8621 393d 6683 1a3e
00000170: cb7b 8cbe 9f79 b33d ecef 7abe ec76 2c3e
00000180: 9c76 923e 2deb b4be 6778 f0be 0cb8 213f
00000190: 8cc6 88be 701a cb3b d82c f53d e1a3 313c
000001a0: 1fdd 203f d508 763e 3fb1 fbbd 5163 ab3c
000001b0: c347 15be 40b3 3bbe bec4 753d e98b d23e
000001c0: 7b87 e73e 7ceb a7be 9208 c73e 4e04 d23e
000001d0: e02e 0fbe 36af 0bbf d083 aa3e fed1 97be
000001e0: 3fbe ffbe 82c2 bbbd a0ed 013e d47d 80be
000001f0: e1da 0ebd 7a99 f8be 41b1 72be 60f5 01bf
00000200: 4dbb 8bbe c116 6fbe 2e51 a33d 312f 74be
00000210: 99f3 44be 3dda 223f a775 8dbe bade 96bd
00000220: a90e b0bd 34f7 023e 914e 043f c8bb 733e
00000230: c58c fc3e 4ee7 48be 1285 8dbe 830e c93c
00000240: aad2 583e 502b 2abd ec3a a7bc 56f3 533d
00000250: 8002 253e 0edf f93c 340a d33e 7de4 d33e
00000260: 238e 283e 6427 21bf 8591 17be 3a0c 90be
00000270: c722 5f3d 1282 953b ca2e e73e 6996 d13d
00000280: f791 e9bc 18b6 363f a267 48be 9f38 cb3e
00000290: 0eca 80be 9895 443e 6617 913e b16e c1be
000002a0: 1a15 093e 0e4d a83d 6354 233e 971d 6d3d
000002b0: 1581 c63d 1a8b 163f 356c 23be 54b1 d43c
000002c0: 39de b33c ef70 213e 4abe cfbe 426f e33d
000002d0: 885a 1b3d 1d66 923d 1c6c 773e 675d 873d
000002e0: 7fc6 e63d e92c 75be e455 953d 21fa 253e
000002f0: 39cd 1bbe e15c 913e c801 0f3e 4ae0 3f3e
00000300: 99f2 3abe 401e c1bd c11a fd3e 069e e53e
00000310: 7763 14bf 7c90 1a3e 3a9b bebe 5aff bebe
00000320: 9afb 453e b36b 9f3d af57 2c3f 2e4c cd3e
00000330: d2ec a3bd c59e c4be 8f28 16be b50f 71be
00000340: 5ba8 35bf 6cc2 813e 0294 ca3e e0a7 1a3e
00000350: 7c09 5cbe f8b2 80be f5c2 33be a5a7 d53e
00000360: 364a 63be a345 473e b926 603e ec79 9dbd
00000370: 3e56 83be 81c9 4fbe 676e 98bd 2492 1abf
00000380: fcc3 893e e224 5fbd 470f 9a3e bd89 ddbe
00000390: f66e 7b3e 613e 873e 2057 9ebd a8db cbbe
000003a0: 16e6 98bc 7cc2 e3be 3975 09bd a600 6dbf
000003b0: 2022 913e e0ce 0a3f 6dab 053e 3855 763e
000003c0: 7af3 543e 5a1f 29bf 5a9a bf3e 1a4b 3fbf
000003d0: be08 993e f358 65be ed31 39bf dd4e 1fbe
000003e0: 4ce7 493e de7e 04bf 6d9f 04bd 331f c4be
000003f0: dab5 80bd 3ad4 603e 49b1 333f 7ac7 20bd
-0.3197617 -0.25170746 0.41044495 -0.111597136 0.20166771 0.43813354 -0.5591927 -0.057506613
0.18812583 0.122497 0.0090689855 0.2886102 -0.06271009 -0.26415682 0.64619166 0.44455886
0.03142302 0.21304017 -0.21137163 -0.11252052 -0.1452994 -0.050350327 0.14395116 0.1898493
0.07250012 0.36010218 0.061640847 0.5648407 0.2845587 -0.43805826 0.5468914 -0.07312934
-0.10704936 0.1916835 0.20138201 -0.094938315 -0.23200926 -0.46960485 -0.09499827 -0.28226167
-0.3122645 0.1899252 0.112048626 -0.013593396 -0.1553883 0.2664512 0.009963906 -0.12153682
0.10892193 0.15590134 -0.18636292 -0.5749128 0.28735363 -0.13377243 -0.11237362 0.0006086211
0.31193128 -0.24959141 0.17359015 -0.14890613 -0.19204155 -0.04967239 -0.42135167 0.23798157
-0.24027215 0.57901055 0.28157613 0.20065838 -0.3881342 0.16381918 -0.0063581737 -0.4118343
-0.06909603 0.5461293 -0.04735752 0.01488411 0.2203091 0.3900265 0.16728325 -0.25183818
-0.07731282 -0.0042115524 -0.026341029 0.46960223 -0.2421643 0.24386701 -0.38026318 0.34361285
-0.33375353 0.058029898 0.045197986 0.15089187 -0.27438197 0.08763432 -0.24505585 0.1684224
0.28606117 -0.35335675 -0.4696686 0.6317146 -0.2671398 0.00619822 0.11971444 0.010842294
0.62837404 0.24026807 -0.122896664 0.020921381 -0.14578156 -0.18330097 0.06000208 0.41122368
0.4522055 -0.32796848 0.38873726 0.4101891 -0.13982725 -0.54564226 0.3330369 -0.296524
-0.49949834 -0.09167959 0.12688303 -0.25096 -0.034876708 -0.48554593 -0.2370043 -0.5076504
-0.27291337 -0.23348524 0.07974468 -0.23846127 -0.1923355 0.63614255 -0.27628824 -0.073667005
-0.08596546 0.12789613 0.5168238 0.23802102 0.4932615 -0.19619486 -0.27640587 0.024543053
0.21174112 -0.041545212 -0.020413838 0.051745735 0.16114235 0.030501869 0.41218722 0.4138526
0.16460471 -0.6295073 -0.14801605 -0.28134328 0.054476526 0.0045626247 0.45152885 0.102337666
-0.028511984 0.71371603 -0.19570783 0.39691636 -0.25154155 0.1919769 0.28338164 -0.37779763
0.13386956 0.08217822 0.1595016 0.057889547 0.09692589 0.58806 -0.15959246 0.025963463
0.02195655 0.15765737 -0.40574867 0.11105205 0.037928134 0.07148383 0.24162334 0.06609612
0.11268329 -0.23942913 0.07291773 0.16208698 -0.15215005 0.28391173 0.13965523 0.18737903
-0.18256606 -0.09429598 0.49434474 0.44847125 -0.5796427 0.15094179 -0.37227803 -0.37304193
0.1933426 0.07784214 0.67321295 0.40097183 -0.08004154 -0.38402382 -0.1466391 -0.23541148
-0.70960015 0.25343645 0.39566046 0.15103102 -0.21487993 -0.25136542 -0.17554839 0.41729465
-0.22196278 0.19460158 0.21889772 -0.076892704 -0.25651735 -0.20291711 -0.074429326 -0.6037924
0.26907337 -0.054478534 0.3008978 -0.43269148 0.24554047 0.2641478 -0.077314615 -0.39816022
-0.018664401 -0.44484317 -0.033559058 -0.92579114 0.28346348 0.54221916 0.13053675 0.24055946
0.20796004 -0.66063464 0.37422448 -0.7472397 0.29889482 -0.22397213 -0.72341806 -0.15557428
0.19717139 -0.51756084 -0.032378603 -0.38305053 -0.062846854 0.21955958 0.7019239 -0.039252736

network_body._body_endoder.seq_layers.0.bias f4 [128]
00000000: a142 12bd f6d5 923c e93d 7fba ac2d 82bc
00000010: 17af b63c ef5e a0bc 9645 083c 3354 8a3b
00000020: 9ee6 99bc 1ee3 b1ba 39ce a1bc 25dd 99bb
00000030: 1844 8fbc 2751 243b 430c 173a b66b 17bd
00000040: 81ee 593c 3319 98bb c69b 1cbd b882 24bc
00000050: e720 48bc 3844 f5ba 91fc b2bc d225 0fbc
00000060: b30c 4dbb 7db3 1abd 810f 43bc 77b6 3b3b
00000070: 0867 0dbd 805e 3c3c f867 bbbc 0317 103c
00000080: c28f 9bbc 1dcf 123c fc99 553b 90ad fcbb
00000090: c985 79bd ed06 0bbd fdf7 0cbc 16d0 f3bb
000000a0: 55b7 a43c b8f1 0f3d 99e7 d8bc 712e b33b
000000b0: 7b98 1e3d c757 edbc ec04 393d 8dbb 17bd
000000c0: 4de2 bd3c 6725 6bbc 2751 d73b 533d c2bc
000000d0: 5731 18bc 6524 49bc 2210 8ebc 20b2 2cbb
000000e0: 17f5 b93c f39d 48bb 5736 8c3c 47e2 afbb
000000f0: e533 a9bb 9153 c03c b700 4fbd 0537 87bc
00000100: a32d a1bb e5a3 3a3c af20 63bc c498 df39
00000110: a85e 3dbc 1771 e13c 991b 483c 6397 cbbc
00000120: eed0 4fba 97bf 6f3c c1ca d03b 9473 403c
00000130: d498 06bc a1f4 2d3c 77db 54bd 6990 e6bc
00000140: ca90 0f3c e30e f9bc 3033 483c a5b7 843c
00000150: 6837 8ebc d507 f1ba 8255 65bc 187d 3a3c
00000160: f7af afbc 3532 b73c 91d4 81bc f79a 81bb
00000170: 0d1d c5bc 93bf c1bc b5a7 a53a 6434 1fbb
00000180: 67f9 97bb 30c1 b4bc 2c17 21bd 172f 353d
00000190: dbee 53bc 22ef 303c 8563 f73b ed5c 323c
000001a0: abda 9abc e935 8abc 2bf6 483c 2a37 df3b
000001b0: 0965 6d3a 92de a03b 680c 24bc 6d58 49bd
000001c0: 6345 543c 9012 43bc 9442 b6bc c1ba 85bc
000001d0: 555f 99bc 5327 1abd a988 cbbb 56b1 443c
000001e0: 06e6 c5bc 30d9 a23c 2561 aabc 3ad4 bcbc
000001f0: 9124 3fbc 20b7 78bc bf7c 583c 06f3 903c
-0.035708074 0.01792429 -0.00097367034 -0.015890919 0.022300286 -0.019576518 0.008317372 0.004221463
-0.018786725 -0.0013571715 -0.019751655 -0.004695552 -0.017488524 0.0025072785 0.000576202 -0.036967956
0.013301493 -0.004641676 -0.038234495 -0.010040931 -0.012214876 -0.0018712347 -0.021848949 -0.008737044
-0.0031288087 -0.03776883 -0.011905552 0.0028642693 -0.034522086 0.01149714 -0.022876725 0.008794549
-0.018989448 0.0089605125 0.0032593003 -0.00771112 -0.060918603 -0.03394215 -0.008604047 -0.0074405773
0.02010695 0.03514263 -0.026477622 0.0054681827 0.038719635 -0.02897252 0.04517071 -0.037044097
0.023179198 -0.014352179 0.0065709534 -0.023710882 -0.009289107 -0.012276744 -0.017341677 -0.0026351288
0.022699876 -0.0030611723 0.017115755 -0.0053675505 -0.005163657 0.023477348 -0.05053779 -0.016505728
-0.0049187704 0.011391615 -0.013862773 0.00042647694 -0.011558212 0.027519746 0.012213611 -0.02485246
-0.0007927556 0.014633081 0.0063718264 0.011746306 -0.008215148 0.010617406 -0.05196711 -0.028145032
0.008762548 -0.030402606 0.012219235 0.01620085 -0.017360404 -0.0018389175 -0.013997437 0.011382364
-0.021446211 0.022362808 -0.01584843 -0.003955241 -0.024061704 -0.02365092 0.0012638482 -0.0024292702
-0.0046378854 -0.022064775 -0.03932874 0.04423436 -0.012935366 0.010799201 0.0075497054 0.010886413
-0.018903097 -0.01687141 0.012265722 0.006811996 0.0009055888 0.004909345 -0.0100127235 -0.049156595
0.012955996 -0.011906281 -0.022248544 -0.016324403 -0.018722216 -0.03763516 -0.0062113595 0.012005171
-0.024157535 0.019878954 -0.020798275 -0.023050416 -0.011666433 -0.015180379 0.013213336 0.017694008

network_body._body_endoder.seq_layers.2.weight f4 [128, 128]
00000000: 1ed1 c0bd 2355 6d3d ba84 ac3c c300 aebd
00000010: 576c 553d b004 043e f563 f63d 54a2 a83d
00000020: 5b9a f33d 2ba1 9cbd 42c6 993b ff12 9bbb
00000030: bbd7 f1bd 1460 93bc 2e78 863d e1a7 013c
00000040: 0b12 de3c d70f e7bb 12ad 92bd e5eb cc3b
00000050: a778 173d 3f06 e53c e30d 483c c754 05be
00000060: e299 c63a 31b6 d5bd 0be7 59be a995 a23c
00000070: 45e5 a03d b3bf 9e3d 6f15 993d 7970 53bd
00000080: 7e8d 893d 865e 663d 8331 b23d b2d1 5d3d
00000090: c735 3ebe 0878 46bc f792 0abe a644 4cbd
000000a0: 39f5 033e 1ffa 053e 3ae7 133d f59d ccbc
000000b0: 5f1f 7f3e 8dba 4abe 2443 8cbc 4649 a9bb
000000c0: 8328 ca3d cdaa e53d f192 403d 5567 ccbd
000000d0: 8f90 d3bd 0c76 ce3b ae62 ac3d b9b7 8ebd
000000e0: a0ee 8fbc 16a6 2bbe 324b 9dbd 7748 08bd
000000f0: c94c 2e3e 0264 9a3d 33d8 be3c 4b45 87be
00000100: 8efd 0fbe c177 7a3d 6adc ecbc ce07 6c3d
00000110: d7e3 90bd ad87 953b 02a6 51be e91a d3bc
00000120: cae6 9f3d 22df 5ebd 0969 9a3c e86d 553b
00000130: 8f2d 993d 2b52 d03b b55e 81be 0b4d 0cbd
00000140: acd9 89bc bb86 88bd c920 9a3d 87a5 14be
00000150: 17d3 56bc 94a8 9abd 0dc0 c03b 7ec2 863d
00000160: e394 d6bd 5fb6 6a3d d942 d0bd 8f6e f03d
00000170: d5ba 6c3d 4baf 023e 3cfc 83bd 0a31 a03d
00000180: b2a6 943d 364c d4bd 70a8 183e 2e14 9d3a
00000190: f6c8 97bc 46eb 8c3d e095 d63d 503b 22bd
000001a0: ce88 953d 3789 c03b 9f97 c7bd 9b4b 5d3d
000001b0: 655d c4bc babb 32bd cb92 af3c 7c84 cb3d
000001c0: 443f 163d 2f4d 743d 8f87 ba3c 3200 84bd
000001d0: 07a4 6cbd 5982 173e 4444 b43d 28a4 29bd
000001e0: 2e94 c4bd 2e69 123c 6b49 043d dd63 30bd
000001f0: 0246 6fbd 2da8 b53d 2071 4b3d fbe0 013e
00000200: 4dac 9e3c 44ed 32bd afdd fb3c 4d83 e3bd
00000210: f406 d2bc 2d1c 46bd ea9f 4e3c 8b93 d33d
00000220: 0935 dfbd 0be3 18be 10a9 2fbd 0e69 8d3d
00000230: 9528 563d afee f93d bbff 8a3d 69ee 293d
00000240: 043b cd3d 17e3 c43c 4d08 debc 9bdc 0c3d
00000250: 25fe 443e 5e0c fbbb e166 0ebe b912 a5bc
00000260: 0ebc 11be 44b4 6f3e 07ec 7c3d a449 1c3e
00000270: 5ef9 453d e7e6 5b3d 9646 c639 c738 10be
00000280: 1fbc a7bd 43c6 a83d 84da 1abd 6151 abbc
00000290: 8033 3abb aa24 c2bd 33e2 7fbd d825 57bd
000002a0: 2385 803d 3346 3cbd 2b5c e9bd 5011 af3d
000002b0: 53f1 83bd cc0c a3bd c468 4d3e 4fd8 21be
000002c0: e286 b23c 8362 233e e35d 98bd 8ff1 413d
000002d0: 764a 543d 272c 97bc ddf4 ffbc 01ae 513c
000002e0: 6d90 6f3d edde 073e 28b4 113d 3ced 8b3b
000002f0: b6a9 203d 13d8 0fbd 31ca 2f3d 93cb b03d
00000300: 0110 67bd b7c4 7dbd 2dcb 0b3e 3dce c3bd
00000310: cfdc b3bd 5654 4b3c 5872 31bd 1c76 6d3d
00000320: ef49 403e 2b75 ddbc e7a3 1fbd 4d85 203d
00000330: 0f06 c4bd b38d bc3c 1072 ba3d e8b6 8e3c
00000340: 770b 1f3d 5eaa 133d 242c 83bd 6cc5 2bbe
00000350: 4834 27bd fa39 d3bc 7a4e 40bd a157 3c3d
00000360: 23d8 163e 9677 cabd b05e 40bd f583 c23c
00000370: a406 73bd d409 28bd a2d4 a93d f46c 23bc
00000380: ff35 e23d d6b8 2bbe dfc5 8fbd 4554 cbbd
00000390: 708f 18be 5e62 0dbe ba83 583d 1166 d1bc
000003a0: 0b5d 153e ae24 1abe 101f 513d ea15 0d3e
000003b0: 3386 8b3c a426 34bd 74ba e73d a79e c13d
000003c0: 8cf3 133d a98f b9bd fe3e 37bd 4b8d 2f3d
000003d0: be24 22bd 093e 2ebe f116 1ebd 38ed a23d
000003e0: 7ea2 8dbd ed22 88bc 3197 63bd 390e 75bd
000003f0: a723 243d d5f2 163d 5b58 e4bd 768b 5d3d
-0.09414886 0.05794252 0.021059383 -0.08496239 0.052105274 0.12892413 0.12030784 0.08234087
0.11894675 -0.07647928 0.0046928236 -0.004732489 -0.118087254 -0.01799015 0.06565891 0.007913561
0.027108213 -0.007051449 -0.07161917 0.0062537068 0.036980297 0.02795708 0.012210342 -0.13020621
0.0015152062 -0.10435141 -0.21279542 0.019846754 0.0785623 0.077514075 0.07474791 -0.051620934
0.067164406 0.05624249 0.0870085 0.05415506 -0.18575202 -0.012113579 -0.13532625 -0.049870156
0.12886514 0.13083695 0.036109187 -0.024977664 0.24914311 -0.19797726 -0.017121859 -0.0051662056
0.09871008 0.11214218 0.047015134 -0.099806465 -0.10330307 0.0063006934 0.08417259 -0.06968636
-0.01756984 -0.16762576 -0.07680358 -0.033272233 0.17021479 0.07538606 0.023296451 -0.26420054
-0.14061567 0.061149362 -0.028913695 0.05762463 -0.07074707 0.004563293 -0.20473483 -0.025769668
0.078076914 -0.054412015 0.018848913 0.003256673 0.07479393 0.0063574514 -0.25267568 -0.03425316
-0.016827427 -0.06666323 0.075257845 -0.14516269 -0.013111851 -0.07551685 0.0058822692 0.06580065
-0.10477617 0.05730283 -0.10169 0.117398374 0.057795364 0.12762181 -0.06444594 0.078218535
0.07258357 -0.103660986 0.14908004 0.0011984163 -0.018528443 0.06880812 0.10477805 -0.039607346
0.07301484 0.0058757323 -0.09745716 0.05402718 -0.023970315 -0.04363606 0.021432301 0.09937379
0.03668143 0.05964392 0.022769717 -0.0644535 -0.057773616 0.14795817 0.08802083 -0.041416317
-0.095985755 0.00893621 0.03229658 -0.043063987 -0.058416374 0.088699676 0.04966843 0.1268348
0.019369269 -0.043683305 0.030745355 -0.11109028 -0.025638081 -0.048366714 0.012611369 0.10330876
-0.108987875 -0.1493036 -0.04288584 0.06904803 0.052284796 0.122037284 0.06787058 0.04148713
0.10021022 0.024034066 -0.027103567 0.034390073 0.19237573 -0.0076613864 -0.13906433 -0.02015053
-0.14231893 0.2340861 0.06174853 0.15262467 0.04833352 0.053687003 0.00037818094 -0.14084159
-0.08190178 0.082409404 -0.03780605 -0.020912828 -0.0028412044 -0.09479649 -0.06247158 -0.052526325
0.06275394 -0.045965385 -0.11394533 0.08548224 -0.06442513 -0.07961425 0.20059496 -0.15805171
0.021792833 0.15955548 -0.074397825 0.04734951 0.051828824 -0.01845367 -0.03124469 0.012797833
0.058487345 0.13268633 0.0355722 0.004270224 0.03922435 -0.035118174 0.042917434 0.08632579
-0.056411747 -0.06195518 0.13651724 -0.09560821 -0.0878235 0.012410244 -0.043321937 0.057973966
0.18778203 -0.02703341 -0.03897467 0.039189626 -0.09571468 0.023016786 0.09103787 0.0174212
0.038829293 0.036051147 -0.064049035 -0.16774529 -0.040821344 -0.025784481 -0.04694984 0.045982007
0.14730887 -0.098860905 -0.0469653 0.023744563 -0.059332505 -0.041024998 0.082925096 -0.009974707
0.11045455 -0.16769728 -0.07020163 -0.099281825 -0.14898467 -0.13807055 0.05286 -0.025561364
0.14586274 -0.15053055 0.051055014 0.13777891 0.017031765 -0.043982163 0.1131486 0.09454089
0.036120936 -0.09060604 -0.04473781 0.042859357 -0.03958582 -0.17015852 -0.038596097 0.07955402
-0.069157586 -0.016618216 -0.05556411 -0.059828017 0.040073063 0.036852676 -0.11149665 0.05408808

network_body._body_endoder.seq_layers.2.bias f4 [128]
00000000: b08f d1bb f8fd a1bb f705 f8bb fcc2 ab3b
00000010: 3601 813c 98c5 0ebd cf83 cdbb 6886 acbc
00000020: be97 a3bc 2af8 c43c 9ac1 38bd 857d c0bc
00000030: 66ba 42bd 7f73 03bd dd9b 15bd 1774 1d3c
00000040: 2bda 953c d0b0 7f3c d3e4 72bc 0211 19bc
00000050: bcba ecbc 69a9 a8bc 82cc 9bbc 0cb9 60bc
00000060: 0b9a d1bb 0142 12bc 2641 92bc 75d8 833b
00000070: 0993 8cbc 9df3 473c deae 0bbc e3c5 eebb
00000080: 7930 b7bc 1e54 663c 4ebd b1bc b1c9 1ebd
00000090: a399 db3b 47c4 85bc 4c17 6c3c 480f 06bc
000000a0: 5d08 a83b 3a7f 723c 8122 6ebc 9a82 15bc
000000b0: febf c0bc 8447 983c 89c9 37bd d102 49bb
000000c0: 7aa7 d33c 0eca c03c 08e9 95bc 4d07 97bc
000000d0: 999c 843c e5b1 ae3c e338 ff3a c505 9cbc
000000e0: 07a2 fc3b 6191 7ebc c144 85bc 1ec4 913b
000000f0: 309b b6bc 6c2b 8d3b 7978 82bc 6144 b43c
00000100: 0724 9ebc 4f11 8bbc ef94 a6bc 7dc9 93bc
00000110: e2f3 10b9 2708 a1bc a871 1ebb 6403 84bc
00000120: ffe9 7abc 9198 7c39 e293 0e3c 326a c2bb
00000130: bef2 b13c acc6 98bc c5c2 db3b 1678 a2bc
00000140: 9cb1 3bbd c10b b2bc f94c 9fbb bec4 fbba
00000150: 9649 b8bc d4e1 8a3c 4378 b53b 5ec6 8bbc
00000160: 98a5 2fbd 54cb a03c 2f0b 60bd d9f4 4d3c
00000170: 652c 403c 66a6 fcbb 70fd cdbc 880b f5bc
00000180: b6f0 53bd e13d 55bb 9957 06bc e27d b2bc
00000190: 75c0 e9bb 5543 a1bc 77a0 48bd 954c 7ebc
000001a0: acb0 86bc c606 cb3c 0e46 f4bc 419b c63a
000001b0: dbe2 69bc 1375 9f3b 9096 383c 900f bd3a
000001c0: c06e 3f3c 6576 0ebd d8ff 19bc 487b b0bc
000001d0: f693 1abd 80fa 7ebc 7ad2 bbbc 0a4d e7bb
000001e0: 3ded 01bd c8fc 98bc e679 50bc 6be1 54bb
000001f0: d5ec a53b 5d3c 19bd 2e25 cbbc 58c6 32ba
-0.0063953027 -0.0049436055 -0.0075690704 0.00524175 0.015747648 -0.03485641 -0.0062718163 -0.021060184
-0.019969817 0.024044115 -0.045106508 -0.023497352 -0.047541045 -0.032092568 -0.036525596 0.0096101975
0.018292507 0.01560612 -0.014825064 -0.009342434 -0.028897636 -0.020588594 -0.019018415 -0.013715994
-0.006396537 -0.008926869 -0.01785333 0.0040236064 -0.017159956 0.012204078 -0.008525578 -0.0072867735
-0.02236198 0.014058141 -0.021696713 -0.038766567 0.0067016645 -0.016328944 0.014409851 -0.008182354
0.00512795 0.014800841 -0.014534594 -0.009125376 -0.023529049 0.018588789 -0.044869933 -0.0030671845
0.025836695 0.023533847 -0.018299595 -0.018436098 0.016187953 0.021325061 0.001947191 -0.01904572
0.007709745 -0.015537591 -0.016268136 0.004448428 -0.022290796 0.004308155 -0.015926586 0.022005262
-0.019304289 -0.016976027 -0.020334689 -0.018040413 -0.00013823764 -0.019657208 -0.002417663 -0.016114898
-0.015314578 0.00024089428 0.00870225 -0.0059330696 0.021722194 -0.018649422 0.006706568 -0.019832652
-0.04582368 -0.02173412 -0.004861471 -0.0019208414 -0.022496026 0.016953386 0.005538018 -0.017062362
-0.042882532 0.019628204 -0.054698166 0.012570583 0.0117293345 -0.007710266 -0.025145262 -0.029912725
-0.05174323 -0.0032538103 -0.008199596 -0.021788541 -0.0071335384 -0.019685427 -0.048981156 -0.015521188
-0.016441666 0.024783503 -0.02981856 0.001515247 -0.014275278 0.0048662513 0.011266366 0.0014424194
0.01168412 -0.03478088 -0.009399377 -0.02154316 -0.037738763 -0.015562654 -0.022927511 -0.0070587443
-0.03172039 -0.018675223 -0.012724375 -0.0032482992 0.005063633 -0.037411083 -0.024798002 -0.00068197167

action_model._continuous_distribution.log_sigma f4 [1, 2]
00000000: 1815 a8bd 7bc9 cbbb
-0.08207148 -0.0062190867

action_model._continuous_distribution.mu.weight f4 [2, 128]
00000000: 4d53 9e3a ede4 28bb 2f91 22bd 55c5 ef3b
00000010: 213e 93bb 6371 24bd 9e0d 4dbc c428 cdbc
00000020: eef6 2fbc 44ca bbbb 5f07 0bbd 3fad 8ebc
00000030: 77e4 f5bc f790 32bd 6728 dfbc 0487 f23c
00000040: 2ab9 0a3d ae5e ed3c 26c6 7dbc 98d7 18ba
00000050: 509e 11bd a1c5 32bd 96d4 d2bc b1fd 6abb
00000060: e21b 6cbc b939 dc3b 3458 d2bc b42b adbb
00000070: 826e c8bb d5e8 933b dd75 aabc 39f1 34bb
00000080: 5eaa a2bb f019 203c 4494 3aba 21a3 71bd
00000090: 43b0 9ebc 8628 b0bc 2e76 883c 46a0 5dba
000000a0: 4fe2 233b f31f c63c 7c50 0dbc 0709 84bb
000000b0: e854 efbc e6d1 753c bb50 07bd fcc4 8a3c
000000c0: f0a0 9f3c 320f f53c d5c7 8cbc 5a44 a0bc
000000d0: 304f ddba 076f 373c ee5e 6f3c fd49 1dbd
000000e0: dd07 db3a d075 9cbc fad5 f6bb 999b 733a
000000f0: cccf 9cbc ba24 7b3a 2b2f 65bd 0b5e f83c
00000100: 9235 68bb 9032 54bc 4f1b 9fbd 986e 6dbb
00000110: b739 313b fe57 37bc 002d 71bb bc19 fb39
00000120: 1a5d 17bd 1b71 593c 1d7f d83c 4e3c 71bc
00000130: d7dc a13c 8861 abbb 7a49 5fbb cf8c 0bbd
00000140: 9e6b 3fbd f4cc 1fbc ad2c acbb 463d 0ebc
00000150: f098 19bd af4a ddbb 10e6 873b 1d29 74bc
00000160: 38d0 e7bc 70b8 ac3c 6219 d0bc 993e 333b
00000170: 0bf5 2a3c 3fd3 debc d771 59bc b4d4 02bd
00000180: 1f3e 5bbd b6eb d8ba 17bb b5bb 6256 01bd
00000190: ca3b f43b c0da 46bc dc32 19bd 8e50 8bbb
000001a0: 2684 bfbb 9bc6 803c 8da1 32bd 9cfc 883b
000001b0: 4ca7 8dbc 03f3 a5bc 1641 6abb ef3b 16bc
000001c0: a87b 41bc af38 31bc 649c 84bb e3e7 9abc
000001d0: 63db 78bc 2440 c4bb cd72 41bc 1dc6 953b
000001e0: 3836 01bd 6434 c5bc 3844 03bb e975 abba
000001f0: 0686 93bc b745 aabc 4b65 83bc 7657 223c
00000200: bd23 1dba d378 f83b 2fac 2bbd 4689 da3c
00000210: de67 12bd 6dec 00bd 85d0 8fbc 59d0 c2bc
00000220: f19a 233b 1daa 5b3b 926b a03c ddd1 d53c
00000230: eb9d 60bc 2b70 82bc 9eab 07bc 286c bbbb
00000240: 6b0f 393c 1063 c03a 3a40 1dbc f385 30bb
00000250: 7a53 f1bc 03f5 04bd 3949 4ebd 7bf7 d6bb
00000260: a6a9 67bd 5a28 4fba 5067 afbc 94e5 013c
00000270: 5453 81bb 78d2 39bd 685e 1cbd ac08 2e3c
00000280: 0e43 183b 6b1e cebc be89 c938 0660 b5bc
00000290: 4aa2 2bbd 94e3 a0bc 0c9b 533c b4ee 363c
000002a0: 18b6 5b3c 5bbe 6a3c 4ed1 3f3c 75b0 3e39
000002b0: 5fed 94bc f16d 733c 1f98 333c f502 bfbc
000002c0: d704 97bc 7bf4 473c 49b3 86bc 90bb e6bc
000002d0: b5a2 5d3c ec93 963c 4f03 9dbc 9571 9f3c
000002e0: 7bdf 313c 482b af3c fa4e 94bc 854e 533d
000002f0: d211 a6bb 0aed 98bc b64d 463c 3070 b43c
00000300: f496 d93b 702c 86bc af79 483d 4b07 50bc
00000310: c967 833c a557 3f3b 0792 48bc daae 37bc
00000320: 0b41 f2bc 9072 00bc 51b4 94bb 5563 edbc
00000330: a57b ab3c 3535 d83a 4e7f 95ba 695e 2d3d
00000340: d8cc b13b 03f1 18bb 5ced d9bc b963 f93c
00000350: 8ea5 cf3c e944 2c3c dc79 82ba e889 36bd
00000360: 3e40 05bc b2a2 a13c 1d41 0e3c 00f0 25bd
00000370: eda8 8c3c b6ad 67bc ee59 7ebc 7609 853c
00000380: 5ccb a236 a9b1 be3c 5921 a0bc 18fd 32bd
00000390: d89c 92bc f39d 81bc 16d6 72b9 39d0 0bbd
000003a0: c297 58bc ae8d a63c b07b adbc 38c5 253c
000003b0: 7ab7 c83c 8597 33bd 0a8e 423c 6d01 1ebd
000003c0: d0c4 61bd c5d7 43bc da45 5c3c 695f bfb9
000003d0: a464 45bc 047d a23c 3519 05bc 01f7 5a3c
000003e0: 59a1 97bc ba8e f53b 408a de3b 68a9 303b
000003f0: 5aa0 62bd c087 bb3a 5a55 b0bb 1106 3dbc
0.0012079269 -0.0025771216 -0.03968924 0.007317225 -0.0044934903 -0.040147197 -0.012515454 -0.025043853
-0.010740025 -0.005730899 -0.033942576 -0.017416595 -0.030016167 -0.04359528 -0.027240945 0.029605396
0.033867992 0.02897581 -0.015489137 -0.0005830466 -0.03555137 -0.043645505 -0.025736134 -0.0035856778
-0.014410945 0.0067207483 -0.025676824 -0.005284751 -0.006116689 0.0045138397 -0.020808155 -0.00276096
-0.004964157 0.009771809 -0.000711743 -0.058993462 -0.019371158 -0.021503698 0.016657915 -0.00084543636
0.0025006717 0.024185156 -0.008625146 -0.0040293965 -0.029215291 0.015003657 -0.033035975 0.016939633
0.01948592 0.029914472 -0.017185131 -0.019563843 -0.0016884562 0.011195905 0.014610035 -0.03840064
0.0016710717 -0.019099146 -0.007532832 0.00092929 -0.019142054 0.0009580363 -0.055953186 0.03031828
-0.003543232 -0.012951508 -0.077688806 -0.003622925 0.0027042457 -0.011190413 -0.0036800504 0.00047893624
-0.036954023 0.013271595 0.0264278 -0.01472385 0.019758625 -0.0052301325 -0.0034070895 -0.034069832
-0.04673349 -0.0097534545 -0.005254349 -0.008681601 -0.03749937 -0.0067532877 0.0041472986 -0.01490238
-0.028297529 0.02108404 -0.025402728 0.0027350544 0.010434399 -0.02720034 -0.01327177 -0.03194113
-0.05352604 -0.001654974 -0.0055459845 -0.03157652 0.0074534165 -0.012137115 -0.03740202 -0.004251546
-0.0058446107 0.015719702 -0.043611098 0.004180504 -0.017291687 -0.020257479 -0.003574436 -0.009169563
-0.011809267 -0.010816737 -0.0040469635 -0.0189094 -0.015189025 -0.0059890915 -0.011807156 0.004570736
-0.031545848 -0.024072833 -0.0020029675 -0.0013081405 -0.018008243 -0.020785196 -0.016039511 0.009908548
-0.00059944 0.0075827627 -0.041912254 0.026676785 -0.035743587 -0.031475473 -0.017555485 -0.023780989
0.0024964178 0.0033518143 0.019582544 0.026101047 -0.013709526 -0.015922626 -0.008280663 -0.0057196803
0.01129518 0.001467796 -0.009597832 -0.0026935309 -0.02945875 -0.032460224 -0.0503628 -0.0065602637
-0.056558274 -0.0007902436 -0.021411568 0.007928271 -0.003946701 -0.045366734 -0.03817597 0.010622185
0.0023233327 -0.025160989 9.610083e-05 -0.022140514 -0.041902818 -0.019639768 0.012915384 0.01116531
0.013410114 0.014327611 0.011707617 0.00018185547 -0.018179594 0.014857755 0.010961561 -0.02331684
-0.018434925 0.012204285 -0.016442912 -0.028165609 0.013527562 0.018381082 -0.019166617 0.01946334
0.010856505 0.021382943 -0.018104065 0.051588554 -0.0050680423 -0.018667717 0.012103489 0.022026151
0.0066403095 -0.016378611 0.04894417 -0.012697051 0.0160407 0.0029196527 -0.012241847 -0.011211121
-0.02957203 -0.007839814 -0.004538097 -0.02897803 0.020932982 0.0016495349 -0.0011405738 0.042326365
0.0054260306 -0.0023337014 -0.02660244 0.03044306 0.025347497 0.010514476 -0.000995453 -0.04456511
-0.008132992 0.0197309 0.008682516 -0.040512085 0.017170394 -0.014140537 -0.015524371 0.016239863
4.8516504e-06 0.023278074 -0.019547151 -0.0436984 -0.017897055 -0.015822386 -0.00023158672 -0.034134123
-0.013219776 0.02033123 -0.021177143 0.010117821 0.024501551 -0.043845672 0.011874685 -0.03857558
-0.055119336 -0.011953299 0.013444388 -0.00036501445 -0.01204792 0.019835003 -0.008123686 0.013364554
-0.018509554 0.007493821 0.006791383 0.0026956443 -0.055328704 0.0014307424 -0.0053812684 -0.011537091

action_model._continuous_distribution.mu.bias f4 [2]
00000000: 30b3 d93c 6a49 f53b
0.026574701 0.0074855583
