Assets/results/petfollower2/PetFollower/checkpoint.pt (torch, 444450 bytes, 36 tensors)

network_body._body_endoder.seq_layers.0.weight f4 [128, 7]
-0.14019223 0.035764556 0.32948333 -0.71875453 0.7316163 -0.69711405 0.25983512 0.3218849
-0.37509903 -0.29145947 -0.041633483 0.26991355 0.17034517 -0.32236207 -0.1842779 0.6895796
0.092469044 0.41399732 0.14526716 0.5134126 0.013212803 -0.13930526 0.064735815 0.6128986
0.23759559 -0.28494963 -0.09976774 -0.5527873 0.4345044 -0.15128556 0.2568559 -0.40939406
0.06500611 0.01212073 -0.65122676 0.076128885 -0.121565476 0.3144053 0.10128838 -0.35848743
0.39214963 -0.53732014 -0.28491232 0.05965675 0.18515113 0.48428848 -0.16201416 0.4828311
0.05758824 0.11831456 -0.07318646 0.14192897 0.47298592 -0.24519578 0.03931454 0.22975746
0.36743551 0.41566283 -0.09968935 0.57877594 -0.02104573 0.332827 0.016811313 -0.0010309392
-0.27253234 -0.3274829 -0.653971 0.17251866 0.011298924 0.24374229 0.18654409 -0.29504642
-0.43214235 -0.64328206 0.07045818 0.038513374 -0.29375055 0.3024672 0.16366011 0.42916253
0.21122895 -0.46369305 -0.032563657 0.7003111 -0.060581524 0.2502563 -0.32426834 0.27425906
-0.2336236 0.037761096 -0.8938294 0.29612222 -0.50568813 -0.119150296 0.5037148 0.054766953
-0.0398922 -0.26884675 0.15210846 -0.2609595 0.2649208 0.7243653 0.114049666 -0.106690496
0.16489975 0.041566003 0.3858314 0.512785 -0.35047516 0.23944075 -0.33750558 0.44393694
-0.051118918 -0.4011127 -0.10855422 -0.24310465 0.6821718 -0.090448275 0.6266429 -0.033682045
0.054301813 -0.15109225 -0.079014584 0.5219597 -0.2204248 0.4468107 0.7990084 -0.66931003
0.40114552 0.2507549 0.1569314 -0.31196234 -0.38599855 -0.026967857 0.48791504 0.42066774
0.17384683 -0.13251361 0.20793049 0.2838762 -0.5569274 -0.11513732 -0.3212435 0.7576449
0.32633653 0.5283446 0.02477283 0.611617 0.0064627933 0.05836109 -0.2012391 0.054252192
0.5631634 -0.13438502 -0.07738869 0.019988867 -0.05672061 0.45277137 -0.7411735 -0.5048779
0.1469959 -0.17517602 0.10128764 -0.026787575 -0.44256863 0.81233335 0.30062795 0.071476325
-0.27215853 -0.00078405894 -0.34707734 -0.41754976 0.25372836 0.14534277 -0.1988133 -0.08553266
-0.88557255 0.16164815 -0.059569474 -0.41104266 -0.6320556 -0.30151445 -0.511642 -0.1414072
-0.5682698 -0.29185623 0.21669236 0.038848516 0.07124001 0.32950377 0.69097733 0.2451577
-0.33490485 0.28337684 1.1012844 -0.31618407 0.18849249 0.056559317 -0.20581268 0.49625665
-0.82414854 0.1691199 0.121919066 0.42030856 -0.16727617 -0.22367008 0.023180166 -0.6204759
-0.42176825 0.35880798 -0.3010373 0.43017724 -0.36423936 -0.43369246 -0.612069 0.10449641
0.5468205 -0.16128719 -0.19327481 0.013225751 0.48007026 0.20038866 -0.412789 0.73022413
-0.20441075 -0.6737844 0.40070668 0.3221737 0.424782 -0.07519347 -0.8530407 0.03675869
-0.045182336 0.13394487 -0.13682003 -0.20590276 0.1567133 -0.07829924 -0.3532967 -0.40671733
-0.43966824 -0.15924916 0.514695 -0.106818944 0.8175563 -0.22505601 0.21051808 0.0003193098
0.6900268 -0.1130827 0.2760625 -0.25609067 0.13560192 0.4084306 -0.5587231 0.04489403
00000000: 8d8e 0fbe db7d 123d 0ab2 a83e 4c00 38bf
00000010: 354b 3b3f 1176 32bf 1c09 853e 19ce a43e
00000020: fb0c c0be 2d3a 95be df87 2abd 1c32 8a3e
00000030: f76e 2e3e a40c a5be 59b3 3cbe 4a88 303f
00000040: 6960 bd3d 75f7 d33e eac0 143e 026f 033f
00000050: 837a 583c 0aa6 0ebe 3694 843d ece6 1c3f
00000060: 424c 733e ebe4 91be 0753 ccbd 7883 0dbf
00000070: 5c77 de3e 9aea 1abe 9e82 833e 199c d1be
00000080: ec21 853d 0796 463c ccb6 26bf 76e9 9b3d
00000090: 52f7 f8bd bbf9 a03e 4870 cf3d aa8b b7be
000000a0: d6c7 c83e d08d 09bf 07e0 91be a35a 743d
000000b0: 4298 3d3e a9f4 f73e 0ae7 25be a335 f73e
000000c0: a5e1 6b3d e74e f23d c8e2 95bd d455 113e
000000d0: 362b f23e 9a14 7bbe 4808 213d 8a45 6b3e
000000e0: 8220 bc3e c2d1 d43e ee29 ccbd a92a 143f
000000f0: 1868 acbc 4d68 aa3e e1b7 893c 9420 87ba
00000100: 5c89 8bbe d7ab a7be a56a 27bf bba8 303e
00000110: 1f1f 393c 9497 793e 6a05 3f3e 5310 97be
00000120: c341 ddbe 22ae 24bf 614c 903d 33c0 1d3d
00000130: 7966 96be fbdc 9a3e 8496 273e 31bb db3e
00000140: 674c 583e 2d69 edbe 7861 05bd 9747 333f
00000150: 5524 78bd 9821 803e 8006 a6be af6b 8c3e
00000160: 063b 6fbe 61ab 1a3d 01d2 64bf 559d 973e
00000170: c774 01bf 1205 f4bd 74f3 003f 5053 603d
00000180: 0166 23bd 48a6 89be 52c2 1b3e 7c9c 85be
00000190: b3a3 873e 0170 393f df92 e93d 8c80 dabd
000001a0: 7bdb 283e 1d41 2a3d b18b c53e e145 033f
000001b0: 7b71 b3be f52f 753e 88cd acbe b44b e33e
000001c0: 1262 51bd a55e cdbe ad51 debd 6df0 78be
000001d0: d0a2 2e3f f23c b9bd ab6b 203f 2ff6 09bd
000001e0: 946b 5e3d edb7 1abe 66d2 a1bd 279f 053f
000001f0: 0ab7 61be 5fc4 e43e d18b 4c3f e757 2bbf
00000200: f262 cd3e f262 803e a0b2 203e 87b9 9fbe
00000210: 9aa1 c5be b2eb dcbc 00d0 f93e c361 d73e
00000220: e704 323e a6b1 07be bbeb 543e 3958 913e
00000230: cb92 0ebf 1dcd ebbd 077a a4be 04f5 413f
00000240: 9515 a73e 9741 073f 64f0 ca3c ef92 1c3f
00000250: d7c5 d33b 0a0c 6f3d 9f11 4ebe 8c37 5e3d
00000260: 7a2b 103f 3a9c 09be f67d 9ebd b1bf a33c
00000270: df53 68bd a6d1 e73e 8cbd 3dbf ae3f 01bf
00000280: 1886 163e 5861 33be e56f cf3d 9e71 dbbc
00000290: 5b98 e2be 14f5 4f3f e8eb 993e 2e62 923d
000002a0: 5d58 8bbe 4e89 4dba 1fb4 b1be 15c9 d5be
000002b0: afe8 813e bcd4 143e b795 4bbe bf2b afbd
000002c0: e2b4 62bf 1887 253e 1fff 73bd 2f74 d2be
000002d0: 65ce 21bf 1a60 9abe f8fa 02bf 0dcd 10be
000002e0: 217a 11bf 2e6e 95be 9ae4 5d3e 9f1f 1f3d
000002f0: 48e6 913d b8b4 a83e e4e3 303f 9f0a 7b3e
00000300: a678 abbe c516 913e e3f6 8c3f e1e2 a1be
00000310: 2d04 413e beaa 673d 8fc0 52be 5a15 fe3e
00000320: 66fb 52bf c42d 2d3e b4b0 f93d af32 d73e
00000330: 724a 2bbe c509 65be 55e4 bd3c 82d7 1ebf
00000340: 02f2 d7be aeb5 b73e 9021 9abe 3140 dc3e
00000350: 957d babe f00c debe 8eb0 1cbf 3702 d63d
00000360: 6efc 0b3f 7828 25be d5e9 45be d2b0 583c
00000370: c5cb f53e af32 4d3e 1459 d3be f8ef 3a3f
00000380: 0d51 51be 227d 2cbf 6d29 cd3e f4f3 a43e
00000390: 077d d93e 09ff 99bd e060 5abf 4890 163d
000003a0: 1d11 39bd d828 093e 8d1a 0cbe 2cd8 52be
000003b0: 7479 203e 5a5b a0bd 4ee3 b4be 413d d0be
000003c0: 321c e1be 3612 23be 0dc3 033f e4c3 dabd
000003d0: 5f4b 513f 1575 66be 0d92 573e 0969 a739
000003e0: 99a5 303f e797 e7bd 1058 8d3e 511e 83be
000003f0: 3bdb 0a3e d11d d13e 7a08 0fbf cde2 373d

network_body._body_endoder.seq_layers.0.bias f4 [128]
-0.00069917645 -0.00023542697 0.026904035 -0.00805646 0.0041583665 -0.0017948553 0.024065414 0.037999656
0.030413883 -0.002175628 -0.008759524 0.040987566 -0.001114355 0.00035949567 -0.006493899 0.03247336
0.031749036 0.02149104 -0.0017115086 0.02115075 -0.0044646966 0.0010194309 0.033453174 0.01092865
-0.0015470149 0.0039888173 -0.0043659937 0.018939106 0.015291191 0.036213852 0.03783929 0.032184266
0.002633381 -0.00030042647 0.026658723 -0.0055268826 0.036787223 0.034312654 -0.0073930672 -0.0012753697
0.03438746 0.002614084 0.036487877 -0.002406643 0.035395414 -0.008771105 0.0026857671 0.0014683985
-0.0010839391 0.028601307 0.028486613 0.0010031164 0.025309 -0.0010729308 0.032247294 0.027374895
0.0017189257 0.0026550624 0.0014445328 0.040162884 0.006480857 -0.0010733755 0.002973623 0.020122955
0.000393853 0.0019263928 -0.0003245243 0.030230548 -0.00505313 -0.0026813669 0.0010833222 0.017949557
0.029536294 -0.0022284067 0.036146685 0.007359102 0.0021056724 0.00044990942 0.031713985 0.0026916936
0.033967838 -0.0020780317 0.021396467 0.021577828 -0.0015397181 0.0374859 0.031947497 0.003543506
-0.027938014 0.030990718 0.0236098 -0.0062969998 0.0352896 0.03439671 0.0032014495 0.0050911284
0.02859766 0.03759369 0.0031362446 0.00326765 0.025478836 0.00046886067 0.01007165 -0.0039274236
0.032145437 0.031583697 -0.0005678729 0.0025509119 0.0020728873 -0.0017372741 0.0111382725 -0.0025961453
0.034630887 0.035773285 -0.0016836559 0.017307531 0.0033335688 0.04173344 -0.0041923863 -0.0054946146
0.024223644 0.028224714 0.00011450767 0.0017526536 0.034093387 -0.0052751275 -0.0036053043 0.02183396
00000000: f048 37ba f2dc 76b9 da65 dc3c 3eff 03bc
00000010: e842 883b 5a41 ebba d524 c53c 87a5 1b3d
00000020: 8926 f93c fb94 0ebb 1b84 0fbc 94e2 273d
00000030: 8d0f 92ba b17a bc39 c6ca d4bb c902 053d
00000040: 470b 023d fa0d b03c b354 e0ba 5644 ad3c
00000050: 974c 92bb 6d9e 853a 3206 093d 150e 333c
00000060: 35c5 caba a0b4 823b 9c10 8fbb 2f26 9b3c
00000070: e787 7a3c fa54 143d 5ffd 1a3d a6d3 033d
00000080: cd94 2c3b 8f82 9db9 6563 da3c da1a b5bb
00000090: 33ae 163d 6d8b 0c3d 8b41 f2bb 4e2a a7ba
000000a0: ded9 0c3d 0d51 2b3b 5074 153d c5b8 1dbb
000000b0: c8fa 103d aeb4 0fbc b203 303b 4777 c03a
000000c0: f612 8eba 4a4d ea3c c25c e93c 007b 833a
000000d0: d254 cf3c 95a1 8cba bd15 043d 5141 e03c
000000e0: 934d e13a 8e00 2e3b 7a56 bd3a d681 243d
000000f0: 5e5d d43b 81b0 8cba 1ee1 423b e5d8 a43c
00000100: 0e7e ce39 047f fc3a ea24 aab9 0ea6 f73c
00000110: ba94 a5bb dfb9 2fbb 43fe 8d3a f30a 933c
00000120: 19f6 f13c 760a 12bb 8c0e 143d 9f24 f13b
00000130: 52ff 093b d2e1 eb39 86e6 013d 2067 303b
00000140: dc21 0b3d 962f 08bb a547 af3c fcc3 b03c
00000150: 5ed0 c9ba d18a 193d 61db 023d 2a3a 683b
00000160: 43de e4bc 3fe0 fd3c 5769 c13c 1057 cebb
00000170: d48b 103d 91e3 0c3d 69cf 513b 7bd3 a63b
00000180: a445 ea3c d7fb 193d 7489 4d3b 1226 563b
00000190: feb8 d03c 6ad1 f539 9003 253c 9eb1 80bb
000001a0: efaa 033d e85d 013d 4edd 14ba 332d 273b
000001b0: 47d9 073b 3fb5 e3ba 4d7d 363c 1724 2abb
000001c0: 1ed9 0d3d 0287 123d 1eae dcba 86c8 8d3c
000001d0: 0178 5a3b aff0 2a3d 4960 89bb 2b0c b4bb
000001e0: aa70 c63c 8437 e73c d623 f038 4cb9 e53a
000001f0: 82a5 0b3d fada acbb f846 6cbb 22dd b23c

network_body._body_endoder.seq_layers.2.weight f4 [128, 128]
-0.06921663 -0.08973055 -0.27177522 -0.19859856 0.08679724 -0.13277899 -0.11858013 -0.08555082
0.13037445 0.08322278 -0.0014265843 0.0023873686 0.12804845 -0.034720425 -0.13609396 0.097783715
0.06370222 0.0386866 0.017909007 0.07015117 -0.025554143 0.08325339 0.084388636 -0.02230924
-0.053592756 -0.04796089 -0.028840063 0.16602863 -0.05967004 0.048180185 0.21755534 -0.024109047
-0.12227158 -0.07134077 -0.027693735 -0.08072733 -0.07432106 0.016206443 -0.050346434 0.05257895
-0.09961612 -0.057849348 0.006568617 -0.05223057 -0.1456131 0.12469877 0.056163505 -0.028181123
-0.018432511 0.117808945 -0.1012689 0.049173802 -0.015132157 0.21140784 -0.027657734 0.031120885
-0.07280849 0.09763191 0.057986334 -0.13661243 0.12838571 0.07912727 -0.02509115 0.06178392
-0.041495133 -0.027892528 -0.14434619 -0.15528335 0.06902547 0.07183046 0.009779622 0.05077294
0.24421115 0.014898589 0.06391646 -0.18184273 0.07676892 0.052987494 -0.13462585 0.016619846
-0.059648614 0.057355 -0.017268712 -0.037021365 0.09842343 -0.03934948 0.018417979 -0.04904312
-0.0046231486 0.07190029 0.022021467 -0.23974991 -0.10954169 -0.07802943 -0.018834084 0.049075484
0.063641496 0.006399279 0.018843316 -0.02999157 -0.111940086 -0.106384315 -0.05018915 -0.0443371
0.20786354 -0.15173753 -0.13217992 -0.086700976 0.047898255 -0.17844559 -0.20318745 -0.0758787
0.066474944 0.109885104 -0.008390772 -0.057716925 0.007166736 0.06967251 -0.01708749 0.047232352
0.019979402 0.041246638 -0.07654091 0.030044626 0.112251796 -0.14679645 0.041277185 0.09982021
-0.017877355 -0.040927693 0.15421578 0.08608252 -0.09375852 -0.020124285 -0.038931314 0.10313811
0.16689034 -0.0053275474 -0.019837601 0.08020626 0.07830802 0.005147723 0.076634705 -0.040044487
0.15723169 -0.075465254 0.095809266 0.054683298 -0.036450785 0.11682128 -0.019855918 0.013760968
-0.026390275 -0.04968353 0.0822431 -0.019640775 -0.069689974 0.017658051 0.06118101 0.109700054
-0.064612225 0.08353786 0.06321495 0.004242119 0.098430976 -0.009441211 -0.02671004 0.015494076
0.17834342 -0.004219615 0.07166812 -0.058451798 -0.0050303163 -0.017564477 -0.025915412 -0.08172201
0.0043724584 0.056214456 -0.038807 0.13745844 0.14338982 0.030650988 -0.08008104 0.047151547
0.08593327 -0.07533282 -0.095870554 0.03390456 0.0433455 -0.054106448 -0.032453228 0.14065106
0.0707757 -0.00014817296 -0.033250164 -0.15666267 -0.0015602662 -0.1702863 0.09726827 0.11104401
0.063392945 0.13484478 0.1028049 0.037116967 -0.011746773 -0.078794904 0.17844725 0.12179339
0.10703451 0.08370925 0.14358322 0.013206468 -0.012740732 0.06953027 -0.06315712 -0.06429366
0.002383025 -0.054829363 -0.041335233 -0.093393885 0.08192908 -0.07385484 0.1717327 -0.037251312
0.13849823 0.23972803 0.0687043 0.0048687556 -0.12141547 -0.081878215 0.0220614 0.07495723
0.1656244 -0.04501224 0.053768978 0.044309426 -0.02267279 -0.04403039 0.13449535 -0.04470554
0.11446897 0.13394535 -0.045820944 0.12292643 0.015268645 -0.04771389 0.08214766 0.02616066
0.10878296 0.043239392 0.0097625805 -0.041828126 -0.105358325 -0.014204637 0.02625234 0.13666812
00000000: 73c1 8dbd a7c4 b7bd 1f26 8bbe 6c5d 4bbe
00000010: c0c2 b13d 37f7 07be 24da f2bd 4535 afbd
00000020: e180 053e b470 aa3d 3afc baba 6675 1c3b
00000030: 221f 033e 0137 0ebd 375c 0bbe d442 c83d
00000040: 4f76 823d d775 1e3d e9b5 923c 6bab 8f3d
00000050: ec56 d1bc c180 aa3d f3d3 ac3d dec1 b6bc
00000060: 1484 5bbd a372 44bd ff41 ecbc 6903 2a3e
00000070: 9268 74bd 9658 453d d4c6 5e3e 5680 c5bc
00000080: 8669 fabd 1c1b 92bd f9dd e2bc 5f54 a5bd
00000090: a435 98bd 60c3 843c 1038 4ebd 065d 573d
000000a0: 8903 ccbd 70f3 6cbd 8e3d d73b b9ef 55bd
000000b0: 9a1b 15be 1262 ff3d b40b 663d 19dc e6bc
000000c0: c7ff 96bc d145 f13d 1266 cfbd 786a 493d
000000d0: deec 77bc 4c7b 583e 7992 e2bc 3af1 fe3c
000000e0: 9e1c 95bd 3df3 c73d 1483 6d3d 21e4 0bbe
000000f0: 8b77 033e 7a0d a23d f58b cdbc 2311 7d3d
00000100: cdf6 29bd df7e e4bc 7dcf 13be 9902 1fbe
00000110: 3a5d 8d3d d91b 933d b53a 203c 49f7 4f3d
00000120: 7d12 7a3e 3619 743c a2e6 823d fb34 3abe
00000130: 0639 9d3d 6a09 593d 5cdb 09be 5826 883c
00000140: 1b52 74bd 14ed 6a3d 1d77 8dbc b7a3 17bd
00000150: 3992 c93d ec2c 21bd 4de1 963c 70e1 48bd
00000160: c87d 97bb 7640 933d 5d66 b43c 0081 75be
00000170: 6557 e0bd e5cd 9fbd f049 9abc 6003 493d
00000180: 7956 823d 0bb1 d13b 4c5d 9a3c e2b0 f5bc
00000190: d840 e5bd 05e0 d9bd 2393 4dbd d29a 35bd
000001a0: 2eda 543e 1561 1bbe 2c5a 07be 4890 b1bd
000001b0: f630 443d 71ba 36be 5f10 50be 4b66 9bbd
000001c0: 0424 883d 710b e13d 7379 09bc 9568 6cbd
000001d0: f0d6 ea3b 76b0 8e3d 10fb 8bbc b676 413d
000001e0: d8ab a33c 3cf2 283d 7bc1 9cbd 2620 f63c
000001f0: 45e4 e53d cf51 16be 4412 293d 8a6e cc3d
00000200: 8873 92bc cca3 27bd beea 1d3e 084c b03d
00000210: 7804 c0bd afdb a4bc 7176 1fbd 133a d33d
00000220: 4de5 2a3e b592 aebb 7782 a2bc 2e43 a43d
00000230: f55f a03d 3bae a83b a8f2 9c3d b005 24bd
00000240: 5801 213e 878d 9abd a637 c43d 98fb 5f3d
00000250: 6b4d 15bd ff3f ef3d e1a8 a2bc af75 613c
00000260: 6b30 d8bc f580 4bbd 126f a83d b1e5 a0bc
00000270: 9eb9 8ebd 9ea7 903c f098 7a3d 6caa e03d
00000280: 6a53 84bd e615 ab3d d776 813d 7901 8b3b
00000290: 2e96 c93d 4faf 1abc 04cf dabc ddda 7d3c
000002a0: a89f 363e b244 8abb bcc6 923d 276b 6fbd
000002b0: 5ad5 a4bb 61e3 8fbc 8f4c d4bc df5d a7bd
000002c0: d746 8f3b 2141 663d 17f4 1ebd e8c1 0c3e
000002d0: c8d4 123e c817 fb3c 8701 a4bd fb21 413d
000002e0: c8fd af3d 1848 9abd c857 c4bd 82df 0a3d
000002f0: 0d8b 313d b99e 5dbd aded 04bd d506 103e
00000300: daf2 903d e05e 1bb9 5331 08bd 2e6c 20be
00000310: d981 ccba 885f 2ebe 9634 c73d 0b6b e33d
00000320: 29d4 813d c014 0a3e 608b d23d f607 183d
00000330: 8975 40bc 395f a1bd e0ba 363e d06e f93d
00000340: e934 db3d c16f ab3d 7b07 133e f15f 583c
00000350: 81be 50bc e365 8e3d 8558 81bd 65ac 83bd
00000360: 862c 1c3b c194 60bd 224f 29bd 4b45 bfbd
00000370: 6fca a73d 3541 97bd b2da 2f3e d594 18bd
00000380: 7bd2 0d3e 447b 753e d7b4 8c3d 158a 9f3b
00000390: ada8 f8bd c4af a7bd 1cba b43c 2d83 993d
000003a0: 7199 293e c15e 38bd dc3c 5c3d cd7d 353d
000003b0: 49bc b9bc 3659 34bd 26b9 093e 281d 37bd
000003c0: b56e ea3d f828 093e beae 3bbd dac0 fb3d
000003d0: 5729 7a3c a46f 43bd 083d a83d e14e d63c
000003e0: 9ac9 de3d ca1b 313d 3bf3 1f3c f853 2bbd
000003f0: 1bc6 d7bd 91ba 68bc 260f d73c baf2 0b3e

network_body._body_endoder.seq_layers.2.bias f4 [128]
0.0044924864 0.019989558 0.0012389862 -0.0036715304 -0.0007509772 -0.014212106 0.018633414 0.003994464
-0.006407901 0.053171434 -0.002992932 -0.00012574575 0.0006436756 0.03389619 0.0054865927 -0.007947323
-0.0010931912 0.018899923 -0.005696314 0.022709604 0.0399761 -0.003729589 0.036008004 0.03107526
0.030375853 -0.0068076625 0.034014016 0.0026172574 0.0040919166 0.0022506602 0.038152378 0.03843987
0.0012119944 0.0038632106 0.022738518 -7.4447424e-05 -0.008265924 0.038010657 -0.0037681146 0.0019221398
-0.007711434 0.0014157328 0.0039348598 0.008186094 -0.009619694 0.005019214 -0.003078681 0.03605801
0.0026740404 0.04082708 0.00025232535 0.0014425535 0.00048331145 0.024030566 -0.0041787745 0.00065162097
-0.000979959 0.0056661847 0.03477625 0.032436628 -0.00028964123 0.0045520384 -0.0015859895 -0.0024996793
0.02352888 0.001642998 -0.01338357 0.022399856 0.0038821383 -0.009826915 0.027489042 -0.0032007406
0.019067483 -0.00043357976 0.0105730165 -0.0036618493 0.0032089427 0.036367208 -0.0017958549 0.0053021046
0.03055499 0.035856765 -0.003076861 -0.0023233448 -0.0045105196 0.031471454 -0.006851023 0.030231776
-0.0006230062 0.0033885017 -0.0023883334 -0.001856985 0.0003325754 0.033997625 -0.0070095393 0.005240395
0.036897536 0.038919345 0.019236097 -0.002604229 0.029408367 0.0038316294 0.0033186874 -0.0019265254
-0.0141142085 -0.0031389247 -0.0018055644 0.03357068 -0.004525404 -0.0056382553 -0.00260039 0.02456472
0.029533736 -0.0016666716 0.027254792 0.0033033888 -0.0023131075 -0.007889329 -0.00496761 0.0007807352
-0.0018377865 0.021015614 0.0045834454 -0.0025960463 0.0009058343 0.03804636 0.033938635 -0.00025505078
00000000: b535 933b 24c1 a33c 7a65 a23a 0f9e 70bb
00000010: 3add 44ba e5d9 68bc 1aa5 983c fee3 823b
00000020: 5ff9 d1bb 4aca 593d 1125 44bb 9eda 03b9
00000030: 57bc 283a bbd6 0a3d e0c8 b33b 7d35 02bc
00000040: 6949 8fba 03d4 9a3c 25a8 babb 7e09 ba3c
00000050: fbbd 233d 1f6c 74bb 217d 133d 8b91 fe3c
00000060: c8d6 f83c d012 dfbb 4852 0b3d 4b86 2b3b
00000070: 7c15 863b d07f 133b ab45 1c3d 2073 1d3d
00000080: c9db 9e3a eb2d 7d3b 2146 ba3c a820 9cb8
00000090: cc6d 07bc 10b1 1b3d 79f2 76bb 4ff0 fb3a
000000a0: 32b0 fcbb 1c90 b93a ffef 803b f81e 063c
000000b0: ec9b 1dbc 3878 a43b b2c3 49bb 90b1 133d
000000c0: f43e 2f3b 4c3a 273d 894a 8439 1014 bd3a
000000d0: f764 fd39 c0db c43c 1aee 88bb 8bd1 2a3a
000000e0: f871 80ba 67ab b93b 8b71 0e3d 45dc 043d
000000f0: fdda 97b9 4429 953b fae0 cfba a9d1 23bb
00000100: a3bf c03c dd59 d73a c346 5bbc e77f b73c
00000110: 796b 7e3b 1201 21bc b330 e13c 84c3 51bb
00000120: 6933 9c3c 1752 e3b9 723a 2d3c a3fb 6fbb
00000130: 204d 523b c8f5 143d e462 ebba 47bd ad3b
00000140: 754e fa3c 8bde 123d 29a5 49bb 4243 18bb
00000150: fbcc 93bb 36e8 003d 8c7e e0bb a1a8 f73c
00000160: 3d51 23ba a011 5e3b 9685 1cbb 1466 f3ba
00000170: 845d ae39 1841 0b3d 47b0 e5bb 9fb7 ab3b
00000180: df21 173d e469 1f3d 0595 9d3c b6ab 2abb
00000190: d1e9 f03c 131c 7b3b 567e 593b 7783 fcba
000001a0: 483f 67bc 6bb6 4dbb b0a8 ecba 6981 093d
000001b0: d749 94bb 1dc1 b8bb 4e6b 2abb f43b c93c
000001c0: bcf0 f13c 3874 daba 7145 df3c ab7d 583b
000001d0: 8197 17bb 3f42 01bc 55c7 a2bb 41aa 4c3a
000001e0: e2e1 f0ba f028 ac3c ba30 963b 6e22 2abb
000001f0: 8375 6d3a 80d6 1b3d 3d03 0b3d 56b8 85b9

action_model._continuous_distribution.log_sigma f4 [1, 2]
0.024669925 0.006546578
00000000: 9518 ca3c ad84 d63b

action_model._continuous_distribution.mu.weight f4 [2, 128]
0.0012944799 0.06834203 0.0018813779 -0.0092568705 0.036950916 -0.00081306644 0.05980272 0.011795513
-0.0003333974 0.07441208 0.0027136896 0.01596611 0.031066846 0.08741327 0.010800879 0.00075204653
0.0013689778 0.05824871 -0.008917567 0.06303998 0.08984183 0.0008531826 0.09389817 0.068799466
0.10811752 0.0023123114 0.12195694 0.01489633 0.010636788 0.015122 0.08157555 0.08573767
0.011394027 0.056602716 0.057820905 -0.020874647 -0.0018552229 0.076851144 -0.030983886 -0.0016113746
-0.0019430288 -0.024462817 -0.00037907588 -0.012041464 -0.015465368 0.011654868 -0.013039566 0.081271574
-0.003021004 0.10183576 -0.027932651 0.013542641 -0.040141884 0.060644165 -0.013971974 0.012412036
-0.015560968 0.0052305805 0.06873378 0.06774462 0.025093077 0.0124705965 0.009524585 -0.011303973
0.07713832 -0.026002 -0.0014047539 0.06123476 0.026541654 -0.00030475273 0.06659574 -0.010015103
0.059745155 0.013629119 -0.0024637312 0.013780992 0.024233526 0.08865713 0.019077772 0.009012578
0.06942943 0.09238286 -0.0060397466 0.009257763 -0.008338246 0.11659353 0.0017277205 0.080242544
-0.052916534 0.027072368 0.016000638 -0.033030756 0.007325033 0.094991565 0.0073357993 -0.024685837
0.081268825 0.09749042 0.06012452 -0.01360878 0.06920386 0.019604333 -0.0065118913 -0.010597135
0.0012502462 -0.030042632 0.004734319 0.07836425 0.0089048445 0.0067477883 -0.010237596 0.06388394
0.08248598 0.0041426145 0.09562465 0.016019233 -0.035987034 -0.009112898 0.003640068 -0.0054001557
-0.0055938 0.06463516 0.014755495 -0.0055048103 0.026055211 0.07736515 0.06648823 0.019348342
-0.020919738 -0.0443494 0.01695235 0.0017413116 0.036406044 0.002284736 -0.026541723 -0.019712085
0.009953473 0.009471967 0.04045486 0.0028428393 0.0034877073 -0.015076253 0.009811646 0.006576312
-0.023947544 -0.016869446 0.044001374 0.0113669215 0.0055628563 -0.0043672463 0.008790967 -0.020179601
0.0030605628 -0.011414415 0.007712318 -0.032204945 -0.033226755 -0.01982244 -0.011752904 -0.017595684
0.02372704 -0.008433678 0.0063239112 0.05221923 0.011737456 -0.0097728055 0.012158545 -0.003432463
0.008790801 -0.019996718 -0.014100589 -0.032906413 -7.482409e-05 -0.023732457 0.0029419642 -0.002400581
-0.011018785 -0.013032781 -0.015673982 0.02319033 -0.005251702 -0.00035128664 0.008500856 -0.013455164
-0.009607417 -0.0134782335 -0.013918013 -0.009011365 0.0090901805 -0.036401723 0.00713965 0.0015910836
-0.044933483 -0.0014468484 0.005717577 -0.019102028 -0.015632808 -0.007962099 -0.0069260644 0.015496371
-0.020353463 0.02358371 0.028082544 0.04257739 -0.02586564 -0.0018348474 -0.0038848277 -0.009747844
-0.0063856114 0.015898578 -0.007527995 0.012747446 0.0131985145 -0.0054683536 0.004358419 -0.025498621
-0.039117746 -0.004260545 0.03355357 0.009494225 -0.020947013 -0.0017748663 -0.0066700024 -0.021044409
-0.005390597 -0.017072324 -0.038110647 0.0044214875 -0.016855469 -0.008180802 -0.0059208935 0.002796513
0.0023264203 0.01558414 0.006330498 -0.017411169 0.015287365 0.0077586463 0.008754684 -0.020830704
0.004529186 0.0059550414 0.019859293 0.021902498 0.009101439 0.00685975 0.015925737 -0.011732029
0.0053197662 -0.03162454 -0.016539535 0.004259548 0.0063890507 -0.008810647 -0.0038770374 0.014080574
00000000: 8aab a93a e8f6 8b3d 9198 f63a 21aa 17bc
00000010: d859 173d f723 55ba b2f3 743d f841 413c
00000020: d7cb aeb9 5c65 983d 28d8 313b 5ccb 823c
00000030: e67f fe3c ba05 b33d 2cf6 303c fd24 453a
00000040: 466f b33a 3396 6e3d fd1a 12bc 1b1b 813d
00000050: fefe b73d 1da8 5f3a af4d c03d bce6 8c3d
00000060: b86c dd3d 268a 173b 8fc4 f93d bd0f 743c
00000070: ec45 2e3c 44c2 773c 1511 a73d 3b97 af3d
00000080: 03ae 3a3c 40d8 673d 9dd5 6c3d 4f01 abbc
00000090: f32a f3ba 2264 9d3d ebd1 fdbc c234 d3ba
000000a0: 3aad feba 3f66 c8bc b4be c6b9 9049 45bc
000000b0: 7462 7dbc 0ff4 3e3c e7a3 55bc b671 a63d
000000c0: 09fc 45bb 448f d03d 04d3 e4bc f4e1 5d3c
000000d0: d16b 24bd 0466 783d b5ea 64bc da5b 4b3c
000000e0: 6ef3 7ebc 4a65 ab3b 4cc4 8c3d b1bd 8a3d
000000f0: ff8f cd3c 7951 4c3c 010d 1c3c 4d34 39bc
00000100: b2fa 9d3d 2502 d5bc b81f b8ba 4dd1 7a3d
00000110: e26d d93c 38c7 9fb9 5963 883d 6316 24bc
00000120: 56b7 743d ab4c 5f3c 8d76 21bb abc9 613c
00000130: 6385 c63c df91 b53d fd48 9c3c 7ea9 133c
00000140: 0431 8e3d 3a33 bd3d 11e9 c5bb dfad 173c
00000150: 239d 08bc 97c8 ee3d ae74 e23a 3456 a43d
00000160: 02bf 58bd dfc6 dd3c c513 833c 424b 07bd
00000170: d506 f03b f08a c23d 2561 f03b f439 cabc
00000180: 4570 a63d 0fa9 c73d 2145 763d 5cf7 5ebc
00000190: c1ba 8d3d 4499 a03c b461 d5bb 9b9f 2dbc
000001a0: 4ddf a33a f71b f6bc 5922 9b3b 707d a03d
000001b0: a0e5 113c 8d1c dd3b 97bb 27bc 95d5 823d
000001c0: 69ee a83d c5be 873b dbd6 c33d c43a 833c
000001d0: 2467 13bd 444e 15bc 358e 6e3b caf3 b0bb
000001e0: 324c b7bb 705f 843d 08c1 713c b261 b4bb
000001f0: bd71 d53c 9f71 9e3d fb2a 883d 6a80 9e3c
00000200: df5f abbc b7a7 35bd a8df 8a3c b93c e43a
00000210: 811e 153d 82bb 153b 076e d9bc 3d7b a1bc
00000220: e413 233c 4f30 1b3c ffb3 253d ee4e 3a3b
00000230: 0592 643b 6302 77bc 07c1 203c 1a7e d73b
00000240: a42d c4bc cb31 8abc c93a 343d 533c 3a3c
00000250: 9f48 b63b 1e1b 8fbb fd07 103c b14f a5bc
00000260: b993 483b 8703 3bbc 9db7 fc3b 55e9 03bd
00000270: c718 08bd ab62 a2bc 418f 40bc d324 90bc
00000280: 365f c23c 692d 0abc d038 cf3b d5e3 553d
00000290: 754e 403c 1e1e 20bc a234 473c 2cf3 60bb
000002a0: 4b07 103c 28d0 a3bc 2806 67bc e0c8 06bd
000002b0: e1ea 9cb8 926a c2bc f8cd 403b 1153 1dbb
000002c0: 2288 34bc 7287 55bc b966 80bc a6f9 bd3c
000002d0: 7816 acbb e52c b8b9 2d47 0b3c 0c73 5cbc
000002e0: 6d68 1dbc cfd3 5cbc 6108 64bc 67a4 13bc
000002f0: fbee 143c f919 15bd baf3 e93b e88b d03a
00000300: 2c0c 38bd 2da4 bdba 835a bb3b db7b 9cbc
00000310: 6010 80bc 7773 02bc 0af4 e2bb 7ee4 7d3c
00000320: 4ebc a6bc a032 c13c 5d0d e63c a165 2e3d
00000330: 2ee4 d3bc 437f f0ba 9898 7ebb 6cb5 1fbc
00000340: 643e d1bb bc3d 823c 66ad f6bb aada 503c
00000350: 953e 583c e02f b3bb 12d1 8e3b 7ce2 d0bc
00000360: ee39 20bd 0b9c 8bbb 786f 093d aa8d 1b3c
00000370: 1299 abbc a1a2 e8ba 0990 dabb 5365 acbc
00000380: 9ba3 b0bb 42db 8bbc e919 1cbd 20e2 903b
00000390: 7b14 8abc c508 06bc 0e04 c2bb b445 373b
000003a0: db76 183b 9f54 7f3c 1170 cf3b dea1 8ebc
000003b0: db77 7a3c 3e3c fe3b ce6f 0f3c 27a5 aabc
000003c0: 9169 943b 8222 c33b f5af a23c de6c b33c
000003d0: 341e 153c c1c7 e03b b176 823c b237 40bc
000003e0: 6f51 ae3b bc88 01bd eb7d 87bc ae93 8b3b
000003f0: 3e5b d13b 885a 10bc e515 7ebb 35b2 663c

action_model._continuous_distribution.mu.bias f4 [2]
0.027018787 -0.006206006
00000000: 8156 dd3c c05b cbbb

exp_avg f4 [128, 7]
2.0680697 -87.17418 0.10172698 -0.0001785905 0.20456183 -0.00010775477 -87.19877 6e-45
6e-45 -6e-45 -6e-45 -6e-45 -6e-45 -6e-45 3.5808651 -151.03748
0.17615283 -0.00038685932 0.3541289 -0.00018799954 -151.08 -6e-45 6e-45 6e-45
6e-45 6e-45 6e-45 6e-45 6e-45 -6e-45 -6e-45 6e-45
-6e-45 6e-45 -6e-45 -6e-45 6e-45 6e-45 6e-45 6e-45
6e-45 6e-45 2.3338296 -98.67502 0.11483901 -0.00045175556 0.23063551 -0.00012638871
-98.70269 3.3935115 -143.22243 0.166948 -0.00044090158 0.3355389 -0.00017961368 -143.26271
3.6617744 -154.62799 0.18015659 -0.00054576865 0.36200392 -0.00019515076 -154.67136 -6e-45
-6e-45 6e-45 -6e-45 6e-45 6e-45 6e-45 -6e-45 6e-45
6e-45 6e-45 6e-45 6e-45 6e-45 6.207927 -262.25922 0.30544052
-0.0010197597 0.613636 -0.00033264 -262.3329 6e-45 -6e-45 -6e-45 -6e-45
6e-45 -6e-45 -6e-45 6e-45 6e-45 -6e-45 -6e-45 6e-45
-6e-45 -6e-45 6e-45 -6e-45 6e-45 6e-45 -6e-45 6e-45
-6e-45 3.70136 -156.38832 0.18211602 -0.00062723807 0.365855 -0.0001987398 -156.43217
2.6890826 -113.466415 0.13228938 -0.0003280247 0.26590618 -0.00014192864 -113.49832 2.90724
-122.73268 0.14302969 -0.000404904 0.28743374 -0.0001543764 -122.767166 6e-45 6e-45
6e-45 -6e-45 -6e-45 6e-45 -6e-45 3.1894832 -134.61737 0.1569114
-0.0004196989 0.31536147 -0.0001689265 -134.65523 -6e-45 6e-45 -6e-45 6e-45
-6e-45 6e-45 6e-45 -6e-45 6e-45 -6e-45 -6e-45 -6e-45
-6e-45 6e-45 3.0117414 -127.054306 0.14815903 -0.00034442852 0.29783037 -0.00015850189
-127.09008 2.709264 -114.36298 0.1332882 -0.00036892577 0.26787013 -0.00014374773 -114.39515
-6e-45 6e-45 -6e-45 6e-45 6e-45 6e-45 6e-45 6e-45
6e-45 6e-45 -6e-45 6e-45 -6e-45 -6e-45 -6e-45 6e-45
-6e-45 -6e-45 -6e-45 -6e-45 6e-45 2.7808926 -117.48234 0.13682476
-0.0004580092 0.27488258 -0.00014903718 -117.51533 2.8454835 -120.25768 0.14000894 -0.00050869613
0.28123453 -0.00015329194 -120.29142 3.246946 -137.14166 0.15975149 -0.00050988543 0.3209718
-0.00017353988 -137.1801 5.0823584 -214.77913 0.2500698 -0.000892763 0.50232494 -0.00027339996
-214.83932 4.3834004 -184.96262 0.21564174 -0.0005359105 0.43344128 -0.00023131014 -185.01465
6e-45 6e-45 -6e-45 -6e-45 -6e-45 -6e-45 -6e-45 6e-45
-6e-45 6e-45 6e-45 6e-45 -6e-45 -6e-45 2.7709837 -117.17048
0.1363514 -0.0005466425 0.27382737 -0.00015025481 -117.203316 -6e-45 6e-45 -6e-45
6e-45 -6e-45 6e-45 6e-45 4.475795 -189.07574 0.22021565 -0.0007293827
00000000: 415b 0440 2e59 aec2 3c56 d03d 0644 3bb9
00000010: a878 513e 67fa e1b8 c565 aec2 0400 0000
00000020: 0400 0000 0400 0080 0400 0080 0400 0080
00000030: 0400 0080 0400 0080 e52c 6540 9809 17c3
00000040: 6861 343e 61d3 cab9 6250 b53e be21 45b9
00000050: 7b14 17c3 0400 0080 0400 0000 0400 0000
00000060: 0400 0000 0400 0000 0400 0000 0400 0000
00000070: 0400 0000 0400 0080 0400 0080 0400 0000
00000080: 0400 0080 0400 0000 0400 0080 0400 0080
00000090: 0400 0000 0400 0000 0400 0000 0400 0000
000000a0: 0400 0000 0400 0000 775d 1540 9c59 c5c2
000000b0: b730 eb3d 9bd9 ecb9 b72b 6c3e 3687 04b9
000000c0: c767 c5c2 4b2f 5940 f138 0fc3 6bf4 2a3e
000000d0: cf28 e7b9 c1cb ab3e ae56 3cb9 4143 0fc3
000000e0: 835a 6a40 c4a0 1ac3 f87a 383e ea11 0fba
000000f0: 9458 b93e 62a1 4cb9 deab 1ac3 0400 0080
00000100: 0400 0080 0400 0000 0400 0080 0400 0000
00000110: 0400 0000 0400 0000 0400 0080 0400 0000
00000120: 0400 0000 0400 0000 0400 0000 0400 0000
00000130: 0400 0000 57a7 c640 2e21 83c3 b362 9c3e
00000140: 75a9 85ba 4017 1d3f 2f66 aeb9 9c2a 83c3
00000150: 0400 0000 0400 0080 0400 0080 0400 0080
00000160: 0400 0000 0400 0080 0400 0080 0400 0000
00000170: 0400 0000 0400 0080 0400 0080 0400 0000
00000180: 0400 0080 0400 0080 0400 0000 0400 0080
00000190: 0400 0000 0400 0000 0400 0080 0400 0000
000001a0: 0400 0080 15e3 6c40 6963 1cc3 9f7c 3a3e
000001b0: 3c6d 24ba 5951 bb3e cf64 50b9 a36e 1cc3
000001c0: ee19 2c40 ceee e2c2 de76 073e bbfa abb9
000001d0: db24 883e aed2 14b9 24ff e2c2 3810 3a40
000001e0: 2277 f5c2 6076 123e 4c49 d4b9 842a 933e
000001f0: 19e0 21b9 ca88 f5c2 0400 0000 0400 0000
00000200: 0400 0000 0400 0080 0400 0080 0400 0000
00000210: 0400 0080 7e20 4c40 0c9e 06c3 62ad 203e
00000220: 080b dcb9 0f77 a13e dd21 31b9 bda7 06c3
00000230: 0400 0080 0400 0000 0400 0080 0400 0000
00000240: 0400 0080 0400 0000 0400 0000 0400 0080
00000250: 0400 0000 0400 0080 0400 0080 0400 0080
00000260: 0400 0080 0400 0000 5fc0 4040 ce1b fec2
00000270: 00b7 173e 6a94 b4b9 397d 983e 8733 26b9
00000280: 1f2e fec2 9564 2d40 d9b9 e4c2 b47c 083e
00000290: 616c c1b9 4626 893e fdba 16b9 51ca e4c2
000002a0: 0400 0080 0400 0000 0400 0080 0400 0000
000002b0: 0400 0000 0400 0000 0400 0000 0400 0000
000002c0: 0400 0000 0400 0000 0400 0080 0400 0000
000002d0: 0400 0080 0400 0080 0400 0080 0400 0000
000002e0: 0400 0080 0400 0080 0400 0080 0400 0080
000002f0: 0400 0000 25fa 3140 f5f6 eac2 ca1b 0c3e
00000300: f420 f0b9 69bd 8c3e dd46 1cb9 d907 ebc2
00000310: 671c 3640 ef83 f0c2 815e 0f3e 055a 05ba
00000320: f9fd 8f3e febc 20b9 3595 f0c2 f7cd 4f40
00000330: 4424 09c3 e595 233e d5a9 05ba 6a56 a43e
00000340: 42f8 35b9 1b2e 09c3 aea2 a240 75c7 56c3
00000350: 2609 803e 5008 6aba 5e98 003f 1f57 8fb9
00000360: ded6 56c3 d144 8c40 6ef6 38c3 30d1 5c3e
00000370: 587c 0cba 04ec dd3e d88b 72b9 c003 39c3
00000380: 0400 0000 0400 0000 0400 0080 0400 0080
00000390: 0400 0080 0400 0080 0400 0080 0400 0000
000003a0: 0400 0080 0400 0000 0400 0000 0400 0000
000003b0: 0400 0080 0400 0080 cc57 3140 4957 eac2
000003c0: b49f 0b3e 8f4c 0fba 1a33 8c3e b88d 1db9
000003d0: 1968 eac2 0400 0080 0400 0000 0400 0080
000003e0: 0400 0000 0400 0080 0400 0000 0400 0000
000003f0: b639 8f40 6413 3dc3 3680 613e 0b34 3fba

exp_avg_sq f4 [128, 7]
11129.856 1.0469936e+07 23.09064 0.029877786 77.897064 4.2142066e-05 1.048108e+07 9.131486e-08
2.6492697e-07 4.922384e-08 1.2846248e-06 1.0795908e-06 3.552748e-10 3.978951e-07 37449.195 3.388381e+07
77.05185 0.1624868 264.55197 0.0002461588 3.3921292e+07 1.2899746e-07 1.24003705e-08 5.1147556e-08
1.1020014e-06 1.3027831e-07 2.6901807e-09 2.0281263e-07 5.750417e-09 6.485019e-11 2.636809e-09 4.5165056e-08
1.1113277e-09 8.0972964e-11 8.218756e-09 3.5767467e-08 1.3592295e-09 2.0578335e-08 5.930291e-07 1.05133886e-07
3.0492968e-09 5.7280445e-08 13786.1875 1.2838356e+07 28.552372 0.03373817 96.31315 4.536156e-05
1.2852162e+07 32261.152 2.9339566e+07 66.46306 0.11651635 226.18396 0.0001709217 2.9371852e+07
37556.492 3.3986816e+07 77.28909 0.13830541 262.7413 0.00020304395 3.402442e+07 7.8125995e-06
7.443954e-07 4.989057e-08 3.812043e-07 1.2161498e-06 1.7979978e-09 8.857191e-06 2.020311e-08 3.2139367e-09
2.057518e-09 5.7708203e-08 1.403346e-08 5.6888317e-11 2.3163853e-08 115273.73 1.0277989e+08 236.4876
0.5663283 816.47485 0.00085773587 1.0289552e+08 3.673398e-09 3.4445446e-11 2.4074678e-09 9.699503e-08
3.7489997e-10 2.8024272e-10 6.0560232e-09 1.6220614e-05 4.880284e-06 4.0367146e-07 3.2312524e-05 5.9230315e-06
7.66132e-08 2.1664715e-05 3.1750258e-06 7.653696e-07 6.065816e-08 1.0975783e-06 7.8643313e-07 4.443874e-09
3.928895e-06 37980.324 3.4418332e+07 78.18642 0.1414062 265.72226 0.00020626663 3.4456424e+07
19635.133 1.8023454e+07 40.527863 0.06488811 137.25717 9.375407e-05 1.8043136e+07 23119.262
2.1070346e+07 47.644833 0.08144784 161.6853 0.00011939409 2.109352e+07 7.725178e-08 1.03239785e-07
4.14494e-08 7.407921e-07 3.58759e-07 7.1540884e-10 2.3883626e-07 28119.85 2.5606486e+07 57.94196
0.098633945 196.62854 0.00014393346 2.5634674e+07 0.020457616 0.44428504 5.4060114e-05 8.0574246e-05
0.0010158202 2.0888254e-07 0.46483243 2.2348678e-08 2.4726863e-09 8.8756975e-09 1.8573814e-08 8.398355e-08
1.1360635e-10 3.1838663e-08 25283.818 2.3112566e+07 52.14149 0.09019808 177.4125 0.00013305925
2.3137904e+07 19274.43 1.7808372e+07 39.843887 0.052595187 134.2944 7.331316e-05 1.7827684e+07
2.531826e-05 6.4822035e-07 7.10601e-08 2.7893057e-07 2.0517066e-06 2.0240858e-09 2.6027587e-05 1.1368621e-05
2.7913234e-06 5.8295303e-08 4.758886e-06 1.0152445e-06 1.7644133e-08 1.4329065e-05 0.0058725732 0.14469516
1.5539115e-05 5.600683e-05 0.0002978129 1.570245e-07 0.1505943 20512.326 1.8781848e+07 42.320534
0.06310558 143.05022 8.989631e-05 1.880239e+07 21013.88 1.936311e+07 43.41905 0.054956067
146.31075 7.534819e-05 1.9384188e+07 28742.201 2.6185128e+07 59.23711 0.09746787 200.9552
0.00014108515 2.6213908e+07 75557.25 6.757794e+07 155.10654 0.35036373 533.9804 0.0005277096
6.765367e+07 57212.305 5.135992e+07 117.52416 0.26627553 404.93204 0.00040635394 5.1417276e+07
1.7864946e-06 5.193628e-07 6.9185845e-08 5.6070808e-06 1.1579402e-06 1.1214106e-08 2.3941548e-06 2.7075254e-07
1.134054e-07 6.008089e-08 5.6489586e-07 3.417309e-07 5.571144e-10 6.01e-07 20098.916 1.8463628e+07
41.49849 0.06009117 140.17479 8.446259e-05 1.8483778e+07 0.009423303 0.22563492 2.5732808e-05
3.458712e-05 0.0004849227 9.040967e-08 0.2350998 57809.656 5.196074e+07 118.797264 0.25208548
00000000: 6de7 2d46 30c2 1f4b a1b9 b841 42c2 f43c
00000010: 4ccb 9b42 b3c1 3038 b8ed 1f4b e018 c433
00000020: 493b 8e34 2f6a 5333 5f6b ac35 75e6 9035
00000030: 7c50 c32f 499e d534 3249 1247 a841 014c
00000040: 8c1a 9a42 f162 263e a746 8443 e00e 8139
00000050: 4366 014c 8d82 0a34 6809 5532 55ad 5b33
00000060: 7be8 9335 a1e2 0b34 29de 3831 b6c4 5934
00000070: 3495 c531 699b 8e2e 3c33 3531 81fb 4133
00000080: 5ebd 9830 ba0f b22e 7932 0d32 bf9e 1933
00000090: a3cf ba30 3dc4 b032 a630 1f35 f7c5 e133
000000a0: cc8b 5131 8404 7633 c068 5746 d4e5 434b
000000b0: 426b e441 0931 0a3d 55a0 c042 9b42 3e38
000000c0: c21b 444b 4e0a fc46 d7d7 df4b 16ed 8442
000000d0: 20a0 ee3d 182f 6243 7239 3339 e616 e04b
000000e0: 7eb4 1247 40a6 014c 0494 9a42 ef9f 0d3e
000000f0: e35e 8343 32e8 5439 f9ca 014c dc12 0337
00000100: 76d2 4735 4347 5633 52a8 cc34 973a a335
00000110: 6c1d f730 5899 1437 1c8b ad32 2cdc 5c31
00000120: 3d64 0d31 d7da 7733 cf17 7132 8d32 7a2e
00000130: daf9 c632 dd24 e147 7e09 c44c d37c 6c43
00000140: e4fa 103f 641e 4c44 aed9 603a f441 c44c
00000150: 1a6f 7c31 207e 172e 9f70 2531 954b d033
00000160: 7b1a ce2f a810 9a2f 5815 d031 8111 8837
00000170: 52c1 a336 2fb8 d834 4f87 0738 74be c636
00000180: 8d86 a433 9fbc b537 8712 5536 cc73 4d35
00000190: 2d43 8233 8150 9335 461b 5335 bbb0 9831
000001a0: f3d4 8336 535c 1447 a74b 034c 725f 9c42
000001b0: c9cc 103e 73dc 8443 4749 5839 da70 034c
000001c0: 4466 9946 0f82 894b 881c 2242 0fe4 843d
000001d0: d641 0943 d59d c438 80a8 894b 869e b446
000001e0: 05c1 a04b 4f94 3e42 20ce a63d 70af 2143
000001f0: 3763 fa38 48ee a04b 9de5 a533 acb4 dd33
00000200: 1906 3233 d8da 4635 769b c034 6ca6 4430
00000210: 6839 8034 b3af db46 ab5c c34b 91c4 6742
00000220: 9800 ca3d e8a0 4443 d8ec 1639 b993 c34b
00000230: bb96 a73c 5479 e33e 9bbe 6238 f8f9 a838
00000240: 4525 853a 3249 6034 84fe ed3e 43f9 bf32
00000250: f5eb 2931 bb7b 1832 408c 9f32 725a b433
00000260: b0d2 f92e fbbe 0833 a387 c546 bb55 b04b
00000270: e390 5042 c5b9 b83d 9a69 3143 d285 0b39
00000280: 3887 b04b dc94 9646 fadd 874b 2460 1f42
00000290: 0d6e 573d 5e4b 0643 b4bf 9938 b203 884b
000002a0: 8d62 d437 5d01 2e35 b499 9833 edbf 9534
000002b0: 0db0 0936 1818 0b31 d155 da37 dbbb 3e37
000002c0: 9252 3b36 5d60 7a33 85ae 9f36 8943 8835
000002d0: dc8f 9732 de66 7037 b76e c03b f82a 143e
000002e0: ff59 8237 e0e8 6a38 c523 9c39 919a 2834
000002f0: 6435 1a3e a740 a046 4c4b 8f4b 3a48 2942
00000300: 803d 813d db0c 0f43 b786 bc38 6b73 8f4b
00000310: c32b a446 93ba 934b 1bad 2d42 9d19 613d
00000320: 8d4f 1243 4004 9e38 bee3 934b 678c e046
00000330: d4c6 c74b cdf2 6c42 3c9d c73d 88f4 4843
00000340: 42f0 1339 0aff c74b a092 9347 0ae5 804c
00000350: 461b 1b43 e062 b33e bf7e 0544 fe55 0a3a
00000360: 050a 814c 4e7c 5f47 2cec 434c 5f0c eb42
00000370: 4455 883e 4d77 ca43 e70b d539 2f24 444c
00000380: 7dc7 ef35 576a 0b35 5293 9433 7524 bc36
00000390: 866a 9b35 29a8 4032 44ab 2036 f25b 9134
000003a0: 4789 f333 d205 8133 59a3 1735 2377 b734
000003b0: 7123 1930 6854 2135 d505 9d46 c6dd 8c4b
000003c0: 74fe 2542 2922 763d bf2c 0c43 8221 b138
000003d0: 2105 8d4b 3364 1a3c d70c 673e c9dc d737
000003e0: a311 1138 393d fe39 3e27 c233 01be 703e
000003f0: a8d1 6147 e936 464c 3398 ed42 5911 813e

exp_avg f4 [128]
-2.2465576e-05 -6e-45 -3.8899954e-05 6e-45 -6e-45 6e-45 -2.5355004e-05 -3.6865393e-05
-3.9780356e-05 6e-45 6e-45 -6.744193e-05 -6e-45 -6e-45 6e-45 -4.0211147e-05
-2.9212628e-05 -3.1583084e-05 6e-45 -3.4648994e-05 6e-45 6e-45 -3.271758e-05 -2.9432244e-05
6e-45 -6e-45 6e-45 -3.0211175e-05 -3.091325e-05 -3.5274057e-05 -5.5214525e-05 -4.7618752e-05
-6e-45 6e-45 -3.0104411e-05 6e-45 -4.8624253e-05 -5.8303398e-05 6e-45 6e-45
-5.3361535e-05 6e-45 -4.9154733e-05 6e-45 -4.5713667e-05 -1.638356e-05 6e-45 -6e-45
6e-45 -3.407242e-05 -3.6012327e-05 -6e-45 -2.741486e-05 6e-45 -4.7564557e-05 -2.936938e-05
-6e-45 -6e-45 6e-45 -6.065722e-05 -6e-45 6e-45 -6e-45 -3.9831848e-05
6e-45 6e-45 6e-45 -4.6447214e-05 6e-45 -6e-45 -6e-45 -2.9604984e-05
-4.684214e-05 6e-45 -6.7558896e-05 -6e-45 -6e-45 6e-45 -3.220805e-05 -6e-45
-4.3528147e-05 6e-45 -3.4738157e-05 -3.0148249e-05 6e-45 -3.2901244e-05 -3.6326786e-05 -1.7741024e-05
2.023e-42 -3.556523e-05 -3.0122632e-05 6e-45 -5.752973e-05 -4.9686878e-05 -6e-45 -6e-45
-2.921924e-05 -3.4364137e-05 -6e-45 -6e-45 -4.2891388e-05 -6e-45 -2.983049e-05 6e-45
-4.4304914e-05 -5.467451e-05 6e-45 -6e-45 -6e-45 -6e-45 -2.4561734e-05 6e-45
-5.0210496e-05 -4.811522e-05 6e-45 -3.4748668e-05 -6e-45 -5.9756403e-05 6e-45 6e-45
-4.0157753e-05 -3.5664532e-05 -6e-45 -6e-45 -3.3717235e-05 -6e-45 6e-45 -2.8012772e-05
00000000: 7574 bcb7 0400 0080 8228 23b8 0400 0000
00000010: 0400 0080 0400 0000 75b1 d4b7 ea9f 1ab8
00000020: d5d9 26b8 0400 0000 0400 0000 9c6f 8db8
00000030: 0400 0080 0400 0080 0400 0000 64a8 28b8
00000040: a40d f5b7 1478 04b8 0400 0000 1354 11b8
00000050: 0400 0000 0400 0000 3c3a 09b8 43e5 f6b7
00000060: 0400 0000 0400 0080 0400 0000 016e fdb7
00000070: d9a8 01b8 3bf3 13b8 2596 67b8 3fba 47b8
00000080: 0400 0080 0400 0000 bb88 fcb7 0400 0000
00000090: e5f1 4bb8 cc8a 74b8 0400 0000 0400 0000
000000a0: 83d0 5fb8 0400 0000 7e2b 4eb8 0400 0000
000000b0: adbc 3fb8 6d6f 89b7 0400 0000 0400 0080
000000c0: 0400 0000 fbe8 0eb8 f10b 17b8 0400 0080
000000d0: f7f8 e5b7 0400 0000 0e80 47b8 435e f6b7
000000e0: 0400 0080 0400 0080 0400 0000 326a 7eb8
000000f0: 0400 0080 0400 0000 0400 0080 1f11 27b8
00000100: 0400 0000 0400 0000 0400 0000 51d0 42b8
00000110: 0400 0000 0400 0080 0400 0080 3858 f8b7
00000120: 5d78 44b8 0400 0000 68ae 8db8 0400 0080
00000130: 0400 0080 0400 0000 2117 07b8 0400 0080
00000140: fe91 36b8 0400 0000 d0b3 11b8 dfe6 fcb7
00000150: 0400 0000 71ff 09b8 975d 18b8 8fd2 94b7
00000160: a405 0000 e02b 15b8 dcaf fcb7 0400 0000
00000170: 144c 71b8 e166 50b8 0400 0080 0400 0080
00000180: d71b f5b7 3622 10b8 0400 0080 0400 0080
00000190: 47e6 33b8 0400 0080 7d3c fab7 0400 0000
000001a0: 0ad4 39b8 4f52 65b8 0400 0000 0400 0080
000001b0: 0400 0080 0400 0080 ec09 ceb7 0400 0000
000001c0: 1c99 52b8 53cf 49b8 0400 0000 19bf 11b8
000001d0: 0400 0080 f3a2 7ab8 0400 0000 0400 0000
000001e0: 0f6f 28b8 8096 15b8 0400 0080 0400 0080
000001f0: 9b6b 0db8 0400 0080 0400 0000 f8fc eab7

exp_avg_sq f4 [128]
1.3794498e-06 4.8934607e-09 5.165226e-06 6.000319e-09 2.6984598e-10 2.222803e-09 1.7402108e-06 4.2777865e-06
4.9831237e-06 6.9061774e-09 7.513446e-10 1.6504102e-05 2.3794672e-10 4.2465e-08 7.7464595e-09 4.97912e-06
2.5226536e-06 3.0057347e-06 4.2886983e-09 3.671899e-06 3.938711e-08 1.1101877e-09 3.36341e-06 2.4139747e-06
2.6386253e-09 9.307233e-09 1.094728e-08 2.6060015e-06 2.637003e-06 3.7362738e-06 1.0611292e-05 8.0995405e-06
7.1972215e-09 9.298988e-09 2.5382342e-06 9.53254e-09 7.898255e-06 1.16116535e-05 5.849975e-09 6.3825945e-09
1.0136637e-05 6.4211825e-10 8.1304e-06 1.8214521e-08 7.0262486e-06 7.5163615e-07 3.5452872e-09 2.2735792e-08
2.587167e-09 3.6620363e-06 3.863524e-06 2.7608271e-08 2.154979e-06 5.2595617e-09 7.1966833e-06 2.4948092e-06
2.0215516e-08 1.2731137e-08 1.5863295e-09 1.314126e-05 1.4203155e-10 3.1297083e-09 8.897767e-09 5.1104976e-06
2.8006182e-09 2.0993804e-08 1.4337079e-08 6.7655956e-06 1.0445593e-08 2.1076534e-09 1.2832149e-08 2.6253078e-06
7.634109e-06 4.9169446e-09 1.732409e-05 7.3367667e-09 4.886998e-08 2.6541916e-10 3.078135e-06 1.2360113e-10
6.5008608e-06 1.00441815e-08 3.642383e-06 2.5519737e-06 5.722377e-09 3.30178e-06 4.0285527e-06 8.484401e-07
7.4288565e-08 3.8010255e-06 2.6641965e-06 1.5058742e-08 1.22813535e-05 8.115975e-06 1.1824656e-08 6.379513e-09
2.3689536e-06 3.5795256e-06 2.6822715e-09 3.71116e-09 5.682061e-06 8.4586527e-10 2.620717e-06 1.693153e-09
6.7780948e-06 1.0130292e-05 1.3718911e-08 4.8762696e-09 4.205629e-09 4.487879e-10 1.6790261e-06 3.4943168e-09
8.756208e-06 7.875711e-06 8.390872e-09 3.706224e-06 1.140522e-09 1.2467696e-05 1.013453e-08 1.1583286e-08
5.054174e-06 3.7365178e-06 2.5353972e-09 9.016882e-09 3.6752833e-06 2.0537103e-08 1.288325e-08 2.261343e-06
00000000: 8925 b935 5623 a831 f450 ad36 5d2b ce31
00000010: 7259 942f f7bf 1831 3091 e935 e889 8f36
00000020: b534 a736 614b ed31 2d87 4e30 4a72 8a37
00000030: 06d0 822f c362 3633 4a15 0532 5112 a736
00000040: dc4a 2936 21b6 4936 ca5b 9331 bf6a 7636
00000050: 962a 2933 4295 9830 f2b6 6136 c5ff 2136
00000060: 3053 3531 a5e5 1f32 a612 3c32 c4e2 2e36
00000070: 5ef7 3036 b2bc 7a36 2707 3237 43e3 0737
00000080: 6e4b f731 62c1 1f32 8856 2a36 8ec4 2332
00000090: bf82 0437 accf 4237 ed00 c931 e54d db31
000000a0: 8610 2a37 0e81 3030 cd67 0837 2876 9c32
000000b0: 04c3 eb36 0bc4 4935 5aa1 7331 894c c332
000000c0: ecc9 3131 4ec1 7536 6ba3 8136 3b27 ed32
000000d0: 429e 1036 98b7 b431 0a7b f136 7f6c 2736
000000e0: 64a6 ad32 22b8 5a32 0206 da30 4879 5c37
000000f0: 542a 1c2f 6912 5731 cbdc 1832 d77a ab36
00000100: ff74 4031 dd55 b432 244f 7632 0604 e336
00000110: 3474 3332 3bd6 1031 6374 5c32 722e 3036
00000120: 4014 0037 e7f1 a831 3353 9137 e216 fc31
00000130: 1ce5 5133 6dea 912f f591 4e36 a0e6 072f
00000140: f821 da36 c78e 2c32 aa6f 7436 9342 2b36
00000150: 8f9e c431 2694 5d36 012d 8736 5cc0 6335
00000160: 9288 9f33 1f15 7f36 8cca 3236 865a 8132
00000170: 030c 4e37 d929 0837 6325 4b32 ca32 db31
00000180: 50fa 1e36 c837 7036 0553 3831 6b07 7f31
00000190: 88a8 be36 7a82 6830 93df 2f36 86b4 e830
000001a0: 646f e336 46f5 2937 69b0 6b32 1f8c a731
000001b0: 1b81 9031 48b9 f62f e65a e135 ac20 7031
000001c0: a1e7 1237 ec21 0437 7227 1032 72b8 7836
000001d0: 8dc0 9c30 592c 5137 221c 2e32 d5ff 4632
000001e0: 0697 a936 e3c0 7a36 2e3b 2e31 abe8 1a32
000001f0: e3a4 7636 9169 b032 2255 5d32 94c1 1736

exp_avg f4 [128, 128]
6e-45 6e-45 -6e-45 -6e-45 6e-45 6e-45 6e-45 -6e-45
-6e-45 6e-45 6e-45 6e-45 6e-45 6e-45 -6e-45 6e-45
6e-45 6e-45 6e-45 6e-45 6e-45 6e-45 6e-45 6e-45
6e-45 -6e-45 6e-45 6e-45 6e-45 6e-45 6e-45 6e-45
6e-45 6e-45 6e-45 -6e-45 6e-45 6e-45 6e-45 6e-45
6e-45 6e-45 6e-45 6e-45 6e-45 6e-45 6e-45 6e-45
6e-45 6e-45 -6e-45 6e-45 6e-45 -6e-45 6e-45 6e-45
6e-45 -6e-45 6e-45 6e-45 6e-45 6e-45 -6e-45 6e-45
6e-45 6e-45 6e-45 6e-45 6e-45 6e-45 6e-45 6e-45
6e-45 6e-45 6e-45 6e-45 6e-45 6e-45 6e-45 6e-45
-6e-45 6e-45 6e-45 6e-45 6e-45 -6e-45 6e-45 -6e-45
6e-45 -6e-45 -6e-45 6e-45 6e-45 6e-45 6e-45 6e-45
6e-45 6e-45 -6e-45 6e-45 6e-45 6e-45 6e-45 -6e-45
6e-45 -6e-45 -6e-45 6e-45 6e-45 6e-45 6e-45 6e-45
6e-45 6e-45 6e-45 6e-45 6e-45 6e-45 6e-45 6e-45
6e-45 6e-45 6e-45 6e-45 6e-45 6e-45 -6e-45 6e-45
-13.114149 6e-45 -31.598963 -6e-45 6e-45 6e-45 -5.328405 -6.6884775
-18.841906 6e-45 6e-45 -38.397358 6e-45 -6e-45 -6e-45 -37.04653
-9.895965 -22.316751 -6e-45 -34.549213 -6e-45 6e-45 -7.4313874 -7.622601
-6e-45 -6e-45 -6e-45 -16.222525 -7.6716905 -7.9969053 -44.197487 -24.107935
-6e-45 6e-45 -18.609695 -6e-45 -35.872658 -84.57528 6e-45 6e-45
-38.548885 6e-45 -26.803715 6e-45 -33.324883 -20.325796 6e-45 -6e-45
-6e-45 -17.292185 -33.59415 -6e-45 -4.5983396 -6e-45 -36.44768 -27.389627
-6e-45 -6e-45 -6e-45 -46.456833 6e-45 6e-45 -6e-45 -21.919174
6e-45 -6e-45 -6e-45 -28.545105 -6e-45 -6e-45 -6e-45 -19.283707
-16.792141 -6e-45 -63.32312 -6e-45 -6e-45 6e-45 -43.91872 6e-45
-8.595758 -6e-45 -33.424442 -12.373882 -6e-45 -31.322262 -8.617233 -5.925262
-9.160256e-39 -27.731417 -7.1495314 6e-45 -22.053692 -48.87938 -6e-45 -6e-45
-8.954823 -28.406136 -6e-45 6e-45 -12.643336 6e-45 -9.897764 -6e-45
-8.531101 -42.534363 -6e-45 6e-45 -6e-45 6e-45 -9.146846 -6e-45
-20.375835 -20.511467 -6e-45 -30.354685 6e-45 -32.588867 -6e-45 -6e-45
-26.288801 -11.760675 6e-45 -6e-45 -32.03588 -6e-45 -6e-45 -15.7736
00000000: 0400 0000 0400 0000 0400 0080 0400 0080
00000010: 0400 0000 0400 0000 0400 0000 0400 0080
00000020: 0400 0080 0400 0000 0400 0000 0400 0000
00000030: 0400 0000 0400 0000 0400 0080 0400 0000
00000040: 0400 0000 0400 0000 0400 0000 0400 0000
00000050: 0400 0000 0400 0000 0400 0000 0400 0000
00000060: 0400 0000 0400 0080 0400 0000 0400 0000
00000070: 0400 0000 0400 0000 0400 0000 0400 0000
00000080: 0400 0000 0400 0000 0400 0000 0400 0080
00000090: 0400 0000 0400 0000 0400 0000 0400 0000
000000a0: 0400 0000 0400 0000 0400 0000 0400 0000
000000b0: 0400 0000 0400 0000 0400 0000 0400 0000
000000c0: 0400 0000 0400 0000 0400 0080 0400 0000
000000d0: 0400 0000 0400 0080 0400 0000 0400 0000
000000e0: 0400 0000 0400 0080 0400 0000 0400 0000
000000f0: 0400 0000 0400 0000 0400 0080 0400 0000
00000100: 0400 0000 0400 0000 0400 0000 0400 0000
00000110: 0400 0000 0400 0000 0400 0000 0400 0000
00000120: 0400 0000 0400 0000 0400 0000 0400 0000
00000130: 0400 0000 0400 0000 0400 0000 0400 0000
00000140: 0400 0080 0400 0000 0400 0000 0400 0000
00000150: 0400 0000 0400 0080 0400 0000 0400 0080
00000160: 0400 0000 0400 0080 0400 0080 0400 0000
00000170: 0400 0000 0400 0000 0400 0000 0400 0000
00000180: 0400 0000 0400 0000 0400 0080 0400 0000
00000190: 0400 0000 0400 0000 0400 0000 0400 0080
000001a0: 0400 0000 0400 0080 0400 0080 0400 0000
000001b0: 0400 0000 0400 0000 0400 0000 0400 0000
000001c0: 0400 0000 0400 0000 0400 0000 0400 0000
000001d0: 0400 0000 0400 0000 0400 0000 0400 0000
000001e0: 0400 0000 0400 0000 0400 0000 0400 0000
000001f0: 0400 0000 0400 0000 0400 0080 0400 0000
00000200: 8ed3 51c1 0400 0000 adca fcc1 0400 0080
00000210: 0400 0000 0400 0000 4b82 aac0 0208 d6c0
00000220: 39bc 96c1 0400 0000 0400 0000 e596 19c2
00000230: 0400 0000 0400 0080 0400 0080 a62f 14c2
00000240: df55 1ec1 b588 b2c1 0400 0080 6532 0ac2
00000250: 0400 0080 0400 0000 edcd edc0 59ec f3c0
00000260: 0400 0080 0400 0080 0400 0080 bbc7 81c1
00000270: 7d7e f5c0 a6e6 ffc0 3aca 30c2 0ddd c0c1
00000280: 0400 0080 0400 0000 a8e0 94c1 0400 0080
00000290: 9a7d 0fc2 8b26 a9c2 0400 0000 0400 0000
000002a0: 0f32 1ac2 0400 0000 026e d6c1 0400 0000
000002b0: ae4c 05c2 3b9b a2c1 0400 0000 0400 0080
000002c0: 0400 0080 6556 8ac1 6960 06c2 0400 0080
000002d0: 9925 93c0 0400 0080 6dca 11c2 f51d dbc1
000002e0: 0400 0080 0400 0080 0400 0080 ccd3 39c2
000002f0: 0400 0000 0400 0000 0400 0080 785a afc1
00000300: 0400 0000 0400 0080 0400 0080 605c e4c1
00000310: 0400 0080 0400 0080 0400 0080 0845 9ac1
00000320: 4e56 86c1 0400 0080 e04a 7dc2 0400 0080
00000330: 0400 0080 0400 0000 c5ac 2fc2 0400 0000
00000340: 3a88 09c1 0400 0080 a1b2 05c2 6cfb 45c1
00000350: 0400 0080 fe93 fac1 30e0 09c1 bf9b bdc0
00000360: 11bf 6380 f1d9 ddc1 f6c8 e4c0 0400 0000
00000370: f66d b0c1 7c84 43c2 0400 0080 0400 0080
00000380: f446 0fc1 c43f e3c1 0400 0080 0400 0000
00000390: 1b4b 4ac1 0400 0000 3e5d 1ec1 0400 0080
000003a0: 647f 08c1 3023 2ac2 0400 0080 0400 0000
000003b0: 0400 0080 0400 0000 7b59 12c1 0400 0080
000003c0: b601 a3c1 7c17 a4c1 0400 0080 65d6 f2c1
000003d0: 0400 0000 005b 02c2 0400 0080 0400 0080
000003e0: 774f d2c1 ba2b 3cc1 0400 0000 0400 0080
000003f0: be24 00c2 0400 0080 0400 0080 aa60 7cc1
