Assets/results/petfollower5/PetFollower/PetFollower-21259.onnx (onnx, 75610 bytes, 7 tensors)

network_body._body_endoder.seq_layers.0.weight f4 [128, 7]
0	0x3ed03a92	0.40669686
1	0x3d0ab1fc	0.033861145
2	0xbe2e5772	-0.17025545
3	0x3e2e988c	0.1705038
4	0x3db80999	0.089862056
5	0x3e952ddf	0.2913656
6	0xbd3cc852	-0.046089478
7	0x3e8dbddf	0.27683923
8	0xbf23ed30	-0.64033794
9	0xbe0e1831	-0.13876416
10	0x3f0f8354	0.56059766
11	0xbf1054d6	-0.5637945
12	0x3e61ad5e	0.2203879
13	0x3ea99f89	0.33129528
14	0x3ea08272	0.31349522
15	0xbd09f9c4	-0.03368546
16	0xbf045904	-0.5169833
17	0xbe0ea966	-0.13931808
18	0x3e803922	0.2504359
19	0x3eb2954c	0.3487953
20	0xbd1ea440	-0.03873086
21	0xbe1744c3	-0.14772324
22	0x3eede087	0.46460363
23	0x3e0f8df0	0.14018989
24	0x3e9b75ab	0.3036321
25	0xbc0254df	-0.007954805
26	0x3f21a62c	0.63144183
27	0x3e266581	0.16249658
28	0x3e788dbd	0.24272819
29	0xbebe0525	-0.371133
30	0xbf1f5a9d	-0.6224764
31	0xbed604cb	-0.41800532
32	0xbeab485b	-0.3345364
33	0xbf18306f	-0.59448904
34	0x3d8c3d02	0.06847574
35	0xbe81e93f	-0.25373265
36	0x3ea1abaa	0.31576282
37	0x3e171f8c	0.14758128
38	0x3ce0b67e	0.027430769
39	0x3de56167	0.11200219
40	0xbe5077d5	-0.20358212
41	0x3eb8b700	0.36077118
42	0x3f895548	1.0729151
43	0xbc8a503d	-0.016883964
44	0xbe94257a	-0.28934842
45	0xbe6a0d23	-0.22856574
46	0x3e75c7f7	0.24002062
47	0x3e4bf0eb	0.19916122
48	0xbeb7abfc	-0.358734
49	0xbe8d556c	-0.27604234
50	0xbe5ee4bd	-0.21766944
51	0xbc31ba75	-0.0108476775
52	0xbe8d0923	-0.27546033
53	0xbe1b1ae4	-0.15146977
54	0xbf63f569	-0.8904634
55	0x3d2f68ef	0.04282468
56	0xbd90ef27	-0.07076865
57	0x3f3168af	0.6930036
58	0x3d9e0dd7	0.077174835
59	0xbe3aecb1	-0.18254353
60	0xbe188f0a	-0.14898315
61	0x3f3a1d3f	0.72700876
62	0xbd00afcf	-0.031417664
63	0xbf3079a0	-0.68935585
64	0x3ed58470	0.41702604
65	0xbd39c849	-0.045357022
66	0xbeb71997	-0.3576171
67	0x3e21fcc0	0.15819073
68	0x3eada7bd	0.33917037
69	0xbdf2ca05	-0.118549384
70	0x3e46fccb	0.1943237
71	0xbe4288de	-0.18997523
72	0x3f4d52a7	0.8020424
73	0x3eb19e91	0.3469129
74	0x3d701e07	0.058622386
75	0x3df986ab	0.12183889
76	0xbf191349	-0.5979505
77	0xbec50303	-0.3847886
78	0x3e75f761	0.24020149
79	0xbc4cb4ea	-0.012494305
80	0x3e35267e	0.17690465
81	0xbf615f3d	-0.8803595
82	0x3e791eb9	0.24328126
83	0x3e5a0208	0.21289837
84	0x3d9a8c1d	0.07546256
85	0x3e6faac4	0.23404986
86	0xbed03d9e	-0.4067201
87	0xbf018c1b	-0.5060441
88	0xbd3f7722	-0.046744473
89	0x3e07d5ef	0.13265203
90	0xbdc8ffd6	-0.09814422
91	0xbe73a721	-0.23794223
92	0xbda6d758	-0.08146542
93	0x3d934329	0.07190544
94	0xbeae4920	-0.34040165
95	0x3eff86bd	0.49907485
96	0xbe577673	-0.21041279
97	0xbe3d4e47	-0.18486892
98	0xbdb71668	-0.089398205
99	0x3dc636e8	0.09678441
100	0x3ea68265	0.32521358
101	0x3b57b394	0.0032913433
102	0x3ef21cbb	0.47287545
103	0xbf0b9c07	-0.54534954
104	0x3e9b290a	0.30304748
105	0xbe07dcc7	-0.13267814
106	0x3e73e892	0.23819187
107	0xbeee3ecb	-0.46532282
108	0xbeadbcc2	-0.33933073
109	0x3ceb5a10	0.028729469
110	0x3e814025	0.2524425
111	0xbe868e38	-0.2628038
112	0xbeda0566	-0.42582244
113	0x3cd58ab8	0.026067123
114	0xbf185971	-0.59511477
115	0x3e99bca5	0.30026737
116	0xbebfd56d	-0.37467518
117	0xbea30926	-0.31842917
118	0xbeaad732	-0.33367306
119	0x3df704d6	0.12061469
120	0xbef1e157	-0.47242233
121	0x3e97129e	0.2950639
122	0xbec610e6	-0.38684767
123	0xbcf2e3d0	-0.029649645
124	0xbea96eb8	-0.33092284
125	0x3e641ab8	0.22275817
126	0xbc75f513	-0.0150120435
127	0xbe7b7708	-0.24557126
128	0xbead5e56	-0.33861035
129	0x3e72517f	0.23663901
130	0x3d806dc8	0.06270939
131	0xbe8b7528	-0.2723782
132	0x3e6cc638	0.2312249
133	0xbf80e89f	-1.007099
134	0xbf0bf0b1	-0.5466414
135	0xbcc3eaf0	-0.023915738
136	0x3e96a988	0.29426217
137	0xbde9f8e3	-0.114244245
138	0xbeae785b	-0.340762
139	0xbeed4f17	-0.46349403
140	0x3d7573f2	0.059925027
141	0xbe8e6cac	-0.27817285
142	0x3c89358e	0.01674917
143	0x3f0637e5	0.5242904
144	0x3ec22476	0.37918442
145	0x3e0e4bf3	0.1389616
146	0x3ccbc48b	0.024873992
147	0x3e2187b8	0.15774429
148	0xbe710d6f	-0.23540281
149	0xbeb5ca69	-0.3550599
150	0x3ea854d7	0.32877228
151	0x3efe4b8a	0.49667007
152	0xbeb3b33e	-0.35097688
153	0x3eb4243c	0.35183895
154	0xbdaac50e	-0.083383664
155	0x3f0d63ea	0.5523058
156	0xbe427e1f	-0.18993424
157	0x3deea10c	0.11651811
158	0xbf3931f4	-0.7234185
159	0xbdb7146a	-0.089394405
160	0xbf2567c1	-0.6461144
161	0x3d20ca2d	0.03925531
162	0xbf5c8d08	-0.86152697
163	0x3e7f7244	0.24945933
164	0x3eb76968	0.35822606
165	0x3ec654e2	0.38736635
166	0x3e8c344a	0.27383643
167	0xbd925c0a	-0.07146461
168	0xbebc65bf	-0.36796376
169	0x3ec1f4ef	0.37882182
170	0x3d26f8a9	0.040764485
171	0xbe2e20a8	-0.17004645
172	0x3d89f57b	0.06736275
173	0xbf153a18	-0.5829177
174	0xbe57caef	-0.21073507
175	0x3f36678a	0.7125174
176	0x3cae2a03	0.021260267
177	0x3d9568f7	0.07295411
178	0xbde51579	-0.11185736
179	0x3ebd7cc0	0.3700924
180	0x3ea28d8b	0.31748614
181	0x3e8b3599	0.2718933
182	0xbd3d6d84	-0.04624702
183	0x3ef887cc	0.48541105
184	0xbec008ac	-0.37506616
185	0xbe4c74b3	-0.19966392
186	0xbeea097e	-0.45710367
187	0x3e88caf7	0.2671735
188	0x3e2cbdeb	0.16869323
189	0xbe16fb9a	-0.14744416
190	0xbecc486e	-0.3989901
191	0xbe9e36af	-0.30901095
192	0x3f027e37	0.5097384
193	0x3e9f35f0	0.3109584
194	0x3df68bc6	0.120383784
195	0xbeabd019	-0.33557203
196	0x3ebdafde	0.3704824
197	0xbdd39f48	-0.10333115
198	0x3eb2a75e	0.34893316
199	0xbdeef745	-0.11668257
200	0xbe937bc3	-0.2880536
201	0xbeebedae	-0.46079773
202	0xbf329431	-0.6975737
203	0xbb9d24f5	-0.0047956654
204	0x3d0a16bd	0.03371309
205	0xbea0b721	-0.31389716
206	0x3e97dbed	0.29659978
207	0x3f29d9ff	0.6634826
208	0xbe7ea4bb	-0.24867527
209	0xbe254c7b	-0.16142456
210	0xbdc843c7	-0.097785525
211	0x3e502bfc	0.20329279
212	0xbe81d237	-0.25355694
213	0x3e2945c5	0.16530521
214	0xbf2c9fe8	-0.674315
215	0xbf317046	-0.6931194
216	0x3d9879e0	0.07445121
217	0xbd2133ea	-0.03935615
218	0xbd0ffa6a	-0.035150923
219	0xbe6425e1	-0.22280075
220	0x3d753943	0.059869062
221	0xbe6f73b2	-0.23383978
222	0xbe8558b8	-0.2604425
223	0xbd92b9a6	-0.07164316
224	0x3d67dca4	0.056606904
225	0xbd917671	-0.07102669
226	0xbeb9ab2f	-0.36263415
227	0xbf51e480	-0.8198929
228	0xbe13668a	-0.14394584
229	0xbecb4a81	-0.3970528
230	0x3ec5e7c0	0.38653374
231	0xbf02ecd9	-0.5114265
232	0xbe89e2c2	-0.26930815
233	0x3fa7b66d	1.3102547
234	0xbf03d721	-0.51500136
235	0x3c7cc714	0.015428323
236	0xbe25c901	-0.16189958
237	0x3ec8adb3	0.39195022
238	0xbe85fe39	-0.2617052
239	0x3f45670f	0.7711038
240	0x3de7dce3	0.11321428
241	0xbdde90e0	-0.108674765
242	0x3ee367f1	0.44415238
243	0x3db8658b	0.09003743
244	0x3e9b47c2	0.30328184
245	0xbcac6374	-0.021043517
246	0x3e065972	0.13120058
247	0xbed55b1c	-0.41671073
248	0xbdb90d43	-0.090357326
249	0x3f04cccd	0.51875
250	0x3ec1fd28	0.37888455
251	0x3e2945b7	0.165305
252	0x3d9123f3	0.07086935
253	0x3ec55742	0.38543135
254	0xbdca834e	-0.09888326
255	0x3e16bd7e	0.14720723

network_body._body_endoder.seq_layers.0.bias f4 [128]
0	0xbc61e87f	-0.013788342
1	0xbd0cd9b8	-0.03438732
2	0xbcbb3521	-0.022852482
3	0xbd0bab86	-0.034099124
4	0xbbdfbb25	-0.0068277293
5	0xbd04526d	-0.03230517
6	0xbc36849a	-0.011140013
7	0x3bfd86e5	0.007737028
8	0x3c497f19	0.012298369
9	0xbd6562be	-0.05600237
10	0xbc1849e3	-0.00929496
11	0xbd067f92	-0.032836504
12	0xbce41dc8	-0.027846232
13	0xbacff71b	-0.001586649
14	0x3b692e60	0.003558062
15	0xbc394fa9	-0.011310496
16	0x3c839052	0.016060028
17	0xbbd586c0	-0.0065163076
18	0xbc616d7a	-0.013759011
19	0xbc4f0020	-0.012634307
20	0x3cd0adf7	0.025473578
21	0xba94846c	-0.0011330969
22	0x3b933024	0.004491823
23	0xbccd04f8	-0.025026783
24	0xbba9f150	-0.0051862374
25	0xbcc393ea	-0.023874242
26	0xbcecbd74	-0.028898932
27	0xbc1f212d	-0.0097125
28	0x3b0ac868	0.002117658
29	0x3bbeeba2	0.0058264295
30	0x3c9dc2c6	0.019257914
31	0xbd184b5a	-0.037181236
32	0xbc1eee14	-0.009700317
33	0xbc13ab52	-0.009013014
34	0x3cb0f830	0.02160272
35	0xbc5f6b7c	-0.013636466
36	0xbcacd7f5	-0.02109907
37	0xbc618d02	-0.013766529
38	0xbb768cae	-0.0037620473
39	0xbd076087	-0.03305104
40	0x3c08563b	0.00832134
41	0xbcfe51d2	-0.031044874
42	0xbcf28219	-0.029603051
43	0xbc953723	-0.018214768
44	0xbc2055eb	-0.009786109
45	0xbcb83f93	-0.022491252
46	0xbc808fe2	-0.015693609
47	0xbc0de06f	-0.008659466
48	0x3cd350d9	0.025795387
49	0xbd2b7ff5	-0.041870076
50	0xbd0f361c	-0.034963712
51	0x3c15af51	0.009136037
52	0xbc5c8e69	-0.013461688
53	0xbc1d05b0	-0.009583876
54	0xbcf2b1d4	-0.02962581
55	0xbbc4671b	-0.0059937364
56	0xbc392657	-0.011300645
57	0xbd95c5c0	-0.073131084
58	0xba313fb2	-0.00067615055
59	0xbc15bf1e	-0.009139804
60	0xbbbc8326	-0.005752939
61	0x3a83277e	0.0010006276
62	0x3cbd7012	0.023124728
63	0xbce02d5d	-0.02736538
64	0xbb0c7514	-0.0021432089
65	0x3ba3bc14	0.004996786
66	0xbca6c62a	-0.020358164
67	0xbc33750a	-0.010953197
68	0xbbfed899	-0.0077772853
69	0xbcd11810	-0.02552417
70	0x3bb95e77	0.005657013
71	0x3c07f58d	0.00829829
72	0xbca42441	-0.020036818
73	0xbb16ca1e	-0.0023008655
74	0xbcd282a1	-0.025697054
75	0xbad2cfd3	-0.0016083665
76	0xbc76c135	-0.015060713
77	0x3ba21ea2	0.0049474994
78	0xbc39c9b2	-0.011339592
79	0xbc65fad4	-0.014036853
80	0x3ba050cf	0.0048924456
81	0xbd0f9e36	-0.03506299
82	0xbcb61f73	-0.022231793
83	0xbd36e6e5	-0.044653792
84	0xbc119464	-0.008885477
85	0xbc9fd95c	-0.019512825
86	0x3aa6bac3	0.0012720454
87	0xbcb93861	-0.022609891
88	0x3bf5b861	0.0074987863
89	0x3b41d2fd	0.0029575222
90	0xbbb86f2c	-0.005628487
91	0xbc32c77e	-0.01091182
92	0xbd704e27	-0.058668282
93	0xbc24db72	-0.010062085
94	0xbc9f9fbe	-0.01948535
95	0x3b80654f	0.003918327
96	0x3b02c5dc	0.001995436
97	0xbbd7a28f	-0.006580658
98	0xbb9b6ec4	-0.004743429
99	0x3a1d940d	0.0006011136
100	0xbc186884	-0.009302262
101	0xbca64e0a	-0.020300884
102	0xbbd06d4a	-0.0063606845
103	0xbcef0405	-0.029176721
104	0xbc8eaadb	-0.017415455
105	0xbbd8f09d	-0.00662048
106	0xbc03051d	-0.007996825
107	0xbc76cc00	-0.015063286
108	0xbcc8681b	-0.024463704
109	0xbc2d0ccf	-0.010562136
110	0xbca52e87	-0.020163788
111	0x3b8fbb62	0.0043863514
112	0xbc9aea46	-0.018910538
113	0x3bd53f3b	0.006507782
114	0xbb868d4f	-0.0041062008
115	0x3c112e21	0.008861096
116	0xbc3a7076	-0.011379352
117	0xbcfef5f9	-0.031123148
118	0xbc6ba793	-0.0143832145
119	0xbb9cf9b4	-0.004790509
120	0xbce35232	-0.027749155
121	0x3bcae7d3	0.0061921864
122	0xbc12f75a	-0.008970106
123	0xbd481567	-0.048848536
124	0xbd3be40b	-0.045871776
125	0x3be2f2ab	0.006925901
126	0xbc0a23b2	-0.008431362
127	0xbcaa784e	-0.020809319

network_body._body_endoder.seq_layers.2.weight f4 [128, 128]
0	0xbd1fa3f1	-0.038974706
1	0x3a2198f8	0.0006164457
2	0x3df5ce1a	0.120022014
3	0x3d684a81	0.056711677
4	0x3d7ad509	0.061238322
5	0x3d89cd9b	0.06728669
6	0x3d236f81	0.03990126
7	0xbd4aba5a	-0.049494125
8	0xbc2546a1	-0.01008764
9	0x3c095007	0.008380896
10	0xbc89c20c	-0.016816162
11	0x3d38d6dd	0.045126785
12	0xbd9d06dd	-0.07667325
13	0xbe1cb244	-0.15302378
14	0x3d96f29b	0.07370492
15	0xbe185d8d	-0.14879437
16	0x3dcacd13	0.09902396
17	0xbd45de1e	-0.04830753
18	0x3e1d06d6	0.15334639
19	0xbdd3d70b	-0.103437506
20	0xbccd5820	-0.025066435
21	0xbd77472f	-0.06037062
22	0x3d026974	0.03183885
23	0xbcc2ed31	-0.023794742
24	0xbdc1afd3	-0.09457364
25	0x3c860e98	0.01636438
26	0xbccc1e05	-0.024916658
27	0x3c2a80c9	0.010406681
28	0xbe073833	-0.13205032
29	0x3defd505	0.11710552
30	0xbd77024d	-0.06030493
31	0xbdcc2219	-0.09967441
32	0xbda6dd65	-0.081476964
33	0xbdf594fc	-0.11991307
34	0xbe1b8d40	-0.15190601
35	0x3db5d1cc	0.08877906
36	0xbd47e741	-0.048804525
37	0xbd20425a	-0.039125778
38	0x3d3c6f88	0.046004802
39	0x3d37bdd5	0.044858772
40	0xbe1369cd	-0.14395829
41	0x3d980e04	0.07424548
42	0x3dd2cafd	0.10292623
43	0xbddf968f	-0.10917389
44	0x3e2557db	0.16146795
45	0xbe189780	-0.14901543
46	0x3bf6f67e	0.0075367084
47	0xbe277502	-0.16353229
48	0xbca562e5	-0.020188758
49	0x3e2cc6e1	0.16872741
50	0x3d0af107	0.033921268
51	0xbb022f35	-0.0019864563
52	0xbc921d8e	-0.017836358
53	0xbe197c65	-0.14988859
54	0x3df7f0d7	0.121064834
55	0xbd94c477	-0.07264035
56	0x3e0d4546	0.13795957
57	0x3e648c3f	0.22319125
58	0xbdfd5853	-0.12370362
59	0xbe70c8a2	-0.23514035
60	0xbdd1488b	-0.102189146
61	0xbd1717c3	-0.036887895
62	0xbde25c07	-0.11052709
63	0xbdd454d9	-0.10367746
64	0x3c1051cd	0.008808565
65	0x3e1092a6	0.14118442
66	0xbe32340e	-0.1740267
67	0xbcca7bf1	-0.024717303
68	0x3d1fb02e	0.038986377
69	0x3e152789	0.14565863
70	0x3d527e91	0.051390234
71	0xbd73d282	-0.059526928
72	0xbcd888fe	-0.02643251
73	0xbd66d262	-0.05635298
74	0x3e8cb84f	0.27484366
75	0xbd623852	-0.055229492
76	0x3d458ffd	0.04823302
77	0x3bb4b70a	0.005514984
78	0x3cdeeadf	0.027211605
79	0x3dc2e25d	0.095158316
80	0x3c7defd6	0.015499076
81	0x3bd6b0d5	0.0065518417
82	0xbda3fd89	-0.08007342
83	0xbcfa81b9	-0.030579435
84	0xbe0a25e2	-0.13491014
85	0xbd8cbfac	-0.06872496
86	0xbd6be510	-0.057591498
87	0x3d5a5acc	0.053309247
88	0xbe6b0432	-0.22950819
89	0xbdcf84a0	-0.10132718
90	0xbe33554a	-0.17513004
91	0x3e06d798	0.1316818
92	0x3ce020b7	0.02735935
93	0xbdc853f6	-0.09781639
94	0x3d325366	0.043536566
95	0x3e02f70d	0.12789555
96	0xbd24b580	-0.040212154
97	0xbcca5e07	-0.024703039
98	0x3cbc32c3	0.022973424
99	0xbd4a36a0	-0.0493685
100	0x3dc36e9f	0.09542584
101	0xbda43786	-0.08018403
102	0xbdf9070d	-0.12159548
103	0xbe4d668c	-0.2005865
104	0x3c87d4ff	0.016581057
105	0x3dbd0f3b	0.092314206
106	0xbd86187a	-0.06547637
107	0xbe1685f3	-0.14699535
108	0x3e3c59c5	0.1839362
109	0xbd20acba	-0.039227225
110	0xbc2de0b1	-0.010612653
111	0xbc9cc8e9	-0.01913877
112	0xbbf506fb	-0.007477639
113	0x3cc28a6f	0.02374765
114	0x3d88ecfe	0.06685828
115	0xbd28c332	-0.041201778
116	0xbd4fd486	-0.050739788
117	0x3d0d3cd1	0.034481827
118	0xbe116095	-0.14197
119	0xbdc7d9c1	-0.0975833
120	0xbd001667	-0.031271365
121	0x3a50e5be	0.00079688046
122	0x3c2f4c3d	0.010699329
123	0xbcffb713	-0.031215226
124	0x3cbfe97e	0.023426767
125	0xbd4ffca1	-0.050778035
126	0xbda92c1d	-0.08260367
127	0x3c8d57b0	0.017253727
128	0xbc9506e1	-0.018191757
129	0x3bf10738	0.007355597
130	0xbd716ff0	-0.058944643
131	0xbe00337d	-0.12519641
132	0xbc256504	-0.010094885
133	0xbe7a6522	-0.24452642
134	0x3dbf00d0	0.09326327
135	0xbe3306fc	-0.17483133
136	0x3d46958b	0.04848246
137	0xbe39b7d8	-0.18136537
138	0x3dcf258b	0.10114583
139	0x3c171eac	0.009223621
140	0xbd770ac8	-0.060313016
141	0xbd214946	-0.03937652
142	0x3e340baf	0.17582582
143	0xbbeee392	-0.007290312
144	0x3da70ec1	0.08157111
145	0xbd170095	-0.03686579
146	0xbd86d14a	-0.065828875
147	0xbcd016ee	-0.025401559
148	0x3d379112	0.044816084
149	0x3bfa9a8c	0.007647818
150	0xbde53e02	-0.11193468
151	0xbd9e1c1f	-0.077202074
152	0xbceb867b	-0.028750649
153	0xbdb8302f	-0.08993565
154	0xbcec88f1	-0.028873893
155	0xbd858b84	-0.06520751
156	0xbe571139	-0.21002664
157	0xbe9a951d	-0.3019189
158	0xbd978f88	-0.07400423
159	0x3e84406d	0.25830403
160	0x3d5b2dca	0.053510465
161	0x3d264f57	0.040603008
162	0xbd9744aa	-0.073861435
163	0x3dae96d9	0.08524866
164	0xbca3252e	-0.01991519
165	0xbc797113	-0.015224713
166	0x3e34d165	0.17658003
167	0xbdc9e0e5	-0.09857348
168	0x3cb43a62	0.022000495
169	0x3e031c59	0.12803783
170	0xbd84bd58	-0.06481427
171	0x3c3d0bfd	0.011538503
172	0xbd3d4e46	-0.046217225
173	0xbbc80903	-0.00610459
174	0x3e181053	0.14849977
175	0xbd900e43	-0.0703397
176	0x3e36e822	0.17861989
177	0x3da69d0b	0.08135422
178	0x3dad950b	0.08475693
179	0x3d3da750	0.04630214
180	0xbd0db029	-0.034591828
181	0x3e1b6910	0.15176797
182	0x3beae188	0.0071679987
183	0xbc0cbb13	-0.008589524
184	0x3daea255	0.08527056
185	0xbdcffbca	-0.10155447
186	0xbdff001c	-0.12451193
187	0x3d946aed	0.07246957
188	0xbd757cd4	-0.0599335
189	0xbd455889	-0.048180137
190	0xbc292ffd	-0.010326383
191	0xbd4ae0c1	-0.04953075
192	0xbdbca215	-0.09210602
193	0xbe7175be	-0.23580071
194	0xbba47894	-0.005019257
195	0x3dec85ec	0.11548981
196	0xbd02536d	-0.031817842
197	0x3da2c0f9	0.07946963
198	0x3d947598	0.07248992
199	0x3d8dce23	0.06924083
200	0xbcc442f3	-0.023957705
201	0x3db0896e	0.08619963
202	0xbddf7abc	-0.109120816
203	0x3d0f13a0	0.034930825
204	0x3e56a46b	0.20961158
205	0x3d491719	0.049094293
206	0x3e3c0dc0	0.1836462
207	0xbb7e85ab	-0.0038836997
208	0xbd05bc95	-0.03265055
209	0xbc940fcf	-0.018073944
210	0x3db7b0ad	0.08969245
211	0xbdf645a5	-0.120250024
212	0xbe02fedf	-0.12792538
213	0x3da9c700	0.08289909
214	0x3c4123d7	0.01178833
215	0x3cb818c4	0.022472747
216	0xbe35f065	-0.17767484
217	0x3d6ed293	0.058306288
218	0x3de9c6c9	0.114148684
219	0x3b4ab706	0.0030931844
220	0xbe89d063	-0.269168
221	0x39e507ad	0.00043684003
222	0x3cfc1022	0.030769411
223	0xbd6a86de	-0.057257526
224	0xbe3c2e08	-0.18376935
225	0x3c721cfc	0.014777418
226	0x3d0cb85d	0.03435551
227	0xbe1edf17	-0.1551479
228	0xbcf9b449	-0.030481474
229	0xbbfbf283	-0.0076888218
230	0xbd15ac8d	-0.03654151
231	0xbda2616e	-0.079287395
232	0x3d2be403	0.041965496
233	0x3d842559	0.06452436
234	0xbd14b36a	-0.036303915
235	0x3d17b99a	0.037042238
236	0xbda80bc1	-0.08205367
237	0xbd59832c	-0.05310361
238	0xbe2f509f	-0.17120598
239	0xbd3c9e88	-0.046049625
240	0x3dcc694c	0.09981021
241	0x3c07f957	0.008299193
242	0xbd221b49	-0.039576802
243	0x3e3e8379	0.1860484
244	0xbdc7ae0b	-0.09749993
245	0xbde747be	-0.112929806
246	0x3c33ae88	0.010966904
247	0x3e039b1b	0.12852137
248	0x3d853a4f	0.06505262
249	0x3de5fa27	0.112293534
250	0xbdc1be22	-0.09460093
251	0x3cd608be	0.026127215
252	0xbdd7cc3d	-0.10537002
253	0x3d3f753e	0.04674267
254	0xbe13e6e8	-0.14443552
255	0xbd526397	-0.051364508

network_body._body_endoder.seq_layers.2.bias f4 [128]
0	0xbccb707e	-0.024833914
1	0xbd53a7bd	-0.05167364
2	0xbd0b0058	-0.033935875
3	0xbd8f5cc1	-0.07000113
4	0xbc958fae	-0.018256988
5	0xbc7ac27c	-0.015305158
6	0xbcea1a57	-0.028577013
7	0xbc69d098	-0.014270924
8	0xbc2feeef	-0.010738119
9	0xbd0d5cbc	-0.034512267
10	0xbae0fcf8	-0.0017165234
11	0xbd4b344e	-0.04961043
12	0xbc434fb0	-0.011920854
13	0x3bcbdbaa	0.0062212544
14	0x3a959517	0.001141223
15	0xbc740f6a	-0.014896253
16	0xbc82c8ea	-0.015964944
17	0xbc9b47c2	-0.018955115
18	0xbd2cb707	-0.042166736
19	0xbc502367	-0.012703753
20	0xbc70f7c5	-0.01470751
21	0x3c777ecb	0.015105913
22	0xbb1b2c92	-0.002367769
23	0xbc202211	-0.009773747
24	0xbbd41884	-0.006472649
25	0xbcbf5524	-0.023356028
26	0xbd10c509	-0.035344157
27	0xbc21ef8f	-0.009883775
28	0xbca56373	-0.020189023
29	0xbcab02ac	-0.020875297
30	0xbc7036ee	-0.014661534
31	0xbd48609a	-0.04892025
32	0xbca4a9be	-0.02010047
33	0xbac72ca2	-0.0015195797
34	0x3c886039	0.016647445
35	0xbb03a5be	-0.0020087804
36	0x3c8e28fe	0.017353531
37	0xbd18dd43	-0.037320387
38	0xbc86a440	-0.016435742
39	0x3d1ed2f2	0.038775392
40	0xbd63a364	-0.055575743
41	0xbca1891c	-0.0197187
42	0xbc157ab0	-0.009123489
43	0xbccfe8e9	-0.025379615
44	0xbc6676ee	-0.014066441
45	0xbcdf6b35	-0.0272728
46	0xbc7f7dbb	-0.015593941
47	0xbcd0e690	-0.025500566
48	0xbc9f362a	-0.019435007
49	0xbcb4581e	-0.022014674
50	0x3bceef97	0.0063151824
51	0x3c3ed824	0.011648212
52	0xbd2dc476	-0.042423688
53	0x3afc0d18	0.0019229976
54	0xbc0d8eed	-0.008640033
55	0xbd0985f2	-0.033575006
56	0x3b154ebe	0.002278253
57	0xbc99b0f1	-0.01876113
58	0xbc14f9ab	-0.009092729
59	0xbc13300c	-0.008983623
60	0xbcf3296f	-0.029682843
61	0xbb6e1a30	-0.0036331527
62	0xbd197e61	-0.03747404
63	0xbd44946d	-0.047993112
64	0xbcbc0c07	-0.022954954
65	0xbb2238b6	-0.002475304
66	0xbcaff957	-0.0214812
67	0xbc2ef0a3	-0.010677489
68	0xbc1fc8bc	-0.009752449
69	0x3a14e7ff	0.0005680322
70	0xbc28b444	-0.010296885
71	0xbbcd1876	-0.0062590195
72	0xbcafbba4	-0.021451779
73	0xbd0fca1c	-0.035104856
74	0x3c8bb3c0	0.017053485
75	0xbce3f434	-0.027826406
76	0xbd0b6a95	-0.03403719
77	0xbcc09aa9	-0.023511248
78	0xbc336437	-0.010949186
79	0xbcdd8d09	-0.02704479
80	0xbd12bf32	-0.03582687
81	0xbcc7f9e0	-0.024411142
82	0x3afccc02	0.0019286873
83	0xbcaf56df	-0.021403728
84	0xbc8d2fdf	-0.01723474
85	0xbc4d30fb	-0.012523885
86	0xbc8460e3	-0.01615948
87	0xbc41db4d	-0.011832071
88	0xbb6888e4	-0.0035481984
89	0x3cb82aec	0.022481404
90	0xbc395c8c	-0.011313569
91	0xbc825403	-0.0159092
92	0x3aae36a0	0.0013291426
93	0x3c634bb2	0.013873028
94	0xb96afdb7	-0.00022410495
95	0xbc240797	-0.010011575
96	0xbc9cb452	-0.019128952
97	0xbca7445b	-0.020418337
98	0xbcc39949	-0.023876803
99	0xbc1ffc22	-0.009764703
100	0xbc86d4a3	-0.016458815
101	0xbc0c7611	-0.008573071
102	0xbbe07498	-0.0068498366
103	0x3a9936f1	0.0011689347
104	0xbc8c897a	-0.017155398
105	0x3b55075a	0.0032505603
106	0xbd10263a	-0.035192706
107	0xbc0903ce	-0.0083627235
108	0xbc077ef4	-0.008270014
109	0xbb369e8e	-0.0027865502
110	0xbc1763e5	-0.009240125
111	0xbc6cdc91	-0.014456884
112	0xbd2f8c9d	-0.04285871
113	0xbc1f17fc	-0.009710308
114	0xbc1cc383	-0.009568098
115	0xbc5f4c98	-0.013629101
116	0xbbfc0747	-0.007691297
117	0xbc650767	-0.013978816
118	0xbcd5e410	-0.026109725
119	0xbaef4fb2	-0.0018258004
120	0xbc63bc91	-0.013899938
121	0xbcdff48c	-0.027338289
122	0xbcebc8ab	-0.02878221
123	0xbc77d076	-0.015125385
124	0xbc27edec	-0.010249596
125	0xbd5817c7	-0.05275705
126	0xbc0f028d	-0.0087286355
127	0xbd6afb73	-0.057368707

action_model._continuous_distribution.log_sigma f4 [1, 2]
0	0xbd6bf576	-0.057607137
1	0xbc84ed3c	-0.016226403

action_model._continuous_distribution.mu.weight f4 [2, 128]
0	0x3c700bc0	0.014651239
1	0x3b743643	0.0037263788
2	0xba54183e	-0.00080907706
3	0xbc82e34f	-0.01597753
4	0xbb51dbe3	-0.0032021932
5	0xbbc9934e	-0.0061515933
6	0x39d37527	0.0004033234
7	0xbc5a66de	-0.0133301895
8	0xbb91fee1	-0.0044554328
9	0x3afe47ab	0.0019400021
10	0xbc84ebd3	-0.016225731
11	0x3b800ded	0.00390791
12	0xbcbba3d4	-0.022905268
13	0x3c866d0c	0.01640942
14	0x3c8a20a7	0.016861273
15	0xbac2b3fe	-0.0014854667
16	0xbb094792	-0.00209472
17	0xbc94dc45	-0.018171439
18	0xbb95b8f8	-0.004569169
19	0x3a326a8e	0.0006806039
20	0x3c440dc7	0.011966175
21	0x3b9593c6	0.004564735
22	0xbc263e85	-0.010146742
23	0xbcb5707b	-0.022148361
24	0xbd12e6dd	-0.0358647
25	0x3983b898	0.000251238
26	0xbbdc92e7	-0.0067313793
27	0x3a7f5af8	0.00097410334
28	0xbc10dc21	-0.008841545
29	0x3bb51ed8	0.0055273585
30	0xbca2b276	-0.019860487
31	0xbd8efb6c	-0.06981549
32	0x3b9b619f	0.004741862
33	0xbd1e3ead	-0.03863399
34	0xbb8832aa	-0.0041564303
35	0xbb76ee75	-0.0037678753
36	0xbcae8964	-0.021305747
37	0xbb34cdd7	-0.002758851
38	0xbba8aabc	-0.0051473062
39	0x3d0cfdbd	0.03442167
40	0xbc00c467	-0.007859326
41	0xbbe2d17d	-0.0069219456
42	0xbc85f828	-0.016353682
43	0xbc11cab2	-0.008898424
44	0xbc1fe983	-0.009760263
45	0xb9358a6e	-0.00017313074
46	0xbb96bcff	-0.004600167
47	0x3b2ec898	0.0026669856
48	0xbca86ad4	-0.020558752
49	0xbbe63797	-0.00702567
50	0x3cae2f31	0.021262737
51	0x3b0dfab1	0.0021664316
52	0xbb297b76	-0.0025860942
53	0xbc04b4db	-0.00809976
54	0xbce9c288	-0.028535143
55	0xbc13f428	-0.009030379
56	0x3c3aef87	0.011409647
57	0xbc0804fd	-0.008301971
58	0x3c4b4578	0.012406699
59	0x3bbb6f58	0.0057200603
60	0x3b8d277d	0.004307686
61	0xbc150dc2	-0.009097518
62	0xbca263a1	-0.019822897
63	0xbc9b10cc	-0.018928908
64	0xbb0bed73	-0.0021351248
65	0xbc9a2627	-0.01881702
66	0x3b151215	0.0022746373
67	0xbc2b088f	-0.010439052
68	0x3a5dc9df	0.0008460562
69	0x3b30b225	0.0026961651
70	0xbcfed8d7	-0.031109257
71	0x3c7455a8	0.014913
72	0xbc39f04a	-0.011348793
73	0x3aa23bbd	0.0012377423
74	0xbc834d44	-0.016028054
75	0xbc4c10f0	-0.01245521
76	0xbbf5ad6b	-0.0074974797
77	0x3bcd3014	0.006261835
78	0xba7e8fc9	-0.0009710757
79	0x3bb8e561	0.0056425785
80	0x3b5ba75d	0.0033516504
81	0x3bcc774e	0.006239808
82	0xbc96acd4	-0.018392958
83	0xbc38416b	-0.011246066
84	0x3bbc7f8d	0.00575251
85	0xbc6c8d45	-0.014437978
86	0xbc8d2776	-0.01723073
87	0xba29a423	-0.00064712967
88	0xbca408cc	-0.020023726
89	0x3aa5825a	0.0012627349
90	0x3cb7dabd	0.02244317
91	0x3c19c6f6	0.009385815
92	0xbcc55e95	-0.024092952
93	0xbc88c7c5	-0.01669682
94	0x3cb8172c	0.022471987
95	0x3b8eb7d4	0.00435541
96	0x3b7b745d	0.0038368918
97	0xba8ea9eb	-0.001088438
98	0xbc71fbae	-0.014769478
99	0xba10aa92	-0.0005518581
100	0x3a80b8fb	0.0009820753
101	0x3bceed94	0.0063149426
102	0xbc350627	-0.01104883
103	0x3b8277c4	0.0039815623
104	0xbcae7f85	-0.02130104
105	0xbbc6eb87	-0.0060705575
106	0xbca1efc6	-0.019767653
107	0xbba6f477	-0.0050950604
108	0xbc050eb2	-0.008121179
109	0xbc6c312e	-0.014416022
110	0xbc4995fe	-0.012303827
111	0xb9d52e38	-0.00040660962
112	0xbd2cf2de	-0.042223804
113	0xbabcdfdd	-0.0014409978
114	0xbb61c546	-0.003444986
115	0xbc437c57	-0.0119315
116	0x3b0b803d	0.0021286153
117	0xbaf98e54	-0.001903961
118	0x3c590bbb	0.013247426
119	0x3ccc7b4d	0.024961138
120	0xbb1fc3ba	-0.0024378137
121	0xbb88a7b9	-0.0041703847
122	0xbb470e58	-0.003037354
123	0xbcc0b6b2	-0.023524616
124	0x3c048939	0.008089357
125	0xbbad5e2b	-0.0052907667
126	0xbbb5ea71	-0.0055516292
127	0xbd4938f8	-0.049126595
128	0xbabe070a	-0.0014497947
129	0xbba3d490	-0.0049997047
130	0xbc179f8e	-0.009254349
131	0x3b93b2d0	0.0045074
132	0x3bc1f02e	0.005918524
133	0xbb7400a1	-0.003723182
134	0xbabbf743	-0.0014340658
135	0x3bd66588	0.006542865
136	0x3b18cc6b	0.0023315202
137	0x3bcc73af	0.0062393765
138	0x3c225f7b	0.00991046
139	0xbc7c10f3	-0.0153849
140	0xbc0de25e	-0.008659927
141	0xbd14673a	-0.036231257
142	0xbc73352e	-0.014844222
143	0xbc1ac314	-0.009445924
144	0xbc6c69eb	-0.01442955
145	0x38b7a5e2	8.757018e-05
146	0xb997b32e	-0.00028934464
147	0x3c2cc1ad	0.010544223
148	0xbb230315	-0.0024873663
149	0xbcae419e	-0.021271523
150	0xbd031b94	-0.032008722
151	0xbc44bd32	-0.012007998
152	0xba945add	-0.0011318583
153	0x3bde1e03	0.00677848
154	0xbc87ff4d	-0.01660123
155	0xbb2d7864	-0.0026469463
156	0xbc6d4600	-0.014482021
157	0xbc3e4cac	-0.01161496
158	0x3c245b14	0.01003148
159	0x3c6816e7	0.014165617
160	0xba96021e	-0.0011444723
161	0x3be24ca7	0.0069061103
162	0x3cc55b5a	0.024091411
163	0x3c9ace6b	0.018897256
164	0xbbb60dee	-0.0055558598
165	0x3b6bfe03	0.0036009557
166	0x3befcef3	0.0073183714
167	0xbb14c047	-0.0022697614
168	0x3bda05f1	0.0066535403
169	0x3c129445	0.008946483
170	0xbb0d4dbc	-0.0021561226
171	0xbb72fa4c	-0.0037075458
172	0xbc5377c0	-0.012906969
173	0xbb56b0d7	-0.0032759213
174	0x3c4ab472	0.012372123
175	0x3b1928df	0.0023370308
176	0xbc71d9b0	-0.014761373
177	0x3bf13d9b	0.0073620803
178	0x3c0afe9b	0.008483554
179	0x3c101e47	0.008796281
180	0x3aa7da27	0.0012806103
181	0xbcbfbabd	-0.023404473
182	0x3a205e75	0.0006117591
183	0xbaf62f51	-0.0018782412
184	0x3c6a1a87	0.014288551
185	0xbae9d5c2	-0.0017840194
186	0x3d0b5eb1	0.03402585
187	0x3b6713a1	0.0035259502
188	0xbbb27911	-0.005446561
189	0x3bc7472d	0.006081483
190	0xbc0b3e5e	-0.008498756
191	0xbba918a5	-0.0051604086
192	0xbb843031	-0.004034065
193	0x3bd69301	0.006548286
194	0xbb3a2f3d	-0.0028409504
195	0xbc33effb	-0.010982509
196	0xbcfcc1c7	-0.030854119
197	0xbc1a8179	-0.009430283
198	0x3cebe64b	0.028796336
199	0xbc2c88ae	-0.010530634
200	0x3bf9bb58	0.00762121
201	0xb9ba3d15	-0.00035522194
202	0x3ca7ba7f	0.02047467
203	0x3bb732ac	0.0055907574
204	0xbcda705a	-0.026664902
205	0xbb880108	-0.0041505136
206	0x3ca0d8e0	0.019634664
207	0x3bc4a456	0.0060010357
208	0xba02959d	-0.00049814006
209	0xbb8343d2	-0.0040058875
210	0x3ca208ad	0.019779528
211	0x3a8872e2	0.0010410214
212	0xbcd7348a	-0.02627017
213	0x3bedd8c5	0.007258507
214	0x3c549a61	0.01297626
215	0x3c4466cc	0.011987399
216	0x3c4b8ddd	0.01242396
217	0x3ce9236a	0.02845927
218	0x3c0d7e46	0.008636063
219	0xbc759cef	-0.014991029
220	0x3c7116c1	0.014714898
221	0x3cb712a4	0.022347756
222	0x3b7b759d	0.0038369664
223	0xbc5ab55c	-0.0133489035
224	0xbc33beae	-0.010970755
225	0xbba9447d	-0.005165635
226	0xbcbd4437	-0.023103816
227	0x3c4c94f9	0.01248669
228	0x3b277440	0.0025551468
229	0xbb135ee2	-0.0022486974
230	0x3c77158c	0.015080821
231	0x3c955200	0.018227577
232	0xbca1a423	-0.019731587
233	0x3c35096a	0.011049608
234	0xbcbd769f	-0.023127852
235	0xbab3c3fd	-0.0013715025
236	0xbd05f728	-0.03270641
237	0xbbdf60ae	-0.006816945
238	0xbc88e233	-0.016709423
239	0x3c82e710	0.01597932
240	0xbc0c8d62	-0.00857863
241	0x3c1b9800	0.009496689
242	0xbc53dd1c	-0.012931135
243	0xbc087e73	-0.008330929
244	0xbcdd1722	-0.02698857
245	0xbc20b832	-0.009809541
246	0xbb413de4	-0.0029486353
247	0xbc14c180	-0.009079337
248	0x3b6f001c	0.003646857
249	0xbc65d050	-0.014026716
250	0x3b58617d	0.0033017092
251	0x3c6259dc	0.013815369
252	0x3b2682bf	0.002540752
253	0x3ae02d85	0.001710341
254	0x3c61d662	0.013784023
255	0xbc9e6e0b	-0.019339582

action_model._continuous_distribution.mu.bias f4 [2]
0	0xbbd5f68d	-0.0065296353
1	0x3bcba7f7	0.0062150913
