Assets/results/petfollower6/PetFollower/PetFollower-20626.onnx (onnx, 75610 bytes, 7 tensors)

network_body._body_endoder.seq_layers.0.weight f4 [128, 7]
00000000: e5e6 ca3d cc7a 873e f8d2 edbd 11d5 d13e
00000010: 0379 f63d 7280 4f3f dfe0 03be c86b d9bd
00000020: 7b76 d0be 08dc 033f 810b 1e3e 13ae a83e
00000030: fc0b cc3e 086c 95bb 0ba8 2bbf ed05 363d
00000040: ace0 813f f068 c9bd 36c9 8dbd ce46 55bf
00000050: 316e e4bd d874 a5be 7a20 b2be 7f37 003f
00000060: f641 febe 1e48 923e 11d7 52be bc93 2a3d
00000070: 16a8 1c3e 6dff 273e a89c 213f 2172 1a3d
00000080: 839c 9c3e ccf6 d33e c60d 9abf 5796 603e
00000090: d0b9 f8bc efae 5a3e 23d4 46bf c975 7abd
000000a0: 5db6 803e 09ff 033f c412 203e e3bd e7bd
000000b0: 78a5 4c3e c227 38be 17d6 a0be bd38 063f
000000c0: 7867 82be f3aa eb3c 1add 07be f504 973f
000000d0: 2621 4b3d 3154 f83e 248d 22bf 3aa0 a53e
000000e0: 2e36 34be 2adf 52bf bdd6 04be 025e 523e
000000f0: 8a06 44be 8398 b63e de7b 50bd 6dcb 9b3e
00000100: 4a24 153f c1e7 133e b93d cabc 5225 debe
00000110: 9d2d aa3d 88d3 3abe f884 78be 7b42 953d
00000120: ebd9 fcbd 2bc9 203f bdb7 84bc ae28 cdbd
00000130: be14 20bf d10b 44be 931d c0be ed84 433e
00000140: 9412 aabe 1ad6 083d 8b17 ab3d 2b14 f1be
00000150: 7063 c73e 84cc aabe fed3 d43e 648f 213f
00000160: 2b27 84be f8de 5dbe 314c edbe 0240 e3bd
00000170: 0741 5c3e 46b0 0abf e856 193e a313 3bbe
00000180: 4a07 c1be 400e f43e e3ce 043e 3248 a13e
00000190: a239 253e eeb9 32bd 5967 d7be 2a25 2dbe
000001a0: 45aa 043e 172b 523f deed 253f fe89 46be
000001b0: 343b 673e cdc3 2abe ad41 e73d 2c53 ebbe
000001c0: 0b1b acbe e17b 2d3f 5a7a 843e 9604 a33e
000001d0: 35d7 393e 6e65 9e3a 23dc fdbe 68fb 88be
000001e0: 6472 1b3d d82d 0e3e bb05 ab3e 99ea f13e
000001f0: a9b0 2bbe 44b7 acbe 6af3 fe3c a6cf 91be
00000200: a365 8a3f 9366 b2be c02a 3b3f 12a6 c83e
00000210: 0e63 033f 7c39 06bf 06b9 97be a2be fbbd
00000220: 1d09 2bbf a945 25be 43c0 973e b0a6 09bf
00000230: 9553 97bd 2e11 04bf 5ae0 0d3e 1244 b4be
00000240: 0ee6 1d3d b47b 25bf 2345 4b3e 489a 46be
00000250: d84c 953e 65a5 24bd 91b5 b5be 85bc 293f
00000260: da4b 5d3e c2d9 0bbe cd0e 10be 9e5f d13d
00000270: 59ae 563e e9a1 e93d c0f7 5fbd ef1d 06bf
00000280: cc5f 07ba 004f 533e 0b3a 063e 54f8 ac3e
00000290: 3c21 08be cb29 833c 3f0c bb3b 8722 36be
000002a0: e439 c83e 24b2 a03d 5428 55bd 66cd c23e
000002b0: cb07 13bf fe85 aabe 2370 ec3d f3d8 ec3e
000002c0: 92e5 ffbd dabb c2be 72d9 e2be 0beb 003e
000002d0: 1360 9f3e c7eb 08be 6bf6 113d 6152 e7bc
000002e0: 0fa5 07bf cd65 2f3f 7573 c6be f7cc febe
000002f0: 290a 02bf 3a83 533f 7362 15bf e1b0 fdbe
00000300: 1e5b 663f b0b8 5bbf 110d eebe dbcb bf3e
00000310: f018 c93e d0c7 233d a3dd 0fbf 38e9 c93e
00000320: 0e71 b73e c500 74be da11 fe3e d0fe 9ebe
00000330: 47bd a23e 4019 06be c4a4 893f e3d5 023f
00000340: d5e5 703e 69a6 b1be 0272 ffbd e8e3 9a3c
00000350: 34de 183e 44cb c23e aadd b0be dcd9 243f
00000360: 6f1f 723e 85bd 98be 1c39 3c3e 325c 3abf
00000370: 4e46 8c3d a642 bc3e ffeb 9cbe 28ee 5f3f
00000380: b28a e7be 0c86 71be bbc3 903e e064 edbc
00000390: 56a3 543e 38c3 433c 627f 573e a71e 3f3e
000003a0: 3911 343f 36b0 c3be d1c8 afbe 265f 1abd
000003b0: 0b85 42bf c77c b8be ef35 0bbe 56f6 5b3f
000003c0: 0ad9 93bd 7955 50bf 348c 91be 20aa e6be
000003d0: e5e8 43bd 3770 c3bd 3319 c73c f375 913e
000003e0: afdf 613e 5321 38be cece 9dbe 3ab0 7b3e
000003f0: 4799 0a3f f8d7 5fbf a8c3 b13e d5db 17bf
0.09907321 0.26460874 -0.11612505 0.4098287 0.120348 0.81055367 -0.1287875 -0.10616261
-0.40715393 0.51507616 0.15434076 0.32945308 0.39852893 -0.0045599975 -0.6705329 0.044439245
1.014669 -0.09834468 -0.069231436 -0.83311164 -0.1115383 -0.32315707 -0.34790403 0.5008468
-0.496597 0.28570646 -0.20589854 0.041644797 0.15298495 0.16406031 0.63129663 0.037706498
0.3058816 0.4139923 -1.2035453 0.2193235 -0.03036204 0.21355794 -0.77667445 -0.061147485
0.25139132 0.5156103 0.15632159 -0.11315515 0.19984996 -0.17983916 -0.31413338 0.52430326
-0.25469565 0.028768038 -0.13267937 1.1798388 0.04959216 0.48501733 -0.63496614 0.32348806
-0.17598793 -0.8237177 -0.12972541 0.20543674 -0.1914312 0.35663232 -0.05089938 0.3042864
0.582585 0.14443876 -0.024687635 -0.43387848 0.08309481 -0.18244755 -0.24269474 0.07288071
-0.12346252 0.6280696 -0.016200894 -0.10017525 -0.6253165 -0.19145133 -0.37522563 0.19093676
-0.332173 0.03340731 0.083541 -0.470857 0.38943052 -0.33359158 0.41567987 0.6310942
-0.25811133 -0.21667087 -0.46347192 -0.11096193 0.21509181 -0.5417522 0.14974558 -0.1826921
-0.37700874 0.47667122 0.12969546 0.31500393 0.16135266 -0.043634348 -0.42071036 -0.16908708
0.12955578 0.82097 0.6481608 -0.19388577 0.22581178 -0.16676255 0.112918235 -0.45961893
-0.33614382 0.6776715 0.25874597 0.31839436 0.18148501 0.0012084672 -0.49582013 -0.26754308
0.03795089 0.13884676 0.3340281 0.47249296 -0.16766609 -0.3373357 0.031121928 -0.28478736
1.0812267 -0.34843883 0.73112106 0.39189202 0.5132302 -0.52431464 -0.2963335 -0.1229222
-0.6681078 -0.16139854 0.29638872 -0.5376997 -0.07388989 -0.51588714 0.13855115 -0.35208184
0.038549475 -0.6464188 0.19850592 -0.19394791 0.2916019 -0.040196795 -0.35490087 0.6630328
0.21610966 -0.13657287 -0.14068146 0.10223316 0.20964946 0.11407835 -0.054679632 -0.52389425
-0.0005164116 0.20635605 0.13108079 0.3378321 -0.13293928 0.01601114 0.005708247 -0.17786609
0.39106667 0.07846478 -0.052040413 0.38047332 -0.57433766 -0.33305353 0.11544826 0.4625927
-0.12494959 -0.38033944 -0.44306523 0.12589662 0.31127986 -0.13371192 0.035635393 -0.028237524
-0.52986234 0.6851471 -0.38759962 -0.4976575 -0.50796753 0.8262211 -0.58353347 -0.4954901
0.89982784 -0.85828686 -0.46494344 0.37460217 0.39276838 0.039985478 -0.56197566 0.39435744
0.3582844 -0.23828419 0.49622995 -0.31053782 0.31785032 -0.1309557 1.0753407 0.51107615
0.23525174 -0.34697273 -0.12472917 0.018907502 0.14928514 0.38045704 -0.34544116 0.6439493
0.23644803 -0.29832092 0.1838116 -0.7279693 0.06849347 0.367696 -0.306488 0.8747277
-0.45223004 -0.23586291 0.2827433 -0.028978765 0.20765433 0.011948399 0.21044686 0.18664037
0.7033878 -0.38220376 -0.34332898 -0.037688397 -0.7598426 -0.36032698 -0.13594793 0.85922754
-0.07219131 -0.8138042 -0.2842728 -0.4505167 -0.047829527 -0.09542888 0.024304008 0.284103
0.22057985 -0.17981462 -0.30821842 0.24578944 0.5414013 -0.8743892 0.34719586 -0.5931981

network_body._body_endoder.seq_layers.0.bias f4 [128]
00000000: 4b5e 3cbb 4365 bf3a 95d5 2dbb 7483 ff3b
00000010: f05f 2fbb 8c71 8c3b 61cd abb9 b6ab 2dbc
00000020: 0a92 54bc be38 9dbc dc67 e4bb 6441 3a3b
00000030: ec64 a1bc ab2e 323c 050e 5ebb 7b5d bbbc
00000040: 72bc 98bc 1ec9 273c 7178 abbc 4bd9 ab3c
00000050: 71d2 b0ba ff80 9d3b 2b04 63bb a747 aabc
00000060: d749 e3bc 4f7a 753c 9e22 b3ba e0a5 f5bc
00000070: f85f 96bc 8e98 5abc 6ce6 10bc 8a7b abbc
00000080: 76ad 3ebb 9f3b 20bd 647b e6bc f39c 4e3c
00000090: 85ed 5ebb f7ff aa3b af37 f1bc bb07 883b
000000a0: 0352 cdbc bdeb c9bc c123 c8bc 28e4 d3bc
000000b0: c6b8 283c d15d fabb e90c 56bc be3f c2b9
000000c0: 254a 19bd d1a0 9dbc f09f c13b 4232 53bd
000000d0: 6449 293b 442f 88bc cd08 a239 389b ddbb
000000e0: 2bfd 8dbc 9fa0 17bd 626a 14bd f06d 25bc
000000f0: e5f2 9d3b 00e7 333c 80dd d6bc 498a 1dbc
00000100: 8dab be3c ba1a 643b b67f 01bd 4314 f1bb
00000110: 4470 bdbc bb8c 50bc 1126 e739 09c8 1abd
00000120: 8d06 c6bc fe81 05bc ad8f 0cbd c07f b6bc
00000130: 9364 1fbd e33c 7abb a73e a53c ab7e 8abc
00000140: 9230 1ebc 45dc f13b 9f33 04bb 7788 1cba
00000150: 6df1 9339 5c41 093c 9ccc 5ebb 8de5 6a3c
00000160: aa04 873a 58aa 83b9 aca7 80bc d0e9 7abc
00000170: 46c8 e6bb 6d42 5cbd 4f50 91bc 2aed c83b
00000180: fd28 223c 4a3c 1e3c fcdf a3bc c932 87bb
00000190: 6875 8cbb 60c9 f43b 07dd 8bbc c5ac 03bd
000001a0: 9b3a a9bb 41be dfbc f7ee 28bb 69a2 a8bc
000001b0: 5965 cebc c835 f03c f21a 93bc f085 48bc
000001c0: c5d9 5abd c45b 3bbc af0a e1bb 75c7 873c
000001d0: 53eb 9c3c e3e6 233b e571 2dbd 54c4 5b3c
000001e0: 9911 a5bc 91f6 a6bb 20dc c0bc 40ab b7bc
000001f0: 2caa e23b 8db0 2ebd 12b1 d6bc 2e2e 17bd
-0.0028742726 0.0014602322 -0.002652501 0.007797653 -0.0026760064 0.004285997 -0.0003276868 -0.010600021
-0.012974272 -0.019192096 -0.006970389 0.0028420324 -0.019701444 0.010875384 -0.0033882868 -0.022871723
-0.018644545 0.010240821 -0.020931454 0.020977637 -0.0013490451 0.0048066373 -0.0034639935 -0.02078612
-0.02774517 0.014982774 -0.0013666933 -0.029986322 -0.018356308 -0.013342036 -0.008843999 -0.020932931
-0.002909509 -0.03911936 -0.02813501 0.012610662 -0.0034016084 0.0052185017 -0.029445497 0.004151312
-0.02506352 -0.024648542 -0.024431111 -0.02586563 0.01029796 -0.0076405783 -0.013064601 -0.00037050055
-0.037424225 -0.019241722 0.0059089586 -0.0515616 0.0025831098 -0.0166241 0.00030905605 -0.0067628883
-0.017332634 -0.037018415 -0.036234267 -0.010097012 0.004820215 0.010980368 -0.026228666 -0.009615489
0.023275161 0.003480597 -0.031615935 -0.0073571517 -0.023124821 -0.012728865 0.00044088115 -0.037788425
-0.024173046 -0.008148668 -0.034316707 -0.022277713 -0.038914274 -0.0038183264 0.020171477 -0.016906103
-0.009655135 0.0073809945 -0.002017237 -0.00059712626 0.000282179 0.008377399 -0.0033996468 0.014336956
0.0010301073 -0.00025113183 -0.015704952 -0.015314534 -0.0070429174 -0.053774286 -0.01773849 0.006131788
0.009897468 0.009657929 -0.020004265 -0.004125927 -0.004286457 0.007470295 -0.017073167 -0.032147188
-0.005164457 -0.0273124 -0.00257772 -0.020585256 -0.02519481 0.02932252 -0.017957184 -0.012238964
-0.053430337 -0.011435453 -0.0068677287 0.0165746 0.01915518 0.0025009445 -0.042344946 0.0134135075
-0.020149993 -0.005095311 -0.023542464 -0.022420526 0.0069172587 -0.04264884 -0.02620748 -0.036909275

network_body._body_endoder.seq_layers.2.weight f4 [128, 128]
00000000: 983b 463b d190 21be db9c 8fbd 9443 cf3b
00000010: bf95 78bc 5202 f93c b3a8 15bd 29f3 c3bd
00000020: 82e5 03be f62c b23d 60c5 153c 92c5 af3c
00000030: fa01 8d3d aed8 3cbd b264 acbc ab85 a4bd
00000040: 2490 eebb 1d0d 23be 078f c3bd b33a 6abd
00000050: 8078 2cbe 1d0b 58bd 8c8f 37bd f5ae 9ebc
00000060: 8ef2 ad3c a916 4ebc d0e7 423d 43f6 333c
00000070: a89d 163e cc6b 0dbe a8e4 a93d 8f36 adbc
00000080: e0b4 2c3c 18e4 63bc 6753 8bbd 7a42 ea3d
00000090: 399b 673e be6b 863c f207 f13d 1502 2e3e
000000a0: d089 ccbd 9118 c53d aed7 ddbd de7e 2d3d
000000b0: f471 fa3c e6b2 f33d 5561 243e ee2c efbd
000000c0: eab8 b63c f52d ee3d 581c edbd 6cfc 7d3d
000000d0: 687b a7bd 2261 2ebd d2a1 88bd d342 29be
000000e0: c194 363d 6fed 49be 8587 42bd 5ced 85bd
000000f0: 3815 e8bd 9027 193c e283 95bd aeb3 d3bd
00000100: 9c7d e8bb 3960 c8bc 638b 3abc 2e58 5e3d
00000110: fda4 afbd 1dad 7abd b7a1 1c3d 5da2 59bc
00000120: 920b 5a3c 4200 113d b498 6ebd f4f8 56bc
00000130: 7057 9d3d 08e4 67bd 59f4 893c f5d4 36be
00000140: 199d 7abd e950 8f3d 2455 27bd 8a26 af3d
00000150: 3057 88bb e1e3 55bd 4629 66bc f4ec 12bd
00000160: ace2 993d 1287 cb3d 8940 db3d 73cb 17be
00000170: 3548 9fbd 4b29 c3bc b5c9 433d 37bc 79bd
00000180: 2f25 a6bd f369 043d 3f55 563c 3680 32be
00000190: 25ef dc3c dde5 a73c b17e 803d b8b8 173c
000001a0: 698a a8bd 9102 863c d441 09be 4727 cf3d
000001b0: 4be5 d43c e888 cdbc 0b85 063d 7cf9 dcbc
000001c0: 27e3 e4bd 9e9e d13d af90 9f3d 416d 76bd
000001d0: 806d b1bc d455 313d 2d8b 913c ea5d 62bd
000001e0: 8b0f 39bd 3314 04bd 49bb c03a 7ece d63d
000001f0: cd0e c63d 588d a1bc b1b4 a5bd 2014 b0bd
00000200: a59f 8a3c 6469 5ebd 4a87 27bd f42f 28bc
00000210: 8228 e63c 8b4a d6bd 3cd9 12bd f9a0 bb3d
00000220: 44d1 223d 8fb8 253d c34d 70bd db4f 333d
00000230: 1b72 5cbd c980 4e3d a4d0 68be b35e e4bc
00000240: e8e2 063e 3548 643e 4785 2b3c 8414 1f3d
00000250: ba20 38be 4437 0b3e d616 cb3c a0c4 8ebc
00000260: 30d5 3dbd 97ff 1abe 7af5 c33d b223 8bbd
00000270: 0d49 adbd 4161 053d bcf1 9b3d 9108 13bd
00000280: ecb7 bc3d 8732 7dbc 6a1b 1ebe 67d0 693d
00000290: 1cc7 00be b6ff 7a3d b70b 8fbd c2cf 853c
000002a0: eb3a 163e 4a80 803a aff4 fdbc 4871 fbbc
000002b0: 7191 883d 2561 14bd e493 afbd f269 6ebe
000002c0: f635 ecbd 4e54 d3bd 9e4f 6a3d 863a 86bc
000002d0: 9f8f eabc 4257 32bd 756d d8bd a37c 3d3a
000002e0: cf40 103e 72a8 abbd e14c c8bd af2e e7bd
000002f0: 8c89 61be 20e0 ab3d 0fb1 91bd 21b2 40bd
00000300: 6d33 883d 5b13 a2bd 1780 d23d f569 c73c
00000310: fd0b 8ebc cf05 2cbd e949 8fbd 169d cebc
00000320: 6c48 f4bd db5e 383d 2414 9b3d b4aa 453c
00000330: ca89 c5bd 4ec9 cfbd 60a2 4fbd 033e 7a3d
00000340: 7341 053c f2f7 8cbc b758 963d 5117 29be
00000350: 8c84 263d 8ef4 033d 722e c73d 9c5d 0dbd
00000360: 5653 7f3d 904d 26be 92f9 323d a517 f9bb
00000370: 784a 583d c341 e13d 18a5 bb3c 7246 aabd
00000380: 9766 c8bb ec63 61bd 5af4 363c 9029 113e
00000390: f7c3 503d c054 cd3c 25b5 f6bc b58e 42bc
000003a0: a120 0b3d b76c b43d bcd5 95bc bf75 243e
000003b0: 84c5 5f3d 58cc e83c 03f4 85bd 7c28 543e
000003c0: 11b0 93bd 3c22 473e dd9b 06bd 12df f43c
000003d0: bc6a d2bb eed0 e5bd e6da e5bc 5c3d 913d
000003e0: 09bd 98bd edae 02bd 15ae 2d3e 18bb e73d
000003f0: 8029 8fbd 12f4 b43d 9762 133e 8097 433d
0.0030247923 -0.157779 -0.0701234 0.0063251946 -0.015172421 0.030396614 -0.036537837 -0.095678635
-0.12880519 0.08699982 0.009141296 0.021456514 0.068851426 -0.04610508 -0.021044109 -0.08033308
-0.0072803665 -0.15922971 -0.09548765 -0.057184886 -0.16842842 -0.052744973 -0.04481463 -0.019370535
0.021233823 -0.012578645 0.047584355 0.010984006 0.14708579 -0.13810652 0.08295566 -0.02114418
0.010541171 -0.013909362 -0.06803017 0.11438461 0.22617806 0.016408797 0.117690936 0.16992982
-0.09987223 0.09623826 -0.10832153 0.042357318 0.030571915 0.118993565 0.16052754 -0.116784915
0.02230497 0.11629859 -0.11577672 0.062008306 -0.08177835 -0.0425731 -0.0667149 -0.16529398
0.044575457 -0.1971948 -0.047492523 -0.06539413 -0.11332172 0.009347811 -0.07300545 -0.103370056
-0.007095052 -0.024459945 -0.011385771 0.054283313 -0.08576391 -0.06120025 0.03824016 -0.013283339
0.013308423 0.035400636 -0.058251098 -0.0131208785 0.07682693 -0.056613952 0.016840147 -0.17854674
-0.061184976 0.06997854 -0.04085268 0.085522726 -0.004160784 -0.052219275 -0.014047926 -0.035870507
0.07513937 0.09937872 0.107056685 -0.14823703 -0.07777444 -0.023823401 0.047799785 -0.06097051
-0.08112561 0.032327604 0.013081848 -0.17431721 0.026969502 0.02049535 0.062741645 0.009260349
-0.08229525 0.016358646 -0.13404018 0.101149134 0.025988242 -0.025089696 0.032841723 -0.026974432
-0.11176138 0.10235332 0.07791268 -0.060162786 -0.021658659 0.043294743 0.01776656 -0.055265345
-0.04518084 -0.032245826 0.0014704253 0.10488604 0.09670792 -0.019720718 -0.08091105 -0.085975885
0.016921828 -0.054299727 -0.040900506 -0.010265339 0.028095488 -0.10463437 -0.035851702 0.091615625
0.039750353 0.040459212 -0.05866791 0.043777328 -0.053819757 0.050415788 -0.2273584 -0.027877187
0.13172495 0.2229317 0.0104687875 0.038837925 -0.17981234 0.13595301 0.024791162 -0.017427742
-0.04634589 -0.15136562 0.09568305 -0.06793918 -0.08461199 0.03256345 0.076144665 -0.03589684
0.09214768 -0.015453941 -0.15440145 0.057083514 -0.12575954 0.06127902 -0.06984656 0.016334418
0.14670913 0.0009803858 -0.031000463 -0.030693665 0.06668366 -0.036225457 -0.0857313 -0.23282602
-0.1153373 -0.10318814 0.057204835 -0.016385328 -0.028632937 -0.043540247 -0.10567752 0.000722835
0.14087223 -0.08381738 -0.097802885 -0.11288201 -0.22025126 0.08392358 -0.07113849 -0.047044877
0.06650434 -0.07913848 0.102783374 0.024342516 -0.0173397 -0.041997727 -0.06996519 -0.025221389
-0.11927876 0.045012336 0.07572201 0.012064625 -0.09645422 -0.10145818 -0.050691962 0.061094295
0.00813328 -0.017208073 0.0734114 -0.16512801 0.04065375 0.032215647 0.097256556 -0.0345131
0.062335335 -0.16240525 0.04369504 -0.0076016956 0.052805394 0.10998871 0.022905871 -0.083142176
-0.0061157453 -0.055026934 0.011166656 0.14176011 0.050968137 0.025064826 -0.030115673 -0.011874844
0.033966664 0.08809798 -0.018290393 0.16060542 0.054631725 0.028417751 -0.06540682 0.20718569
-0.072113164 0.19446653 -0.032863487 0.029891524 -0.006421415 -0.11221491 -0.02805848 0.070917815
-0.074579306 -0.031905103 0.16960938 0.11314982 -0.06990337 0.08835615 0.14393078 0.047751904

network_body._body_endoder.seq_layers.2.bias f4 [128]
00000000: 42f2 5ebc e0a0 1dbc 54ac 19bc 5d09 43bc
00000010: a6aa 8bbc 12b0 87bc bb1b d3bb d8f7 3dbc
00000020: 8483 02bd 8970 39bb 5313 fcbb ebde eabc
00000030: ce88 fabb b79c 73bc df9c 5dbb f15d a1bc
00000040: 4104 c4bc 87bf bdbc 2ec4 af3b c3b1 bebc
00000050: 020f 62bc 81ec 32bc b286 f0bb da03 2bbd
00000060: ea03 01bd eec8 42bc 2010 d1bc 1814 58bc
00000070: 7960 dcbc 5665 2cbc 2079 7dbc 811f 06bc
00000080: 1f5c dfbc 1b22 2ebd 5dfe 0cbd 5cd1 83bc
00000090: 35b5 0fbd e89f abbc 44e3 3bbc 1a85 0e3a
000000a0: b774 90bc 8e83 8f3c 662d 93ba 3409 d2bc
000000b0: 83ff 69bb 4d54 02bd cb7a 99bc f403 74bc
000000c0: 83e7 193c e697 f23c 4376 69bc b40b d7bb
000000d0: 2c51 27bc 2842 cbbc e88f 25bc 7298 5ebc
000000e0: 6a02 e53c 13d8 bdbc ba60 78bc b72b 90bc
000000f0: 802e 8ebc 8da1 0ebc fe13 8ebc ab6c b6bc
00000100: ba0a b43b 6eb9 ecbb dba7 05bc 9b89 ae3c
00000110: a5dd efbc 00f3 cdbc c30e 97bc de49 0fbc
00000120: 7673 72bc 3936 093c 999e 91bc 0fec c8bc
00000130: dfc3 0cbb 957f b3bc 46eb eebb 7d9a a4b9
00000140: a086 0ebc a454 5abb 0ca2 b3bc 0133 e13a
00000150: 17f8 a1bc 2ae0 8cbc 7ae7 b4bc 3cbc 30bb
00000160: cdea 143c 771e 95bc c65a 88bc 86e3 1ebc
00000170: 5971 2bbc 506f c4bc 8c8e e7bb 535d 5fbc
00000180: d2dd 14bc 2cf6 b9bc dfd6 f2bc 2fe7 6ebc
00000190: 4b21 b4bc 3ea5 5abb fba4 76ba 50eb 97bb
000001a0: 7678 6cbc 14ae 5abc 7297 3bbc 3119 b6bc
000001b0: c56a 25bd 4eea 9abb da7c d63c ce01 05bc
000001c0: b6f7 65bc 0b28 8439 07d9 0dbd ff04 cd3b
000001d0: 4925 eebc 915f 51bb bab7 29bc 5275 85bc
000001e0: 2432 a73b 33d8 93bc 6c94 58ba 8a8c 81bc
000001f0: e79a 7bbc 037a 18bc 6e9c ba37 d66f b4bc
-0.013607563 -0.009620875 -0.009379465 -0.011904088 -0.017049145 -0.016563449 -0.0064425147 -0.011594735
-0.031863704 -0.0028295836 -0.0076927333 -0.028670749 -0.007645703 -0.014868907 -0.0033815426 -0.019698115
-0.02392781 -0.023162616 0.0053639626 -0.023278123 -0.013797523 -0.010920645 -0.0073402757 -0.04175172
-0.031497873 -0.011888726 -0.025520384 -0.0131883845 -0.02690147 -0.010522207 -0.015470773 -0.008186222
-0.027265606 -0.042512994 -0.034422267 -0.016091041 -0.035084922 -0.020950273 -0.011467759 0.0005436704
-0.017633779 0.017518785 -0.001122874 -0.025639154 -0.0035705275 -0.031818677 -0.01873531 -0.014893521
0.009393576 0.029613446 -0.014249387 -0.0065626744 -0.010212224 -0.02481182 -0.010105111 -0.0135861505
0.027955253 -0.023174321 -0.01515978 -0.01759897 -0.017356157 -0.008705509 -0.017343517 -0.022268614
0.005494443 -0.0072242534 -0.008157696 0.02130585 -0.029280493 -0.025140285 -0.018439656 -0.008745639
-0.014798036 0.008374744 -0.01777582 -0.024526624 -0.0021479053 -0.021911422 -0.0072912304 -0.0003139562
-0.008699089 -0.003331461 -0.021927856 0.0017181338 -0.019771619 -0.017196734 -0.022083033 -0.0026967665
0.009089184 -0.018203003 -0.016644847 -0.0096978005 -0.010464036 -0.02397886 -0.0070665535 -0.01363309
-0.009086089 -0.022700392 -0.029643474 -0.014581486 -0.021988532 -0.0033362652 -0.0009408739 -0.0046362057
-0.014433017 -0.0133471675 -0.011449682 -0.02222881 -0.040385026 -0.0047276383 0.02618258 -0.008118106
-0.01403611 0.00025206836 -0.0346308 0.006256699 -0.029070513 -0.003194783 -0.010358745 -0.016291294
0.005102413 -0.018047428 -0.00082618627 -0.015814085 -0.015356756 -0.009306434 2.2245771e-05 -0.022025984

action_model._continuous_distribution.log_sigma f4 [1, 2]
00000000: f29f 43bc 7ca3 e7bc
-0.011939989 -0.028276198

action_model._continuous_distribution.mu.weight f4 [2, 128]
00000000: b889 4cbc 37d9 44bb 33ab 75bb 7f49 ebbc
00000010: f395 58bc 9f5f 803b 26e6 673c 5ef1 973b
00000020: ea82 7c3a 7d5e 0c3d afef a63c bd66 9eba
00000030: 656c 76bc 9a76 14bc a84e 0b3d 7b8e 943b
00000040: 76cf 9c3b 4388 f8ba 542e fabb 0a6c f43a
00000050: 898e e73b 6882 5abc c907 3a3b 1a87 423a
00000060: 70ac d83c 6c52 b938 0ba4 a4bc 43a2 7bbb
00000070: a846 463c 59cc e7ba a978 c6bb 817f b93a
00000080: 7c22 69bc 80dd a6ba cbaf 56b9 4fc8 2fbc
00000090: b2eb f33b 899f a63a 4d9c 3e3c 2750 203c
000000a0: 6313 6f3b c48e 483c fd9c ebbc a5ac 05bb
000000b0: d90a 973c 065f 043c 1925 663b ed70 b1bb
000000c0: 7999 fcbc fe8c 7ebd cfd9 34bc 70c9 88bc
000000d0: 0cce 77bc 4407 1aba d907 c23b 6d05 933b
000000e0: 6082 9d3b e65b 6b3b 813d 2a3c 464e 143c
000000f0: 0487 20ba 3a1e c3bb cd37 5ebc 763a 643a
00000100: e134 fbbc d516 103a 5c61 02bc 6540 cc3c
00000110: a5f8 5d3b 862c 463b 80f0 d4b9 7bac c03c
00000120: f633 873b 0586 8d3c 7a49 1cbc d7b8 ffbb
00000130: b306 cebb 9775 54bb c140 b4bc b417 99bc
00000140: 33a6 6c3c 23aa b4bb 2fe7 ab3b 0cad 753c
00000150: 5ac2 223b 0981 17bb 2913 083d 8dfd f03c
00000160: fcb0 44bd 0c32 b13a f8ac 1dbc b88d 43bc
00000170: 8305 023c 49b3 08bb 70eb 003b c977 dc3b
00000180: fc29 b43b 1ce4 b03a d63c 213b a0f3 94bc
00000190: bd85 5f3b 9ead 7bbc b522 113c 77eb 1b3c
000001a0: fecc 59bb a4b0 be3c 7921 5d3c 81d5 23bc
000001b0: db2a 0039 df53 2abc 3167 5d3c 9d85 4f3a
000001c0: 5cef 693c a32d 833c 0748 2039 d1ec e5bc
000001d0: ea06 873c c919 873c 92a0 6bbc b425 583c
000001e0: f35d dd3b 6a2d 8fba 94b0 82bc 1d50 debb
000001f0: 5026 84bc f81a fcba cbe7 c1bc 1cbf 0c3c
00000200: 5900 bd3b 0c83 b03c 02c8 7a3c cca9 75ba
00000210: bb5b 6e3a 2cc0 0ebc 99ed 5f3c cf50 bebb
00000220: fe8b acba 223b b43c 510c e7bc dc22 45ba
00000230: bc58 fb3b d414 c63b a867 20bc 4df1 973b
00000240: 0341 9e3c 6fb8 37bb 3a9b 203d c6e1 933a
00000250: 620b 733c ed6e 0a3d 0bb4 163b 2b41 3939
00000260: 7ccc 44bc bc84 67bb 76a6 f13b 6a81 27b6
00000270: 9332 b6bb 4600 b43b 4d71 3d3b e4ec 3a3c
00000280: 91d3 4c3b e9af ecb9 111b bf3b b3a0 ba3c
00000290: 4f15 a03b b9e9 183b 5910 adbc c17b afba
000002a0: 4d7e 113b 9815 89bc 2a7b 793b f7f1 9a3a
000002b0: 2cac 133c dfd5 c8bb 34b7 69b9 c0ee 143a
000002c0: 671d 59bb 4fcd 4b3c 9ef6 b73b d64c 01ba
000002d0: a7b6 8fba 6fbf 04b9 9cb4 7a3c 9ce6 7fbb
000002e0: f2e5 a9bc 9c3d 2fbc c368 903c 83b7 c0b9
000002f0: ffab 1e3c a1e5 a9ba b9aa eb3a fe5c 05ba
00000300: f321 d73b edf6 823c cc22 2b3b fab9 a1bc
00000310: cefb 11bc dd04 7c3a 07c7 b2ba 1865 213c
00000320: 474a 2d3c 6397 bc3b 9bb4 cc3b 9fe6 283b
00000330: ff0a 5e3d 00de d43a e66f faba 0af8 8dbb
00000340: 9cf8 b63c 437a 603c 7610 553c e35d 403c
00000350: 3aa0 30ba cdb6 ff3c e68c 9b3c 4db9 8abb
00000360: 4d84 7cbc 0a54 2e3b 206e 1e3a 7db4 a53b
00000370: 6982 24bc 53bd e93a cabe bebc 2554 553b
00000380: b484 8a3c 9ced 0ebc 77ac 77bb 4d6e 1dbb
00000390: 8b98 83bc 4e1d 313a e0aa 9939 320e 08bc
000003a0: c42c 073c 67b1 49bb ee96 f93a a6ba 33b9
000003b0: e127 ccb9 c7d0 e63b 0bcb a739 844c 8fbb
000003c0: 57bc c13a 0183 8f3c 2580 0ebb 703a a13c
000003d0: 1638 ebbb dc96 a43b 5c22 92bc 4dbd 8dbc
000003e0: 93ab 0dbb 1b50 a43b e07f 0bbc e0e4 44bc
000003f0: 4ddf e73b e497 8d39 17ae 7d3c d2f1 18bb
-0.012484007 -0.0030036697 -0.0037486076 -0.02872157 -0.013219344 0.003917649 0.014153993 0.0046369275
0.0009632545 0.0342698 0.020377962 -0.0012085062 -0.015040492 -0.00906148 0.03401056 0.0045335866
0.0047854735 -0.0018961508 -0.0076349173 0.0018647921 0.007066552 -0.013336755 0.0028385988 0.00074206444
0.026449412 8.83684e-05 -0.020097753 -0.0038396276 0.012101807 -0.0017684802 -0.0060568643 0.0014152379
-0.014229413 -0.0012730807 -0.00020474118 -0.01072891 0.0074438686 0.001271234 0.011633945 0.009784735
0.0036480061 0.012241069 -0.028761381 -0.0020397094 0.01843779 0.008079296 0.0035117327 -0.005415073
-0.0308349 -0.06214618 -0.011038258 -0.016697615 -0.015124809 -0.00058757165 0.0059213457 0.004486731
0.0048068017 0.003591293 0.01039064 0.009051865 -0.00061236345 -0.005954531 -0.013563109 0.0008706221
-0.030664863 0.00054965663 -0.007957783 0.02493305 0.0033870128 0.003023894 -0.00040614977 0.023519745
0.0041260673 0.01727582 -0.009539003 -0.007804017 -0.0062874197 -0.0032418722 -0.022003533 -0.01868806
0.014443922 -0.005513446 0.005246065 0.014994871 0.002483508 -0.0023117682 0.033221398 0.029417777
-0.048020348 0.0013518943 -0.0096237585 -0.011935644 0.007935884 -0.0020858815 0.0019671582 0.0067281467
0.005498169 0.0013495716 0.0024602911 -0.018182576 0.0034106814 -0.015361218 0.008858372 0.009516588
-0.0033233757 0.023277588 0.01349675 -0.009999634 0.00012222996 -0.010395973 0.013513372 0.0007916333
0.014278259 0.016012972 0.00015285621 -0.028067024 0.01648279 0.016491788 -0.014381545 0.013192583
0.0067555844 -0.0010923569 -0.01595334 -0.0067844526 -0.01613155 -0.0019234112 -0.023670098 0.008590486
0.0057678637 0.021546863 0.015306475 -0.000937131 0.00090926484 -0.0087128095 0.013667488 -0.005807973
-0.001316428 0.022000853 -0.028204115 -0.0007520148 0.00767049 0.0060449634 -0.009790339 0.0046369196
0.01931811 -0.0028033515 0.039210536 0.0011282496 0.014834257 0.033797193 0.0022995498 0.00017667252
-0.0120116435 -0.0035326919 0.00737458 -2.4960268e-06 -0.005560228 0.0054931967 0.0028906644 0.011409018
0.0031254033 -0.0004514449 0.005832084 0.022781705 0.0048853527 0.002333267 -0.02112596 -0.0013388322
0.0022200525 -0.01673393 0.0038067796 0.0011821379 0.009013217 -0.006129011 -0.0002228886 0.00056813285
-0.0033129097 0.012439086 0.005614116 -0.0004932409 -0.0010964469 -0.00012659816 0.01530185 -0.0039047366
-0.02073953 -0.010695841 0.01762808 -0.0003675782 0.009684562 -0.0012962112 0.0017979956 -0.0005087404
0.0065653264 0.015986884 0.002611327 -0.019742 -0.008910133 0.0009613762 -0.0013639637 0.009850763
0.010576791 0.0057553514 0.006247116 0.0025772227 0.054209705 0.0016240478 -0.0019106835 -0.004332547
0.022335343 0.013701024 0.013004413 0.011741134 -0.0006737743 0.031215096 0.018988084 -0.0042335154
-0.015412402 0.0026600384 0.00060436316 0.0050569163 -0.010040858 0.0017832912 -0.023284335 0.0032551375
0.01690898 -0.008723643 -0.0037792006 -0.0024022043 -0.01606395 0.0006756381 0.00029309746 -0.008304166
0.008250419 -0.0030775906 0.0019042173 -0.00017140302 -0.00038939624 0.007043931 0.00032004 -0.004373135
0.0014780861 0.017518522 -0.002174386 0.019681185 -0.007178317 0.0050228667 -0.01783865 -0.01730218
-0.0021617159 0.005014432 -0.0085143745 -0.012017459 0.00707618 0.00027006783 0.015483401 -0.0023337496

action_model._continuous_distribution.mu.bias f4 [2]
00000000: 52bc 6cbb 9271 383b
-0.003612299 0.0028143865
