Assets/results/petfollower27/PetFollower.onnx (onnx, 547009 bytes, 11 tensors)

network_body.observation_encoder.processors.0.normalizer.running_mean f4 [11]
-0.025070509 -0.006376902 0.013433542 -0.21712768 0.0 0.1702688 -0.0535741 -0.0009344352
0.031102344 9.998374 0.73808825
00000000: ab60 cdbc 55f5 d0bb 5c18 5c3c b856 5ebe
00000010: 0000 0000 f25a 2e3e 8470 5bbd e2f4 74ba
00000020: 58ca fe3c 57f9 1f41 5af3 3c3f

network_body._body_endoder.seq_layers.0.weight f4 [256, 11]
0.66456723 -0.13490371 -0.00765283 0.20649576 -0.2012676 0.35421532 -0.059950225 0.1154396
0.045724526 0.07600313 -0.033745013 -0.20623943 -0.09474735 0.30520162 0.5043279 -0.23814669
0.10943943 -0.70412964 0.12004362 -0.16832404 -0.174946 0.24466443 -0.34331483 -0.15460262
0.35030344 0.5075907 -0.045378443 -0.46982023 0.19519511 0.22401604 0.049525745 0.4669907
0.11870464 -0.045264695 0.081468545 0.4225965 0.13719094 0.6938032 -0.17762007 0.008733451
0.24223685 0.9359804 0.33512437 0.4009974 0.11486759 -0.56859416 0.17860422 0.27424434
0.21265662 0.12630276 -0.09487602 -0.21396959 0.21070863 -0.13026546 0.14353006 0.6731888
-0.5591277 -0.010675217 -0.3977351 -0.4377479 0.0993419 -0.17985868 -0.15439972 0.34307897
0.36442223 0.25548536 0.30294397 0.60037917 0.20927267 -0.29971623 -0.10309262 0.26691535
-0.03175746 0.09951248 0.22594036 -0.49215472 0.07953954 0.25648835 0.0794921 0.3586254
-0.14661978 0.030068731 0.3291385 -0.33308986 0.61873305 -0.2648404 0.21665236 -0.059124485
-0.015870318 -0.30706078 -0.4027905 -0.45058033 0.21276811 0.17521794 0.12095735 0.3023582
0.24065638 -0.10898113 0.15569092 -0.5612156 -0.059710354 0.12223496 -0.00463978 0.095829576
0.23354769 0.2959191 -0.116571814 0.014905231 -0.008746071 0.28800932 -0.034647044 -0.43279785
0.2345503 0.17476057 0.2888209 -0.10917593 0.008017216 -0.2108963 0.23842911 0.07267969
-0.03919532 -0.35100177 0.17558795 -0.82761586 0.018334512 0.14259194 -0.22191647 -0.089154795
0.3430575 0.40307134 -0.3159107 0.06854159 0.27477086 -0.26536062 -0.047259245 -0.38912275
0.15086639 -0.18660134 0.1593693 -0.11090377 -0.21917553 0.30511987 -0.32661083 0.6045875
-0.5011459 -0.8348382 -0.062450003 -0.27214858 -0.21221076 -0.19387431 -0.12099082 0.21054636
0.12800646 0.3609069 -0.32426292 -0.1423433 0.4893542 -0.50785524 0.27982754 -0.42082807
0.09163395 0.41960832 -0.15898041 -0.3386985 0.20447372 -0.006507872 0.15824246 0.22979055
0.26296365 -0.56794137 0.27062914 -0.20801246 -0.093495145 0.3895373 -0.13447091 0.1751563
-0.40374947 0.046573956 -0.3462499 -0.12593015 0.41786554 0.13901868 -0.37883297 0.20996654
-0.01511591 -0.17928573 -0.51804096 -0.01568669 -0.3709243 -0.28728452 -0.24190539 0.11313582
-0.19725354 0.041111305 0.37651068 0.43295667 0.099704206 0.29155755 0.6239368 0.08280346
0.08715029 0.05604741 0.05831164 0.17117685 -0.17898831 0.102515556 -0.17217119 0.29008612
0.30275545 0.36205828 0.27881014 -0.3593523 -0.24534416 0.04981048 0.44173962 0.25226113
-0.22928855 0.5917018 0.40917674 -0.098595746 0.052789964 0.0922513 -0.43435252 0.59127975
-0.52620226 -0.24433415 0.0099454345 0.34996578 0.09932968 -0.22824179 -0.26399183 -0.47514877
0.099948145 0.5782125 -0.21916358 0.20340337 -0.24380647 -0.50433046 0.2061856 -0.14508802
0.5585949 0.23184021 -0.019114148 -0.4454332 0.2047879 0.31870762 0.66162956 -0.1125855
-0.006331535 -0.32980937 0.16685966 0.37672973 -0.66303146 -0.04469603 -0.8404049 -0.16954866
00000000: 1421 2a3f 3324 0abe 97c4 fabb a073 533e
00000010: 1819 4ebe b65b b53e 5e8e 75bd 996b ec3d
00000020: a449 3b3d 87a7 9b3d 3638 0abd 6e30 53be
00000030: e60a c2bd 6343 9c3e a21b 013f badc 73be
00000040: c821 e03d d741 34bf 6ed9 f53d 235d 2cbe
00000050: 0b25 33be 5089 7a3e f6c6 afbe 2650 1ebe
00000060: f95a b33e 77f1 013f bfde 39bd 478c f0be
00000070: 3ae1 473e 7664 653e 82db 4a3d 6819 ef3e
00000080: 6b1b f33d 7967 39bd fbd8 a63d 925e d83e
00000090: c87b 0c3e 169d 313f 09e2 35be c016 0f3c
000000a0: f00c 783e 699c 6f3f 6c95 ab3e 884f cd3e
000000b0: b33f eb3d 638f 11bf 06e4 363e c169 8c3e
000000c0: a8c2 593e 8355 013e 5c4e c2bd d81a 5bbe
000000d0: 01c4 573e 4f64 05be 8bf9 123e 1a56 2c3f
000000e0: fe22 0fbf 1be7 2ebc efa3 cbbe 7e20 e0be
000000f0: c473 cb3d e02c 38be f61a 1ebe 0ca8 af3e
00000100: 8d95 ba3e face 823e 791b 9b3e 73b2 193f
00000110: 934b 563e 6874 99be 3922 d3bd 21a9 883e
00000120: 1c14 02bd 33cd cb3d e95c 673e b4fb fbbe
00000130: a0e5 a23d 7152 833e c1cc a23d c09d b73e
00000140: 7f23 16be b352 f63c d784 a83e c18a aabe
00000150: 4a65 1e3f 2999 87be 1eda 5d3e 842c 72bd
00000160: 7802 82bc 1237 9dbe 8e3a cebe 77b2 e6be
00000170: e2df 593e 556c 333e 7db8 f73d b2ce 9a3e
00000180: a06e 763e 8031 dfbd 716d 1f3e d3ab 0fbf
00000190: d892 74bd 5356 fa3d 4c09 98bb 4c42 c43d
000001a0: 2027 6f3e b582 973e 34bd eebd 1235 743c
000001b0: ae4b 0fbc f575 933e 0fea 0dbd ae97 ddbe
000001c0: f42d 703e 6ff4 323e 55e0 933e a197 dfbd
000001d0: a45a 033c 33f5 57be c326 743e 17d9 943d
000001e0: 468b 20bd 81b6 b3be 54cd 333e a2de 53bf
000001f0: 4232 963c 9f03 123e 123e 63be ca96 b6bd
00000200: 3ca5 af3e 5e5f ce3e 0cbf a1be 885f 8c3d
00000210: c4ae 8c3e 59dd 87be e992 41bd 193b c7be
00000220: b87c 1a3e 6c14 3fbe b531 233e 8421 e3bd
00000230: 8d6f 60be ac38 9c3e 8939 a7be 3fc6 1a3f
00000240: 194b 00bf f5b7 55bf 93cb 7fbd 0f57 8bbe
00000250: c74d 59be fd86 46be 09ca f7bd 7799 573e
00000260: 2014 033e cac8 b83e ca05 a6be 71c2 11be
00000270: a28c fa3e cd02 02bf 8e45 8f3e c776 d7be
00000280: 95aa bb3d e7d6 d63e c3cb 22be e469 adbe
00000290: 8f61 513e fd3f d5bb 500a 223e 374e 6b3e
000002a0: 2ca3 863e 9b64 11bf e78f 8a3e 3801 55be
000002b0: 627a bfbd 6f71 c73e beb2 09be 2c5c 333e
000002c0: 40b8 cebe 55c4 3e3d ab47 b1be d5f3 00be
000002d0: 79f2 d53e ea5a 0e3e 65f6 c1be 7801 573e
000002e0: b9a8 77bc ae96 37be 559e 04bf 6081 80bc
000002f0: cae9 bdbe f516 93be 0cb6 77be c1b3 e73d
00000300: d5fc 49be 5464 283d 02c6 c03e 7fac dd3e
00000310: b831 cc3d 0847 953e 52ba 1f3f dc94 a93d
00000320: da7b b23d f891 653d 30d8 6e3d fc48 2f3e
00000330: b648 37be adf3 d13d a54d 30be 2b86 943e
00000340: c302 9b3e b45f b93e 34c0 8e3e 06fd b7be
00000350: 803b 7bbe 1306 4c3d b22b e23e 5f28 813e
00000360: 9eca 6abe c579 173f 9d7f d13e 91ec c9bd
00000370: 4a3a 583d 40ee bc3d 7463 debe 1c5e 173f
00000380: 31b5 06bf bb32 7abe 2df2 223c b72e b33e
00000390: 5c6d cb3d 37b8 69be f029 87be b346 f3be
000003a0: 9db1 cc3d bc05 143f 6b6c 60be f948 503e
000003b0: 67a8 79be cd1b 01bf 5122 533e f491 14be
000003c0: 1300 0f3f 8567 6d3e 4695 9cbc d20f e4be
000003d0: ebb3 513e a52d a33e 8e60 293f 3a93 e6bd
000003e0: c478 cfbb c6dc a8be 42dd 2a3e b8e2 c03e
000003f0: 6ebc 29bf 2f13 37bd c724 57bf 2a9e 2dbe

network_body._body_endoder.seq_layers.0.bias f4 [256]
-0.013662134 0.026146976 0.013692166 -0.0021486818 -0.0148961395 0.004339038 0.02224091 0.009790502
-0.0012533403 0.044046637 0.010263927 0.024314156 -0.005273751 0.002357657 0.015520099 0.03569219
-0.00028927956 -0.015608303 0.0052945535 0.006252836 0.0018997326 0.011888921 -0.02270433 -0.024175582
0.001971006 0.004437994 0.0122399395 0.031319067 0.019856228 0.025839085 0.011461282 -0.011290337
0.025831668 -0.014819074 -0.007731032 0.01365754 -0.011017946 -0.014673974 -0.010887831 0.004922174
0.021704774 0.012506175 0.0064090523 0.0015011771 -0.0063152337 -0.013804897 -0.025774758 0.02520345
0.01670135 0.002583853 0.036739357 -0.019570865 0.0028239961 -0.0094504785 0.0024960318 0.008548151
0.0073611243 0.0073345983 -0.009584981 0.03774901 0.031937085 0.0112529555 -0.0072583607 0.004858385
0.0196736 0.010447179 0.02677993 0.012406649 0.029829066 -0.0039112195 -0.0061876155 0.007565627
0.05665543 0.014070523 -0.0007105977 0.0075725075 0.023028955 0.0007892622 -0.009259189 0.020577172
-0.0030260212 0.006636232 -0.0060978886 0.029019283 -0.0039861714 0.016349996 0.030369362 0.037929866
0.022221219 0.018333813 0.031305 0.022239016 0.014547615 0.0067725815 -0.010943044 -0.01040618
0.02071516 -0.009310485 -0.024614878 -0.04090982 0.03696028 0.015105054 0.0063230246 -0.013371912
0.0079429 0.0042945785 -0.019394392 -0.02091336 0.018579194 0.005876295 -0.01076293 0.012385406
-0.018835189 -0.019052332 0.01288113 0.021815458 0.022316774 0.041895203 -0.0245126 -0.014735945
0.012971938 0.017394535 0.025415605 0.011738303 -0.007611112 -0.010070975 -0.006485742 -0.010275432
-0.0055475812 0.027630921 -0.0289164 -0.008174937 0.007358758 0.0053358385 -0.0014086897 -0.004554424
-0.0068279025 0.024132207 0.005050033 -0.013145029 0.03652754 0.011480372 0.026885465 0.013650656
0.0024618413 -0.016213756 0.001908558 -0.025055727 0.017827405 0.0050062053 -0.004530945 0.00477331
0.017207695 0.01844886 0.009616131 0.027557692 0.02018318 0.007981885 0.035593677 0.013141414
-0.0002089983 0.0038173045 0.008680733 0.00683098 -0.005990524 0.012706901 -0.012172902 0.03072567
-0.013753514 -0.029345924 -0.014089209 0.020644324 0.012440369 0.019431822 -0.009267843 0.008306704
0.011174795 0.02375256 0.010294247 0.025139658 -0.012732134 0.0055944924 0.016358731 0.008425015
0.011845879 -0.0019553038 0.0028691816 0.006691776 0.0030780185 -0.018465973 0.024703328 0.028405972
4.3268552e-05 -0.0052094897 -0.00049633277 0.011835395 -0.0036102699 0.016482571 0.010921702 0.0027654981
0.02146104 -0.018163227 0.016035544 0.009662929 0.007992741 -0.0011995989 0.01914657 -0.026568612
-0.041839834 -0.0008278948 0.0076837395 0.016635586 0.022574337 0.0013870401 0.011907645 -0.010647852
-0.02401077 -0.02281808 0.01893263 0.020132825 -0.02813409 0.004602797 0.009555717 -0.02242835
0.015326709 0.0137151955 0.017187271 0.0063377493 0.007897141 -0.02429037 0.0073059117 0.0036154545
-0.008006899 0.0102455495 -0.012371959 0.024859058 -0.02295331 0.04907378 0.01406986 -0.0021250502
0.0018183505 0.028368805 -0.037152145 0.0038478435 0.011244766 -0.02323006 -0.02529839 0.013723561
-0.0007119594 0.034617852 -0.022028778 -0.022009889 -0.0039433837 0.024171978 -0.012847286 0.017277103
00000000: 25d7 5fbc 2f32 d63c 1b55 603c e6d0 0cbb
00000010: f00e 74bc 7d2e 8e3b 9232 b63c 5768 203c
00000020: 1f47 a4ba 3f6a 343d 082a 283c 7b2e c73c
00000030: 6ecf acbb ec82 1a3b 0348 7e3c f931 123d
00000040: 72aa 97b9 f8b9 7fbc ef7d ad3b 97e4 cc3b
00000050: 7300 f93a c0c9 423c 6efe b9bc df0b c6bc
00000060: fe2b 013b 986c 913b 078a 483c 6c48 003d
00000070: 87a9 a23c 7dac d33c 1ac8 3b3c 1bfb 38bc
00000080: ef9c d33c b4cb 72bc 9954 fdbb e0c3 5f3c
00000090: 9d84 34bc 1c6b 70bc e062 32bc 304a a13b
000000a0: 36ce b13c b3e6 4c3c 0703 d23b 25c3 c43a
000000b0: 05f0 cebb ef2d 62bc 9625 d3bc 7777 ce3c
000000c0: 45d1 883c dc55 293b 027c 163d 1453 a0bc
000000d0: cb12 393b 2ed6 1abc 7794 233b 8b0d 0c3c
000000e0: 9635 f13b 1257 f03b 530a 1dbc b59e 1a3d
000000f0: 76d0 023d 515e 383c 8bd7 edbb 1633 9f3b
00000100: 882a a13c a52a 2b3c 9561 db3c 4245 4b3c
00000110: 165c f43c b029 80bb 7bc1 cabb 14e9 f73b
00000120: 860f 683d 0d88 663c 6847 3aba cc22 f83b
00000130: 38a7 bc3c 7de6 4e3a dab3 17bc 7591 a83c
00000140: 3650 46bb c074 d93b ccd0 c7bb d9b9 ed3c
00000150: 6e9e 82bb 6df0 853c 2bc9 f83c 595c 1b3d
00000160: 4609 b63c cb30 963c ac39 003d 992e b63c
00000170: 1f59 6e3c 88ec dd3b 744a 33bc af7e 2abc
00000180: d7b2 a93c 018b 18bc 24a5 c9bc 0e91 27bd
00000190: aa63 173d 307b 773c 6031 cf3b dd15 5bbc
000001a0: f022 023c 89b9 8c3b fde0 9ebc 7f52 abbc
000001b0: 6533 983c ef8d c03b 0057 30bc 28ec 4a3c
000001c0: 414c 9abc a313 9cbc 600b 533c 55b6 b23c
000001d0: abd1 b63c 4e9a 2b3d a6ce c8bc 086f 71bc
000001e0: 4088 543c fc7e 8e3c 6334 d03c 0352 403c
000001f0: a366 f9bb bb00 25bc 5986 d4bb 495a 28bc
00000200: 7cc8 b5bb 3e5a e23c 16e2 ecbc 2cf0 05bc
00000210: bc21 f13b 42d8 ae3b c8a3 b8ba 473d 95bb
00000220: 99bc dfbb e8b0 c53c bf7a a53b 3f5e 57bc
00000230: e79d 153d 2c18 3c3c e83e dc3c 00a7 5f3c
00000240: d856 213b b6d2 84bc 9428 fa3a ab41 cdbc
00000250: c70a 923c 180b a43b 5278 94bb 6d69 9c3b
00000260: 27f7 8c3c 1022 973c fa8c 1d3c abc0 e13c
00000270: 3257 a53c 74c6 023c adca 113d 164f 573c
00000280: 8e26 5bb9 be2b 7a3b a239 0e3c 6ad6 df3b
00000290: 284c c4bb 9b30 503c da70 47bc 66b4 fb3c
000002a0: 6b56 61bc dd66 f0bc 6dd6 66bc 491e a93c
000002b0: b1d2 4b3c 7c2f 9f3c 27d8 17bc d818 083c
000002c0: 7d16 373c bb94 c23c 34a9 283c aff1 cd3c
000002d0: 719a 50bc 0152 b73b bf02 863c 1309 0a3c
000002e0: 3815 423c 8e24 00bb e108 3c3b b046 db3b
000002f0: 95b8 493b f445 97bc a25e ca3c a4b3 e83c
00000300: 417b 3538 5eb4 aabb 541c 02ba 3fe9 413c
00000310: 479a 6cbb 7506 873c f0f0 323c 5c3d 353b
00000320: 10cf af3c 0ccb 94bc f95c 833c 4351 1e3c
00000330: fcf3 023c dc3b 9dba 44d9 9c3c 6ba6 d9bc
00000340: 3f60 2bbd 1407 59ba e1c7 fb3b 5a47 883c
00000350: d1ed b83c 58cd b53a 4818 433c 5474 2ebc
00000360: 3cb2 c4bc fbec babc 9a18 9b3c 98ed a43c
00000370: 7779 e6bc 0fd3 963b 958f 1c3c a9bb b7bc
00000380: e01c 7b3c b3b5 603c 52cc 8c3c e5ac cf3b
00000390: 0363 013c 99fc c6bc 6e66 ef3b 43f1 6c3b
000003a0: 5e2f 03bc f3dc 273c c2b3 4abc 39a5 cb3c
000003b0: 9408 bcbc 9701 493d 4585 663c 6d44 0bbb
000003c0: b855 ee3a b265 e83c d92c 18bd 1a2c 7c3b
000003d0: f83b 383c f74c bebc 923e cfbc c9d8 603c
000003e0: c9a2 3aba 73cb 0d3d b275 b4bc 154e b4bc
000003f0: 8037 81bb 5004 c63c 6c7d 52bc b688 8d3c

network_body._body_endoder.seq_layers.2.weight f4 [256, 256]
-0.013890627 0.10700652 0.09174073 0.075910166 0.0033518514 -0.03571451 0.17647535 0.03187673
-0.04247634 0.01324813 -0.029071117 -0.0071525592 -0.0016104387 0.019498277 0.044263385 0.035302166
0.025531894 0.037346855 -0.018835073 -0.08936963 -0.025517732 0.052489292 -0.035385318 0.019984102
-0.07638694 0.013245705 0.08951516 -0.040265273 -0.031543963 -0.016996847 0.03773456 0.035952818
0.04117894 -0.14704584 -0.14334281 -0.023415511 -0.02135962 -0.032867584 0.017326007 0.069604345
-0.0068478994 -0.021661676 0.1454906 -0.05152996 0.07860792 -0.05125775 0.065247886 -0.036974385
-0.046960138 0.046935022 -0.002230657 0.01238777 -0.08946098 0.0065597207 -0.022250056 -0.060726948
0.001905821 -0.00044434925 -0.010602766 0.07866487 -0.005763178 0.006557011 -0.0029264065 -0.0018185513
-0.0751208 0.0010473557 -0.058736607 -0.07945074 0.01244342 -0.0528909 -0.057072423 -0.010706284
0.06641729 -0.16065373 -0.036212005 0.020587463 -0.049508095 0.004756342 -0.100853264 0.074876614
-0.018867744 -0.034339197 0.06895104 0.04686608 -0.068751715 -0.14046586 0.05488547 0.08976343
0.10091337 0.1339914 -0.034342125 0.0152602885 0.037610833 0.09458911 -0.04081917 0.04087154
0.120845765 0.013503882 0.0186664 -0.10098711 0.06383496 0.124489 0.094767995 0.019199518
-0.011040046 -0.046255384 -0.063579135 0.09135659 0.104556985 0.028182846 -0.0021745018 0.04383262
-0.10592695 -0.08933756 0.021191869 0.040906876 0.03415942 -0.0058049415 -0.016906118 -0.03911384
-0.033402044 0.047902722 0.120558694 0.0341069 0.10005828 -0.07241624 0.03012935 -0.04933542
0.049115952 0.12930435 -0.007709867 -0.024564452 -0.005315016 0.057595864 -0.06309984 -0.13755761
-0.00012584821 -0.03912892 0.033928473 -0.09155893 -0.040114954 0.15367554 -0.10525338 0.05832944
-0.024189696 0.097216696 0.023219917 0.0060030734 0.06676181 0.06527885 -0.037292924 -0.01861011
0.021717891 0.030596383 -0.016915455 -0.06480265 -0.038620047 0.05138079 0.054271426 -0.040666092
-0.0050958707 -0.03446047 -0.044020418 0.10256474 -0.0065142107 0.028189287 -0.12995473 0.06164844
0.01332115 0.052241802 0.029218478 -0.066507176 0.16961315 0.019162994 0.1380536 0.09263329
-0.025822742 0.10771759 0.15750779 -0.061564825 -0.0070915464 0.04190467 -0.036314018 -0.05656221
-0.075461775 -0.010767461 -0.029368024 -0.00094998203 -0.024692433 -0.08497357 0.12925927 0.02354322
-0.001220644 -0.13268958 0.042967036 0.055819925 0.06807974 -0.08245663 0.104257666 0.07706765
-0.012833971 -0.018731799 -0.07634429 0.122387044 -0.027416991 -0.119411655 0.079598345 0.009264851
0.020356689 0.06467523 0.000641764 -0.03518693 0.1189314 -0.061828803 0.04990688 -0.026485594
-0.11573385 0.04267542 -0.06678391 0.08645432 -0.095888734 0.12902501 0.065056965 -0.027627217
-0.0005001616 0.00904952 0.071761265 -0.019294662 0.061658747 -0.0784406 -0.13860036 -0.11224576
0.013207029 -0.017054036 0.07830793 0.029632138 -0.05797897 0.026112255 0.02383725 -0.034796365
-0.08403628 -0.10214083 0.06295292 -0.08130447 -0.0096579855 0.03649723 -0.15212855 -0.054759786
0.029677205 0.056069292 -0.01010776 0.052907314 0.07455536 0.011938015 -0.06308825 0.08912645
00000000: 8395 63bc 3c26 db3d 90e2 bb3d ca76 9b3d
00000010: bcaa 5b3b 6149 12bd f4b5 343e 2d91 023d
00000020: acfb 2dbd af0e 593c 8d26 eebc 0460 eabb
00000030: 5b15 d3ba daba 9f3c 864d 353d 0199 103d
00000040: 4328 d13c 04f9 183d 034c 9abc 6d07 b7bd
00000050: 900a d1bc 03ff 563d 32f0 10bd b3b5 a33c
00000060: c270 9cbd 8304 593c b953 b73d 33ed 24bd
00000070: 3e34 01bd f93c 8bbc 8e8f 1a3d 4343 133d
00000080: 40ab 283d 2f93 16be 75c8 12be e3d1 bfbc
00000090: 5ffa aebc 29a0 06bd 45ef 8d3c b98c 8e3d
000000a0: 5864 e0bb d473 b1bc 7dfb 143e 1411 53bd
000000b0: 30fd a03d a5f3 51bd afa0 853d 7472 17bd
000000c0: 4659 40bd f03e 403d 3730 12bb 13f6 4a3c
000000d0: 5137 b7bd edf2 d63b c045 b6bc d2bc 78bd
000000e0: becc f93a 8cf7 e8b9 39b7 2dbc 0c1b a13d
000000f0: 0bd9 bcbb 32dc d63b f4c8 3fbb 755c eeba
00000100: efd8 99bd 6d47 893a cc95 70bd 12b7 a2bd
00000110: 7cdf 4b3c 21a4 58bd c6c4 69bd 6969 2fbc
00000120: ca05 883d 6982 24be 0a53 14bd 0aa7 a83c
00000130: 00c9 4abd 17db 9b3b 288c cebd e958 993d
00000140: 8790 9abc 42a7 0cbd 3436 8d3d a6f6 3f3d
00000150: b3cd 8cbd 48d6 0fbe 96cf 603d e4d5 b73d
00000160: abab ce3d 0b35 093e 54aa 0cbd 4a06 7a3c
00000170: d10d 1a3d efb7 c13d 0132 27bd ea68 273d
00000180: fc7d f73d 633f 5d3c 47ea 983c 54d2 cebd
00000190: e7bb 823d 17f4 fe3d b915 c23d 4f48 9d3c
000001a0: 4fe1 34bc 4976 3dbd c735 82bd 2a19 bb3d
000001b0: f921 d63d b6df e63c 1682 0ebb d589 333d
000001c0: 3bf0 d8bd 9cf6 b6bd 929a ad3c f88d 273d
000001d0: bfea 0b3d 6137 bebb b37e 8abc d535 20bd
000001e0: 95d0 08bd a535 443d 7ae7 f63d adb3 0b3d
000001f0: 5beb cc3d f74e 94bd d4d1 f63c f013 4abd
00000200: cf2d 493d 5c68 043e 0da3 fcbb 643b c9bc
00000210: 9629 aebb a4e9 6b3d 7d3a 81bd e7db 0cbe
00000220: 1ff6 03b9 a545 20bd 95f8 0a3d 4083 bbbd
00000230: 944f 24bd 1f5d 1d3e 168f d7bd daea 6e3d
00000240: 7829 c6bc 8c19 c73d b237 be3c 6eb5 c43b
00000250: 6aba 883d ebb0 853d 77c0 18bd 3b74 98bc
00000260: b8e9 b13c 44a5 fa3c 4892 8abc 40b7 84bd
00000270: 0e30 1ebd aa74 523d b74b 5e3d 7d91 26bd
00000280: 43fb a6bb 6c26 0dbd c14e 34bd 760d d23d
00000290: 2975 d5bb 38ed e63c da12 05be 1383 7c3d
000002a0: f440 5a3c 80fb 553d 975b ef3c ea34 88bd
000002b0: 12af 2d3e b6fb 9c3c ec5d 0d3e 86b6 bd3d
000002c0: 378a d3bc 0a9b dc3d b949 213e 662b 7cbd
000002d0: 3460 e8bb 3ba4 2b3d 02be 14bd c7ad 67bd
000002e0: b48b 9abd 016a 30bc 3695 f0bc 3708 79ba
000002f0: c947 cabc a006 aebd 8b5c 043e b6dd c03c
00000300: 04fe 9fba c7df 07be 34fe 2f3d 6fa3 643d
00000310: 646d 8b3d 06df a8bd 0b85 d53d a5d5 9d3d
00000320: 9345 52bc 6e73 99bc 655a 9cbd 0fa6 fa3d
00000330: 9999 e0bc 198e f4bd 7504 a33d 9acb 173c
00000340: 12c3 a63c 7274 843d 0e3c 283a 2c20 10bd
00000350: 4e92 f33d 3340 7dbd 286b 4c3d 51f8 d8bc
00000360: de05 edbd 6ccc 2e3d 01c6 88bd f60e b13d
00000370: 5061 c4bd 221f 043e 963c 853d 7952 e2bc
00000380: 471d 03ba 7044 143c 92f7 923d d70f 9ebc
00000390: e28d 7c3d 77a5 a0bd 41ed 0dbe 1be1 e5bd
000003a0: 4b62 583c e8b4 8bbc e85f a03d 19bf f23c
000003b0: 5b7b 6dbd 5ee9 d53c 5646 c33c a286 0ebd
000003c0: 371b acbd 362f d1bd 76ed 803d f582 a6bd
000003d0: 873c 1ebc 1f7e 153d 96c7 1bbe cc4b 60bd
000003e0: 9c1d f33c eaa8 653d 059b 25bc 57b5 583d
000003f0: 7bb0 983d aa97 433c 6a34 81bd ee87 b63d

network_body._body_endoder.seq_layers.2.bias f4 [256]
0.019596485 0.005896254 0.020383185 -0.013099143 -0.022221548 -0.023900075 0.01515691 0.00065302785
0.014132691 -0.031233553 -0.012366912 -0.03385789 0.033944316 -0.012748704 0.015592423 0.014748232
-0.03426052 -0.02171413 -0.00227633 0.004578334 -0.022568466 -0.0016128466 0.00056892296 0.004414942
0.018012537 -0.010654302 -0.0033069346 -0.005785401 -0.020966336 0.02285665 -0.0046545877 -0.027960422
-0.020799315 0.033867333 0.005626432 -0.028632851 0.008613505 0.018680576 0.007648308 0.008469058
-0.0045824796 -0.012181405 -0.034014158 0.016701818 0.02187523 -0.030167874 -0.020525264 -0.002979369
0.026912626 -0.026748748 0.005743283 -0.032166615 -0.029192884 0.0053075417 0.02000602 0.008686278
-0.0027503145 0.008680598 0.008847567 -0.0176563 -0.012986088 -0.015442687 0.037668183 0.023943134
0.006093343 -0.0039408733 -0.029728744 -0.017785305 0.014520177 -0.028231874 -0.022958986 -0.020314276
0.015743185 -0.016229501 0.023646742 -0.004595252 0.019134007 0.009665407 0.0332387 -0.010170305
0.017728064 -0.014092643 -0.028898224 -0.021269085 0.020468893 0.011309305 0.008297208 -0.0013875035
0.016132956 -0.019612445 -0.015842406 -0.0029592228 0.018112319 0.02980277 -0.02698516 -0.024337398
0.0083375005 0.019605985 -0.017641023 0.02268127 -0.020230148 -0.029211242 -0.007808798 0.021786042
-0.0022096783 0.010051723 0.014130852 0.0006675582 -0.011108125 0.025177374 -0.015061196 0.02467923
0.026504265 -0.009456058 -0.023218311 -0.027725736 0.0008046815 -0.016590368 -0.012003438 0.021150125
-0.027451094 -0.015283991 -0.023338098 0.011390264 -0.00663867 0.026081279 -0.01135885 0.02849894
-0.013179474 0.015476025 0.006478517 -0.002906481 0.02217606 -0.0092514595 0.010813444 0.0008482316
0.016650034 -0.02399403 0.019650444 -0.027400693 0.01955533 -0.00485068 0.0063704574 -0.019334221
-0.0005975429 0.0038757082 0.013713858 -0.011163556 -0.005202842 0.010337171 0.028477276 0.024651203
0.011759297 0.011747557 0.008888329 -0.008563986 -0.022531878 0.016583184 0.010736013 5.8930396e-05
0.03518748 0.013152414 0.025367567 0.022324337 -0.0048702406 0.03885403 0.021047499 0.018564956
0.022095133 0.010404337 -0.0017332984 0.015783394 -0.010352805 0.011189266 0.0021389956 0.030601544
0.026866108 0.025864884 0.010524923 0.018311216 0.014234111 0.019323368 -0.021061499 0.029876562
0.031160926 -0.003002748 -0.019229852 -0.010561202 0.013246515 0.019800205 0.0058921864 -0.02774021
0.016136976 0.012854514 0.017994964 0.0001012469 0.026183471 0.007581492 -0.028808659 -0.018546864
0.040624157 0.035004966 -0.016108492 -0.0017385659 -0.0052460446 -0.0056346776 0.011670134 -0.0029973409
0.01743326 0.0063390327 -0.0052245767 0.02809535 0.013080897 0.01368103 -0.022090817 0.0038550931
-0.012262863 0.015281983 -0.017560605 -0.027354654 0.026958803 0.0099143395 -0.027617019 0.0011320326
0.0007760408 -0.0026251385 0.027907923 0.025797803 0.0050291093 -0.04281248 -0.01964271 0.03490114
-0.0195018 -0.017254338 0.020515887 0.0051131328 0.011692963 -0.019150227 0.017941551 -0.0156202605
0.00995655 0.018766336 0.000698187 0.01262528 -0.028228238 0.010371603 0.029527409 -0.008030917
0.017331922 0.011667941 0.020724699 0.028437283 0.0011275487 -0.0012543176 -0.023673855 0.025722388
00000000: cf88 a03c 5d35 c13b a3fa a63c ca9d 56bc
00000010: f709 b6bc 17ca c3bc b054 783c f52f 2b3a
00000020: cd8c 673c 82dd ffbc 979e 4abc 92ae 0abd
00000030: 3209 0b3d f1df 50bc 5d77 7f3c 92a2 713c
00000040: c254 0cbd d5e1 b1bc 7b2e 15bb d905 963b
00000050: 81e1 b8bc 2766 d3ba c623 153a 38ab 903b
00000060: 078f 933c 628f 2ebc 28b9 58bb 7693 bdbb
00000070: 98c1 abbc df3d bb3c 8385 98bb 410d e5bc
00000080: 5363 aabc 79b8 0a3d ef5d b83b 718f eabc
00000090: a91f 0d3c 0208 993c a89e fa3b cec1 0a3c
000000a0: a028 96bb 8494 47bc 6e52 0bbd 40d2 883c
000000b0: af33 b33c 9e22 f7bc 9924 a8bc 8441 43bb
000000c0: de77 dc3c 3120 dbbc 2632 bc3b 24c1 03bd
000000d0: ea25 efbc e3ea ad3b aae3 a33c e450 0e3c
000000e0: 9f3e 34bb 1139 0e3c 63f5 103c f2a3 90bc
000000f0: 9ac3 54bc 5303 7dbc f449 1a3d 6424 c43c
00000100: aaaa c73b 7122 81bb b289 f3bc 7db2 91bc
00000110: 09e6 6d3c 8846 e7bc 7c14 bcbc 206a a6bc
00000120: daf7 803c bbf3 84bc d0b6 c13c c593 96bb
00000130: ecbe 9c3c a85b 1e3c 4e25 083d 5aa1 26bc
00000140: 723a 913c d4e4 66bc f8bb ecbc 813c aebc
00000150: 61ae a73c aa4a 393c 03f1 073c e4dc b5ba
00000160: 4329 843c 47aa a0bc efc7 81bc 85ef 41bb
00000170: 4960 943c f024 f43c fb0f ddbc 395f c7bc
00000180: 039a 083c bb9c a03c e883 90bc 12ce b93c
00000190: b2b9 a5bc 6a4c efbc f2e0 ffbb a478 b23c
000001a0: 40d0 10bb fbaf 243c 1785 673c 13ff 2e3a
000001b0: dafe 35bc c840 ce3c 3cc3 76bc 192c ca3c
000001c0: 791f d93c 95ed 1abc 5434 bebc 1521 e3bc
000001d0: 43f1 523a 86e8 87bc 11aa 44bc 0743 ad3c
000001e0: 1ee1 e0bc b469 7abc 8a2f bfbc 3b9e 3a3c
000001f0: 3389 d9bb 68a8 d53c 781a 3abc 9c76 e93c
00000200: b8ee 57bc 278f 7d3c bd49 d43b a97a 3ebb
00000210: 92aa b53c 6f93 17bc df2a 313c dc5b 5e3a
00000220: a765 883c 218f c4bc f8f9 a03c 6b77 e0bc
00000230: 8032 a03c 74f2 9ebb 45bf d03b cd62 9ebc
00000240: 6da4 1cba 98ff 7d3b 17b0 603c 59e7 36bc
00000250: 9a7c aabb 3d5d 293c 2d49 e93c 52f1 c93c
00000260: 11aa 403c d378 403c 5ba0 113c f64f 0cbc
00000270: c694 b8bc 75d9 873c 1ae6 2f3c 082c 7738
00000280: bf20 103d 397d 573c a5cf cf3c 87e1 b63c
00000290: 8a96 9fbb 6725 1f3d ce6b ac3c 8915 983c
000002a0: da00 b53c f476 2a3c d82f e3ba 2d4c 813c
000002b0: d09e 29bc 2f53 373c 642e 0c3b 17b0 fa3c
000002c0: 5016 dc3c 98e2 d33c ba70 2c3c 6701 963c
000002d0: 3036 693c 0a4c 9e3c 2a89 acbc b1bf f43c
000002e0: 3345 ff3c c0c9 44bb ec87 9dbc e408 2dbc
000002f0: e907 593c 0a34 a23c 3e13 c13b 703f e3bc
00000300: b131 843c bd9b 523c 2d6a 933c 8454 d438
00000310: b87e d63c 2a6e f83b 2300 ecbc 98ef 97bc
00000320: 8465 263d 5e61 0f3d f5f5 83bc 97e0 e3ba
00000330: 03e7 abbb 1aa3 b8bb 1734 3f3c 096f 44bb
00000340: 32d0 8e3c a9b7 cf3b ed32 abbb 3828 e63c
00000350: 4251 563c 6626 603c cdf7 b4bc bba5 7c3b
00000360: 2dea 48bc 4861 7a3c 42db 8fbc de16 e0bc
00000370: b5d8 dc3c c16f 223c 163d e2bc b660 943a
00000380: 376f 4b3a 840a 2cbb 289f e43c ea55 d33c
00000390: 3acb a43b 245c 2fbd c0e9 a0bc 7ff4 0e3d
000003a0: 3dc2 9fbc f858 8dbc ef10 a83c 118c a73b
000003b0: d793 3f3c f0e0 9cbc 29fa 923c 1fec 7fbc
000003c0: cc20 233c dcbb 993c 8906 373a 43da 4e3c
000003d0: e83e e7bc a8ed 293c 77e3 f13c 1b94 03bc
000003e0: adfb 8d3c e42a 3f3c d8c6 a93c 4ef5 e83c
000003f0: 42ca 933a ea67 a4ba acef c1bc c2b7 d23c

network_body._body_endoder.seq_layers.4.weight f4 [256, 256]
-0.09081328 -0.019810837 0.005761096 -0.14465746 0.0026073398 -0.12341491 -0.06282833 0.0847379
0.051201604 0.011056882 0.04134249 -0.010465693 0.020101571 0.01466254 0.018852914 -0.04758591
0.031230947 0.00044663475 0.01530397 0.034351964 -0.13449001 0.0080937315 0.06171445 -0.05503679
-0.002974592 0.024018262 0.023704147 0.14929146 -0.042703405 -0.022558248 -0.030393025 0.11145718
-0.01119489 0.048985388 0.010785398 0.074922435 -0.009534569 -0.041031703 0.02284971 0.12331552
0.06128217 -0.010704978 0.028936082 -0.036759414 0.02720065 -0.12677446 0.0019237385 -0.07185791
0.007147271 0.115192905 0.10157853 0.06898245 0.09430261 0.04931881 0.062452707 0.02890343
-0.07361199 -0.017771855 -0.095011115 -0.049339112 -0.03285214 0.0012280786 -0.028789815 0.16077763
0.01082251 0.0008016984 0.055990353 -0.018144147 -0.039132345 -0.093847305 -0.020828616 0.07069725
-0.034100555 0.038783643 -0.072912 0.044274278 -0.023292203 -0.03218646 0.08548736 -0.0049626054
0.050380956 -0.1000807 -0.029315656 0.12928635 -0.02469218 -0.05387885 -0.017274333 -0.065018505
-0.03179703 -0.07925058 -0.004497048 0.111984484 -0.049042944 0.021004226 -0.037757844 0.09360123
-0.026489727 -0.0019216227 -0.058465954 0.051974647 0.19918677 0.05377082 -0.07179606 0.030615922
0.016896129 -0.04877337 0.04271317 -0.071404226 -0.017814938 -0.13229401 -0.10311132 -0.043591935
0.04182772 0.028134491 -0.0016646831 -0.016544208 0.105358444 0.018278064 0.00026448115 0.048661236
0.06384245 -0.07020874 0.02150126 -0.03437981 0.055642314 -0.06186239 0.045757607 0.085796535
-0.1094349 -0.031197282 0.041105382 -0.053533368 0.06583075 0.10554781 -0.04627461 -0.03676431
-0.12713799 -0.10029781 0.006694702 -0.00977879 0.024426462 -0.043649193 -0.03865398 0.041858707
-0.01013366 0.102141514 -0.032967698 -0.016746592 -0.014885835 -0.008601606 0.05745052 -0.03981086
0.043606885 -0.0044703605 -0.07150074 -0.048726674 0.11961201 -0.015407915 0.034313712 0.03340745
-0.017000403 0.042525955 -0.06777949 0.120907314 0.09465317 -0.077986754 0.024025677 -0.050928824
0.06600931 -0.00258669 0.016666492 0.10361105 0.039622046 -0.043214705 -0.11902594 0.10532336
0.13467012 0.026791321 -0.17800125 -0.03907496 -0.03243652 0.009401444 0.05171234 -0.017336782
0.10713825 0.053398445 -0.045479923 0.13562952 -0.113742344 0.031148393 -0.02346405 0.02614809
0.031283792 -0.008643522 -0.071081795 0.023105463 -0.102752954 0.004593584 -0.014006024 0.02814244
-0.031479254 -0.03758957 -0.080674596 0.11552018 -0.13243805 -0.040446308 -0.03423699 0.03465028
0.008798326 0.07787593 -0.0009981383 0.16104709 -0.01904442 -0.052337676 -0.0031199786 0.089918256
-0.09564407 0.08641695 0.005219829 0.026129747 0.027427966 -0.0029004195 0.07109469 -0.1078922
-0.10816031 0.07487539 -0.044139784 0.03136204 0.008383504 -0.010025464 0.055323966 0.06520752
-0.060749307 0.010079682 0.03992549 0.04293887 0.02359584 -0.0446927 -0.079145975 -0.04496096
-0.05181937 0.010284981 0.014828917 -0.03460444 0.06819243 -0.05507333 0.031011699 -0.0054177153
0.19056113 -0.0312561 0.036068205 0.062188834 0.11997687 -0.07392931 -0.012289926 0.05695999
00000000: 50fc b9bd 564a a2bc 93c7 bc3b 1621 14be
00000010: e7df 2a3b f5c0 fcbd 24ac 80bd 108b ad3d
00000020: c6b8 513d ed27 353c be56 293d 4c78 2bbc
00000030: 0dac a43c 263b 703c 6d71 9a3c 71e9 42bd
00000040: 0bd8 ff3c 4d2a ea39 81bd 7a3c a5b4 0c3d
00000050: c0b7 09be 929b 043c 4bc8 7c3d 426e 61bd
00000060: 5ff1 42bb f2c1 c43c 332f c23c dcdf 183e
00000070: c4e9 2ebd 13cc b8bc cbfa f8bc a943 e43d
00000080: c66a 37bc e7a4 483d 3db5 303c ef70 993d
00000090: e236 1cbc dc10 28bd 512f bb3c d98c fc3d
000000a0: 0303 7b3d ef63 2fbc 5d0b ed3c 0a91 16bd
000000b0: e6d3 de3c 2ad1 01be f425 fc3a 3d2a 93bd
000000c0: a833 ea3b 42ea eb3d 6808 d03d ac46 8d3d
000000d0: ba21 c13d 8502 4a3d 69ce 7f3d e3c6 ec3c
000000e0: e2c1 96bd 4896 91bc 3095 c2bd cf17 4abd
000000f0: f78f 06bd 7bf7 a03a 9ed8 ebbc e4a2 243e
00000100: e650 313c 1229 523a 2456 653d 09a3 94bc
00000110: 3d49 20bd 0433 c0bd c6a0 aabc b8c9 903d
00000120: 06ad 0bbd 99db 1e3d e352 95bd f258 353d
00000130: 4acf bebc f3d5 03bd ff13 af3d 5a9d a2bb
00000140: 435c 4e3d 1cf7 ccbd 6327 f0bc a463 043e
00000150: 4147 cabc 12b0 5cbd e782 8dbc 6c28 85bd
00000160: 9a3d 02bd 214e a2bd f95b 93bb 1f58 e53d
00000170: 41e1 48bd 0e11 ac3c f8a7 1abd 00b2 bf3d
00000180: fc00 d9bc f5de fbba ff79 6fbd 5ee3 543d
00000190: 9ef7 4b3e cb3e 5c3d d009 93bd 3ece fa3c
000001a0: c069 8a3c 96c6 47bd 01f4 2e3d 613c 92bd
000001b0: a2f0 91bc 1578 07be 072c d3bd 758d 32bd
000001c0: 8b53 2b3d 4e7a e63c 7f31 daba b887 87bc
000001d0: 2bc6 d73d e1bb 953c 0faa 8a39 0151 473d
000001e0: d5bf 823d 9ac9 8fbd 6923 b03c d8d1 0cbd
000001f0: 32e9 633d 6b63 7dbd 546c 3b3d 18b6 af3d
00000200: 681f e0bd 7191 ffbc 1e5e 283d ce45 5bbd
00000210: 46d2 863d 7329 d83d 728a 3dbd 2c96 16bd
00000220: 7630 02be f068 cdbd 3b5f db3b 3837 20bc
00000230: 011a c83c 7fc9 32bd a353 1ebd 0974 2b3d
00000240: a707 26bc 922f d13d 2309 07bd 2630 89bc
00000250: b8e3 73bc c0ed 0cbc 3d51 6b3d b610 23bd
00000260: 229d 323d 1a7c 92bb fb6e 92bd 9f95 47bd
00000270: 24f7 f43d 7b71 7cbc 898c 0c3d 40d6 083d
00000280: 6e44 8bbc b22f 2e3d f9cf 8abd 419e f73d
00000290: 85d9 c13d 85b7 9fbd 7fd1 c43c be9a 50bd
000002a0: e42f 873d 7585 29bb 2b88 883c 0832 d43d
000002b0: ba4a 223d e701 31bd dfc3 f3bd c6b3 d73d
000002c0: f7e6 093e 7979 db3c f645 36be 110d 20bd
000002d0: 28dc 04bd 8408 1a3c 52d0 533d de05 8ebc
000002e0: 4c6b db3d 54b8 5a3d 2849 3abd 77e2 0a3e
000002f0: bff1 e8bd ea2a ff3c ae37 c0bc 8534 d63c
00000300: 6f23 003d 8f9d 0dbc 5593 91bd ab47 bd3c
00000310: 2470 d2bd c785 963b 8679 65bc f98a e63c
00000320: 64f0 00bd 85f7 19bd b938 a5bd d895 ec3d
00000330: d79d 07be 07ab 25bd 163c 0cbd 74ed 0d3d
00000340: db26 103c 6a7d 9f3d f7d3 82ba 87e9 243e
00000350: 0b03 9cbc 0860 56bd 8e78 4cbb 1027 b83d
00000360: 0ae1 c3bd 5ffb b03d 190b ab3b 0d0e d63c
00000370: 9db0 e03c f714 3ebb 189a 913d 96f6 dcbd
00000380: 2783 ddbd 4558 993d ebcb 34bd 7c75 003d
00000390: f75a 093c d841 24bc 629b 623d 858b 853d
000003a0: 44d4 78bd 4025 253c e988 233d abe0 2f3d
000003b0: 104c c13c b10f 37bd 4917 a2bd fc28 38bd
000003c0: 8c40 54bd 5682 283c fcf4 723c 63bd 0dbd
000003d0: 79a8 8b3d 9294 61bd 3f0c fe3c 1787 b1bb
000003e0: 7522 433e 6506 00bd 41bc 133d b8b9 7e3d
000003f0: 6fb6 f53d 4068 97bd b05b 49bc e14e 693d

network_body._body_endoder.seq_layers.4.bias f4 [256]
-0.0034442344 0.018807411 0.030284949 -0.024780719 0.03543523 -0.029615732 -0.016438823 -0.03309419
-0.025521308 0.012217356 0.015618096 0.012782118 -0.013115412 -0.006515087 0.03161666 0.019023115
-0.007005489 0.014899872 0.014348358 -0.023187479 -0.020521808 0.0043288628 0.00036983445 0.027399503
0.0255762 -0.034846377 -0.0059014307 -0.028733265 -0.016428934 -0.01702942 -0.02267057 0.018912164
0.030581266 0.010594314 -0.0009486155 -0.028908607 0.0034082285 -0.01060325 -0.00032501147 0.03138113
0.0098530045 -0.025224097 -0.021800432 -0.029702418 0.024086801 0.032904204 -0.0266281 0.025838803
0.019161733 -0.02169114 0.0034495334 0.025833333 -0.015085303 0.024198417 0.01840129 0.027436037
-0.004658218 0.022612257 0.024391986 -0.02721566 -0.022090087 -0.03574408 0.009887775 0.0054618344
0.033721726 -0.014257156 0.035967395 -0.010914682 -0.030906253 -0.03280174 -0.03487092 -0.0056733377
-0.008715397 0.028004183 0.017571963 -0.023268912 -0.027403055 0.017707653 -0.028550508 -0.026765345
0.022195073 -0.02681542 -0.013785117 -0.026442587 0.021224333 0.03514641 -0.022350322 -0.033088714
0.0049978867 -0.013447499 0.00075138465 -0.026785852 0.03438876 0.02213349 0.02466912 -0.004343438
-0.007165558 0.03231118 -0.0017357629 0.021205354 -0.012826279 -0.013385486 0.015006401 0.005893317
-0.012947236 0.004832354 -0.0031758382 0.033411235 0.0095502185 -0.0034942457 0.021857213 0.0033624577
0.0026606384 -0.002417196 -0.031376652 0.0053374954 0.009492868 -0.00357688 -0.013895566 -0.032136545
-0.010430404 0.02982946 -0.02058854 -0.026905986 -0.020194424 0.034004953 -0.019438485 -0.03346517
0.024459481 -0.025176743 0.036226418 0.012792398 0.011421474 0.0073670154 0.013522793 -0.0028082882
0.011419226 0.03534348 -0.000170376 -0.03579633 -0.015141152 -0.0068951356 -0.0146463495 0.026344579
0.0112776095 -0.016767498 0.027608568 0.023398627 -0.004574932 0.013964855 0.03038195 -0.018442178
0.025345812 0.028812174 0.02066366 0.009524673 -0.0046669864 -0.01270959 -0.015031661 0.008852836
-0.017837752 0.01751775 0.026008666 -0.032284435 -0.017246278 0.02218704 0.0027894606 -0.017791735
-0.026655523 -0.009608789 -0.024310606 0.0046282997 0.019005822 -0.026085176 -0.010354043 0.009971229
0.002989603 -0.03466374 0.030751053 -0.0092444355 -0.008660853 -0.011999083 0.02677816 -0.015488038
-0.0022628682 0.021797035 -0.028132988 -0.011354074 0.011496193 -0.028763304 0.015054708 0.0008400597
-0.009831799 0.029310152 0.019339874 0.0030734644 -0.0009574737 0.022027483 0.0071220654 0.034475535
0.030290782 0.02831251 0.028478723 -0.010600617 0.015614558 0.028131798 0.028948396 -0.030971434
-0.02288182 -0.012824333 -0.027591826 0.0171888 -0.01574619 0.007119193 -0.016316151 -0.0018457207
-0.0003454346 0.015888046 -0.010865227 0.02173536 -0.021812843 -0.02562427 -0.023719857 -0.012351974
-0.026816444 -0.027072042 0.011411443 -0.02766196 -0.029053647 -0.032225106 -0.019139849 -0.02878455
-0.019076504 -0.02334563 0.0020174289 0.010448988 -0.03570152 0.023675922 0.022583744 -0.021541227
-0.011913956 -0.029882515 -0.0068965117 0.013747151 -0.013755333 -0.029368276 0.00047339714 -0.00636129
-0.00088659534 -0.007851405 -0.025115658 -0.029043708 0.022644427 0.029930184 -0.01759662 0.033267044
00000000: aab8 61bb 0012 9a3c 2418 f83c ef00 cbbc
00000010: 8824 113d b19c f2bc b6aa 86bc c68d 07bd
00000020: 1012 d1bc 4e2b 483c 0be3 7f3c 176c 513c
00000030: 06e2 56bc 837c d5bb 7980 013d 5dd6 9b3c
00000040: 4d8e e5bb 981e 743c 6015 6b3c abf3 bdbc
00000050: 5a1d a8bc 22d9 8d3b 57e6 c139 ec74 e03c
00000060: 2e85 d13c 13bb 0ebd ca60 c1bb 0662 ebbc
00000070: f995 86bc 4881 8bbc a2b7 b9bc afed 9a3c
00000080: 9085 fa3c c693 2d3c 82ac 78ba bed1 ecbc
00000090: 965c 5f3b 41b9 2dbc 4d66 aab9 8089 003d
000000a0: 7f6e 213c c4a2 cebc d296 b2bc 7c52 f3bc
000000b0: af51 c53c 8fc6 063d 2c23 dabc e6ab d33c
000000c0: 11f9 9c3c 9eb1 b1bc 9111 623b 6da0 d33c
000000d0: 5928 77bc c23b c63c 4dbe 963c 8ac1 e03c
000000e0: f7a3 98bb 573d b93c b4d1 c73c 60f3 debc
000000f0: 45f6 b4bc 6268 12bd 5600 223c 30f9 b23b
00000100: cb1f 0a3d d996 69bc 8c52 133d 7fd3 32bc
00000110: 1c2f fdbc 1e5b 06bd cfd4 0ebd 68e7 b9bb
00000120: 06cb 0ebc 0769 e53c 14f3 8f3c 729e bebc
00000130: 5f7c e0bc a40f 913c c1e2 e9bc ff42 dbbc
00000140: 71d2 b53c 03ac dbbc f9da 61bc 209e d8bc
00000150: a7de ad3c aff5 0f3d 0618 b7bc 0888 07bd
00000160: 50c5 a33b e652 5cbc 92f8 443a 016e dbbc
00000170: 3adb 0c3d 4b51 b53c e516 ca3c 6653 8ebb
00000180: 0fcd eabb ba58 043d 8a82 e3ba dab6 ad3c
00000190: 5025 52bc cc4e 5bbc 68dd 753c ba1c c13b
000001a0: a520 54bc b958 9e3b b921 50bb 38da 083d
000001b0: 8578 1c3c b7ff 64bb e60d b33c ae5c 5c3b
000001c0: 1b5e 2e3b d269 1ebb ce84 00bd 28e6 ae3b
000001d0: f987 1b3c 176a 6abb 3aaa 63bc 9ca1 03bd
000001e0: 49e4 2abc e95c f43c 4ca9 a8bc f169 dcbc
000001f0: c76e a5bc c748 0b3d 753d 9fbc c612 09bd
00000200: 405f c83c 753f cebc 2762 143d 3597 513c
00000210: 2221 3b3c 0167 f13b b48e 5d3c 420b 38bb
00000220: b517 3b3c 53c4 103d f6a6 32b9 2c9f 12bd
00000230: 9812 78bc 97f0 e1bb 3ef7 6fbc 96d0 d73c
00000240: b9c5 383c fe5b 89bc 5d2b e23c 7aae bf3c
00000250: 50e9 95bb d9cc 643c 91e3 f83c 0d14 97bc
00000260: 05a2 cf3c 8207 ec3c d646 a93c 600d 1c3c
00000270: 85ed 98bb e23b 50bc 5b47 76bc 7c0b 113c
00000280: 7a20 92bc 6281 8f3c 2010 d53c af3c 04bd
00000290: 1148 8dbc 98c1 b53c 62cf 363b f9bf 91bc
000002a0: af5c dabc 2f6e 1dbc 0927 c7bc fea8 973b
000002b0: 19b2 9b3c 94b0 d5bc 01a4 29bc 5e5e 233c
000002c0: 37ed 433b 91fb 0dbd a2e9 fb3c f975 17bc
000002d0: 40e6 0dbc cd97 44bc df5d db3c 8ac1 7dbc
000002e0: a14c 14bb b28f b23c 2777 e6bc 7006 3abc
000002f0: 875a 3c3c 05a1 ebbc 06a8 763c 7437 5c3a
00000300: 8e15 21bc d81b f03c a86e 9e3c 2d6c 493b
00000310: f9fe 7aba fb72 b43c 3760 e93b 3836 0d3d
00000320: 6024 f83c a3ef e73c 364c e93c 36ae 2dbc
00000330: 34d4 7f3c a874 e63c 3025 ed3c ceb7 fdbc
00000340: a872 bbbc 271d 52bc 4108 e2bc 87cf 8c3c
00000350: 27fe 80bc 1f48 e93b 73a9 85bc 1cec f1ba
00000360: 721b b5b9 a627 823c 1104 32bc 5b0e b23c
00000370: d9b0 b2bc fde9 d1bc 2550 c2bc ef5f 4abc
00000380: 29ae dbbc 30c6 ddbc 10f7 3a3c 569b e2bc
00000390: ea01 eebc 79fe 03bd 2ccb 9cbc 94cd ebbc
000003a0: 5446 9cbc 563f bfbc d736 043b 3b32 2b3c
000003b0: c23b 12bd 02f4 c13c 8b01 b93c 3a77 b0bc
000003c0: c132 43bc 2dcc f4bc 22fc e1bb bb3b 613c
000003d0: 0c5e 61bc bd95 f0bc 4a32 f839 5e72 d0bb
000003e0: 686a 68ba 2ea3 00bc 5abf cdbc 12ed edbc
000003f0: ce80 b93c 2530 f53c c926 90bc 0643 083d

action_model._continuous_distribution.log_sigma f4 [1, 2]
-0.06935821 0.008051595
00000000: ad0b 8ebd d6ea 033c

action_model._continuous_distribution.mu.weight f4 [2, 256]
-0.020849526 -0.0046791346 -0.0037157275 -0.013307897 0.00979544 0.004121858 0.02437034 -0.0009376831
-0.02019932 -0.0412977 0.034221474 0.056804027 0.028354913 -0.025429815 0.00969641 -0.01422942
0.045266584 0.0072728605 0.021721039 0.028363405 -0.008805845 0.013748848 -0.020190481 0.041974824
0.016587066 -0.000759095 -0.023913408 -0.020444985 -0.0017173667 -0.028007576 0.015932096 -0.021207895
0.011775563 -0.012655295 0.018350292 -0.018343473 -0.022503909 0.028388992 -0.04826124 -0.013470856
0.004327789 -0.005055503 0.01010983 -0.019441213 0.03501112 -0.018726785 0.01492725 0.011508874
0.022134809 -0.0124389855 -0.015251954 0.03601832 -0.024907144 0.01615485 0.04583125 -0.0087001715
-0.03575147 -0.0083181 -0.019904094 -0.021571992 -0.0126926815 -0.0034311456 -0.022891255 -0.03738946
0.008870538 -0.036140867 0.021356048 -0.03325614 -0.019104619 0.0017250422 -0.005670463 -0.026287941
0.02488659 -0.0060223457 0.0032685006 -0.01706573 0.017912546 0.03132043 -0.008201799 0.017150776
-0.019099621 -0.017677259 -0.035722803 0.0018590487 -0.007021002 -0.013072862 -0.020682123 -0.017897142
0.011752056 0.041872524 0.038640045 0.01982048 0.028401043 -0.021421617 0.011800264 0.050407782
0.037001856 0.00054687983 0.04225122 -0.0051109996 -0.017339848 -0.0068160263 0.00017350052 -0.048181914
-0.01213589 -0.034437556 -0.05114084 -0.029173763 -0.034139168 0.031600997 0.0330245 -0.015696863
-0.03636964 -0.029240085 0.0045995545 -0.033833534 0.0026065237 -0.030489085 0.0020255747 0.007276948
-0.013474441 0.006086064 -0.011717455 0.018107299 0.029079698 0.018971754 0.020860242 0.0010016783
-0.0063237175 0.016182147 0.032259002 0.0045184093 -0.03702383 -0.0068055014 0.03090719 0.04041574
0.0027407035 0.008759992 -0.012638755 0.010573126 -0.028863272 -0.015998721 0.0053452053 0.009887194
0.047101535 0.013844447 0.0016633058 -0.0011818411 -0.046835445 0.06997095 -0.013031679 -0.040519908
0.019287689 0.0151889585 -0.032546315 -0.023027575 -0.03648782 0.02453549 0.008127091 -0.03848913
0.02591541 -0.008974744 -0.004779651 0.016918527 0.025775349 -0.0020543558 -0.018874843 -0.00917394
-0.01897832 0.039158367 -0.017387882 -0.03642343 -0.021512259 -0.017888796 0.022797342 -0.036237363
0.0014126967 0.006214127 0.011545914 -0.018076923 0.066470295 0.0135193085 0.014343026 0.014245565
0.029459495 0.0115141515 -0.006489333 0.028513107 -0.031107198 -0.010936785 0.05009425 0.040087048
0.029982807 0.015907004 0.05383534 0.031768966 0.049244195 0.03117184 -0.045569617 -0.0039553684
-0.00075411383 -0.01687506 0.00047903493 -0.0385388 -0.04072173 0.03739648 -0.035946894 0.002215503
0.014799668 0.04064929 0.01589458 -0.028767616 0.03313416 -0.030665915 -0.040205594 0.059277825
-0.031562503 -0.017244272 0.023594998 0.005624946 -0.020467889 -0.015390908 0.011491038 0.016927922
-0.02119288 -0.005110218 0.030747231 0.01609064 -0.007312373 0.006009217 0.0051522898 0.01503388
0.029360784 0.02326846 0.03958241 0.038874034 -0.011702503 -0.009042775 -0.017518876 -0.024618354
0.016477661 -0.022122016 0.00030719335 0.033688165 0.019040741 0.0024269596 -0.022165326 -0.04291408
-0.013397562 0.04093984 -0.016693017 -0.019676 -0.012946958 -0.0077070566 -0.021652792 0.017887855
00000000: a0cc aabc 6d53 99bb 9083 73bb 5e09 5abc
00000010: 0e7d 203c a710 873b 4fa4 c73c d9ce 75ba
00000020: 0b79 a5bc c727 29bd d12b 0c3d 57ab 683d
00000030: 9048 e83c 3052 d0bc b1dd 1e3c 8322 69bc
00000040: 7469 393d 2d51 ee3b 52f0 b13c 5f5a e83c
00000050: 6446 10bc d942 613c 8266 a5bc cbed 2b3d
00000060: 99e1 873c 01fe 46ba 0de6 c3bc 3e7c a7bc
00000070: 4419 e1ba 2570 e5bc 0784 823c 2ebc adbc
00000080: 4aee 403c 2858 4fbc 5a53 963c 0d45 96bc
00000090: 1e5a b8bc 0890 e83c 94ad 45bd ddb4 5cbc
000000a0: 20d0 8d3b a2a8 a5bb b3a3 253c 2e43 9fbc
000000b0: d267 0f3d ea68 99bc 6d91 743c b78f 3c3c
000000c0: 0f54 b53c e3cc 4bbc 55e3 79bc f287 133d
000000d0: 110a ccbc 2d57 843c 8cb9 3b3d 2a8b 0ebc
000000e0: 2270 12bd a448 08bc e90d a3bc bfb7 b0bc
000000f0: f7f4 4fbc 12dd 60bb 7186 bbbc b125 19bd
00000100: bc55 113c 7208 14bd e1f2 ae3c 9737 08bd
00000110: 4a81 9cbc d01a e23a 4bcf b9bb cf59 d7bc
00000120: f6de cb3c 1957 c5bb 5734 563b 6ecd 8bbc
00000130: 55bd 923c da49 003d d760 06bc c97f 8c3c
00000140: cf76 9cbc e6cf 90bc 1352 12bd 53ab f33a
00000150: 6f10 e6bb 8f2f 56bc 8e6d a9bc 079d 92bc
00000160: b28b 403c 8682 2b3d 0645 1e3d 8f5e a23c
00000170: 4ea9 e83c 637c afbc e555 413c 6478 4e3d
00000180: 428f 173d 7c5c 0f3a 9e0f 2d3d 2c7a a7bb
00000190: 4c0c 8ebc f958 dfbb b1ed 3539 665a 45bd
000001a0: 9dd5 46bc 650e 0dbd 0f79 51bd d1fd eebc
000001b0: 83d5 0bbd 0c70 013d b344 073d b596 80bc
000001c0: 55f8 14bd e788 efbc dcb7 963b 0895 0abd
000001d0: 36d2 2a3b 3fc4 f9bc 81bf 043b 7773 ee3b
000001e0: e7c3 5cbc 9b6d c73b 92fa 3fbc c255 943c
000001f0: 8c38 ee3c a76a 9b3c 19e3 aa3c bf4a 833a
00000200: 3037 cfbb 6c90 843c 0422 043d 2a0f 943b
00000210: 4da6 17bd af00 dfbb 1331 fd3c fa8a 253d
00000220: 609d 333b 1286 0f3c c812 4fbc e83a 2d3c
00000230: ab72 ecbc c00f 83bc d526 af3b e6fd 213c
00000240: 8aed 403d d2d3 623c 4803 da3a 02e8 9aba
00000250: 86d6 3fbd ee4c 8f3d d382 55bc 34f8 25bd
00000260: 3701 9e3c 1cdb 783c 494f 05bd 53a4 bcbc
00000270: 4174 15bd a7fe c83c 7e27 053c c7a6 1dbd
00000280: 8e4c d43c ce0a 13bc 9e9e 9cbb b998 8a3c
00000290: d326 d33c 5fa2 06bb 6a9f 9abc 4b4e 16bc
000002a0: 6c78 9bbc 8664 203d 0871 8ebc bc30 15bd
000002b0: 7a3a b0bc 868b 92bc 7ec1 ba3c a16d 14bd
000002c0: 3c2a b93a e09f cb3b 132b 3d3c 0e16 94bc
000002d0: 9421 883d 1780 5d3c 03ff 6a3c 3b66 693c
000002e0: 0a55 f13c daa5 3c3c 79a4 d4bb 5294 e93c
000002f0: 86d4 febc 3330 33bc a12f 4d3d 5132 243d
00000300: 819e f53c 684f 823c 7282 5c3d 2d20 023d
00000310: 48b4 493d 165c ff3c 35a7 3abd 099c 81bb
00000320: b9af 45ba 913d 8abc fb26 fb39 dcda 1dbd
00000330: d4cb 26bd 0d2d 193d 0d3d 13bd f931 113b
00000340: 4f7a 723c df7f 263d 5a35 823c 10aa ebbc
00000350: afb7 073d 1637 fbbc 9fae 24bd 4ecd 723d
00000360: af47 01bd dc43 8dbc 4c4a c13c 7851 b83b
00000370: 46ac a7bc 262a 7cbc e844 3c3c 6dac 8a3c
00000380: b19c adbc 9e73 a7bb 9ee1 fb3c 85d0 833c
00000390: a19c efbb f7e8 c43b 8ad4 a83b aa50 763c
000003a0: 0786 f03c 7f9d be3c 2a21 223d 613a 1f3d
000003b0: dbbb 3fbc 2628 14bc bf83 8fbc 6eac c9bc
000003c0: 29fc 863c 3b39 b5bc cb0e a139 9afc 093d
000003d0: 54fb 9b3c a00d 1f3b 0f94 b5bc adc6 2fbd
000003e0: 7381 5bbc 89b0 273d cbbf 88bc 902f a1bc
000003f0: 7a1f 54bc 7a8b fcbb 3261 b1bc 8d89 923c

action_model._continuous_distribution.mu.bias f4 [2]
0.0043066437 0.033125747
00000000: bf1e 8d3b ddae 073d

onnx::Div_56 f4 [11]
0.71850824 0.009790779 0.6948631 0.6567535 0.0041227737 0.70182323 0.68402654 0.019758424
0.71632785 6.339878 0.2861102
00000000: 28f0 373f 8169 203c 8ce2 313f ff20 283f
00000010: 5518 873b b0aa 333f 5d1c 2f3f 6bdc a13c
00000020: 4361 373f 48e0 ca40 097d 923e
