results/petfollower20/PetFollower/checkpoint.pt (torch, 450530 bytes, 44 tensors)

network_body.observation_encoder.processors.0.normalizer.running_mean f4 [8]
00000000: 412c aebd 9af8 7fbb b76d 3dbe fb1e 2d3c
00000010: 408a 20bb 2f69 3f3c b7ed 7841 18c9 323f
-0.085045345 -0.003905809 -0.18498884 0.010566468 -0.0024496466 0.011682793 15.558036 0.69838095

network_body.observation_encoder.processors.0.normalizer.running_variance f4 [8]
00000000: 20c1 c946 4f2c 0a40 ec0d c146 9ae0 cc46
00000010: 2301 c041 95cc cb46 50a0 4f4a 71b6 8745
25824.562 2.1589544 24710.96 26224.3 24.000555 26086.291 3.401748e+06 4342.805

network_body.processors.0.normalizer.running_mean f4 [8]
00000000: 412c aebd 9af8 7fbb b76d 3dbe fb1e 2d3c
00000010: 408a 20bb 2f69 3f3c b7ed 7841 18c9 323f
-0.085045345 -0.003905809 -0.18498884 0.010566468 -0.0024496466 0.011682793 15.558036 0.69838095

network_body.processors.0.normalizer.running_variance f4 [8]
00000000: 20c1 c946 4f2c 0a40 ec0d c146 9ae0 cc46
00000010: 2301 c041 95cc cb46 50a0 4f4a 71b6 8745
25824.562 2.1589544 24710.96 26224.3 24.000555 26086.291 3.401748e+06 4342.805

network_body._body_endoder.seq_layers.0.weight f4 [128, 8]
00000000: c6a3 b13e feca 0d3f 43d6 6dbd 8b21 393e
00000010: ee3d 6bbe 668a 903e 53ad 083f 9df0 0fbf
00000020: 78b7 c73d 0f47 8dbd d8ff 5dbf 4ba5 f13d
00000030: 9349 893e b57b bfbc e391 643d b342 d33e
00000040: 5aff 033f 8f13 113f 64ea 7dbc acfb 6abe
00000050: dbc5 013f a93d dabe 9dcc 5d3f 782d a03e
00000060: 2724 88be 3d92 083f e05a 5abe 8294 a3bd
00000070: c57b 56be b5dc 1abf 72c5 24be 5bd6 39bf
00000080: 3080 ab3c b359 dcbe 0c93 2fbd ec5f d73c
00000090: 90d4 70be 31ff 0bbf 05bb 5d3e ae89 b9be
000000a0: e371 cfbd b71d 6b3f c2bd 3cbf 0ab5 c4bc
000000b0: 305f 36be 02bf 27bf d2e9 503e 0218 993d
000000c0: 022c 1cbe 619e fabe 0ac7 263f 1942 78bd
000000d0: 0fdb 5abe d849 4a3f 82f2 09be 2e3e 493d
000000e0: cb37 d83d eb1a 5dbf a118 1bbe 0b28 dcbe
000000f0: 94ff 10bf 5b1e 19bf d9e2 53be babb 80be
00000100: 3988 653e c786 463e 18fb a2be 9f63 8e3e
00000110: 29eb 89bf f829 c93e 2812 af3e bc72 353e
00000120: c651 cdbd 5613 263e b34e a33e 4094 323d
00000130: e690 e7be 9feb 213e acc0 803e cb2a 9e3e
00000140: 7b04 5abe 219e a83e 7b07 da3d 4679 10be
00000150: dc57 9c3e ad2a 34be d6c4 a73e fac9 e73e
00000160: d939 25bf e2c8 f93e 413e c03c 7102 b0be
00000170: 434f 8a3e 4cd1 20bf 7c95 073f 175a 4b3f
00000180: 5f17 9a3e 479d cebd 1f4c b4be 9dad 50bd
00000190: 69f5 46be cfdf 0abf 64cd 76be 44f4 abba
000001a0: ffaa 8e3e b661 873d 636c 0fbf 15a8 65bd
000001b0: 3b45 543e 3911 64bd e39a a83d f33b 3d3f
000001c0: 5ea4 05bf f411 903c e00f c8bc 2896 c8bd
000001d0: c95d 0dbf 0e13 bd3e a56d aebe 997f 923e
000001e0: ab2b 873c b34f 253f 4acd e53e db19 9abe
000001f0: d823 4a3d 9610 633d b965 eb3e 394a 2c3e
00000200: 8695 a0bd a84e cbbe 4b9f 5abe 39a5 a4be
00000210: c4b4 b73d a507 d43d 0b96 6fbe 6a1c 7d3e
00000220: d35e 47bf 93fd babe 58a2 8d3e 002b 133f
00000230: 3742 043f 1014 d5be 9a15 64be 195f babe
00000240: 7976 41bf cf70 043f 619a a53e 8aa9 a6be
00000250: c8ee c33d 8df4 d2be 80c1 433f 212c 203e
00000260: 958b 543d 8dc2 55bd 624d b63d 9510 94be
00000270: 0975 b4be 9b3c 4a3c 4dbe 50bd ca40 8e3e
00000280: d0e8 c6be e563 45bc ad5c 9c3c fcf6 103e
00000290: 4492 0c3e b391 283e 5950 8c3e f89a f9be
000002a0: 1fe7 293f fcad cd3e f2b5 823e e1a7 49bd
000002b0: 329e a8bd 6e5e 57be 49a9 49be 235d 973e
000002c0: 2b50 1abe fc20 6c3e bffe 993d abe5 643e
000002d0: fa22 ccbe a9ac e93d f73d 9d3d 6e42 30bf
000002e0: c4b7 3fbb 46db 03be 884c 0a3e 5ed1 093f
000002f0: 3e24 b0be 5ff7 c73e aad6 453d 04ea 70be
00000300: 226a 27bf c4be f0be 8ad6 57be fa7d 9c3e
00000310: 9277 a0be 0eda 16be 9eee 3a3b cb6c 9abe
00000320: 6a4b 5cbe 34c0 72be e837 753d 49d0 a43d
00000330: a499 1f3d 6693 2f3d 6617 033f d428 10be
00000340: 976d 4dbe 9637 89be 7175 0bbf 52a2 e03c
00000350: 8ff5 19bf 8329 0e3f 7505 3c39 c646 07bf
00000360: 940e e4be 3159 debd f88c 153e 3f3c 2dbe
00000370: 2453 53be e80d 29bd aa92 51be e147 cfbd
00000380: b15a 783e af6e b2be 044c 523e bb2f 483e
00000390: 4b1c 10bb 16fc 4abf eec7 113e 2c9d 67bd
000003a0: 07f8 193f 8956 6a3f 047b c3be 0b7d fc3e
000003b0: bd61 07be 8c81 e2be d1c0 403e 4105 e73d
000003c0: 07a5 06bf d62c 043e d575 b33e d05d 3fbf
000003d0: 6d66 a13a f199 083d fbe7 06be fc60 9fbe
000003e0: 71f1 e13d 5463 023f a1d1 cbbe b909 f1be
000003f0: b5b5 d03d 488b 2bbe 7540 55be 3104 413e
0.34695262 0.55387866 -0.058065664 0.18079202 -0.22972843 0.2823059 0.5338947 -0.5622652
0.09751791 -0.06898319 -0.8671851 0.11799105 0.26813945 -0.023374418 0.05580319 0.41261825
0.5156151 0.5667047 -0.015497778 -0.22947568 0.5069253 -0.42625168 0.8664034 0.3128469
-0.26590082 0.5334814 -0.21323729 -0.0798731 -0.20945652 -0.6049302 -0.16090944 -0.72592705
0.020935148 -0.43037185 -0.042864844 0.026290856 -0.23518586 -0.54686266 0.21653374 -0.36237854
-0.10129144 0.91842216 -0.7372705 -0.024012107 -0.17809749 -0.6552583 0.20401695 0.07475282
-0.15251163 -0.4894896 0.6514746 -0.06060991 -0.21372627 0.79018927 -0.13471416 0.049131565
0.10557517 -0.863692 -0.15146114 -0.429993 -0.5663998 -0.59811944 -0.20692004 -0.25143224
0.22415246 0.19387351 -0.31832194 0.2781038 -1.077489 0.39289832 0.3419354 0.17719549
-0.10025363 0.16218314 0.3189598 0.043598413 -0.45227736 0.15812539 0.25146997 0.30892023
-0.21290772 0.32933143 0.10645958 -0.14108762 0.3053578 -0.17594405 0.3276736 0.45271283
-0.64541394 0.48786074 0.023467185 -0.34376863 0.27013597 -0.6281936 0.5296247 0.7943434
0.30095956 -0.10088592 -0.35214326 -0.05094682 -0.19429554 -0.54247755 -0.24101788 -0.0013119061
0.27864835 0.06610434 -0.5602476 -0.0560685 0.20729534 -0.055680487 0.08232667 0.739196
-0.5220393 0.017586686 -0.024421632 -0.09794265 -0.5522123 0.369286 -0.34068027 0.28612974
0.016500315 0.64574736 0.44883186 -0.3009785 0.04935059 0.05543574 0.45976046 0.16825189
-0.07841019 -0.39708447 -0.21349828 -0.32157305 0.08970025 0.103530206 -0.2339708 0.2471787
-0.77879065 -0.36521587 0.2766292 0.5748749 0.51663536 -0.4161687 -0.22273865 -0.3640068
-0.755714 0.5173463 0.32344344 -0.32551223 0.09567028 -0.41202202 0.7646713 0.15641834
0.05189093 -0.05218749 0.08901478 -0.289189 -0.3524554 0.012343551 -0.050962735 0.27783805
-0.38849497 -0.0120477425 0.01908716 0.14156717 0.13727671 0.1646183 0.2740505 -0.48751044
0.6636829 0.40171802 0.25529438 -0.049232367 -0.08233298 -0.21032116 -0.19693483 0.29563245
-0.15069644 0.23059458 0.07519292 0.22353236 -0.39870435 0.114098854 0.076778345 -0.68851364
-0.002925382 -0.12876615 0.13505757 0.53835094 -0.3440265 0.39055917 0.048300423 -0.2352677
-0.6539632 -0.47020543 -0.21077934 0.30564862 -0.31341225 -0.14731619 0.0028523575 -0.30161127
-0.21513143 -0.23706132 0.05986777 0.0804754 0.038964882 0.04286518 0.5120758 -0.14078075
-0.20061336 -0.2680022 -0.54476076 0.02742115 -0.6014032 0.5553209 0.0001793111 -0.52842367
-0.44542372 -0.10856856 0.14604557 -0.16917513 -0.20637184 -0.041273028 -0.20466104 -0.10121132
0.24253346 -0.3485007 0.2053681 0.19549458 -0.002198952 -0.792909 0.14236423 -0.056546375
0.60144085 0.9153829 -0.3817979 0.4931415 -0.13220878 -0.4423946 0.18823554 0.11280299
-0.5259556 0.12907729 0.35050836 -0.7475252 0.001231385 0.033349935 -0.13174431 -0.3112868
0.110323794 0.5093281 -0.39808372 -0.4707773 0.10190908 -0.1675235 -0.2082537 0.18849255

network_body._body_endoder.seq_layers.0.bias f4 [128]
00000000: 7f83 bdbb 2935 61bb 3cde e83b fa22 d0bb
00000010: b824 dbbc daf4 0cbc e2a0 803b d707 0cbc
00000020: 176e d73b a939 243c 222b 743a c747 b83b
00000030: c3b8 c2bc edd4 6bbc f47d e03b a67a 77bb
00000040: 6e77 e1b9 8790 fb3a 83e4 0bbc 7c1a efbb
00000050: 2f2b 29bc 7b9a 173c d053 8dbc 58ca d9bb
00000060: 6033 82bc 6f9b d03b fcde 98bc 6190 a03b
00000070: da94 67bc 17ce a0bb 4a6e 783b 9e23 a7bb
00000080: f133 00bd c510 273c 0528 a83a 4524 0f3c
00000090: 84f3 1bbc 8527 093b 82ed c03a d700 55bc
000000a0: 5125 d4ba 0862 c53c 1a99 debb cbd5 61bb
000000b0: 4b97 72bc 7dd6 13bc 73f0 96bc 87bd f13b
000000c0: 600f 87bb 920e 07bc 2a6e 143b e429 25bc
000000d0: 1d0f 9a3a eba5 4cbc 1d61 dc3a b990 c03c
000000e0: 7f15 93bb 460d a13b ebcd 2abc 2cdf 7d3b
000000f0: f0b4 50bc d905 98bc 90d8 96bc b036 8e3c
00000100: 8266 6abc adb2 80bb e79b 22bc 7e38 9e3b
00000110: ff74 86bc 04ae 59bb 06ac 33bc 3c2e 11bc
00000120: 2c1a 96b9 7773 193c 4467 cd3c 750b 693c
00000130: 4ebc dcbc 0394 57bb 1047 6bba d4fa 9bbc
00000140: 3de4 1cbc dce3 93bc 119d f3ba 88d6 a2bb
00000150: 163e 093c 761b d33b ee34 bebb 7922 8f39
00000160: 7cc8 253c fcef 41bc 8e54 06bc 315a 3d3c
00000170: 907a 0cbc cd38 6b3c 2264 afbc d8e2 2e3c
00000180: 720f 30bc ab59 86bc ea61 7bbc bce9 66bc
00000190: cd3d 6ebc 85dd 9fbc 5cb6 76bc c52b 8d3c
000001a0: d116 48bc 683d 2fbb f0f9 3cbc 9650 bebc
000001b0: 965e 40b9 5d02 123d 39b3 a13c d601 e8bc
000001c0: 3d85 4dbc 98d0 f6bb 1ad5 b03b b8f7 82bc
000001d0: 5536 c83c 21f0 513b 418c 46bc 9e09 253b
000001e0: 313b 46bc 921f 13bb c5c3 143b eb6c 0dbd
000001f0: d3c2 bdbb 8e71 08bc 8946 02bc 134b beba
-0.005783498 -0.0034363961 0.0071065705 -0.006351826 -0.026750907 -0.008603299 0.0039254287 -0.008546791
0.006574403 0.010023513 0.00093142886 0.005623791 -0.023769742 -0.014394027 0.0068509523 -0.0037762313
-0.00043004326 0.0019192853 -0.008538368 -0.0072968584 -0.010325237 0.00925314 -0.017251879 -0.0066464357
-0.015893638 0.0063661854 -0.018661015 0.004900024 -0.01413461 -0.0049073803 0.0037907534 -0.0051006814
-0.031299535 0.010196869 0.001282931 0.008736675 -0.009518508 0.0020928096 0.001471922 -0.0130006885
-0.0016185438 0.024094597 -0.0067931535 -0.0034459706 -0.014806579 -0.009023306 -0.018425202 0.0073773297
-0.004121706 -0.00824322 0.002264867 -0.010080788 0.0011753772 -0.01249073 0.001681361 0.02350651
-0.0044886465 0.0049149124 -0.010425071 0.0038737757 -0.012738451 -0.018557476 -0.018413812 0.017360061
-0.014306666 -0.00392755 -0.009924865 0.0048285117 -0.01641321 -0.0033215294 -0.010966307 -0.008861121
-0.0002862973 0.009365908 0.025073655 0.014223923 -0.02694526 -0.0032894618 -0.0008975128 -0.019040503
-0.009575901 -0.018052988 -0.0018586238 -0.004969422 0.008376619 0.0064424826 -0.0058046496 0.0002730077
0.0101186 -0.011837002 -0.00819887 0.011557148 -0.008574143 0.014356804 -0.021410052 0.010674201
-0.01074587 -0.016400179 -0.015343169 -0.014093813 -0.014541102 -0.019514808 -0.015058126 0.017232785
-0.012212471 -0.0026739482 -0.011534199 -0.023231786 -0.00018345783 0.035646785 0.01973878 -0.028321188
-0.0125439735 -0.0075321905 0.0053964974 -0.015987262 0.02443997 0.0032033997 -0.0121184 0.0025182734
-0.012099073 -0.0022449237 0.0022699696 -0.0345277 -0.005791047 -0.008327855 -0.007951387 -0.0014518223

network_body._body_endoder.seq_layers.2.weight f4 [128, 128]
00000000: f16e c3bc 3730 9f3d 175e 143c 33f3 f13d
00000010: 99f7 48ba 1a6d a83d 204f 6abd 9f8e f23d
00000020: f8b2 073e 2217 88bc aa52 9a3d e5e3 363e
00000030: cb20 c0bd 07aa 13bd c6c2 9fbd 7b0e e2bc
00000040: a574 413d fadc 1f3e 5162 b43d db0f 92bd
00000050: 8989 40bd 2d17 8dbb 8805 e03c bd7a a03d
00000060: cf25 d43d 2f0e a53d 679a 21be 36e2 33bc
00000070: bdb8 30bc 4364 5dbd b16a 593c 4e46 03bd
00000080: c621 f73d e63a c53c 366a 2cbd d0b1 c6bd
00000090: 4e1e 8dbb 6f86 d6bd 7d2d 22bd c479 d93d
000000a0: 0168 88bc 4096 163d 7383 98bd 4e2a c0bd
000000b0: 537b f8ba 774a 0abd 8ee0 683d 29cf 893d
000000c0: d631 30bb a4a9 81bd 2e1d 983d b90b 4fbd
000000d0: ec06 383d 6d7a a0bd 59b8 febc 7986 a1ba
000000e0: 0a25 47be ec35 aabd 7314 903c 4cf2 3fbd
000000f0: ec1a 29bd 6db4 c43c 6516 9abb 45e5 31be
00000100: 07a8 a5bd 220b 2ebc 501d 343d 248e 36be
00000110: a3cd bc3d 9d9c b33c 6b0c 263e 0c83 083e
00000120: 567b eabb 1e94 2bbd a414 db3d 97f1 273e
00000130: 0704 11bd 4a0a dd3d 7e92 c7bd d20d 59bc
00000140: 41dc 8dbc 125b 873d ba2b b13d bee9 ed3c
00000150: 92de 063d 9b1c 79bd ac0c 713d 0283 d0bd
00000160: f26b 333d 6e27 5d3d 0b60 66bc 55bc 9abc
00000170: 2f60 ec3d 5179 3ebd b01c c73b 862b 6abd
00000180: f511 acbd 4d30 fc3c 1d40 bf3c c42f c43d
00000190: bd3b 193e 1ef5 8d3d 3ea0 c33d 88fa a83d
000001a0: 97c2 6fbc b17e 2b3d 50f4 90bd 4de5 863c
000001b0: 8d01 5cbd bb4a e5bd 48be f73d 9b19 ecbd
000001c0: 5115 28be a74f 3d3c 6a79 8dbd 8c9e 273d
000001d0: f3b5 353d 1c1f 04be ff20 87bc d390 483e
000001e0: b560 5abc c3cd f8bc 53e7 e5bc 46ec b13c
000001f0: c565 adbd cfca 483e f15a 2e3e b601 423d
00000200: 950a ea3c adaf c6bd d937 e53d d7cf 083e
00000210: 863b f9bd 7100 1e3e 04cc d83d 4284 a5bc
00000220: 9533 5dbd 92d7 79bb 7210 143b 5c8a 283d
00000230: d2b7 9d3c 9096 b73d ba62 8dbd 56b7 0abd
00000240: b029 f5bd dba8 b23d 1d1a 6abd 4484 96bd
00000250: ef83 e2bd 31fb b23d 85f4 15be 9737 a4bd
00000260: 682a c23d 34b8 e8bc 25b5 85bd 1e57 3e3c
00000270: cbc7 db3d b599 df3d 527f 3b3e 59fe 9abd
00000280: 8646 eebd ed8b 713c 7049 173c ed40 58be
00000290: 5d87 09be 1d2d 08be cef1 0a3e b763 f3bd
000002a0: c374 5abd bc92 0cbe c1a0 50bb c591 8fbb
000002b0: 2162 b1bd 4401 f9bd 5678 893d dda2 02bd
000002c0: cdb3 e53d c1bb c9ba 92b5 10be 2a82 c0bd
000002d0: 672e bb3d 5260 14bd ca13 363d 8856 7ebd
000002e0: b187 8d3d 28c3 fcbd 4c23 bbbd 5ac1 3fbe
000002f0: f115 11bd 5b9f fb3c 8674 33ba bb2b 1dbd
00000300: 6ba2 9bbd 1df2 46bd caf1 313e 8a87 733d
00000310: 963b 7a3d e476 d43d d8c0 04bc 952c 603d
00000320: 18b0 f9bd a843 043d e252 253e f7ed e1bd
00000330: 7ecd 513d 8d0c 853a 2163 4b3d 5bfc 55bd
00000340: b0f8 0f3e 8713 d63d 94ed 703b 04d4 213e
00000350: 3eb8 92bd c6c6 6d3d d013 dfbc 42c4 3b3c
00000360: c6c3 91bd e86a 923c a19c 723c c04a b2bd
00000370: 4708 2c3d 2e24 b8bc b536 393a 458f 38bd
00000380: a60d 4fbe 58d2 b3bc 542e 253d 17b7 5fbe
00000390: a19c 303c b10d ddbd d891 93bc 1b15 91bc
000003a0: e8d3 a0bd ba9c 4a3d 1b0e 8abd 72fd c03d
000003b0: 65f7 e0bd a99e d3bd 9a05 24be 9cee 0ebd
000003c0: 9841 04bd 455d cabd 48de 1cbd 78af b1bc
000003d0: 28e6 c33c 51f9 dfbd 0065 06bd fe76 383d
000003e0: 82c3 8bbd 4f5b c33c e92c 353e bbbb cb3d
000003f0: 1b25 12be ee8b c6bd 0308 163d 4300 89bb
-0.023856612 0.07772868 0.009055636 0.11813965 -0.00076662895 0.082239345 -0.057204366 0.11843609
0.13251865 -0.016612593 0.07535298 0.17860372 -0.09381255 -0.036050823 -0.07800822 -0.027594795
0.04723038 0.1561164 0.08807815 -0.071319304 -0.047006164 -0.0043057413 0.027346388 0.078359105
0.10358774 0.08059346 -0.15781556 -0.010979226 -0.010786233 -0.054050695 0.013270066 -0.03204947
0.12066989 0.024075937 -0.04209348 -0.09701884 -0.004306591 -0.1047486 -0.039594162 0.10618928
-0.016651155 0.036764383 -0.07446947 -0.09383069 -0.0018957652 -0.03376242 0.056854777 0.06728966
-0.0026885173 -0.063311845 0.074274406 -0.05054829 0.044928476 -0.07835851 -0.031093763 -0.0012323401
-0.19447723 -0.08311066 0.017587876 -0.04686193 -0.04128544 0.024011815 -0.0047023767 -0.17372616
-0.08088689 -0.010622771 0.043973267 -0.1782766 0.092189096 0.021925265 0.16215675 0.1333124
-0.007155816 -0.041889302 0.10697296 0.16400753 -0.03540423 0.10792978 -0.09744738 -0.013247924
-0.01731694 0.06609167 0.08650918 0.029042121 0.032927103 -0.060818296 0.058849975 -0.10181238
0.043804117 0.05399268 -0.014060984 -0.018888632 0.11541783 -0.046502415 0.006076418 -0.057170413
-0.084018625 0.03078475 0.023346001 0.09579423 0.14964195 0.06931518 0.09552048 0.0825091
-0.014633796 0.04186887 -0.07077849 0.016466761 -0.053712416 -0.11195894 0.1209684 -0.11528321
-0.16414382 0.011554635 -0.069079235 0.040922686 0.044362973 -0.12902492 -0.016495226 0.19586496
-0.013328721 -0.030371552 -0.028064406 0.02171911 -0.084666766 0.19608615 0.17026879 0.047364913
0.028569499 -0.09701476 0.11192293 0.13360535 -0.12169556 0.15429856 0.10585788 -0.020204667
-0.05400427 -0.0038122875 0.002259281 0.041147575 0.019252691 0.089642644 -0.06903596 -0.03386625
-0.11970842 0.08723613 -0.05715381 -0.073494464 -0.110603206 0.08739317 -0.14644058 -0.080184154
0.094807446 -0.028408147 -0.06528691 0.01161745 0.10731467 0.10917989 0.18310288 -0.07568044
-0.11634545 0.014742834 0.009233817 -0.21118517 -0.13430543 -0.1329846 0.13568804 -0.118842535
-0.05333401 -0.1372785 -0.0031834098 -0.0043813908 -0.08661295 -0.121584445 0.067124054 -0.0318936
0.11215935 -0.0015391038 -0.14131764 -0.09399827 0.0913971 -0.03622467 0.044452466 -0.06209424
0.06910647 -0.123419106 -0.09137592 -0.18726102 -0.035421316 0.030715635 -0.00068456715 -0.038371783
-0.07599338 -0.04857074 0.17377391 0.059455432 0.06109198 0.10374239 -0.008102618 0.054730017
-0.1219179 0.032291085 0.16144899 -0.11031716 0.051221363 0.0010150835 0.049655084 -0.052242618
0.1405971 0.10452943 0.0036762701 0.15803534 -0.07164048 0.058050893 -0.027231127 0.011460366
-0.07117419 0.017873242 0.014807851 -0.08705664 0.04200008 -0.02247819 0.0007065342 -0.045058507
-0.2022005 -0.021950886 0.040327385 -0.21847187 0.010779531 -0.10793627 -0.01801388 -0.01771026
-0.07852918 0.049465872 -0.06740972 0.09423341 -0.10984687 -0.103329964 -0.16017762 -0.034895524
-0.032289118 -0.09881071 -0.03829792 -0.021690115 0.023913458 -0.10936225 -0.032811165 0.045035355
-0.068243995 0.02384725 0.17692913 0.09947916 -0.14271967 -0.09694658 0.036628734 -0.0041809394

network_body._body_endoder.seq_layers.2.bias f4 [128]
00000000: 389b 60bc 77be f0bb 0464 1b3c 7a3c 1c3c
00000010: 9b71 cd3a 6fc4 0e3b f155 a4bc 88ca 9dbb
00000020: 1350 97ba a4d6 98bc 2dae 133b 4a8d 053b
00000030: 1e6e 933b d29b febb 4000 d13b ef66 81bc
00000040: bcf4 82bb c4d9 653b 6b67 813b e071 0c3c
00000050: 070a ad3a 5952 3fbc cd03 183c 663d 36bc
00000060: ab5e ab3b 4784 a7bc 3c81 213c 3d0a d5bc
00000070: d652 09bc e3ea b9bc 084a 023a c34e b9bb
00000080: 7bd7 2fbc 551e 25bb 097e 153c 65e9 273b
00000090: b79d cfbb ec2d f03b b074 bd3a df11 2dbb
000000a0: cf0e ca3a 65a0 e6bb bc13 3bbc e418 68bc
000000b0: 0261 023b 5ac5 96ba 72fe d93a fe96 42ba
000000c0: 333a 503c 8e4d f7bb 0a72 583c 8943 a6bc
000000d0: 865b 40bc ffef 363c 4a28 2dbc 455f 203c
000000e0: 18d8 94bc 10bf 313b cfda 4e3b d11e 343a
000000f0: f42a 31ba 7ab4 e73b 08b8 96bc 1c91 dd3b
00000100: a707 09bc a1ca a83b 1a9c 2cbb 77b8 32bc
00000110: 7f13 a73b 9cee af3a 6ad7 2bbc fc22 b73a
00000120: 3132 22bb f145 303c 98a9 cfb9 942d 6ebc
00000130: 722e 0abc 5fc0 05bc bb6a 2cbc 171c b13c
00000140: dce1 fc3a 1d96 0cbc 9d1c 1bbb 4d11 a6ba
00000150: 093d 0fbc 9425 71bb e954 5ebc 8003 ff3b
00000160: d7df 683c 475c 433a 3a1f 113b 84bf c8bc
00000170: 437d 19bb d6ca a7bc d1b8 473c 4832 e23b
00000180: c517 003c efb0 fcba bffb 81bc 47b4 0fbb
00000190: 181e 89bb 4ef4 1ebc a9f3 6cbc b327 2bbc
000001a0: 2b91 82bc f155 0dbc 9b03 9c3a ee46 773c
000001b0: 1643 b93b 6a74 923c cfd8 48bc 5626 49bc
000001c0: c0f7 23bc e35a 39bc b070 83bc 4a98 89bb
000001d0: 0369 57bc c64a 0b3c 0c5c 5ab9 3e2c 36bc
000001e0: 50b9 173b 922f 0d3a 3cd0 383c edf2 813b
000001f0: 4645 89bb 4ec9 dcbb c567 033c 43e4 9bbb
-0.013708882 -0.007346924 0.009484295 0.009535903 0.0015674116 0.0021784564 -0.020060511 -0.0048154034
-0.001154425 -0.018657036 0.0022534237 0.0020378404 0.004499211 -0.00777004 0.0063782036 -0.015796153
-0.00399646 0.0035072425 0.003949096 0.008572072 0.0013201841 -0.011677348 0.00927825 -0.011123037
0.005229791 -0.020448817 0.009857472 -0.026005859 -0.008381566 -0.02269501 0.0004970138 -0.005655141
-0.010732527 -0.0025195081 0.009124287 0.0025621292 -0.0063359397 0.007329693 0.0014454331 -0.0026408357
0.001541579 -0.0070381635 -0.011418279 -0.014166091 0.0019894247 -0.0011502907 0.0016631617 -0.0007423012
0.012709188 -0.007547087 0.013210783 -0.020295875 -0.011740571 0.011165618 -0.010568688 0.009788339
-0.018169448 0.0027121939 0.0031563526 0.0006871047 -0.00067584147 0.007071075 -0.0183983 0.006761683
-0.008363641 0.0051511084 -0.002633816 -0.010908238 0.0050987597 0.0013422552 -0.01048837 0.0013972218
-0.0024749155 0.010758863 -0.00039608474 -0.014537234 -0.008433925 -0.008163541 -0.010523493 0.02161984
0.0019293386 -0.008580712 -0.0023668178 -0.0012669951 -0.008742579 -0.003679608 -0.013570049 0.0077823997
0.014213524 0.000745241 0.0022143857 -0.024505384 -0.002342061 -0.020482462 0.01219006 0.0069029666
0.007818167 -0.0019278805 -0.015867112 -0.0021927522 -0.0041844957 -0.009701801 -0.01446239 -0.010446477
-0.015938362 -0.008626447 0.001190293 0.015092595 0.005653749 0.017877776 -0.012258722 -0.012277206
-0.010007799 -0.011313173 -0.016044945 -0.0041990625 -0.013147595 0.008501714 -0.0002082439 -0.011118947
0.0023151226 0.00053858117 0.011280116 0.0039657266 -0.0041891662 -0.0067378646 0.008020346 -0.0047574355

action_model._continuous_distribution.log_sigma f4 [1, 2]
00000000: 2137 c8bd c2b7 d13b
-0.0977614 0.0064000795

action_model._continuous_distribution.mu.weight f4 [2, 128]
00000000: 0876 04bc 342d 78bc aba6 d43c 6d70 03bd
00000010: 05c2 a43c e504 25bd 19ec 9bbb 4f37 c8bc
00000020: 3c0a 1fbc 8504 1f3c 9802 0dbd d8e4 903c
00000030: ee34 ce3b 2adf 9fbb e1d3 d73c 3b6d 8d3b
00000040: 1ba5 813a 85b2 523b b83f 313c bc44 0a3d
00000050: 5108 a03c b6c4 a7bb dcff bebc 2f40 033c
00000060: 4826 febb 0046 9cba 17af ee3c bf02 66bb
00000070: b9e1 1abd a045 5a37 58ab fcbc dbcd 0abd
00000080: 4b8b 33bc f4e5 07bd f5fc 9f3c fe47 363c
00000090: faf6 a33c a3a8 de3c f04f 33bc e61c 9abc
000000a0: 2574 693c 4dba 94bc ce4b 2dbb 3087 a73c
000000b0: ac08 0fbc 205d a5bc b588 b63c bf63 52bc
000000c0: 859c a4bc 207b 1b3b 83cf ad3c a3a5 c0ba
000000d0: de2c 1fbc f47b af3c d27d 9d3b 6d58 343c
000000e0: 9822 26bc 425d a5bb 493b 9ebc 5bf0 51bd
000000f0: 1a15 b9bc 8ea3 613c 65df 293c d7bb d5bc
00000100: 1b62 0fbc 17cd 313d 8689 b93c 8355 453a
00000110: 277b 013d d45c 7bbb 4e31 07bc 7ac4 933a
00000120: eb78 bbbc 8672 313c 60bd 14bd 433a 81bc
00000130: a186 d33b 996c f5bb af83 423c b4a3 383d
00000140: 9fc6 ebbb 0da3 b33b 2a1e f8bc 6624 a2bc
00000150: cfe1 373b 1b13 c0bc b8c8 10bc 206c 89bd
00000160: a09f 973c 1e5b 09bd 8217 57bd 0314 0cbc
00000170: 8d76 abbc 63bb 4fbc c244 883c 38fb cc3b
00000180: a5db fa3a 666b 06bc 2cbb e2bb 0af2 a5bc
00000190: 9548 26bd 848f a3bb c631 8bbb 980f 303b
000001a0: fda3 cf3a 5248 883b 05e9 d23c 7186 bf3c
000001b0: 42c9 f6b9 26cf f33c 3ccb 51bc 3af3 4fbc
000001c0: 6c51 94bc 9111 163b 23bb 65bb 6a2c 96bc
000001d0: 60c4 01bc a62f 033d 19bd 883c 25f8 3ebc
000001e0: 444e f2bc 8c03 14bd cd5c de3c c8a0 9d3b
000001f0: 61f0 a8bc fc0c 85bb 4536 0f3d 8280 a7bc
00000200: b0fc bdbc 65dc 2f3c 23ac bf3b 3943 d23b
00000210: dacb 983b 6833 263d 89b7 8fbc 6874 c93b
00000220: 7c8b bcbb f68e eaba bad1 2e3b 038c 233a
00000230: c17b f23a 2597 893c 9425 fd3b 8ed7 5ebd
00000240: 200f 333a 6bad fc3c 2394 5d3c 39cf 193b
00000250: a772 d63b 667b 94bc 2b6e 303d 4086 29bd
00000260: ea27 e23c dcfd a5bc 48a2 f5bb 75e2 0ebb
00000270: d20a f9bc 769c 31bb 318c 753b 80bb 75bc
00000280: 2dc0 e0bc 7daa d4bc 087c 67bd 8328 ef3c
00000290: 2a5d 99bb bf2e c83c f7b7 393c b575 acbc
000002a0: 9647 a1bc 19e7 a4bc 5a58 0ebd 6331 40bb
000002b0: 7973 263c c99f f4b9 7834 043c fb60 623c
000002c0: ee9d b03c 5dc5 fa3a 578c ed3c 3b7c d1bc
000002d0: 19fa 98bc 1be5 aebb 4185 0dbd 77d6 ca3b
000002e0: b485 13ba ca0a a03c 82c5 e03b f699 b3bc
000002f0: 2f5c 72bc b07d 613c 24bd 83bc d53b 333d
00000300: 8740 f63a e712 87bc be10 b2bc ad0c d1bc
00000310: 406b 143d e4d8 d43b a75a e3bc 3189 fd3c
00000320: fee3 0bbc 266d ccbb 2072 ea3c 2ea1 b4bc
00000330: a677 1bbc d526 99bc cad9 12bd 198f 013c
00000340: b88b 0b3d b279 22bc 1618 c4bb 0bb9 83bc
00000350: 6407 923c 85c5 f5bb 78ea 543a f7ba 503b
00000360: fe9e 1c39 6f47 90bc ab8b 893c bb85 8bbc
00000370: 6f22 1e3b efc3 78bc d96b fa3c 4ec2 143c
00000380: 0ed9 0b3d 1959 49bb 537a efbc 2faf b53c
00000390: 76eb a03c 7386 fcbc df32 b7bc 940a 24bd
000003a0: 68ae 9dbc bd1a 0bbb 862f 54bc 980c 1e3c
000003b0: 651d ca3c 1692 a13b 936f 66b9 4d28 dabb
000003c0: 786a a5bc be15 2bbd eb75 dabc 35da 093d
000003d0: e246 64bc 3bc7 7e3c 5bad 373c 770a a0bb
000003e0: 15f6 9ebc 0fa8 553c 8219 333c 171f 083d
000003f0: 0009 373b 08bb 0c3c 7862 0e3d 49a6 20bc
-0.0080847815 -0.015147496 0.02595838 -0.03208964 0.020112047 -0.04028787 -0.0047583696 -0.024440436
-0.00970703 0.009705667 -0.0344263 0.017687246 0.006292931 -0.004878898 0.026346149 0.004316
0.0009891124 0.0032149863 0.010818414 0.033756956 0.019535216 -0.0051198853 -0.023315363 0.008010908
-0.0077560283 -0.0011922717 0.029136224 -0.0035096852 -0.037812922 1.3010023e-05 -0.030843422 -0.033887725
-0.010958503 -0.033178285 0.019529799 0.011125563 0.020015229 0.027180022 -0.010944352 -0.018812608
0.014248882 -0.018155241 -0.0026442888 0.020450205 -0.008730095 -0.020186007 0.022281984 -0.012841164
-0.020094166 0.0023724511 0.021217113 -0.0014697801 -0.009715287 0.02142141 0.0048062587 0.0110074105
-0.010140084 -0.0050465176 -0.019315379 -0.05125461 -0.02259307 0.013771905 0.010368203 -0.026090546
-0.0087514175 0.04340848 0.022648584 0.0007527696 0.031611588 -0.003835489 -0.008251501 0.0011273765
-0.022884807 0.010830527 -0.036313415 -0.015774852 0.006455258 -0.0074897525 0.011872216 0.045077994
-0.0071953083 0.0054820837 -0.03028782 -0.019792747 0.0028058176 -0.02344661 -0.008836918 -0.06710076
0.018508732 -0.03353416 -0.052512653 -0.008549693 -0.020930553 -0.012678954 0.016634349 0.0062555335
0.0019138945 -0.008204317 -0.0069192853 -0.020257015 -0.040596563 -0.0049914736 -0.004247877 0.0026864763
0.0015841719 0.004159012 0.025745878 0.023379536 -0.00047070725 0.029761862 -0.0128048025 -0.012692267
-0.018105231 0.0022898654 -0.003505417 -0.018331725 -0.007920355 0.032027863 0.016691731 -0.011655842
-0.029578336 -0.036136195 0.02714386 0.0048104264 -0.020622434 -0.0040603857 0.034963865 -0.02044702
-0.02319178 0.0107336985 0.0058493777 0.006416705 0.004662973 0.04057637 -0.017543571 0.00614791
-0.0057539325 -0.0017895389 0.00266753 0.000623882 0.0018500016 0.016795704 0.007725427 -0.054404788
0.0006830562 0.03084441 0.013524088 0.0023469462 0.0065444293 -0.018125247 0.043073814 -0.041387796
0.027606923 -0.020262651 -0.007496152 -0.002180246 -0.030400667 -0.0027101315 0.0037467594 -0.014998317
-0.027435387 -0.025960201 -0.05651477 0.029194122 -0.0046802955 0.024436353 0.011335365 -0.02105222
-0.019687455 -0.020129727 -0.034752227 -0.0029326312 0.010159367 -0.00046658356 0.00806915 0.013817067
0.021559682 0.0019132305 0.028997583 -0.025571933 -0.018673943 -0.00533737 -0.03455091 0.006190117
-0.00056275283 0.019536395 0.0068594823 -0.021924 -0.014792486 0.013762876 -0.0160814 0.043758232
0.0018787541 -0.016488506 -0.021736499 -0.02551874 0.036235094 0.006495582 -0.027753187 0.030949207
-0.008538244 -0.0062385974 0.028618872 -0.022049513 -0.009488976 -0.018695274 -0.03585223 0.007907652
0.034068793 -0.00991671 -0.0059843166 -0.016079446 0.01782579 -0.007500353 0.0008122097 0.003184972
0.00014936549 -0.017612187 0.016790232 -0.017031541 0.002412941 -0.015183433 0.030569004 0.009079529
0.034142546 -0.0030723272 -0.029233133 0.02217826 0.019643527 -0.03082583 -0.022363124 -0.04004915
-0.019248202 -0.0021225654 -0.012950784 0.009646557 0.02467222 0.004930745 -0.00021976074 -0.0066576363
-0.02019237 -0.04176878 -0.026667556 0.033655364 -0.013932915 0.01555043 0.011210765 -0.00488406
-0.01940445 0.013040557 0.0109313745 0.033232775 0.0027928948 0.008589514 0.034761876 -0.0098052705

action_model._continuous_distribution.mu.bias f4 [2]
00000000: 003d 433b 79cf 043c
0.0029790998 0.008106106

exp_avg f4 [128, 8]
00000000: d992 5538 a69f e636 ad03 1c39 da1b 7db8
00000010: 455f 0937 a071 30b9 2b49 81b8 bb6a 7438
00000020: 1748 de38 5d40 06ba 0feb 3639 df97 9bb8
00000030: e067 eeb7 633f a2b9 0de5 39ba 2c92 02ba
00000040: 1600 a939 d36b c2b8 f995 ca39 7cec 0e3a
00000050: c1e6 e436 d99d 9bb9 976a ecb9 6e2a 4db9
00000060: 627a 2039 55f4 bc39 10ec 5439 5964 f837
00000070: 84da d1b8 693d 5a39 1752 b438 148d 6939
00000080: 79f6 fe38 5800 6038 f334 6d38 873b 3fb8
00000090: df83 c1b8 fd6a 4535 1341 a738 e5f8 8838
000000a0: 3968 b538 ccc0 cb36 b69a 1439 11b4 8437
000000b0: 2a61 2137 9df0 04b9 de71 90b9 357e 21b9
000000c0: 3db9 c6b9 58d4 54ba 6ab3 42ba b33e 47b9
000000d0: 2ff4 0239 9f9e be39 77c3 e3b9 ebcb f7b9
000000e0: f561 6fb8 1b1b ee39 bf7d f0b8 5abd 8539
000000f0: 95b0 8e39 d744 96b9 23aa 1839 e637 3239
00000100: 5c74 6539 3d23 be38 178a 083a 849f 9b38
00000110: 7cdb 2939 dd5e cdb9 f8e2 44b9 de0c 1039
00000120: e4ad 4239 937c fab8 718a 8539 bc91 a839
00000130: 239d 8537 1e4f 84b9 426c 6db9 9e7f fcb8
00000140: b93b 6b39 be82 5cb8 9f7e bc39 a6b2 ef38
00000150: 0bbb 7cb8 3222 eeb9 7973 92b6 88ed 4a38
00000160: ca8b 173a 0fd1 8bb8 be8f 473a fdc0 a139
00000170: f7a0 d6b8 d518 5aba c968 9fb9 3b98 b4b8
00000180: 3a9e 2539 64df 0139 dd14 3239 a45e 8037
00000190: 4bd3 35b8 ed75 8d38 aef7 88b8 7407 b637
000001a0: 5dac 7539 d9b9 47b8 183b 8539 10a2 b638
000001b0: 493b 75b7 99f8 f0b9 fe7a 03b9 01b9 19b8
000001c0: f37c 8bb8 3d2e d339 1a48 44b9 8739 4eb9
000001d0: 9d44 59b9 8272 6f39 adbe 133a 2f89 e739
000001e0: a9e6 bcb8 6528 be36 7208 60b9 0ea4 1db8
000001f0: 9bdf 9a37 6a4a 1939 4377 02b9 32ef f6b8
00000200: 1a9b 63b9 b1e4 89b9 f487 e3b8 5da2 dab7
00000210: af5f ce37 c6e5 ba37 2444 94b9 318d 6ab9
00000220: 7ccc 163a acf3 01b9 07ee 1939 6737 4e39
00000230: 98c1 d3b8 f47b cd39 f82d 56b9 ee44 e3b8
00000240: b8a4 2939 5eee 34b7 17d1 0b3a 08c0 21b9
00000250: 4d15 fdb8 68a9 30ba 6d74 87b8 4298 a438
00000260: 8501 5238 a71e 8b37 6922 ae38 a807 e038
00000270: 8078 a138 1279 97b7 6b03 9bb8 22a6 94b7
00000280: 8a65 65b9 e788 3db9 0ee3 b1b9 3ad2 0cb9
00000290: 9d83 7738 aacb 5338 1622 a538 baba 07b8
000002a0: 1fc4 bab8 0ae7 05b9 a6ab 04b9 9093 f2b7
000002b0: c756 1ab9 8f8d bb39 e331 d1b9 d325 efb9
000002c0: d10a 36b9 0f32 08b5 3559 bbb8 ddc6 26b9
000002d0: 1f69 a937 c224 c3b8 032c 0c38 17d6 9838
000002e0: 1278 8fb9 2506 80b9 f58d 06ba 85a0 60b9
000002f0: bfe3 5fb7 7f39 ec37 dbc1 19b9 257e 0eb9
00000300: d7f0 bdb9 0ef3 49ba 3acd 20ba 295d e7b8
00000310: 4870 d638 cda4 f437 e772 c5b9 5006 0fba
00000320: 055e 0ab8 408a 7b38 572d 4e38 e523 b538
00000330: a64d db36 8a0d e3b9 b260 d036 08e4 fd37
00000340: eaa5 14ba b34f 29b9 9c6f d1b9 8128 24b9
00000350: ccc1 a338 b1a9 9fb9 1658 53b9 4980 49b9
00000360: 8302 ae39 eade ca39 2ef6 3d39 d2ed a739
00000370: d4ba e836 7637 1639 2a92 cb38 bf1c 1739
00000380: 63c7 47b9 10f3 9d39 8589 ad37 516b 7338
00000390: a480 8c37 a493 cab8 b650 6a38 9b5a f938
000003a0: a234 6db8 83f2 ec36 5442 9139 b73c 1e38
000003b0: 7e56 5238 6e5f f139 09a7 7bb9 1cb3 edb8
000003c0: 261e c439 58e2 1e3a feeb c539 59d1 eb39
000003d0: 44e0 8538 ddad 25b9 be91 4e38 703c 1239
000003e0: c76c 10b9 57c8 1a39 bd20 6a38 cfdd 7bb9
000003f0: cdf5 7eb8 4854 5d39 5d17 8939 f1c7 7839
5.091992e-05 6.8731197e-06 0.00014878689 -6.034584e-05 8.188018e-06 -0.00016826997 -6.164828e-05 5.8273534e-05
0.00010599213 -0.0005121285 0.00017444439 -7.419264e-05 -2.8420181e-05 -0.00030946275 -0.0007091321 -0.0004980888
0.00032234256 -9.270725e-05 0.0003864018 0.0005452109 6.821793e-06 -0.0002968151 -0.00045092843 -0.0001956613
0.0001530438 0.00036040196 0.00020305836 2.9610632e-05 -0.00010006598 0.00020812977 8.598359e-05 0.00022273167
0.00012157573 5.3406082e-05 5.6554516e-05 -4.5593388e-05 -9.22752e-05 7.354391e-07 7.9753016e-05 6.5313456e-05
8.6501655e-05 6.072316e-06 0.00014172014 1.5819476e-05 9.618971e-06 -0.00012678136 -0.00027550658 -0.00015401172
-0.00037903516 -0.00081188 -0.00074272475 -0.00019001476 0.00012488732 0.00036357806 -0.00043442447 -0.00047263442
-5.707327e-05 0.00045415093 -0.00011467514 0.00025508815 0.00027215914 -0.0002866152 0.0001455923 0.00016996227
0.00021882489 9.06647e-05 0.0005208565 7.420688e-05 0.0001619886 -0.00039171326 -0.00018776569 0.00013737704
0.00018566061 -0.00011944133 0.00025470884 0.00032152038 1.5928008e-05 -0.0002523595 -0.0002264241 -0.00012040067
0.00022433595 -5.257385e-05 0.00035952494 0.00011429684 -6.025568e-05 -0.00045420375 -4.364582e-06 4.838177e-05
0.0005781023 -6.666977e-05 0.0007612667 0.000308521 -0.00010234297 -0.00083197403 -0.00030404914 -8.611424e-05
0.0001579457 0.00012385618 0.00016983175 1.530286e-05 -4.3350545e-05 6.745369e-05 -6.531119e-05 2.1699561e-05
0.00023429231 -4.761838e-05 0.00025411765 8.708623e-05 -1.4616941e-05 -0.00045961587 -0.00012538952 -3.665034e-05
-6.65131e-05 0.00040279506 -0.00018718877 -0.00019667122 -0.00020720293 0.00022835474 0.0005636018 0.00044161963
-9.0075024e-05 5.667144e-06 -0.00021365451 -3.7584505e-05 1.8462355e-05 0.00014618938 -0.00012442195 -0.00011774748
-0.00021706187 -0.00026301065 -0.00010849527 -2.6063231e-05 2.460167e-05 2.2279924e-05 -0.00028279528 -0.00022368577
0.00057525164 -0.00012393174 0.00014679889 0.0001966633 -0.00010097324 0.00039193 -0.00020425755 -0.00010837043
0.00016178458 -1.0784335e-05 0.0005333586 -0.00015425694 -0.00012067948 -0.00067391107 -6.4589876e-05 7.8484896e-05
5.0069317e-05 1.6584365e-05 8.303376e-05 0.000106825784 7.699523e-05 -1.805698e-05 -7.3916126e-05 -1.7720336e-05
-0.00021876968 -0.00018075445 -0.0003392924 -0.00013429756 5.9011963e-05 5.0495997e-05 7.874162e-05 -3.236041e-05
-8.9057015e-05 -0.00012769937 -0.00012652445 -2.8917362e-05 -0.00014718912 0.0003577289 -0.00039900755 -0.00045613814
-0.00017360902 -5.0736793e-07 -8.933471e-05 -0.00015905076 2.019532e-05 -9.305171e-05 3.341959e-05 7.287802e-05
-0.00027364545 -0.0002441864 -0.00051328476 -0.00021422103 -1.3344862e-05 2.8160166e-05 -0.00014663434 -0.00013589168
-0.0003622833 -0.00077037595 -0.0006134097 -0.00011032291 0.00010225229 2.9163808e-05 -0.00037660377 -0.0005455958
-3.2989326e-05 5.997182e-05 4.9156453e-05 8.6374384e-05 6.535748e-06 -0.000433069 6.21014e-06 3.0266136e-05
-0.0005670475 -0.00016146786 -0.00039946742 -0.00015655348 7.808543e-05 -0.00030453273 -0.00020155343 -0.00019216644
0.00033189738 0.00038694526 0.00018116154 0.00032029912 6.9358885e-06 0.00014325776 9.7070195e-05 0.00014411191
-0.00019052396 0.0003012647 2.0687245e-05 5.803566e-05 1.6749203e-05 -9.659611e-05 5.5865115e-05 0.00011890122
-5.655422e-05 7.06158e-06 0.00027705973 3.772668e-05 5.0148454e-05 0.00046038203 -0.00023999451 -0.000113344024
0.00037406496 0.00060609495 0.00037750596 0.0004497867 6.383707e-05 -0.00015800395 4.924996e-05 0.0001394616
-0.00013773433 0.00014761217 5.5820437e-05 -0.00024019855 -6.078724e-05 0.000211076 0.00026148083 0.00023725607

exp_avg_sq f4 [128, 8]
00000000: d4a8 8634 e184 6634 29c2 7034 2463 8634
00000010: 5443 0435 6bd6 8834 aaaa 4235 d2fc 9634
00000020: 438d 6935 b109 da34 3190 5d35 b02d 6935
00000030: 0d19 e733 0f24 8935 bae8 2436 28f0 9235
00000040: dd97 5436 80b8 2435 5e93 5f36 f347 6036
00000050: 926e 2d35 30f6 6d36 e3fb 0637 fa28 6936
00000060: 0887 5d34 569f 7135 a02c be34 2a51 8034
00000070: cece 3f34 55e9 d934 1797 3735 8b52 7535
00000080: e1a9 5b34 fd8e 0135 d078 5934 8c95 4234
00000090: 7277 8b34 9d7c 9034 33b0 5835 e883 d834
000000a0: 26be d134 4c49 1034 5a78 c934 1ede f334
000000b0: ee47 8934 dba0 0135 ca00 9735 cacf fb34
000000c0: 0c9d a635 107a fc36 d88b ea35 7ff2 a235
000000d0: d6c5 6935 c00a e335 a2cd 6136 30b3 8d36
000000e0: 2576 aa35 c656 0e37 09ab 0636 447c af35
000000f0: db38 a235 df4f fb35 98f7 7b36 fa14 af36
00000100: 88a9 d035 bd43 1935 c34e ac35 d8d3 bf35
00000110: 68b0 bc35 f9f2 cd35 19b9 8736 daa1 d135
00000120: 654d 1235 b224 8b34 d443 2735 ad41 2935
00000130: ac9c 3535 ceef 2c35 eb91 cd35 e83d 3435
00000140: 6139 3735 84f1 1334 127e 5635 5f12 4f35
00000150: 63ae 4133 a7ea 5835 cf89 eb35 84bd 5c35
00000160: b7f1 7936 b85e 6835 4f54 8736 582d 8f36
00000170: df62 9635 4d06 9636 039d 3837 e64d 9736
00000180: f86e 3f34 5585 4735 dc58 6934 f9fe 5c34
00000190: 3061 a933 61ba 7c34 2a1d 0135 f1ae 0d35
000001a0: 26df 8135 9601 0834 f9df 6f35 ad9f 8835
000001b0: c9da 1b34 fd02 8435 a6cb 1136 0dee 7a35
000001c0: 5bb8 9f35 1e67 0136 137b ad35 1c67 b735
000001d0: 3525 0836 a132 e235 8052 3636 1b73 1536
000001e0: c1b4 a535 1010 9134 1ffa 6b35 6907 8235
000001f0: 27fa 0635 db34 8e35 7765 4036 a0ea 8935
00000200: b65c b834 2024 c435 7d60 e334 21b7 c734
00000210: 23bd a333 5f3e 0335 84ff 7635 cc72 8635
00000220: 4785 4735 2280 9536 5e38 8035 8754 7b35
00000230: cfbe 6233 5569 aa35 ec23 1136 c0e1 3236
00000240: b61b 8e35 c8ba 0035 b0bf a435 0635 9e35
00000250: 631e 7c35 cd8b ae35 f2b8 5e36 0209 b535
00000260: 34af 1834 398a 4734 9ce0 3c34 3cb6 4134
00000270: cd3c 6f34 f80b 3734 4476 b334 d20f 7834
00000280: 61fa 8d34 1f33 8035 5b3c e734 f03a bd34
00000290: cf32 ac33 c749 cd34 5b35 7435 57e8 5935
000002a0: 5894 c835 544d 0035 d38e 8d35 34bf aa35
000002b0: fffe 6e35 4fe1 8d35 167f 1936 96a9 9b35
000002c0: 41f5 6f34 36f4 6935 2ef6 bb34 d274 9434
000002d0: d979 8335 6e9c a734 1f7f 2535 29e4 2735
000002e0: 9d15 1635 7d9c 5b36 8a9e 4335 0c70 0d35
000002f0: 4145 0235 f27f 2d35 3388 b235 5180 e335
00000300: 2e73 8035 d8ae bd36 4c8d b635 66ac 8435
00000310: c033 9235 9b93 ae35 6722 3636 afc9 6d36
00000320: e02b 0635 b635 b535 4f67 1735 d4be 1435
00000330: 12ab 1b34 fcce 2d35 57f1 be35 12f1 8735
00000340: f7f8 4735 842d 8936 9b67 8535 7836 5735
00000350: 6305 6b35 9b13 9a35 ee62 1236 6845 4436
00000360: dcca 0435 4996 fa35 d1e2 3435 b470 f634
00000370: 69a4 df34 2460 2635 61ec ab35 f02c cc35
00000380: 8551 0935 acfa 8d35 2a55 1635 55e5 e434
00000390: 074e 2c34 fe1b 3735 674b be35 32d3 8535
000003a0: aba4 e035 4521 2a35 e726 af35 cad6 cf35
000003b0: 464d e335 2b9f be35 fa75 6736 6768 c035
000003c0: 5acc ab35 ca36 c336 285b e935 2b96 bb35
000003d0: 80a2 3235 5d99 c135 4d87 5536 7ab8 7d36
000003e0: 29d6 0435 fd7f 8934 79b2 0535 c609 1835
000003f0: 28b9 da34 41a8 0a35 b3dc bf35 5fbf 2635
2.5082284e-07 2.146876e-07 2.2422377e-07 2.503158e-07 4.927181e-07 2.5487984e-07 7.251898e-07 2.8123628e-07
8.7004827e-07 4.0612716e-07 8.253874e-07 8.686575e-07 1.07613324e-07 1.021779e-06 2.457337e-06 1.0947742e-06
3.1678858e-06 6.1363244e-07 3.3315368e-06 3.342048e-06 6.4608423e-07 3.5459052e-06 8.045669e-06 3.4743557e-06
2.0631353e-07 9.001136e-07 3.5422727e-07 2.3900913e-07 1.7863496e-07 4.058917e-07 6.8392677e-07 9.138973e-07
2.0457766e-07 4.826432e-07 2.0253651e-07 1.8122063e-07 2.5977675e-07 2.6912758e-07 8.0722674e-07 4.032911e-07
3.9067635e-07 1.343771e-07 3.7526735e-07 4.542389e-07 2.5570574e-07 4.829032e-07 1.1250606e-06 4.690358e-07
1.241367e-06 7.524395e-06 1.7475058e-06 1.2140516e-06 8.7087153e-07 1.6915947e-06 3.3647307e-06 4.2229876e-06
1.2700372e-06 8.484063e-06 2.0067112e-06 1.3074682e-06 1.2086488e-06 1.8724203e-06 3.7546033e-06 5.2178484e-06
1.5546548e-06 5.7095514e-07 1.2837921e-06 1.4292264e-06 1.4058432e-06 1.5344405e-06 4.0448617e-06 1.5618818e-06
5.450186e-07 2.5917467e-07 6.231105e-07 6.3052977e-07 6.765574e-07 6.4423955e-07 1.5316158e-06 6.714531e-07
6.825631e-07 1.3778305e-07 7.990467e-07 7.714024e-07 4.5094918e-08 8.0807735e-07 1.7548972e-06 8.223217e-07
3.7244588e-06 8.656457e-07 4.0331283e-06 4.267011e-06 1.1204646e-06 4.471082e-06 1.1003812e-05 4.5092193e-06
1.7828631e-07 7.43273e-07 2.1732143e-07 2.0581855e-07 7.887354e-08 2.3537133e-07 4.8098684e-07 5.2781166e-07
9.676194e-07 1.2666564e-07 8.936036e-07 1.0179261e-06 1.4515093e-07 9.835636e-07 2.1725223e-06 9.3478667e-07
1.1900078e-06 1.928252e-06 1.2925324e-06 1.3664571e-06 2.0287237e-06 1.6853047e-06 2.7168135e-06 2.226973e-06
1.2346064e-06 2.7020042e-07 8.7908296e-07 9.687911e-07 5.028291e-07 1.0595207e-06 2.866929e-06 1.027558e-06
3.4340127e-07 1.4613652e-06 4.235225e-07 3.7199882e-07 7.624683e-08 4.8892065e-07 9.2013966e-07 1.0017188e-06
7.432722e-07 4.4554627e-06 9.553148e-07 9.362779e-07 5.2793265e-08 1.2696643e-06 2.1627593e-06 2.665547e-06
1.0587889e-06 4.795552e-07 1.2274741e-06 1.1787349e-06 9.3921534e-07 1.3004698e-06 3.318823e-06 1.3488172e-06
1.4219842e-07 1.8583604e-07 1.7590577e-07 1.8040822e-07 2.2280729e-07 1.7047557e-07 3.3427398e-07 2.3102555e-07
2.644547e-07 9.551621e-07 4.3071017e-07 3.5246876e-07 8.018616e-08 3.8237906e-07 9.0974726e-07 8.11769e-07
1.4944335e-06 4.7796243e-07 1.0546886e-06 1.2721634e-06 8.903298e-07 1.0570892e-06 2.287275e-06 1.1597756e-06
2.2347832e-07 8.715464e-07 3.5010584e-07 2.7652146e-07 9.795723e-07 3.1219992e-07 6.1652275e-07 6.2544365e-07
5.5910806e-07 3.2724631e-06 7.2873866e-07 5.2689643e-07 4.852955e-07 6.4633707e-07 1.3301673e-06 1.6950163e-06
9.570265e-07 5.6529934e-06 1.360118e-06 9.884941e-07 1.0892909e-06 1.3006969e-06 2.7140138e-06 3.5433147e-06
4.9982737e-07 1.3501183e-06 5.640222e-07 5.541199e-07 1.4497735e-07 6.4748724e-07 1.4226342e-06 1.0128445e-06
7.449557e-07 4.088217e-06 9.939425e-07 8.0173004e-07 8.755216e-07 1.14796e-06 2.181328e-06 2.9246676e-06
4.946903e-07 1.867019e-06 6.7385287e-07 4.5903073e-07 4.165661e-07 6.197972e-07 1.2809288e-06 1.5212263e-06
5.1155104e-07 1.0578274e-06 5.6003284e-07 4.263517e-07 1.6047134e-07 6.8213546e-07 1.4178048e-06 9.970738e-07
1.6737225e-06 6.337835e-07 1.3049838e-06 1.5485214e-06 1.6935307e-06 1.4202427e-06 3.4490354e-06 1.43355e-06
1.2799967e-06 5.817831e-06 1.7386383e-06 1.397629e-06 6.6546636e-07 1.4424255e-06 3.1818229e-06 3.7807317e-06
4.9485476e-07 2.5611362e-07 4.9806073e-07 5.6638635e-07 4.0740383e-07 5.165385e-07 1.4294841e-06 6.21183e-07

exp_avg f4 [128]
00000000: 1183 e6b8 bfc2 1eb9 e7ed 9db9 0a96 43b9
00000010: 5313 8237 148d 82b9 917e ec38 025d 79b9
00000020: 34ed b3b9 f77c 18b9 fb33 f837 7fdd 8bb9
00000030: 4fc4 05b9 f93b 88b8 e4fe ac39 76f3 cfb8
00000040: 5420 f7b5 3140 5db8 f6db 00b8 520f ffb8
00000050: 056f 0639 2742 57b8 282a 54b8 62ae 4b38
00000060: 7a6a a839 eb1e 3d37 8235 6336 77af 82b9
00000070: cadd eeb8 7ffa 0fb9 a78e d6b9 3331 3f39
00000080: e333 8538 21bf a4b7 4ba7 8638 55f0 a6b9
00000090: ae57 92b9 3c2e 9e39 5773 e5b7 927f 64b8
000000a0: ea09 f638 2874 6db9 a39c d238 663c 25b9
000000b0: c930 e638 0786 28b8 8f71 2d38 ed53 afb8
000000c0: 430c 4e39 39df 5939 444e 8838 b339 f837
000000d0: c122 5437 c100 1e39 8fbd 1538 4b40 ab38
000000e0: dae2 6db8 abb9 3c37 5925 5437 ff9c 25b8
000000f0: 9a2f 8339 4555 f938 4c17 90b8 c990 86b9
00000100: 3af9 bc38 0943 c038 f4db cab8 568f 22b9
00000110: 3cc5 e437 2998 2e39 6dfb 8db8 4381 63b8
00000120: eb10 aa39 c52e 4db9 5d02 77b9 163a 19b8
00000130: d203 c234 ab62 22b9 8a22 3c39 bdf0 33b9
00000140: c807 f838 87a9 a039 7777 7c38 493c 9f39
00000150: 6184 c9b8 5154 3db8 886d 8ab8 e281 cab7
00000160: 01ad 82b9 31e6 9d39 0865 d137 bdc8 1738
00000170: 98b2 5739 01c5 8eb8 c71c cf36 185c 8139
00000180: f083 0d39 ce76 46b8 64c9 cab6 abeb 3638
00000190: 1454 a537 7b55 2439 8b63 b938 ca26 e0b9
000001a0: 57c9 d4b8 b925 ed37 369e 05b9 3a90 feb8
000001b0: ac2e 4938 d795 4db9 c0f0 5bb9 cc04 f9b7
000001c0: 9787 f7b8 626d 24b8 4319 91b7 c82e 35b9
000001d0: 74f8 aeb9 81e6 81b9 c9bb be38 c680 0d38
000001e0: 24b8 e237 09a8 92b8 7ba2 1338 3866 0f39
000001f0: 88d6 0537 3a68 0e37 c301 07b9 8170 cc38
-0.00010991668 -0.00015140603 -0.00030122625 -0.00018652543 1.5506206e-05 -0.00024900644 0.00011276932 -0.00023781139
-0.0003431827 -0.00014542403 2.958811e-05 -0.00026677173 -0.00012756999 -6.496156e-05 0.00032996305 -9.915877e-05
-1.8412343e-06 -5.275029e-05 -3.0722433e-05 -0.00012162201 0.00012820594 -5.1321604e-05 -5.0584e-05 4.856138e-05
0.00032122788 1.12724765e-05 3.3856782e-06 -0.00024926264 -0.00011390036 -0.0001373086 -0.00040923545 0.00018233508
6.351599e-05 -1.9639325e-05 6.420779e-05 -0.0003184105 -0.00027912616 0.00030170556 -2.7352637e-05 -5.4478245e-05
0.00011732041 -0.00022645353 0.00010042756 -0.00015758126 0.000109763416 -4.0179144e-05 4.1352174e-05 -8.360283e-05
0.00019650259 0.0002077789 6.4995635e-05 2.9590772e-05 1.26442765e-05 0.00015068335 3.570091e-05 8.165891e-05
-5.6716475e-05 1.1248902e-05 1.264488e-05 -3.948528e-05 0.00025021733 0.00011889128 -6.8707945e-05 -0.00025666345
9.010961e-05 9.16776e-05 -9.67308e-05 -0.0001550292 2.7271562e-05 0.00016650617 -6.7702356e-05 -5.42414e-05
0.00032437532 -0.00019567746 -0.00023556636 -3.653214e-05 3.6138096e-07 -0.0001548628 0.00017941944 -0.00017160452
0.00011827011 0.00030643886 6.0192742e-05 0.0003037176 -9.6090844e-05 -4.5139637e-05 -6.6007546e-05 -2.4140758e-05
-0.0002492443 0.0003011688 2.4961788e-05 3.6188158e-05 0.00020570529 -6.8077825e-05 6.172431e-06 0.00024673413
0.00013495958 -4.7317524e-05 -6.043514e-06 4.3611664e-05 1.9708685e-05 0.00015672103 8.840029e-05 -0.0004275351
-0.0001014645 2.8270168e-05 -0.00012742807 -0.00012138528 4.79656e-05 -0.00019606143 -0.00020975154 -2.9685347e-05
-0.000118031334 -3.9202518e-05 -1.729711e-05 -0.00017278933 -0.00033372978 -0.00024776536 9.094884e-05 3.373695e-05
2.7027047e-05 -6.9931215e-05 3.5198853e-05 0.00013675622 7.977367e-06 8.488127e-06 -0.0001287526 9.7484335e-05

exp_avg_sq f4 [128]
00000000: ede0 8334 261f 7435 6009 6436 93c1 bb34
00000010: acf6 6c34 dca4 f334 3478 b835 3421 e335
00000020: e5b4 c235 2b39 2835 4c56 4d35 2eee 8d36
00000030: 49df 6f34 282e 7a35 571a cc35 ddf7 8135
00000040: 8eb1 eb34 f411 8f35 28a2 a635 9930 3634
00000050: 90ee c634 8d5a 9835 8e68 a034 c968 1835
00000060: 2f3e 9c35 5a21 1f35 208c 8b35 cc39 1f35
00000070: 9db3 0b35 c4d0 c335 50d1 cb35 a6a6 1335
00000080: 20b4 2834 98da 2335 8b37 a234 6d93 7635
00000090: 6686 2335 0c0c 9735 8838 e434 16c2 0b34
000000a0: ff5a b434 49c9 1435 6595 4135 f392 0335
000000b0: be65 6f34 0f94 2b34 2078 7235 a1e5 be34
000000c0: e4aa bd35 6742 b935 0ce7 4e35 8aea e333
000000d0: 9f50 fb33 9a73 6f35 d286 4c35 d795 0a34
000000e0: b1ef 2234 9981 a435 bc0a 7734 9a78 fd34
000000f0: ea88 5835 f6be ba34 c36f 0535 ac68 1f35
00000100: 9daf 9c34 0d6f 2034 5465 bf34 87d0 4736
00000110: 4f30 2234 dde4 b035 8c24 3234 d44f 3f35
00000120: 8ca9 f435 cf20 a835 9127 3835 cfef 5d35
00000130: 46c4 b733 ff80 8535 76a0 9834 f86f 1335
00000140: 4442 3e35 4f62 e035 ae13 4235 8aa2 8036
00000150: fcea 8f35 9f9f 9a35 4332 5d34 058a 4234
00000160: 6559 8d35 8e29 b735 5ba2 d234 5cdb e135
00000170: fe5d c335 c2ab 9235 d6ea cf34 45f8 cd35
00000180: 8ab8 9c35 6f7d 3b35 8fa1 2434 6a2d 2b35
00000190: f646 c135 a698 e334 f19d cf34 0880 9535
000001a0: e04b 8335 953e 7334 3411 2e35 b89e 1935
000001b0: 3c77 1935 aede ad34 db0a 2f35 67e7 a733
000001c0: 0db8 1535 b6a8 3035 f8a6 ae34 102c c434
000001d0: 4bf3 8735 e414 4235 26c5 0435 4ab3 a334
000001e0: 7ba5 7f34 96f6 a034 2ce8 0034 0c0c dd34
000001f0: 3744 4435 dc20 6635 9197 ab35 e0ac 4334
2.4564306e-07 9.094241e-07 3.3980104e-06 3.4972308e-07 2.2068951e-07 4.5382228e-07 1.3744052e-06 1.6922481e-06
1.4506774e-06 6.266807e-07 7.649403e-07 4.229855e-06 2.233984e-07 9.3199424e-07 1.520685e-06 9.683387e-07
4.390135e-07 1.0659555e-06 1.2415157e-06 1.696775e-07 3.705395e-07 1.1351236e-06 2.9878396e-07 5.6776895e-07
1.1641004e-06 5.928065e-07 1.0397089e-06 5.931622e-07 5.2042907e-07 1.4589391e-06 1.5185597e-06 5.500427e-07
1.5711748e-07 6.104033e-07 3.0215264e-07 9.1856674e-07 6.091781e-07 1.1253883e-06 4.250944e-07 1.3015992e-07
3.359382e-07 5.5427205e-07 7.21155e-07 4.901514e-07 2.2295623e-07 1.597948e-07 9.032683e-07 3.5557335e-07
1.4131333e-06 1.38029e-06 7.70772e-07 1.06131736e-07 1.1702763e-07 8.920266e-07 7.619211e-07 1.2906763e-07
1.5174625e-07 1.225667e-06 2.3007573e-07 4.7212671e-07 8.0665507e-07 3.4784142e-07 4.9708996e-07 5.9384433e-07
2.918504e-07 1.4941561e-07 3.5650248e-07 2.977469e-06 1.5105e-07 1.317963e-06 1.6590838e-07 7.126921e-07
1.8228761e-06 1.2526524e-06 6.860292e-07 8.2677883e-07 8.5573035e-08 9.946815e-07 2.8428957e-07 5.4924703e-07
7.0876945e-07 1.6717912e-06 7.229927e-07 3.8336193e-06 1.072272e-06 1.152035e-06 2.0600514e-07 1.8117869e-07
1.0531336e-06 1.3646656e-06 3.9233677e-07 1.6827648e-06 1.4555987e-06 1.0927836e-06 3.872762e-07 1.5345946e-06
1.1676614e-06 6.984546e-07 1.5332465e-07 6.376855e-07 1.4400273e-06 4.239311e-07 3.8671672e-07 1.1138627e-06
9.782343e-07 2.2653906e-07 6.4845085e-07 5.722791e-07 5.717045e-07 3.2385782e-07 6.5208377e-07 7.818635e-08
5.5774655e-07 6.5810616e-07 3.253151e-07 3.6539905e-07 1.0129091e-06 7.230103e-07 4.946072e-07 3.0491566e-07
2.3808927e-07 2.9981737e-07 1.2005393e-07 4.1173223e-07 7.3114956e-07 8.5729494e-07 1.2784604e-06 1.8223682e-07
