Assets/results/petfollower15/PetFollower/PetFollower-396463.pt (torch, 448026 bytes, 36 tensors)

network_body._body_endoder.seq_layers.0.weight f4 [128, 8]
00000000: 3692 00be 0d2e 72be e028 f73e e247 21bf
00000010: b6ad a73c e936 98be d078 3b3d 666f d2be
00000020: 0cce adbe a4b4 eb3d 3748 3bbf ffdc a8be
00000030: 7708 ae3e 7f79 39bf ee82 fb3e a714 07bf
00000040: 03e9 f4bd 97af 9b3e 0407 4f3d 2173 73bd
00000050: 0b96 11be 0aeb 9d3e dfe7 683e 62b8 5a3e
00000060: 72a3 36bf 1014 383e eec6 6f3f 9fb0 143f
00000070: 822a 0ebd ed93 353e 66e2 71bd ed98 18be
00000080: 73b1 753d 5ce8 f63d b12b cf3e f9da 963e
00000090: e48e 8abe 44bc 08be fb9f 13be f6e0 2abe
000000a0: 0961 da3e 2de4 09be 2d01 44be 6e99 adbe
000000b0: eaec cdbe a690 48bd a075 2fbf 5e49 113f
000000c0: 6747 8dbd 9838 fabe 49c2 1e3e 8772 353f
000000d0: 10e8 9d3e 049e 57bf 4251 42be 1db8 cebe
000000e0: 49e2 30bf 5485 7dbe 8617 30bd 9cd4 9a3e
000000f0: b24f a93e 4bbd 5bbd 80fd 00bf 2bda aa3d
00000100: 81b0 ecbe b8bc 6ebe e66a 07be 6d38 363f
00000110: abff 23be 6dca 16be 37b3 2b3c 1ae6 bd3e
00000120: 0348 213d 18a0 a13e 5bcf e8be 3291 13bf
00000130: 3f92 f73e 4e35 a33e 7174 19bf 0fd5 f73e
00000140: e086 cebe 8526 e73d 7bf0 dbbd 7be8 49be
00000150: 7662 283b 6b46 cc3d 7d08 cebe 01d3 bcbe
00000160: 6ab3 19be 9d33 323f f4be 07bf fac4 383f
00000170: 419b 5cbe 230e 353e 9d10 8b3d df16 553e
00000180: 5dd0 603e 931f eabc b01d b03d 19d0 abbe
00000190: bc14 e3be b5c5 1c3e 2ad2 8abe f5c1 8a3d
000001a0: a7a0 e2be 32c1 38bc 482a 02be 3608 65be
000001b0: 2e40 d63d 7011 68bf 39c1 843d 3ff2 46bd
000001c0: 433a 053e 3031 15bd 5474 a63e 006b 953c
000001d0: 3888 30bd d0e3 cebe 4a7c de3e bb9e 823d
000001e0: bfe2 88be f210 14be a28a 49be c647 a43e
000001f0: 8601 753e e0a1 c73e 014d 503e defd babe
00000200: 868f ce3e c4cc 243e a25e 39be 9070 843d
00000210: 3117 303d 9c49 ad3e fc37 6bbe 562f 043e
00000220: e990 453f 82ff d43d 9448 98be bd4d 163f
00000230: 2b13 ef3e 1bb6 37be d76a 573f 1b69 b9be
00000240: 3eef 0abe f3eb e9bc bd72 c7bc cd35 873e
00000250: 6721 1a3f f55a 8a3e 990f 2c3f 7829 1bbe
00000260: 5d3c 41be 1901 033f 230e 143c 1b39 32be
00000270: 486a 41be 0076 563d 4def 97bd 8800 96be
00000280: 4ad0 c7be 02da a23c 11c8 e43e 866d 9bbe
00000290: 808b 61be 7af7 483e ea64 9b3b dee6 0bbe
000002a0: 152c 403d be8b ac3d 6585 81be 5068 4b3e
000002b0: 4e89 ee3e 2cbb 3ebf 650f e43b 6bb5 ee3e
000002c0: 0583 033d 3845 38bf 0cca dfbe 1b2b c6bd
000002d0: c7b2 3a3e 94cb 8bbd 0264 2e3d a032 a8be
000002e0: 24c3 5bbe 69b2 3ebe 5a90 6e3e dcfb 7b3e
000002f0: 4ccc 8cbe 6f85 b9bd 5e2d 8fbe 64d9 bdbe
00000300: eb63 943e 55be 95bd 7454 02bd 826b 0bbf
00000310: a255 55be 332b 6bbb 8912 3b3d a00e 9abe
00000320: 02ff e63e ec76 e4be 47e6 563e fe9c b43e
00000330: b8c6 b13e 1ff1 25bf b56e ecbd 610e 3bbf
00000340: 00cb 933e c4de 1b3f 7be3 7b3e fb07 13bc
00000350: 229f 213f 9239 0ebf 5a86 10bf 5a9a 073f
00000360: 2842 033d a66b 18be 07cb 953e 08b3 9abd
00000370: 4b6a 113e 0214 323f fc1b 383d 40d9 9d3d
00000380: a7d7 5e3e 89a0 2fbe e8e8 30be 2e82 e7bd
00000390: 7074 a7bd 268a c43d 56da b2be e562 283f
000003a0: 4bb3 a53e d724 07bf ab42 04bf 37da 48bf
000003b0: f59e 003f e35c 013f 7506 49be 191f 1dbf
000003c0: 3c12 ac3e 11c3 cabd 9986 8d3e 4591 35be
000003d0: 9b1f 9fbe e126 273e 2344 73be 1821 b33e
000003e0: 698b 483e 44ca 59be 7728 fbbd 46e5 e23e
000003f0: 2e56 8d3e 1f4e 2c3e 3a95 4e3e 7c3b a73d
-0.12555775 -0.2365038 0.48273373 -0.6300031 0.020468574 -0.29729393 0.045769513 -0.41100615
-0.33946264 0.11509064 -0.73157066 -0.32981107 0.33990833 -0.72451013 0.4912333 -0.5276589
-0.11958506 0.30407402 0.0505438 -0.059435967 -0.14217393 0.30843383 0.22744702 0.21359399
-0.7134315 0.17976403 0.9366292 0.58082 -0.034708507 0.1773221 -0.0590538 -0.14902087
0.059983682 0.12056038 0.4046302 0.29463938 -0.27062142 -0.13353068 -0.14416496 -0.16687378
0.42652157 -0.13465948 -0.19141074 -0.3390612 -0.40219814 -0.048966072 -0.68538857 0.56752574
-0.068983845 -0.48871303 0.15503801 0.7087788 0.30841112 -0.8422549 -0.1897631 -0.40374842
-0.69095284 -0.24757892 -0.042991184 0.30240333 0.33068615 -0.05364732 -0.5038681 0.083423935
-0.46228412 -0.23314178 -0.13224372 0.7117985 -0.16015498 -0.14725657 0.01047974 0.37089616
0.039375316 0.31567454 -0.454707 -0.57643425 0.48353764 0.31876606 -0.599433 0.48404738
-0.40337276 0.11286644 -0.107392274 -0.1971759 0.0025693453 0.09974369 -0.4024085 -0.36879733
-0.15009847 0.69610006 -0.53025746 0.7217556 -0.215436 0.17681174 0.06790278 0.20809506
0.21954484 -0.028579509 0.085994124 -0.33557203 -0.44351757 0.15309794 -0.27113467 0.067752756
-0.44263193 -0.01127653 -0.12711442 -0.22366413 0.1046146 -0.9065161 0.06482167 -0.048570868
0.13010506 -0.036423862 0.32510626 0.018239498 -0.04309866 -0.40408182 0.434542 0.06377932
-0.26735494 -0.14459589 -0.1968179 0.3208601 0.23926362 0.38990688 0.20341875 -0.3652181
0.40343875 0.16093737 -0.18102506 0.06466782 0.042990867 0.33845222 -0.22970575 0.12908682
0.7717424 0.10400297 -0.29742873 0.5871237 0.46694311 -0.17940561 0.841474 -0.36213002
-0.13567826 -0.028554892 -0.024346704 0.26408234 0.6020722 0.2702252 0.672113 -0.15152538
-0.18870683 0.5117355 0.009036574 -0.17404597 -0.188882 0.052358627 -0.0741869 -0.2929728
-0.390261 0.019879345 0.4468389 -0.30356997 -0.22025871 0.19625655 0.0047422545 -0.13662288
0.04691704 0.08425091 -0.25297084 0.19864011 0.4658913 -0.7450435 0.006959843 0.46622786
0.03210737 -0.7198062 -0.43708837 -0.096761905 0.1823226 -0.06825939 0.042575844 -0.32851124
-0.21461159 -0.18622746 0.23297253 0.24607795 -0.27499616 -0.090586536 -0.279643 -0.37079918
0.2898248 -0.073116936 -0.031818822 -0.5446092 -0.20833448 -0.0035883903 0.045671973 -0.30089283
0.4511643 -0.4462198 0.20986281 0.35276026 0.34721923 -0.64821047 -0.11544553 -0.73068815
0.28865814 0.6088679 0.24598496 -0.008974071 0.6313344 -0.55556595 -0.56455004 0.52969897
0.032045513 -0.14884815 0.2925646 -0.07553679 0.14200704 0.6956178 0.044948563 0.07707453
0.21761952 -0.17151083 -0.17276347 -0.11304127 -0.081765056 0.09596662 -0.34932202 0.657759
0.32363352 -0.5279059 -0.5166423 -0.7845797 0.5024255 0.5053236 -0.1963137 -0.61375576
0.33607662 -0.09900487 0.27641752 -0.17731197 -0.310788 0.16323425 -0.23756461 0.34986186
0.19584431 -0.21268564 -0.122635774 0.44315547 0.27604812 0.16826676 0.20174113 0.081656426

network_body._body_endoder.seq_layers.0.bias f4 [128]
00000000: 89ae e43c acf7 cdbd f09a 4dbe 249f b83d
00000010: 1e18 97bd b92c 84bd 294d 00bd 3be2 313d
00000020: 8abb 053e e15e 3c3d cd16 043d a73a 493d
00000030: 8358 a8bd 886c e7bb a2c5 093d e285 833c
00000040: 79a7 a1bd ce40 94bb 0517 603d 1f0a 38bd
00000050: 0976 21bd e15b b9bb 14a6 f6bd 1f5a e1bc
00000060: 957a 203d ba2c 933c 93dd 96bd c47d 49bd
00000070: 2d9b 67bd c91a d1bd 0e88 03bd 9e9d dabd
00000080: 13a6 653d 0ce7 b83d 67a8 993d 8f60 3b3c
00000090: f97d 03bc 20d3 cc3d 242a b7bc 8487 c3bd
000000a0: c89d b2bd 0763 453d 1938 7aba bff6 dbbc
000000b0: 5185 333d 7904 e33c d335 5b3d 9c2d 16bd
000000c0: c7fe e53c d796 793d 3531 6abc d840 143c
000000d0: ea42 edbc de50 863c 4edc 7f3d da3e 7e3d
000000e0: 92ae 5bbd dd81 58bb 65b7 1a3d ee78 463d
000000f0: 56e8 a43c 332c 22bc e125 993d df18 06bd
00000100: 4812 a4bd 0448 603d 3e37 e6bc 798e 0c3e
00000110: df64 363d 1063 cd3d cc17 98bc 1b6d 74bb
00000120: 10ce c9bb a8c6 d5bc 6b8d d8bd d587 a3bc
00000130: 78cd 063e 2aac c73b 06c7 303e 33f5 4bbb
00000140: 9803 fb3d 0896 d93b a6f4 d73d 1a43 cabd
00000150: 048f 053c 07e5 263e 73a6 13bd 0322 1e3d
00000160: 1c80 89bd 1245 0b3e 4584 47bc 2f87 43bd
00000170: 536b bd3d 5d2d f63b 6b57 c3bd da9c 393d
00000180: 0dde 973c 6f20 943d 9714 25bd ee82 7ebd
00000190: 0733 0e3e 7e3b 46be 0318 9fbd 5b24 193e
000001a0: 12e3 4e3d 281f 84bd f0b8 62bb 62d2 0fbc
000001b0: 23d9 c4bd 675d 053c c6ef 403d 56a4 a83d
000001c0: dccb cabc 6aac 94bd 281f 9f3d ceea 763d
000001d0: 1c99 73bc 276e d8bc ccd6 a7bc f2fe 4e3d
000001e0: 2f82 19bd 97f8 e0bd 6921 f63d 9a78 353d
000001f0: f949 773d 0e74 15bd 92b6 0cbe b6c4 0a3d
0.027915256 -0.10057005 -0.20078635 0.09014729 -0.07377647 -0.06453843 -0.031323586 0.04342864
0.13059822 0.04598892 0.032248307 0.0491282 -0.08220007 -0.0070624985 0.033635743 0.016055051
-0.07893271 -0.004524327 0.054709453 -0.044931527 -0.039419208 -0.005656705 -0.12043396 -0.027508793
0.039179403 0.017965663 -0.07366481 -0.049192205 -0.05654447 -0.10210187 -0.032112174 -0.10674594
0.056066584 0.09028444 0.07502823 0.011436596 -0.00802564 0.100012064 -0.022358961 -0.09547332
-0.08721501 0.048190143 -0.00095451024 -0.026851056 0.043828312 0.027712094 0.053518128 -0.03666459
0.028075589 0.060934868 -0.014293958 0.009048663 -0.028962571 0.016395982 0.06246596 0.06207166
-0.05363328 -0.003303639 0.037772555 0.04845517 0.020130318 -0.009898233 0.07477928 -0.032738563
-0.08011299 0.05475618 -0.028102513 0.13726224 0.044529792 0.1002866 -0.018566035 -0.0037296477
-0.006158598 -0.026095703 -0.10573848 -0.01996223 0.13164318 0.0060935216 0.17263421 -0.0031121492
0.12256545 0.0066401996 0.1054471 -0.0987608 0.008151773 0.16298304 -0.03604741 0.038606655
-0.06713888 0.13600567 -0.012177532 -0.047736343 0.09248986 0.007512732 -0.09538158 0.0453156
0.0185385 0.07232749 -0.04030284 -0.062136583 0.13886653 -0.19358632 -0.07768252 0.14955275
0.05050952 -0.06451255 -0.0034595095 -0.0087781865 -0.09611728 0.008139945 0.047103666 0.082344696
-0.02475541 -0.07259448 0.077696145 0.06028252 -0.014868047 -0.026419712 -0.020488165 0.050536104
-0.03747767 -0.10984915 0.12018091 0.044304468 0.06037328 -0.03648763 -0.1374152 0.033879004

network_body._body_endoder.seq_layers.2.weight f4 [128, 128]
00000000: 2628 de3d 632f 93bd 71a7 b83c 56cd 1abe
00000010: 65f1 b7bd 3d3d 2bbd b20b adbb 93ed 673e
00000020: c203 cdbd aa39 2b3e ab99 613e 63b1 a0bd
00000030: 609a 8b3d 23f1 36bc ba24 8cbd 741c 00be
00000040: e8ae 093e 8b35 52bd bbec 2dbd df31 873d
00000050: c26d 8dbc a7f6 6339 1014 37be 203f ea3d
00000060: 7c19 023c 9d0e fe3d 3138 d23d 2cc1 b53d
00000070: 33f7 a23d 6ec4 693d 4b0a 813d 5b9a 8b3d
00000080: 8971 2abd 4d61 eb3d 60eb e63a 13fd 133e
00000090: e514 30be fd4e fa3b 5f3d b13d 8470 0dbd
000000a0: 725e e1bd 5804 583e 78a9 dfbd 8e68 70be
000000b0: 0090 a03d 6cca 14be b988 ab3d de22 943e
000000c0: d5e9 21be 5a7c dc3d 1885 fa3d 251c 3d3e
000000d0: 9ff5 36be 065c c33d f002 9e3c eac1 863e
000000e0: a2e0 95be 5632 7fbd f0af 12bd 3a69 c83d
000000f0: f82d 6d3d f80d 843d 0d7f ec3c 124d 023e
00000100: ddec 013e 77c5 29bd f038 153e ad9b e63c
00000110: f1fd 43be 823e d33c a6dc 093e 25da e33a
00000120: c9c0 2abe 2f0e 943d ee58 15bd 585a 363e
00000130: 3656 e4bd d8b8 f7bc 328c 4bbe 3867 423e
00000140: 14ad b4bb 63e8 3c3d 48fb d13c ecc7 1e3d
00000150: 3fea 1e3d f9c9 33be e281 1fbe 42a1 eebd
00000160: 4045 013e cb7e 0fbe b80f 51bd 17be 9abc
00000170: a5dd 473e 8e91 dc3c d9d1 7a3c 7b7d 693e
00000180: 2be9 513d 5d7b 2dbd 6c33 5fbd 67e2 613e
00000190: 4b1c b43d 90c9 bc3c 4dad 8f3b 3a39 f3bd
000001a0: 2338 35be 2c4d 063e 46e9 03be 9c39 963d
000001b0: 1773 1c3e fa45 a8bd fb1c 2bbe e055 d13c
000001c0: 025e 8a3d 994b 1abd 78bd 95bc 9146 d3bd
000001d0: 0e90 dd3d 4b13 fa3c 41dc 1c3e 6fc5 30bc
000001e0: d058 d73d 1778 e13d 6cf7 6cbe e938 823e
000001f0: 0e3a a43d 4232 573e a370 6cbd a277 b4bd
00000200: b11a 913e ffde f03c 8ccb 16be 1c46 34be
00000210: 1041 edbd 943b a43d 3a1c 65be dfb2 2e3b
00000220: f5fa a43d 8e02 e6bd 235f 1c3c 1d0b 13bc
00000230: d28d 81bd 739a a83d e8fd 20bd e779 46bd
00000240: 9afe 043e bd75 07bd a3dc eebd 5c6d 7ebc
00000250: 7cb9 ac3c 3609 333e 69fe 113e e175 7dbd
00000260: ebd1 b8bd 2da8 bcbd 3114 773d 5928 33bd
00000270: d96a 733d 8d80 373e 6977 e33d 0c39 eabd
00000280: 83a3 11be c451 85bd 8e65 f83d ea17 413c
00000290: d465 3f3d 1f6b c73d 90e1 3abe f754 2fbd
000002a0: c536 8fbd dcbe 8d3d 311f 993c 0c40 8b3d
000002b0: 48a8 5dbc 3c39 4cbe de81 afbe 3fdd 353d
000002c0: a557 933d 511b 2dbd ce59 8e3e 730e 01be
000002d0: 25b3 7d3e 7c5e 993c 490a a03d 38bb 8bbd
000002e0: 37bb 853a c29c d6bd 6256 c7bd 4c61 1e3e
000002f0: 9531 903c da03 2fbe 0806 863d f0e4 a6bd
00000300: 097c 733d 22f3 05be f68e 753c aa36 d1bd
00000310: 3af6 e0bb 69da b63d 0def ddbc c815 7fbd
00000320: a3db 37bd ffbe 8b3c 7684 cdbd cd28 193c
00000330: 8a7d c2bd f36b 82bd c1ab 063e 1611 133d
00000340: 0e26 00be 9995 dbbd 6943 8ebd 2aad 4cbc
00000350: 12c7 11be a429 0dbe cfc8 113d 2bea c33d
00000360: d795 ed3d c8d7 d2bd 0512 153e 321e fe3d
00000370: 8981 b1bd bc77 203e 3703 a33d 1010 10be
00000380: 8d08 12be 52e7 3b3d 3ac7 5d3c 63d5 383d
00000390: d6e8 5e3d 1fed 183d ba42 c93c c4e4 e5be
000003a0: 0e6e 313d 6538 e8bd c6f3 76bc 5668 0abe
000003b0: f5d1 313e ce1b 11bd 5426 303e 44e7 9abd
000003c0: f941 46bd 22aa 98bd d8ad a8bd ca57 223e
000003d0: 25ba 3d3d 766d 19be 1858 b0bd f6ca 373d
000003e0: 78b3 07bd 1281 12bd 757c 10be cd2e 24bd
000003f0: eb48 34be 7fa7 153e 1085 b53d 74e5 8e3d
0.108475015 -0.07186773 0.02254078 -0.15117392 -0.08981589 -0.04180645 -0.005280935 0.22649221
-0.10010482 0.16721216 0.22031276 -0.07846334 0.06816554 -0.01116589 -0.068429425 -0.12510854
0.13445628 -0.051320594 -0.042462092 0.06601309 -0.01726425 0.00021740292 -0.17878747 0.114378214
0.007940646 0.12405131 0.10264624 0.08874735 0.07957306 0.057072096 0.06300791 0.0681655
-0.04161218 0.11493168 0.0017617755 0.14452009 -0.1719547 0.0076388107 0.08654284 -0.03453113
-0.11004342 0.21095407 -0.109209955 -0.23477384 0.07839966 -0.14530343 0.08375687 0.28932852
-0.15811856 0.10765906 0.12232417 0.18467768 -0.17867135 0.095390365 0.01928851 0.2631982
-0.29272944 -0.062303863 -0.03581232 0.097856954 0.057905167 0.06447977 0.028869176 0.12724712
0.12688012 -0.041448083 0.14572501 0.028150404 -0.1913984 0.025786642 0.13463077 0.0017383738
-0.16675104 0.07229268 -0.036461763 0.17807901 -0.11149256 -0.030239508 -0.19877699 0.18984687
-0.0055137966 0.04612006 0.025632516 0.03876488 0.038797613 -0.17557515 -0.1557689 -0.11651851
0.12624073 -0.14013211 -0.05104038 -0.01888947 0.19518144 0.026924875 0.015308821 0.22801773
0.051247757 -0.042353977 -0.0544924 0.22059022 0.08794459 0.023045331 0.0043846727 -0.118761495
-0.17697196 0.13115376 -0.12881956 0.07335207 0.15278278 -0.08216472 -0.16710274 0.025553644
0.06756212 -0.03766975 -0.018278822 -0.10316194 0.10818492 0.030526778 0.15318395 -0.010789259
0.105149865 0.110092334 -0.23141259 0.25434044 0.080188856 0.21015266 -0.057724606 -0.08811881
0.28340676 0.029403208 -0.14726084 -0.1760487 -0.11584675 0.08019176 -0.22374049 0.0026656908
0.08055679 -0.11230956 0.009544167 -0.008974818 -0.06325878 0.08232584 -0.039304644 -0.0484561
0.12987748 -0.03307127 -0.11663177 -0.015529003 0.02108454 0.17483982 0.14257206 -0.061879996
-0.09024414 -0.092117645 0.06032199 -0.04373965 0.05942807 0.17920132 0.1110676 -0.11436662
-0.14222531 -0.06509736 0.12128745 0.011785487 0.04672797 0.097372286 -0.18250108 -0.04280564
-0.06992868 0.06921169 0.018691631 0.06799325 -0.013528891 -0.19943708 -0.34278768 0.04440045
0.07194451 -0.04226238 0.2780289 -0.12603168 0.2477537 0.018721811 0.07814462 -0.068228185
0.0010202889 -0.10479118 -0.09733273 0.15466803 0.017601768 -0.17091313 0.06544119 -0.08149135
0.05944446 -0.13081029 0.014987698 -0.102155045 -0.00686529 0.08928377 -0.027091527 -0.06227663
-0.044887196 0.017058847 -0.100350305 0.009348107 -0.09496601 -0.06368246 0.13151456 0.035904966
-0.12514517 -0.10721893 -0.06946451 -0.012492457 -0.14236096 -0.13785416 0.035591897 0.09566148
0.11600845 -0.10295063 0.14557655 0.12408103 -0.08667285 0.15670675 0.079595976 -0.14068627
-0.14261074 0.0458749 0.013536269 0.045125376 0.05442127 0.03733551 0.02456795 -0.44901097
0.043317847 -0.113388814 -0.015072769 -0.13516364 0.17365249 -0.035426907 0.17202121 -0.07563642
-0.04840276 -0.07454325 -0.08236283 0.15853801 0.0463201 -0.14983162 -0.086105525 0.044871293
-0.03313014 -0.035767622 -0.14109977 -0.040083695 -0.17605941 0.14614676 0.0886327 0.069773585

network_body._body_endoder.seq_layers.2.bias f4 [128]
00000000: bd04 b7bd c75d 06bd 1703 4fbd 57ae e1bd
00000010: e88d df3c be96 b9bd 7c6f 5cbd aa93 b63d
00000020: 652f 583d 827c db3d 521d 60bd 45c2 d3bc
00000030: 7699 a63d ba96 633c dccc 693d 4182 1c3d
00000040: 1629 babd 11cb 01be 0f2f 8ebc c9ed a5bd
00000050: ae40 22bc 3a0d 703c 8306 57bc e584 4e3d
00000060: d6fb c3bd 5d65 d23d 6f45 04bc 22b7 60bb
00000070: b444 d43d e1d7 acbd deb3 49bd 4707 dabd
00000080: a18a ac3d 9c6e 1fbe c063 37bc bfa3 ca3b
00000090: 3e16 c0bc 1239 67b9 3aea a7bc e112 a7bd
000000a0: 3cff a03d 1973 3d3b 2b53 d63d 2a8d a8bd
000000b0: 6a53 4b3c 59d3 76bc 2b31 213c a4e2 02bd
000000c0: 2fe4 ec3d 5846 d9bb dd57 0a3c b084 52bd
000000d0: 85aa 07bd fb94 04bd d86a eabc 074f febb
000000e0: 1c30 c8bd 3de0 19bd 9b11 2abd 46ae be3b
000000f0: 9cb2 a5bd cf31 863c a225 c6bd 34b5 903d
00000100: c27b d9bd 7ec2 8cbc e2a7 ad3d a475 c8bd
00000110: eded 43bd 2cfa f13c 253c 05be 9c96 e33b
00000120: df35 f83c eae1 0fbe 2abe 3bbd 318f 55bd
00000130: cfeb 193d adfa cd3d c853 54bb 346e c4bd
00000140: 7e88 dfbd 756d 3fbd 7414 03bd 2718 883b
00000150: f567 c1bd 2149 efbd 738c d0bd d6c3 b4bc
00000160: cc2b 61bd 6bd9 a3bd 1984 293c a355 a8bd
00000170: bd47 903d fe0d 77bc c3ba e5bd 0549 b03d
00000180: 93b7 2d3d a53f 7dbd 4f4a c5bd 4907 d73c
00000190: 04fe 86bd 01fe 953c c162 53bd 687e c8bd
000001a0: ea36 f9bd 7b4e 5e3b 2a2b 5abd 135d 273d
000001b0: 06ff 4cbd b137 c3bd 4642 e8bd 6ffe 73bd
000001c0: bb01 21bd b336 51bd cf6f 273d e582 08bd
000001d0: 6b8a 1a3d 2173 0cbe c90f 48ba 81d9 bf3d
000001e0: 0210 37bb 7968 87bd 02db 2cbd b223 8cbd
000001f0: 75c8 a1bb cdd4 203c 174a 4fbd d07a a4bc
-0.08936451 -0.032804277 -0.050540056 -0.11019581 0.027289346 -0.09061955 -0.053817257 0.089148834
0.052779574 0.10717107 -0.054715462 -0.02584947 0.08134739 0.0138909165 0.057080135 0.038210157
-0.09089868 -0.1267512 -0.017356424 -0.081019945 -0.009903116 0.014651591 -0.013124111 0.050419707
-0.09569518 0.1027324 -0.008073195 -0.0034288843 0.103646666 -0.08439613 -0.0492438 -0.10645919
0.08424879 -0.15569538 -0.011193216 0.006184071 -0.023448106 -0.00022051137 -0.02049743 -0.08157898
0.07861182 0.0028907715 0.10465082 -0.0823005 0.012410024 -0.015065038 0.009838383 -0.031954423
0.1156696 -0.0066307 0.0084438 -0.051396072 -0.033121604 -0.03236864 -0.0286154 -0.0077608856
-0.09774801 -0.037567366 -0.041520696 0.005819115 -0.08090708 0.016381172 -0.09675147 0.07065812
-0.10619308 -0.017182585 0.08479287 -0.09788063 -0.047834326 0.029538237 -0.13011225 0.0069454443
0.030299125 -0.14051023 -0.04583565 -0.05213851 0.0375784 0.10057578 -0.003239857 -0.09591332
-0.10914706 -0.046735246 -0.032001927 0.00415327 -0.09443656 -0.1168387 -0.101830386 -0.022066038
-0.05497341 -0.080004536 0.010346436 -0.08219459 0.07044933 -0.01507902 -0.112172626 0.08607677
0.0424114 -0.061828274 -0.09633314 0.026248591 -0.065914184 0.018309595 -0.05160785 -0.09789735
-0.12168677 0.003392129 -0.05326382 0.040860247 -0.050047897 -0.09532107 -0.11340766 -0.05956882
-0.03930829 -0.051077556 0.040878113 -0.033327956 0.037729662 -0.13715793 -0.00076317467 0.093676575
-0.0027933125 -0.066117235 -0.04220105 -0.06842746 -0.0049372264 0.009816361 -0.050607767 -0.020078093

action_model._continuous_distribution.log_sigma f4 [1, 2]
00000000: e62f 94bf 14f4 adbe
-1.1577117 -0.3397528

action_model._continuous_distribution.mu.weight f4 [2, 128]
00000000: ee5d c53c e424 c83c 8241 053d dccb 4ebb
00000010: 5bd6 ddbc 033e 703d 0444 ca3c b39f 8fbc
00000020: 706a 95bc 6b0a bcbb b666 943c 8eec fcbc
00000030: e156 5bbd 3c62 f6bd 8c93 84bc 9698 353d
00000040: bf07 ac3b 6d32 ae3c dbd5 103c 3877 713c
00000050: c3c2 913b 8497 36bd 7dc0 c83b 18f2 b6bd
00000060: 16a0 9b3b 6442 15bc dd72 3dbd 72df 763b
00000070: 728f 9bbc 5238 da3a c5b5 2bbc 0083 3b3b
00000080: e9b2 00bd 0342 2f3d ef96 6b3c 5896 6a3d
00000090: 3007 d73d 6e2b 40bc fafe 9a3d 23ab 763c
000000a0: 51bb 7fbb fe1d 4c3d 3a97 bbbc b3cb f8bb
000000b0: e3df 3a3d e4a3 8abd c027 8bbb a399 7fbc
000000c0: 0984 90ba 2a0c b63d cc3d fa3c 3d19 13bd
000000d0: d3c5 f63a 9e11 5c3c f76a 873c 4646 593c
000000e0: a9a1 be3b 7ad5 353c 0dc7 77bb 8150 ec3c
000000f0: 2ee1 503b e876 14bd 9f3c 853c a3c4 9aba
00000100: 4780 9f3c e435 12bc b8ed c4ba 71ae 02bc
00000110: 197a 1f3c 1dee 1cbc 8688 0c3c 31f5 763d
00000120: 185a 8abc 35b5 103b 1d2b a63b c3f1 a4bb
00000130: 3bfd 593c f1e2 33bc d4f3 8cbb 2638 b23c
00000140: e36e 8e3b ff7e 82ba e0b3 a03d ae0b 993d
00000150: a1e6 a73c 546c 023c 2865 043c cf44 6e3c
00000160: c1b7 133b 06a2 883c f722 05bd e3e0 173c
00000170: 0fe3 8fbb b9a4 70bd 6ff2 94bb 229d 31bd
00000180: d84b 753b c73b 94bb d51a f23c 4c15 1d3e
00000190: cf14 183b de70 4c3d 81b3 ef38 a014 d03b
000001a0: 64ba 523c 4795 50bc 3100 9a3c f990 8f3d
000001b0: 5a9f a23b 4983 8739 1b04 af3c c032 e3bb
000001c0: 0404 e43c 512d 0e3c 113b 373d 9e68 eebc
000001d0: 6d57 053d 9b31 2c3c a0ee a03b 3998 84bb
000001e0: b7fd 62bb f9dd 703b c5f7 813c bffc cdbc
000001f0: 8dc5 583d ac17 6cbd b3e8 f23b b9ce 7fbc
00000200: 4d0c 9cbd 6ea7 a6bc ab66 14be 274b cabd
00000210: 89ee 6ebd b793 79bd 83ff 37bd 86b1 9e3d
00000220: db05 1f3d 5da8 b43d 6413 fbbd c6ea f0bc
00000230: 9a3b a1bd 99a5 86bd 9303 d0bd b8a8 2bbe
00000240: 4a1f cabd 26e8 c2bd cfe3 edbc 3f3a 8fbd
00000250: 1dc1 12be 13e5 9ebd 189f d93c 62d8 14bd
00000260: c4a7 12be 10b5 a73d 5776 c7bc 04ff c53c
00000270: 7bba ce3d 1ead 27be bf1e b4bd 151a cbbd
00000280: 12d2 483d d136 cdbd 7a4b 05bd 17bd a53d
00000290: 687a dd3a 0c58 4abc 6ce1 fb3c 133e f0bd
000002a0: 6781 8b3d e7df 973d c4b9 73bd 1592 0abe
000002b0: 5718 bfbd d3c7 21bd a0ea 7ebd 25c4 4f3b
000002c0: 24a9 6c3d 5ddd 643d 54ab d2bd f073 6dbd
000002d0: e09c febd a1e6 e5bd 72e0 cabd ef82 d8bd
000002e0: b584 7bbd 8dfb 90bd fe8d abbd de13 a53b
000002f0: 3c98 c0bd 9afb 6b3c da32 bbbd 0b8d 603d
00000300: 0cc0 f5bd ac1b 5dbd 9204 863d 34f3 15be
00000310: 9512 ecbd 0263 8bbd 8a3f 9dbd 467e 77bd
00000320: 75f4 1f3d 5c6e 95bd 1053 8fbd 1b1e 89bd
00000330: 3558 1bbe f3eb ab3d 2e56 76bd 7005 0abe
00000340: 275f c0bd 8559 86bb a3e2 71bc e0aa 99bd
00000350: d31b d6bd a303 b8bd f67f a5bd cb17 d4bd
00000360: 4ba0 2bbc c56d afbd 1ec8 9f3c 464d babd
00000370: 5303 373d 91b0 b1bc ad9c 06be b4c9 a13d
00000380: 7791 883d 1c2b c0bd dfcb d6bd 777a 6d3d
00000390: c8bf b6bd d384 be3d 2863 91bd 1bcb bdbd
000003a0: 8c21 96bd 14ea de3b 2b7d edbd 3e42 8f3d
000003b0: f961 b0bd 1818 dfbd ba6e 8fbd b0e2 b3bd
000003c0: 4c69 fcbd c71c 68bd da9c 093d 3c9a bab8
000003d0: 79c4 e4bd 5d3a b2bd 6fee 3ebd 3321 a53d
000003e0: 3369 abbd 246e 21be 569b 4cbd 54be 90bd
000003f0: 06a1 88bc 260c 633c ec5a f6bd cf25 6d39
0.02409264 0.024431653 0.032533176 -0.0031554615 -0.027079752 0.05865289 0.024690636 -0.017532205
-0.01823923 -0.0057385466 0.018115383 -0.030874517 -0.05354965 -0.120304555 -0.016183637 0.04433497
0.005249947 0.02126428 0.00884005 0.014737897 0.0044482662 -0.04457809 0.006126462 -0.089328945
0.0047493083 -0.009110067 -0.04625212 0.0037669805 -0.018989298 0.0016648865 -0.010480349 0.0028612018
-0.031420622 0.042787563 0.014379247 0.057272285 0.10499418 -0.011729104 0.07568164 0.015055451
-0.0039021561 0.04983329 -0.022899259 -0.007592642 0.04562367 -0.06769541 -0.004246682 -0.015600595
-0.0011025678 0.08889039 0.030547045 -0.03591274 0.0018827267 0.013431935 0.016530497 0.013261383
0.0058176112 0.01109826 -0.0037807852 0.028846981 0.0031872499 -0.03624621 0.016264258 -0.001180787
0.019470347 -0.008923981 -0.0015024459 -0.00797616 0.0097337 -0.009578255 0.008577472 0.060292426
-0.016888663 0.0022080664 0.0050710575 -0.005033703 0.013305004 -0.0109794 -0.0043015275 0.02175529
0.004346715 -0.0009956061 0.078468084 0.07472931 0.020495715 0.007960398 0.008080758 0.014542772
0.0022539946 0.016678821 -0.03250405 0.009269926 -0.004391081 -0.05875084 -0.004545502 -0.043362744
0.003742924 -0.0045237276 0.02955381 0.15340155 0.0023205762 0.049912326 0.00011429843 0.006350115
0.012861822 -0.012730903 0.01879892 0.07010073 0.004962844 0.00025847022 0.021364262 -0.00693354
0.027833946 0.008677796 0.044734064 -0.02910262 0.03255408 0.010509874 0.004911259 -0.0040464667
-0.003463609 0.00367534 0.015865216 -0.025144933 0.052922774 -0.057639763 0.007412994 -0.015613251
-0.07619534 -0.020343509 -0.1449229 -0.098776154 -0.058332954 -0.060931887 -0.04492141 0.07748704
0.038823944 0.08821175 -0.12259558 -0.029408824 -0.07872696 -0.06574554 -0.10156932 -0.1676358
-0.09869249 -0.09516935 -0.029039292 -0.069935314 -0.1433148 -0.07758536 0.02656512 -0.03633917
-0.1432181 0.08188832 -0.024348421 0.024169452 0.10094162 -0.16374633 -0.08794927 -0.09917084
0.049028464 -0.10020221 -0.032542683 0.08092707 0.0016897442 -0.012350094 0.030747138 -0.1173059
0.06811791 0.07415753 -0.05950333 -0.13532288 -0.09330814 -0.039497208 -0.062235475 0.0031702605
0.057778493 0.05587517 -0.102865845 -0.057971895 -0.12432265 -0.112256296 -0.09906091 -0.105718486
-0.061405856 -0.070792295 -0.08376692 0.0050377687 -0.094040364 0.014403248 -0.091405585 0.05482201
-0.11999521 -0.053981468 0.065438405 -0.14643556 -0.11526982 -0.068059936 -0.07678135 -0.060423158
0.03905149 -0.0729644 -0.06998265 -0.06695195 -0.15170367 0.08394613 -0.06014078 -0.13478637
-0.09393149 -0.004100027 -0.014763507 -0.07503295 -0.10454526 -0.08985069 -0.08081047 -0.10356101
-0.010475229 -0.08565859 0.019504603 -0.0909677 0.044680905 -0.021690639 -0.13145705 0.078998
0.0666837 -0.093832225 -0.10488104 0.05797812 -0.08923298 0.09302678 -0.07098991 -0.09267255
-0.07330617 0.0068028066 -0.115961395 0.069950566 -0.08612437 -0.108932674 -0.07003541 -0.087834716
-0.12324771 -0.05666807 0.03359685 -8.8978995e-05 -0.11170287 -0.08702538 -0.046614107 0.08062973
-0.083696745 -0.15764672 -0.049952827 -0.07067552 -0.016678344 0.013857877 -0.12029061 0.00022616166

action_model._continuous_distribution.mu.bias f4 [2]
00000000: 2093 0dbc dcc6 233e
-0.008641034 0.15993828

exp_avg f4 [128, 8]
00000000: fc6b 9b38 d7b0 14b6 42a5 d938 c971 ab3a
00000010: 97e6 1db5 d6e2 9639 d289 33bc b5a0 0fba
00000020: 6852 153a 5aad 55b6 1f2f 1ab9 6e5a 94ba
00000030: 9b8c 0636 555c c1ba 36b0 a8bb 9af3 86b9
00000040: b1a8 4b3a fba4 6635 b482 a13a 05f9 d039
00000050: ccf6 7bb4 5588 bfba 8fdc f5bc 87b0 c4ba
00000060: 6c82 1fb9 d143 c6b3 1be0 9fb8 dff4 193a
00000070: bc0b 89b6 0bd8 033a c0f2 8a3b 5851 5e39
00000080: 3079 ec38 cca2 e335 e82e ba39 2ca5 18b9
00000090: 6a7d 28b5 8b14 89b9 f4e2 8ebb 699e 64b9
000000a0: 46e2 7637 c9ca c0b3 6059 02b8 c842 9937
000000b0: 0324 5034 a359 4ab7 0948 5939 38d3 2d37
000000c0: be5a 3439 3be3 0835 e4ab 24b9 8d7b 0539
000000d0: 9e76 43b5 7a23 f5b8 8b7f d63a 2a99 ab38
000000e0: d6e7 27b8 313c 72b5 8518 70b8 c528 2db6
000000f0: e963 0c34 73ba b038 329a 0a3a 84c3 dd37
00000100: deb0 87ba 0ef4 8c35 4b9c 01ba 68c8 93b9
00000110: 25d3 a735 c234 183b 2739 983c 2e8e 733a
00000120: c76f 2c38 c076 42b4 ca8a d1b8 38e6 9238
00000130: e7f2 0234 2185 2836 4782 413a 9fce 1a38
00000140: 6517 1738 2169 a4b4 4d7d 86b7 fbfd 0b38
00000150: b4fe 90b3 762f 67b8 8119 f5b8 3d14 c4b6
00000160: 5301 8eba 2b23 ec36 3c42 84b8 6a90 f9ba
00000170: 5443 6635 e6b1 cb3a 7b56 d63c 1d78 ab3a
00000180: 12b3 0e39 53b1 e7b4 ed07 8838 7151 6e38
00000190: b8ab 82b2 7311 6db9 e423 23bb 2383 02b9
000001a0: 40b2 9838 5a2c 9cb6 139d 73ba 8712 2dba
000001b0: b6c5 2d36 b4e7 2eb9 a9e1 313c 104e 0e3a
000001c0: 0e38 be3a 1ab9 c9b5 517e b83a a611 9a39
000001d0: 017f 0536 cd27 41bb 9dc9 2dbd cb07 0bbb
000001e0: fc6a 9939 d366 8536 1479 a83a 84c1 17ba
000001f0: a47e ec34 4dfc 35ba 160d a7bc 50a4 85ba
00000200: 07f7 fc37 b434 9534 dd7d cc38 c9f2 cfb6
00000210: 6d4f cb2d ec48 c4b8 aa17 cbba 3c79 a2b8
00000220: 03b6 fc39 476c a9b6 a6ba a2ba 810d 28b8
00000230: f4e8 8db3 876a 9fba 25d5 373c 7a10 133a
00000240: dac0 e939 b133 6b36 9056 ac3a b086 0c3a
00000250: 5fbd ceb3 5ec4 a6ba 2d21 babc 4ee7 94ba
00000260: 5eff 9f36 7e0c 9134 7d37 c438 e071 a638
00000270: 80a9 bab3 b8cd 4d37 4a48 d2ba dd39 a8b8
00000280: 085f c1b9 decf 97b6 2842 8cba 4cf6 8d3a
00000290: f3e2 93b5 26ad b93a 1071 253c da5a 043a
000002a0: f230 323a d92a 6635 065f 3f3a 566d 9dba
000002b0: 2935 7a36 15ec edba 4659 3cbc 1eae 16ba
000002c0: a8f4 f039 c7b8 aa36 543d d83a 1074 97ba
000002d0: 218e 8f35 6c03 b2ba 3658 b3bc c479 8fba
000002e0: d10b ea37 9ac2 4fb5 7426 4fb8 9992 2a38
000002f0: 5b2b 2bb4 fdfe 65b8 32df 73b8 b41a 43b6
00000300: 63f4 833a 57de 63b6 033c c639 a092 503a
00000310: c99f 64b4 92e1 08bb d62f afbc 2126 8cba
00000320: 0097 9139 2ef0 adb5 4be0 eab9 e496 c939
00000330: 85e5 97b4 a7a3 a7b9 8b73 943b bf85 6d39
00000340: 45f6 9437 1f28 d2b3 6fdc f8b7 6615 aa37
00000350: 07dc 4a33 5e35 e0b6 9cca 8539 f710 5637
00000360: fc88 df38 8ce4 e935 c16f 363a bc8b c839
00000370: 9275 09b4 0bd8 12b9 887b 4bbc 31c9 22ba
00000380: b5b9 2838 5b87 2db3 69e8 8538 3ad1 f9b6
00000390: d6fd 2cb2 0583 d9b8 ba73 88ba cb52 5ab8
000003a0: 80a8 ea38 f5d2 d634 a08d 3539 62ad 5637
000003b0: 9c37 9632 cf14 86b9 27cf 62bb 7b72 35b9
000003c0: 767b f138 eff7 7d35 0cdc ae39 a52d 56b8
000003d0: 05d8 0cb3 ad8e 91b9 aae9 a5bb f2ba 84b9
000003e0: 06d0 5b38 d0e8 1237 9dc3 103b b211 24ba
000003f0: 1bf4 9635 c208 04ba 4b10 dbbc 4940 afba
7.4110896e-05 -2.2156653e-06 0.00010378148 0.0013080175 -5.882261e-07 0.00028779235 -0.010958152 -0.00054789643
0.00056961784 -3.1840377e-06 -0.00014704138 -0.0011318454 2.00494e-06 -0.0014752249 -0.005147959 -0.0002573997
0.00077689724 8.5921755e-07 0.0012322278 0.00039858386 -2.3465981e-07 -0.0014612774 -0.030012397 -0.0015006223
-0.00015212008 -9.232429e-08 -7.623454e-05 0.00058729755 -4.0842842e-06 0.00050294463 0.004240364 0.00021201873
0.0001127593 1.6960198e-06 0.00035511632 -0.00014557381 -6.276738e-07 -0.00026145982 -0.004360551 -0.00021802787
1.4715426e-05 -8.977583e-08 -3.1077652e-05 1.8270119e-05 1.938461e-07 -1.2061008e-05 0.00020721568 1.0360782e-05
0.00017199942 5.099461e-07 -0.00015704293 0.00012729895 -7.281577e-07 -0.000116891184 0.0016364915 8.1824444e-05
-4.0031817e-05 -9.0239615e-07 -5.7243295e-05 -2.580274e-06 1.3074863e-07 8.427063e-05 0.0005287259 2.6436297e-05
-0.0010352393 1.0501842e-06 -0.0004944249 -0.0002818734 1.2503921e-06 0.0023224805 0.01858194 0.0009290901
4.1112096e-05 -1.8110859e-07 -9.991748e-05 7.004704e-05 1.2195561e-07 2.5111442e-06 0.00073817786 3.6908892e-05
3.6022993e-05 -3.0623872e-07 -1.6032393e-05 3.337672e-05 -6.751853e-08 -5.5118893e-05 -0.00011687261 -5.8436112e-06
-0.0010834135 7.037442e-06 -6.3065876e-05 -0.0019040231 8.577965e-07 0.0015540689 0.026164284 0.0013082061
0.00013608884 -4.3156123e-07 6.486462e-05 5.681947e-05 -1.521208e-08 -0.00022608582 -0.0024893219 -0.00012446618
7.2811265e-05 -4.6543255e-06 -0.000929312 -0.0006602187 2.5894092e-06 -0.00016680249 0.010857024 0.00054285023
0.0014512555 -1.5029539e-06 0.0014075731 0.00029386318 1.989247e-06 -0.0029473186 -0.0424286 -0.0021214362
0.00029262144 3.975679e-06 0.0012853467 -0.0005789029 4.405057e-07 -0.0006942198 -0.020391982 -0.0010196064
3.0155772e-05 2.779176e-07 9.750922e-05 -6.1973446e-06 2.31137e-11 -9.359591e-05 -0.0015494723 -7.7473436e-05
0.00048200795 -5.0491976e-06 -0.0012415245 -4.0066898e-05 -6.608198e-08 -0.0012162485 0.011220251 0.000561006
0.0004458491 3.5047817e-06 0.0013148356 0.0005360646 -9.627069e-08 -0.0012723317 -0.022720898 -0.0011360438
4.768298e-06 2.7017444e-07 9.356344e-05 7.936708e-05 -8.692132e-08 1.226685e-05 -0.0016043272 -8.021642e-05
-0.00036882632 -4.5243496e-06 -0.0010700868 0.0010830848 -1.1018404e-06 0.0014165982 0.010097757 0.00050489383
0.00067974546 8.574403e-07 0.00073002314 -0.0012010734 3.7283846e-06 -0.0018152023 -0.011495894 -0.00057479914
0.0004595865 5.0879057e-06 0.0016497769 -0.0011554975 1.0695695e-06 -0.0013581342 -0.021892648 -0.0010946323
2.7900476e-05 -7.739669e-07 -4.9388458e-05 4.0667688e-05 -1.5941389e-07 -5.483533e-05 -5.814358e-05 -2.9072808e-06
0.001006734 -3.3955055e-06 0.00037810215 0.0007956419 -2.1292284e-07 -0.0020886404 -0.021385115 -0.0010692516
0.0002776906 -1.2959406e-06 -0.0004479907 0.0003845013 -2.829294e-07 -0.00031974653 0.0045303754 0.00022651906
1.7757653e-05 -9.786185e-08 -2.9666551e-05 2.0275544e-05 4.7231904e-08 -6.681933e-06 0.00025518693 1.2759344e-05
0.00010658984 1.7426369e-06 0.00069594017 0.00038251083 -1.2801891e-07 -0.00014004127 -0.012419589 -0.00062097894
4.0227274e-05 -4.0402806e-08 6.385224e-05 -7.4451355e-06 -1.0069433e-08 -0.000103717706 -0.0010410466 -5.2052357e-05
0.00011189375 4.0014098e-07 0.00017314265 1.2795763e-05 1.7487586e-08 -0.00025573975 -0.0034608336 -0.00017304152
0.00011514772 9.4610635e-07 0.00033351814 -5.1064086e-05 -3.279276e-08 -0.00027762857 -0.0050632553 -0.00025316287
5.2407406e-05 8.756484e-06 0.002208925 -0.00062587403 1.1246915e-06 -0.00050367054 -0.026741168 -0.0013370599

exp_avg_sq f4 [128, 8]
00000000: 6f65 ac39 9eda 6a35 9995 ec39 8a85 f739
00000010: f641 9534 dffe 9839 03a6 2d3e b046 b539
00000020: 98e0 d638 2faa 4634 4fef f738 1d3e c638
00000030: 299c c233 13b3 fe38 2527 0c3d 8e64 7e38
00000040: 5c7d 0b38 b359 3733 d3bf 4038 9099 2438
00000050: 5fa6 2c33 35a6 2438 56c7 a33c 439d 1738
00000060: e76e fb39 9601 ba35 cbe0 3b3a c6dc e339
00000070: 27da 3935 e61b 473a 8c2c 9a3d 65c5 3b39
00000080: fa5d 0c37 4c61 ec32 8d42 1137 9352 1237
00000090: 8060 1932 4133 1b37 4975 e939 b789 8a35
000000a0: c145 ef35 244c f731 0835 ee35 5b49 a935
000000b0: 8612 a530 deb8 1736 22ab eb37 e7d3 9633
000000c0: 2428 2238 ca28 9033 d10a 8d38 d956 2f38
000000d0: b7ac f231 6c50 8e38 3486 a03a 23a1 4836
000000e0: 8315 4836 225b ec31 7dab f535 01f8 0a36
000000f0: 4c49 5930 90eb 4036 b341 6038 fc85 0f34
00000100: 426e 1b39 8a6f fb33 d098 7339 ca0e 1939
00000110: 1b5e 1d34 be35 7939 e88e b23d 95c8 2639
00000120: 8a06 c536 3567 0c33 cfb2 a036 47d2 ba36
00000130: f58d 8431 a4b5 a336 6c07 9f38 9d8e 4b34
00000140: 6f3e 4336 5b5a 5732 0c78 3236 d92e 3a36
00000150: 1079 b12f 4ea7 4b36 dcef 3138 44c0 e333
00000160: af65 2339 dc27 0f34 cdc8 a539 6b68 7d39
00000170: bc5c 3634 2324 6f39 8e48 c23d a8bd 4339
00000180: 2e3b f736 049f 8f33 fb08 e136 d761 b636
00000190: ea45 9e32 c38b 1337 c2fe 9939 051e 4435
000001a0: d56a 1c39 ff73 6f34 8917 e838 6d8d 0839
000001b0: d46e ce33 d64e f538 3224 793d 68b1 eb38
000001c0: 499f 6139 103c 7d34 cc70 9f39 84ce 6b39
000001d0: d2d9 7c34 3bc4 8539 1539 ed3d 9700 5839
000001e0: a63a 8438 ec94 2933 4879 cb38 abaa 8e38
000001f0: 444a 3633 f751 c438 a3c8 083d fb65 8038
00000200: cdbd 5136 8090 c931 1140 0836 1265 f835
00000210: 7ff9 d32f 0c69 5836 4b37 da38 bce1 8934
00000220: 4fc3 5039 c3e6 2635 c81a 7139 aa60 4c39
00000230: 6629 9734 c78b 5339 3320 893d 21d1 0739
00000240: 8124 6838 b878 f833 3ae6 9938 b92d 7238
00000250: 17fe aa33 c5be 8638 3e5b 0b3d c85f 7b38
00000260: 0441 0a37 71bf 1634 20d1 2237 409e 1637
00000270: 26df 3932 0c5d 1937 00f3 f739 9770 8035
00000280: c97a 3139 29ad 8035 867c 6039 8160 6139
00000290: 3d52 7e34 2560 2e39 c055 8e3d 693a 1139
000002a0: 65e4 5939 9f74 9234 9fa1 7b39 fa9e 5a39
000002b0: f9f0 2134 102d 6f39 896f e23d ee76 3b39
000002c0: 070a 1138 61cd e232 d81d 3538 b2e0 1338
000002d0: 1752 8632 1c21 3738 f61f 743c 0366 d537
000002e0: eb41 4236 6283 e931 faf7 5336 47d0 2436
000002f0: 30da 6831 f439 7f36 0a06 ab38 141a 5a34
00000300: 64dc 3b39 34ae 7534 6bc1 a539 90d0 4039
00000310: a140 8734 4365 a039 f683 cd3d d9d2 3d39
00000320: 166d 8138 5d4c f133 c2eb db38 44fa a538
00000330: 4083 d132 f2f2 c138 4bc5 2e3b f1d2 d236
00000340: 92b5 fc35 1c0a 2132 3bec 0036 750f 8535
00000350: 7481 0630 3517 4436 bd5e 0c38 87ac b333
00000360: 0589 e237 8556 1c34 3f0f cd37 7780 af37
00000370: b7ac f632 34ec f837 a2f8 183c e7ee 8437
00000380: 5401 1336 4bce 0832 1b77 3236 41b9 ef35
00000390: 2b7e 942f eaf3 5736 ae3b 8e38 e5c4 3534
000003a0: c4ea d136 9fb8 9233 d060 f536 fac2 d036
000003b0: 88fc c030 39e0 f436 7618 2b39 0dbc d734
000003c0: 9d7f 4537 6d67 2434 762b 0037 8f99 e736
000003d0: a26b 1b32 0825 5237 995a d739 a32c 8835
000003e0: 153c a338 196f 8233 2777 f838 0137 c338
000003f0: 60e5 8033 fdf7 d938 1a2f ff3c 8491 6838
0.0003288197 8.7489923e-07 0.00045124887 0.00047211006 2.7801406e-07 0.00029181593 0.1695786 0.00034575677
0.00010246149 1.85021e-07 0.000118224525 9.452945e-05 9.062234e-08 0.00012145019 0.03421702 6.0651968e-05
3.3256933e-05 4.268959e-08 4.5955017e-05 3.9243663e-05 4.0198184e-08 3.925544e-05 0.019992512 3.6147667e-05
0.0004795708 1.3858541e-06 0.00071669806 0.00043461303 6.9235324e-07 0.0007595405 0.07528028 0.00017907245
8.366531e-06 2.7518261e-08 8.658169e-06 8.721504e-06 8.927714e-09 9.250653e-06 0.00044528607 1.0321882e-06
1.7827189e-06 7.1973023e-09 1.7747816e-06 1.261283e-06 1.2010595e-09 2.260836e-06 2.8093873e-05 7.023464e-08
3.8661194e-05 6.712942e-08 6.725419e-05 4.1804135e-05 7.0627624e-09 6.7860674e-05 0.0012247027 2.9896116e-06
2.9814844e-06 6.8788646e-09 1.8303832e-06 2.070796e-06 7.90483e-10 2.8747345e-06 5.346695e-05 1.3366656e-07
0.00014823026 1.1708387e-07 0.00023231213 0.00014596726 1.4656e-07 0.00023766511 0.087186635 0.00015905716
5.8718188e-06 3.2690156e-08 4.7891876e-06 5.5677115e-06 3.8578443e-09 4.8789243e-06 7.583093e-05 1.895773e-07
2.9093605e-06 1.25351916e-08 2.6593943e-06 2.7743429e-06 3.2282133e-10 3.0346741e-06 4.2423475e-05 1.0605484e-07
0.00015582771 1.3332414e-07 0.0003162086 0.00024166859 1.6983807e-07 0.00022806278 0.09486495 0.00018667302
7.368063e-06 6.687881e-08 6.706568e-06 5.4354127e-06 1.8425414e-08 8.794424e-06 0.00029372243 7.3059374e-07
0.00014917117 2.2300809e-07 0.00011067006 0.00013022656 9.612782e-08 0.00011697195 0.060825534 0.00011238718
0.0002151701 2.3584312e-07 0.00030410883 0.0002248828 2.3548571e-07 0.0002551394 0.11583153 0.00020599585
6.3051746e-05 3.9483822e-08 9.702385e-05 6.802877e-05 4.244272e-08 9.3612754e-05 0.033394467 6.122511e-05
3.1253905e-06 5.8662977e-09 2.030287e-06 1.8506855e-06 3.8557954e-10 3.2247654e-06 0.00010405349 2.5682482e-07
0.00019909184 6.217562e-07 0.00022993528 0.00019490966 2.8156063e-07 0.00020174599 0.06695595 0.0001295251
5.5347107e-05 1.15703585e-07 7.3384916e-05 5.773988e-05 7.9624606e-08 6.4251515e-05 0.034022562 5.9932267e-05
8.240579e-06 1.4039485e-07 9.704643e-06 8.977542e-06 1.0819155e-08 9.141175e-06 0.0004729256 9.569511e-07
0.00016925776 9.587139e-07 0.00021408693 0.00021493623 2.3685512e-07 0.0001662975 0.06949949 0.00013850037
0.00020779816 2.7279472e-07 0.00023997434 0.00020849323 1.5081959e-07 0.00022809603 0.1105643 0.00017878014
3.4580033e-05 2.6403258e-08 4.3181557e-05 3.5256795e-05 1.5636983e-08 4.3661435e-05 0.014900198 2.5439082e-05
2.8946622e-06 6.796129e-09 3.1585791e-06 2.4559138e-06 3.3884469e-09 3.8031694e-06 8.15504e-05 2.031232e-07
0.00017915812 2.2880778e-07 0.0003161536 0.00018388242 2.5192733e-07 0.00030593024 0.10034935 0.00018102991
6.171518e-05 1.12363274e-07 0.00010486647 7.914429e-05 2.4390488e-08 9.248209e-05 0.0026667889 6.2830445e-06
1.8828307e-06 9.373732e-09 1.921099e-06 9.913771e-07 4.893288e-10 2.9219784e-06 3.3466833e-05 8.3667196e-08
2.7005104e-05 1.4560108e-07 2.4445004e-05 2.0921447e-05 2.871671e-08 2.9673894e-05 0.009336622 1.5846874e-05
2.190548e-06 7.9631475e-09 2.6593395e-06 1.7860804e-06 2.701069e-10 3.2179473e-06 6.782204e-05 1.6928568e-07
6.2560157e-06 6.832237e-08 7.3128394e-06 6.2215813e-06 1.4041612e-09 7.2978696e-06 0.00016316943 4.0183696e-07
1.1771827e-05 1.5311316e-07 7.639514e-06 6.902213e-06 9.04666e-09 1.2525597e-05 0.00041075496 1.0145781e-06
7.783637e-05 6.073805e-08 0.000118477554 9.30857e-05 6.0021875e-08 0.00010393558 0.03115039 5.5448632e-05

exp_avg f4 [128]
00000000: 0f2b cab8 3dd2 dfb7 7586 aaba 40d0 d839
00000010: 7353 c6b9 d72b d737 e9c8 d738 c0a2 a638
00000020: dc3f 2b3a 9d07 be38 e1af 0138 0827 d638
00000030: 8062 54b8 77d7 6c3a 9a49 d7ba d0ce b5ba
00000040: 28d8 deb8 4d24 973a f01e b4ba c143 afb8
00000050: e9d8 9c3a 8beb 54ba c465 e6ba 06ec 8b38
00000060: 50c1 04ba b7d5 e539 399c 0b38 accc 31ba
00000070: 03c7 70b8 65d5 46b9 770d b3b9 82d7 16bb
00000080: 3ac9 fdba 8678 e0b9 ce84 b039 57bb 8b38
00000090: a4d3 b73a 1909 c638 52de 90b8 c2fd d538
000000a0: 6f49 8437 ade3 8cb8 332f 3abb bd23 43bb
000000b0: 2630 15bb a22b 4d3a 26d8 16bb 022c 86b9
000000c0: 7dde d2b8 5308 8a3a a66d c1b9 64dc b6ba
000000d0: b9a2 05bb 413e d2b8 d0ac 92b9 f806 b738
000000e0: 280f 36bb 27d7 5139 b033 25b9 2041 0939
000000f0: 7836 453a a8b9 08bb 3779 0bba ce63 d138
00000100: c7a2 f137 879a 8bbb 418f 1938 4808 393a
00000110: a8f7 45ba 2c5c 7b3a 6835 1eb9 ac34 c43a
00000120: 8d64 ef39 a64b 62bb d06d 89b8 3459 9dba
00000130: 1d19 f7b9 d8ea 133a 1c60 c13b b406 bf37
00000140: 9672 57bb 1f23 80b9 696d 4b3a 8bb1 f238
00000150: 8ea5 71bb 1d38 e9ba 653e 7ab9 04dd 4139
00000160: eefa f8b9 5518 983b 2892 263a 861c 2739
00000170: 17ee fbb9 8134 3a39 25b1 9f38 7753 56b9
00000180: 8fce 0739 d9c7 8c39 c36d be39 81e7 a636
00000190: 33d4 89bb 6c35 bf3a c426 a93a 08ea a1ba
000001a0: 27f8 a9ba fc7e ff38 61c7 c4b9 59e6 1839
000001b0: 4041 23b8 e6c6 45bb 5e9f e839 1162 14ba
000001c0: d21b a637 2dfc 1fb9 62f0 c238 3baf db3a
000001d0: e7a0 5db9 b70b bc3a dd36 23b9 5de6 64b9
000001e0: 6244 07b9 ae58 03b8 e213 da3a fb90 dab9
000001f0: ec9d 0839 5006 1139 23c5 fab9 e006 43ba
-9.640131e-05 -2.6681571e-05 -0.0013010042 0.0004135389 -0.00037827677 2.5650412e-05 0.00010289421 7.9458114e-05
0.0006532648 9.061324e-05 3.0919797e-05 0.00010211585 -5.0636474e-05 0.00090347923 -0.0016425133 -0.0013870839
-0.00010626047 0.0011531204 -0.001374213 -8.3572704e-05 0.00119665 -0.0008122257 -0.0017577936 6.671999e-05
-0.0005064206 0.00043837514 3.3285676e-05 -0.00067825126 -5.7405803e-05 -0.00018962247 -0.00034151573 -0.0023016636
-0.0019362338 -0.00042814406 0.00033668283 6.662931e-05 0.0014024866 9.44307e-05 -6.9078655e-05 0.000102038975
1.5769821e-05 -6.718128e-05 -0.002840948 -0.002977594 -0.0022764294 0.0007826631 -0.0023017018 -0.0002559126
-0.00010055022 0.0010531045 -0.00036893523 -0.001395118 -0.002039118 -0.00010025176 -0.00027976045 8.727418e-05
-0.002778003 0.00020011944 -0.00015754881 0.00013089599 0.000752307 -0.0020862613 -0.00053204916 9.984487e-05
2.8805238e-05 -0.0042603645 3.661146e-05 0.0007058424 -0.0007551857 0.0009588625 -0.0001508795 0.0014969311
0.00045660548 -0.0034529953 -6.553123e-05 -0.0012004734 -0.00047130222 0.00056425994 0.0059013497 2.2772096e-05
-0.0032874695 -0.0002444023 0.0007760139 0.00011572529 -0.003687236 -0.0017793212 -0.00023865102 0.00018488249
-0.00047489203 0.0046415725 0.00063541764 0.00015936987 -0.0004805184 0.00017757902 7.6147066e-05 -0.00020439723
0.00012951552 0.0002685178 0.00036321403 4.974136e-06 -0.0042062043 0.0014588065 0.001290523 -0.0012353072
-0.0012967632 0.00012183 -0.00037532582 0.00014581661 -3.8922997e-05 -0.0030178367 0.00044369226 -0.0005660365
1.9801697e-05 -0.00015257364 9.295416e-05 0.0016760597 -0.00021136143 0.0014346753 -0.0001556533 -0.00021829591
-0.00012900078 -3.1315423e-05 0.0016638006 -0.0004168822 0.00013028801 0.00013830629 -0.00047830594 -0.0007439684

exp_avg_sq f4 [128]
00000000: 4f10 4b3a d646 6339 dc4d a438 f464 9b3a
00000010: a21a 9437 cd21 7336 00a6 e138 e5b2 a336
00000020: 76b0 c839 3643 3437 2d02 c136 4d33 f439
00000030: 5a33 6d37 f1d5 8639 5a31 073a ae44 2839
00000040: b650 ae36 f218 e039 b629 0639 f79f 9a37
00000050: 8f50 c839 5cec ec39 8450 a938 d3a6 d036
00000060: f8e2 013a f072 3139 de4c 8636 d1db 5938
00000070: 6845 a536 f9c0 6437 1cfd a637 44b9 5139
00000080: 34a6 4739 d998 823a 3c73 a939 7b57 1637
00000090: 190b b439 508f 8a39 8e28 2138 6d08 9c39
000000a0: 1e2f 1d37 e2a8 ed38 98e8 c539 7280 d239
000000b0: a365 b639 5d2f 6339 1ccb f639 b125 ed39
000000c0: ecf1 0b37 f520 d539 ee10 e237 8ff9 d539
000000d0: 3339 1c39 29ac 2538 9929 a737 11b8 ec36
000000e0: 0553 6e39 93d7 bd37 8d3c 1e38 3a33 9b38
000000f0: da7b 053a 13ea ce39 e893 0438 7ef5 dd36
00000100: 25e1 ec36 1b2e 3b3a b783 5d37 eb25 d639
00000110: 61b5 e639 d4cf a439 008f 1d38 7f03 4339
00000120: 78ee b438 96ab 043a e648 df38 3730 5039
00000130: 7924 8539 353a f638 968d b33a 4a9c a736
00000140: 203d 473a 5fce 8d37 3cf4 3239 7e07 2539
00000150: 9ccc 053a 0df4 653a 73ec 4a39 2503 f437
00000160: 2d13 eb37 c615 533a ca84 ad39 3377 5239
00000170: fb35 c338 b065 8e39 0038 2139 3349 a137
00000180: 6986 0a37 c570 b638 4eaf 0a39 12cd 9436
00000190: 82ab 643a 0519 9639 1988 a939 b97a a83a
000001a0: 9f2a d339 33bb e538 8ade ef39 0ca3 0937
000001b0: e5a5 1437 bdd1 8839 e7e4 6f39 7ae8 e039
000001c0: f0b1 4938 9a57 2237 79bd d837 8839 3339
000001d0: 3a0c 1139 1812 4439 a699 1937 59cd c739
000001e0: d987 0537 4423 6437 10d3 f139 6c4e a139
000001f0: 4d29 f537 20e4 2f37 eea5 4038 d72d a939
0.00077462656 0.00021674795 7.834632e-05 0.0011855648 1.7655377e-05 3.6229496e-06 0.00010759756 4.8786046e-06
0.00038278446 1.0744485e-05 5.7521015e-06 0.0004657753 1.4138257e-05 0.0002571787 0.0005157195 0.00016047314
5.195e-06 0.00042743195 0.00012794774 1.843272e-05 0.00038206993 0.0004518953 8.073545e-05 6.218304e-06
0.00049547805 0.00016922853 4.0024597e-06 5.194155e-05 4.925463e-06 1.3634789e-05 1.9906605e-05 0.0002000081
0.00019040034 0.0009963765 0.00032320048 8.961065e-06 0.00034340544 0.00026428187 3.842316e-05 0.00029760916
9.3689e-06 0.000113324975 0.00037748064 0.0004015002 0.0003478947 0.00021666051 0.00047072105 0.00045232245
8.341372e-06 0.0004065108 2.6949183e-05 0.00040812462 0.00014898628 3.9499402e-05 1.9927322e-05 7.0547762e-06
0.00022728376 2.263094e-05 3.7726528e-05 7.400518e-05 0.00050920027 0.0003946578 3.1609e-05 6.6148923e-06
7.0595584e-06 0.0007140354 1.3203294e-05 0.00040845512 0.00044004156 0.00031435362 3.7564896e-05 0.00018597952
8.627487e-05 0.00050609687 0.00010647047 0.00019854387 0.0002539491 0.00011741036 0.0013698812 4.9951823e-06
0.0007600356 1.6904609e-05 0.00017066387 0.00015738417 0.00051040365 0.0008772023 0.00019352305 2.9088531e-05
2.8023112e-05 0.0008052256 0.00033096067 0.00020071566 9.308379e-05 0.00027160114 0.00015375018 1.9226782e-05
8.256736e-06 8.699441e-05 0.00013226012 4.434617e-06 0.00087230664 0.0002862887 0.00032335593 0.0012853957
0.0004027681 0.000109544395 0.00045751437 8.203799e-06 8.860113e-06 0.0002609621 0.00022878089 0.00042897818
4.808785e-05 9.676349e-06 2.5837437e-05 0.00017092202 0.00013832832 0.00018698757 9.155285e-06 0.00038109234
7.959047e-06 1.359807e-05 0.00046124356 0.00030766742 2.9225508e-05 1.0483927e-05 4.59309e-05 0.00032268345
