results/petfollower23/PetFollower.onnx (onnx, 547009 bytes, 11 tensors)

network_body.observation_encoder.processors.0.normalizer.running_mean f4 [11]
00000000: c8d8 0dbe e3c1 14be 457a 3f3d 86e7 32be
00000010: 0000 0000 05f3 05bd 427a debb 4940 6f38
00000020: 2373 243b 5bbb 9c40 2b33 f33e
-0.13852227 -0.14527087 0.046747465 -0.17471132 0.0 -0.032702465 -0.0067894766 5.704191e-05
0.002509304 4.8978705 0.47499976

network_body._body_endoder.seq_layers.0.weight f4 [256, 11]
00000000: 4503 d8be d165 263b 4deb 263e 63d4 e4bc
00000010: a82c 223f adff 873e 6093 c83c 6264 563e
00000020: 9912 453e d1b0 183f 0a6b ab3e 0ed6 8b3e
00000030: 5ecb f5be 0da2 07be c9f6 4d3e 6daa b3bd
00000040: e432 003e 1741 c0bd 670e 07bf 726a 49be
00000050: bed4 7fbe 02ed 533e c071 6a3e fe53 a83c
00000060: aecc 8abe cc8b 3bbe 83b6 2dbd 1b9e 933e
00000070: fd7c 9bbe b091 153e 423d 96be 60bd 2abe
00000080: ef9b bf3e 52f7 6fbe 6b05 563e c52e b5bd
00000090: 0efc 01be 852d acbd 5f06 423e 5cc1 88bd
000000a0: c2a0 e03d 5f34 7ebe afc0 66be 0ee0 cb3c
000000b0: 4d5a 1b3e c284 093f 1b12 3fbe acf7 1fbe
000000c0: f624 92be e4e2 49be 4745 813f 14da 413d
000000d0: c72e ba3d 73fb 083f 2441 703e bc92 663e
000000e0: c08a 02bf 36c9 16bc fc8b 9c3e b4d3 8a3e
000000f0: 2ca9 873e 019e 1cbd e0da 91be 0e32 9f3d
00000100: c6c0 70be 0e08 3d3e 9455 583e de1b 0ebd
00000110: 270e 1ebe ee3e 99be d78d 7c3d b88c 1c3d
00000120: 99b7 e73d e614 553e 288d d13e 24aa 79bd
00000130: 196c 29be 872b 4cbe c48b 5abd 45f2 c33e
00000140: d1ef ebbe 9e00 843e dd29 363f aa3c 3bbf
00000150: 497f 523e 5f3c aa3c e41c c1be f7c3 52be
00000160: dd82 cc3d 6ce8 f63c 3774 cd3d e592 2ebe
00000170: d012 c13e d49d 063f 959c d33e 1fbc f9bd
00000180: 01c4 f83d 6e9a 8dbe 2457 e7be 5199 d5bb
00000190: 40aa 26be 54bd 983e 3ef4 eebc e488 de3d
000001a0: 8cf6 8e3e e04e 133d 7f14 843d e76b ca3d
000001b0: 8444 cc3d ad45 aebe 7814 f33e d958 ebbe
000001c0: 3b93 f23d 31b1 b43e dd9c 39be 7fd9 a23e
000001d0: 514e af3e 729d 7cbe bdfb fa3d 2318 4ebe
000001e0: b98f 75be 5a2d a63e 9522 19be 6cf8 dfbd
000001f0: 154f 4b3e a6dd 52be abe0 09be 39ac 0ebf
00000200: d4bf d2be 7068 51be f929 823e 0abf 6e3d
00000210: e4a4 1c3e bc93 c43e e05f b0bc 4fba 10be
00000220: becf 59be 8c9f 8ebe 3792 5f3e d82a e53e
00000230: ddea 98bd dfcf 433e 3c82 393e faa7 713d
00000240: bbdf a3bc 1c63 943e efcc f23e bae1 11be
00000250: bfc7 1abd c5db a0be e8e5 ad3e 290a 8b3d
00000260: 3d67 c1be 734e c63d bd0e 6e3e 0534 02be
00000270: 413d b53e d880 d1bd 5afc 6f3e 35e6 3c3d
00000280: e163 c5be fccb ce3d 723a e03d 612e 2ebe
00000290: 6a85 4bbd 3eb9 f4be 7fec 863e 736d a73c
000002a0: bd51 80be fad6 3cbe 1987 26be 2f81 623d
000002b0: 0bf1 1c3f 797e 12be 03d8 213f 842d 7f3e
000002c0: d6fc abbe 8227 c23e edc6 95be ff5c a2be
000002d0: e001 aa3d a97b 993e 15f5 ac3e 0a8f 3b3f
000002e0: 99b4 613c 7fd2 9dbe bc1e 10bf 9b12 21bf
000002f0: 3821 4a3e b281 16be c842 f23c da7c 1b3f
00000300: 00c0 983e 8710 93be c6ec 353e 50f2 2dbe
00000310: 0489 b8bb 1796 283e 62c9 8b3e a7fd 3fbf
00000320: 687c d93c 4d1c c73d a585 bfbe a919 24be
00000330: 14c0 1ebe 291b 8f3e 958b 9c3e 4790 9e3e
00000340: e5a1 e83d 7554 ff3d d902 ac3d 1d01 8dbc
00000350: cbb9 d93e 62a0 e2be b579 653e 7153 863c
00000360: 1015 d8be fb32 6bbd ea97 0f3d f68f ff3e
00000370: f568 46be 579d dcbd 6cb3 10bf 09e3 7b3e
00000380: 35ac 9a3e f4f4 8ebe bc20 d83d 933b 66be
00000390: 1b8e b6be 3acd 9dbe 57f7 223f 2d17 46ba
000003a0: 5842 df3d 8ff1 1e3f 511e 133f 54aa 8e3e
000003b0: 21bb 75be de0e 94be 95a5 29be a4d1 6fbe
000003c0: 3e2a 63be 67e2 923e 5b27 48be 3d15 8a3e
000003d0: f5c1 b93d 1125 a83e 42ea c03e 61ad 563e
000003e0: 9cc0 25be b5bf babe 3ab6 0b3f 6be6 013e
000003f0: 45df f7bd 4a17 94be 5295 7ebd 6e29 d8be
-0.42189994 0.0025390277 0.16300698 -0.027933305 0.6334939 0.26562253 0.024484336 0.2093673
0.19245376 0.596448 0.33480102 0.27311748 -0.4800672 -0.13245411 0.20113672 -0.087727405
0.12519413 -0.09387415 -0.5275635 -0.19669512 -0.24983498 0.2069588 0.22894955 0.020547863
-0.27109283 -0.18315047 -0.042410385 0.28831562 -0.30368796 0.14606357 -0.2934361 -0.16673803
0.37423655 -0.23434189 0.20900504 -0.08846811 -0.12693807 -0.0840712 0.18947743 -0.066775054
0.10968162 -0.24824665 -0.2253444 0.024887111 0.15171166 0.537182 -0.1865925 -0.15621823
-0.28543824 -0.19715458 1.0099267 0.047327116 0.09090953 0.5350868 0.23462349 0.22516912
-0.50992966 -0.009203246 0.3057555 0.27114642 0.26496255 -0.03823662 -0.284873 0.07773219
-0.23511037 0.18460104 0.21126395 -0.034694545 -0.15435086 -0.29930824 0.061658707 0.038220137
0.11314315 0.20808753 0.40928006 -0.060953274 -0.16545142 -0.1993848 -0.053355947 0.38270774
-0.46081403 0.2578172 0.7115763 -0.7313944 0.20556368 0.02078074 -0.37717354 -0.20582567
0.09985898 0.030140124 0.10031932 -0.17048223 0.37709665 0.52584577 0.413304 -0.121940844
0.1214676 -0.27656883 -0.4518367 -0.006518521 -0.16275883 0.29831946 -0.029169198 0.108659536
0.27922475 0.035963893 0.06449222 0.09883862 0.09974006 -0.34037533 0.47476554 -0.45966223
0.11844488 0.35291436 -0.18126245 0.3180656 0.34239438 -0.24669436 0.122550465 -0.20126395
-0.23980607 0.32456475 -0.14954598 -0.109360546 0.19854386 -0.20592365 -0.1346461 -0.5573154
-0.41161978 -0.20449996 0.25422648 0.058287658 0.15297276 0.38393962 -0.021530092 -0.14133571
-0.21270654 -0.278561 0.2183312 0.4475925 -0.074666716 0.19122265 0.18116087 0.058998086
-0.020004144 0.28981864 0.47421977 -0.14246264 -0.03778815 -0.3141767 0.33964467 0.06789047
-0.37774077 0.09682932 0.2324781 -0.12715156 0.35398296 -0.10229653 0.23436108 0.04611798
-0.38552764 0.10097501 0.109486476 -0.1700988 -0.04968778 -0.4779758 0.26352307 0.020437932
-0.2506236 -0.18441382 -0.16262473 0.05529898 0.613053 -0.14306058 0.6322023 0.24919707
-0.33591336 0.37920767 -0.2925333 -0.31711575 0.08301139 0.29977158 0.33780733 0.73265135
0.013775968 -0.30824658 -0.56296897 -0.62919015 0.19739234 -0.14697912 0.02957286 0.60737383
0.29833984 -0.28723547 0.17766103 -0.16986966 -0.005631568 0.16463505 0.2730208 -0.7499642
0.02654858 0.09722195 -0.3740665 -0.16025414 -0.1550296 0.2795041 0.30575243 0.3096945
0.11359004 0.12467281 0.08398981 -0.017212445 0.4252456 -0.44262987 0.22409709 0.01639721
-0.4220357 -0.057421666 0.035056986 0.4991452 -0.19375975 -0.10772198 -0.56523776 0.24598326
0.3020951 -0.2792126 0.105531186 -0.22483663 -0.35655293 -0.30820638 0.6365866 -0.0007556554
0.10901326 0.6208734 0.57468134 0.27864325 -0.23997165 -0.28917593 -0.16567071 -0.23419815
-0.22184083 0.28688356 -0.19546263 0.2696933 0.090701975 0.3284078 0.37678725 0.20964576
-0.16186756 -0.36474386 0.5457493 0.12685554 -0.12103132 -0.28924018 -0.06215412 -0.42219108

network_body._body_endoder.seq_layers.0.bias f4 [256]
00000000: 57a2 8f3a 16e9 0b3b 75a4 d8bb cd1f 24bb
00000010: 376d 6f3b 606f febb a53f d438 b218 9d3b
00000020: d022 d3bb b406 02bb 94c3 a8bb 173f 8abb
00000030: 552a 083c e544 17bb 8ea0 7ebb 44b3 20bc
00000040: e66b 04bc feac b639 f7e1 ddbb 58a2 643c
00000050: db1b 8c3b d233 2a3c 08f0 9f3b 6bfb 3b3b
00000060: 6769 0c3b 31ab 4ebb 228d 8fb8 550e 033a
00000070: 6925 80b9 9cfb 32bb 1c18 5eba f341 a93b
00000080: 8b73 a03b 6022 e93a 750d 3dbc ecc5 91bb
00000090: a109 693c a111 3c3c 6644 023b 9a7c cfbb
000000a0: dfaf 5dbb 7333 45bb 0a6d 00bb 0cbc 1f3c
000000b0: 90ca 103b 6905 4a3a f375 283c 80a6 e03b
000000c0: 3f05 8e3b a737 66b9 4881 cc3b b399 e83b
000000d0: 185b dd3b 627e 49bb b75d 2a3b e6f4 aeb8
000000e0: 1b26 5d3b b570 c239 083e 663c 0513 8f3a
000000f0: 0530 43bb ff56 d13a 8a1b 20bb 6789 fdba
00000100: cc8c 7c3b bd8d 453a 292b a3bb 4f06 7b3b
00000110: 989e c0b9 a5c4 0d3c 647e 723b 42a4 ee3b
00000120: d9a4 043c af08 b73a b107 043a 2804 b23b
00000130: 454e 713b 13c4 c93b 06df 1e3c 4abc 123c
00000140: 58d6 8b3b 68dc b837 c4a8 98ba a7bd 2e3c
00000150: 22ad 273c b944 07bc 964e be3b e3b5 193c
00000160: a96a 6e38 868c 683b 194f 96ba d458 683b
00000170: e83a 10bc 9d41 ae39 40a3 a9bb f6d5 a2ba
00000180: 287e 793c 61dd 373a 2726 193b b27f 083c
00000190: 53f5 d83a 3bb7 853a 2b75 c03b b10a 2bba
000001a0: 0edc 393c 76cb b2bb b9fd 493b 7b05 bf3a
000001b0: 1063 d8ba ea8e 2d3c 9f70 25ba 4064 6436
000001c0: 1cf2 573b 1124 3ebb 1f65 c33b cefe f239
000001d0: 25d5 c13b 9435 943a 9228 a6b9 15a7 143c
000001e0: 39fd 86b9 c986 433b a0b6 56bb 6d96 13bc
000001f0: 9595 6d3b e713 d83b 255e 0fbb 4672 9f3b
00000200: d204 5a39 3c00 9cbb c122 28bb 0e6a 2cbc
00000210: f833 2cbb d2af 07bb a60d b6bb 96fc dfbb
00000220: 39f1 07ba e453 c43a 141c 00bb d196 173c
00000230: 1212 dd3b c701 16bc ebb2 863b dd90 c0bb
00000240: 184e e0ba 588d c4ba 5540 62ba 2a5e 02bb
00000250: 78f8 6a3b 8150 1639 d204 d73b a5d2 c8bb
00000260: 39d4 093b 9313 223b 7fc2 55bb d9be 0dbc
00000270: be1e aebb 80be 40ba b66a 243b 743f 01bc
00000280: aa06 51ba 4a9e e939 0569 eb3b 544b 12bc
00000290: 7035 f9bb 88b9 8aba 832b 873b e06e 04bc
000002a0: 19ce bd3b 4854 86bb e537 95bb 0968 6cbb
000002b0: 9e12 3fb9 3393 0ebb d2f1 4fbb 0836 c0b9
000002c0: 5713 853b ff4b 053c 8eaf 0cbc e198 4c3b
000002d0: 4f9f 80bb 08dd e938 5411 3bbb 1273 483a
000002e0: 06f7 dbbb a4ec 05bb 5cbb 8bba 3127 2f39
000002f0: bfb7 433b 5c3f 923b c37c 01bc 95cc 5a3b
00000300: 03b0 8b3b 60cd 57bb 9617 1dbb 5c77 1dbb
00000310: ecc0 7fb9 83db 953b dddf 153c 2d65 313b
00000320: 0f73 d63b 412c 24bc 5c16 79bb 1749 84bb
00000330: 7eda fe3b 51e5 963b 8e8d 85ba 422c a4bb
00000340: 81bd 953a 49fe 71bb 4a36 8cb8 240d 353c
00000350: 3d1b b03b 6bbe 00bc efe1 fc3a a28b 683b
00000360: 3cb3 a0bb 62e2 eb3a ba65 a33a df51 823b
00000370: 77ac 8839 9840 b2bb 9192 2fba 3496 c63b
00000380: eac0 3b3c 288e b3bb 0a83 0638 816e 613b
00000390: c373 353b dd67 58ba 686c 623b 6db5 8ebb
000003a0: adc3 783a df8a 7cbc 87b6 d93b e531 40bb
000003b0: 3663 323b 9894 313c 1708 d8ba 8c48 e5bb
000003c0: e59c 753b d40e b73a 50e7 6d3b 612a 24bc
000003d0: 14c7 16bc 69ff 1abb 3bbb 3539 b458 ff3b
000003e0: f244 4ebc 07af b23b 744a b6ba 7043 ae3b
000003f0: 38b9 9b3a 230b 3d3a bfb0 9fb9 0391 55ba
0.0010958415 0.0021348647 -0.0066114017 -0.0025043369 0.0036533603 -0.007764742 0.000101208025 0.0047942037
-0.006443359 -0.001984042 -0.005150268 -0.0042189467 0.008310874 -0.0023081836 -0.0038853022 -0.009808365
-0.008082366 0.00034842634 -0.006771322 0.013954721 0.0042757816 0.0103883315 0.004880909 0.0028683792
0.002142513 -0.0031535143 -6.8450594e-05 0.0004999389 -0.00024441935 -0.0027310615 -0.00084722205 0.0051653325
0.0048965863 0.0017786734 -0.011538853 -0.004448643 0.014223487 0.011478812 0.0019877194 -0.0063319923
-0.0033826751 -0.003009048 -0.0019596242 0.009749424 0.0022093393 0.00077064947 0.010282028 0.006855786
0.0043341215 -0.00021955241 0.0062409975 0.0070984005 0.006755244 -0.0030745496 0.00259958 -8.3425824e-05
0.0033744636 0.00037086537 0.014052875 0.0010915702 -0.002978326 0.0015971361 -0.0024430477 -0.0019343317
0.003853607 0.0007536074 -0.0049795103 0.003830332 -0.00036739255 0.008652841 0.0037001604 0.0072827647
0.008095943 0.001396438 0.00050365465 0.0054326244 0.0036820334 0.006157407 0.009696728 0.008956024
0.004267495 2.2037144e-05 -0.0011646976 0.010665334 0.010234149 -0.008256131 0.005807708 0.009381744
5.6842957e-05 0.003548415 -0.0011467665 0.0035453336 -0.008803107 0.00033236752 -0.0051769316 -0.0012423384
0.015227832 0.0007013884 0.0023368688 0.008331226 0.0016552605 0.0010201702 0.0058733425 -0.00065247255
0.011343969 -0.0054563833 0.0030821397 0.0014573777 -0.0016509015 0.010593155 -0.00063110323 3.4033e-06
0.0032950705 -0.0029013196 0.0059629823 0.0004634768 0.0059153014 0.0011307471 -0.00031692215 0.009073039
-0.00025747137 0.0029834977 -0.0032762662 -0.009008032 0.0036252488 0.0065941694 -0.0021876183 0.0048659174
0.00020791896 -0.00476077 -0.002565548 -0.010523332 -0.0026276093 -0.0020704162 -0.0055558262 -0.0068355305
-0.0005185786 0.0014978615 -0.0019547986 0.009252266 0.006746539 -0.009155697 0.004110684 -0.005876644
-0.0017113118 -0.0014995737 -0.0008630802 -0.0019892552 0.0035853665 0.00014335105 0.006561854 -0.0061286264
0.0021031036 0.0024730905 -0.003261715 -0.008651459 -0.0053137233 -0.00073526055 0.0025088019 -0.007888664
-0.00079737103 0.00044559158 0.00718415 -0.008929092 -0.007605247 -0.0010583857 0.00412506 -0.008083075
0.005792391 -0.0040994026 -0.0045537823 -0.0036072752 -0.00018222115 -0.0021755218 -0.003172983 -0.0003666135
0.0040611434 0.008135795 -0.008586777 0.0031219053 -0.003925241 0.00011151476 -0.0028544264 0.00076465413
-0.006712797 -0.0020435238 -0.0010660696 0.000167039 0.002986416 0.0044631194 -0.007903281 0.00333861
0.0042629256 -0.003292881 -0.0023970357 -0.0024027443 -0.00024390564 0.004573287 0.009147611 0.0027068362
0.006544478 -0.010020317 -0.0038007712 -0.0040370333 0.007777511 0.0046049734 -0.0010189281 -0.0050101588
0.0011424274 -0.0036925247 -6.685832e-05 0.011050496 0.005374341 -0.007857899 0.0019293408 0.0035483618
-0.004904179 0.0017996544 0.001246623 0.003977045 0.00026068438 -0.005439829 -0.00066975603 0.006060386
0.0114595685 -0.005479593 3.207013e-05 0.003439814 0.0027687408 -0.0008255223 0.0034549478 -0.0043551237
0.0009489607 -0.015413969 0.0066440734 -0.0029326614 0.002721978 0.01083865 -0.0016481903 -0.0069971737
0.003747755 0.0013966211 0.0036301203 -0.01001987 -0.009202737 -0.0023650771 0.00017331254 0.0077925567
-0.01258968 0.005452994 -0.0013907687 0.005318098 0.0011880761 0.00072114373 -0.0003045853 -0.00081469136

network_body._body_endoder.seq_layers.2.weight f4 [256, 256]
00000000: d804 0cbe 22ce 623d 592b b8bd f157 4e3c
00000010: 05fd 4c3d 4a55 35bd f8da 0cbe 4fd6 3cbd
00000020: 8014 f23c 7606 d33d f827 243d b260 3c3d
00000030: a458 16be 0672 dcbd 4b4e 8d3d 50f3 853c
00000040: 9aba 823c e8a3 03be a744 b7bd 9d9b 2e3e
00000050: d429 323d 93cd 8e3d ffb5 193d 4eae 73bd
00000060: 53e9 fbbd 3612 96bd 000c 8abd f3ad 31bd
00000070: 4340 143d 4e0e d53c 1e84 02be 6ee0 d3bc
00000080: 6ece 913d bf21 0b3c af31 27bd 6928 49bd
00000090: dc91 8abd e770 713d 23fd 3fbd 3dc2 92bc
000000a0: ec0d 163c 8e96 1f3e 55de 2fbd 3d40 cb3d
000000b0: 5abc a1bd 7425 eb3c 4916 0c3d 863b 8bbd
000000c0: 2103 08bd 5547 943d 22fd b53c 34b1 f1bc
000000d0: c625 19bb 7bf2 913d 2fd3 5cbd 89f8 b03b
000000e0: 9065 b9bb 4b59 b1bd 16a2 b13c 219a d1bc
000000f0: 60ee 1cbd d4f2 cf3c fc1b a7bd a0e1 af3d
00000100: 3a1e 35bd 1628 d93d 1ba3 c13d b685 833d
00000110: 058a 9ebb d1fa d23c 61a9 763d c9f4 033d
00000120: f52e e53c c116 09be f08c b8bc 80b1 4a3c
00000130: 8638 aa3c 35d4 adbd 78b4 a23d 8515 063d
00000140: f2a3 913d 0dd7 a73c eebb bbbc 4d2e 6bbd
00000150: 13a4 60bd 959b 583d d219 2a3c a74d 39bd
00000160: fbf1 223c 64a3 91bb 7c1b 07bd a934 8abd
00000170: abd5 5bbd a769 893d e6e0 9ebc 6759 a0bb
00000180: 2592 713c b587 eebc 21c0 93bd f5db a23d
00000190: d46c 133e 097f 683d 4756 8f3c 8414 a5bb
000001a0: 0c0c a33c 3279 cdbc 5506 073e 1c53 a8bd
000001b0: 2625 ad39 764a ffbd 207f c3bd a511 8cbd
000001c0: 5dd2 9c3c cd21 93bd 213c 113b 7a53 6d3d
000001d0: c384 953a 52f8 333d 5c79 003e 5151 f33d
000001e0: aea4 e0bc 72fc 0f3d c46f 953c 8fa7 16bd
000001f0: 0700 903d b1ff 313c 3d31 6a3d bb2d 16bd
00000200: 50b6 b8bd 1a4c 90bc 2572 273c dd22 953c
00000210: b727 afbc a0a3 fb3d 7c88 da3d 8c43 b23d
00000220: d2e5 48bd 50b2 ac3c de5d 88bb 44f3 48bc
00000230: 2125 04bd fee1 afbc 66d3 11bd 40d3 d03c
00000240: 9f9d 9ebd cca7 8d3d bd11 83bd 7b7b 87bd
00000250: d56b 7f3d cdda 993d 0ec8 0a3e 0256 15bd
00000260: c054 5e3d a596 1ebc 7105 223d bdc4 153d
00000270: 4353 a13d 2cad 57bc 15df 2dbd 20c0 f6bd
00000280: fc55 4f3e 5d48 e9bc 8e89 24bb 4013 593c
00000290: 58aa d83c ac75 0dbe 73aa 803c 3833 6c3a
000002a0: b1ac 9b3d 11b1 693d 3100 9e3d 364a eb3c
000002b0: aa3e 46bc bad3 f83d 20d5 10bc d139 873d
000002c0: 376c 45bc 615b 613d b937 7b3d a67a aabd
000002d0: 037e 6a3d 3d14 0e3c 2005 8c3c a925 bdbc
000002e0: f2f6 963d e550 adbd 14b1 25bd 2a1d 93bd
000002f0: 9bb0 823c ffaa b13c 9abd 423d e4ed 49bb
00000300: a77a 3ebb 0566 b3bd 66ee 17bd 940f 8c3d
00000310: 5d6c 46bd f28b 6dbd 004e 4abd cf24 dc3d
00000320: 7569 e3bc 5d3c 363d 6ed8 a9bd 9494 89bd
00000330: 0f5a 35bd 3fe2 0abd 0c80 9c3d 9324 d7bc
00000340: ac17 23bd 9cd9 14bd dc1d d3bd 0365 29bb
00000350: b1e9 a83d 520b 9c3c eaeb a23b 3203 d13c
00000360: 9429 cbbc 8ebf 63bd fa30 b83c 7fb5 6ebd
00000370: 7c8f 59bd 78ea 593c d5e7 b33d 9a72 ebbc
00000380: aedf 513d bb48 be3c cbf9 193e ff68 863d
00000390: 29a1 7f3d 0a2a 5cbd eefb 433d 41da 0e3c
000003a0: 91a9 52bd ff6c 91bb 9a35 1abd d8bf 84bd
000003b0: a8c6 0ebd 06ac d2bc 2a6e 37bd c5d5 16bd
000003c0: eb08 823c 4b47 70bd 264b f73c cb5d 463a
000003d0: 7ce4 9ebd f6de f8bc 3555 75bd 2e55 0bbb
000003e0: d8e8 dbbc 5fff c33c 1ac9 81bd bba6 20bc
000003f0: bc36 a33c c93f f13c bf43 013d 1d6f bfbd
-0.13673723 0.055372365 -0.08992643 0.012594209 0.050045986 -0.04427079 -0.13755405 -0.046102818
0.02955079 0.10303967 0.04007718 0.045990653 -0.14682251 -0.10763936 0.06899699 0.016351372
0.01595812 -0.12855494 -0.08948641 0.1705155 0.04349692 0.06972804 0.03752708 -0.0594924
-0.123003624 -0.07327692 -0.0674057 -0.04337878 0.036194097 0.026007798 -0.12745711 -0.025863852
0.071194515 0.008491932 -0.040818866 -0.049110804 -0.06766102 0.058945563 -0.04687227 -0.017914886
0.009158593 0.15584776 -0.04293664 0.09924362 -0.07897253 0.028704382 0.03420094 -0.067984626
-0.03320611 0.07240168 0.02221543 -0.029503442 -0.0023368462 0.071263276 -0.053912338 0.0054007214
-0.005657859 -0.086596094 0.021683734 -0.02558619 -0.03831327 0.025384344 -0.081596345 0.085879564
-0.04421828 0.10603349 0.09454938 0.06421988 -0.0048382306 0.025754364 0.060220126 0.032215867
0.027976492 -0.13387586 -0.022528142 0.012371421 0.020778906 -0.08487741 0.07944578 0.032735366
0.07111348 0.020488286 -0.02291676 -0.057417203 -0.054843973 0.05288275 0.010382133 -0.04524007
0.009945388 -0.0044445265 -0.032985196 -0.067483254 -0.053670567 0.06709605 -0.01939435 -0.00489347
0.014744316 -0.029117445 -0.0721438 0.0795211 0.14396983 0.056761775 0.017497195 -0.005037846
0.019903205 -0.025082204 0.13186009 -0.08218977 0.0003302481 -0.12465374 -0.095457315 -0.06839303
0.019143278 -0.07184181 0.0022161084 0.057940938 0.0011407364 0.04393799 0.12546295 0.11880744
-0.027422275 0.03515286 0.01824177 -0.03678089 0.07031255 0.010864184 0.057175864 -0.036664706
-0.09019148 -0.017614413 0.010220085 0.0182051 -0.021381242 0.12287068 0.106705636 0.0870429
-0.0490473 0.02108112 -0.0041615805 -0.01226503 -0.03226197 -0.021470066 -0.035601996 0.025491357
-0.077449076 0.0691677 -0.06399868 -0.06615349 0.062358696 0.07512436 0.13552877 -0.036458977
0.054280043 -0.009679471 0.03955597 0.036564577 0.07877209 -0.013163846 -0.042449076 -0.12048364
0.20247644 -0.028476888 -0.0025106403 0.013249218 0.026448414 -0.1381442 0.015706277 0.0009010318
0.07601298 0.05705363 0.0771488 0.02872191 -0.012099901 0.12149759 -0.008839875 0.066028245
-0.012049726 0.055018786 0.06133244 -0.083241746 0.05724908 0.008671817 0.017092288 -0.023089247
0.0737132 -0.08462695 -0.040452078 -0.07183297 0.015953353 0.021687983 0.0475441 -0.003081196
-0.0029064806 -0.08759693 -0.03709259 0.06838909 -0.048443187 -0.05799479 -0.049390793 0.10749208
-0.027760247 0.04449116 -0.08293234 -0.06717792 -0.04427534 -0.03390717 0.076416105 -0.026262557
-0.039817497 -0.03634034 -0.103084296 -0.0025847561 0.08247698 0.019048367 0.004971971 0.025514219
-0.0248001 -0.055602603 0.022484291 -0.058278557 -0.053115353 0.013300531 0.08784453 -0.02874117
0.05123871 0.02322804 0.15036695 0.06562995 0.062409554 -0.05375103 0.04784768 0.008719028
-0.051431242 -0.004438042 -0.037648775 -0.06481904 -0.034857422 -0.025716793 -0.044782795 -0.03682496
0.015873393 -0.05866174 0.0301872 0.0007567077 -0.07758424 -0.030379754 -0.059895713 -0.0021260488
-0.026844427 0.023925481 -0.06337185 -0.009805377 0.01992356 0.02944936 0.03155875 -0.09347365

network_body._body_endoder.seq_layers.2.bias f4 [256]
00000000: fc77 77bb e673 ccba 41a2 b6ba 7129 56ba
00000010: 0f96 c3bb ec5c a6b9 f8e5 113b 0877 3b3b
00000020: 8df3 ebbb c7ca e3ba 4b16 21bb edc6 3a3c
00000030: aa79 693b 90e5 ae3a 420f 80bb d1d1 5f3b
00000040: aff7 753b 0803 7c3a bbc4 693b 06d7 72bb
00000050: 7a4a 0a39 d690 913b 5fec 083b 7884 80bb
00000060: fc3e 103c 397f 153c 3f6b 6439 fdba 87ba
00000070: 5cec 14bc 3bb8 1c3a 7b79 77bb 573f eb3a
00000080: 92b8 7a3b 1ef2 e5bb b335 b83b 6e80 9439
00000090: 926d cbb9 94a1 f6bb 92e4 c4bb 700d b9bb
000000a0: 197c fd3b 735a 9b3b 0cde 15bb 0b8f 46bb
000000b0: 2339 30bb 998e 223b 9297 a73b 95be 56bb
000000c0: 7c93 e8bb 6d64 baba 57b6 27bb 47f4 0d3a
000000d0: 632c 44bb 4f67 df39 034b f5bb fea8 ef3b
000000e0: 31a2 06bc dfe3 9abb 4b68 d1bb 5c7a 04bc
000000f0: 25bf 423b b6a6 7fbb 964b e23a 9a0b 0a3c
00000100: ad7b 0b3c 7110 193c cf4e 1b3c 00dd a3ba
00000110: 9e1d 7c38 db1c 80bb b719 74ba 9092 07bc
00000120: 41e1 c8bb 9eb5 d1ba b05b 083b e64b 313b
00000130: 6dac 0a3a c20b 9c3b e80d bebb fadf 6cba
00000140: 12f9 8e3b 6118 55bb 1478 2a3b 598b 553b
00000150: 4668 553b 05d1 efbb 8469 f5ba 74f5 35bb
00000160: b156 86bc f3eb 923b b626 bebb f609 bebb
00000170: 1b20 1abb 72a0 fc3b f02e 453b 9fb7 cd39
00000180: 240a 2a3b 0c31 ed3b 2fd7 723b 6b0d 2c3b
00000190: c220 153c 8f37 363b c8cf 903a 8848 0f3c
000001a0: 3a33 0c3c 6a2e ac3b 4c35 8dbb 8a90 73bb
000001b0: 2f55 bb3b c0c6 7839 ce10 3d3b 1522 003c
000001c0: fea8 efbb 830d 933b 7b96 353c 71c2 ccbb
000001d0: db90 b83b cf19 8eba 9d10 273b da62 b53a
000001e0: f024 a6bb de6f e2b9 2c9c ddba e2fa 863b
000001f0: 5490 613b 4042 57bb 6f3f 33bc 7356 b43a
00000200: a815 e1bb 8eac 9aba bfd5 c5ba 52b1 1cbb
00000210: 4a83 cb3a 1838 9cbb 8017 863b e13f ce3a
00000220: ab7c cebb 165c d2ba 71b4 2a3b 23e6 0e3c
00000230: f1e9 02bb 0447 c53a 0ae5 9abb d5de 753b
00000240: 5a8e 7c3b 0c36 f9bb 4dce 31ba 975c b6ba
00000250: 778e be3b 822e 80ba a099 013b 04d7 1eba
00000260: f23b c9ba c89a 9fba 149b 90bb 43c1 663b
00000270: ca03 eb3b 637d 56bb cf6f cdb9 8098 b73a
00000280: 4e2a 4e3a 1019 3dbb 5275 013c 64f9 e13b
00000290: 8a2a 9b3b 9c5d b6bb 687d 8c3b a925 923b
000002a0: 733b 83bb 2cbe a2bb aef9 cebb daf3 8fbb
000002b0: a1f8 e3b8 d090 33ba ff33 6f3a 5d00 063b
000002c0: b177 fe3b cc2a 2f3c 4492 bc3a 467b c4b9
000002d0: c7c0 c2ba 490a fa39 4070 9d3b b2ac d1bb
000002e0: 7b63 313b c3b7 8e3a fca1 613a b3fd d53b
000002f0: afd2 14bc 60ab ad37 9ca9 34bb a75a 803b
00000300: 9f7c 953a 3363 e6ba c156 8dbb 9a37 ac3a
00000310: 393f 173c dcf9 d5bb ed4b a43a 696f 853b
00000320: 132a 7f3a 7b45 1fba 031c d9bb 5b48 9c3b
00000330: e352 1c3b a3df e93b b9bb 6dbb 3a7e d038
00000340: 6f85 08bb 8c9b 1b3a fece 03bc b1e5 c5bb
00000350: 0d54 05ba e453 853a 6d08 23bc 315d 8a3b
00000360: 7060 4abb 6bd0 5fbb f52e 20bc 6331 873b
00000370: 99ac c13a 3fb2 4cba 9869 163b 632e a4bb
00000380: 71a0 463b 0221 abba 9bd2 193b 0c6e 41bb
00000390: fefe 933b a971 33b9 b13f fe3a f865 8938
000003a0: bc77 79bb 6e32 563b 3185 d53b c7c0 82bb
000003b0: fb33 d93a c5fd 593a 1e66 febb f872 1dba
000003c0: f610 83bb 2ae0 88bb 645b 173c 38e7 5a3b
000003d0: 92e2 b43a a7fb d5bb ab49 533b 3de5 833b
000003e0: 9c0a ceba 1377 86bb d93a 8c39 a0c5 9f3b
000003f0: 1236 d83b ccb2 0eba a02f 873b b0f0 9d39
-0.0037760725 -0.0015598505 -0.0013933853 -0.00081696274 -0.005968816 -0.0003173122 0.0022262316 0.0028604884
-0.0072006644 -0.0017379158 -0.0024579938 0.011399967 0.0035625496 0.0013343561 -0.003908069 0.003415216
0.0037531664 0.0009613489 0.003567024 -0.0037054433 0.0001318845 0.0044423146 0.0020892841 -0.0039220415
0.008804079 0.0091245705 0.00021783727 -0.001035541 -0.009089556 0.000597838 -0.0037761617 0.0017947954
0.0038256985 -0.007017388 0.005621636 0.00028324447 -0.00038800813 -0.007526586 -0.006008693 -0.005647354
0.007735741 0.004741007 -0.0022867946 -0.0030297663 -0.0026889525 0.0024804233 0.005114504 -0.0032767404
-0.0070976596 -0.0014220603 -0.002559086 0.00054151233 -0.0029933683 0.00042610845 -0.0074857487 0.0073138466
-0.00821738 -0.0047268714 -0.0063906065 -0.008085813 0.0029715982 -0.003900928 0.0017264958 0.008425618
0.008513373 0.009342299 0.009479239 -0.0012501776 6.0109065e-05 -0.00390969 -0.0009311693 -0.008274689
-0.006130368 -0.0015999561 0.0020806603 0.0027053296 0.00052899757 0.004762144 -0.0057999976 -0.00090360607
0.0043631876 -0.0032515752 0.0026011514 0.0032584278 0.0032563373 -0.0073186182 -0.0018723463 -0.002776471
-0.01639876 0.0044836937 -0.0058029545 -0.0057995273 -0.0023517672 0.0077095563 0.0030087791 0.00039237455
0.0025945986 0.007238513 0.003705453 0.0026253115 0.009102048 0.0027804112 0.0011048252 0.00874532
0.008557135 0.0052545564 -0.004309332 -0.003716501 0.005716942 0.00023725163 0.0028849128 0.007820626
-0.0073138466 0.0044876947 0.011083241 -0.006248765 0.0056325025 -0.0010841432 0.002549208 0.0013838664
-0.0050703213 -0.00043189427 -0.0016907505 0.004119263 0.0034418302 -0.0032845885 -0.010940417 0.0013758674
-0.0068690367 -0.0011800693 -0.0015093609 -0.0023909402 0.0015526798 -0.004767429 0.004092157 0.001573559
-0.0063014827 -0.0016049172 0.0026047493 0.008721861 -0.0019975866 0.0015051072 -0.0047270106 0.0037516851
0.0038536997 -0.00760532 -0.00067827554 -0.0013913092 0.005815323 -0.0009779485 0.0019775406 -0.00060592615
-0.0015352948 -0.0012176866 -0.004413018 0.0035210408 0.0071720826 -0.0032728545 -0.0003918395 0.001400724
0.000786458 -0.002885405 0.0079015065 0.0068961848 0.0047352957 -0.0055653583 0.0042874105 0.004460056
-0.0040048896 -0.004966518 -0.006316385 -0.004393083 -0.00010870514 -0.0006849887 0.00091248745 0.0020446994
0.007765733 0.010691356 0.0014386852 -0.0003747588 -0.0014858478 0.0004769138 0.004804641 -0.0063987607
0.0027067352 0.0010888505 0.00086072064 0.0065304874 -0.009083434 2.070301e-05 -0.0027566915 0.0039170566
0.0011404938 -0.0017577171 -0.0043133204 0.0013139129 0.009231382 -0.0065300297 0.0012534835 0.004072119
0.00097337476 -0.0006075722 -0.0066256537 0.0047693676 0.0023853115 0.0071372553 -0.0036275222 9.9417244e-05
-0.0020831486 0.0005935959 -0.008044956 -0.0060393442 -0.0005086072 0.0010172096 -0.009950739 0.004222535
-0.0030880235 -0.0034151326 -0.00977682 0.0041257604 0.001477617 -0.0007808543 0.0022951122 -0.0050104125
0.0030308033 -0.0013056102 0.0023471478 -0.0029515056 0.0045164814 -0.00017113112 0.0019397644 6.551662e-05
-0.0038065752 0.0032683867 0.006516122 -0.003990266 0.0016571278 0.00083157077 -0.007763638 -0.00060062064
-0.0039998246 -0.004177113 0.009238098 0.0033401977 0.0013800433 -0.0065302434 0.0032239954 0.00402513
-0.0015719715 -0.00410355 0.00026746726 0.0048758537 0.0065982426 -0.0005443513 0.0041255504 0.000301247

network_body._body_endoder.seq_layers.4.weight f4 [256, 256]
00000000: fd22 e4bc 3a51 bf3d 0663 fabc 812a 0d3e
00000010: 90c1 37bd 13ff 263d 3941 a63d 45f5 78bd
00000020: ddfa bbbd 4099 563d 46c7 3dbd 5b55 273e
00000030: 4eb4 2b3d c3e7 04be ff7f 1dbd 8112 1e3d
00000040: c88f 5abc 27ba 50bb 46a3 fbbd d9b5 dcbd
00000050: 6737 3ebd 320a 383d bec2 5d3c 6f13 a6bc
00000060: 99ce 1f3d 63c6 cebd 671d f2bd 6e20 48ba
00000070: e1ac 03be 0dc5 813d 2e78 433d 65ce 3fbd
00000080: cc0b 1f3d da57 3f3c bd71 cc3d 0cab 383b
00000090: 5193 0c3d 7f05 3fbd ae7f a13d f960 80bc
000000a0: b68f a83d 2c62 efbb d9cb 9dbd a0f2 983d
000000b0: c4e6 8bbc 3553 1e3d 02dc ad3d 4bb2 383e
000000c0: f5b0 4bbd ebcc 47bd 01b1 64bd ee55 8bbd
000000d0: ba61 97bd 44a3 13be e89d 353c 6ae4 48bd
000000e0: ad20 b03d 8e5c cbbd d468 2e3d 12ff 1f3d
000000f0: 981f 3bbe 7dcb 99bd 65ed fa3d cd72 053d
00000100: 8e00 afbd cbed 153c 97fa 103d 7aaf b03b
00000110: 971a 60bd 51ed 463b b332 c83c 07ad 073d
00000120: fed3 443d bbe1 0e3e 3f1e 54bd 6ec1 8cbc
00000130: 24e4 543d b13b 16bd 4833 28bd d3f8 4bbd
00000140: 9bd1 5dbd beca 54bd 019f 813c 718b eebd
00000150: 623c 28bd 4f5f 4bbd 7766 cd3b d03b 59bd
00000160: db15 54bd 9a69 04bc 586c 8c3c e8cb cd3d
00000170: 1e5e 24bb 4919 cd3d d746 e53a e448 05bd
00000180: 45fa ae3d 53a2 0c3d 2bb8 03bc 0f29 89bd
00000190: b76d 76bd 4bbf 6e3d 46b9 16bd 992c 3a3c
000001a0: e7c3 843c a0d8 dc3d 85b2 023d f909 b13d
000001b0: 2f18 5a3d 16d8 dbbd ba7e 9d3c 761b 523c
000001c0: 3444 ba3d deb3 333d 85ba 633d e148 a4bb
000001d0: 8fac 743b 6eb8 56bc ee8a 873c 9925 403c
000001e0: ce0b 3c3d d307 483d ae0a bb3b 70fe 3b3c
000001f0: 7231 e8bd 1cbf 11bd ec46 29bd 60ac b7bc
00000200: 795c be3b 221c 423d a424 67bd 3d17 0b3d
00000210: 67e0 af3d 33bf f3bc 4b4f 99bc 1ea2 6f3d
00000220: 6cd4 3b3c 11a3 a7bd d39b 3f3a 1390 3bbd
00000230: 86bd f3bb 7650 163e c857 62bd 4b60 2ebd
00000240: 080d 753a c1a2 4aba 440b 4b3d 088e 17bc
00000250: e5a6 aabd 1bbd 6abd 5a46 7e3c 43bd 02bc
00000260: 8987 5abd 064d 79bd 3a9e 10ba 8028 3e3c
00000270: cffc 31bc 5832 bd3b 034b 09bd ac02 18bd
00000280: dac9 64bd 9348 95bd c432 423c 3d6d 24be
00000290: 08cb 93bd a21d 5f3d 289c 553d 7095 333b
000002a0: 801c 6fbd c4b9 c03c 40f6 04bd bc18 863d
000002b0: 6ce9 c0bd f86a 6d3d 5785 00ba c71a 943c
000002c0: b628 a33d c785 a7bb 6d0c 593d 1223 95bc
000002d0: 8dda 8dbb 1d44 393c a5c6 43bd 708a c4bd
000002e0: d8a3 aa3d e855 aebd 3fad c3bd 2dc3 743b
000002f0: a4d2 19bd ac2d b13d b8d6 633d 72b7 273a
00000300: 6300 50bd 8b07 633d 1340 813d fa3b cfbd
00000310: 1055 0d3e 73fe f2bc 5422 52bc b63c 8bbd
00000320: 371a 8a3c 21e5 80bc cea9 113d b457 503c
00000330: c443 1c3d f942 30bd 38b3 983d d795 893d
00000340: 8a8d 4cbd 480f 933d 09d4 a63d a2d5 bc3d
00000350: 7da7 533d 9205 debc b92c 123d 61e4 57bc
00000360: 7976 bf3d 7106 b8bd 62a7 bcbd f155 623d
00000370: 604a 9b3d eb32 01bd 354e bfbd bebf fbbb
00000380: 8979 ee3b 1667 f6bc 01ec 2b3d a48d f13d
00000390: 2e31 3dbd 54ef 773d 7cff 6b3d 327f cabc
000003a0: 6a9b ee3b b82b e7bc a38a 973c 4ac2 333d
000003b0: 930d c4bd 1d6a 75bc aadd 65bc 804a 83bd
000003c0: 32a4 d83b 749e 483c bfd1 05bd d0c2 5cbc
000003d0: cc41 75bd 46f1 9abd a71e cd3d b55f dcbd
000003e0: 474b e53d 974c 25bd feed cd3d 85bf d5bd
000003f0: 3ac9 833c 31fc 923d 3f0a e6bc 49c6 0abd
-0.027848715 0.093416646 -0.030564796 0.13785745 -0.04486233 0.0407706 0.08117909 -0.060780782
-0.09178708 0.052392244 -0.04633262 0.16341154 0.04192 -0.12979035 -0.038452145 0.038591865
-0.013339944 -0.0031849237 -0.12287001 -0.10776872 -0.046439555 0.044931598 0.0135352 -0.020272939
0.039015386 -0.10096433 -0.11822014 -0.0007634227 -0.12858917 0.063364126 0.047722034 -0.046827693
0.03882961 0.01167866 0.09982631 0.0028178124 0.03432018 -0.0466361 0.07885681 -0.01567124
0.08230536 -0.007305404 -0.077048965 0.07468152 -0.017077811 0.03865357 0.08489229 0.18036763
-0.049729306 -0.04877941 -0.055832867 -0.06803499 -0.07391687 -0.1441775 0.011085011 -0.049045958
0.085999824 -0.09929763 0.04258044 0.039061613 -0.18273771 -0.075095154 0.12252311 0.032580186
-0.08545028 0.009150933 0.03539523 0.005392012 -0.054712858 0.0030353854 0.024438238 0.033123996
0.048053734 0.13953297 -0.051786657 -0.017182078 0.051975384 -0.03667802 -0.04106453 -0.049797844
-0.054154973 -0.051951163 0.01582289 -0.1164769 -0.04107321 -0.04965144 0.0062683183 -0.053035557
-0.051778655 -0.008081818 0.017141506 0.10048658 -0.0025080512 0.100145884 0.0017492425 -0.032540217
0.08543829 0.034334492 -0.0080395145 -0.066972844 -0.060163226 0.0582879 -0.036797784 0.011363172
0.016206695 0.107835054 0.03190853 0.0864448 0.05324572 -0.107345745 0.019225467 0.01282393
0.0909504 0.043872707 0.0555978 -0.0050135707 0.0037334298 -0.013105495 0.016545739 0.011727714
0.045909695 0.048835587 0.00570806 0.011474237 -0.11337556 -0.035582647 -0.041327402 -0.022421062
0.0058093634 0.04739011 -0.056431428 0.03395771 0.08587723 -0.029754257 -0.018714568 0.058504216
0.01146422 -0.08185399 0.00073092914 -0.045791697 -0.0074383644 0.14679131 -0.055259496 -0.0425723
0.000934795 -0.00077299407 0.04957129 -0.0092501715 -0.08332614 -0.05730925 0.015519703 -0.007979694
-0.053351913 -0.06086447 -0.00055167417 0.011606336 -0.010863497 0.0057738237 -0.033518802 -0.037111923
-0.055856563 -0.07289233 0.011852924 -0.16057296 -0.072164595 0.05447162 0.052150875 0.0027402304
-0.05837679 0.02352608 -0.032461405 0.065476865 -0.09419522 0.05796334 -0.00049026817 0.018079175
0.07966749 -0.005112383 0.052990366 -0.0182052 -0.004329032 0.011307743 -0.047796864 -0.09596717
0.08332032 -0.08512479 -0.095545284 0.003734778 -0.0375544 0.08651289 0.055624694 0.000639788
-0.05078162 0.055427115 0.06311049 -0.101188615 0.1380198 -0.029662346 -0.012825567 -0.06798689
0.016858203 -0.015734257 0.03556233 0.012716223 0.038150564 -0.04303262 0.07456058 0.06718033
-0.04993967 0.07180649 0.08145911 0.09220435 0.0516734 -0.027102266 0.035687182 -0.013177008
0.09348769 -0.089856036 -0.09211613 0.05525774 0.07582545 -0.0315427 -0.09341089 -0.0076827696
0.0072776717 -0.030078452 0.041973118 0.11794594 -0.04618948 0.060530975 0.057616696 -0.024718855
0.0072817104 -0.028219089 0.018498724 0.04388646 -0.095729016 -0.014978913 -0.0140299 -0.06410694
0.0066113705 0.012244809 -0.032670733 -0.013474181 -0.059877202 -0.075655505 0.10015612 -0.10760442
0.11195999 -0.040356245 0.10055159 -0.1043692 0.016087163 0.07177008 -0.028081058 -0.033880506

network_body._body_endoder.seq_layers.4.bias f4 [256]
00000000: 2cce 153c c1cd cfbb fa37 c7bb 1e9e 523b
00000010: 0bdf adbb 46ff 833b f5ea 103c c22d 353b
00000020: e040 1b3b 2bb5 9f3b c530 fdbb 31c3 70bb
00000030: fcd7 d6bb f1cf 663b 008f b8b9 12fa fabb
00000040: 73ba 703b b5ce b5bb 645e 5638 ba62 f93b
00000050: 7de6 e739 5a53 daba 68b3 04bc 9267 f7b9
00000060: cea1 d93b 27a8 51ba 87cc aa39 e2e7 343b
00000070: a28c 7e3b 3629 8b3b adf3 cfba 8598 373a
00000080: 2480 91bb e433 953b 92b0 373b 7f62 103b
00000090: d998 af3b dd20 5a3b d134 d03b fc4a 22bb
000000a0: 9376 bcb9 bbb9 a83b 63a4 2a3a af5d 99bb
000000b0: bb1d 143c 3d81 dabb 5e06 5abb d94b 1ebb
000000c0: 05d1 f5ba 2e3e 97bb 9d86 dd39 0d9c 553b
000000d0: 9b2b a53b 2341 e43b 1077 3e3b 5bda 5fbb
000000e0: 2a79 18bc 0844 9c3b d7db 933b b9a8 abbb
000000f0: 867f 583b fb18 b13b f89b af3b 38b9 c3bb
00000100: 15c9 fa3b 229b 09bb 10e4 3ebb c87b bcbb
00000110: 9638 bf3a 7acd 963b 433d 753b a3ca acbb
00000120: fa1e 823b 8719 d6bb 5e93 a23b a66e b43a
00000130: 8974 aabb 4e3e d2bb 58e7 e9bb 9397 f2bb
00000140: f897 1c3b 0326 ab38 8881 103b e6a4 2d3b
00000150: 2ba0 813b d90e ee3a 9862 0dbc 7f5b adba
00000160: 851e 963b c53a faba e005 19bb 9fce 0d3b
00000170: 823f d8b7 ecae bfbb 0881 4bba a5c9 ca3b
00000180: 3213 d73b 2016 f63b ee51 a53b 7c20 6c39
00000190: ae21 153a 3cb2 c03a a519 c0bb 8b19 ff3b
000001a0: cca2 a53a cd67 1c3b f857 d8bb 8ab0 1e3b
000001b0: 5ecc 34bb f0fb aa3b c97b ea3b 9527 d53a
000001c0: 1b70 ebbb 5b5e 28bb 8c15 e9b9 e9d6 713b
000001d0: 63e8 c8bb 4503 3dbb e195 2fbb e32c 8db9
000001e0: 7e29 e5ba dc91 c1bb ce15 f23a 9774 543b
000001f0: 351c b43a 87bc 2cb9 b995 f0bb 584e f23a
00000200: 55ea c23b f7aa 0f3b 34f8 88bb f928 dcbb
00000210: da6a 9e3a 0ed8 03bc 4b94 02bc 6c25 c9bb
00000220: 3a82 033b b5bf 813b 1809 f8bb 5255 bdbb
00000230: bf74 7dba d84b 9aba 19b7 86bb 6e0c 973b
00000240: 557a 1a3b 9d7c 79bb fe87 d2ba d686 ac3b
00000250: fb9c 97bb a014 2a3b f4ff d03a 0c26 863b
00000260: 59bb f13b e78f d6bb 27e8 e9bb 9ca3 a2bb
00000270: 7e7f ea3b 4018 5839 e3f0 8f3b ab0a a43b
00000280: 4be1 9eba 2b67 df3a d760 d3bb b98b 833b
00000290: 9976 1bbc 7e1a ac3a 044c b3b9 f6fe 743b
000002a0: a7d2 693b 5840 c7bb edca a33b e526 3d3b
000002b0: 9541 94bb c63a 28bb 8165 f2ba a0f6 c6bb
000002c0: 569b c3ba a249 02bc 1d9e f73a 6ddf e2ba
000002d0: e514 f5b8 62c0 933b feaf eb38 e5b6 02bc
000002e0: 9f43 c13b d2c8 dd3a 65ca a33a ec7f 8bbb
000002f0: 401a acbb 0b0e 863b 84bb e6bb 4bc7 0dbb
00000300: be08 8bbb 57d4 d7bb 0b4c b439 e29a 58bb
00000310: cecb 70bb 7391 a73b 1631 4dbb f4f4 d4ba
00000320: a8d3 15bc 93b8 da3b 9a8e 843b 10c6 ef3b
00000330: f0df eb3a 1a35 e53a 8dbd dabb 8b3e b23b
00000340: d385 7e3b e755 373b 7157 0f3b 01cc 2d3a
00000350: b492 67bb a3f2 cbbb 24db cb3b 237e 283b
00000360: f320 853b 0eeb d4bb 79f7 9cbb 1d4c bcbb
00000370: 987d 203c 173d a43b 25c9 b83b b613 6abb
00000380: a9b2 6e3b af4c 73bb 81ac 54bb a22f 983a
00000390: ea64 c73b 7086 f3bb e25c 233b a2bd bd3b
000003a0: 9b18 f1bb 76fb ab3b 4312 f13b b467 d53b
000003b0: f0c3 383b f74e 1ebb 9434 cdbb b835 55bb
000003c0: 1ef4 debb ddc2 9b3b bd3c 5a3a 0a3c aeba
000003d0: e73c 553b adf0 213b 1b4b b33b fdf7 5cbb
000003e0: a7c7 82bb 9df1 0e3a 4194 d73a c529 553b
000003f0: ce2d 0ab9 8ae1 d9b9 1814 e5bb 9815 bcbb
0.0091433935 -0.0063416664 -0.006079671 0.0032137702 -0.00530613 0.0040282337 0.008845081 0.0027645682
0.0023689792 0.004873892 -0.007726761 -0.0036737437 -0.006556509 0.0035219158 -0.00035201758 -0.0076592052
0.0036732226 -0.005548323 5.1109484e-05 0.007610646 0.0004423148 -0.0016656921 -0.008099414 -0.00047188677
0.006641603 -0.0007997774 0.00032577312 0.0027604033 0.0038841148 0.004246856 -0.0015865468 0.0007003623
-0.0044403244 0.004553305 0.0028028828 0.0022031364 0.005358797 0.0033283748 0.0063539525 -0.0024763932
-0.000359465 0.005149094 0.0006509481 -0.0046803574 0.009040291 -0.0066682384 -0.0033267955 -0.0024154095
-0.0018754309 -0.0046155667 0.000422527 0.0032594234 0.0050405986 0.0069657727 0.0029062666 -0.003415725
-0.0093062315 0.004768852 0.004512291 -0.005238619 0.0033034994 0.005404589 0.005359169 -0.0059730075
0.0076533654 -0.0020997007 -0.0029127635 -0.0057520606 0.0014589007 0.0046021314 0.0037420548 -0.0052731796
0.003970978 -0.006533805 0.004961415 0.0013765886 -0.0052018804 -0.0064161187 -0.007138174 -0.007403323
0.0023894291 8.160996e-05 0.0022049863 0.0026495992 0.003955861 0.0018162384 -0.008629464 -0.001322612
0.004581275 -0.0019091001 -0.002334945 0.0021638048 -2.577878e-05 -0.0058497097 -0.00077630626 0.0061885887
0.0065635676 0.0075099617 0.005045167 0.00022518815 0.00056889176 0.0014701555 -0.005862432 0.0077850274
0.0012637018 0.002386558 -0.0066022836 0.0024214112 -0.0027587633 0.0052180216 0.0071558696 0.0016262407
-0.007184995 -0.0025691006 -0.00044457277 0.0036901778 -0.0061312183 -0.002884106 -0.0026792216 -0.0002692706
-0.0017483679 -0.0059072804 0.0018469633 0.0032418126 0.0013741317 -0.0001647343 -0.007342067 0.0018486483
0.0059483447 0.0021921971 -0.0041799787 -0.0067187515 0.0012086288 -0.008047117 -0.007969926 -0.0061384942
0.0020066635 0.003959621 -0.0075694434 -0.0057779932 -0.00096685806 -0.0011771871 -0.0041111824 0.004609636
0.002357145 -0.003806866 -0.0016062257 0.005265097 -0.004626868 0.0025952235 0.0015945421 0.004093891
0.00737707 -0.006547916 -0.0071382704 -0.0049633514 0.0071563115 0.00020608399 0.0043927296 0.0050061545
-0.0012121586 0.0017044296 -0.006450753 0.004014459 -0.009488725 0.0013130454 -0.00034198177 0.0037383414
0.0035678537 -0.0060806684 0.004998556 0.0028862294 -0.0045244195 -0.0025669797 -0.0018493385 -0.0060718805
-0.0014923613 -0.007952126 0.0018891726 -0.0017309018 -0.00011686402 0.004509018 0.00011238454 -0.007978176
0.0058979536 0.0016920811 0.0012496231 -0.004257193 -0.0052521527 0.0040910295 -0.0070413966 -0.002163368
-0.0042429855 -0.006586592 0.00034388932 -0.0033051302 -0.003674257 0.0051137744 -0.0031309775 -0.0016247318
-0.009144701 0.006674835 0.0040453197 0.007317312 0.0017995816 0.0017487139 -0.0066754282 0.0054395846
0.003883709 0.0027974786 0.0021872187 0.0006629825 -0.0035335245 -0.006223993 0.006221192 0.002570995
0.0040627657 -0.0064977473 -0.004790243 -0.005746378 0.009795569 0.0050121653 0.0056392127 -0.0035717315
0.0036422408 -0.0037124564 -0.0032451453 0.0011610875 0.006085028 -0.0074317977 0.0024927189 0.0057904283
-0.0073576695 0.0052484823 0.0073569133 0.0065126065 0.002819296 -0.0024155953 -0.0062623713 -0.003253324
-0.0068040034 0.004753454 0.0008325091 -0.001329304 0.0032537521 0.0024710104 0.0054715998 -0.0033717148
-0.0039910856 0.00054528733 0.0016447381 0.0032526117 -0.00013177769 -0.00041557505 -0.0069909208 -0.005739879

action_model._continuous_distribution.log_sigma f4 [1, 2]
00000000: 95a7 2abc 6a6a 0eba
-0.010415931 -0.0005432727

action_model._continuous_distribution.mu.weight f4 [2, 256]
00000000: 7266 393c 26f3 b8bb e295 00bc a144 f83b
00000010: e5ec 0c38 1b96 f837 3db1 a73c 4066 8e3c
00000020: 1327 c23c 25c5 61bc aff3 3ebc a524 afbc
00000030: 51e7 19bc e8bb 81bc b970 46bc faec 93bc
00000040: 6019 bc3c ece3 bbbb 17a9 17bd 7de2 6e3c
00000050: f6e9 643a 3ca3 4a3c 8d13 99bb 5953 78bb
00000060: 3389 d93c 2e48 043c d938 c13b 2198 4d3c
00000070: 6abd 05bc c4e0 6b3c cde2 7dbc b2a3 1cbd
00000080: 7662 3dbc 240c 7e3c b57a 5e3c fdf1 1abc
00000090: 34bc 473c d2ee 35bb 7580 1f3b 33db 163c
000000a0: 298a 9fbb 59d1 5dbc b0f7 83bc f701 263c
000000b0: 1075 333a 8e62 92bc 357e 5fbc 5f15 d73b
000000c0: 222a c3bc dbaa 7cba 41f2 39bc 1d77 b63c
000000d0: bf1a 823c 0e52 4dbb 063f ec3a 4d23 a4bc
000000e0: 7284 a8bc fa9f d73b 7568 13bc 4739 a4bc
000000f0: a12e 7abb 755d 933b 4d24 c0bb 3cf9 c1ba
00000100: d91b 0b3c 7095 1ebd 8b3f 193c e8f3 d4bc
00000110: d7a3 173c 2954 683c 7f88 d6bb e37a 87bb
00000120: 7b2a 043c a148 e5bb e620 d63c bb05 873c
00000130: 333a 64bc 5fde beba 5678 03bc 3fff efbb
00000140: 819f 8cbc a775 19bb b0b5 053c 78c3 f43a
00000150: 2e5c 0d3d 134c 41bc bea2 26bb 5a9b b23b
00000160: 6bbe 1fbb f53e b5bb 96eb 80bc e39c 15bc
00000170: 6286 96bc 5357 8fbc 9522 8139 73b1 7bbc
00000180: 98b8 fd3b de3f 3fba 2a97 4dbc 8fc3 983b
00000190: 8b3e 3b3c 757b 5c3c f43c 0bbc 4172 343c
000001a0: 1600 833c b312 183c aa0d 0d3b 3cba 873c
000001b0: 4abb 19bc 7038 3b3a c301 e13c 8d33 64ba
000001c0: ae35 58bb c2cd 84bc 42a5 9cbc 7a8a 8b3c
000001d0: 77e6 b93a 9302 83bc 9949 d6bb 8155 3bbc
000001e0: 7317 95bc 14d3 aebb 65d3 43bc 9aa4 8a3b
000001f0: 5089 093c ac7d 7a3c 5e98 843a 950e 29bc
00000200: dbd1 0a3d be8c 613c ded7 01bc 7216 94bc
00000210: def5 45bc b7ec 4ebc 392e 00bc 828a 87bb
00000220: 550b 883c f65a ea3c 967b c1bb f6e5 15bb
00000230: 18f3 b43a 141e 54bc 7346 c6bc 43ed 04bd
00000240: e23d 44bc 0bdc b6bc 55c9 c43a 4c64 753c
00000250: c08a bebb 35c3 c13a 44e6 d9bc 2cce b83c
00000260: 3df1 b63b 50aa 68bc 908d 97bc 1c82 6cbb
00000270: e491 7e3c 524a 01bd 328c 933c 769b 233b
00000280: fd55 c43b cfcc 703c 8f18 7ebb 3a91 58bc
00000290: 021f 6abb fea1 11bb cf56 e6bb eef0 cd3c
000002a0: 5a6f febb 8c89 03bd 14ea 1bbb 0530 46bc
000002b0: d63b 57bb 9f38 cd3b c3dd 75bb 9f76 06bc
000002c0: 3cf7 e13b 33c9 8abb c71b 503c f307 f43b
000002d0: bf77 e5bc d7c8 d7b8 ed20 253c 959c a9bb
000002e0: ffac 503c 453a 7dbc 6e94 113c 0b03 b3bb
000002f0: bfb5 79bc 905d ce3a ed95 8dbb 5dac 1ebc
00000300: 7a84 813b 8a63 d839 9b71 6d3c dd37 aabc
00000310: 16c5 98bc 8c78 503c bccc d8bc 21cb 8b3b
00000320: 60a0 84bb dca9 a8ba 90ea 803c b0a0 d33b
00000330: 7e75 a73c af57 043d e043 0bbc c8ce 18bc
00000340: 80d1 6dbc e9ce 763c 3566 65bc c8c9 3e3c
00000350: 22c8 46bc e938 15bc bbad a73b ca6d cb3c
00000360: 357e 553c 92ad e4bc 00e0 9ebb 8efa 69bc
00000370: 31d7 1e3d 8273 823c 2e61 0c3d b0db 7abc
00000380: a50f dbbb 0236 0fbc 9c5b 623c b730 5e3c
00000390: b813 443b 6f6a 6bbb d42b 873c a0ee 813c
000003a0: 87ba 92bb a3c6 3ebc b229 c63b 7592 5a3c
000003b0: 90dd 57bc b482 a2bc 75e2 f4bb be0d 043b
000003c0: e41e 193b 543d ba3c 1ab8 623c 522c 0f3a
000003d0: f2f2 e8bb 7e33 803c 9fa5 ae3c e819 84bc
000003e0: 4aa6 333b 0a41 39bb c3cc 783c aeff ad3c
000003f0: 83fa e53b b3ce 463c 9515 cb3a c1e2 b1bb
0.011315929 -0.00564422 -0.007848235 0.0075765406 3.3599226e-05 2.9633802e-05 0.020470256 0.017382741
0.023700273 -0.013779913 -0.011654778 -0.021379778 -0.009393529 -0.015836671 -0.012111836 -0.018057335
0.022961318 -0.0057339575 -0.03702649 0.014580366 0.00087323727 0.01236802 -0.00467152 -0.0037891476
0.02655468 0.00807385 0.0058966693 0.012548477 -0.008162836 0.01439685 -0.015495968 -0.03824205
-0.011559119 0.015505824 0.01357906 -0.009457109 0.012190867 -0.0027760756 0.002433804 0.009207535
-0.004868765 -0.013538682 -0.016109318 0.010132304 0.0006845752 -0.01786926 -0.01364093 0.006563827
-0.023823801 -0.00096384966 -0.011349262 0.022273595 0.015881894 -0.0031329426 0.0018024154 -0.020036364
-0.020570967 0.00658035 -0.0089970725 -0.020046843 -0.0038174766 0.004497225 -0.0058637024 -0.0014799009
0.008490526 -0.038716733 0.009353529 -0.02599521 0.009255371 0.014180222 -0.0065470333 -0.0041345223
0.008066769 -0.0069971834 0.026138734 0.016482225 -0.013929891 -0.0014562121 -0.008024296 -0.007324129
-0.017165901 -0.0023416074 0.008160993 0.0018673977 0.034511738 -0.011797923 -0.0025426592 0.0054506483
-0.0024374973 -0.0055311867 -0.015737336 -0.009131643 -0.018374626 -0.017497694 0.00024630563 -0.015362131
0.0077429526 -0.0007295589 -0.012548247 0.0046619843 0.011428486 0.013457169 -0.008498419 0.011013568
0.015991252 0.009281802 0.0021523037 0.016568296 -0.009383032 0.0007141894 0.02746666 -0.00087051914
-0.003299098 -0.016211394 -0.01912177 0.017033804 0.0014183064 -0.015992438 -0.0065395352 -0.01143396
-0.018199658 -0.005335221 -0.011952256 0.004231048 0.008394554 0.015288752 0.001011621 -0.010318418
0.03389154 0.013766466 -0.007925002 -0.018077109 -0.012082545 -0.012629679 -0.00782352 -0.0041363845
0.016606966 0.028607827 -0.005904625 -0.0022872663 0.0013805358 -0.012946624 -0.024203515 -0.032452833
-0.011977645 -0.022321722 0.0015013615 0.014977526 -0.00581488 0.0014782908 -0.026599057 0.022559248
0.005582957 -0.014200762 -0.01850012 -0.0036088293 0.015537713 -0.031565018 0.018011186 0.0024964488
0.005991696 0.014697268 -0.0038771962 -0.013218218 -0.0035724049 -0.00222218 -0.0070293914 0.025139298
-0.007764739 -0.032113597 -0.0023790644 -0.01209641 -0.0032842061 0.0062628533 -0.0037516213 -0.008206992
0.0068959277 -0.0042354106 0.012701935 0.0074472367 -0.028011201 -0.00010289408 0.010078651 -0.0051761367
0.012736558 -0.015455787 0.008885486 -0.0054630092 -0.015241086 0.0015744437 -0.004320851 -0.009684649
0.00395256 0.00041272893 0.014492418 -0.02077859 -0.018648665 0.012724053 -0.026464812 0.004266158
-0.0040474385 -0.0012868005 0.015736848 0.0064583644 0.020441767 0.032310184 -0.008500069 -0.009326644
-0.014515281 0.01506398 -0.014001419 0.011644788 -0.012132676 -0.009107807 0.005117146 0.024832625
0.013030578 -0.027914796 -0.00484848 -0.014280928 0.03877944 0.015924219 0.034272365 -0.015311167
-0.0066852146 -0.008740904 0.013815787 0.013561419 0.002991898 -0.0035921594 0.016500391 0.015860856
-0.004477802 -0.011644038 0.006047451 0.013340582 -0.013175383 -0.019837715 -0.007473285 0.0020149793
0.002336436 0.022734322 0.013837839 0.00054616213 -0.0071090395 0.015649553 0.021319209 -0.016125634
0.0027412348 -0.0028267526 0.015185538 0.021240082 0.0070183887 0.012134242 0.0015494103 -0.0054286425

action_model._continuous_distribution.mu.bias f4 [2]
00000000: e12f 773b 7cbb ba3b
0.0037717747 0.0056986194

onnx::Div_56 f4 [11]
00000000: 99ff 2f3f 29f3 b73d 28ce 303f 456a 333f
00000010: c53b 1d3c d3dd 303f c694 363f 0b12 4b3d
00000020: 98b3 2e3f a96a 3e40 0d99 853e
0.68749386 0.08981926 0.6906457 0.7008403 0.00959677 0.69088477 0.7132076 0.049577754
0.6824279 2.97526 0.2609333
